results/DDPM/SEQ_LEN/21/model_final.pth (torch, 661767 bytes, 26 tensors)

layer_x.weight f4 [128, 53]
0.04882321 -0.03490615 0.07662055 -0.034658633 -0.025474885 -0.11930654 -0.05748648 0.13249439
0.046873827 0.0093455985 0.06326546 -0.11128203 0.004581943 0.002435587 -0.046334907 0.09072895
-0.10779123 0.07906313 0.13826755 -0.08603242 -0.041772973 -0.08414222 0.023365386 0.031239783
-0.11462289 0.14784418 -0.07479105 0.12222367 0.09003244 0.0121426815 -0.07682613 -0.06961778
-0.047871303 0.023364455 0.0073805344 0.113502234 0.09354943 -0.022035807 0.15098637 0.036575604
-0.027580034 0.0070815566 -0.061811376 0.0064430726 -0.008773533 -0.04127877 -0.14917456 0.14925866
-0.05740939 0.036967725 0.044166904 -0.040550977 -0.068760976 0.1267174 -0.12118128 -0.09526332
-0.037794404 -0.053846896 0.018413123 -0.042791042 -0.06653877 -0.15569817 -0.011887129 0.006811989
0.018720327 -0.092830256 0.009534598 0.06651326 0.07171224 0.13240676 -0.15414734 -0.02915008
0.17146073 -0.18953057 0.13288134 0.010227477 0.0571104 0.01565612 -0.0832261 0.12425402
0.10787828 -0.04622882 0.022584835 -0.029710589 0.07489367 -0.028146444 0.09244839 -0.02913069
0.10775791 0.049173646 -0.081349134 -0.018240115 -0.09143109 0.089998364 0.026510632 0.057736766
-0.02939931 -0.071987286 -0.018012831 -0.060750056 0.08337008 -0.13631116 0.12335184 -0.16165759
-0.011206502 0.095222555 -0.13562438 -0.12315146 -0.051853295 0.055302847 0.14176841 0.09723111
-0.14529102 0.12824747 0.07001789 -0.008497322 -0.18308131 0.10374472 0.12661746 0.085471325
-0.028061805 -0.12284728 0.052227892 0.07520664 -0.0881672 0.033693563 -0.053398866 -0.2054996
0.07734449 0.09368196 -0.0027673417 0.039751105 -0.00088880124 -0.027492274 0.06542396 -0.0514088
0.019527577 -0.08372327 -0.03773909 0.064202175 0.01142204 -0.06026592 0.03529088 -0.08309305
0.026677204 -0.002329716 0.041734572 0.20701762 0.093339585 -0.044487853 -0.04288296 -0.06664183
-0.057223972 0.08695685 -0.1795392 -0.07011988 -0.0432052 0.11833417 0.1108192 0.087334
0.013387225 -0.062026944 0.073431045 -0.114915535 -0.089618795 0.11952989 -0.11985701 0.026082648
0.044832032 0.04176347 -0.04240044 0.008632864 -0.17088772 0.052798044 0.092347346 -0.02457363
0.046907555 0.09636083 -0.010128333 -0.054869276 0.12219382 0.015282386 0.043454077 0.09379573
-0.08590123 -0.14271748 0.012033837 0.073843196 -0.040739443 -0.054496273 -0.10952511 -0.0094120195
-0.0070235003 -0.05156525 -0.1387416 0.016262097 0.026431998 0.074694484 0.11753595 -0.16051893
-0.16829644 -0.04011116 0.00058913755 0.0021413658 0.044259284 -0.0064722183 0.035500724 0.0681368
-0.05237135 -0.014154069 0.042849228 0.15156882 -0.033910688 0.03167908 -0.01826631 -0.0052308706
-0.06438226 0.02494497 -0.037378397 0.05074173 0.061723784 -0.25176057 0.04375537 0.016548408
0.068616465 0.03218049 -0.051629208 0.0075702923 -0.034856826 -0.06528327 -0.0058833966 0.006401957
-0.04074056 -0.023247583 0.027870802 -0.089245126 -0.04251471 -0.009515 -0.0014221683 0.031367585
0.05359738 0.14636335 -0.040202696 0.12686138 0.03490738 0.106685065 -0.07068998 -0.08942721
0.03951978 -0.0757369 0.007209078 -0.070823364 -0.10136827 0.1413344 0.096804075 -0.03308171
00000000: d9fa 473d c0f9 0ebd 3ceb 9c3d 36f6 0dbd
00000010: b5b0 d0bc fd56 f4bd f176 6bbd 9cac 073e
00000020: c5fe 3f3d 481e 193c 5291 813d d5e7 e3bd
00000030: 2024 963b 5f9e 1f3b acc9 3dbd 1ad0 b93d
00000040: a6c1 dcbd daeb a13d 0296 0d3e c431 b0bd
00000050: 231a 2bbd c252 acbd c468 bf3c 93ea ff3c
00000060: 68bf eabd 7764 173e 0d2c 99bd 6750 fa3d
00000070: ee62 b83d 19f2 463c 0557 9dbd c493 8ebd
00000080: b314 44bd d066 bf3c 69d8 f13b dc73 e83d
00000090: d896 bf3d 7084 b4bc 2c9c 1a3e 4dd0 153d
000000a0: 86ef e1bc 670c e83b ed2d 7dbd 6920 d33b
000000b0: ddbe 0fbc ed13 29bd 37c1 18be 43d7 183e
000000c0: 1c26 6bbd 786b 173d 5be8 343d c818 26bd
000000d0: 8ed2 8cbd 35c2 013e e42d f8bd 6a19 c3bd
000000e0: 4ece 1abd 908e 5cbd 1ed7 963c a945 2fbd
000000f0: 7b45 88bd 576f 1fbe 3cc2 42bc 1b37 df3b
00000100: 5f5b 993c ca1d bebd 0137 1c3c 1b38 883d
00000110: dedd 923d a395 073e cdd8 1dbe 26cc eebc
00000120: 6793 2f3e 4d14 42be 0c12 083e 2691 273c
00000130: 98ec 693d 4341 803c 7272 aabd e478 fe3d
00000140: 4aef dc3d 6e5a 3dbd d503 b93c 9f63 f3bc
00000150: da61 993d 5f93 e6bc 9555 bd3d 7ca3 eebc
00000160: 2eb0 dc3d 4e6a 493d 609a a6bd 4b6c 95bc
00000170: 3940 bbbd 1051 b83d d32c d93c 637d 6c3d
00000180: d2d6 f0bc 126e 93bd a58f 93bc 0dd5 78bd
00000190: efbd aa3d 2795 0bbe e49f fc3d 9189 25be
000001a0: 7a9b 37bc 0b04 c33d 1ee1 0abe d536 fcbd
000001b0: 1f64 54bd 3d85 623d bd2b 113e 1b21 c73d
000001c0: 2bc7 14be 4e53 033e 8a65 8f3d 5a38 0bbc
000001d0: ab79 3bbe 1d78 d43d 02a8 013e 970b af3d
000001e0: dfe1 e5bc 5b97 fbbd eaec 553d f005 9a3d
000001f0: 0191 b4bd 4302 0a3d c5b8 5abd 7d6e 52be
00000200: ca66 9e3d 54dc bf3d 4a5c 35bb 0ed2 223d
00000210: 71fe 68ba 7a37 e1bc fffc 853d 0992 52bd
00000220: 4cf8 9f3c 1b77 abbd 4e94 1abd 6e7c 833d
00000230: 8223 3b3c 66d9 76bd 2b8d 103d b02c aabd
00000240: 278a da3c 26ae 18bb dff1 2a3d 6dfc 533e
00000250: d328 bf3d e538 36bd 0ba6 2fbd 837b 88bd
00000260: af63 6abd 6f16 b23d 20d9 37be 039b 8fbd
00000270: f0f7 30bd 2f59 f23d 2df5 e23d 2bdc b23d
00000280: 1756 5b3c f70f 7ebd 0463 963d d658 ebbd
00000290: 0f8a b7bd 16cc f43d 9877 f5bd 47ab d53c
000002a0: cba1 373d 2c10 2b3d 15ac 2dbd db70 0d3c
000002b0: 31fd 2ebe c342 583d 9b20 bd3d a34e c9bc
000002c0: 2322 403d d458 c53d 4ff1 25bc 9bbe 60bd
000002d0: c140 fa3d f962 7a3c e7fc 313d fa17 c03d
000002e0: fcec afbd 8824 12be 9229 453c 1a3b 973d
000002f0: 67de 26bd 7c37 5fbd b34e e0bd df34 1abc
00000300: 6425 e6bb 1536 53bd 4712 0ebe 1738 853c
00000310: eb87 d83c 6cf9 983d b0b6 f03d 135f 24be
00000320: e755 2cbe 9a4b 24bd 5a70 1a3a 2856 0c3b
00000330: 3949 353d e714 d4bb 3569 113d 4e8b 8b3d
00000340: 5783 56bd 78e6 67bc ac82 2f3d db34 1b3e
00000350: efe5 0abd ecc1 013d 3ba3 95bc b967 abbb
00000360: d9da 83bd 6559 cc3c 171a 19bd 8fd6 4f3d
00000370: 14d2 7c3d c3e6 80be d538 333d 8790 873c
00000380: ca86 8c3d b1cf 033d 2679 53bd 3710 f83b
00000390: 08c6 0ebd 3cb3 85bd 82c9 c0bb 82c7 d13b
000003a0: 93df 26bd b771 bebc 4f51 e43c 26c6 b6bd
000003b0: e823 2ebd cde4 1bbc 0d68 baba 4c7b 003d
000003c0: ed88 5b3d 46e0 153e 95ab 24bd f3e7 013e
000003d0: 0afb 0e3d b37d da3d e9c5 90bd 9d25 b7bd
000003e0: 7edf 213d f31b 9bbd 213a ec3b d70b 91bd
000003f0: 2b9a cfbd f7b9 103e 3741 c63d b080 07bd

layer_x.bias f4 [128]
0.15694085 0.13418108 0.013491759 0.19487645 0.23612238 0.021377325 0.2386807 0.3382361
-0.08717542 0.16949843 0.19229494 0.2828688 0.10519824 0.07311088 0.28962404 0.119494446
0.18162997 0.22375861 0.25806284 0.2239289 0.16327879 0.20830072 0.21002215 0.247356
0.2680361 0.14444597 0.29776004 0.08790464 0.17517003 0.20089757 0.041044924 0.083603516
0.20170258 0.11561072 0.1071888 0.21168922 -0.0018573918 0.26506817 0.15716603 0.12623738
0.16647309 0.09345482 0.008753611 0.15819821 0.2240224 0.048522048 0.16551988 0.16908015
0.061854623 0.029505203 0.03956168 0.0034477022 0.11880238 0.05993742 0.22893439 0.29162195
-6.996699e-05 0.23159112 0.032952208 0.14059293 0.22476539 0.32940903 0.14791335 0.008393267
0.18624467 0.124807365 0.2275619 0.12875025 0.25403103 0.10169982 0.05120514 0.28725943
0.20640832 0.20667815 0.22482763 0.2813904 -0.001931181 0.110865295 0.23591505 0.16635142
0.041263387 0.22993751 0.2639942 0.23394063 0.21972436 0.0043309415 0.28676406 0.21702987
0.26152256 0.2868177 0.04660399 -0.048848853 0.2687227 0.21629594 0.23069233 0.28910813
0.21126722 0.17285092 -0.02509743 0.2610736 0.075693645 0.095347725 0.12821463 0.07546006
0.2648129 0.02644826 0.22395444 0.21466017 0.24624124 0.0549263 0.14491354 0.27041072
0.23932801 -0.023120144 0.037310366 0.20995559 0.19764464 0.25309446 0.17248422 0.12692535
0.0023645405 0.1514603 0.15595594 0.13799033 0.2598337 0.17585844 0.22593582 0.16908671
00000000: 1ab5 203e c466 093e 8a0c 5d3c b18d 473e
00000010: 11ca 713e 801f af3c b768 743e 482d ad3e
00000020: 0789 b2bd ff90 2d3e f7e8 443e 2ed4 903e
00000030: 2d72 d73d 28bb 953d 9a49 943e 81b9 f43d
00000040: 35fd 393e fa20 653e d020 843e 9e4d 653e
00000050: 8e32 273e c94c 553e 0c10 573e e44a 7d3e
00000060: 073c 893e a5e9 133e 0174 983e 5907 b43d
00000070: c65f 333e 18b8 4d3e b91e 283d 5238 ab3d
00000080: 1f8b 4e3e 50c5 ec3d cd85 db3d 0fc5 583e
00000090: ba73 f3ba 04b7 873e 22f0 203e 5f44 013e
000000a0: ec77 2a3e 3e65 bf3d 4e6b 0f3c b6fe 213e
000000b0: 2166 653e 0ebf 463d 0b7e 293e 5923 2d3e
000000c0: 465b 7d3d e5b4 f13c 6e0b 223d d8f2 613b
000000d0: aa4e f33d f180 753d c76d 6a3e 794f 953e
000000e0: 3ebb 92b8 3926 6d3e e5f8 063d 98f7 0f3e
000000f0: e628 663e 4da8 a83e 9976 173e ea83 093c
00000100: ecb6 3e3e 019b ff3d fd05 693e 1bd7 033e
00000110: 5b10 823e ff47 d03d 7bbc 513d ab13 933e
00000120: b45c 533e 70a3 533e 3739 663e 6712 903e
00000130: ae1f fdba 580d e33d b793 713e 0758 2a3e
00000140: cc03 293d bd74 6b3e 3f2a 873e 228e 6f3e
00000150: 6cff 603e 92ea 8d3b bdd2 923e 143d 5e3e
00000160: 49e6 853e c5d9 923e d3e3 3e3d bc15 48bd
00000170: 0696 893e af7c 5d3e 9c3a 6c3e fb05 943e
00000180: 6f56 583e d5ff 303e 2099 cdbc 70ab 853e
00000190: 4505 9b3d ab45 c33d b24a 033e ce8a 9a3d
000001a0: 8e95 873e 05aa d83c 5054 653e e0cf 5b3e
000001b0: aa26 7c3e 66fa 603d 3764 143e 4673 8a3e
000001c0: 6712 753e 7566 bdbc c1d2 183d 99fe 563e
000001d0: 5b63 4a3e 9995 813e b49f 303e b8f8 013e
000001e0: 68f6 1a3b 6918 1b3e eab2 1f3e 564d 0d3e
000001f0: ec08 853e 3c14 343e b85b 673e 1125 2d3e

layer_t_1.weight f4 [128, 128]
-0.05595873 0.050199464 0.031369157 -0.032936558 -0.051294472 -0.0147318775 0.038454466 0.04612685
-0.010766323 -0.042393766 -0.0033303048 0.0008964629 -0.0147029 -0.032186266 0.07540827 0.08979944
-0.04581517 0.052544 0.00672246 0.03230717 -0.031995818 -0.0670199 0.023585085 0.070961595
0.08377735 -0.045423843 -0.03912294 -0.0714825 0.0642861 -0.029833106 0.053854562 0.05168881
0.024047816 0.004515255 0.07064588 0.005037698 -0.08368679 -0.014043271 -0.0261247 0.07388744
0.029406736 0.04390548 -0.0061081047 -0.001429257 0.097689144 0.050818983 0.03705881 0.05013078
-0.04385215 -0.052503537 0.019379104 0.049812306 -0.07285881 0.0067118695 0.06895784 -0.07232399
-0.00337738 -0.16847892 -0.014809013 0.03664769 0.027083965 -0.008279873 -0.11710793 0.017534724
0.020436572 -0.06431349 -0.008664223 -0.016548367 0.06536581 0.10275989 -0.015396644 -0.009352418
0.047115866 -0.005270136 -0.04903286 -0.044267084 -0.045152035 0.08710352 -0.03491265 0.04414402
-0.06698237 -0.044192087 0.026556954 -0.025192037 0.05732878 -0.058081727 -0.0032426051 0.017333629
-0.0040757107 -0.040445063 0.05935621 0.008591044 -0.020542921 0.10761751 -0.08162107 0.030050566
-0.06623563 -0.062205028 0.060894594 -0.072287716 0.06232249 -0.07314139 0.021445723 0.051391162
0.026059322 0.012732085 0.052099865 -0.058343157 -0.10255339 -0.031042974 -0.033038184 0.026208624
0.050450537 0.08638371 -0.04517215 0.01398458 0.023358194 0.074247874 -0.011114722 -0.06439919
0.14709483 -0.023526844 0.045023583 0.035521038 0.095132194 -0.08241062 0.025621459 0.05812702
0.028112229 0.046596162 0.08985244 0.04697099 0.060031086 0.006927304 -0.051622752 -0.0037539962
0.06556476 -0.05050428 -0.043932576 -0.091625534 -0.046480693 -0.049045216 0.109810024 -0.08866702
-0.07301999 0.032057527 0.06845019 0.07095392 -0.09774259 -0.061277412 -0.027163466 -0.121471256
-0.045262467 -0.08001898 -0.0025864614 0.00052880886 0.10841124 0.004067605 -0.15082242 -0.056180812
0.06826377 -0.03711399 -0.00069742755 0.14514783 0.023028333 0.12893695 0.04386577 0.049052306
-0.0669284 -0.06596846 -0.121634394 0.07690526 -0.01243417 0.01198387 0.08776473 -0.1554261
-0.038400576 0.15412864 0.07104618 0.032401487 0.02023698 -0.0398473 0.05053145 0.083866365
-0.064240456 0.15065657 0.09351084 0.044904184 -0.05898506 -0.09507634 -0.06291072 0.14644746
0.028258502 0.0059008654 0.022321802 -0.10743552 -0.08344367 -0.01289737 0.044038177 -0.06722543
0.0887004 -0.0071748034 0.075824864 -0.030907113 0.086203344 -0.018758286 -0.014969977 -0.04897609
0.03483577 0.05309886 0.112632535 -0.067165226 -0.080985874 -0.102233 0.014842591 -0.043406148
0.0057246787 -0.06573967 -0.03345883 -0.0012113058 0.0054094405 -0.0049008103 0.06006515 -0.008765169
-0.031039042 0.07324868 -0.1016362 0.06658768 -0.119490094 -0.023698436 0.0073162895 0.018158682
-0.06751175 0.09831831 -0.10802607 0.071863174 -0.075303905 0.10361755 -0.10016316 0.07612951
0.0038585197 0.08206309 -0.005856017 0.022121435 -0.085189566 -0.0420045 0.00660081 0.019270638
-0.16854867 0.17592016 -0.12323646 -0.11461814 0.0866562 -0.09653111 0.12414693 0.050636407
00000000: fb34 65bd f49d 4d3d f27c 003d 7ce8 06bd
00000010: 271a 52bd f95d 71bc 6e82 1d3d 82ef 3c3d
00000020: 3b65 30bc 16a5 2dbd 3e41 5abb 9b00 6b3a
00000030: 6fe4 70bc bfd5 03bd a76f 9a3d c5e8 b73d
00000040: b0a8 3bbd 6138 573d 1548 dc3b 8654 043d
00000050: 0c0e 03bd bb41 89bd 8235 c13c 5054 913d
00000060: 7693 ab3d 5a0e 3abd 603f 20bd 6b65 92bd
00000070: 6ea8 833d 8f64 f4bc 9a96 5c3d a5b7 533d
00000080: edff c43c b4f4 933b caae 903d 4613 a53b
00000090: fb63 abbd bf15 66bc 7803 d6bc 4c52 973d
000000a0: 65e6 f03c 3cd6 333d 7f26 c8bb e855 bbba
000000b0: 3f11 c83d 9127 503d fbca 173d ef55 4d3d
000000c0: 509e 33bd f30d 57bd edc0 9e3c fd07 4c3d
000000d0: 0037 95bd 3eef db3b c539 8d3d 9a1e 94bd
000000e0: 0957 5dbb bd85 2cbe 81a1 72bc e31b 163d
000000f0: 31df dd3c 4ea8 07bc 48d6 efbd fba4 8f3c
00000100: 996a a73c cbb6 83bd 63f4 0dbc 7190 87bc
00000110: 83de 853d c773 d23d 3542 7cbc e23a 19bc
00000120: 91fc 403d 1bb1 acbb aed6 48bd 6751 35bd
00000130: 57f1 38bd 5563 b23d 9100 0fbd 5cd0 343d
00000140: 0e2e 89bd c302 35bd f88d d93c 885f cebc
00000150: 95d1 6a3d 1be7 6dbd e381 54bb 41ff 8d3c
00000160: 8a8d 85bb b9a9 25bd 7f1f 733d 73c1 0c3c
00000170: a149 a8bc 9266 dc3d f328 a7bd 9b2c f63c
00000180: 8ca6 87bd b3ca 7ebd 9c6c 793d 950b 94bd
00000190: de45 7f3d 27cb 95bd f1ae af3c 8a7f 523d
000001a0: 5c7a d53c 3c9a 503c ab66 553d 3cf9 6ebd
000001b0: 8307 d2bd d64d febc 0c53 07bd 78b3 d63c
000001c0: 39a5 4e3d f1e9 b03d 6f06 39bd 941f 653c
000001d0: af59 bf3c 450f 983d 861a 36bc b9e3 83bd
000001e0: 07a0 163e 5ebb c0bc a66a 383d 827e 113d
000001f0: abd4 c23d e6c6 a8bd 18e4 d13c 9916 6e3d
00000200: 9e4b e63c 9edb 3e3d 8e04 b83d a764 403d
00000210: 28e3 753d 70fe e23b 6172 53bd 9b05 76bb
00000220: d146 863d 93dd 4ebd a5f2 33bd 2ba6 bbbd
00000230: 8a62 3ebd a3e3 48bd 14e4 e03d 0e97 b5bd
00000240: 818b 95bd c14e 033d 9d2f 8c3d 4a50 913d
00000250: 442d c8bd 06fe 7abd eb85 debc ecc5 f8bd
00000260: 2365 39bd fee0 a3bd 9f81 29bb c39f 0a3a
00000270: b606 de3d 8b49 853b 3171 1abe da1d 66bd
00000280: e0cd 8b3d d704 18bd 92d3 36ba a2a1 143e
00000290: eaa5 bc3c 0c08 043e 98ac 333d 12eb 483d
000002a0: c211 89bd 791a 87bd 741b f9bd 8180 9d3d
000002b0: b0b8 4bbc fe57 443c ffbd b33d 0528 1fbe
000002c0: ec49 1dbd e6d3 1d3e a980 913d 6cb7 043d
000002d0: 06c8 a53c ec36 23bd 11fa 4e3d 21c2 ab3d
000002e0: 8090 83bd b745 1a3e 9c82 bf3d 73ed 373d
000002f0: 519a 71bd 62b7 c2bd 56d7 80bd 53f6 153e
00000300: 607e e73c 0c5c c13b 36dc b63c 2707 dcbd
00000310: 84e4 aabd 7e4f 53bc 6061 343d 7cad 89bd
00000320: 8ea8 b53d 9d1a ebbb 114a 9b3d ea30 fdbc
00000330: 618b b03d faaa 99bc a244 75bc 279b 48bd
00000340: f4af 0e3d 317e 593d e3ab e63d ec8d 89bd
00000350: ecdb a5bd 895f d1bd 572e 733c a5ca 31bd
00000360: 1696 bb3b 85a2 86bd 200c 09bd aec4 9eba
00000370: ad41 b13b fa96 a0bb e006 763d c99b 0fbc
00000380: 9745 febc 6703 963d a426 d0bd 1f5f 883d
00000390: 39b7 f4bd 3923 c2bc 7cbd ef3b 84c1 943c
000003a0: 9a43 8abd 1c5b c93d c63c ddbd 002d 933d
000003b0: ef38 9abd 7035 d43d 5822 cdbd cae9 9b3d
000003c0: 38df 7c3b b110 a83d d5e3 bfbb 0338 b53c
000003d0: de77 aebd e90c 2cbd 9c4b d83b 75dd 9d3c
000003e0: 0698 2cbe 6a24 343e 6663 fcbd eabc eabd
000003f0: ce78 b13d 1ab2 c5bd bf40 fe3d 1f68 4f3d

layer_t_1.bias f4 [128]
-0.029669458 -0.0440426 0.04771768 -0.013244006 0.11783622 -0.017315542 0.013539451 -0.022346983
0.04107107 -0.117771976 -0.06599837 -0.061456352 -0.106154576 0.022777854 0.07793402 -0.054828558
-0.057561647 -0.0017600085 -0.054275606 -0.0518269 -0.07063696 -0.024164982 -0.07627927 0.025038017
-0.099974506 0.054492585 -0.10164718 0.07501155 -0.12028414 -0.023151897 0.05213364 -0.063375056
-0.05423511 0.083655864 0.039400525 -0.033056606 0.015331879 -0.057811648 0.0017901233 -0.02514998
0.033744223 -0.06392787 -0.02987543 0.009388003 -0.064224534 0.083297595 0.016733913 -0.07263827
0.023884693 0.01855951 -0.01835276 0.045138128 0.08034868 -0.117120124 -0.009442385 0.011487528
0.07014722 0.026751844 -0.08018028 0.020524161 -0.0019090067 -0.016799565 -0.08319118 0.030892843
0.08056503 0.030442756 -0.012854215 -0.010843888 -0.075760014 -0.033990268 -0.035973348 -0.08085664
-0.023580607 0.012978304 -0.039224744 0.036055893 0.048997365 0.063136086 -0.11114255 -0.054750197
-0.10200436 -0.07770801 0.006171949 0.0010933813 0.0345494 -0.08308288 0.02941116 0.032164343
0.026889974 -0.06634113 -0.057940885 -0.021354431 0.01490104 0.009662138 0.010103381 -0.06901079
0.080088004 -0.0035732295 0.10407677 -0.023868266 -0.02754459 -0.051122263 -0.06808632 0.03400352
0.04046549 -0.059758935 -0.010579241 -0.08921398 0.04190107 -0.09966044 0.018293172 0.04012825
0.08629648 -0.049546394 0.001046948 0.045793135 0.08362849 0.07010443 0.025836656 -0.05182226
-0.009022054 -0.06577291 -0.084878765 0.012770949 0.014085389 -0.002340354 -0.044768084 -0.032842394
00000000: 5d0d f3bc 0366 34bd 9d73 433d 63fd 58bc
00000010: 1e54 f13d 53d9 8dbc 93d4 5d3c 0511 b7bc
00000020: 233a 283d 6f32 f1bd 272a 87bd a8b9 7bbd
00000030: 9267 d9bd 9f98 ba3c df9b 9f3d e993 60bd
00000040: c3c5 6bbd 16b0 e6ba 1950 5ebd 7248 54bd
00000050: 1caa 90bd a4f5 c5bc 4e38 9cbd 871c cd3c
00000060: 6fbf ccbd 9e33 5f3d 662c d0bd a89f 993d
00000070: 8857 f6bd 0ca9 bdbc 158a 553d c8ca 81bd
00000080: a225 5ebd c453 ab3d 7262 213d 5d66 07bd
00000090: 9032 7b3c e8cb 6cbd 92a2 ea3a 5507 cebc
000000a0: 6237 0a3d 9dec 82bd 51bd f4bc 23d0 193c
000000b0: 2788 83bd ee97 aa3d 8f15 893c 60c3 94bd
000000c0: d5a9 c33c 1d0a 983c 8758 96bc c2e2 383d
000000d0: d98d a43d addc efbd 3cb4 1abc 2f36 3c3c
000000e0: 58a9 8f3d af26 db3c 8f35 a4bd 4922 a83c
000000f0: a337 faba 3e9f 89bc 2360 aabd fd12 fd3c
00000100: 47ff a43d 1663 f93c 7c9a 52bc 90aa 31bc
00000110: 1128 9bbd 6139 0bbd ca58 13bd 2b98 a5bd
00000120: 1e2c c1bc f4a2 543c 20aa 20bd 58af 133d
00000130: 76b1 483d 7e4d 813d b59e e3bd be41 60bd
00000140: a9e7 d0bd 6125 9fbd 103e ca3b ca4f 8f3a
00000150: ac83 0d3d 5b27 aabd acef f03c c2be 033d
00000160: 5d48 dc3c dcdd 87bd 6c53 6dbd 7def aebc
00000170: 7e23 743c f24d 1e3c a788 253c 8755 8dbd
00000180: 2e05 a43d d82c 6abb 3426 d53d 6287 c3bc
00000190: 31a5 e1bc 9465 51bd d770 8bbd 4647 0b3d
000001a0: 24bf 253d c9c5 74bd 8e54 2dbc d2b5 b6bd
000001b0: 75a0 2b3d c61a ccbd 90db 953c 855d 243d
000001c0: 35bc b03d 29f1 4abd bf39 893a 9591 3b3d
000001d0: 6a45 ab3d e992 8f3d 65a7 d33c 9443 54bd
000001e0: 3dd1 13bc f3b3 86bd ebd4 adbd 3e3d 513c
000001f0: 67c6 663c a060 19bb bd5e 37bd bf85 06bd

layer_t_2.weight f4 [128, 128]
-0.098105825 0.10648688 0.11142821 0.026327804 0.04321687 0.05548107 -0.07118064 -0.058444876
0.052684687 -0.04802599 -0.03769357 0.11366962 -0.08668371 -0.031136904 0.036029883 0.01434838
-0.02465427 -0.050661508 0.086070105 0.07109964 -0.040164236 -0.08776347 -0.11120647 0.06944498
-0.033214185 0.0029576782 -0.0019936224 -0.03813116 0.03823357 -0.040444475 0.08745517 0.079789326
0.014804114 0.084173575 0.100631125 -0.02974751 0.13123508 0.075628296 0.014589517 -0.008824109
0.09351977 0.012744257 -0.07967737 0.044839516 0.053699397 0.04772562 0.05951019 -0.066247575
0.0624712 0.071080506 -0.0070837378 0.076932974 0.04643448 -0.05822016 0.09938367 0.016926397
0.025048548 0.11394929 -0.05800038 -0.016949823 -0.08414183 0.066738404 -0.077596985 0.031886
-0.02431238 -0.009590259 0.11561379 0.052501492 0.003984565 -0.04102549 0.036321644 -0.027654922
-0.12112135 0.09283462 0.03837708 -0.07754102 -0.029222611 0.05233655 -0.047245294 0.10076734
-0.093488045 0.08612142 0.05744348 -0.104002036 0.05409946 -0.18099475 0.07979623 -0.019815372
0.059060287 0.012269764 0.0073697176 0.063398264 -0.05610925 0.080725335 -0.026158188 -0.03382587
0.07104865 -0.0035647473 -0.00054549467 -0.043932296 0.063429765 -0.1528104 -0.037871674 0.06357584
-0.038443714 0.010209046 0.0066326554 -0.07534847 -0.00906846 -0.052310605 -0.067303084 0.0641711
-0.015699128 0.09795926 0.0057124184 0.10421846 -0.0026613642 0.064886905 0.02547927 0.028282009
-0.09993913 0.093621284 -0.07964784 0.07182722 -0.04069283 0.11243979 0.02705565 0.06454715
-0.07659392 -0.03459122 0.00082210003 0.039372876 0.07515274 0.0687258 -0.040498227 -0.004014825
0.04157917 -0.024537615 0.02575548 -0.017336484 0.029967973 0.006664736 0.080265224 0.024642643
0.043450397 0.029505458 0.10140359 0.01634635 0.090068065 0.017389229 -0.054634377 0.058421753
-0.029353362 0.004920495 0.07306975 -0.02964945 -0.0038674609 0.070435084 0.07490309 0.060370877
-0.026099365 -0.055201303 0.064704485 -0.03267212 0.03760418 0.08937393 -0.07733527 -0.04671535
-0.045369077 0.08182954 -0.07013112 0.017587697 0.0064646835 -0.029916385 -0.07279653 0.060715318
-0.06169344 -0.080926046 -0.0211634 -0.016806165 -0.10194496 -0.07571797 -0.0525484 -0.014356424
-0.0205473 -0.09285362 0.077483736 0.058229618 -0.052651774 0.05737313 0.008173699 -0.034911655
0.030162398 -0.03618725 0.0437098 0.03865533 -0.0013464617 0.035416756 -0.044210516 0.01970418
-0.033273827 0.05724682 -0.057290904 0.058220193 -0.058265086 -0.022980977 -0.030809222 0.05283545
-0.02482794 0.07145084 0.02948788 0.02812525 0.0066957027 -0.03277644 -0.04038906 -0.021936905
0.02229339 0.019005567 0.05193353 0.08918759 0.05016747 0.00782971 0.045202043 0.011180619
-0.03125073 -0.027785284 -0.044638112 -0.080152646 0.0778665 0.006035568 0.059428904 -0.088110775
-0.028677335 -0.044086374 0.068303816 0.044149134 0.067700416 0.0040446967 0.0517988 -0.046283957
-0.065812424 -0.007345378 0.12634955 0.020295393 0.0095602805 -0.016616553 -0.021609137 0.028296785
0.06523131 0.057741944 0.029302131 -0.03608749 0.030056704 -0.008416606 0.0026350415 -0.05830846
00000000: b5eb c8bd cb15 da3d 7934 e43d 68ad d73c
00000010: 2c04 313d 1e40 633d 28c7 91bd e563 6fbd
00000020: e6cb 573d e7b6 44bd 9364 1abd 9ecb e83d
00000030: 3b87 b1bd d212 ffbc 1294 133d 7815 6b3c
00000040: c0f7 c9bc 7182 4fbd 8645 b03d b09c 913d
00000050: 4183 24bd 56bd b3bd 38c0 e3bd 2b39 8e3d
00000060: 990b 08bd 9bd5 413b 6fa7 02bb 6b2f 1cbd
00000070: ce9a 1c3d 1ba9 25bd b21b b33d 9668 a33d
00000080: f48c 723c 3263 ac3d b117 ce3d 0db1 f3bc
00000090: 7d62 063e 02e3 9a3d df08 6f3c ff92 10bc
000000a0: 4b87 bf3d 4acd 503c e42d a3bd a4a9 373d
000000b0: e6f3 5b3d f17b 433d f5c0 733d cfac 87bd
000000c0: cde1 7f3d a892 913d b31e e8bb 098f 9d3d
000000d0: 1532 3e3d 4378 6ebd aa89 cb3d 3aa9 8a3c
000000e0: 9d32 cd3c 3f5e e93d ce91 6dbd 5bda 8abc
000000f0: 8d52 acbd 25ae 883d 2beb 9ebd e59a 023d
00000100: c22a c7bc 7620 1dbc ecc6 ec3d ce0b 573d
00000110: f490 823b 580a 28bd 01c6 143d 938c e2bc
00000120: 780e f8bd 1420 be3d 4931 1d3d d4cd 9ebd
00000130: 4264 efbc da5e 563d 4884 41bd 1b5f ce3d
00000140: a976 bfbd 6d60 b03d db49 6b3d 05ff d4bd
00000150: 6597 5d3d b056 39be 356c a33d d953 a2bc
00000160: 33e9 713d 1f07 493c ac7d f13b f3d6 813d
00000170: d0d2 65bd 5353 a53d b249 d6bc ff8c 0abd
00000180: f481 913d 899e 69bb 87ff 0eba 5af2 33bd
00000190: 77e7 813d 547a 1cbe 541f 1bbd 0d34 823d
000001a0: 2877 1dbd d843 273c bf56 d93b 4c50 9abd
000001b0: e193 14bc a543 56bd 33d6 89bd 236c 833d
000001c0: 759b 80bc dd9e c83d 3d2f bb3b 7d70 d53d
000001d0: 486a 2ebb 6de3 843d e7b9 d03c acaf e73c
000001e0: e3ac ccbd 84bc bf3d 681e a3bd 261a 933d
000001f0: 86ad 26bd d546 e63d cfa3 dd3c 4c31 843d
00000200: 46dd 9cbd 86af 0dbd 3382 573a 7445 213d
00000210: aee9 993d 1dc0 8c3d 78e1 25bd cb8e 83bb
00000220: eb4e 2a3d 1c03 c9bc 28fd d23c 3e05 8ebc
00000230: 657f f53c dc63 da3b 1862 a43d 5edf c93c
00000240: 0bf9 313d 6eb5 f13c afac cf3d c8e8 853c
00000250: 9b75 b83d db73 8e3c 4cc8 5fbd a64b 6f3d
00000260: 7676 f0bc 1b3c a13b 98a5 953d 67e3 f2bc
00000270: 3a75 7dbb 4540 903d cb66 993d 7447 773d
00000280: 56ce d5bc c31a 62bd c983 843d 33d3 05bd
00000290: d706 1a3d ae09 b73d f461 9ebd 9858 3fbd
000002a0: edd4 39bd 3f96 a73d e8a0 8fbd 1314 903c
000002b0: b2d5 d33b 3513 f5bc 5916 95bd a0b0 783d
000002c0: 43b2 7cbd 8ebc a5bd de5e adbc 15ad 89bc
000002d0: 85c8 d0bd 0612 9bbd fe3c 57bd 3537 6bbc
000002e0: d052 a8bc 0a2a bebd cbaf 9e3d 2e82 6e3d
000002f0: 63a9 57bd 1600 6b3d faea 053c 86ff 0ebd
00000300: 2217 f73c 1539 14bd 0c09 333d 0d55 1e3d
00000310: c27b b0ba 2911 113d 1616 35bd a96a a13c
00000320: 234a 08bd a47b 6a3d dea9 6abd 4c78 6e3d
00000330: 5fa7 6ebd 9a42 bcbc 9f63 fcbc fc69 583d
00000340: f763 cbbc d154 923d 9190 f13c ed66 e63c
00000350: a067 db3b 9740 06bd 006f 25bd 06b5 b3bc
00000360: a1a0 b63c 90b1 9b3c 41b8 543d fca7 b63d
00000370: 687c 4d3d 2f48 003c c725 393d ea2e 373c
00000380: c400 00bd f79d e3bc 74d6 36bd 1227 a4bd
00000390: 7978 9f3d 04c6 c53b b96b 733d 6c73 b4bd
000003a0: bbec eabc ea93 34bd dfe2 8b3d b9d5 343d
000003b0: 84a6 8a3d 6089 843b fa2a 543d 3f94 3dbd
000003c0: aac8 86bd 7fb1 f0bb c761 013e 8642 a63c
000003d0: b9a2 1c3c 701f 88bc a505 b1bc a9ce e73c
000003e0: fe97 853d d182 6c3d 060b f03c 7ad0 13bd
000003f0: 7a39 f63c cee5 09bc a9b0 2c3b dad4 6ebd

layer_t_2.bias f4 [128]
-0.032041907 -0.020024115 0.045920793 -0.07048425 -0.0074096164 -0.098486364 -0.12252815 -0.0026215948
-0.014004575 -0.07687574 -0.02176646 -0.04319537 -0.08970493 0.08915458 0.021723205 -0.0632119
-0.08242567 -0.110655084 -0.04393833 0.0041728765 0.032722637 -0.09034977 -0.09523103 0.017621987
-0.06351139 -0.016440462 0.0056266706 0.06659434 -0.09308367 0.0002452784 0.0070313346 0.009911247
-0.067059256 -0.110222414 -0.08653026 -0.12730396 -0.01678012 -0.031853553 0.00022582537 0.07823497
-0.027191376 -0.030023845 -0.066546276 0.004197798 -0.07401092 -0.042148545 -0.08270757 -0.06925299
-0.021019908 -0.00512205 -0.03456933 -0.10584353 -0.048170518 0.017418584 -0.10784278 -0.03131552
-0.006735062 -0.034861464 0.01885722 -0.02601294 -0.13886538 -0.10000384 -0.059175286 0.0038114511
-0.0053040893 -0.077880554 -0.073883116 0.0120001165 0.020291789 -0.10335687 0.01907485 -0.14966425
-0.06911818 -0.054408256 -0.11919634 -0.021473108 -0.07215925 0.0010564466 0.005137254 -0.08834922
0.0055679656 -0.08922309 -0.07055624 -0.0023493152 -0.08316775 -0.06873225 -0.13471621 0.01776422
-0.13652869 -0.048618242 -0.0006892195 -0.014591938 -0.015831923 0.016448729 -0.059710465 0.0020483262
-0.088698015 0.029069163 -0.012241144 -0.13800718 0.0052929996 0.029703291 0.05571726 -0.0044385716
-0.13896891 -0.055117678 -0.01785684 -0.027597 -0.09699126 -0.05782446 0.045647103 -0.10129414
-0.027749777 -0.0147493575 -0.00060181064 0.002895098 -0.08816646 -0.051941723 0.05601769 -0.08009401
0.068946965 0.025329519 0.0027451161 0.04345471 -0.089976646 -0.035262253 -0.041689713 0.019159682
00000000: 603e 03bd 9d09 a4bc 7117 3c3d 0c5a 90bd
00000010: 5ecc f2bb 38b3 c9bd 0af0 fabd 10cf 2bbb
00000020: 7273 65bc 0771 9dbd 934f b2bc a1ed 30bd
00000030: 38b7 b7bd ad96 b63d ddf4 b13c 3e75 81bd
00000040: cace a8bd 229f e2bd aef8 33bd a0bc 883b
00000050: 2c08 063d 4d09 b9bd 7c08 c3bd fc5b 903c
00000060: 4212 82bd 26ae 86bc ef5f b83b 9d62 883d
00000070: a7a2 bebd b698 8039 1c67 e63b c862 223c
00000080: 5d56 89bd 4abc e1bd c736 b1bd f85b 02be
00000090: 7676 89bc df78 02bd 89cb 6c39 a839 a03d
000000a0: 73c0 debc 91f4 f5bc 6a49 88bd af8d 893b
000000b0: 0a93 97bd f4a3 2cbd 9662 a9bd 83d4 8dbd
000000c0: f131 acbc dfd6 a7bb 9298 0dbd 7ec4 d8bd
000000d0: 734e 45bd 6bb1 8e3c addc dcbd b444 00bd
000000e0: ccb1 dcbb e5ca 0ebd 757a 9a3c 1719 d5bc
000000f0: ba32 0ebe d0ce ccbd c961 72bd 8ac9 793b
00000100: edcd adbb d77f 9fbd 0850 97bd 239c 443c
00000110: f73a a63c c4ac d3bd dc42 9c3c 9641 19be
00000120: d58d 8dbd 31db 5ebd 361d f4bd 5fe8 afbc
00000130: 3bc8 93bd 7778 8a3a 6956 a83b 70f0 b4bd
00000140: 7b73 b63b 98ba b6bd ca7f 90bd f8f6 19bb
00000150: da53 aabd 7ec3 8cbd 0cf3 09be 4586 913c
00000160: 2dce 0bbe ec23 47bd bdac 34ba 0613 6fbc
00000170: f3b1 81bc 7cbf 863c f692 74bd 363d 063b
00000180: 4ea7 b5bd 7422 ee3c 148f 48bc c151 0dbe
00000190: e670 ad3b 5154 f33c c837 643d 7071 91bb
000001a0: de4d 0ebe 13c3 61bd 8248 92bc 1b13 e2bc
000001b0: 5ba3 c6bd 57d9 6cbd 75f8 3a3d 4d73 cfbd
000001c0: 8053 e3bc 4aa7 71bc d4c2 1dba afbb 3d3b
000001d0: 9e90 b4bd d8c0 54bd ce72 653d 5408 a4bd
000001e0: 1134 8d3d da7f cf3c 68e7 333b 91fd 313d
000001f0: ad45 b8bd 276f 10bd d5c2 2abd c4f4 9c3c

layer_out_1.weight f4 [128, 128]
-0.06284498 0.020252982 0.10101042 0.027706452 -0.07784132 0.018018432 0.025911156 0.022517748
-0.015007513 0.025530495 0.018792175 -0.09611962 0.11484985 0.01651053 0.022118933 0.02137236
0.02913959 0.002870989 -0.028903846 0.09157035 0.017097972 0.018955456 0.038546983 -0.027421705
0.08966265 -0.09015127 0.04991258 -0.05687194 -0.024975067 -0.056513865 0.047375415 -0.110096104
-0.092229985 -0.041887626 -0.05955314 -0.05152456 -0.024650253 -0.11590807 -0.07405782 0.020728858
0.09490354 0.07616309 0.018602572 -0.039037943 -0.025149489 0.02153754 0.07432133 -0.05658213
0.0046511735 -0.04995911 -0.022982098 -0.04146931 -0.06980563 0.028793506 0.03632932 0.09340786
-0.06356505 0.051286444 -0.057989147 0.018830793 0.085660085 -0.0078528635 -0.09272499 -0.039765522
0.040172137 -0.10854511 -0.012843332 -0.029081745 0.09245152 0.028794978 -0.019298162 -0.09463108
-0.030566065 -0.02834786 0.040163368 -0.065271765 -0.026358165 -0.047655433 0.048404694 0.005073893
0.13389654 -0.078673184 -0.044824257 0.019471534 -0.031900182 0.010672631 0.07595669 0.113107696
0.06668575 0.067275666 -0.0015930325 -0.02458329 -0.019399265 -0.060120087 -0.023319146 -0.07146619
0.0473386 0.040235344 -0.01870617 0.022374453 -0.031494223 -0.087263644 -0.059243627 -0.0034656923
-0.013991569 -0.0033963348 0.021481138 -0.00018751467 0.02152676 -0.0029877147 0.034078166 0.021395752
0.024722017 0.014546179 0.02496172 -0.033070464 0.10707429 -0.031201266 0.036618493 0.09373902
0.052020747 -0.019718261 0.012332304 0.017692022 -0.006294269 -0.12795143 -0.088080615 -0.04299554
0.08964506 -0.120401405 0.011732886 0.021794416 -0.0054906555 -0.088574864 0.10211776 0.036487795
-0.050849132 0.05619914 -0.09326771 0.045192532 -0.05845751 0.035269316 -0.05198017 -0.016124295
-0.02213308 -0.049846746 0.0478906 -0.011409689 0.029844621 0.011872361 0.08087074 0.0019489944
0.1112089 0.033343986 -0.060808983 -0.03069241 -0.053512607 0.024264164 -0.025816197 -0.035160434
-0.0510661 -0.017607357 0.021738479 -0.007001422 -0.024274789 -0.04425706 0.027977558 0.05047463
-0.060875036 -0.062050436 0.037685573 0.106848456 0.01616444 0.0393931 -0.09081067 0.028357072
0.02463228 -0.063174635 -0.034161676 -0.0016465521 0.06804593 -0.0121500585 -0.075557075 -0.04607191
-0.026439443 -0.09020763 -0.027603595 -0.0014204928 -0.06041523 -0.032327674 -0.000909037 -0.029909018
-0.07480795 -0.06673889 -0.051676515 0.024029372 -0.079223655 0.08144224 -0.028759269 0.055416014
0.006963804 0.07547714 0.029050274 -0.096134216 0.038139198 -0.078554705 -0.031124974 0.022016894
0.11781206 0.061734486 -0.066420875 -0.030925676 -0.08982685 -0.06732335 0.022583138 0.049602255
0.025385644 -0.025748555 0.0065426445 0.031550206 0.0015780315 -0.0702805 -0.07431095 0.05167977
-0.017496498 0.0974234 0.023755249 0.06897757 -0.1055441 0.056067187 -0.13204195 -0.07375523
-0.11940044 -0.037547186 0.068419546 0.12183873 -0.033865478 0.08716709 -0.03516196 -0.038489398
-0.087867625 -0.008820022 0.105055824 -0.07152668 0.009819841 0.01727016 -0.035363473 0.01610086
-0.03653478 -0.025053384 0.06803405 -0.05852116 -0.057112295 -0.08404824 0.06729792 -0.043831516
00000000: deb4 80bd 95e9 a53c 8dde ce3d a4f8 e23c
00000010: 456b 9fbd 649b 933c a243 d43c 2477 b83c
00000020: 12e2 75bc 5425 d13c 0cf2 993c 5dda c4bd
00000030: 6636 eb3d 1741 873c c432 b53c 1615 af3c
00000040: 26b6 ee3c 3427 3c3b c2c7 ecbc 3c89 bb3d
00000050: 0c11 8c3c 7948 9b3c 71e3 1d3d 7ca3 e0bc
00000060: 0da1 b73d 3ba1 b8bd 2271 4c3d 8df2 68bd
00000070: 8398 ccbc 157b 67bd b90c 423d 117a e1bd
00000080: 13e3 bcbd 5c92 2bbd feed 73bd 6b0b 53bd
00000090: 54ef c9bc 3661 edbd a0ab 97bd 91cf a93c
000000a0: ca5c c23d 65fb 9b3d 6c64 983c 40e6 1fbd
000000b0: 4d06 cebc 7f6f b03c c835 983d aac2 67bd
000000c0: df68 983b eca1 4cbd f444 bcbc b9db 29bd
000000d0: 41f6 8ebd 5ce0 eb3c 0ece 143d 9f4c bf3d
000000e0: 652e 82bd bc11 523d 0786 6dbd 0943 9a3c
000000f0: 8e6e af3d 4ca9 00bc 99e6 bdbd 2ce1 22bd
00000100: 8a8b 243d e64c debd d76c 52bc d73c eebc
00000110: 3957 bd3d 72e3 eb3c 2e17 9ebc f1cd c1bd
00000120: af65 fabc c539 e8bc 5882 243d 34ad 85bd
00000130: 14ed d7bc 5832 43bd 0044 463d e642 a63b
00000140: 2d1c 093e 681f a1bd a499 37bd c482 9f3c
00000150: c4a9 02bd 42dc 2e3c 2e8f 9b3d 02a5 e73d
00000160: 8a92 883d d3c7 893d 4dcd d0ba e562 c9bc
00000170: 35eb 9ebc 7b40 76bd cb07 bfbc de5c 92bd
00000180: 1fe6 413d d1cd 243d af3d 99bc a14a b73c
00000190: 1600 01bd 48b7 b2bd 72a9 72bd ab20 63bb
000001a0: e53c 65bc 0b95 5ebb 36f9 af3c 969f 44b9
000001b0: e358 b03c 89cd 43bb 8c95 0b3d 2546 af3c
000001c0: d485 ca3c 1953 6e3c 857c cc3c e574 07bd
000001d0: c449 db3d cc99 ffbc 46fd 153d 3efa bf3d
000001e0: b513 553d 3188 a1bc 6f0d 4a3c dcee 903c
000001f0: 2840 cebb b305 03be 9c63 b4bd 171c 30bd
00000200: d497 b73d 0395 f6bd 4a3b 403c 348a b23c
00000210: f5ea b3bb bd66 b5bd 1e23 d13d 3a74 153d
00000220: 2e47 50bd 1231 663d 2403 bfbd ce1b 393d
00000230: 2471 6fbd 8f76 103d 29e9 54bd 1917 84bc
00000240: 6f50 b5bc 1a2c 4cbd ef28 443d b4ef 3abc
00000250: b57c f43c 4b84 423c 8f9f a53d 6675 ff3a
00000260: 7ec1 e33d b493 083d d712 79bd a66e fbbc
00000270: 0930 5bbd a4c5 c63c 7d7c d3bc 6304 10bd
00000280: b02a 51bd 4e3d 90bc e514 b23c 2f6c e5bb
00000290: ecdb c6bc e446 35bd 3131 e53c 7cbe 4e3d
000002a0: 1a58 79bd 9928 7ebd 305c 1a3d 5dd3 da3d
000002b0: 4a6b 843c a95a 213d f2fa b9bd 174d e83c
000002c0: a3c9 c93c b461 81bd 1ded 0bbd 1fd1 d7ba
000002d0: aa5b 8b3d 0a11 47bc abbd 9abd e6b5 3cbd
000002e0: 8897 d8bc c7be b8bd ef20 e2bc d42f baba
000002f0: f675 77bd 066a 04bd 714c 6eba c203 f5bc
00000300: e934 99bd 66ae 88bd c1aa 53bd 3fd9 c43c
00000310: 0340 a2bd 30cb a63d 8f98 ebbc e7fb 623d
00000320: 9f30 e43b c293 9a3d d7fa ed3c 04e2 c4bd
00000330: d937 1c3d 4ae1 a0bd cdf9 febc c65c b43c
00000340: 7347 f13d 4ddd 7c3d ab07 88bd d857 fdbc
00000350: 24f7 b7bd d3e0 89bd 4600 b93c bc2b 4b3d
00000360: 8ef5 cf3c a2ee d2bc ae63 d63b ca3a 013d
00000370: f3d5 ce3a 39ef 8fbd 5730 98bd 2bae 533d
00000380: d154 8fbc eb85 c73d 5e9a c23c 1d44 8d3d
00000390: 8127 d8bd b5a6 653d 0136 07be fb0c 97bd
000003a0: 3888 f4bd 14cb 19bd 8c1f 8c3d 9686 f93d
000003b0: 87b6 0abd a984 b23d fd05 10bd 0fa7 1dbd
000003c0: f1f3 b3bd db81 10bc 8227 d73d 947c 92bd
000003d0: 66e3 203c 277a 8d3c 4ad9 10bd f3e5 833c
000003e0: 7ea5 15bd c13c cdbc 7055 8b3d e2b3 6fbd
000003f0: 95ee 69bd 7c21 acbd 7ed3 893d ad88 33bd

layer_out_1.bias f4 [128]
0.04324772 -0.047358893 0.09246154 0.034020264 0.08977762 -0.0075661447 0.08259215 -0.089452356
0.09600266 -0.025388071 0.0065092165 0.049741726 0.07443911 -0.017949102 0.0071451482 0.06438863
0.08749591 -0.06239319 -0.06483491 0.09099048 0.028313212 0.067791164 0.07341952 0.0122099025
-0.0008224879 -0.07149651 -0.009831233 0.021183837 -0.029105635 0.100994974 0.0038661808 -0.0005949889
-0.043099336 -0.0012065149 -0.04474488 0.038809758 -0.01629553 0.084141 0.048570737 0.004122176
0.024703788 0.08236071 -0.029427502 -0.018336777 0.12584417 -0.06971518 -0.019980535 0.012251004
-0.04719782 -0.015627792 0.033542946 -0.0965368 0.012997763 -0.0050184433 -0.013571968 0.008515687
0.0011075672 0.06652574 -0.075335145 -0.028457893 0.03820656 -0.06599105 -0.015511328 0.031878546
0.060732 0.019280327 0.031902652 -0.06763373 0.07874643 0.061774325 -0.013061782 0.065152
-0.016653007 -0.042938896 0.06380502 0.032307144 -0.035667695 -0.01493859 -0.05352079 0.014484427
0.06142332 0.05498618 0.07424913 -0.031485006 0.007832844 -0.00934637 0.0031623417 0.022215042
-0.07136816 -0.064967245 0.007185368 0.11435155 0.055243183 0.0115293395 0.01652052 0.03273409
-0.06282132 0.06722145 0.06327027 -0.016215509 0.020205783 0.07974997 0.08540769 0.036924873
0.0009533641 -0.05287621 0.017174056 0.07380382 -0.04102378 0.060659558 -0.033617023 -0.09129645
2.7240942e-05 0.02405623 0.05700068 0.10503318 0.06830531 0.09090946 -0.033527475 0.0728411
-0.03557829 0.0010934739 -0.014157758 -0.0033758185 -0.010361391 0.08480047 0.08867477 0.04368571
00000000: 8524 313d 66fb 41bd 7a5c bd3d d558 0b3d
00000010: 54dd b73d 6ced f7bb 1326 a93d cc32 b7bd
00000020: 0b9d c43d a5fa cfbc 444b d53b fbbd 4b3d
00000030: 8873 983d ff09 93bc d921 ea3b 30de 833d
00000040: 0e31 b33d 0090 7fbd 2ac8 84bd 3759 ba3d
00000050: 1cf1 e73c 18d6 8a3d f95c 963d 0b0c 483c
00000060: 3b9c 57ba c36c 92bd 2e13 21bc ba89 ad3c
00000070: f16e eebc 74d6 ce3d c05f 7d3b 07f9 1bba
00000080: ee88 30bd ec23 9eba 6846 37bd fbf6 1e3d
00000090: 347e 85bc 1e52 ac3d 1cf2 463d 5213 873b
000000a0: 995f ca3c bbac a83d f211 f1bc 0237 96bc
000000b0: 4bdd 003e d5c6 8ebd 38ae a3bc 6fb8 483c
000000c0: 8052 41bd db05 80bc 5464 093d 16b5 c5bd
000000d0: 92f4 543c c171 a4bb f65c 5ebc 6185 0b3c
000000e0: ca2b 913a a63e 883d 5049 9abd 8720 e9bc
000000f0: 7b7e 1c3d 5126 87bd 3a23 7ebc 1493 023d
00000100: 1ec2 783d c7f1 9d3c 5bac 023d 8e83 8abd
00000110: cf45 a13d 1307 7d3d 1601 56bc 696e 853d
00000120: e36b 88bc b2e0 2fbd 35ac 823d 7f54 043d
00000130: 4a18 12bd fdc0 74bc 9e38 5bbd 1750 6d3c
00000140: 0597 7b3d 3039 613d ee0f 983d 6cf6 00bd
00000150: 5455 003c 8421 19bc 4a3f 4f3b 52fc b53c
00000160: 7829 92bd 8c0d 85bd 3c73 eb3b 2531 ea3d
00000170: ad46 623d 8ee5 3c3c 0b56 873c 2e14 063d
00000180: 77a8 80bd 66ab 893d d893 813d 63d6 84bc
00000190: 9986 a53c f453 a33d 3aea ae3d 893e 173d
000001a0: 2feb 793a ba94 58bd 9bb0 8c3c 7526 973d
000001b0: 8d08 28bd 2876 783d 01b2 09bd a2f9 babd
000001c0: 7a83 e437 9211 c53c 8c79 693d a31b d73d
000001d0: a8e3 8b3d bd2e ba3d 1b54 09bd b72d 953d
000001e0: 8aba 11bd e552 8f3a f1f5 67bc d63c 5dbb
000001f0: d3c2 29bc deab ad3d 1e9b b53d c9ef 323d

layer_out_2.weight f4 [53, 128]
0.026797459 -0.0021942134 0.070671745 0.1047598 -0.021940174 -0.0025313217 0.024242932 0.025574556
0.06626693 0.011338918 0.07627776 -0.05929424 -0.00902505 0.052148003 -0.011865627 0.01659075
-0.14648022 0.08933588 -0.0939189 -0.12338967 0.023825932 -0.05702029 0.012171498 0.0010863382
0.04102965 -0.1556645 0.04837538 0.06622453 -0.0134863295 0.016780682 -0.07567509 -0.015583837
0.10477801 -0.1067426 0.019286297 -0.08008026 0.045247372 -0.12431389 0.022607667 -0.010560003
0.021224232 0.05386083 0.0710365 -0.022827474 0.0066603785 0.004590643 -0.03416929 -0.0651592
-0.030523552 -0.014791821 -0.058973335 -0.052536607 -0.110823244 0.0052401675 0.05323736 0.01843731
-0.1031149 0.020146025 0.08332483 0.029012747 0.0052457135 -0.02548187 0.023313547 -0.043668814
-0.09761019 0.03371799 0.05146548 -0.046354014 -0.010322897 -0.093370445 -0.012939626 0.056877542
0.061225094 -0.026947647 -0.038374376 -0.08830421 -0.024339864 -0.041777637 -0.0020149392 0.01836602
-0.029566253 0.03486149 -0.06353162 -0.0054235333 0.040013246 0.059580427 0.08425516 0.013577859
0.0199336 0.008997135 -0.055555485 0.07560832 -0.038271777 -0.046450857 -0.09301565 0.034611236
0.015607777 0.052293383 -0.008993804 0.031351395 -0.004624224 -0.06328905 -0.046743307 0.009703048
0.011563079 0.025096375 0.024786884 -0.009756075 0.027668068 0.022086868 -0.012928845 -0.051402204
0.077679634 0.05699677 -0.016567618 -0.038585894 0.024578562 0.047737237 0.0053315214 0.11606291
-0.017580392 -0.01905136 0.03490523 -0.014918441 -0.004331275 -0.026654765 -0.0041585155 0.04282658
-0.13795136 -0.05767449 0.009254084 0.004091916 -0.046230596 -0.088761106 0.09069218 0.09008255
-0.077122174 0.02091406 0.036982495 -0.05238795 -0.024150223 0.07820819 0.029915499 0.095708594
-0.070469506 -0.085235946 -0.043578673 -0.08103506 0.037066527 0.006694273 0.041657053 -0.0015366027
-0.019063948 -0.012729747 0.0041314694 0.0048961905 0.06782607 0.044157974 -0.046207096 0.023395222
-0.1160303 0.038760312 -0.044916905 0.02143073 0.017993389 0.011313562 0.053601794 -0.004034468
0.043994468 0.03248546 0.043455496 -0.011341917 0.09437976 0.036285445 -0.012884913 -0.06478177
0.07830402 0.043850154 0.08698135 0.021403324 -0.029038677 -0.032333676 0.06629657 -0.06369841
0.022812126 0.012490251 -0.03239347 -0.08380452 0.01021987 -0.066242345 -0.0766948 -0.024094805
0.0779017 0.052910693 -0.05684519 -0.042243462 0.10036778 -0.0052132383 -0.035698947 -0.043284807
-0.09029097 0.020006519 -0.08912323 -0.015344342 -0.01673091 -0.0022021858 0.08718898 -0.005480437
0.07511134 0.036898438 -0.06935817 -0.00089314015 0.015695944 -0.024879703 -0.0868415 0.0144781545
0.06408939 0.009150477 0.006055164 0.044676807 0.0394342 -0.07287174 0.0011636944 -0.039837707
0.008195035 -0.01181822 0.050057296 -0.060157362 -0.082769744 0.030696878 0.06886696 -0.043367863
-0.028904047 -0.035621423 -0.0042629587 0.030537775 0.0007155455 0.04937189 -0.053188294 -0.020170385
0.05027982 0.08177098 0.044397824 -0.051406 0.018619126 0.05420771 0.017761314 -0.03774309
-0.0024884273 0.06233398 -0.10963263 -0.00085967913 0.09480786 0.029074578 -0.08083941 0.023984428
00000000: 5886 db3c cbcc 0fbb 59bc 903d 4e8c d63d
00000010: e1bb b3bc 88e4 25bb 1d99 c63c bb81 d13c
00000020: f5b6 873d dec6 393c 8437 9c3d 84de 72bd
00000030: cedd 13bc 2599 553d 0c68 42bc 53e9 873c
00000040: e9fe 15be bbf5 b63d 8d58 c0bd b9b3 fcbd
00000050: 9a2e c33c 1c8e 69bd f66a 473c 7663 8e3a
00000060: b50e 283d 8466 1fbe 4325 463d baa0 873d
00000070: c4f5 5cbc a477 893c 8bfb 9abd 5a53 7fbc
00000080: da95 d63d dd9b dabd 4cfe 9d3c 1f01 a4bd
00000090: 4f55 393d 4898 febd b733 b93c dd03 2dbc
000000a0: 71de ad3c 2c9d 5c3d 967b 913d af00 bbbc
000000b0: 4e3f da3b 1b6d 963b 19f5 0bbd 3072 85bd
000000c0: 870c fabc 6559 72bc 068e 71bd a030 57bd
000000d0: 4cf7 e2bd b6b5 ab3b 6b0f 5a3d d709 973c
000000e0: e82d d3bd 4709 a53c 35a6 aa3d 24ac ed3c
000000f0: 3ce4 ab3b 5bbf d0bc 0dfc be3c 12de 32bd
00000100: dae7 c7bd e01b 0a3d 78cd 523d b5dd 3dbd
00000110: 5e21 29bc 0139 bfbd ba00 54bc 6df8 683d
00000120: 2ac7 7a3d 50c1 dcbc 732e 1dbd d6d8 b4bd
00000130: 6564 c7bc 071f 2bbd 120d 04bb 5674 963c
00000140: ed34 f2bc ecca 0e3d de1c 82bd e5b7 b1bb
00000150: eee4 233d 9b0a 743d f88d ac3d ab75 5e3c
00000160: ca4b a33c b868 133c 268e 63bd 89d8 9a3d
00000170: dec2 1cbd 4143 3ebd fd7e bebd 83c4 0d3d
00000180: c3b7 7f3c 9631 563d c05a 13bc 526a 003d
00000190: cd86 97bb b09d 81bd e975 3fbd 88f9 1e3c
000001a0: 1273 3d3c ea96 cd3c dd0d cb3c f2d7 1fbc
000001b0: 25a8 e23c 85ef b43c 82d3 53bc 1e8b 52bd
000001c0: 8016 9f3d 7275 693d d0b8 87bc 3e0c 1ebd
000001d0: fb58 c93c 1f88 433d 0bb4 ae3b 64b2 ed3d
000001e0: c104 90bc 9911 9cbc c9f8 0e3d 7a6c 74bc
000001f0: 5eed 8dbb 185b dabc 2844 88bb ed6a 2f3d
00000200: 1f43 0dbe 163c 6cbd 719e 173c 7b15 863b
00000210: 4b5c 3dbd 62c8 b5bd d2bc b93d 337d b83d
00000220: 3bf2 9dbd f653 ab3c f57a 173d bf94 56bd
00000230: b0d6 c5bc 9e2b a03d 5911 f53c de02 c43d
00000240: 5152 90bd 2f90 aebd 8d7f 32bd b6f5 a5bd
00000250: 12d3 173d a25b db3b 96a0 2a3d d567 c9ba
00000260: ff2b 9cbc 6e90 50bc 4761 873b 3970 a03b
00000270: 65e8 8a3d fede 343d a743 3dbd 56a7 bf3c
00000280: 4ba1 edbd 22c3 1e3d cafa 37bd 808f af3c
00000290: df66 933c 855c 393c 8e8d 5b3d 9233 84bb
000002a0: 8b33 343d 790f 053d 64fe 313d 73d3 39bc
000002b0: 2d4a c13d 0ca0 143d 3e1b 53bc 4eac 84bd
000002c0: dc5d a03d 389c 333d 4723 b23d 0656 af3c
000002d0: 85e2 edbc 5170 04bd 7fc6 873d 5074 82bd
000002e0: 7fe0 ba3c e9a3 4c3c 04af 04bd b4a1 abbd
000002f0: 3e71 273c 11aa 87bd 2a12 9dbd 7862 c5bc
00000300: ed8a 9f3d e2b8 583d 80d6 68bd 7b07 2dbd
00000310: 9f8d cd3d d0d3 aabb 0f39 12bd 694b 31bd
00000320: 79ea b8bd b6e4 a33c 3d86 b6bd d666 7bbc
00000330: 430f 89bc 8c52 10bb 2390 b23d 3d95 b3bb
00000340: f9d3 993d d122 173d a80b 8ebd 9f21 6aba
00000350: c894 803c 85d0 cbbc f5d9 b1bd c835 6d3c
00000360: 4c41 833d e2eb 153c 666a c63b 07ff 363d
00000370: c185 213d c73d 95bd 1b87 983a dd2c 23bd
00000380: 7844 063c 35a1 41bc e108 4d3d 9167 76bd
00000390: 2f83 a9bd 0578 fb3c 1f0a 8d3d 80a2 31bd
000003a0: 2ec8 ecbc c5e7 11bd 4ab0 8bbb 5b2a fa3c
000003b0: 7293 3b3a 2e3a 4a3d f8db 59bd 5d3c a5bc
000003c0: 36f2 4d3d 8b77 a73d 7eda 353d 198f 52bd
000003d0: 2387 983c e708 5e3d 2d80 913c 8098 1abd
000003e0: e214 23bb ea51 7f3d 1387 e0bd 175c 61ba
000003f0: a02a c23d cf2d ee3c 228f a5bd fe7a c43c

layer_out_2.bias f4 [53]
-0.0018695043 0.0010336583 -0.0043580965 0.006831124 -0.0035648937 -0.0037076825 -0.0021928516 2.5595888e-05
-0.0027542545 0.005340635 0.00048563984 0.005703817 0.0008518959 0.00057172816 0.0010337359 -0.008471389
0.0045215976 0.0030021665 -0.00048652227 0.0037339493 -0.0002423405 0.00065944693 0.0008948213 -0.008458112
-0.0061884196 0.0029077167 -0.0049671535 -0.00011294968 0.0011728447 -0.0015599172 -0.0021614146 0.0025514355
0.0042668865 -0.0039410032 -0.001387608 0.0051058293 0.0060719927 0.002387927 -0.0028765625 0.002809757
-0.004008564 -0.0069683427 -0.0035205144 -0.0004849039 0.0056006145 0.0040972987 -0.002480247 0.0021978705
0.0010519378 0.0002564045 0.006274574 0.00071213744 -0.0040665963
00000000: 280a f5ba d17b 873a 5dce 8ebb 9fd7 df3b
00000010: fea0 69bb 97fc 72bb f2b5 0fbb c0b6 d637
00000020: b980 34bb 7e00 af3b 7a9d fe39 16e7 ba3b
00000030: c451 5f3a 07e0 153a 6c7e 873a 95cb 0abc
00000040: e929 943b ffbf 443b ea13 ffb9 46b5 743b
00000050: c81c 7eb9 bcde 2c3a 7192 6a3a e593 0abc
00000060: 3ac8 cabb 648f 3e3b 81c3 a2bb 66df ecb8
00000070: 23ba 993a 2376 ccba 85a6 0dbb fc35 273b
00000080: 3dd1 8b3b 8823 81bb 66e0 b5ba cd4e a73b
00000090: 91f7 c63b c47e 1c3b b684 3cbb e623 383b
000000a0: 465a 83bb b256 e4bb 6eb8 66bb b33a feb9
000000b0: 5c85 b73b a242 863b a48b 22bb 260a 103b
000000c0: 2de1 893a 086e 8639 f19a cd3b bcae 3a3a
000000d0: 1541 85bb

residual_layers.0.layer_norm.weight f4 [128]
1.0276167 0.97653806 0.9369559 1.0125121 1.0529824 0.93466043 1.0407952 1.0776582
0.9148113 0.994804 1.0184317 1.0440763 0.96112084 0.9661033 1.0239038 0.9695233
0.9910929 0.99148494 1.0428007 1.0611825 1.0004994 0.9969162 1.0205697 1.043617
1.0073575 0.9642957 1.0545311 0.9444251 0.9738123 1.0228235 0.9642742 0.95653784
1.0188838 0.9867173 0.9564783 1.0266819 0.9521161 1.0722171 1.0256261 0.9674362
1.0023551 1.0078299 0.901861 0.98401046 1.0416477 0.9704665 0.9912272 1.0381929
0.9103435 0.93873405 0.95258534 0.96513754 0.983571 0.96654886 1.0236022 1.0793518
0.97076607 1.0055164 0.9421704 0.97021306 1.0100609 1.0586077 0.9975305 0.9626545
0.99724245 0.95517987 1.0504396 0.9950483 1.0400997 0.9536811 0.9513473 1.0549195
0.9865364 1.0279771 1.0064355 1.0662708 0.9298137 0.9646587 0.96389115 0.9650205
0.95722425 1.0900034 1.040897 0.99014795 1.0110772 0.95143116 1.026573 1.0070864
1.0169162 1.0970432 0.9617596 0.9232443 1.037978 1.0204157 0.9895807 1.0541737
1.0408669 0.9924505 0.9291623 1.0258265 0.9817223 0.9804508 0.97930187 0.9538278
1.0393944 0.9560862 1.0124598 0.98600084 1.0041538 0.95070165 1.0120524 1.0167623
0.99965185 0.9265758 0.9582229 1.0290445 0.9909164 1.0222958 0.983211 0.9535471
0.9368166 0.99097663 0.96039236 0.99363285 1.0628842 0.9953263 1.017725 0.97205335
00000000: f288 833f 66fe 793f 58dc 6f3f ff99 813f
00000010: 21c8 863f e845 6f3f c738 853f b4f0 893f
00000020: 1331 6a3f 7aab 7e3f f85b 823f 4ba4 853f
00000030: 040c 763f 8c52 773f 480f 833f ae32 783f
00000040: 44b8 7d3f f5d1 7d3f 7e7a 853f d4d4 873f
00000050: 5d10 803f e635 7f3f 07a2 823f 3e95 853f
00000060: 17f1 803f 15dc 763f e0fa 863f d8c5 713f
00000070: c34b 793f e1eb 823f adda 763f aadf 743f
00000080: c96a 823f 8199 7c3f c3db 743f 506a 833f
00000090: e1bd 733f 693e 893f b747 833f e6a9 773f
000000a0: 2c4d 803f 9200 813f 5de0 663f 1ce8 7b3f
000000b0: b654 853f 7e70 783f 11c1 7d3f 81e3 843f
000000c0: 460c 693f e050 703f a2dc 733f 4113 773f
000000d0: 4fcb 7b3f bf6f 773f 6605 833f 3328 8a3f
000000e0: 2084 783f c3b4 803f 1432 713f e25f 783f
000000f0: ad49 813f 7580 873f 295e 7f3f 8670 763f
00000100: 484b 7f3f ab86 743f ce74 863f 7cbb 7e3f
00000110: fd21 853f 7224 743f 7f8b 733f 9a07 873f
00000120: a68d 7c3f c194 833f e1d2 803f 907b 883f
00000130: 4508 6e3f dff3 763f 92c1 763f 950b 773f
00000140: a60c 753f 3b85 8b3f 1d3c 853f 567a 7d3f
00000150: fa6a 813f fe90 733f be66 833f 35e8 803f
00000160: 4f2a 823f e96b 8c3f e135 763f bd59 6c3f
00000170: 77dc 843f fb9c 823f 2955 7d3f 2aef 863f
00000180: 203b 853f 3c11 7e3f 95dd 6d3f 484e 833f
00000190: 2752 7b3f d3fe 7a3f 87b3 7a3f 0f2e 743f
000001a0: e00a 853f 11c2 743f 4898 813f 8d6a 7c3f
000001b0: 1d88 803f 2f61 733f ef8a 813f 4425 823f
000001c0: 2fe9 7f3f 1234 6d3f 194e 753f bbb7 833f
000001d0: b2ac 7d3f 97da 823f b7b3 7b3f aa1b 743f
000001e0: 36d3 6f3f a5b0 7d3f 46dc 753f b95e 7e3f
000001f0: 970c 883f b4cd 7e3f d044 823f 7dd8 783f
