results/DDPM/SEQ_LEN/21/model_final.pth (torch, 204551 bytes, 26 tensors)

layer_x.weight f4 [64, 53]
0	0xbe3bd41e	-0.18342635
1	0x3c92c2e3	0.017915195
2	0xbd1cc4f2	-0.03827376
3	0xbc8394ef	-0.016062228
4	0xbc96ec9b	-0.01842337
5	0xbd14b6ef	-0.03630727
6	0x3d4cc1ec	0.049989626
7	0xbbf58e7d	-0.0074937926
8	0x3dc2288b	0.09480389
9	0xbc00b4a8	-0.007855572
10	0xbd50e967	-0.05100384
11	0x3c9d1f7b	0.01918005
12	0xbb8a6daa	-0.0042244988
13	0x3dcc7d6b	0.09984859
14	0xbdb8d429	-0.09024841
15	0x3dd87df7	0.10570901
16	0x3d99abf4	0.075035006
17	0xbb58e166	-0.0033093332
18	0xbc2f4424	-0.010697398
19	0xbde9154f	-0.113810174
20	0x3aa9c7ec	0.0012953258
21	0xbd4548de	-0.048165195
22	0xbc8eb833	-0.017421817
23	0x3c31ce38	0.010852389
24	0xbcbf467d	-0.023349041
25	0x3d1908c0	0.03736186
26	0xbc1830df	-0.0092889955
27	0x3d6550ed	0.05598538
28	0x3ce734ff	0.028223513
29	0xbe19b9fd	-0.15012355
30	0xbd7a1e63	-0.061064135
31	0xbd633fff	-0.055480953
32	0x3d9a3e7b	0.075314485
33	0xbd2d08ae	-0.042244606
34	0xbd3365d5	-0.043798286
35	0xbe787f69	-0.24267353
36	0x3df46126	0.11932592
37	0x3def37a4	0.116805345
38	0xbd163fdb	-0.03668199
39	0x3b93fffc	0.0045165997
40	0xbd47dcb4	-0.048794463
41	0x3b9bf035	0.0047588595
42	0xbabf6146	-0.0014601133
43	0xbd804a69	-0.062641926
44	0xbbe6f3ba	-0.0070480974
45	0xbdcee4dc	-0.10102245
46	0xbe208735	-0.15676577
47	0x3e195876	0.14975151
48	0xbbb17a99	-0.005416226
49	0xbd6381d9	-0.055543754
50	0xbce29545	-0.027659068
51	0x3a8f5f10	0.0010938365
52	0x3e0a589d	0.13510366
53	0x3db23ef9	0.08703417
54	0xbcf5c453	-0.030000841
55	0xbd093248	-0.033495218
56	0xbc9e28d0	-0.01930657
57	0x3ac9ad09	0.0015386652
58	0xbd8d048b	-0.06885632
59	0xbd895f2d	-0.067076065
60	0xbc1298ee	-0.008947594
61	0x3d0662aa	0.032808937
62	0xbe0b3d78	-0.13597667
63	0xbcb0206e	-0.021499839
64	0x3c18794c	0.009306263
65	0xbd8690b4	-0.06570569
66	0xbcfca490	-0.030840188
67	0x3c7f0691	0.01556553
68	0x3df0e7ab	0.11762937
69	0xbe1608da	-0.14651814
70	0x3a9c9132	0.0011945127
71	0xbd0d9d37	-0.03457376
72	0xbdf6a620	-0.120434046
73	0x3c401e82	0.011726024
74	0xbd9d75eb	-0.07688507
75	0xbcaeeb8d	-0.021352554
76	0x3d03da29	0.032190476
77	0x3dc0b6f1	0.09409893
78	0x3d132fd1	0.035934273
79	0xbd45e1c4	-0.04831101
80	0xbd04b300	-0.03239727
81	0xbcfd4b14	-0.03091959
82	0x3d885d46	0.066584155
83	0x3d3a38d2	0.045464344
84	0xbc01ad46	-0.007914847
85	0xbd8ba414	-0.06818405
86	0xbcbdbe90	-0.023162156
87	0x3d7f323d	0.06230377
88	0x3dec2a49	0.11531503
89	0xbc4f5cfa	-0.012656445
90	0xbc23c948	-0.00999672
91	0x3bf1101d	0.007356657
92	0xbd66edca	-0.056379117
93	0xbb906fd7	-0.0044078636
94	0xbd9c5900	-0.07634163
95	0x3d189feb	0.037261885
96	0xbcd027c5	-0.025409589
97	0xbd9703b8	-0.07373756
98	0xbde709a7	-0.11281138
99	0x3c519b14	0.012793321
100	0xbe8996eb	-0.26872954
101	0x3e80a5e1	0.25126556
102	0xbc98f249	-0.018670218
103	0x3c0412b2	0.008061098
104	0x3db4c323	0.08826282
105	0xbbafcb04	-0.0053647775
106	0x3dbbc922	0.091692224
107	0x3d89cb06	0.06728177
108	0x3d3f6a4c	0.046732232
109	0x3d82fdca	0.06396063
110	0x3d99c541	0.07508326
111	0x3d809131	0.06277693
112	0x3daed93b	0.08537527
113	0x3d9c68c8	0.07637173
114	0x3e8e9354	0.27846777
115	0x3b038c99	0.0020072816
116	0x3df0b9a1	0.11754156
117	0x3d9ee0ab	0.07757696
118	0x3df6e94b	0.12056216
119	0x3da23f82	0.079222694
120	0x3de586ee	0.112073764
121	0x3dadd5d3	0.08488049
122	0x3ddc2559	0.10749311
123	0x3daa62b6	0.08319609
124	0x3d24a715	0.040198404
125	0x3d6a47cc	0.057197377
126	0x3defd992	0.1171142
127	0x3d588d90	0.05286938
128	0x3d962444	0.07331136
129	0x3d2f0ae1	0.042734984
130	0x3dd187db	0.102309905
131	0x3d8a11b2	0.06741656
132	0x3d8221f2	0.06354131
133	0x3d982179	0.074282594
134	0x3d83fcfb	0.064447366
135	0x3d1f051c	0.038823232
136	0x3ca82c41	0.020528914
137	0x3d402194	0.046907023
138	0x3e16d1f1	0.14728524
139	0x3d3cbb24	0.04607691
140	0x3dd38245	0.10327581
141	0x3e1ea189	0.15491308
142	0x3d8d5ba2	0.06902243
143	0x3dd5beb8	0.10436767
144	0x3dac4b6d	0.08412824
145	0x3ce84709	0.028354185
146	0x3df0e691	0.11762727
147	0x3d482698	0.04886493
148	0x3d64ef38	0.0558922
149	0x3da92afd	0.082601525
150	0x3d970854	0.07374635
151	0x3d9c4e43	0.07632115
152	0x3dd22c52	0.1026236
153	0xbb90564d	-0.004404819
154	0xbd21d210	-0.03950697
155	0x3d6ec9a0	0.058297753
156	0x3daac01a	0.08337422
157	0x3caaf807	0.020870222
158	0x3de9ff4a	0.11425646
159	0x3e082c43	0.13298135
160	0x3c5abefa	0.013351196
161	0x3e5d3204	0.2160111
162	0xbd56af6b	-0.052413385
163	0xbdb08d9e	-0.08620761
164	0x3ce71706	0.02820922
165	0x3e0d293a	0.13785258
166	0xbd64afd4	-0.055831745
167	0xbdfc6840	-0.123245716
168	0x3e5144f0	0.20436454
169	0xbd825582	-0.063639656
170	0x3d4a55fe	0.049398415
171	0xbd2b3e49	-0.041807447
172	0xbde67d51	-0.11254371
173	0xbcc0e445	-0.023546347
174	0x3e0cbea3	0.13744597
175	0x3c6709dd	0.014101473
176	0x3bf7edd8	0.007566195
177	0xbd439746	-0.047751687
178	0x3e21d14a	0.15802494
179	0x3d1e3d8c	0.038632914
180	0xbb862eae	-0.00409492
181	0x3b833aca	0.004004811
182	0xbd8ba067	-0.06817704
183	0x3d0ddb7d	0.03463315
184	0x3ddd851c	0.10816404
185	0x3a1eaadc	0.0006052682
186	0xbd9e7a0d	-0.07738123
187	0xbbe8ca40	-0.007104188
188	0x3d01772b	0.031607788
189	0x3d3036a0	0.043020844
190	0xbd6ff060	-0.05857885
191	0xbdcff3a2	-0.10153891
192	0xbd64c6b9	-0.05585358
193	0xbcc9199b	-0.024548342
194	0xbdc6e0dc	-0.09710857
195	0xbd4b3cf3	-0.049618673
196	0xbce68b5f	-0.02814263
197	0xbbf71536	-0.0075403703
198	0xbd0b3d2f	-0.033993896
199	0xbe1a9adb	-0.15098135
200	0xbd5cb835	-0.05388661
201	0xbd974e8d	-0.07388029
202	0xbdf717e1	-0.120651014
203	0xbd509911	-0.050927226
204	0xbcff56f9	-0.031169401
205	0x3dd86190	0.105654836
206	0x3c6c3159	0.014416062
207	0x3e8223df	0.25417992
208	0xbc93fa35	-0.018063644
209	0xbc9ff2fe	-0.019525047
210	0x3d891acd	0.06694565
211	0x3ca4fd75	0.020140389
212	0xbd7fa6dd	-0.062414993
213	0xbd9f19d1	-0.07768596
214	0xbd82409a	-0.06359978
215	0xbdab50a9	-0.08364994
216	0xbd94a500	-0.07258034
217	0xbdcf5d94	-0.101252705
218	0xbcb13724	-0.021632738
219	0xbd4c1835	-0.049827773
220	0x3ce9dc16	0.028547328
221	0xbe90481c	-0.28180015
222	0xbd8f8b2b	-0.07008966
223	0xbd99c120	-0.07507539
224	0xbcd75042	-0.026283387
225	0xbdff0d8c	-0.12453756
226	0xbd840964	-0.064471036
227	0xbd775fd2	-0.060394116
228	0xbd36bef2	-0.044615693
229	0xbd8d52a6	-0.069005296
230	0xbcf7988a	-0.030224103
231	0xbc52665b	-0.012841786
232	0xbdab75ca	-0.08372076
233	0xbcb3d2af	-0.021951048
234	0xbd8463ba	-0.06464334
235	0xbda70551	-0.08155311
236	0xbdd5268e	-0.10407744
237	0xbdf492d8	-0.11942071
238	0xbd956184	-0.0729399
239	0xbd2744aa	-0.040836968
240	0xbda40b4c	-0.08009967
241	0xbd4ccc3a	-0.049999453
242	0xbdf24f50	-0.11831534
243	0xbdd69966	-0.10478477
244	0xbd10fa34	-0.035394862
245	0xbd84e0ec	-0.06488213
246	0xbd3c3ca9	-0.045956288
247	0xbdbfa120	-0.09356904
248	0xbdc3fa35	-0.095692076
249	0xbdb5e32d	-0.08881221
250	0xbd9202c9	-0.071294375
251	0xbd2df390	-0.042468607
252	0xbdf49a50	-0.11943495
253	0xbd939e14	-0.072078854
254	0xbdc21be8	-0.09477979
255	0xbdab923e	-0.08377503

layer_x.bias f4 [64]
0	0x3e3ee49f	0.186419
1	0x3e8d4875	0.27594343
2	0x3e9e0f58	0.3087108
3	0x3e2869e1	0.1644664
4	0x3ec5d4d4	0.38638937
5	0x3e9e4000	0.30908203
6	0x3e3f8fb0	0.18707156
7	0x3dfa9684	0.1223574
8	0x3df300b3	0.11865368
9	0x3e2832ba	0.164256
10	0x3eaf395f	0.34223458
11	0x3e7bcf4f	0.245908
12	0x3ea0de3c	0.3141955
13	0x3dda0b7b	0.10646721
14	0x3e4b398d	0.19846173
15	0x3eac3cb2	0.33640057
16	0x3e141a5f	0.14463185
17	0x3e94d710	0.2907033
18	0x3e1161a7	0.14197408
19	0x3e5917a3	0.21200423
20	0x3e9fb420	0.31192112
21	0x3e267f03	0.16259389
22	0x3db56236	0.08856623
23	0x3d83472a	0.06410058
24	0x3e552456	0.20814642
25	0x3e1a8df5	0.15093215
26	0x3dd1dc08	0.10247046
27	0x3e3c3e57	0.18383156
28	0x3dea4143	0.11438229
29	0x3dc1c433	0.0946125
30	0x3ebfb37b	0.3744162
31	0x3d8f5e17	0.07000368
32	0x3e2f1cce	0.17100832
33	0x3e8f8cdc	0.28037155
34	0x3e60c596	0.21950373
35	0x3e4b9fdb	0.19885199
36	0x3dcd7c5a	0.10033484
37	0x3d8f5f97	0.07000654
38	0x3e4950ad	0.19659682
39	0x3e74550b	0.23860566
40	0x3d9bd3b7	0.07608741
41	0x3e95d668	0.2926514
42	0x3e168e41	0.14702703
43	0x3e2c3a79	0.1681918
44	0x3e72b912	0.23703411
45	0x3e168c2b	0.14701907
46	0x3e1d3de7	0.15355645
47	0x3d5500c1	0.052002672
48	0x3e9fd94d	0.31220475
49	0x3e323b85	0.17405517
50	0x3e1680f7	0.14697634
51	0x3e858bcd	0.26083222
52	0x3e2fcb14	0.17167312
53	0x3e8fd004	0.2808839
54	0x3e2a6f6f	0.16644071
55	0x3e849032	0.25891262
56	0x3e9fa046	0.31176966
57	0x3ede6450	0.43435907
58	0x3e9a2af9	0.3011091
59	0x3ea74fdb	0.32678112
60	0x3e61f260	0.22065115
61	0x3eaea5e7	0.34110948
62	0x3eab1c7d	0.33420172
63	0x3e1e36aa	0.1545054

layer_t_1.weight f4 [64, 64]
0	0x3e04f143	0.12982659
1	0x3c489632	0.012242841
2	0x3e11947c	0.14216799
3	0xbe417115	-0.18890794
4	0x3c9ad46a	0.018900115
5	0xbe920d5b	-0.28525814
6	0xbdbb29a6	-0.09138803
7	0x3e73ca5d	0.23807664
8	0xbdda7721	-0.10667253
9	0x3e82164c	0.25407636
10	0xbdeeb511	-0.116556294
11	0x3d0859d6	0.0332888
12	0x3dbd19a2	0.09233405
13	0xbdd8c238	-0.10583919
14	0x3de58312	0.1120664
15	0xbe3c6e6e	-0.184015
16	0xbd8c862b	-0.06861528
17	0xbd890df7	-0.06692117
18	0x3d19fd4d	0.037595082
19	0x3e91409e	0.28369612
20	0x3de939cc	0.11387977
21	0x3c55d6ff	0.013051747
22	0xbde88441	-0.113533504
23	0xbcd15c54	-0.02555672
24	0x3d69fe26	0.05712714
25	0xbcea4c07	-0.028600706
26	0x3e67e7e8	0.22647059
27	0xbdf01a03	-0.11723711
28	0xbda918d9	-0.082566924
29	0x3d32bacd	0.04363518
30	0x3cc77bb5	0.02435098
31	0x3d34970c	0.044089362
32	0x3de852e1	0.11343933
33	0x3d29e7d7	0.041480865
34	0x3df59b52	0.119925156
35	0xbdea1509	-0.114297934
36	0x3cad4f33	0.02115593
37	0x3d0d0bd5	0.034435112
38	0xbd8e4db6	-0.06948416
39	0xbcdb698c	-0.026783727
40	0xbcba7ae9	-0.022763686
41	0xbdab9305	-0.08377651
42	0xbdf0a88d	-0.117508985
43	0x3e09d7ba	0.134612
44	0xbe20c035	-0.15698321
45	0xbc8a610c	-0.016891979
46	0x3de865f0	0.11347568
47	0x3e1af26a	0.15131536
48	0xbd3c5378	-0.04597804
49	0x3dbdb602	0.09263231
50	0x3c86077c	0.01636099
51	0x3c7fc50c	0.0156109445
52	0xbd329e0a	-0.04360775
53	0x3cbf5b81	0.023359062
54	0x3e2328ab	0.15933482
55	0x3d0624a4	0.032749787
56	0xbd17fc26	-0.037105702
57	0xbdb1599a	-0.08659668
58	0xbd244dd2	-0.040113278
59	0x3c0dbcde	0.0086509865
60	0xbdc040d3	-0.09387364
61	0xbd892093	-0.06695666
62	0xbdcb335c	-0.099219054
63	0xbdcb9898	-0.09941214
64	0xbb8da937	-0.0043231505
65	0x3e21478c	0.15749949
66	0xbe21e0e8	-0.15808451
67	0xbd3d4cdb	-0.046215873
68	0xbe050e01	-0.12993623
69	0xbdf58b0f	-0.11989414
70	0x3cd06053	0.025436556
71	0xbc8f8456	-0.017519157
72	0x3d65576a	0.055991568
73	0x3d90cec6	0.07070689
74	0xbd691106	-0.056901
75	0xbe05c23d	-0.13062377
76	0xbd835620	-0.064129114
77	0xbc4dd128	-0.012562074
78	0x3db3a8a6	0.087724015
79	0xbd8efe71	-0.069821246
80	0xbdbdab79	-0.092612214
81	0x3cbefa82	0.02331281
82	0xbc4cb093	-0.01249327
83	0xbe6c851d	-0.23097654
84	0xbc8c5be0	-0.017133653
85	0x3da4f1b4	0.08053914
86	0x3da26ff0	0.07931507
87	0x3d784106	0.060608886
88	0x3badf4c6	0.0053087203
89	0x3e3f8abf	0.18705271
90	0xbcb326a6	-0.021869015
91	0x3d741e1a	0.05959902
92	0x3ca6faab	0.0203832
93	0x3d6fcf26	0.05854716
94	0xbabcf57a	-0.001441642
95	0xbe0dd6c7	-0.13851462
96	0xbd1f00af	-0.03881901
97	0x3d80b315	0.06284157
98	0xbd4f5709	-0.050620113
99	0x3e18592f	0.14877771
100	0x3c07cded	0.008288843
101	0x3e4defbf	0.20110987
102	0x3e1eab4e	0.15495035
103	0x3e5eff44	0.21777064
104	0xbe4d8c93	-0.20073156
105	0xbe145583	-0.14485745
106	0xbbd98ca2	-0.006639079
107	0xbd1f3c1b	-0.03887568
108	0xbd9a79e4	-0.0754278
109	0xbcf16c25	-0.029470513
110	0xbd801910	-0.0625478
111	0xbd896590	-0.06708825
112	0xbc913991	-0.017727645
113	0x3d9c6f91	0.07638467
114	0xbcf70fd6	-0.030158918
115	0x3e953795	0.29143968
116	0xbcaea12e	-0.02131709
117	0x3d2b8eec	0.041884348
118	0x3d5e8bcd	0.054332543
119	0xbc58590b	-0.013204823
120	0x3c926c50	0.017873913
121	0x3da53d99	0.080683894
122	0x3d745e14	0.059660032
123	0xbe19d465	-0.15022428
124	0xbe044bb2	-0.129195
125	0x3dd5e8cb	0.10444792
126	0xbd39a274	-0.045320943
127	0x3d09695f	0.033547755
128	0x3c83d881	0.016094448
129	0x3da6b5f2	0.08140172
130	0x3d0c5264	0.03425826
131	0xbd9e893d	-0.0774102
132	0x3dd639e4	0.104602605
133	0x3cfad41a	0.030618716
134	0x3d7a82ed	0.061160017
135	0xbd0694fc	-0.032856926
136	0x3c7f5279	0.015583628
137	0xbcd5cd83	-0.026098972
138	0xbd6a11e2	-0.05714596
139	0xbc24f6b7	-0.010068587
140	0x3db0a397	0.08624952
141	0xbb8c27c8	-0.004277203
142	0xbe0f4ea7	-0.13994847
143	0x3e131c0b	0.14366166
144	0xbdaa34da	-0.08310862
145	0x3d663e2a	0.056211628
146	0xbce4a349	-0.027909892
147	0xbdaac1b2	-0.08337726
148	0xbd39fcaf	-0.045406993
149	0xbcea1b74	-0.028577544
150	0x3d3a7b2e	0.04552763
151	0x3d97cada	0.07411738
152	0x3df25ad3	0.118337296
153	0xbe0572a4	-0.13032013
154	0x3cdcbe36	0.026946168
155	0x3cb4a8e8	0.022053197
156	0x3c49595f	0.012289374
157	0xbd9b63cb	-0.075873934
158	0xbd35e991	-0.0444122
159	0xbe21a570	-0.15785766
160	0xbd546101	-0.051850323
161	0xbe0eac61	-0.13932945
162	0x3dba10d5	0.09085242
163	0xbda8eefa	-0.08248706
164	0x3c970a16	0.018437427
165	0xbdbf04f6	-0.09327118
166	0x3e150e07	0.14556132
167	0xbd852341	-0.06500865
168	0x3e0925ab	0.13393275
169	0x3d7203eb	0.059085768
170	0x3dba74fe	0.09104346
171	0x3d8c9745	0.0686479
172	0x3dbef25f	0.09323572
173	0xbd902b97	-0.07039564
174	0xbdd2ef79	-0.10299582
175	0xbe1b3dc7	-0.15160285
176	0x3de58648	0.11207253
177	0x3c206d4b	0.0097916825
178	0x3d17ff33	0.03710861
179	0x3e418be3	0.18901019
180	0xbdad52fb	-0.08463093
181	0xbd1dce4e	-0.038526826
182	0x3da133bd	0.078711964
183	0x3d85dcc9	0.06536252
184	0x3d872ee7	0.06600743
185	0xbdc09828	-0.094040215
186	0xbd13f30e	-0.036120467
187	0xbd2f668d	-0.04282241
188	0x3db1c519	0.086801715
189	0xbdf61bb5	-0.120170034
190	0x3de6dc63	0.11272504
191	0xbd92a084	-0.07159522
192	0xbda133d1	-0.07871211
193	0xbd127440	-0.035755396
194	0xbdc3a631	-0.09553183
195	0x3df30339	0.11865849
196	0xbddd306f	-0.108002536
197	0xbd0dfb50	-0.0346635
198	0x3dc34fa6	0.09536676
199	0xbde0eb4c	-0.10982379
200	0x39e0c6fc	0.00042872864
201	0x3e111da3	0.14171462
202	0x3cdf878c	0.027286313
203	0x3d869fbc	0.06573436
204	0xbdf7263e	-0.12067841
205	0xbd9a653b	-0.075388394
206	0xbdb4f8e1	-0.088365324
207	0xbd3334ed	-0.043751646
208	0x3dbec9af	0.09315812
209	0x3c8dbc8a	0.017301816
210	0xbc251e4a	-0.010078022
211	0x3e93a9c0	0.28840446
212	0xbd458118	-0.048218817
213	0x3c278b23	0.010226044
214	0x3ad779cd	0.0016439498
215	0xbd8efd70	-0.06981933
216	0xbda09d8d	-0.078425504
217	0xbd8b63a9	-0.06806118
218	0x3cbdeb3a	0.023183454
219	0xbd4276ec	-0.047476694
220	0x3e0307f6	0.12796006
221	0xbd3ce52f	-0.046117004
222	0x3e0e5069	0.13897862
223	0xbdc491a4	-0.09598091
224	0x3bff2fc3	0.007787676
225	0xbbf8f0af	-0.007597051
226	0x3d98a65b	0.07453605
227	0xbcf0690a	-0.029346962
228	0xbcba024f	-0.022706179
229	0x3d402d0c	0.04691796
230	0xbdcd9563	-0.10038259
231	0x3e0c0171	0.13672425
232	0x3dd35138	0.103182256
233	0x3e205ede	0.15661189
234	0xbe2117a9	-0.15731682
235	0xbd2fc2e3	-0.042910468
236	0xbd102287	-0.035189178
237	0xbbfde73a	-0.0077485116
238	0x3d63abe3	0.055583846
239	0x3e546915	0.2074321
240	0xbd36cc1f	-0.04462826
241	0xbe19c7ca	-0.1501762
242	0xbdb96f49	-0.09054429
243	0xbe6cfa1c	-0.23142284
244	0x3d90e355	0.0707461
245	0xbdcc5972	-0.09977998
246	0xbcd40185	-0.02587963
247	0x3d805c0a	0.06267555
248	0xbd261e2d	-0.04055612
249	0x3d6f5dd3	0.058439087
250	0x3e5f89b1	0.21829869
251	0x3d9e42d8	0.07727593
252	0x3ddc3f9d	0.10754321
253	0xbdd69b45	-0.10478834
254	0xbd20e099	-0.039276693
255	0x3d684af7	0.056712117

layer_t_1.bias f4 [64]
0	0xbd29e1a6	-0.04147496
1	0xbda15c5c	-0.07878944
2	0xbd7b807c	-0.06140183
3	0x3d66b5f4	0.056325868
4	0x3d91ca0a	0.07118614
5	0xbdbf6816	-0.09346025
6	0x3c5673b3	0.013089108
7	0xbcec2451	-0.02882591
8	0x3d36af57	0.04460081
9	0x3dae0cee	0.0849856
10	0x3cb9657c	0.0226314
11	0xbc61e3c6	-0.013787216
12	0x3e1ce33a	0.15321055
13	0xbd4e32cc	-0.050341412
14	0xbe21be76	-0.15795311
15	0x3c1e3085	0.009655123
16	0x3e07244c	0.1319744
17	0x3e13ddd5	0.14440091
18	0x3d681950	0.056664765
19	0xbd2e6bb5	-0.042583186
20	0xbd48fee5	-0.04907121
21	0x3d67251d	0.05643188
22	0xbe132006	-0.14367685
23	0x3b13a896	0.0022530905
24	0xbe2466c3	-0.16054825
25	0x3d011c0c	0.03152089
26	0x3d50b852	0.05095703
27	0x3da4904c	0.08035335
28	0xbe1bd91a	-0.15219536
29	0xbda425db	-0.08015033
30	0x3d8093ea	0.06278212
31	0x3dcb1fce	0.09918176
32	0xbde80b9c	-0.11330339
33	0x3d8be41d	0.068306185
34	0xbae847b4	-0.0017721565
35	0x3e2112c4	0.15729815
36	0xbe44135e	-0.19148013
37	0xbd67d4b2	-0.056599326
38	0x3e20deee	0.15710041
39	0x3d9069e8	0.0705145
40	0xbc8f3a79	-0.017483937
41	0x3e2213e8	0.15827906
42	0xbdac1e91	-0.084042676
43	0xbe087f15	-0.13329728
44	0x3e07a3ab	0.13246028
45	0x3cb6c9a2	0.022312943
46	0x3d34a431	0.044101898
47	0xbe3edab5	-0.18638118
48	0x3c969759	0.018382715
49	0x3d1bc493	0.038029265
50	0x3e0b0a3f	0.13578127
51	0x3d039764	0.0321268
52	0x3cfaa510	0.030596286
53	0x3e24d919	0.16098441
54	0xbdd31b5d	-0.103079535
55	0xbd3dd4e0	-0.04634559
56	0xbc7d1864	-0.01544771
57	0x3d0b86ca	0.03406409
58	0xbdc96fc9	-0.098357745
59	0x3d9eea4e	0.07759534
60	0xbda73308	-0.0816403
61	0x3e16c885	0.1472493
62	0x3c945e2a	0.018111307
63	0x3db73a01	0.0894661

layer_t_2.weight f4 [64, 64]
0	0x3e4bbb55	0.1989568
1	0xbde24818	-0.11048907
2	0xbd225c2b	-0.03963868
3	0x3e3379a2	0.17526868
4	0x3df557d6	0.11979644
5	0xbdccd987	-0.100024275
6	0xbd566f2f	-0.052352127
7	0xbe627a8e	-0.22117063
8	0x3c02b19d	0.007976917
9	0x3db772f8	0.089574754
10	0x3c4994b8	0.012303524
11	0x3e494cd4	0.19658214
12	0xbd9154f8	-0.07096285
13	0x3e0f8353	0.1401494
14	0xbe564172	-0.20923403
15	0xbe19fb36	-0.15037236
16	0xbc65e9aa	-0.014032761
17	0xbdf1eee9	-0.118131466
18	0x3d43ce46	0.04780414
19	0x3dd3b261	0.103367575
20	0xbd72b9bd	-0.059259165
21	0x3e482d31	0.19548489
22	0x3ccd9257	0.025094194
23	0x3d64bfde	0.05584704
24	0xbe01a573	-0.1266077
25	0x3d00eeab	0.03147761
26	0x3e8b3c40	0.27194405
27	0x3d5a3c01	0.05327988
28	0xbdca1469	-0.09867174
29	0xbdc9eb61	-0.09859348
30	0x3cfcd7a5	0.030864546
31	0x3cb4c928	0.022068575
32	0xbe81c278	-0.2534368
33	0x3de0f0fc	0.10983464
34	0xbd8df6a6	-0.0693181
35	0x3e92d511	0.28678182
36	0xbcbbb40e	-0.022913005
37	0x3d3c2599	0.045934293
38	0x3d7e99b2	0.062158294
39	0x3e594316	0.21216998
40	0x3e2efdd9	0.17089023
41	0x3e300057	0.1718763
42	0xbe307c80	-0.17234993
43	0x3e127087	0.14300738
44	0x3e1176fa	0.14205542
45	0x3d33d198	0.043901056
46	0x3e2ff0b4	0.17181665
47	0xbe18aefe	-0.14910504
48	0x3dffb704	0.12486079
49	0xbe04b942	-0.12961295
50	0xbdde9989	-0.10869128
51	0x3e3f5173	0.18683414
52	0xb95ed5a4	-0.00021251157
53	0x3d200e45	0.03907611
54	0xbe445dd7	-0.19176422
55	0xbe0ac6c9	-0.13552393
56	0x3e15aa2e	0.146157
57	0x3e2acfa0	0.16680765
58	0xbde93397	-0.11386793
59	0x3cc9dff8	0.02464293
60	0x3e2c0c93	0.16801672
61	0x3dc54ff9	0.09634394
62	0x3e1e5bcc	0.15464705
63	0x3e5f4914	0.21805221
64	0x3de67bd6	0.112540886
65	0xbe4a6ba9	-0.19767632
66	0xbe10c25e	-0.14136645
67	0x3dab3259	0.083592124
68	0x3e82f5ac	0.25578058
69	0xbd945d4f	-0.0724436
70	0xbd8bc819	-0.06825275
71	0xbdd95185	-0.10611252
72	0x3d8fffae	0.07031189
73	0x3e769ec6	0.24084005
74	0x3de3de21	0.11126352
75	0x3e2bb909	0.16769804
76	0xbc3dfa46	-0.011595314
77	0x3e78e2ee	0.24305317
78	0xbe539048	-0.20660508
79	0x3d751500	0.05983448
80	0x3e05cb1c	0.13065761
81	0xbe258b6a	-0.16166463
82	0x3b41efcd	0.0029592395
83	0x3d049547	0.032368924
84	0xbda1ff2d	-0.07909999
85	0x3e35a712	0.17739514
86	0x3d4ae831	0.04953784
87	0x3df50655	0.11964098
88	0xbe140a66	-0.14457092
89	0x3d914684	0.07093528
90	0x3e73dae9	0.23813976
91	0xbd5eeabc	-0.05442308
92	0x3cb03a5a	0.0215122
93	0xbe1c43d1	-0.15260245
94	0xbda59473	-0.08084955
95	0x3d793016	0.060836874
96	0xbe951d15	-0.2912375
97	0x3e276e7c	0.1635074
98	0xbe4d09c2	-0.20023254
99	0x3e94fdfa	0.2910002
100	0x3c72710d	0.014797461
101	0x3d7e16df	0.06203353
102	0x3e317274	0.17328817
103	0x3e83628d	0.25661126
104	0x3db069ed	0.08613954
105	0x3e2c115b	0.16803496
106	0xbceeca27	-0.029149128
107	0x3e189b1d	0.14902921
108	0x3d4ca228	0.04995933
109	0x3e66d981	0.22543909
110	0x3d475b6c	0.04867117
111	0xbe6e3ced	-0.23265429
112	0x3cce3633	0.025172329
113	0xbe50a354	-0.20374805
114	0x3c86c939	0.016453372
115	0x3e4abb6a	0.19798055
116	0x3e4a72fb	0.19770424
117	0x3c97f32b	0.018548569
118	0xbe0948da	-0.13406697
119	0x3d88b9ad	0.0667604
120	0x3c70a21d	0.014687088
121	0x3e89ad4c	0.26890028
122	0x3ccc58aa	0.024944622
123	0x3bdf520b	0.0068152
124	0x3dc99cd8	0.09844369
125	0x3e107c66	0.14109954
126	0x3e019393	0.12653951
127	0x3e3bc261	0.18335868
128	0x3d5bfa89	0.053705726
129	0xbdd0e240	-0.10199404
130	0xbcfafae0	-0.030637205
131	0x3ded5ca9	0.11589939
132	0xbccb2629	-0.02479847
133	0xbd1e541a	-0.038654424
134	0x3cabc978	0.020970091
135	0x3b55c581	0.0032618942
136	0xbc872176	-0.016495448
137	0xbd1146c6	-0.035467885
138	0xbd933994	-0.071887165
139	0x3dae5b94	0.08513561
140	0xbd02becc	-0.03192024
141	0x3ddae2d3	0.106877945
142	0x3d1fd51e	0.039021604
143	0xbdeb3178	-0.11484045
144	0xbdd4adfe	-0.10384749
145	0xbdb65163	-0.08902242
146	0xbd6baffe	-0.057540886
147	0xbdfba8bf	-0.12288045
148	0xbcf66df1	-0.030081721
149	0xbd902224	-0.07037762
150	0x3dd3e975	0.10347263
151	0x3d45bd5e	0.048276298
152	0x3dc72f63	0.09725835
153	0xbcfba941	-0.030720355
154	0xb98300eb	-0.0002498695
155	0xbdce0e79	-0.10061354
156	0xbdd0af7c	-0.10189721
157	0x3b90684c	0.0044069644
158	0xbccb76b7	-0.024836881
159	0x3cb1998c	0.021679662
160	0xbdf0bbbb	-0.11754557
161	0x3da95ac9	0.08269269
162	0x3d7906a5	0.060797352
163	0x3de785d7	0.11304825
164	0x3d894794	0.067031056
165	0xbdd89d28	-0.1057685
166	0x3db95384	0.090491325
167	0x3d5aa997	0.05338439
168	0x3cb7cb82	0.022435907
169	0xbd5be8f2	-0.05368895
170	0xbbbc928e	-0.0057547754
171	0xbd81cea9	-0.063382454
172	0x3d69840f	0.057010707
173	0x3cbc1e49	0.02296366
174	0x3d81a8ee	0.06331049
175	0x3cfdb455	0.030969778
176	0xbd041868	-0.032249838
177	0xbde8ccfe	-0.11367224
178	0x3cb7c5a3	0.022433108
179	0xbd8d66bb	-0.0690436
180	0xbcc1e0fc	-0.023666851
181	0x3d0fc3f5	0.03509899
182	0xbc2501e2	-0.01007125
183	0x3d23262f	0.039831337
184	0xbdd4c92f	-0.10389935
185	0xbd6be967	-0.057595637
186	0xbd4c8a2f	-0.04993647
187	0xbd4249e5	-0.047433753
188	0x3b1d90e6	0.0024042665
189	0xbcdc3790	-0.026881963
190	0x3c1bcd5f	0.0095094135
191	0x3d83b257	0.064305
192	0xbe1aeaa0	-0.15128565
193	0x3d8bfdae	0.06835495
194	0x3c3bd0c3	0.011463347
195	0xbbcbced1	-0.006219723
196	0x393ebb90	0.00018189684
197	0xbc8cf0e6	-0.017204713
198	0xbdff6eef	-0.12472331
199	0xbda962a8	-0.0827077
200	0xbd01c17b	-0.031678658
201	0xbd856ccf	-0.06514894
202	0xbdd2deac	-0.102963775
203	0xbd85d7c1	-0.065352924
204	0x3a195d9d	0.0005850436
205	0xbe10d054	-0.14141971
206	0x3d2a5b56	0.04159101
207	0x3d7373cf	0.059436616
208	0xbe064a2c	-0.13114232
209	0x3a8c35d6	0.0010697197
210	0x3d5d4629	0.054021988
211	0xbe111d71	-0.14171387
212	0xbdc6f79d	-0.09715197
213	0xbde1168d	-0.10990629
214	0x3e30834e	0.17237589
215	0x3ccdc2e7	0.02511735
216	0x3c4ddca1	0.012564809
217	0xbc6a795c	-0.014311161
218	0xbd1d8fe0	-0.038467288
219	0xbdb045f7	-0.08607095
220	0xbdaee7a7	-0.08540278
221	0x3d4b5c34	0.04964848
222	0xbcc01c90	-0.02345112
223	0x3dd4ee29	0.10396988
224	0x3c5461d1	0.012962774
225	0x3d1d831f	0.038455125
226	0x3ae84da2	0.0017723332
227	0x3cdc2c17	0.026876492
228	0xbdc773ab	-0.09738859
229	0xbdbcbd2b	-0.092157684
230	0xbd533ed7	-0.0515736
231	0xbe244f8a	-0.16045967
232	0xbe44440d	-0.19166584
233	0xbdbe52a6	-0.09293108
234	0xbd0db3c2	-0.03459526
235	0xbe2d0e54	-0.16899997
236	0xbde5b587	-0.11216264
237	0xbdc3e4a6	-0.095650956
238	0xbd9ff895	-0.07811085
239	0x3c98fe03	0.01867581
240	0xbd47c374	-0.048770383
241	0x3c1863fa	0.00930118
242	0x3bc853cd	0.0061135055
243	0xbc7e36a8	-0.015515961
244	0xbe047c60	-0.1293807
245	0x3d780af7	0.060557332
246	0xbd9652f4	-0.07340041
247	0xbda47741	-0.080305584
248	0x3d7b5991	0.061364714
249	0xbd378cf2	-0.04481215
250	0xba0d0c14	-0.0005380523
251	0x3d36e6df	0.04465377
252	0xbdfcd775	-0.12345783
253	0xbd1eb186	-0.03874352
254	0x3d350f1f	0.044203874
255	0xbd2ce883	-0.042213928

layer_t_2.bias f4 [64]
0	0x3d0a6c6a	0.033794798
1	0x3b60d7cb	0.003430831
2	0xbd26e5fb	-0.04074667
3	0xbe048f9a	-0.12945405
4	0xbd5cd7e2	-0.05391682
5	0x3d729bd3	0.059230637
6	0xbdb5fe80	-0.08886433
7	0x3db8a8af	0.09016549
8	0x3de81793	0.113326214
9	0x3db9369c	0.09043619
10	0xbd844f67	-0.06460457
11	0xbd8d69fa	-0.06904979
12	0x3cf2b664	0.029627986
13	0x3d2ba80a	0.0419083
14	0x3e28acaf	0.16472124
15	0xbd34f0c6	-0.044174932
16	0x3ce812ca	0.028329272
17	0x3d308514	0.043095663
18	0x3db7f71b	0.089826785
19	0x3d4c073a	0.04981158
20	0xbd477fab	-0.048705738
21	0x3dc36ffb	0.09542843
22	0xbde85bd6	-0.11345641
23	0xbdda77d9	-0.106673904
24	0x3cf98fe8	0.030464128
25	0x3cd34da5	0.02579386
26	0xbd755a3b	-0.059900504
27	0xbc79cde1	-0.015246839
28	0xbdd96393	-0.106146954
29	0x3ca16522	0.019701544
30	0xbbac74e1	-0.0052629565
31	0x3deaccdd	0.11464856
32	0x3d819f5b	0.06329223
33	0xbd24eec9	-0.040266786
34	0x3dd36254	0.10321489
35	0x3d55a6d3	0.05216105
36	0x3df174b1	0.11789835
37	0x3d4545f8	0.04816243
38	0x3c7a96b8	0.015294723
39	0xbdbf7647	-0.093487315
40	0xbdbdbfcc	-0.09265098
41	0x3c03ed0f	0.008052125
42	0x3df3b236	0.118992254
43	0xbdaeb149	-0.08529908
44	0x3d30448a	0.043034114
45	0xbc8d36ab	-0.017237982
46	0x3d23a186	0.039948963
47	0xbdbaab5e	-0.09114717
48	0x3c771bf5	0.015082349
49	0x3b009928	0.0019622538
50	0xbc04937d	-0.008091805
51	0x3da3c4db	0.079965316
52	0x3cccdc13	0.025007283
53	0xbd5bf4fc	-0.053700432
54	0xbd9b5cad	-0.07586036
55	0x3d4c47b7	0.04987308
56	0x3d9d1a54	0.07671037
57	0x3d1d707e	0.03843736
58	0x3d21c053	0.039490055
59	0x3c7ac414	0.015305538
60	0x3d8fdd73	0.0702466
61	0x3c2a2882	0.010385634
62	0xbd90d399	-0.07071609
63	0x3e214a09	0.15750898

layer_out_1.weight f4 [64, 64]
0	0xbdb1b67f	-0.086773865
1	0xbdcc4ba2	-0.09975363
2	0x3d9ffea8	0.07812244
3	0xbd84fc1f	-0.06493401
4	0x3ce96f4e	0.028495457
5	0xbd195563	-0.037434947
6	0x3b3ed330	0.0029117577
7	0xbd1b61e6	-0.03793516
8	0x3d685e72	0.056730695
9	0xbdbcdefa	-0.09222217
10	0xbdc6674d	-0.09687672
11	0x3dba7aa4	0.09105423
12	0xbdaf611f	-0.08563446
13	0x3da13a8f	0.07872497
14	0xbe60c2a7	-0.21949254
15	0xbd24cba7	-0.04023328
16	0xbd46be50	-0.04852134
17	0x3e157324	0.14594704
18	0x3cb5fb08	0.022214428
19	0xbd8ec425	-0.06971005
20	0xbd69c16f	-0.05706924
21	0xbdde7835	-0.108627714
22	0xbb53d914	-0.0032325434
23	0xbb1a48d8	-0.0023541953
24	0xbd172608	-0.036901504
25	0xbce6a836	-0.028156381
26	0x3bb4b87a	0.0055151554
27	0x3b37fd67	0.0028074624
28	0x3e02ff48	0.12792695
29	0x3db2e6e2	0.08735444
30	0xbdcd8954	-0.10035959
31	0x3e25808d	0.1616232
32	0x3d352252	0.044222184
33	0x3d80a960	0.06282306
34	0xbcffad89	-0.031210678
35	0xbd3de440	-0.046360254
36	0x3df47ea1	0.11938215
37	0xbd7a68cd	-0.061135102
38	0x3d65369d	0.055960286
39	0xbd4a160b	-0.049337428
40	0x3dcef2f3	0.10104933
41	0xbdb68511	-0.08912099
42	0x3e07de9c	0.13268512
43	0xbd96727c	-0.07346055
44	0xbd0ca97a	-0.034341313
45	0x3ce8e213	0.028428113
46	0x3d6b5464	0.057453528
47	0xbdeba689	-0.115063734
48	0xbdd56554	-0.104197174
49	0x3d6ae403	0.057346355
50	0xbcd1b421	-0.025598587
51	0x3d22ef65	0.039779086
52	0xbd1891ef	-0.037248548
53	0x3d45262e	0.048132114
54	0x3b42e64c	0.0029739318
55	0x3c98a842	0.01863492
56	0x3dbd3871	0.09239281
57	0x3d027c51	0.03185684
58	0x3db86c0f	0.090049855
59	0x3d01a767	0.031653788
60	0xbc183fb7	-0.009292535
61	0x3b8380ef	0.004013173
62	0x3dc39eef	0.095517986
63	0x3d771844	0.060325876
64	0x3da38862	0.07984997
65	0xbe185402	-0.14875796
66	0x3d335899	0.043785665
67	0x3b8833bb	0.0041565574
68	0x3bce0bfd	0.00628805
69	0xbdba7266	-0.09103851
70	0x3da74b5f	0.08168673
71	0xbd26bbde	-0.040706508
72	0xbe0a59cf	-0.13510822
73	0x3ddd20f7	0.10797303
74	0x3b6e2483	0.003633768
75	0x3e015a8b	0.12632196
76	0x3c89789a	0.01678114
77	0xbdaa040f	-0.08301555
78	0x3e3e2392	0.18568256
79	0xbe417b71	-0.18894745
80	0xbc834f9e	-0.016029175
81	0xbda111a9	-0.078646965
82	0x3c8ae70e	0.016955879
83	0xbd124cf3	-0.035717916
84	0xbde4c617	-0.11170595
85	0xbca8adfd	-0.020590777
86	0xbbf562fe	-0.0074886074
87	0xbc908658	-0.017642185
88	0xbdf38d9c	-0.11892244
89	0xbd6c5cd7	-0.057705726
90	0xbe1c1059	-0.15240611
91	0x3d44d3e9	0.048053656
92	0x3e19d887	0.15024005
93	0x3df6bdb3	0.12047901
94	0x3d701328	0.05861202
95	0xbc140129	-0.00903348
96	0x3de0f4a8	0.109841645
97	0xbe213d30	-0.15745997
98	0x3c3954f3	0.011311757
99	0x3b9d178e	0.0047940677
100	0x3db0ad7b	0.08626839
101	0xbc22fcbe	-0.009947954
102	0x3d9d74e9	0.076883145
103	0x3e308319	0.1723751
104	0x3e08448f	0.13307403
105	0x3d2a0165	0.041505236
106	0x3c0042a3	0.007828387
107	0xbd38e5ac	-0.045140907
108	0xbd78f57a	-0.06078098
109	0x3ca7d849	0.020488875
110	0x3e6eff2b	0.23339526
111	0x3e0b4a90	0.13602662
112	0xbdeed037	-0.116608076
113	0xbd1aff0d	-0.03784089
114	0xbdeae1b4	-0.11468831
115	0x3e135ffa	0.14392081
116	0xbd477c41	-0.048702482
117	0x3d845426	0.064613625
118	0xbe6098c7	-0.2193328
119	0xbdac415e	-0.08410905
120	0x3cc5a168	0.024124816
121	0x3d22c1d5	0.039735634
122	0xbde16f46	-0.11007552
123	0xbdfec805	-0.124404944
124	0x3b1f03c7	0.0024263726
125	0x3db7188f	0.08940231
126	0xbe1b9a6b	-0.15195625
127	0x3dbadfaf	0.091246955
128	0xbe163faf	-0.14672731
129	0xbd29efed	-0.041488577
130	0xbd0e6682	-0.034765728
131	0xbd8ac728	-0.06776267
132	0xbe06769f	-0.13131188
133	0x3dadc798	0.08485335
134	0x3e067dfe	0.13134
135	0xbc4094d0	-0.01175423
136	0xbd2c9c0b	-0.042141
137	0x3d91490a	0.07094009
138	0x3dafcab8	0.085835874
139	0x3d25dc85	0.040493507
140	0x3d823dff	0.06359481
141	0xbc4b71d8	-0.012417279
142	0x3c854a5f	0.016270814
143	0x3d33a055	0.043854076
144	0xbdd1394b	-0.10216006
145	0x3dcadc93	0.099053524
146	0x3da468b5	0.08027784
147	0xbe03ffce	-0.1289055
148	0xbddb9c3b	-0.10723158
149	0x3b0a9c49	0.0021150282
150	0xbce068d7	-0.027393742
151	0x3d3195b1	0.043355647
152	0x3d5784bd	0.052616823
153	0xbc91852c	-0.017763697
154	0x3bb015ae	0.005373678
155	0x3da3ed7f	0.08004283
156	0x3b9e5935	0.0048324117
157	0xbd8fddaa	-0.07024701
158	0x3dba4091	0.09094346
159	0x3d5a2ce2	0.05326546
160	0x3d247956	0.040154777
161	0xbd9b3825	-0.07579068
162	0x3d612148	0.05496338
163	0x3d2fe8ef	0.042946752
164	0x3d865b4d	0.06560383
165	0x3c42067c	0.011842366
166	0x3e465be5	0.19370992
167	0xbdc3c2e9	-0.095586605
168	0x3db0316f	0.08603179
169	0xbe04974d	-0.12948342
170	0x3cf204d7	0.029543323
171	0x3c1e3628	0.009656467
172	0xbdb92ad8	-0.09041375
173	0x3d1a9f4a	0.037749566
174	0xbd7c7387	-0.061633613
175	0xbc9246ae	-0.017855968
176	0xbe05d49f	-0.1306939
177	0xbb21a99b	-0.0024667743
178	0xbdc951ae	-0.09830032
179	0x3ba677e0	0.005080208
180	0x3d2634b0	0.04057759
181	0xbdc9af7e	-0.098479256
182	0x3d9a17c9	0.07524068
183	0x3d0d536e	0.034503393
184	0x3d677893	0.056511473
185	0x3dcaceca	0.09902723
186	0x3dd7ef5b	0.105437
187	0xbdbc8473	-0.0920495
188	0xbe08a4b4	-0.1334408
189	0xbbf1377c	-0.0073613506
190	0xbe012e8b	-0.12615411
191	0x3c020c72	0.0079375375
192	0xbdff91cd	-0.12478981
193	0xbe1054ab	-0.14094798
194	0x3dab2038	0.083557546
195	0x3cff1dd9	0.031142162
196	0xbe003d1f	-0.12523316
197	0x3c52e2b9	0.012871438
198	0x3d187c9b	0.037228208
199	0x3c99d6ae	0.018779125
200	0xbdcb2b66	-0.09920387
201	0x3d6c0918	0.05762586
202	0x3d4a0810	0.049324095
203	0x3dcb8364	0.0993717
204	0xbd87e4c8	-0.066354334
205	0x3d590b44	0.05298926
206	0xbdbb73d3	-0.09152951
207	0xbc6ebc01	-0.014571191
208	0x3d771adc	0.06032835
209	0x3cf12a3e	0.029439088
210	0xbd897c8f	-0.06713211
211	0x3e0bec00	0.13664246
212	0xbd462b97	-0.048381414
213	0xbd8fe975	-0.0702695
214	0xbcdb94c9	-0.026804345
215	0x3ce2a1d6	0.02766506
216	0x3d55db4c	0.05221109
217	0x3daa62cc	0.08319625
218	0xbdcefbfd	-0.10106657
219	0x3e0a32a7	0.13495885
220	0x3c99ee26	0.018790316
221	0xbe3934de	-0.18086573
222	0xba19bf7a	-0.0005865019
223	0xbdbb40cd	-0.09143219
224	0x3dae576c	0.08512768
225	0x3cc048f0	0.02347228
226	0x3d4367cb	0.047706407
227	0xbcd7a9f6	-0.02632616
228	0x3ca87228	0.020562246
229	0x3d9f5ea9	0.07781727
230	0x3dcacfbd	0.09902904
231	0x3d4fb135	0.050706107
232	0xbc08eda5	-0.00835744
233	0x3d8fdf6d	0.07025037
234	0x3dc794ed	0.09745202
235	0xbd1cd629	-0.038290177
236	0xbc40edb3	-0.011775422
237	0x3da4a9dc	0.080402106
238	0xbd7cbb88	-0.06170228
239	0x3dd6213a	0.10455556
240	0x3c74155f	0.014897673
241	0x3d4b621a	0.049654104
242	0xbde34bdb	-0.11098453
243	0xbc99da22	-0.018780772
244	0x3dcaead8	0.09908074
245	0x3d87f584	0.06638625
246	0x3cad4a07	0.021153463
247	0x3d83a7e3	0.06428506
248	0x3de3aefe	0.111173615
249	0xbd1a0056	-0.037597977
250	0x3d2a21ee	0.041536264
251	0xbd805b2a	-0.06267388
252	0xbc0e100f	-0.008670821
253	0x3cc1d4d5	0.023661057
254	0x3d9cb575	0.07651798
255	0xbd83c618	-0.06434268

layer_out_1.bias f4 [64]
0	0xbd6529bc	-0.055948004
1	0x3d077ec5	0.03307988
2	0x3d86d9f2	0.065845385
3	0xbd5167b1	-0.05112428
4	0x3db28bd9	0.0871808
5	0xbd95ad6e	-0.0730847
6	0xbc848e15	-0.016181031
7	0xbdbce7f3	-0.09223928
8	0x3dde9223	0.10867717
9	0xba8ca9bc	-0.0010731737
10	0x3da6edfa	0.08150859
11	0x3d0a4e2b	0.033765953
12	0x3d93ad4d	0.07210789
13	0xbca0453f	-0.01956427
14	0xbbe01d38	-0.0068394206
15	0x3d716ee8	0.05894366
16	0xbd77acf5	-0.06046768
17	0xbcc662d2	-0.024217043
18	0x3beea223	0.007282512
19	0xbd16a79f	-0.03678095
20	0xbd8eef20	-0.06979203
21	0x3ccfc090	0.025360376
22	0xbda112e4	-0.07864931
23	0x3dbeaee7	0.09310704
24	0xbcaf3354	-0.02138678
25	0x3dcb59e0	0.09929252
26	0xb9f79c71	-0.0004722807
27	0xba0565c1	-0.000508871
28	0x3d30ef12	0.043196745
29	0xbc297152	-0.010341959
30	0x3d6c1f91	0.05764729
31	0xbcf84d4c	-0.030310296
32	0x3d6e7ddb	0.058225494
33	0x3b9a75b6	0.0047137393
34	0x3dbd8174	0.09253207
35	0x3d977fde	0.073974356
36	0x3de90b25	0.11379079
37	0x3d4ce7a1	0.050025586
38	0xbd0a4e26	-0.033765934
39	0xbe125de2	-0.14293626
40	0x3da7d50d	0.08194933
41	0xbb6b9a35	-0.003595007
42	0xbdb35b4f	-0.0875765
43	0x3db5c259	0.088749595
44	0xbd636b03	-0.055521976
45	0x3e052c5b	0.13005202
46	0xbd062522	-0.032750256
47	0xbdb0489c	-0.08607599
48	0x3c86f8f2	0.016476128
49	0xbd354f3d	-0.04426502
50	0x3dc3f5ef	0.095683925
51	0x3c1b26d8	0.00946971
52	0xbcffc74a	-0.031222958
53	0xbe483d73	-0.19554691
54	0xbe00ba93	-0.12571172
55	0x3d847cd0	0.064691186
56	0xbe16db72	-0.14732149
57	0xbd06a161	-0.032868747
58	0xbc66c517	-0.014085076
59	0x3d204129	0.03912464
60	0x3e301c94	0.17198402
61	0x3de27956	0.11058299
62	0xbd63039d	-0.055423368
63	0xbc76ded0	-0.015067771

layer_out_2.weight f4 [53, 64]
0	0xbd71bda7	-0.059018757
1	0xbda325ce	-0.07966195
2	0x3c294d50	0.010333374
3	0x3d87b519	0.066263385
4	0x3d966125	0.073427476
5	0xbe0d29fe	-0.1378555
6	0xbcbde10c	-0.0231786
7	0xbcb10868	-0.021610454
8	0xbd35081d	-0.04419719
9	0x3d2a896d	0.041634966
10	0x3d4cf19a	0.050035097
11	0xbd81c309	-0.06336028
12	0xbd88b2ec	-0.06674752
13	0xbd8c000e	-0.06835948
14	0xbdb286dd	-0.087171294
15	0x3e060d4d	0.13091011
16	0xbd106ed6	-0.03526195
17	0x3d903627	0.07041579
18	0xbd588012	-0.052856512
19	0x3e04ae59	0.12957133
20	0x3d0fe434	0.03512974
21	0xbdec35cb	-0.11533698
22	0xbd85290a	-0.06501968
23	0xbd8f75f1	-0.070049174
24	0x3d325949	0.04354218
25	0x3de7ee91	0.113248
26	0x3d9d3f33	0.0767807
27	0xbe23ca85	-0.15995224
28	0x3e0f702b	0.14007632
29	0x3d31b550	0.043385804
30	0xbd08af76	-0.033370458
31	0x3da182ae	0.07886253
32	0xbd916890	-0.07100022
33	0x3c167a20	0.00918439
34	0xbc50cbce	-0.012743903
35	0x3dc8e512	0.09809317
36	0x3dbe2899	0.09285087
37	0x3e02557c	0.12727922
38	0xbddd04be	-0.1079192
39	0x3cec2976	0.028828364
40	0x3e0f0850	0.13968015
41	0x3d90c2a8	0.07068378
42	0x3d3a19ca	0.04543475
43	0xbe13cf79	-0.14434613
44	0xbda34be7	-0.079734616
45	0x3e05bc62	0.13060144
46	0xbccc53c0	-0.024942279
47	0xbdeb0f3f	-0.11477517
48	0xbd966fa5	-0.07345513
49	0x3d83a488	0.06427866
50	0x3d8db88d	0.06919966
51	0x3ce9b056	0.028526466
52	0xbcb6f582	-0.022333864
53	0xbdd44216	-0.103641674
54	0x3af190fb	0.0018430048
55	0xbb2b08ac	-0.0026097698
56	0x3d7e000d	0.062011767
57	0x3e27dbc8	0.16392434
58	0xbdd812c9	-0.10550458
59	0xbdc97e9a	-0.098386005
60	0x3d0125fb	0.03153036
61	0x3dfa64b0	0.12226236
62	0xbdce0463	-0.100594305
63	0xbb22d3c2	-0.0024845456
64	0xbd803c1f	-0.06261467
65	0xbd95bad0	-0.07311022
66	0x3cd498e8	0.025951818
67	0xbc467090	-0.012111798
68	0x3db668aa	0.08906682
69	0x3c3498a4	0.0110227205
70	0x3d4c48ab	0.04987399
71	0x3c246c9e	0.010035662
72	0xbccb3258	-0.02480428
73	0xbda9ffe6	-0.08300762
74	0xbd23e723	-0.04001535
75	0xbd024b48	-0.031810075
76	0xbd6e12d9	-0.058123443
77	0xbc7367ba	-0.014856273
78	0x3d6784c8	0.056523114
79	0xbca489dd	-0.02008527
80	0xbd7bc055	-0.06146272
81	0xbbe22149	-0.0069009406
82	0x3d2b538b	0.04182772
83	0xbc2e6ea3	-0.010646495
84	0xbde0f2f0	-0.10983837
85	0x3d034629	0.03204933
86	0x3d32737e	0.043567173
87	0xbd87f9cf	-0.06639444
88	0x3de63677	0.11240857
89	0xbd9a40c2	-0.07531883
90	0xbd200b0b	-0.03907303
91	0xbdc7bed8	-0.097531974
92	0x3dcfd72f	0.10148465
93	0x3d6a85b0	0.0572564
94	0x3df0a51d	0.11750243
95	0xbc870c72	-0.016485427
96	0x3bf18f89	0.007371847
97	0x3cfdeb46	0.030995976
98	0xbc5955f4	-0.013265122
99	0x3cef2021	0.029190125
100	0xbcfd7921	-0.030941548
101	0x3c85b21e	0.016320284
102	0xbd4b5b06	-0.049647354
103	0x3d908d1a	0.07058163
104	0xbd960d0c	-0.07326707
105	0xbd3559de	-0.044275157
106	0x3d9ee861	0.077591665
107	0xbd1581f3	-0.036500882
108	0xbdb23809	-0.08702094
109	0xbda4ac5c	-0.080406874
110	0xbd0a61a4	-0.033784524
111	0x3d21a94f	0.039468106
112	0xbd5a3ce5	-0.05328073
113	0x3cf748d9	0.030186104
114	0x3e01caf3	0.12675075
115	0x3dd5842a	0.10425599
116	0x3c389624	0.011266265
117	0xbdaca5c8	-0.08430058
118	0x3db75792	0.089522496
119	0xbb6f5eb1	-0.0036524946
120	0x3d905aaf	0.070485465
121	0x3c72073b	0.014772232
122	0xbd860869	-0.06544573
123	0x3d8e32c2	0.06943275
124	0x3dc9a274	0.098454386
125	0x3da001cf	0.07812845
126	0x3da2a8a2	0.079423204
127	0xbcf62c46	-0.030050408
128	0xbde7aa97	-0.11311834
129	0xbd8da196	-0.06915586
130	0xbd3633f8	-0.044483155
131	0xbd8bd660	-0.06827998
132	0x3da93109	0.08261306
133	0xbe3aa5b9	-0.1822728
134	0xbe0bdce5	-0.13658483
135	0x3d366f46	0.044539712
136	0x3dfbec64	0.12300947
137	0xbd9d06f4	-0.07667342
138	0xbd7c748b	-0.06163458
139	0x3d18c257	0.037294712
140	0xbe0e26f8	-0.13882053
141	0x3dd89d46	0.105768725
142	0x3de3ea50	0.11128676
143	0x3c6e5f4f	0.0145490905
144	0xbdf52f8f	-0.11971962
145	0x3dddc0af	0.10827767
146	0xb98a09b4	-0.0002632864
147	0xbd123dab	-0.035703342
148	0x3ce52607	0.027972234
149	0x3b4e2cbe	0.0031459774
150	0x3ca81e47	0.02052225
151	0x3e1428ef	0.1446874
152	0xbce38932	-0.02777538
153	0x3dd8967e	0.10575579
154	0x3bc4a789	0.006001417
155	0xbd94e7d9	-0.07270784
156	0x3c91fd1c	0.017820887
157	0x3d8ea15f	0.06964373
158	0x3d052242	0.032503374
159	0xbc63b90d	-0.0138991
160	0x3df8221c	0.12115881
161	0x3dc01461	0.09378887
162	0x3dff5025	0.12466458
163	0xbcd5237c	-0.026017897
164	0x3d84b62f	0.06480061
165	0xbdcf3597	-0.10117643
166	0xbd3e8b87	-0.046519782
167	0xbd83f7eb	-0.06443771
168	0xbda4ac17	-0.08040636
169	0x3d50e752	0.051001854
170	0xbdbf46ba	-0.09339662
171	0xbdbf700f	-0.09347545
172	0xbda79296	-0.08182256
173	0xbd3d7f14	-0.04626377
174	0x3d2856c4	0.04109837
175	0x3b264682	0.0025371616
176	0x3e3f61ef	0.18689702
177	0x3d481696	0.048849665
178	0x3cf5cddc	0.030005388
179	0x3cd40af3	0.025884127
180	0x3d666476	0.05624815
181	0x3d289835	0.04116078
182	0xbd1b3f72	-0.037902303
183	0xbd84aa7a	-0.06477828
184	0xbd7c6342	-0.061618097
185	0x3e160678	0.14650905
186	0x3b1082d0	0.0022050627
187	0x3d411208	0.047136337
188	0xbd0f3196	-0.0349594
189	0xbd8c95f9	-0.068645425
190	0xbdb94035	-0.0904545
191	0x3d9fb18b	0.077975355
192	0xbd3f8c61	-0.046764735
193	0xbd70a817	-0.058754053
194	0x3c46e168	0.012138702
195	0x3d5e8422	0.05432523
196	0x3d9bd068	0.0760811
197	0x3d26339b	0.04057656
198	0x3d95e637	0.073193006
199	0xbc151913	-0.009100216
200	0xbcd5f68e	-0.026118543
201	0x3df400bf	0.11914205
202	0xbcc27c9a	-0.023741055
203	0xbd3f570d	-0.046713877
204	0xbe1c63f2	-0.15272501
205	0x3d3e40b1	0.046448413
206	0xbb45020b	-0.0030061032
207	0xbd534593	-0.051580023
208	0xbdbf227d	-0.0933275
209	0x3d79e0f2	0.06100554
210	0xbcd0cd6f	-0.025488583
211	0xbd1dce3e	-0.038526766
212	0xbda4035e	-0.08008455
213	0x3d367ac6	0.04455068
214	0x3c9363cb	0.017991921
215	0x3c34e969	0.011041977
216	0x3cd62957	0.02614276
217	0x3d1b5291	0.03792054
218	0x3d7782f1	0.06042761
219	0xbd340de9	-0.04395858
220	0xbd97413c	-0.07385489
221	0xbd04586c	-0.03231089
222	0x3ca2747c	0.019830935
223	0x3cb68511	0.022280248
224	0x3c582e7c	0.0131946765
225	0xbc6110fd	-0.0137369605
226	0x3cd5beac	0.026091896
227	0xbba4c9c7	-0.0050289365
228	0x3d6d1112	0.057877608
229	0xbd525079	-0.051346276
230	0xbdb644a6	-0.088998124
231	0xbd1e0ce0	-0.038586497
232	0x3da1cf94	0.079009205
233	0xbcc5366f	-0.024073808
234	0xbdf129c8	-0.11775547
235	0xbdb089f1	-0.0862006
236	0xbc81d9e6	-0.015850972
237	0x3de70588	0.11280352
238	0xbd8fc63c	-0.07020232
239	0x3b2aeeae	0.0026082206
240	0x3d0f7ba4	0.035030022
241	0xbcb9d1d8	-0.02268307
242	0xbd800826	-0.06251554
243	0xbe269687	-0.16268359
244	0x3b8fb531	0.0043856134
245	0x3d16c488	0.03680852
246	0x3b3e6c52	0.0029056263
247	0xbcecc89d	-0.028904254
248	0x3d404f50	0.04695064
249	0x3db975be	0.09055661
250	0x3da1bc35	0.07897226
251	0x3d04c1a6	0.03241124
252	0x3d80ff29	0.06298668
253	0x3c46f66e	0.012143714
254	0x3d2eaa91	0.042643134
255	0xbce6d203	-0.028176313

layer_out_2.bias f4 [53]
0	0x3dd02ec5	0.101651706
1	0x3c3aa0ab	0.011390845
2	0x3d971b0e	0.07378207
3	0x3d1468df	0.036232825
4	0x3d3a02d0	0.04541284
5	0x3d15c535	0.036565024
6	0xbbee78f5	-0.007277603
7	0x3c0d4e4f	0.008624627
8	0x3c75fc91	0.01501383
9	0x3aefc8d2	0.0018294102
10	0x3cb6d2ec	0.022317372
11	0x3c03053b	0.0079968525
12	0xbbf0c240	-0.007347375
13	0x3c28c15f	0.0103000095
14	0x3b76ddc0	0.0037668794
15	0x3cc2c8fd	0.02377748
16	0x3d42ad0f	0.047528323
17	0x3c89b5c1	0.0168103
18	0xbcd4aeea	-0.025962312
19	0x3d08ac0b	0.033367198
20	0x3c606764	0.013696525
21	0xbdd0aa43	-0.10188725
22	0x3c2729af	0.010202809
23	0x3d343023	0.04399122
24	0xbb56ab2a	-0.003275583
25	0xbc1659a2	-0.009176644
26	0x3c0fca79	0.008776301
27	0x3ca363f9	0.019945132
28	0xbc8fa48d	-0.017534519
29	0x3d743a60	0.059625983
30	0x3c9d182f	0.01917657
31	0x3d5ae1a3	0.05343784
32	0x3ad829de	0.001649197
33	0x3c96e4a4	0.018419571
34	0x3c5998cb	0.013281058
35	0x3d069de2	0.032865413
36	0x3d8aef33	0.06783905
37	0x3cc796c6	0.024363887
38	0x3bc74e7a	0.006082353
39	0x3cdeb515	0.027185956
40	0x3c80f301	0.015740873
41	0x3c0a8d16	0.008456489
42	0xbbf3748f	-0.0074296664
43	0x3d20c357	0.03924879
44	0x3da4aaf2	0.08040418
45	0x3d7f21f2	0.062288232
46	0x3d32447c	0.043522343
47	0xbc22ab48	-0.009928532
48	0x3d0139b3	0.031549167
49	0x3d107d07	0.035275485
50	0x3d4f3fa6	0.05059781
51	0x3b878434	0.004135633
52	0xbcf46f1d	-0.02983814

residual_layers.0.layer_norm.weight f4 [64]
0	0x3f6f661c	0.9351518
1	0x3f81c1af	1.0137233
2	0x3f89cec2	1.0766222
3	0x3f78011a	0.9687668
4	0x3f8cd481	1.1002351
5	0x3f85c8a0	1.0451851
6	0x3f796e58	0.97433996
7	0x3f706534	0.93904424
8	0x3f6b5774	0.9193032
9	0x3f717d81	0.9433213
10	0x3f7c64c2	0.98591244
11	0x3f6743a2	0.90337574
12	0x3f73ab5c	0.9518335
13	0x3f7481dc	0.9551065
14	0x3f815a97	1.0105771
15	0x3f8160f8	1.0107718
16	0x3f7b3ab0	0.98136425
17	0x3f7ee0d6	0.9956182
18	0x3f632e81	0.88742834
19	0x3f70d5b2	0.94076073
20	0x3f819183	1.0122532
21	0x3f7c5ca0	0.98578835
22	0x3f737e9e	0.9511508
23	0x3f695e0b	0.91159123
24	0x3f7f5b10	0.99748325
25	0x3f786c17	0.9703993
26	0x3f753c5b	0.9579522
27	0x3f7242d8	0.94633245
28	0x3f7066bc	0.9390676
29	0x3f6baa1d	0.9205645
30	0x3fabfdbd	1.343681
31	0x3f751a45	0.9574321
32	0x3f6e2ab1	0.9303389
33	0x3f7be481	0.98395544
34	0x3f80469b	1.0021547
35	0x3f6e9858	0.9320121
36	0x3f6b6d6c	0.9196384
37	0x3f6a9b12	0.9164287
38	0x3f784b4e	0.96989906
39	0x3f7c443e	0.9854163
40	0x3f729cb2	0.9477035
41	0x3f7836c2	0.96958554
42	0x3f71b1d7	0.9441199
43	0x3f71f11e	0.9450854
44	0x3f73c90d	0.95228654
45	0x3f74cdec	0.9562671
46	0x3f6974fc	0.9119413
47	0x3f798ebf	0.9748344
48	0x3f7d0b07	0.9884495
49	0x3f78a111	0.9712077
50	0x3f75ffc6	0.96093404
51	0x3f7d6af2	0.9899131
52	0x3f811e8a	1.0087445
53	0x3f6589de	0.89663494
54	0x3f7acf2b	0.97972363
55	0x3f78845c	0.97076964
56	0x3f87a83c	1.0598216
57	0x3f9890b5	1.1919161
58	0x3fabe03e	1.3427808
59	0x3f764d1a	0.962114
60	0x3f745112	0.95436203
61	0x3f86ed8d	1.0541245
62	0x3f7ee719	0.9957138
63	0x3f6deb4a	0.9293715

residual_layers.0.layer_norm.bias f4 [64]
0	0xbc530444	-0.012879435
1	0xbd81ebc0	-0.06343794
2	0x3c0a77ef	0.008451446
3	0x3ba91161	0.0051595424
4	0xb99d11ad	-0.00029958543
5	0x3d6f6c30	0.058452785
6	0xbd381e58	-0.044950813
7	0x3c447ecf	0.011993124
8	0x3c8760d8	0.01652567
9	0xbc915ea9	-0.017745333
10	0x3d098654	0.03357537
11	0x3d0cfb92	0.034419604
12	0xbd008802	-0.031379707
13	0x3ba817e7	0.0051298025
14	0xbcf40a98	-0.029790208
15	0x3c88ff97	0.016723437
16	0xbae7c773	-0.0017683342
17	0xbd0e696b	-0.034768503
18	0x3c018463	0.007905099
19	0x3bcb1259	0.0061972556
20	0xbca5bc82	-0.02023149
21	0xbc6074a1	-0.0136996815
22	0x3d2684bc	0.04065393
23	0x3c7b9319	0.015354895
24	0xbc538a32	-0.012911366
25	0x3d0cccfc	0.034375176
26	0x3c39b625	0.011334931
27	0x3c82634b	0.015916487
28	0x3cd42270	0.025895327
29	0x3b69393a	0.0035587088
30	0x3cc7b9bb	0.024380555
31	0x3cd13d60	0.025541961
32	0xbd685ecd	-0.056731034
33	0x3c7c6c65	0.015406703
34	0x3d0fb8a6	0.035088204
35	0xbd23ca7d	-0.03998803
36	0x3ca5056b	0.020144185
37	0x3b34dd81	0.0027597847
38	0xbc721544	-0.014775578
39	0x3d02a9a6	0.03190007
40	0x3c955aeb	0.01823183
41	0x3c77671f	0.01510027
42	0xbcc98313	-0.024598634
43	0xbd00f4ce	-0.031483464
44	0x3d1cdc14	0.03829582
45	0x3ca0234b	0.019548079
46	0xbcdafcb1	-0.02673182
47	0xbd1ba977	-0.03800341
48	0xbb5fa29a	-0.0034124018
49	0xbd2c512f	-0.04206961
50	0x3c34b59b	0.011029626
51	0xbc833779	-0.016017662
52	0xbcdbec09	-0.026845949
53	0x3c6c4d89	0.014422783
54	0x3cff22af	0.031144468
55	0x3d1d122c	0.03834741
56	0x3b316526	0.0027068346
57	0x3cb8eaf8	0.02257298
58	0x3c8d5891	0.017254146
59	0xbd4287a5	-0.047492642
60	0xbd4b8d9a	-0.04969559
61	0xbcc6539c	-0.02420979
62	0x3c80e29a	0.015733052
63	0x3cc2d33d	0.023782367
