results/DDPM/SEQ_LEN/63/model_final.pth (torch, 204551 bytes, 26 tensors)

layer_x.weight f4 [64, 53]
000000 b4 4e 88 bc e4 7d f6 bc ee 93 d3 bc 4f db 14 bb
       -0.016639091 -0.030089326 -0.025827374 -0.0022713726
000010 ef 85 97 bc 35 08 db bc 52 9e 07 be fe 56 14 bd
       -0.018496482 -0.026737312 -0.13243988 -0.036215775
000020 83 ac 4f bd ce 20 86 bd f3 52 88 3d ae cb 56 3d
       -0.05070163 -0.06549226 0.06656446 0.052440338
000030 31 6d fa bc 13 78 d3 3d 45 eb 73 3b 4b 19 f9 bb
       -0.030569645 0.10325637 0.003721909 -0.007601892
000040 0b c5 a3 3c f0 16 75 bc 0c 27 f5 3b 42 6b ae 3d
       0.019991418 -0.014959082 0.0074814614 0.085165516
000050 fe 16 b2 ba cb 65 79 3d ad db e6 3c 61 83 ba 3c
       -0.0013587174 0.060888093 0.028180921 0.022767724
000060 0b cf 67 3d cf a3 40 bd 7b 49 ac bb ec 95 9a 3d
       0.056593936 -0.04703122 -0.005257783 0.075481266
000070 8c 5e 76 3d 29 d2 d1 bd 57 fe bb bc 18 d6 75 bd
       0.06014876 -0.10245163 -0.022948427 -0.06001863
000080 4e 01 2a 3e 1c d3 03 3c 12 f4 e4 bb 84 ea 0b 3d
       0.1660206 0.008045938 -0.0069871033 0.0341592
000090 78 fb e9 bd 73 ec 75 bd b4 e8 ca b9 be f9 0e bd
       -0.11424917 -0.06003995 -0.0003870182 -0.03490614
0000a0 68 ae 85 3e fc 6f cc 3c d8 03 37 3d 65 91 3f 3e
       0.26109624 0.024955742 0.0446814 0.18707807
0000b0 39 2d 93 3d 31 1c 04 3d 35 85 07 bd 85 26 fd bd
       0.0718636 0.032253448 -0.03308602 -0.12360863
0000c0 cb ce 78 be 2d 61 ec 3c f0 bb ca 3b 84 7d 37 bd
       -0.24297635 0.02885493 0.0061869547 -0.044797435
0000d0 71 39 5d bd 49 a4 d0 bc 5c 53 4f bd fa 41 f0 bd
       -0.05400986 -0.025468962 -0.050616607 -0.11731334
0000e0 bb 70 cb bc 1e ec d2 bb c1 f8 d5 3c e5 71 9b 3d
       -0.024834028 -0.006436839 0.026119592 0.07590083
0000f0 84 98 03 3b 27 98 47 bd 23 3f f3 3d 13 57 cd 3c
       0.002007992 -0.04872909 0.11877277 0.025065934
000100 53 1f c4 bc c6 67 5c 3c a7 80 02 bd 97 c5 18 3d
       -0.023940718 0.013452476 -0.031860974 0.03729781
000110 c4 1c 18 3e 0a 78 a1 bc 76 51 d3 bc 62 3f c2 bd
       0.14854723 -0.01971056 -0.02579568 -0.094847456
000120 63 73 b5 3d 49 6a 78 3d da a9 4a 3e 1f 70 63 3c
       0.08859899 0.060648236 0.19791356 0.013881712
000130 09 b8 3f bc 16 7a 61 3e e4 75 43 3d 12 64 d7 bc
       -0.011701592 0.22019228 0.04771985 -0.026292834
000140 80 18 cc bd 7a 4d 30 bc cc 7e a2 bd c3 1d 0d bd
       -0.099656105 -0.010760659 -0.07934341 -0.03445221
000150 10 d4 6d bd f8 9b 0b 3d aa 24 86 bd 1e 9d dc bc
       -0.058063567 0.03408429 -0.06549962 -0.026930388
000160 91 44 96 bd 07 0c 50 bd 2f cf c3 3d 5c b6 cd 3c
       -0.07337297 -0.05079272 0.095610015 0.02511137
000170 7e 6a 38 3d ec 28 70 bd c4 11 7d bd 81 de 00 be
       0.045023434 -0.058632776 -0.06178452 -0.12584879
000180 2c 18 98 3c 78 7b 32 bd 38 2d db bd 0c 78 f2 bc
       0.018566214 -0.04357478 -0.10701984 -0.029598258
000190 64 44 0a bd b3 a2 43 3e ec f5 81 3d 97 07 c3 bc
       -0.03375663 0.19105034 0.06345734 -0.02380733
0001a0 c1 f2 02 be 47 d6 51 be 17 18 a0 bd bf e1 0d 3d
       -0.12787916 -0.20491897 -0.07817095 0.034639116
0001b0 53 1b a8 3d b6 5d 60 3b 2d c1 35 3d 98 f9 33 3b
       0.08208337 0.0034235544 0.04437368 0.0027462002
0001c0 ba 3f 41 3e 9c eb 30 3c 7e db 17 3d 64 3e 04 3e
       0.18871966 0.010798361 0.03707456 0.12914425
0001d0 3d 14 0c 3d 8a 75 46 bc ba 0d a9 bc d4 33 71 3d
       0.03419899 -0.012112984 -0.020636428 0.058887318
0001e0 1f 48 47 3d 04 8b 3a bd d7 57 a8 3d db d0 df 3c
       0.048652764 -0.045542732 0.08219879 0.02732127
0001f0 98 24 9d 3d 56 7e fd bc 4c 47 56 3d fd a0 8c bd
       0.07672995 -0.03094403 0.052314088 -0.068666436
000200 06 73 07 3d 24 5c 29 3d e5 2f 38 3d a2 86 de bb
       0.03306868 0.041347638 0.04496755 -0.006790952
000210 60 7c 99 ba eb 6a 13 bc 53 95 0c 3e 5f a9 53 bc
       -0.001171004 -0.008997659 0.13728838 -0.012918799
000220 63 a7 20 be de f9 f5 bc 23 eb 69 bb e2 1c bb 3c
       -0.15688853 -0.030026373 -0.003569313 0.02284092
000230 3e 38 3a 3d 9d be 1d 3d 70 6e 3b 3e 05 43 91 3d
       0.045463793 0.03851186 0.18303847 0.07092861
000240 f6 b1 29 bd 8c b6 70 3d f3 7d 2d be 95 2f 95 3d
       -0.041429482 0.05876784 -0.16942577 0.07284466
000250 f6 8e 4e 3c 72 42 33 bc 94 e3 01 3d fa 31 31 3e
       0.012607327 -0.010941135 0.031711176 0.17304221
000260 e3 e2 2d 3d ff b9 b8 3c e4 52 1e bb fe ec 92 3c
       0.042452704 0.022549627 -0.0024158293 0.017935272
000270 e0 6f 05 3c 8c 3a 06 bd e8 43 17 bd 62 8b 13 be
       0.008144349 -0.03277068 -0.036929995 -0.14408639
000280 66 18 b3 3d 0f 55 0b 3d 35 0c 00 3c d9 78 91 3d
       0.08744888 0.034016665 0.00781541 0.07103128
000290 34 0c 1e 3d 20 f0 6a 3e 01 c2 d3 3b 65 87 6f 3e
       0.038585857 0.22943163 0.006462336 0.23391493
0002a0 7c 7a 38 bd ce 03 1b 3d 30 8f b8 3d 73 34 57 3d
       -0.045038685 0.037845425 0.09011686 0.052540254
0002b0 c3 69 f7 3c 70 b9 dc 3d ec ea 4c 3d e5 fe 98 3c
       0.030201798 0.10777557 0.050028726 0.01867623
0002c0 98 b4 94 3c 47 0d 50 3c 2c 15 6d be 23 69 05 3d
       0.01815252 0.012698478 -0.23152608 0.03257097
0002d0 2e 5a 05 3d 3e 17 4d bd ff 88 ae 3d d1 b9 04 bd
       0.032556705 -0.050070994 0.08522224 -0.03240377
0002e0 71 d7 65 3c 46 ff bd 3d 26 77 81 3d de da 21 3d
       0.014028416 0.09277205 0.06321554 0.03951537
0002f0 f6 ea b0 3d 97 24 ec 3a 7d c2 a3 bb 7b cf 81 3c
       0.08638565 0.0018016276 -0.00499755 0.015846005
000300 4e e0 6d 3c 33 43 d5 3d 06 83 38 3e 44 4f d9 ba
       0.01451881 0.10413208 0.18018731 -0.0016579409
000310 ac ae ba 3d 1f 78 01 bd 85 3c 23 bd 43 f0 fc 3d
       0.09115347 -0.031608697 -0.039852638 0.12350514
000320 cc 55 cd bc 0c 2a 20 3d 0e c6 3b 3b 1d 52 aa bd
       -0.025065325 0.0391026 0.0028651985 -0.08316443
000330 c8 68 b2 3d 82 a7 00 be 67 4f 50 be 37 5e 07 3c
       0.08711392 -0.12563899 -0.2034279 0.008262209
000340 95 01 e9 3d c5 4c 18 3d ef 42 9d 3d c9 1e 84 3d
       0.11377255 0.037182588 0.07678782 0.06451184
000350 42 61 e6 3b 7d 5b de bc 26 3e c2 bd dd 2f 2b 3d
       0.007030637 -0.027143234 -0.0948451 0.041793693
000360 22 0d d0 3c 70 9e da 3b bf b1 69 bd a9 66 28 bc
       0.025396887 0.0066717193 -0.057054278 -0.010278382
000370 b4 dd 83 3d a2 5b 1f 3d d5 17 09 be a6 d7 25 3d
       0.06438771 0.038905747 -0.13387997 0.04048886
000380 76 39 0b 3d 34 30 3d 3e ae a0 bf 3c 5f 61 57 3d
       0.033990346 0.1847542 0.023392048 0.052583095
000390 84 24 d7 3d a9 2c 14 bb e8 ae e9 bd 84 e3 1d bd
       0.10505012 -0.0022609627 -0.11410314 -0.038547054
0003a0 5c 8a c2 3c c8 e1 1e 3c dc 80 fb 3c d1 8a eb bb
       0.023747616 0.009697385 0.030701093 -0.007188179
0003b0 29 0a 9b bd ce f7 c9 3b ea ca 43 ba a9 4b 8e 3e
       -0.07570297 0.006163574 -0.0007468896 0.277921
0003c0 8e 83 18 3d 37 8c ba 3b 75 8f 34 be a4 42 12 3e
       0.037234835 0.0056929844 -0.1763285 0.14283234
0003d0 09 99 83 3c 68 28 ac 3d 4a 4b 2f bd c9 60 60 bc
       0.016064184 0.084061444 -0.04279641 -0.01369495
0003e0 5d 7e 18 3d a5 5b 9f bd e9 f1 13 bd 8c d1 b0 3d
       0.037229884 -0.07781152 -0.036119375 0.08633718
0003f0 75 b3 08 3b e4 99 81 3d f5 0b 63 bd 97 59 ed bc
       0.0020858918 0.063281804 -0.055431325 -0.028973384

layer_x.bias f4 [64]
000000 6b 6b a1 3e e8 c2 97 3d e6 e8 8c 3e ee 76 45 3e
       0.31527266 0.07410222 0.27521437 0.1928365
000010 13 61 6b 3e ba 29 53 3e ac ab f2 3d fa df b1 3e
       0.2298625 0.20621386 0.1184915 0.34741193
000020 79 89 70 3e ad a7 4c 3d a3 b0 6d 3e 13 ee 82 3e
       0.23489942 0.049964596 0.23211913 0.2557226
000030 01 ef 63 3e 55 db 22 3e a3 65 98 3e a6 b6 72 3e
       0.22259142 0.15903981 0.29765043 0.23702487
000040 b2 91 55 3e 14 28 b0 3e f5 a0 31 3e 30 9f cd 3e
       0.2085636 0.34405577 0.17346556 0.40160513
000050 1f 9e 42 3e dc 85 a8 3e f1 03 9b 3e 96 d8 58 3e
       0.19005631 0.32914627 0.30276445 0.21176371
000060 9a d9 61 3e dc 55 58 3e 14 20 72 3e 97 d3 a1 3e
       0.22055665 0.21126503 0.2364505 0.31606743
000070 59 61 80 3e 0b a5 b9 3e 6c 24 7f 3e 0d 3b cb 3e
       0.2507427 0.3625873 0.24916238 0.3969349
000080 db ec 95 3e dc e6 93 3e 70 cc a2 3e 4c d2 aa 3e
       0.2928227 0.2888707 0.31796598 0.3336357
000090 c7 9b 73 3e 89 bd d3 3d 59 f2 84 3e 14 50 ac 3e
       0.23789893 0.10338885 0.25966147 0.33654845
0000a0 05 b9 89 3e 44 cc 9a 3e e0 4b 92 3e cf f0 93 3d
       0.2689897 0.30233967 0.28573513 0.07223665
0000b0 be 04 58 3e 20 be 9d 3e 27 a0 af 3e 49 8f d2 3c
       0.21095559 0.30809116 0.34301874 0.02570309
0000c0 9c d6 8d 3e 64 89 53 3e ef 36 e6 3c e8 84 08 3e
       0.27702796 0.20657879 0.028102366 0.1333195
0000d0 9a f2 32 3e 7c 1d 00 3e b7 60 b2 3e 49 ab bc 3e
       0.17475358 0.12511247 0.34839413 0.3684943
0000e0 fa 18 8d 3e 8e fe 99 3e ef fd 77 3e 51 5d 6e 3e
       0.27558118 0.30077022 0.24217962 0.23277785
0000f0 f8 1a ad 3e 8e c1 5c 3e a2 60 b6 3e 40 a5 03 3e
       0.33809638 0.2155821 0.356206 0.12856007

layer_t_1.weight f4 [64, 64]
000000 fe 3b 05 3e 5f 94 ed bd fe 68 65 ba 5f 73 85 bc
       0.13011166 -0.11600565 -0.0008751302 -0.016290365
000010 59 63 1e be 6c 67 8c bd 98 90 69 3c 47 14 11 be
       -0.15467586 -0.06855664 0.014255665 -0.14167891
000020 66 0d 00 be ca 70 bf bd bb 0c ec 3c db 05 f0 3d
       -0.12505111 -0.09347685 0.028814664 0.11719867
000030 48 3f 8c bd d4 8e 8b bc 0c b6 0b bd 2f 0d 9d bd
       -0.068480074 -0.01703588 -0.03410916 -0.0766853
000040 ee d8 b7 3d 77 75 5c be 40 9a 02 3c ac a7 4f 3e
       0.08976923 -0.21529184 0.007971346 0.20278805
000050 61 e5 f6 bd d0 ef e8 bd d0 3a 78 ba ca 71 0d 3e
       -0.12055469 -0.113738656 -0.0009469213 0.13812938
000060 f1 be e6 bd 99 07 d9 3c 9f 5f e6 bd 86 4f 12 be
       -0.11266888 0.02649288 -0.11248707 -0.14288148
000070 08 11 b7 3d b5 3f 16 be b0 69 d0 3d d8 84 db 3b
       0.08938795 -0.1467274 0.10176408 0.006699186
000080 96 bd 26 3d 6c db f1 3c 4c 8b 78 3d cc 1e 3c bd
       0.040708147 0.029523574 0.06067972 -0.045927808
000090 40 6b ad 3b 2f bf a5 bd 1d 65 14 bd 1f 25 9a bc
       0.005292326 -0.08093106 -0.03622924 -0.018816529
0000a0 85 1d 90 3d 1c 7d a1 3d 4f 20 03 3e 32 28 ae bd
       0.070368804 0.07885191 0.12805294 -0.085037604
0000b0 18 3c ab bd a3 82 b3 3d 8f 02 11 be 6d 33 d6 3c
       -0.08361071 0.08765151 -0.14161132 0.026147569
0000c0 bc e9 18 3d 6b 23 05 bd 2f 3b a6 3c 2c e0 e9 bc
       0.03733228 -0.03250448 0.020291893 -0.028549276
0000d0 1d cf b4 3d 6b 7d 85 bd 30 ae 26 be a1 10 ff 3c
       0.08828566 -0.06518062 -0.16277385 0.031135859
0000e0 de 44 e5 3d 92 7e b3 3d d7 f0 cf 3d d6 c7 e1 3d
       0.11194776 0.08764376 0.101533584 0.11024444
0000f0 30 c4 ad 3c 99 65 e6 3d 9c 0c 80 bc 00 4f b6 bd
       0.021211714 0.11249847 -0.015631013 -0.08901787
000100 3d 72 10 3e 4e 6a 79 bb 36 d4 8b bc 1d 99 28 be
       0.14106078 -0.0038057747 -0.017068963 -0.16464658
000110 37 ef 53 bd 03 9e 1d 3e be 2d 84 3d 5c ea 80 3d
       -0.051741805 0.15392308 0.06454037 0.062947005
000120 0b 83 02 3e 34 3a 0c 3e 6e a3 d3 bd 82 e4 6d 3c
       0.12745301 0.13694078 -0.10333906 0.014519813
000130 15 63 96 bd 28 19 d7 bd 18 b5 7d bd c1 d8 16 3d
       -0.07343117 -0.10502845 -0.061940283 0.036827806
000140 e3 09 3c bd 2a b8 ca 3d 19 ea 90 3b c0 68 8d bc
       -0.045907866 0.09898408 0.004422438 -0.017261863
000150 77 84 63 bd e4 77 f4 3d 9e 39 8b 3d 70 98 e0 3b
       -0.05554625 0.1193693 0.06798099 0.0068541095
000160 16 24 61 bc f3 71 c6 bc 54 8d 8e bd 38 e1 b8 3c
       -0.013741514 -0.024224257 -0.0696055 0.02256833
000170 9c 47 de bc 1c ee cb bd ad a2 f5 3c 33 c8 ec bd
       -0.027133755 -0.09957525 0.029984796 -0.115616225
000180 b2 77 43 3d f4 f6 02 3e 84 eb 24 bd fc 95 26 bd
       0.047721572 0.12789518 -0.040263668 -0.04067038
000190 1b 48 af bd 02 2f 7a bd c2 36 50 3c 50 0b 8d 3d
       -0.08558675 -0.061079986 0.012708368 0.06886923
0001a0 22 33 19 3d 3b 81 24 3e a9 48 17 3e 4d cc 1a 3b
       0.03740228 0.16064923 0.14773811 0.0023620308
0001b0 b5 8c 4b 3d 1b 0d 01 be 25 da 94 bd ee 58 b5 3b
       0.049694736 -0.12602656 -0.0726817 0.005534283
0001c0 3c ce 2a 3d 72 08 43 3d 53 88 fe bc 2b 9c 51 3c
       0.041700587 0.047615476 -0.031070864 0.012793581
0001d0 3e 44 e8 3c 9e 4d eb bc 71 c2 93 3c 49 21 aa 3d
       0.028352853 -0.028723534 0.018037053 0.0830713
0001e0 57 5b fa bd e8 8c e3 bd b3 0c e5 bd 0f c8 2f 3c
       -0.12224453 -0.1111086 -0.11184063 0.01072885
0001f0 c8 1f 7a 3c 89 45 8f 3d 47 7c c8 3d f1 2d 6c 3d
       0.015266366 0.06995685 0.09789329 0.057661
000200 5a 6d 44 3e 6d 07 11 be 10 6a b0 bd 7b c8 76 bd
       0.1918234 -0.14162989 -0.0861398 -0.060249787
000210 53 47 7d be e9 80 b4 bd 25 29 be 3d af 02 0c 3d
       -0.2473424 -0.0881365 0.092851914 0.034182247
000220 dc 1f 91 3c e7 76 0b bb 16 f0 30 3e 69 02 0a 3d
       0.017715387 -0.0021280588 0.17279086 0.033693705
000230 96 1f 02 3e ac cc 87 3d dd 13 19 3d 3d be 22 bd
       0.12707362 0.06630835 0.03737246 -0.039732207
000240 ae 47 1e 3e 16 c6 bb bd 1b 94 6d 3d bc 70 fe 3d
       0.15457031 -0.09168641 0.058002573 0.12423846
000250 29 7f 1f 3e 5f 29 17 3d 4c a3 35 3d ea 60 bc bd
       0.15575852 0.03690469 0.044345185 -0.091981724
000260 c0 ae d2 bd 58 18 b4 bd a7 36 d3 bd 92 a3 8c bd
       -0.10287237 -0.08793706 -0.103131585 -0.06867136
000270 24 8e 79 bd 02 71 c9 3c fd ad f3 3d c0 3f 24 be
       -0.06092657 0.02459002 0.1189842 -0.16039944
000280 b9 48 d5 bc 90 b5 93 bd 47 7a 3a be 73 24 b5 3d
       -0.026035653 -0.07212365 -0.18210708 0.08844843
000290 53 e1 fe bd f4 14 03 be b1 80 e5 bc 02 5f c9 bd
       -0.12445321 -0.12800962 -0.028015466 -0.098325744
0002a0 fd e4 86 3c c3 18 2b bd 41 b9 2a bd 9e 77 01 be
       0.016466612 -0.04177166 -0.04168058 -0.12643287
0002b0 7f ad df 3d 97 41 6d 3d a6 4b 72 bd c2 53 cb bd
       0.10921764 0.05792388 -0.059154175 -0.09928085
0002c0 a8 eb a1 3a fe 0e 53 be 27 a2 96 bd 4a cd 0a bd
       0.0012353556 -0.20611188 -0.07355147 -0.033887185
0002d0 d5 f0 fb 3d 7e c9 03 3e ea e5 e3 bd c3 98 f9 3d
       0.123017944 0.12869832 -0.11127837 0.1218734
0002e0 63 f2 7c 3d 43 67 21 3d f6 8c 94 bd 72 39 06 3e
       0.061754595 0.03940512 -0.07253449 0.13107851
0002f0 92 25 65 bc ec ef 15 3e f4 aa cb 3d 38 2d ae 3c
       -0.013986008 0.14642304 0.09944716 0.021261796
000300 67 ee 06 3d 42 d3 63 bd 1e 7c ee bc 8a 06 17 bc
       0.032942202 -0.055621393 -0.029111918 -0.009217868
000310 30 65 f3 3d cd 6d 48 3e a2 ea 40 39 59 aa 8f be
       0.11884534 0.19573136 0.00018397954 -0.28059652
000320 ca 0c 29 3e c9 ea 21 be 4f 46 40 3d e7 79 2c 3e
       0.16508785 -0.1581222 0.04694205 0.16843377
000330 ad 2e dd 3d e9 3b 88 be 06 cb bc 3d a6 cd 6f 3e
       0.10799918 -0.26608208 0.09218411 0.23418292
000340 2b 5b 52 3e 9a bf 98 3d 59 9b 6c 3e 0e d7 7c 3e
       0.2054259 0.0745842 0.23106135 0.24691412
000350 27 f2 94 bc b2 08 28 be 29 32 ef bd 17 86 fc 3c
       -0.018181873 -0.16409567 -0.11679489 0.030825658
000360 8f 97 b1 3d d2 a8 1c 3e b4 76 91 be 68 1b 85 bc
       0.08671486 0.15298775 -0.28410876 -0.01624842
000370 aa 76 3a 3d 35 98 20 3d 22 92 8c 3d cf 6c 0d 3c
       0.045523323 0.039207656 0.0686381 0.008631899
000380 62 67 c9 3d 8b bb 13 be 60 c5 01 3e 9c 54 57 3e
       0.09834172 -0.1442701 0.12672949 0.2102837
000390 78 b5 05 be 18 f4 fe 3d 2b 3a 4d 3c e2 11 23 be
       -0.13057506 0.12448901 0.012526075 -0.1592479
0003a0 db ee b7 bd 75 39 26 3e 22 b4 30 be 33 ff 39 3d
       -0.08981105 0.16232856 -0.17256215 0.045409393
0003b0 c9 6d e8 3d 3f 5b ee 3d 67 b5 a0 3b f8 6d 52 3c
       0.11349065 0.116384976 0.0049044373 0.012843601
0003c0 82 ce 42 be 51 0b 62 bd 00 9a 88 bd fb 98 fa bd
       -0.19024089 -0.055186573 -0.06669998 -0.1223621
0003d0 fe 6b b1 3d bc 28 50 bc 0d 92 fe bd d3 62 e5 bc
       0.08663176 -0.012705024 -0.12430201 -0.028001225
0003e0 3b ad 8a 3d b8 52 45 3e 3e 2a 93 3d 09 87 8b 3d
       0.06771322 0.19269836 0.071857914 0.06812865
0003f0 57 25 d3 bc 27 4f 40 be d7 ae 41 be af f7 1d bd
       -0.025774641 -0.18780194 -0.18914352 -0.038566288

layer_t_1.bias f4 [64]
000000 b0 57 b0 3d 9f be 8d bd 48 51 0e be ba 93 49 bd
       0.08610475 -0.06921124 -0.13898194 -0.04921315
000010 d0 2e 01 bd 83 c3 28 be 4e c9 26 3d 02 bc a4 bd
       -0.031538785 -0.16480832 0.040719323 -0.08043672
000020 ad 17 5c bd ab ea 6b bd d7 7b 76 bd 5e 0a 94 bd
       -0.053733516 -0.057596844 -0.060176697 -0.0722854
000030 2e c9 0f bd ee 77 42 3d 2c 5c bf bd 0f b2 9d 3d
       -0.03510397 0.047477655 -0.09343752 0.076999776
000040 46 64 98 bd c2 95 ea bc dd df 27 3d 76 6a 9f 3d
       -0.07441001 -0.028635863 0.040984977 0.07783978
000050 c0 8b c8 3d 5d 7e 40 3e 10 b4 99 bd ae 7f 48 3d
       0.0979228 0.18798204 -0.07505047 0.04894989
000060 34 38 3a 3d 24 7e 02 3e b3 04 8f 3b 05 92 03 be
       0.045463756 0.12743431 0.004364574 -0.12848671
000070 e8 56 99 3c da e9 d2 bd 2e 1a c2 3d 8e b7 dd bd
       0.018718198 -0.1029851 0.0947765 -0.10826026
000080 44 53 27 bd ca 48 fb bd ad 8a ef 3c dc 4e 8c 3d
       -0.040850893 -0.12269743 0.02924093 0.06850979
000090 33 60 e3 3d 5f 2f 6c bd 1b 1e f7 bd b9 8d a4 3d
       0.11102333 -0.057662364 -0.12066289 0.08034844
0000a0 7f 46 26 bd 72 9f a9 bd 9e 0e df bb 2a c9 96 bd
       -0.040594574 -0.08282365 -0.0068071624 -0.07362588
0000b0 36 38 87 3d 5f a7 f8 3b aa 73 fa 3c 11 61 d4 3d
       0.06602518 0.0075883116 0.030572731 0.103700764
0000c0 f5 11 46 ba 78 70 40 bd e2 90 7a bd d0 d7 2c bd
       -0.00075557764 -0.04698226 -0.061173327 -0.042198002
0000d0 c9 46 b8 3c 58 53 8b 3d 85 fa 98 3d 21 28 a9 bd
       0.02249469 0.06803006 0.07469658 -0.08259607
0000e0 56 b3 a2 3d 1d 08 67 bd 99 a1 9f bd 04 f8 ca 3d
       0.07944362 -0.05640422 -0.07794494 0.099105865
0000f0 54 cf 1b be fb 69 7d bd 34 c9 19 3e 53 03 31 be
       -0.15215808 -0.06186865 0.15018159 -0.17286424

layer_t_2.weight f4 [64, 64]
000000 81 f7 8c bd 60 2c dd 3c eb 0f a0 3d ad 4e 57 3d
       -0.06883145 0.026998699 0.07815536 0.052565265
000010 e7 5d 4b bc d5 ad 49 bc 98 cc e1 bd 0a a4 0b bd
       -0.012412525 -0.012309511 -0.11025351 -0.034091987
000020 da 75 04 be 79 54 97 bd 23 17 d0 bb 9a 78 c2 3c
       -0.12935582 -0.07389159 -0.0063504144 0.023739148
000030 66 54 c4 3d 71 c6 08 3c e1 65 b6 bd b4 46 38 3d
       0.0958641 0.008348093 -0.089061506 0.044989303
000040 a2 0f 17 3d 3a 93 81 bd 4f 8a 05 be 9d ab ba 3d
       0.036880143 -0.06326909 -0.13041042 0.09114764
000050 3d 06 29 3d 2f 1c 1d be 7a 62 d5 3d b7 0f f0 3c
       0.041265715 -0.15342782 0.104191735 0.029304368
000060 0d ee 94 3d a1 04 47 3d d1 41 d3 3d 0c 5c c1 bc
       0.07271967 0.0485884 0.10315288 -0.023603462
000070 62 06 bc 3d 58 9b cd bc d7 6e aa bd 38 5b 23 be
       0.09180905 -0.025098488 -0.08321922 -0.15952766
000080 28 72 dc bb d4 13 f2 bd 90 de a9 bd b1 4c cf 3d
       -0.0067274757 -0.11820188 -0.082944036 0.101220496
000090 18 e7 36 be c8 7f 1e 3d ee a2 8c bd fd c2 67 3c
       -0.17861593 0.03869608 -0.06867014 0.01414561
0000a0 79 dd ed 3d b4 a6 74 bc 63 4e 4f 3c 9a f7 02 bc
       0.11614508 -0.014932323 0.012652966 -0.007993603
0000b0 2e 34 e3 bd d4 cd 46 bd be ee 01 3e 81 ba f0 bd
       -0.11093937 -0.048536137 0.12688729 -0.11754323
0000c0 a0 94 0f bd ff f7 e4 bd 88 a7 95 bd d0 27 28 bc
       -0.03505385 -0.11180114 -0.07307345 -0.010263398
0000d0 37 e1 f7 bd 46 d8 0a be 9c 09 96 bd 8a f1 d4 bd
       -0.12103503 -0.13559064 -0.073260516 -0.103976324
0000e0 43 dd 43 bd 36 5f 3d be 00 c7 95 3d 1a 59 b1 3c
       -0.047818433 -0.18493351 0.07313347 0.021648932
0000f0 14 e7 f5 bc 73 87 15 be b3 0d 28 be 72 8c 47 3d
       -0.030017413 -0.14602451 -0.16411476 0.048717923
000100 8a df fb bc 89 0e 62 3b 60 28 fd 3d e9 e0 6d 3e
       -0.03074624 0.0034493527 0.123612165 0.23230328
000110 fc 03 0f 3b 64 be 0d be d3 78 0f bd 73 04 0b 3e
       0.0021822443 -0.1384216 -0.035027336 0.13575916
000120 c1 21 2f be f5 a2 38 3e 85 3d cf 3c 57 36 6f 3d
       -0.1710272 0.18030913 0.02529789 0.058401432
000130 54 b8 4b 3e 8f 87 6b 3e da 3b af bd 6a 6d 47 3d
       0.19894534 0.2300093 -0.08556338 0.04868833
000140 34 1e a6 3d 07 dc 94 3d f7 d1 23 bc 94 5a 16 3e
       0.081112295 0.072685294 -0.00999879 0.1468299
000150 cc 9a 56 3e 75 1a 38 3e 83 b1 69 3e a5 07 3b 3e
       0.20957488 0.17978843 0.22821622 0.18264635
000160 8e e0 04 be 6b 3b 40 3c ca ab c7 bd a5 22 1a be
       -0.12976286 0.011732916 -0.09749563 -0.15052278
000170 15 df 54 3e d0 12 54 3e 2d 09 4b bd b8 75 f4 bd
       0.20788224 0.20710301 -0.049569298 -0.119365156
000180 78 c9 b3 bd 34 1a 0a be 2a f9 d7 3c 59 85 8c 3d
       -0.087786615 -0.13486558 0.026363928 0.068613715
000190 6d 9e 31 3d e4 5e 1b 3d 97 78 74 be 3c 67 e1 3d
       0.043363977 0.03793229 -0.23874126 0.110060185
0001a0 b1 0a ad 3e 75 39 ae bd 3d 11 08 be 5a d5 bc bc
       0.3379722 -0.08507053 -0.13287826 -0.023050953
0001b0 cc 3c ee 3d 02 10 41 3d 4d 71 81 3e 94 85 23 3d
       0.1163269 0.047134407 0.25281754 0.039922312
0001c0 43 8a d9 3d 6e ad 82 3d a5 c3 98 3e 86 13 7c bd
       0.106220745 0.06380735 0.29836765 -0.061542057
0001d0 81 b6 6b 3d 6e 21 b9 bc ab 0b 17 3d 1c ed 08 3e
       0.057547096 -0.022598948 0.03687636 0.133717
0001e0 f1 66 ea 3d 6c d9 51 bd a4 74 2b 3c 07 24 76 3d
       0.11445416 -0.05123274 0.010464821 0.060092952
0001f0 f0 50 09 be eb 37 90 bd c8 f6 ff bb 8c 4e 8e bd
       -0.13409781 -0.070419155 -0.007811401 -0.069485754
000200 34 7a c1 3c af 58 a2 bd 59 c3 41 3e fb 5f 0e 3d
       0.023617841 -0.07927071 0.18922175 0.034759503
000210 c7 e9 28 3d 7a 8c e9 bd 23 24 a5 bd d0 e0 b9 bd
       0.041238572 -0.11403747 -0.08063533 -0.09076083
000220 5a 36 cb bd 56 a1 8d 3c f6 3f aa bc 80 c0 14 3e
       -0.09922476 0.017288845 -0.020782452 0.14526558
000230 f6 5f 22 3e d5 4e 2d 3e 27 95 1b be fe a4 af bd
       0.15856919 0.16924603 -0.15193616 -0.08576392
000240 55 d3 a1 3d 9b 0d 90 bd 16 76 51 3c 9c 05 e1 3d
       0.079016365 -0.07033845 0.012784502 0.10987398
000250 6d 79 29 3d 25 58 31 3d e9 44 04 3e 2a ab 97 3c
       0.041375566 0.04329695 0.12916912 0.018514235
000260 bb a1 a2 bb ff a9 84 bd f6 64 b4 3b fa c7 e0 bd
       -0.0049631274 -0.06477737 0.0055051995 -0.109756425
000270 2e 53 c4 3d 5b 95 a7 3d b4 58 33 be a2 80 88 be
       0.09586178 0.08182784 -0.17514306 -0.2666064
000280 0c d0 2b be 40 98 0c be 7c 03 7a 3c 8e 81 9a 3d
       -0.16778582 -0.13729954 0.01525962 0.07544242
000290 e7 75 a2 bd 2c cb 28 bb 15 e5 c0 bd e8 89 b3 3d
       -0.07932644 -0.0025755865 -0.09418694 0.08766538
0002a0 d6 d3 0a 3e 3f df 02 bd 43 4f 49 bd b0 71 9a bd
       0.13557371 -0.031951185 -0.049147855 -0.075412154
0002b0 02 b7 24 3e a2 2b 12 bd 3d 80 0e 3e 78 28 25 be
       0.16085437 -0.035686143 0.13916107 -0.16128719
0002c0 57 e4 e2 3c a9 4d 88 3d cd 6d 97 3e 64 1c eb bd
       0.027696772 0.066554375 0.2957596 -0.114800245
0002d0 ee 83 17 3b 70 96 9b 3d 84 7f 43 3e 20 0b 04 3b
       0.0023119408 0.07597053 0.19091612 0.0020148233
0002e0 62 2c bd 3d 57 bb 18 3d bb df 05 be 56 f6 ff bd
       0.09236981 0.037288036 -0.13073628 -0.12498157
0002f0 c9 0b bf 3c f8 a1 06 be db ea 88 3d 85 92 22 be
       0.02332105 -0.13147724 0.0668542 -0.15876205
000300 2f ef af bd 6c dd 85 bd ad 0c 30 3d 02 64 80 3d
       -0.085905425 -0.065363735 0.04298084 0.06269075
000310 84 71 cb bd 3b e0 0c 3e 85 37 67 bd 14 48 28 3d
       -0.09933761 0.13757412 -0.056449432 0.041084364
000320 f7 a0 93 3d f9 1d 8c 3d 61 c8 f8 3d 53 96 fe bc
       0.07208436 0.06841654 0.12147594 -0.03107754
000330 4a d1 c3 bd 25 f1 91 3c a0 72 cf 3c 7f ae 21 bc
       -0.09561403 0.017815182 0.025323212 -0.009868263
000340 11 8d 79 bd f2 dd 92 3c e8 a0 ea bc 9c 1d 4c 3d
       -0.060925547 0.017928097 -0.02864118 0.049832925
000350 c7 72 bc 3c af 75 d6 3c ae dc d0 3d 62 ca 17 bc
       0.023003949 0.026179163 0.10198341 -0.00926456
000360 59 9c 28 bd 1b 04 d2 bc c1 d7 ca 3d 93 00 40 bd
       -0.04116473 -0.025636723 0.09904433 -0.046875548
000370 6a 25 93 3d 87 87 d1 3c 3a 64 c6 bd 6c 98 dc bd
       0.071848705 0.02557732 -0.096870854 -0.1077126
000380 9c 5e 16 be 17 a7 d7 bd f0 40 0a 3d a3 b9 c0 bc
       -0.14684528 -0.10529917 0.033753335 -0.023526018
000390 79 cd b5 bd d0 45 6e 3d db 20 0c be b7 66 ed bb
       -0.088770814 0.058172047 -0.13684408 -0.0072449106
0003a0 32 cc 36 bd a9 c1 92 3d 25 45 02 be b0 ac 56 bb
       -0.04462833 0.07165844 -0.12721689 -0.0032756738
0003b0 f0 18 ba 3d 8d 42 a8 bc 84 eb 9e 3d db d7 8f 3d
       0.09086788 -0.020539546 0.07759765 0.07023593
0003c0 0e 08 fc bc 42 76 3e bd 7f 09 78 bc 56 68 6f 3d
       -0.03076556 -0.0464995 -0.015138983 0.058449112
0003d0 6a dc 9b bc 51 66 ca 3a 8c fd 36 3d ee 95 ef 3d
       -0.019026 0.001544187 0.044675395 0.11698519
0003e0 0c 19 4e bd d0 b0 d9 3b d2 79 f0 3c 4b 1d 74 3d
       -0.050316855 0.006643392 0.029354963 0.05959825
0003f0 7a cf 22 3d 60 96 b3 bd 30 60 89 bd 0a ae 0f bc
       0.039748646 -0.08768916 -0.067077994 -0.0087695215

layer_t_2.bias f4 [64]
000000 b5 c1 a5 bd 2f 4e d8 3d 35 ad 38 3d 01 62 39 bd
       -0.08093587 0.10561787 0.045087058 -0.04525948
000010 80 7b d9 bd b0 da 91 bd 48 60 f8 3c 3e 3e 48 3d
       -0.10619259 -0.071217895 0.030319348 0.048887484
000020 eb 6b a0 3d aa 4b 24 3e dc ad 84 bd fd 57 bc 3d
       0.07833084 0.16044489 -0.064784735 0.0919647
000030 4e 33 de 3d 7e 3a 00 bd ff de 33 3d b0 5d 30 3d
       0.10849629 -0.031305782 0.043913838 0.043058097
000040 34 a2 f5 bd 2f 01 d0 bc e0 fd ff 3b 60 b8 e9 3d
       -0.119938284 -0.02539119 0.0078122467 0.1141212
000050 37 2a bb bc fb 57 c2 3d 31 2f 52 bd 1f bf b0 3d
       -0.022847278 0.09489437 -0.051314536 0.086302035
000060 55 25 a2 bd 67 60 95 bd 05 89 44 3d 58 15 06 3d
       -0.07917277 -0.07293778 0.047982235 0.0327352
000070 8c 5d ba ba d2 46 ad bd e0 68 8a bd eb c0 e1 bd
       -0.0014218553 -0.084607735 -0.067582846 -0.11023124
000080 83 85 ab bd cb bb d7 3d 7e 33 80 bd 1b e9 14 3e
       -0.08375075 0.105338655 -0.06259821 0.14542048
000090 5f e0 ed 3d 28 f7 e3 3d 8a 27 e8 bd bf 1a fb 3a
       0.11615061 0.11131126 -0.113356665 0.0019157751
0000a0 e0 16 de bd 3d af da 3b 4d 55 c1 3d 15 ac d5 3d
       -0.10844207 0.006673722 0.09440098 0.10433213
0000b0 d5 a9 61 3d 33 9d 6a bb 24 2d 1a bd 2e c9 7e 3d
       0.055093605 -0.0035799264 -0.037640706 0.06220358
0000c0 ea 14 18 3d 84 0b 68 3d 0f 68 8e 3d 3b c5 e5 3c
       0.03712932 0.056651607 0.06953441 0.028048148
0000d0 b5 e4 e0 3d 0c 55 ef bd a3 0b 96 bd c9 ce 4d bc
       0.109811224 -0.11686143 -0.07326438 -0.012561508
0000e0 2d 6e 6d 3c 5b 21 cc 3d 37 90 96 3d 1c 7b c7 3c
       0.0144916 0.099672996 0.073517255 0.024350695
0000f0 2b 7f 6a bd 36 53 6c bd d9 04 6f 3d 2f c7 c8 bd
       -0.057250183 -0.057696544 0.058354232 -0.09803616

layer_out_1.weight f4 [64, 64]
000000 b0 d4 20 bd f9 db 2a bd 4e 0d f2 3d 50 40 98 bc
       -0.039265335 -0.04171369 0.11818944 -0.018585354
000010 39 38 11 3d c4 1d 91 3d fd 4b d6 3c a1 7b a3 bc
       0.03545401 0.070857555 0.02615928 -0.019956412
000020 60 90 0a be e7 3a 7a 3c b8 44 c4 bd 83 fe 2d bd
       -0.13531637 0.0152728325 -0.095834196 -0.04247905
000030 fe 4f a8 bc a6 b8 78 bd ce 77 3e 3c c0 79 e1 bd
       -0.020545956 -0.06072297 0.011625243 -0.1100955
000040 ae 0a c4 3d c3 25 0b 3e 93 53 aa 3d 07 e9 ae 3d
       0.095723495 0.13588624 0.08316722 0.0854054
000050 9a 4f 91 bd 3b d8 f2 3d 7a 57 53 3d d1 de 93 bd
       -0.07095261 0.11857649 0.051597096 -0.07220233
000060 45 54 87 bd 00 d4 fb 3d 3d af 6d 3d b4 9a 47 bd
       -0.0660787 0.12296295 0.05802845 -0.04873152
000070 00 7d a7 bd 98 dd 50 3d 04 3f 78 bb cb 46 8e 3d
       -0.08178139 0.05099258 -0.0037879357 0.069470964
000080 67 13 af 3d 1d ed 47 bd 23 78 15 bd 67 51 f7 bc
       0.085486226 -0.048810113 -0.036491524 -0.030190183
000090 24 5a 27 3e fc 16 03 be 14 5e 14 bd 9b c0 b3 bd
       0.1634298 -0.12801737 -0.036222532 -0.08776971
0000a0 e2 06 c9 3d 0d d1 21 bb c3 da 7c 3c 27 a5 8b bc
       0.09815766 -0.0024691254 0.015433016 -0.017046524
0000b0 2c af fe 3d 22 08 18 3d 65 4b 07 be 78 06 a3 3d
       0.12435755 0.03711713 -0.13212354 0.07960218
0000c0 dc dd b3 bc 03 81 1e 3d c4 13 e7 3d f9 67 f8 bc
       -0.021956377 0.038697254 0.11283067 -0.030323016
0000d0 4e fc 90 bd 61 ab d7 bd 21 13 1b bd 64 6d d1 bd
       -0.07079373 -0.10530735 -0.03786004 -0.10225943
0000e0 ff 1c 11 3b d8 ef 21 be d8 90 d1 39 de 0c 07 be
       0.0022142527 -0.1581415 0.00039971503 -0.13188502
0000f0 6e 0a 25 3c 71 3f 80 bd 26 46 98 3d 0f fa 4e bd
       0.010073287 -0.062621005 0.07435255 -0.050531443
000100 1d 76 b9 bc 50 00 a3 3d e3 60 b2 bd 74 e3 3b bd
       -0.022639329 0.07959044 -0.08709886 -0.045871213
000110 52 e9 2b 3d f3 ae b0 bd 62 4a 54 3d 31 e0 0c be
       0.04197056 -0.08627119 0.05182875 -0.13757397
000120 9b 87 0e 3b 8b 4e 03 be 1a 31 82 bd e0 0c 0c 3d
       0.0021748308 -0.1282293 -0.06357022 0.034191966
000130 f6 3f a7 3c e3 ba 41 3d 13 7d 4c bd f5 0d 8f 3d
       0.020416241 0.04729737 -0.049923968 0.06985084
000140 41 2c d7 bc 14 ac 6a bd e3 4a 0f 3d 49 56 7a 3d
       -0.02626622 -0.057293013 0.034983527 0.061117444
000150 24 b1 46 bd 0d 9d 32 bd 75 96 19 3c c2 da 0c 3e
       -0.04850878 -0.043606807 0.009374251 0.13755324
000160 0c 8b ac bd a0 a2 f9 3d de 8a 34 3d c6 ad b4 bd
       -0.084249586 0.121892214 0.044077747 -0.08822207
000170 99 4c f4 bd c0 00 e3 bd 7a 31 96 bd 9e f7 f8 3b
       -0.11928672 -0.110841274 -0.07333656 0.0075978776
000180 f3 f6 8b 3d 79 72 04 3e ec 71 8a 3d 57 42 f4 3d
       0.06834211 0.12934293 0.0676001 0.11926716
000190 93 ee d8 3d 5a 41 68 bc 0a 36 79 3d 62 57 09 be
       0.105923794 -0.014175737 0.06084255 -0.1341224
0001a0 a8 d8 71 bd 0c dc 7a bc 23 e4 6a bd 25 86 9d bd
       -0.05904451 -0.015311252 -0.057346474 -0.07691602
0001b0 49 ae d1 3d a3 21 81 bc 3d 5b f9 3a 30 9b 22 3d
       0.102383204 -0.01576311 0.0019024384 0.03969878
0001c0 a8 b8 0b be 90 69 9d bd 47 3a 32 bd 4d 65 de 3c
       -0.1364466 -0.0768615 -0.04351261 0.027147913
0001d0 91 c0 f0 3b eb 96 7e 3d c2 64 00 3c 1e 80 b3 bd
       0.0073471745 0.062155645 0.007836523 -0.08764671
0001e0 ab a7 b2 bd 8b e8 15 bd d7 9e de 3d 71 48 1c bd
       -0.087233864 -0.036598723 0.1087014 -0.038155023
0001f0 b0 e9 e0 3c cb 36 29 bd 34 5c ea bc a3 57 01 bd
       0.02745518 -0.04131202 -0.028608419 -0.031577718
000200 b6 b4 cd bd cd ec a6 bd f7 ee da bc 08 d2 1b 3d
       -0.100442335 -0.08150635 -0.026725275 0.0380421
000210 ee fe 7b bc 03 87 89 bd df 8b cf bd 58 07 0f be
       -0.015380604 -0.067152046 -0.101341 -0.13967645
000220 82 24 20 be 8c 52 3c bd af ec 76 bd c5 05 6c bd
       -0.15638927 -0.04597716 -0.060284313 -0.05762269
000230 33 d8 91 bd 72 db 01 3e 06 a9 75 3d 37 c0 29 3e
       -0.07121315 0.12681368 0.059975646 0.1657723
000240 01 33 ec 3d b8 e8 00 bd 90 e3 2a bc 30 b6 3b 3c
       0.11533166 -0.031471938 -0.010430232 0.011457011
000250 ca 2b 03 be 6e 84 0a 3e 42 ed cc 3d c4 68 27 3d
       -0.12809673 0.1352708 0.10006191 0.040871397
000260 86 46 de bd a0 0c 44 bd 5f 64 03 bc 48 fb bf bd
       -0.10853295 -0.047863603 -0.008019536 -0.093741
000270 e0 a9 81 3b f1 ca 54 bc 3b 51 a9 bb f0 dd 17 3e
       0.0039570183 -0.012987838 -0.005167154 0.14830756
000280 6d df 17 3e 57 d8 0d 3d 92 7f 3a bb a0 61 ec bc
       0.14831324 0.034630146 -0.0028457385 -0.028855145
000290 74 c9 3a 3d 61 9c f1 bc 8b 2b ce 3d dc 75 48 bd
       0.045602277 -0.029493513 0.10066899 -0.048940524
0002a0 7c 80 12 3d 86 57 da bd e7 32 b8 bd 75 46 2c 3d
       0.035767063 -0.10661225 -0.08994084 0.04205938
0002b0 de 6c c3 bd 16 a8 cd 3c f2 e6 ef 3a 4d 5f a2 bd
       -0.09542249 0.025104564 0.001830308 -0.079283334
0002c0 1e 56 c6 3c 05 c6 cc 3d 53 3a 58 bd 3d 0c 88 3d
       0.024210986 0.09998707 -0.052789997 0.06642959
0002d0 54 d9 ff 3c 0d 27 0f bc 85 f1 c5 3d 6f 26 97 bd
       0.03123156 -0.008737338 0.09665207 -0.073803775
0002e0 07 49 7a 3d 16 f3 6b 3d c6 2e 47 bc 9b 81 df bd
       0.0611048 0.05760487 -0.012157148 -0.10913392
0002f0 45 1a 2d bd dd e1 0d bd a6 42 89 bd fc e9 0f 3d
       -0.04226138 -0.034639228 -0.06702165 0.035135254
000300 9e 4e 97 bd ca e2 a9 bd 27 3e 53 3d e9 61 7f 3d
       -0.07388042 -0.0829521 0.051572945 0.062349234
000310 46 b4 03 3d b9 47 d1 bd 47 7b 22 bd 03 d7 91 3d
       0.032154344 -0.10218758 -0.039668348 0.07121088
000320 ac 75 97 bd 46 3b 34 3d 21 a0 5e 3c bd 2e c3 3d
       -0.07395491 0.04400184 0.013587982 0.09530399
000330 65 60 b7 bc 67 0c 2b be 08 26 20 be ef 22 44 bd
       -0.022384832 -0.1670395 -0.15639508 -0.047884878
000340 e0 fb 4b 3d fd 65 a1 3c 7d 21 bc bc 1b e3 c5 bb
       0.049800754 0.019701952 -0.022965187 -0.006039036
000350 7e 1a a3 bb 92 41 01 bc 8b 0b 89 3d 70 55 d3 3d
       -0.0049775233 -0.007889168 0.06691655 0.1031903
000360 21 f6 7c bd c3 74 60 3d 21 99 b3 bd 7b 19 1a be
       -0.061758164 0.054798853 -0.087694414 -0.15048783
000370 8d 35 bc 3d 88 6c 07 be 6c 18 3f 3c bb e8 be 3d
       0.091899015 -0.13224995 0.0116635375 0.093217336
000380 85 63 9e bd bb 0c 28 bd a7 3a a5 bd 14 bf 07 3d
       -0.077338256 -0.041027766 -0.08067828 0.03314121
000390 2d c1 ea bb 07 12 b5 bd 80 51 0c bd c1 c1 55 3d
       -0.0071641416 -0.08841329 -0.034257412 0.05218673
0003a0 f9 a6 03 bb 43 57 8e bd f3 d3 f7 bc a8 e1 53 bd
       -0.0020088537 -0.069502376 -0.030252432 -0.051728874
0003b0 a0 6d 3e 39 7e ed 0f 3c 31 dd 8a 3d e8 c5 87 bd
       0.0001816065 0.00878465 0.0678047 -0.066295445
0003c0 e3 50 bc bd a8 40 02 3e e7 71 13 3e fa e3 0c 3e
       -0.091951154 0.12719977 0.14398919 0.13758841
0003d0 59 c9 f5 3c dc a3 bc bc 28 f2 d3 3d 00 31 cc 3c
       0.030003237 -0.023027353 0.10348922 0.024925709
0003e0 db 21 e7 bd f6 36 fb bc d3 47 a0 3d e8 e6 04 3e
       -0.11285754 -0.030665856 0.078261994 0.12978709
0003f0 96 91 21 3e e5 ea e3 3c dd 62 f4 bc 3d 5d 32 bd
       0.15778193 0.027821967 -0.029832298 -0.04354595

layer_out_1.bias f4 [64]
000000 87 f2 ba 3d 99 21 8b bd 28 5f 36 3d 89 d5 ba 3d
       0.0912829 -0.067935176 0.04452434 0.0912276
000010 45 f5 82 3d 5f 7c cf 3d 83 87 ac 3d 57 b4 55 bd
       0.06394438 0.10131144 0.08424284 -0.05217394
000020 41 47 2b 3e 58 c6 38 bd f4 1c cc 3b 98 90 a3 bc
       0.167264 -0.04511103 0.0062290374 -0.019966409
000030 31 0f bb 3d d1 94 9b 3d e2 7b cf bd 26 b2 9c bd
       0.09133757 0.07596744 -0.10131051 -0.076511666
000040 ab a4 df bd c1 80 d1 bd 19 88 c7 bd a0 9d 2d bc
       -0.1092008 -0.10229636 -0.097427554 -0.010596663
000050 bd bc 2b 3d 1a 8c 7c bd b3 17 17 be ed 4e c3 bd
       0.04192804 -0.06165705 -0.14755134 -0.09536538
000060 13 4b cc 3d ab 83 d5 bb 3f b3 a0 bd 0e 27 ea bd
       0.09975257 -0.00651594 -0.078466885 -0.1143323
000070 9d 2b dd bd a3 cf c6 bd e9 1a be bc a8 a9 33 be
       -0.10799334 -0.09707572 -0.023206191 -0.17545187
000080 46 ff 9f 3d ce e5 61 3b dc 53 4e bd 19 fa 58 bd
       0.078123614 0.003446925 -0.050372943 -0.052972887
000090 80 41 4d 3d 83 5f 86 bd 27 27 c7 bd b4 b2 85 3c
       0.050111294 -0.06561186 -0.097242646 0.016320564
0000a0 49 0a 0a 3d 8f 04 99 bb 45 d5 3d bd 08 d5 4a 3d
       0.033701215 -0.004669733 -0.046345968 0.04951957
0000b0 6a a0 a9 3c 1f a0 75 bd be 53 91 3d 24 38 54 bc
       0.020706374 -0.059967156 0.07096051 -0.012952838
0000c0 e9 c3 86 bd 20 b9 5c bd f1 dc b8 bb ce 17 02 3e
       -0.06580336 -0.053887486 -0.0056415726 0.12704393
0000d0 98 5b 0e be 27 96 e3 bc 32 ce d5 bd 31 db 22 3d
       -0.13902128 -0.02778156 -0.10439719 0.03975982
0000e0 0c e6 c0 bc 3e e8 8a bc f4 d0 6c 3d 46 36 fe 3c
       -0.023547195 -0.016956445 0.05781646 0.031031739
0000f0 83 5b 31 3c 6a b6 41 3d 7a 44 0e be ed 26 a7 bd
       0.010825041 0.047293104 -0.13893309 -0.081617214

layer_out_2.weight f4 [53, 64]
000000 5a 08 9b 3d 8c 4b 3e bd 72 6c ac 3c 1e 57 8e 3c
       0.07569952 -0.046458766 0.021047805 0.017375525
000010 f5 96 5f bd 18 a3 4c bd 11 fa f3 bc d3 cd 27 be
       -0.054587323 -0.049960226 -0.029782327 -0.1638711
000020 4e 5e 91 3d 6b 2b ec 3d a0 91 4a bd 64 1c c5 bd
       0.07098065 0.11531719 -0.049455285 -0.09624556
000030 c2 4e d4 bd 2a a5 db bc 89 05 47 be 67 2a c3 bd
       -0.10366584 -0.026812155 -0.19435705 -0.09529572
000040 fe e7 8c 3d 78 cf 4e bd eb 2f 93 3d 61 50 94 3d
       0.068801865 -0.050490826 0.07186874 0.072418936
000050 a1 b8 a5 bd bc 9c 04 3d 06 24 9d 3d f9 47 a5 bd
       -0.08091856 0.032376036 0.076728866 -0.08070368
000060 4f dd 45 bc b8 aa fd 3c 73 42 4b 3d 16 40 54 3d
       -0.01207669 0.030965194 0.049623918 0.05181893
000070 f6 c2 52 bc 7b fd 4c 3e 63 10 d0 bd 53 2b 95 3d
       -0.012863865 0.2001857 -0.101593755 0.07283654
000080 f3 0d 82 3a 1e 7d 12 3e 91 15 49 3d bc 35 e1 3d
       0.000992237 0.14305541 0.049092833 0.10996577
000090 56 9b 82 3d ae 6d cb 3d 9a 38 4b bc 87 de 41 3d
       0.06377284 0.09933029 -0.012403632 0.04733136
0000a0 a3 14 f4 3d 74 2c 2b 3d 8a f4 af bd 31 a8 2b be
       0.11917999 0.04179044 -0.08591564 -0.16763379
0000b0 63 28 5e 3d 0a b5 85 bc 3f 5f 54 3c 97 f1 a2 3c
       0.054237735 -0.016321678 0.012962162 0.01989059
0000c0 3c 7b ff 3c ca 21 2f 3d 0b b3 f1 3b 09 eb 1a be
       0.031186692 0.042756833 0.00737608 -0.15128721
0000d0 f9 36 bd bb 9e 4a f6 3c ad a0 af bd 83 b3 ba bc
       -0.0057743755 0.030064877 -0.08575568 -0.022790676
0000e0 de 20 88 bd d5 0f 99 3d 09 47 d8 3d 23 ad 23 bd
       -0.06646894 0.07473723 0.10560424 -0.039960038
0000f0 f1 92 f9 3b 81 5c 40 bd 76 b4 89 3b dd 33 b7 bd
       0.0076163937 -0.04696322 0.004202421 -0.08945439
000100 42 14 5d 3d 18 77 3a 3c ad 8c da bc 01 48 6e bd
       0.053974397 0.011380933 -0.026678408 -0.058174137
000110 19 46 6f 3c 9d 18 67 bd e3 89 f4 bc a1 b2 23 bd
       0.014604115 -0.056419957 -0.029850906 -0.039965276
000120 02 1c a9 3d 2f c4 bd 3c a5 21 a4 bc 8c db 4b bc
       0.08257295 0.023164837 -0.020035574 -0.012442481
000130 4a d9 39 bc 72 9d d6 3a b2 7b 81 bc 95 5d 88 3d
       -0.01134331 0.0016373827 -0.015806053 0.06658474
000140 05 fc ac 3d af 6b 04 3d 8b 70 34 3d a4 9c d6 bd
       0.084465064 0.032329258 0.04405264 -0.104790956
000150 ad de ce bd 82 32 e0 3b 96 34 33 bd 64 3b a2 3c
       -0.10101066 0.0068419585 -0.04375132 0.01980371
000160 31 0f 98 bb 4b fe d1 3c 03 9e 9a bc fb 25 a3 3c
       -0.004640483 0.025633952 -0.018874174 0.019915571
000170 05 83 25 bd 57 80 48 bd 52 57 7f 3d 65 f5 f6 3c
       -0.040408153 -0.04895052 0.062339135 0.03014631
000180 ea 51 83 3d 45 79 7e bc ce fb 14 3e c9 3e 17 3c
       0.06412108 -0.015531843 0.14549181 0.009231278
000190 31 f7 c3 3c 69 46 49 bd 39 58 bf bd 24 df 8e bc
       0.023921581 -0.049139414 -0.09342999 -0.017440386
0001a0 fa 8d 0a bc 7b cf 3e bc 60 58 3e bb bf 9d 4a 3d
       -0.008456701 -0.011646147 -0.0029044375 0.049466845
0001b0 dd 02 b8 bc 0b b9 72 bc 9f 78 96 3d a9 e6 19 3d
       -0.022462303 -0.0148146255 0.073472254 0.03757349
0001c0 8a a1 05 3c 74 af 84 bc 84 49 8d bb 1a 15 15 bc
       0.00815619 -0.016196944 -0.0043117423 -0.009099269
0001d0 62 09 75 bd a3 a2 a1 3d 35 b0 ba bc a6 69 2c bd
       -0.0598234 0.078923486 -0.0227891 -0.04209294
0001e0 e0 b3 c9 bc b3 36 ce bd 8f 9f 32 3d 75 39 d4 bd
       -0.024621904 -0.10069027 0.0436092 -0.103625216
0001f0 4e 9e 03 3e 07 23 65 bd ad 99 6f 3d e9 ab 82 bd
       0.12853357 -0.055941608 0.058496166 -0.063804455
000200 ec 43 30 be 63 de f0 3d ac 1b e6 3d 42 67 fd bb
       -0.1721341 0.11761167 0.11235747 -0.0077332566
000210 92 55 0b be 84 32 2d 3d 0b db 73 3a 3e b2 d5 bd
       -0.13606861 0.042284504 0.00093023543 -0.104343876
000220 aa f4 1e 3e ee 95 b8 bd b7 d6 53 bc 28 71 fe bd
       0.1552302 -0.09012972 -0.01292961 -0.124239266
000230 d4 75 97 3d 86 bd d3 3d 75 c1 27 be 3f e5 92 3d
       0.07395521 0.10338883 -0.16382392 0.071726315
000240 dc ad 9e 3d 67 e0 40 3d d2 96 ef 3c d8 aa 0d bd
       0.07748005 0.047089007 0.029246721 -0.034586757
000250 3f a0 a8 bd 1e 29 cd 3d b1 c5 05 3d db 7c 23 3d
       -0.082336895 0.10017608 0.032659236 0.039913993
000260 a6 73 3b 3c 88 d2 f7 3d d5 62 47 3d a4 0d b9 3c
       0.011441147 0.121007025 0.048678238 0.022589512
000270 3c db c8 bd ec 54 66 3c 80 16 74 bd bc e5 7d 3d
       -0.09807441 0.014058333 -0.05959177 0.06198667
000280 85 67 f3 bb 0f 44 aa bc 4b ef af 3d 87 e5 54 3d
       -0.007428112 -0.020784406 0.085905634 0.051976707
000290 a5 a3 83 3c 17 10 89 bd b1 3c b3 3d 6e 69 c1 bd
       0.016069243 -0.06692522 0.0875181 -0.09443937
0002a0 20 65 a5 3d e4 20 8b bd b9 1d a7 3d 60 85 ee 3c
       0.08075929 -0.06793383 0.08159966 0.029116333
0002b0 ca 7c 88 bb 81 a4 c0 bd e3 7c bc 3d e0 36 27 bd
       -0.0041652666 -0.09406377 0.09203508 -0.040823817
0002c0 89 3a 4d 3c 79 13 0f be 04 e7 94 bd e2 bd 88 3d
       0.012526163 -0.13972272 -0.07270625 0.06676842
0002d0 ce a0 2a 3b 99 ab a0 bd 8f 4f 61 3d 8d df 85 3b
       0.0026035788 -0.0784523 0.055007514 0.004085487
0002e0 53 ac 87 3d 03 b5 0f 3e 58 c1 c1 bd e5 ca a8 bd
       0.06624665 0.14033894 -0.094607055 -0.08241824
0002f0 5b f4 48 3c 35 46 d7 bd ad b9 c2 3d c7 c0 74 3d
       0.01226529 -0.10511438 0.09508071 0.05975416
000300 df a8 58 3b e4 d2 88 bd dc be 57 3d 21 f8 27 3d
       0.003305964 -0.06680849 0.052672252 0.04100812
000310 5b 3e 8a bd ff 47 bf 3d 12 f4 c1 3d 51 f8 f9 bc
       -0.067501746 0.09339904 0.09470381 -0.030513914
000320 0c 6c d4 3d c8 20 0b 3d ca 88 39 3e 60 5c ee 3d
       0.10372171 0.03396681 0.18118587 0.11638713
000330 f9 44 c1 bd 7d ed a0 3d 1d 31 d1 3c 53 23 05 3d
       -0.094369836 0.07857797 0.025536114 0.03250439
000340 52 90 55 3c 4e 05 7c 3d 3d a3 3f bd b4 8e 9e bd
       0.013034897 0.061528496 -0.046786536 -0.07742062
000350 44 d0 9a bd 51 c5 b5 3c bd 77 cc bd be 78 6c bc
       -0.07559255 0.022188814 -0.09983776 -0.014433084
000360 07 81 08 bc 35 9c 8e 3c 3d 50 b1 bc aa 85 cf 3a
       -0.008331544 0.01740847 -0.021644706 0.0015832682
000370 0d e2 b2 3d ec ce aa bb 55 61 83 bd 23 35 47 3d
       0.08734522 -0.0052126553 -0.06415049 0.04863466
000380 8c 5e 00 3d 16 e6 60 bc a6 6c 6c 3d 40 22 59 3d
       0.031340167 -0.013726732 0.057720803 0.05301118
000390 43 34 00 be 2f 0e bf bc 3f c5 d6 bd 61 25 3d 3d
       -0.12519936 -0.023322193 -0.104868405 0.046178225
0003a0 49 50 10 bc 8f b8 37 3d 3f 5e e0 bd 1e e4 1d bd
       -0.008808204 0.044853743 -0.10955476 -0.038547628
0003b0 39 16 b5 bd 51 93 e3 3b 82 97 68 bd 46 c1 2b be
       -0.08842129 0.0069450517 -0.056785114 -0.16772947
0003c0 5d fe c1 bc 33 a6 bb ba 37 69 97 bb af aa 83 bd
       -0.02368086 -0.0014316499 -0.004620697 -0.0642904
0003d0 01 1a e9 3d 75 42 84 3d 59 95 f6 bc da 58 15 3c
       0.11381913 0.06457988 -0.030100511 0.009115422
0003e0 c5 65 96 bd 55 ec c7 3d 07 f8 30 3a 0c af 7e bc
       -0.0734363 0.09761874 0.0006750826 -0.015544664
0003f0 6f 17 ab bc 5b a1 a8 bd 6d 89 06 3d 5e fb 3f 3d
       -0.020885197 -0.08233901 0.032845903 0.04687058

layer_out_2.bias f4 [53]
000000 69 b9 ae 3d 41 83 34 bd d1 41 2e 3d b6 56 67 bc
       0.08531458 -0.044070486 0.042543236 -0.014119795
000010 db 45 1d 3d ee 5b 90 bd 85 4f ba 3d 3e 81 1b 3d
       0.038396697 -0.07048784 0.090971984 0.03796505
000020 37 11 ab bd 0e ca 98 3d 9e 2b 33 3b b0 24 a3 3d
       -0.08352893 0.07460414 0.002733923 0.07965982
000030 d4 20 b8 3c 8f b5 61 3c de 42 45 3d 7d fc 23 3d
       0.022476591 0.013776197 0.048159473 0.040035713
000040 fc d5 39 3c 18 f5 a3 3c 71 3e d4 3c 34 48 97 bd
       0.011342522 0.02001433 0.02590868 -0.073868185
000050 00 51 a8 3c 3c df 59 bd 8f 68 92 3d 22 0b 30 3c
       0.020546436 -0.05319141 0.07148849 0.010744842
000060 f8 e6 ec bc d2 b5 6a bb 25 50 4e ba ad f7 e0 3d
       -0.028918728 -0.003581394 -0.0007870219 0.109847404
000070 67 3f ac 3d 7c 40 bc 3d 72 9b c1 3b 91 44 3a 3d
       0.084105305 0.09191987 0.005908423 0.045475546
000080 96 d3 00 3d 7b 56 ef 3c 4b 20 9a bd 38 5e 3b bd
       0.031451784 0.029216042 -0.07525691 -0.04574415
000090 5b a2 bc 3d 58 14 1b bc e8 05 d5 3d fa 24 8f bc
       0.09210654 -0.0094653 0.10401517 -0.017473686
0000a0 a3 63 88 3d 09 ca af 3d 25 87 25 3c db ce 0a bd
       0.06659629 0.08583457 0.010103022 -0.03388868
0000b0 45 94 b6 3d e3 98 22 3d 4a c1 36 3d 37 23 0c bb
       0.08914999 0.039696585 0.04461793 -0.0021383294
0000c0 26 20 d8 3c 93 49 75 3d fb 06 2c 3d 7b 0d 13 3d
       0.026382517 0.05988462 0.041998845 0.035901528
0000d0 65 97 2b 3d
       0.041892428

residual_layers.0.layer_norm.weight f4 [64]
000000 47 82 78 3f b5 c0 62 3f f3 23 6b 3f 2f 74 6e 3f
       0.9707379 0.885753 0.9185173 0.9314603
000010 6e 73 67 3f 08 b8 6d 3f bf 4a 69 3f c0 a7 8e 3f
       0.90410507 0.92858934 0.9112968 1.1144943
000020 4a 54 79 3f 00 f2 6a 3f 5e 37 7e 3f 85 75 70 3f
       0.9739424 0.9177551 0.99303234 0.9392932
000030 97 37 78 3f 46 34 6a 3f c5 a3 7f 3f 4b 6f 73 3f
       0.96959823 0.9148601 0.9985927 0.95091695
000040 22 34 73 3f 87 77 78 3f 83 65 7f 3f e4 2d a1 3f
       0.95001423 0.97057384 0.9976427 1.259213
000050 15 a2 6d 3f 48 ce 81 3f 36 04 7c 3f 4a bb 78 3f
       0.9282544 1.0141077 0.98443925 0.9716078
000060 d8 41 81 3f e9 c4 60 3f 20 1f 71 3f 47 e9 88 3f
       1.0098219 0.8780046 0.9418812 1.069619
000070 af a5 76 3f 8d e9 a4 3f b5 b0 6d 3f e9 c0 ae 3f
       0.96346563 1.2883774 0.9284776 1.3652622
000080 ff 77 7a 3f c2 88 7f 3f 85 94 95 3f 58 04 7f 3f
       0.9783935 0.9981805 1.168595 0.99616003
000090 fa f9 78 3f 13 55 5f 3f 05 8e 83 3f d9 76 7d 3f
       0.97256434 0.8723919 1.0277716 0.9900947
0000a0 66 64 73 3f db 27 81 3f 0d 27 79 3f 7b 0a 67 3f
       0.9507507 1.0090288 0.9732521 0.90250367
0000b0 87 90 77 3f 09 30 80 3f 20 5c 7a 3f 13 b1 6a 3f
       0.96704906 1.0014659 0.9779682 0.91676444
0000c0 fe 0c 73 3f 35 84 6c 3f 52 08 60 3f 58 da 7d 3f
       0.949417 0.9238923 0.87512696 0.9916129
0000d0 77 41 6f 3f ee 0e 73 3f 73 1a 7b 3f dd 0d 89 3f
       0.93459266 0.94944656 0.98087233 1.0707356
0000e0 b4 be 6b 3f e4 cd 6e 3f e8 26 76 3f 94 92 7d 3f
       0.92087865 0.93282914 0.96153116 0.99051785
0000f0 e9 75 7b 3f 5f ec 65 3f 8f fa 7d 3f e9 7d 67 3f
       0.9822679 0.898138 0.9921045 0.904265

residual_layers.0.layer_norm.bias f4 [64]
000000 3d e1 07 bd bf 62 fb bc 43 e3 4d bd 8f fc 7f 3d
       -0.03317379 -0.030686734 -0.05026556 0.062496718
000010 70 56 48 bd 43 cf bd 3b d1 b9 8a 3c 6c c0 30 bd
       -0.04891056 0.00579253 0.016934307 -0.043152258
000020 85 bf d6 3b 82 2d 9e bc 2c b2 22 bd 0a b4 c1 3b
       0.0065535926 -0.01930881 -0.0397207 0.005911355
000030 d4 61 0e 3c d6 33 bf 3c 0f b9 29 bd e0 89 b8 3c
       0.008690316 0.023340147 -0.04143625 0.022526681
000040 f3 92 c0 bb 62 d6 cc 3c 96 d7 55 3c 98 b4 b6 3c
       -0.0058768927 0.02500457 0.013051888 0.02230291
000050 c4 ef a5 bc 6f b9 73 bc 2a e0 aa ba 91 1a 40 3d
       -0.02025593 -0.014875754 -0.0013036777 0.046900336
000060 23 c2 0f 3d 36 23 bc 3b b9 cf 6c 3a 74 33 8b 3a
       0.035097253 0.005741502 0.00090336386 0.0010620193
000070 9f 2a b1 3c bb b4 d5 bc 7e 1e 9f bc e6 0a ac bc
       0.021626769 -0.026087156 -0.01942372 -0.02100129
000080 e7 9b 13 3b fd 5a 99 bc b5 f2 ec 3c 07 59 05 bb
       0.0022523345 -0.018720144 0.028924325 -0.0020347254
000090 84 75 0d 3d 92 2b d2 3c 2a 1a 93 3c e2 0d 93 bd
       0.0345359 0.025655542 0.017956812 -0.07180382
0000a0 14 ec 4d bc 96 d6 34 bd 94 4d 48 bb 5f 4f 6c 3d
       -0.012568492 -0.044149958 -0.0030563818 0.05769288
0000b0 af 8a 25 bc 7d 5f eb bc 40 36 12 bd f5 32 6d 3c
       -0.0101038655 -0.028732056 -0.035696268 0.014477481
0000c0 5f 88 ab 3a 4b 71 9e 3c 9e 26 47 3b 5b 35 d9 3c
       0.0013086906 0.019341132 0.0030388008 0.0265147
0000d0 b8 08 87 bb fc 87 77 3b 4f 82 7e bc fa 59 f1 3c
       -0.0041209124 0.0037770262 -0.015533998 0.02946185
0000e0 3f c1 9f bc d0 d4 50 3c 0f 8b ee bc 60 f9 2e 3d
       -0.019501327 0.012746051 -0.029119043 0.04271829
0000f0 7e e7 57 3b 7b 43 35 3d 44 0b 22 bc 98 25 35 3c
       0.0032944377 0.044253808 -0.009890381 0.011056326
