results/DDPM/SEQ_LEN/63/model_final.pth (torch, 661767 bytes, 26 tensors)

layer_x.weight f4 [128, 53]
-0.00024577955 0.1770295 -0.07694634 0.060894296 -0.0027868063 0.055819653 -0.10031516 0.13339616
0.029182512 0.024777424 0.006273179 0.043586962 -0.107416 -0.07587428 -0.059474763 -0.094995044
0.063431695 0.038577456 -0.016655063 -0.005427661 -0.0562233 0.12377219 -0.07917524 0.06431781
0.19353434 0.093689576 0.1500163 0.12393978 -0.14901526 0.06669734 -0.07211576 0.028013669
0.049149536 -0.007904725 0.09275661 -0.06122273 0.11119274 -0.11182091 -0.090775825 -0.049274623
0.076036476 0.22166754 -0.050772335 -0.11201133 0.051950824 -0.07238665 -0.106267445 0.060705345
-0.09174118 0.07598531 -0.011962766 -0.10923011 0.09938451 0.06301196 0.01290554 0.047260452
0.11175353 0.036825225 -0.018880202 0.08003129 -0.0025479202 -0.026925098 -0.07008097 0.042096026
0.04755311 -0.029762957 0.19382012 -0.08468795 0.037817884 -0.13127135 0.09134751 0.058233697
0.12652655 -0.15279898 -0.020182496 0.024273418 -0.044046607 -0.058071937 -0.06312968 -0.08915648
-0.04932434 0.03423875 -0.15930052 -0.06901496 -0.0023936685 -0.07719109 0.060878675 0.02691442
-0.0039172703 0.02239553 -0.026333872 -0.17748132 -0.007452376 0.0017609108 0.052987803 0.12824693
-0.06449446 0.00092450646 0.05680466 0.10027615 -0.11435703 -0.0073914765 -0.004164432 0.027685089
0.022646727 -0.012784687 0.086724974 -0.072506405 -0.020324992 -0.101037756 0.22255878 0.05012637
0.12306054 0.12998961 -0.081318974 0.0076726214 0.05501628 -0.1037276 0.06918139 -0.041458443
0.016091255 0.16462812 0.022645319 -0.064143285 -0.00017882054 0.04764832 0.18347688 -0.07593119
-0.039659016 -0.15561034 -0.0065351226 0.045211274 0.01637322 -0.028770762 -0.0640052 -0.040268663
-0.06681788 0.00070465694 -0.16187197 -0.034841765 0.027823348 -0.09518531 0.18401918 0.044052165
0.0070850602 0.032637995 0.09750154 0.021789989 0.07508746 -0.04622178 0.0007988336 0.038843255
-0.1253113 -0.09432838 -0.1351253 -0.013669212 -0.03199393 -0.050702143 -0.055516683 0.07175719
0.08767772 -0.033360723 -0.04505177 -0.076017566 0.002090488 0.06454969 0.028605254 0.030628854
0.008768832 0.07828441 -0.22113466 -0.03698601 -0.084623136 -0.07573265 0.1600993 0.08731681
0.15237305 0.08440344 -0.030176716 -0.08969567 -0.08691214 -0.15138285 -0.020143664 0.038659442
-0.024211094 0.09194087 0.13222918 0.025740916 -0.024534553 -0.10550415 -0.11499577 -0.054370746
-0.08233289 0.11317553 -0.038309958 0.06355706 -0.01891419 -0.097904876 0.117276005 -0.13921112
-0.14055425 -0.048633233 0.07317759 0.14395653 0.011581833 0.054682698 0.22563425 0.00010721035
0.10006947 -0.11258829 -0.04765169 -0.06498016 0.044617113 -0.0076069743 -0.06867189 0.057123207
-0.077474095 -0.08985701 -0.1419331 0.07637317 0.109396525 -0.11549139 0.10502502 -0.03485642
0.024294065 -0.0091441125 0.052336838 0.07936334 -0.028425124 0.13354608 -0.090716206 0.011201179
-0.012075185 0.06769239 -0.039235722 -0.0841761 0.12118256 0.08643967 -0.1541833 -0.1562105
0.06174732 -0.058885764 -0.040623613 0.06579 0.00050647114 -0.11100202 0.16190639 -0.14160556
0.005046391 0.08152849 -0.028174939 -0.09701201 -0.07155032 -0.14972636 -0.14300993 0.16775744
00000000: f9db 80b9 3947 353e 0b96 9dbd 4c6c 793d
00000010: daa2 36bb 26a3 643d 0972 cdbd 0199 083e
00000020: 2a10 ef3c 06fa ca3c 3d8f cd3b 3e88 323d
00000030: ebfc dbbd f963 9bbd cf9b 73bd c38c c2bd
00000040: 7ae8 813d 6503 1e3d 3370 88bc 85da b1bb
00000050: 674a 66bd 467c fd3d a126 a2bd 0eb9 833d
00000060: de2d 463e 52e0 bf3d df9d 193e 24d4 fd3d
00000070: 7597 18be 9d98 883d 6db1 93bd ec7c e53c
00000080: 0651 493d d282 01bc 2df7 bd3d afc4 7abd
00000090: 05b9 e33d 5c02 e5bd ade8 b9bd 30d4 49bd
000000a0: 03b9 9b3d d1fc 623e a7f6 4fbd 3266 e5bd
000000b0: 63ca 543d 743f 94bd bfa2 d9bd 2ba6 783d
000000c0: cde2 bbbd 309e 9b3d 7aff 43bc 09b4 dfbd
000000d0: 1b8a cb3d 6a0c 813d c271 533c 2d94 413d
000000e0: 09df e43d 0cd6 163d a7aa 9abc 72e7 a33d
000000f0: 02fb 26bb 0692 dcbc 9d86 8fbd e26c 2c3d
00000100: 0dc7 423d 72d1 f3bc c878 463e e070 adbd
00000110: ede6 1a3d ff6b 06be 6714 bb3d 7586 6e3d
00000120: 2d90 013e 5677 1cbe c355 a5bc 0cd9 c63c
00000130: 376a 34bd d7dc 6dbd 224a 81bd ac97 b6bd
00000140: 5208 4abd ee3d 0c3d ad1f 23be b757 8dbd
00000150: 18df 1cbb 5d16 9ebd eb5b 793d a17b dc3c
00000160: 725c 80bb d576 b73c 22ba d7bc aabd 35be
00000170: 1033 f4bb 5dce e63a bd09 593d 2a53 033e
00000180: ac15 84bd 945a 723a 01ac 683d 955d cd3d
00000190: 0534 eabd 3334 f2bb ca75 88bb d7cb e23c
000001a0: a185 b93c dd76 51bc dd9c b13d 3d7e 94bd
000001b0: 9980 a6bc e2ec cebd 73e6 633e 4f51 4d3d
000001c0: 2a07 fc3d ff1b 053e 908a a6bd 9d6a fb3b
000001d0: c058 613d 236f d4bd f9ae 8d3d 54d0 29bd
000001e0: cfd1 833c 4694 283e ad82 b93c 8e5d 83bd
000001f0: c681 3bb9 e32a 433d 5de1 3b3e d081 9bbd
00000200: 7e71 22bd 5158 1fbe 9524 d6bb 752f 393d
00000210: 2221 863c a9b0 ebbc 2915 83bd c1f0 24bd
00000220: d0d7 88bd bab8 383a c4c1 25be 3db6 0ebd
00000230: caed e33c 84f0 c2bd 866f 3c3e 0b70 343d
00000240: cb29 e83b 6baf 053d e3ae c73d eb80 b23c
00000250: 74c7 993d 0d53 3dbd d168 513a 1b1a 1f3d
00000260: 9b51 00be 3d2f c1bd 495e 0abe d5f4 5fbc
00000270: 110c 03bd 0dad 4fbd 7665 63bd 6ff5 923d
00000280: 6090 b33d 41a5 08bd 3488 38bd 19af 9bbd
00000290: 9200 093b a132 843d 9155 ea3c 5de9 fa3c
000002a0: 26ab 0f3c 9453 a03d 2071 62be a47e 17bd
000002b0: e54e adbd b819 9bbd 12f1 233e 28d3 b23d
000002c0: ae07 1c3e b6db ac3d 2935 f7bc 5db2 b7bd
000002d0: fefe b1bd 1b04 1bbe 5304 a5bc 5d59 1e3d
000002e0: 5856 c6bc 7f4b bc3d 1667 073e 9dde d23c
000002f0: b0fc c8bc 8f12 d8bd e782 ebbd dcb3 5ebd
00000300: 259e a8bd 93c8 e73d e7ea 1cbd 342a 823d
00000310: eef1 9abc 5a82 c8bd 672e f03d 5c8d 0ebe
00000320: 74ed 0fbe a433 47bd 22de 953d 5769 133e
00000330: bac1 3d3c f7fa 5f3d aa0c 673e 1ed6 e038
00000340: 39f1 cc3d b094 e6bd 6b2e 43bd 5114 85bd
00000350: 6fc0 363d ed43 f9bb d9a3 8cbd 06fa 693d
00000360: bdaa 9ebd f406 b8bd e956 11be 8969 9c3d
00000370: 490b e03d c086 ecbd 5c17 d73d 9bc5 0ebd
00000380: 5904 c73c 30d1 15bc 275f 563d 3f89 a23d
00000390: cedb e8bc 4ec0 083e 6bc9 b9bd 2685 373c
000003a0: ffd6 45bc 4fa2 8a3d a3b5 20bd 8564 acbd
000003b0: 902e f83d 4807 b13d 3ae2 1dbe a5f5 1fbe
000003c0: c2ea 7c3d 3332 71bd f264 26bd e8bc 863d
000003d0: b4c4 043a 0755 e3bd caca 253e 0c01 11be
000003e0: 325c a53b 69f8 a63d 21cf e6bc 3cae c6bd
000003f0: f988 92bd de51 19be 3271 12be 9bc8 2b3e

layer_x.bias f4 [128]
0.12917677 0.24630745 0.16863973 0.034975868 0.004055647 0.17202993 0.22702716 0.21237834
0.23405118 0.20255338 0.22687635 0.09150644 0.25363517 0.28400558 0.24197719 -0.012307533
0.14724009 0.18442592 0.30631664 0.121722795 0.11484695 0.23779266 -0.007919195 0.025079202
0.011710005 0.09453637 0.2499569 0.24751408 0.25223348 0.16469441 0.16652738 0.2430777
0.21908453 0.1062304 0.0668565 0.15345961 0.21108033 0.18030427 0.03905887 0.059248343
0.09605902 0.17270887 0.28126925 0.15522012 0.18710344 0.27341747 0.23491313 0.1415053
0.24719341 0.2308068 0.2228307 0.071633205 0.20084132 0.17997624 0.18276355 0.0974663
0.19776756 0.11908697 0.30149186 0.070837945 -0.0033823117 0.26053184 0.0984939 0.17432515
0.03435721 0.03420227 0.15194772 -0.012081714 0.23245507 0.22516479 0.24771625 0.21628577
0.036296513 0.1420872 0.021394001 0.28104088 0.24069598 0.18178214 0.07942991 -0.023068925
0.24338813 -0.06407187 0.20929404 0.2237646 0.14290647 0.01160307 0.30975235 0.24254622
0.26366955 0.081578754 0.31397218 0.19748503 0.24170095 0.098020725 0.16865964 0.027568672
0.2944982 0.18208349 0.21227296 0.041606292 0.2861164 0.1684648 0.03198422 0.21745776
0.30884132 0.21231617 0.08058473 0.26669702 0.19734032 0.120461665 0.27910718 0.13310787
0.15986894 0.1728117 -0.010013501 0.07544923 0.1900912 0.213327 0.24800408 0.17006248
0.06913028 0.22763404 0.015015031 0.22638118 0.050857127 -0.031114042 0.03560715 0.13348398
00000000: ea46 043e 0538 7c3e e5af 2c3e db42 0f3d
00000010: 3ce5 843b 9d28 303e cf79 683e b579 593e
00000020: 1dab 6f3e 276a 4f3e 4652 683e ba67 bb3d
00000030: 78dc 813e 2e69 913e dec8 773e 89a5 49bc
00000040: 1bc6 163e 26da 3c3e 89d5 9c3e cd49 f93d
00000050: e134 eb3d eb7f 733e 83bf 01bc e672 cd3c
00000060: 52db 3f3c 499c c13d b4f4 7f3e 5574 7d3e
00000070: bf24 813e a7a5 283e 2786 2a3e 5ce9 783e
00000080: b257 603e 538f d93d 10ec 883d 8424 1d3e
00000090: 7125 583e afa1 383e 32fc 1f3d 64ae 723d
000000a0: 97ba c43d 98da 303e 8602 903e 06f2 1e3e
000000b0: 0b98 3f3e 60fd 8b3e 118d 703e c4e6 103e
000000c0: 4520 7d3e 9e58 6c3e bb2d 643e 6eb4 923d
000000d0: 59a9 4d3e b14b 383e 5e26 3b3e 699c c73d
000000e0: 9483 4a3e dfe3 f33d 245d 9a3e 7c13 913d
000000f0: c6a9 5dbb 6e64 853e 2bb7 c93d 4b82 323e
00000100: 25ba 0c3d ae17 0c3d 2f98 1b3e 62f2 45bc
00000110: b408 6e3e 9991 663e 54a9 7d3e 047a 5d3e
00000120: a7ab 143d 4f7f 113e 7942 af3c 97e4 8f3e
00000130: 0279 763e 1925 3a3e 26ac a23d 0bfb bcbc
00000140: bd3a 793e 1d38 83bd 2d51 563e 8c22 653e
00000150: 1356 123e ce1a 3e3c dc97 9e3e 095e 783e
00000160: b2ff 863e c312 a73d f6c0 a03e 8439 4a3e
00000170: 7480 773e 17bf c83d 1db5 2c3e b2d7 e13c
00000180: 78c8 963e 1874 3a3e 155e 593e 5c6b 2a3d
00000190: d97d 923e 0982 2c3e e301 033d 3fad 5e3e
000001a0: 7320 9e3e 6969 593e 9b09 a53d 838c 883e
000001b0: 9513 4a3e 9bb4 f63d 23e7 8e3e 6e4d 083e
000001c0: afb4 233e 8df5 303e ab0f 24bc 2085 9a3d
000001d0: 44a7 423e 6572 5a3e c8f4 7d3e dc24 2e3e
000001e0: 2d94 8d3d e618 693e 9b01 763c 78d0 673e
000001f0: 904f 503d e0e2 febc ced8 113d 06b0 083e

layer_t_1.weight f4 [128, 128]
-0.031381913 -0.013029758 0.045651082 -0.037643492 0.08470783 0.04142582 0.041960713 -0.0037992687
0.028690103 0.027628975 0.0024117548 0.07024503 0.042306405 -0.058609102 -0.036072094 -0.08375097
0.028638642 -0.052878797 0.054906633 0.027322104 -0.03254326 -0.093498714 -0.103917114 -0.027206507
-0.0047378144 -0.0261673 -0.04881565 -0.022922695 -0.046045013 -0.11341773 -0.056484725 0.04102839
0.044212278 0.08318211 0.113350525 -0.0021811281 -0.081690535 0.022600198 0.027348492 -0.05971511
0.060611382 -0.0024063347 -0.033986624 0.0074424064 0.069554135 -0.035359524 0.033406552 0.041318934
-0.012922212 -0.04688143 -0.034870498 -0.042030238 0.088967256 0.08022375 0.085917555 -0.047253735
0.10467418 -0.10240637 0.035185788 0.03919842 0.054163653 -0.0189003 -0.07437597 -0.0007490121
0.0711604 -0.016313793 0.070443824 -0.032382865 0.04670609 0.052897125 -0.0069754403 -0.06299269
-0.05049071 0.11740325 0.027695108 -0.07248873 -0.06429388 0.07021975 0.1154101 0.07943577
0.07417352 0.077430725 -0.052285507 -0.02664324 0.039838154 0.061360605 -0.027575327 0.1032271
0.0051654484 -0.0450728 -0.051804382 -0.05308726 0.08902829 0.048494153 -0.025730943 -0.035647746
0.0141784325 -0.034994215 0.04795251 -0.023956824 -0.05722867 0.04686515 0.10758663 0.028083425
0.048800778 -0.0448399 -0.06851494 0.06250196 0.05888361 0.07706155 -0.070509665 -0.06453073
-0.059820026 -0.09253477 -0.05884265 -0.02609096 0.0095618805 0.06513218 -0.0046744333 0.018483296
0.08690741 -0.17535555 0.060282502 -0.051965028 0.06756972 -0.099695735 -0.08664178 -0.10674939
0.06419426 -0.045017786 -0.030716086 0.09417358 0.055267733 0.034152336 -0.027152883 0.026028153
-0.083632536 0.027763277 0.051703762 -0.12049063 -0.053982697 0.118055336 0.112470776 0.109180056
-0.043129615 -0.042078584 0.041840985 -0.12471532 -0.0058479877 0.11074769 -0.044806108 -0.037985377
-0.035868682 -0.08163774 0.13030379 0.09003697 0.0010201917 0.160966 -0.10868489 -0.07932799
0.10676893 -0.066859566 -0.03168281 -0.030649556 0.06296441 0.0011340168 -0.06422911 -0.05744621
0.030179784 -0.029240713 -0.070787236 -0.021489857 -0.12891413 0.10861345 0.036181454 0.041402478
-0.023511557 0.051487602 -0.08705433 0.044646278 0.035194565 0.025875662 -0.052865185 -0.054469325
-0.12925726 0.1263458 0.01641894 -0.0036739653 -0.09069989 0.029361267 0.05049923 0.044429727
-0.052951455 -0.037918814 0.06533484 -0.031091426 -0.02289093 -0.03301994 -0.106105186 -0.06198052
0.03918239 0.007483785 -0.037417248 0.048883747 -0.014101953 -0.056785755 -0.11173784 -0.03848781
-0.00095539924 0.027716469 -0.02393255 -0.11622343 0.07000242 -0.07153317 -0.0405542 -0.0008497216
0.0043394365 -0.094329454 0.088472344 -0.0970295 -0.05114525 -0.045618683 0.046893813 0.062735654
0.024980383 0.117070414 0.053647902 -0.021564715 0.008202711 -0.064931475 -0.11154343 -0.03813444
-0.028325675 -0.06996443 0.07360508 0.050286237 -0.019430917 -0.09000407 -0.098804936 -0.016158616
0.102886856 -0.119595625 -0.12242386 -0.16615254 0.040020186 0.033091027 0.06862707 -0.032929745
-0.051535945 0.19176245 -0.06537764 -0.12465464 -0.056511767 0.07671271 -0.05404362 -0.11431725
00000000: 528a 00bd c47a 55bc a1fc 3a3d 1030 1abd
00000010: 4c7b ad3d 1fae 293d ffde 2b3d 27fd 78bb
00000020: 8207 eb3c 2956 e23c 880e 1e3b a0dc 8f3d
00000030: 7b49 2d3d 1910 70bd 55c0 13bd a185 abbd
00000040: 969b ea3c 7097 58bd c7e5 603d 9bd2 df3c
00000050: 154c 05bd 417c bfbd 7fd2 d4bd 2ee0 debc
00000060: ab3f 9bbb ce5c d6bc ebf2 47bd 60c8 bbbc
00000070: b299 3cbd 8e47 e8bd 875c 67bd 630d 283d
00000080: ef17 353d 625b aa3d 5224 e83d 42f1 0ebb
00000090: 5e4d a7bd 0d24 b93c f209 e03c d597 74bd
000000a0: a443 783d 99b3 1dbb 8f35 0bbd 6edf f33b
000000b0: 6672 8e3d 26d5 10bd 4fd5 083d 0b3e 293d
000000c0: afb7 53bc be06 40bd 5ed4 0ebd e627 2cbd
000000d0: 7734 b63d 594c a43d 8bf5 af3d 228d 41bd
000000e0: 6b5f d63d 6eba d1bd f91e 103d 868e 203d
000000f0: b5da 5d3d cdd4 9abc 6e52 98bd 5a59 44ba
00000100: 8bbc 913d 81a4 85bc da44 903d e5a3 04bd
00000110: e34e 3f3d a8aa 583d 3c92 e4bb 5002 81bd
00000120: 59cf 4ebd 1d71 f03d dae0 e23c f974 94bd
00000130: 82ac 83bd 5fcf 8f3d 215c ec3d 39af a23d
00000140: 49e8 973d 0094 9e3d 5429 56bd ed42 dabc
00000150: 552d 233d 4255 7b3d a7e5 e1bc bb68 d33d
00000160: ec42 a93b 429e 38bd d530 54bd 0772 59bd
00000170: 7754 b63d cea1 463d b3c9 d2bc 5f03 12bd
00000180: a84c 683c 1856 0fbd da69 443d 1a41 c4bc
00000190: 9c68 6abd acf5 3f3d 6156 dc3d 360f e63c
000001a0: 53e3 473d 0baa 37bd 9051 8cbd 0701 803d
000001b0: f12f 713d 72d2 9d3d 5f67 90bd b028 84bd
000001c0: d805 75bd df82 bdbd fe04 71bd b5bc d5bc
000001d0: 6fa9 1c3c 0564 853d fd2b 99bb 486a 973c
000001e0: 83fc b13d 6890 33be c9ea 763d 48d9 54bd
000001f0: fe61 8a3d 472d ccbd 3f71 b1bd 6d9f dabd
00000200: 4878 833d 9264 38bd 4da0 fbbc 14de c03d
00000210: 6b60 623d 52e3 0b3d b96f debc fe38 d53c
00000220: 8947 abbd d06f e33c 53c7 533d cbc3 f6bd
00000230: f61c 5dbd ffc6 f13d 1457 e63d cb99 df3d
00000240: aea8 30bd 985a 2cbd 7461 2b3d bf6a ffbd
00000250: 7aa0 bfbb afcf e23d 9c86 37bd 8e96 1bbd
00000260: 0aeb 12bd b031 a7bd 5b6e 053e 4e65 b83d
00000270: f4b7 853a 45d4 243e 2f96 debd b776 a2bd
00000280: aba9 da3d abed 88bd d6c5 01bd c714 fbbc
00000290: 7cf3 803d 4aa3 943a 8d8a 83bd b84c 6bbd
000002a0: 983b f73c 388a efbc e6f8 90bd 7f0b b0bc
000002b0: 1102 04be ba70 de3d 0133 143d a595 293d
000002c0: 4f9b c0bc aae4 523d 8a49 b2bd 04df 363d
000002d0: 2d28 103d 32f9 d33c 2a89 58bd 3a1b 5fbd
000002e0: 045c 04be cb60 013e 0381 863c e9c6 70bb
000002f0: ddc0 b9bd 0a87 f03c 48d8 4e3d f2fb 353d
00000300: a0e3 58bd c250 1bbd 46ce 853d 72b3 febc
00000310: c285 bbbc eb3f 07bd ad4d d9bd 49df 7dbd
00000320: b77d 203d 8a3a f53b d442 19bd 533a 483d
00000330: e10b 67bc 2e98 68bd cfd6 e4bd 65a5 1dbd
00000340: c273 7aba a60d e33c 320e c4bc 8d06 eebd
00000350: 6e5d 8f3d fc7f 92bd 291c 26bd dabf 5eba
00000360: d531 8e3b cd2f c1bd fd30 b53d 67b7 c6bd
00000370: af7d 51bd a8da 3abd ba13 403d 8d7b 803d
00000380: a9a3 cc3c 9dc2 ef3d e7bd 5b3d 7ca8 b0bc
00000390: aa64 063c cbfa 84bd e270 e4bd dc32 1cbd
000003a0: 3f0b e8bc 8349 8fbd 43be 963d f1f8 4d3d
000003b0: 962d 9fbc 0e54 b8bd 3e5a cabd 135f 84bc
000003c0: 58b6 d23d 8dee f4bd 5cb9 fabd e423 2abe
000003d0: 35ec 233d 758a 073d 598c 8c3d 57e1 06bd
000003e0: 5b17 53bd 605d 443e b6e4 85bd ef4a ffbd
000003f0: e278 67bd 8e1b 9d3d d85c 5dbd 2a1f eabd

layer_t_1.bias f4 [128]
0.0050582355 -0.014225281 -0.04220765 -0.09023246 -0.061839942 -0.008480562 -0.015329314 -0.014498639
-0.028853033 -0.008101514 -0.014342396 -0.12324776 -0.0037205038 0.034573145 -0.087418325 -0.037639182
0.0014245282 -0.062652424 0.046106957 -0.047217388 0.043090895 0.03464599 0.038952257 0.04788781
0.052904144 -0.059112303 0.032304868 -0.007438159 0.12496408 -0.039046615 0.03513275 -0.032043923
-0.008065109 -0.021858009 -0.011135356 -0.0070823384 -0.09157906 -0.083571814 -0.010514079 0.0445156
0.033850577 -0.055451576 -0.06501006 0.0060120462 -0.03595755 -0.097025536 0.03975444 -0.049846973
0.016581984 -0.07204264 -0.05218448 0.09854582 -0.00769644 0.04176953 -0.0058746277 0.06449553
-0.031723693 0.015428836 0.04899743 0.038469873 0.05999644 -0.10189893 0.059174433 0.049523
-0.05249838 -0.076948196 0.013251908 0.034326397 0.035728052 -0.007528852 0.003927298 -0.04871828
0.00037949433 -0.03521588 0.03714972 0.04213545 -0.02386425 0.026659872 -0.08344027 -0.045227718
0.084939204 -0.0016977743 -0.055034876 0.018130407 -0.0040204106 0.019294012 -0.06351527 -0.0107853655
-0.03985753 -0.055759344 -0.014080322 0.118120305 0.08212983 -0.043078832 -0.05879804 0.07524155
-0.004527106 -0.080895685 0.05361147 0.04409813 -0.0029259585 -0.018371811 0.073226795 -0.04296519
-0.049006682 -0.0152293835 -0.07001429 0.04003812 -0.045762617 -0.07960949 -0.051107652 0.039765395
0.07725917 0.04218724 0.05941412 -0.08564177 -0.07926441 -0.006842605 -0.006334205 -0.07084698
0.094113894 -0.08816451 -0.054060474 -0.015675018 -0.026814844 -0.0754706 0.06740224 0.010760116
00000000: 8ebf a53b 2711 69bc eee1 2cbd cccb b8bd
00000010: e14b 7dbd 0ef2 0abc ce27 7bbc b38b 6dbc
00000020: 325d ecbc 36bc 04bc 5efc 6abc 5269 fcbd
00000030: b2d3 73bb 929c 0d3d 6108 b3bd 8b2b 1abd
00000040: 3cb7 ba3a ea4f 80bd a6da 3c3d 0567 41bd
00000050: 1480 303d f4e8 0d3d 678c 1f3d 0226 443d
00000060: 04b2 583d be1f 72bd 1c52 043d cdbb f3bb
00000070: 2bed ff3d 58ef 1fbd 5ce7 0f3d 7d40 03bd
00000080: 8523 04bc 910f b3bc 1171 36bc f612 e8bb
00000090: cd8d bbbd b327 abbd 3e43 2cbc fd55 363d
000000a0: e7a6 0a3d 3121 63bd ff23 85bd b300 c53b
000000b0: 3948 13bd 53b5 c6bd 8dd5 223d 572c 4cbd
000000c0: f1d6 873c 178b 93bd 65bf 55bd 64d2 c93d
000000d0: 6b32 fcbb 8716 2b3d f37f c0bb 3c16 843d
000000e0: b4f0 01bd 3bc9 7c3c 87b1 483d 9692 1d3d
000000f0: d4be 753d 63b0 d0bd e460 723d a1d8 4a3d
00000100: 8b08 57bd 0497 9dbd 881e 593c d699 0c3d
00000110: 9457 123d 97b4 f6bb 90b0 803b d28c 47bd
00000120: def6 c639 873e 10bd 4e2a 183d 3996 2c3d
00000130: f67e c3bc ce65 da3c bbe2 aabd b340 39bd
00000140: 9bf4 ad3d da87 deba 406c 61bd 3886 943c
00000150: a6bd 83bb 7a0e 9e3c 4b14 82bd 1ab5 30bc
00000160: a641 23bd e963 64bd 27b1 66bc 0fe9 f13d
00000170: af33 a83d 6e73 30bd 37d6 70bd 3e18 9a3d
00000180: 1e58 94bb a3ac a5bd b397 5b3d 3ea0 343d
00000190: 70c1 3fbb 7b80 96bc eef7 953d 44fc 2fbd
000001a0: 3bbb 48bd aa84 79bc a763 8fbd 03ff 233d
000001b0: 9571 3bbd 4d0a a3bd 4256 51bd 0ae1 223d
000001c0: 0e3a 9e3d 87cc 2c3d 385c 733d f464 afbd
000001d0: 6155 a2bd ee37 e0bb 2a8f cfbb 3918 91bd
000001e0: c9be c03d 988f b4bd 846e 5dbd e568 80bc
000001f0: ceaa dbbc 5490 9abd 300a 8a3d 334b 303c

layer_t_2.weight f4 [128, 128]
-0.09411411 0.025676481 0.04370418 -0.015288773 0.08296633 0.07910637 -0.119152986 0.064102836
-0.12215815 0.05146818 -0.023969455 -0.06760014 -0.07108597 -0.07849902 -0.009027588 -0.011222047
-0.09362735 -0.027455771 -0.00080061704 -0.029003121 0.023994436 0.03164418 0.026363628 -0.059667032
-0.023771029 -0.020412272 -0.043899313 0.031239796 -0.0074208267 -0.033038687 -0.029556615 -0.03180183
-0.0152726965 0.00069103873 -0.03575145 0.030438228 -0.05970722 -0.108776145 0.008386608 0.008271596
0.06188144 0.042719886 -0.018179072 -0.04645121 0.061520196 -0.07379305 0.014911217 0.04636028
-0.043221008 0.0012980436 -0.09302622 -0.0020629475 -0.0028688076 -0.014179569 -0.028956192 -0.033527426
-0.063196905 -0.0019182744 0.04985353 -0.020005273 -0.035802178 0.037411936 -0.014629647 0.08836844
-0.051646963 -0.05895143 0.027516786 -0.07258589 -0.08875028 0.059871867 -0.117189735 -0.024686906
-0.059348416 -0.02493695 -0.025356354 -0.033376895 -0.10566819 0.02303364 -0.021451179 0.0049554105
0.05099253 0.029573444 0.08089612 -0.0024584031 0.022316942 -0.025660915 -0.023494214 -0.07400204
0.009628023 -0.07959479 0.018124158 0.025636798 0.09028356 0.04605457 -0.03421709 -0.08179348
-0.06759549 0.035780273 0.0009893253 -0.06419643 0.03173251 0.012140949 -0.07117735 -0.093831554
0.082983516 -0.057629284 0.03053831 -0.020039288 -0.009869916 -0.021476528 -0.04189612 0.025705481
-0.10388728 -0.00032756306 -0.060936265 -0.032491237 0.028808344 -0.014606779 0.06581985 -0.036809653
-0.05035368 -0.0021609853 -0.09399071 0.07530154 -0.030051138 -0.035195716 0.029016998 -0.01043738
-0.05797386 0.048604067 0.021837631 -0.064322084 -0.041320086 -0.047317352 -0.04324445 0.1274804
0.023579672 -0.03489466 0.055658583 0.011120163 0.029284256 -0.07767298 -0.01635618 -0.020780845
-0.0025067774 -0.10517034 -0.053238176 -0.059614725 -0.07726692 0.037472785 0.00058649527 0.020475045
-0.11669657 0.06787952 -0.047833443 0.051503282 -0.08266247 -0.025962738 -0.112400055 0.04660046
-0.057091586 0.027079903 -0.07387953 0.006608301 -0.09136892 -0.06953376 -0.031615924 -0.05049883
-0.07139644 0.03828442 -0.027164407 0.030723618 0.028254366 -0.0078440085 -0.017137317 -0.09203574
0.000836523 0.028088322 -0.039481904 -0.0024791958 -0.0983446 -0.057862945 0.056396317 0.024687575
0.035693604 0.025307015 -0.11912446 -0.04042312 0.013005742 0.031454835 0.029200355 -0.0020411804
-0.008253805 -0.0164853 0.023917098 -0.030688899 -0.1320535 0.04832401 -0.06468968 -0.026648646
-0.054223005 0.067738004 0.015881792 -0.060496446 -0.028925424 0.00255618 -0.07950545 -0.053371243
0.011671164 -0.054681733 0.027665947 -0.06606465 -0.04441716 -0.07568931 0.0048220647 -0.12059757
-0.058471728 -0.071658425 -0.10922693 -0.040579997 -0.03314106 -0.04629288 -0.02662618 -0.014589122
-0.094239265 -0.06946046 0.01378575 -0.061311178 -0.09611191 0.030745162 -0.052592337 -0.105811484
0.03599156 -0.06448766 -0.030683415 -0.10411739 -0.014430281 -0.04939505 -0.06267135 0.011537263
-0.10091185 -0.08479104 -0.026639882 -0.031069765 0.04850843 0.018707246 0.028431155 -0.010205412
-0.017133823 -0.0068299817 -0.07673167 -0.04428105 -0.06041342 0.025077548 0.002690045 -0.011709088
00000000: e6be c0bd 7c57 d23c 2703 333d c37d 7abc
00000010: 40ea a93d 8502 a23d 7b06 f4bd 5948 833d
00000020: 0d2e fabd 4cd0 523d 975b c4bc f171 8abd
00000030: 8595 91bd 18c4 a0bd 73e8 13bc addc 37bc
00000040: b2bf bfbd edea e0bc 80e0 51ba f497 edbc
00000050: fb8f c43c 549d 013d 89f8 d73c 6b65 74bd
00000060: 76bb c2bc a337 a7bc c4cf 33bd 9aea ff3c
00000070: 682a f3bb 9353 07bd b720 f2bc a342 02bd
00000080: 553a 7abc d326 353a 1d70 12bd 9759 f93c
00000090: 8f8f 74bd 07c6 debd fc67 093c 9785 073c
000000a0: 6577 7d3d 0cfb 2e3d 47ec 94bc a043 3ebd
000000b0: 9afc 7b3d d020 97bd 2d4e 743c 47e4 3d3d
000000c0: 8308 31bd 1e23 aa3a 8884 bebd 8432 07bb
000000d0: 9b02 3cbb 6c51 68bc 8935 edbc 0e54 09bd
000000e0: 616d 81bd 9c6e fbba 3733 4c3d 19e2 a3bc
000000f0: 4ea5 12bd 423d 193d 30b1 6fbc 83fa b43d
00000100: c48b 53bd 0e77 71bd e26a e13c e9a7 94bd
00000110: b5c2 b5bd 343c 753d 2c01 f0bd 323c cabc
00000120: 5317 73bd 9348 ccbc 21b8 cfbc 36b6 08bd
00000130: 9068 d8bd 0bb1 bc3c 62ba afbc ff60 a23b
00000140: 8bdd 503d 0244 f23c ddac a53d 291d 21bb
00000150: 05d2 b63c d736 d2bc f076 c0bc 628e 97bd
00000160: dbbe 1d3c 9802 a3bd 1d79 943c 4304 d23c
00000170: 96e6 b83d b7a3 3c3d 3827 0cbd 5783 a7bd
00000180: 816f 8abd 568e 123d 40ac 813a 6b79 83bd
00000190: f3f9 013d d5ea 463c 6ec5 91bd c22a c0bd
000001a0: 43f3 a93d af0c 6cbd 7a2b fa3c 6f29 a4bc
000001b0: 6eb5 21bc 8bef afbc 449b 2bbd 4d94 d23c
000001c0: dbc2 d4bd c5bc abb9 4e98 79bd 8815 05bd
000001d0: 7aff eb3c 4651 6fbc 8fcc 863d b8c5 16bd
000001e0: a93f 4ebd 519f 0dbb 347e c0bd b237 9a3d
000001f0: ce2d f6bc 6229 10bd 0eb5 ed3c 8b01 2bbc
00000200: 0076 6dbd 0f15 473d d5e4 b23c 4cbb 83bd
00000210: 403f 29bd d7cf 41bd 1821 31bd 398a 023e
00000220: 282a c13c b4ed 0ebd 41fa 633d 5831 363c
00000230: 89e5 ef3c 0313 9fbd 65fd 85bc 973c aabc
00000240: bf48 24bb 8c63 d7bd 4610 5abd 922e 74bd
00000250: 1e3e 9ebd 107d 193d 08bf 193a 48bb a73c
00000260: 9cfe eebd 6b04 8b3d 00ed 43bd 1bf5 523d
00000270: f14a a9bd cfaf d4bc 0032 e6bd 20e0 3e3d
00000280: ded8 69bd acd6 dd3c 274e 97bd 728a d83b
00000290: a11f bbbd b767 8ebd b37f 01bd dcd7 4ebd
000002a0: 4c38 92bd 20d0 1c3d e487 debc 19b0 fb3c
000002b0: b375 e73c 2884 00bc 8f63 8cbc 3c7d bcbd
000002c0: 1c4a 5b3a 7b19 e63c c7b7 21bd 017a 22bb
000002d0: e568 c9bd b201 6dbd d3ff 663d 993d ca3c
000002e0: 7533 123d a850 cf3c 86f7 f3bd b792 25bd
000002f0: 0916 553c c9d6 003d 9535 ef3c 53c5 05bb
00000300: f83a 07bc 2e0c 87bc caed c33c 4967 fbbc
00000310: 0839 07be 66ef 453d 067c 84bd 434e dabc
00000320: f118 5ebd 39ba 8a3d 881a 823c 1fcb 77bd
00000330: 03f5 ecbc 9685 273b c1d3 a2bd ce9b 5abd
00000340: 6938 3f3c f4f9 5fbd b2a3 e23c e74c 87bd
00000350: c5ee 35bd ff02 9bbd 6902 9e3b dcfb f6bd
00000360: 0d80 6fbd a7c1 92bd 5eb2 dfbd 3637 26bd
00000370: ecbe 07bd 9a9d 3dbd 261f dabc 3607 6fbc
00000380: 8400 c1bd 4941 8ebd a0dd 613c 6e21 7bbd
00000390: 52d6 c4bd 47dd fb3c 106b 57bd b1b3 d8bd
000003a0: e36b 133d 1b12 84bd c95b fbbc 803b d5bd
000003b0: fc6c 6cbc 7752 4abd d659 80bd ca06 3d3c
000003c0: dfaa cebd eda6 adbd e23b dabc 0586 febc
000003d0: c7b0 463d f03f 993c 74e8 e83c 9a34 27bc
000003e0: 3b5c 8cbc 0ace dfbb 7e25 9dbd 0c60 35bd
000003f0: 1074 77bd 6e6f cd3c 774b 303b 7ad7 3fbc

layer_t_2.bias f4 [128]
-0.030271715 -0.067923024 -0.0056570405 -0.027464394 -0.05664284 -0.0989494 -0.0644316 -0.03218403
-0.0684625 -0.04930482 -0.089535445 0.019575808 -0.09717207 -0.10994656 -0.0011654344 0.009182409
-0.096317746 -0.053799912 -0.0345839 0.014561404 -0.08018226 -0.11438353 -0.058915365 0.03626667
-0.029392751 -0.0065469136 0.006396841 -0.0983481 0.013353989 -0.0129196225 -0.07641157 0.030760925
-0.0055647185 -0.03624157 -0.05284109 -0.024495611 -0.060993943 -0.009805365 0.045102965 0.02118798
-0.032323543 -0.08168064 0.05268161 0.037969112 0.011382725 -0.04872939 -0.067695275 -0.076963484
0.034126546 -0.018618165 -0.021836665 0.040246557 -0.117820986 -0.0018340307 -0.072994106 0.03988204
-0.05934967 -0.041503396 -0.0826119 0.008531041 -0.024046402 0.037394367 -0.011196029 -0.006322952
-0.0056375726 -0.12576917 -0.028415103 -0.027645206 0.036366213 -0.012328086 -0.062863104 -0.0007011235
-0.052226912 -0.016053274 0.0047283513 -0.11780937 0.029639846 -0.02856812 0.04969007 -0.071203746
-0.15883099 -0.06492917 -0.07712943 -0.112714805 0.071863346 0.017411787 -0.032509968 0.005467988
0.05261013 -0.050987486 -0.09437078 -0.012932669 -0.036755674 0.03208658 -0.02114906 0.05312552
-0.0483335 -0.13387464 0.009031514 -0.03090765 -0.07139255 -0.056241456 0.08424497 -0.069599606
-0.09363343 -0.0712452 -0.015628643 -0.025463333 -0.031855144 0.019476674 0.027339643 0.009555099
-0.0035526876 -0.0690701 0.01905286 -0.0052673146 -0.09590631 -0.09763816 0.009421743 -0.015210658
-0.051165935 -0.063534975 -0.08475426 -0.01392682 -0.011681213 -0.01614613 -0.06729308 0.0249151
00000000: 63fc f7bc 3a1b 8bbd b25e b9bb 02fd e0bc
00000010: 5302 68bd fca5 cabd b7f4 83bd 67d3 03bd
00000020: 1136 8cbd daf3 49bd 5c5e b7bd 725d a03c
00000030: 2602 c7bd a92b e1bd 7dc1 98ba d171 163c
00000040: 3d42 c5bd 4c5d 5cbd d9a7 0dbd f492 6e3c
00000050: 9936 a4bd ea41 eabd 3d51 71bd 5c8c 143d
00000060: 11c9 f0bc 7e87 d6bb 979c d13b bb6a c9bd
00000070: b1ca 5a3c d3ac 53bc ab7d 9cbd 56fe fb3c
00000080: 3e58 b6bb 0a72 14bd e66f 58bd 05ab c8bc
00000090: c9d4 79bd afa6 20bc e3bd 383d 6a92 ad3c
000000a0: b165 04bd 2e48 a7bd acc8 573d 8085 1b3d
000000b0: 9c7e 3a3c 7898 47bd d2a3 8abd 089f 9dbd
000000c0: 47c8 0b3d 1f85 98bc cee2 b2bc 93d9 243d
000000d0: 214c f1bd dc63 f0ba ef7d 95bd 5a5b 233d
000000e0: a418 73bd 77ff 29bd 6e30 a9bd c8c5 0b3c
000000f0: f6fc c4bc d62a 193d 8d6f 37bc c430 cfbb
00000100: 63bb b8bb a2c9 00be cac6 e8bc 3378 e2bc
00000110: bdf4 143d befb 49bc 5fbe 80bd 9acb 37ba
00000120: e3eb 55bd 2882 83bc 49f0 9a3b 0a46 f1bd
00000130: 43cf f23c b107 eabc d187 4b3d 45d3 91bd
00000140: 97a4 22be 96f9 84bd 09f6 9dbd 05d7 e6bd
00000150: 172d 933d 2aa3 8e3c 2c29 05bd cf2c b33b
00000160: b87d 573d 41d8 50bd 7845 c1bd 8ce3 53bc
00000170: 1e8d 16bd 386d 033d cb40 adbc 259a 593d
00000180: 59f9 45bd 6f16 09be eaf8 133c 0a32 fdbc
00000190: 4236 92bd 715d 66bd a088 ac3d 3d8a 8ebd
000001a0: e2c2 bfbd 01e9 91bd a407 80bc 7b98 d0bc
000001b0: 8a7a 02bd 8c8d 9f3c 63f7 df3c fd8c 1c3c
000001c0: 35d4 68bb a074 8dbd be14 9c3c 7099 acbb
000001d0: 876a c4bd 84f6 c7bd a85d 1a3c 2036 79bc
000001e0: 5f93 51bd a01e 82bd a493 adbd 512d 64bc
000001f0: 8f62 3fbc e444 84bc f4d0 89bd c01a cc3c

layer_out_1.weight f4 [128, 128]
0.092328385 0.1079744 -0.03156245 0.065051 -0.0312995 0.060830686 0.025324509 -0.014026681
-0.052958664 -0.09739738 0.06390068 -0.00945227 0.10563322 0.027463466 0.020508036 0.065294296
-0.016667018 -0.07745863 -0.027829863 -0.066735215 -0.034166846 -0.03613712 0.036858015 -0.002667823
-0.01243925 -0.034011047 0.09143703 0.023923436 -0.03863644 0.0090578515 -0.006880994 0.11128587
0.06610295 -0.0057708696 -0.06967669 0.01948841 0.08985654 -0.02266216 0.020774506 -0.040560074
-0.038349822 -0.026759662 0.091952585 0.037818562 -0.03650825 0.03181833 -0.049558125 0.07391782
0.009388052 0.06833301 -0.0021806806 -0.01050704 0.036640454 0.03542926 0.056528974 -0.056374613
-0.034924146 0.09429929 0.012540047 0.10911621 -0.025185876 -0.027276091 0.06770662 -0.03133361
-0.044780776 -0.02470446 -0.010168898 0.0009201371 0.09027748 -0.0622385 -0.050793756 0.022945253
0.10914958 -0.054595534 0.066949666 -0.10423586 -0.018185057 -0.1273598 -0.056770362 0.117718615
0.0320555 -0.10837312 0.036049195 -0.02471508 0.021443598 0.066940576 -0.06855543 0.026901545
-0.0048499466 0.02924262 0.06374897 -0.04413288 0.019150028 -0.01242051 0.09060627 -0.03148244
-0.03050488 0.018388374 -0.022213297 -0.0035826936 0.120259635 -0.06702577 0.0018358103 0.025202641
0.0015131688 -0.055167343 0.038864452 0.01873596 0.02251202 -0.103872985 0.01605316 -0.0009876132
-0.017660242 -0.033265404 0.0014107625 -0.10068499 0.13102686 0.027415166 -0.017323224 0.0313759
0.0018074929 -0.03381352 -0.055272005 -0.022976764 -0.098362744 -0.043799397 -0.07858702 -0.062449653
-0.029436287 0.11055586 -0.064558 -0.041153736 -0.09947574 0.08676109 0.039074462 -0.0058722217
0.011909003 -0.01905916 0.008865106 0.032651752 -0.0061471765 0.11351715 -0.08531794 -0.038304564
0.053187117 0.1311067 0.054153226 -0.011673404 0.02573686 -0.06440318 -0.057128366 0.03260171
0.00814311 0.02724556 0.059757117 -0.019794734 0.029321799 0.0011636515 0.080220774 -0.045491107
0.088207565 0.029253423 0.029142546 -0.050455227 -0.02934611 -0.033628635 0.050445747 0.033756785
-0.0022773396 0.12566331 -0.02060543 -0.028525567 0.052232273 0.06596305 0.10013828 -0.011603573
0.10907224 -0.0068984465 0.0029258463 -0.12935176 -0.05195628 -0.022135254 -0.02562273 -0.10044846
-0.03984482 0.0070507685 -0.07041489 -0.070296675 0.07289978 0.06788127 -0.012426511 -0.076799355
-0.045006737 0.030241828 0.0080613615 0.04785908 0.049195617 -0.028855454 0.042489808 -0.037064005
0.026439354 -0.046001203 0.012527576 -0.01067095 0.08231615 -0.061112527 -0.0015826173 0.05114029
0.093034945 0.025124198 0.09076348 -0.0030402693 0.012464576 0.075528994 -0.10502492 0.06715483
-0.04717492 -0.06615121 0.039509434 -0.032235615 -0.0029537436 0.055083636 0.021085719 0.002312364
0.08395046 0.06884338 0.08220873 -0.09040091 -0.07113328 0.07615177 -0.0622865 -0.03976783
-0.039928816 0.05979135 0.04096648 -0.057936504 0.13700186 -0.059438717 -0.046795484 0.09280266
0.0067085866 0.07682543 0.07580543 -0.060718566 0.011010223 0.009199858 0.0014586583 0.031640243
0.0594151 -0.015751585 0.024287704 -0.029378422 -0.10371997 -0.14762501 -0.02097794 0.021292118
00000000: aa16 bd3d af21 dd3d a147 01bd 7539 853d
00000010: e833 00bd 9929 793d 5875 cf3c 2ad0 65bc
00000020: 2feb 58bd 4778 c7bd 5cde 823d b2dd 1abc
00000030: 3b56 d83d 10fb e03c 7800 a83c 04b9 853d
00000040: 4589 88bc a1a2 9ebd 74fb e3bc 79ac 88bd
00000050: 89f2 0bbd 8404 14bd 6ef8 163d a5d6 2ebb
00000060: ffcd 4bbc 2b4f 0bbd 5643 bb3d 15fb c33c
00000070: 3e41 1ebd 6267 143c f679 e1bb d9e9 e33d
00000080: fc60 873d 9019 bdbb a7b2 8ebd 28a6 9f3c
00000090: b506 b83d ffa5 b9bc 4c2f aa3c 5222 26bd
000000a0: b414 1dbd 1437 dbbc a351 bc3d a3e7 1a3d
000000b0: ad89 15bd f053 023d 76fd 4abd 3a62 973d
000000c0: 58d0 193c 2df2 8b3d c0e9 0ebb b825 2cbc
000000d0: 4d14 163d 461e 113d ed8a 673d 11e9 66bd
000000e0: 9f0c 0fbd fc1f c13d c574 4d3c 5278 df3d
000000f0: 9c52 cebc 1c72 dfbc c5a9 8a3d ac57 00bd
00000100: 0c6c 37bd 0261 cabc 739b 26bc 5b35 713a
00000110: 66e3 b83d cced 7ebd 1d0d 50bd aff7 bb3c
00000120: d189 df3d 919f 5fbd e81c 893d 9c79 d5bd
00000130: d4f8 94bc 9b6a 02be 0a88 68bd 7516 f13d
00000140: a14c 033d baf2 ddbd 52a8 133d 4877 cabc
00000150: 7caa af3c 2418 893d ca66 8cbd a160 dc3c
00000160: 4dec 9ebb 388e ef3c d28e 823d aec4 34bd
00000170: 85e0 9c3c 657f 4bbc c88f b93d bbf3 00bd
00000180: 5fe5 f9bc 37a3 963c a9f8 b5bc a0cb 6abb
00000190: af4a f63d cf44 89bd 929f f03a c575 ce3c
000001a0: 8555 c63a 27f7 61bd 5530 1f3d 287c 993c
000001b0: 216b b83c 5cbb d4bd eb81 833c cd72 81ba
000001c0: 36ac 90bc 4e41 08bd 56e9 b83a ef33 cebd
000001d0: e82b 063e c595 e03c 6fe9 8dbc 0484 003d
000001e0: 66e9 ec3a 0c80 0abd e664 62bd c439 bcbc
000001f0: 6872 c9bd ff66 33bd 3bf2 a0bd 35cb 7fbd
00000200: 5e24 f1bc 1c6b e23d fc36 84bd d290 28bd
00000210: f0b9 cbbd ccaf b13d 8b0c 203d c46b c0bb
00000220: fb1d 433c f521 9cbc f33e 113c d8bd 053d
00000230: 416e c9bb ae7b e83d 2cbb aebd 3fe5 1cbd
00000240: bcda 593d d640 063e c6cf 5d3d ce41 3fbc
00000250: 1cd6 d23c d0e5 83bd 6fff 69bd 5f89 053d
00000260: ae6a 053c 1532 df3c e1c3 743d 9128 a2bc
00000270: 4534 f03c aa85 983a ca4a a43d e254 3abd
00000280: 2ba6 b43d e0a4 ef3c 59bc ee3c 24aa 4ebd
00000290: 4167 f0bc 2ebe 09bd 33a0 4e3d 8e44 0a3d
000002a0: 6b3f 15bb e2ad 003e b8cc a8bc 73ae e9bc
000002b0: 82f1 553d a317 873d 4c15 cd3d ea1c 3ebc
000002c0: 4461 df3d 5d0c e2bb 8ebf 3f3b ca74 04be
000002d0: 1cd0 54bd fe54 b5bc c2e6 d1bc ecb7 cdbd
000002e0: 5234 23bd 220a e73b af35 90bd b4f7 8fbd
000002f0: 7b4c 953d 5605 8b3d 9198 4bbc fb48 9dbd
00000300: fc58 38bd b6bd f73c cd13 043c e207 443d
00000310: 5881 493d 4662 ecbc cb09 2e3d 6dd0 17bd
00000320: 5897 d83c c26b 3cbd 7640 4d3c 35d5 2ebc
00000330: 5f95 a83d 2151 7abd d36f cfba 7b78 513d
00000340: 1b89 be3d 43d1 cd3c 34e2 b93d 413f 47bb
00000350: 3938 4c3c f2ae 9a3d 4e17 d7bd 7988 893d
00000360: 7d3a 41bd 497a 87bd a5d4 213d 7e09 04bd
00000370: 9893 41bb 619f 613d f5bb ac3c 088b 173b
00000380: 38ee ab3d c2fd 8c3d 0d5d a83d 1d24 b9bd
00000390: 53ae 91bd 76f5 9b3d 2120 7fbd 98e3 22bd
000003a0: 668c 23bd c6e7 743d 78cc 273d d44e 6dbd
000003b0: 374a 0c3e 0376 73bd 9fac 3fbd 520f be3d
000003c0: b4d3 db3b a756 9d3d e13f 9b3d 08b4 78bd
000003d0: 3964 343c 00bb 163c 7330 bf3a 3399 013d
000003e0: 3f5d 733d 7809 81bc 02f7 c63c 04ab f0bc
000003f0: 236b d4bd 032b 17be eed9 abbc cf6c ae3c

layer_out_1.bias f4 [128]
0.079907276 0.034905303 -0.02135647 -0.04675094 0.086540245 -0.10102611 0.012018188 -0.023922423
0.016828483 -0.026781056 0.0009958883 0.010499423 -0.01204249 -0.032613486 0.00021423442 -0.015641337
0.08525348 0.024951424 0.08731572 0.09391484 0.0953673 -0.032101702 0.10612459 0.04986265
0.029679727 -0.010154379 0.08251402 -0.008604213 0.077183 0.024512177 0.0054875333 -0.15839998
0.06678539 -0.0117732035 -0.032985937 -0.00043002708 0.019987142 0.0048303874 0.024479201 0.029157182
0.05937314 -0.023134222 0.006900679 -0.017304296 0.07262321 0.013499098 0.025270367 -0.013530383
-0.001319543 0.038100842 -0.022575004 0.08119322 0.002761222 0.0035587829 -0.051442456 0.034979943
0.01226915 -0.025264902 -0.026636317 -0.010133898 -0.043330863 0.026279207 0.061927363 -0.06515432
0.009711007 -0.047753993 0.08021124 -0.02378646 0.036506563 0.008417254 -0.044420544 -0.0061359797
0.01746168 0.056526538 0.033714388 0.03502254 0.011698802 0.019731628 0.03905545 -0.041250154
0.016938528 -0.059917726 0.014455545 0.06256069 -0.046788212 0.048543848 0.04847189 0.030266946
0.09221581 0.00376083 0.06930346 -0.029525844 -0.03641562 -0.06758435 -0.0050652577 -0.016191756
0.010141372 0.07982347 -0.026533313 -0.031157022 0.007847058 -0.08319459 -0.06193666 0.040896453
-0.04869263 -0.031563696 0.08412313 0.007267779 -0.12258761 -0.052667238 0.0634844 0.04704561
-0.0269092 -0.037478205 -0.030098343 0.09268463 0.0071225297 0.03425868 0.032957453 0.0068840175
0.096614495 0.026162907 0.09206203 -0.006682767 -0.0138799595 0.051186655 0.049542483 -0.065276876
00000000: 6da6 a33d ddf8 0e3d c4f3 aebc ea7d 3fbd
00000010: 033c b13d c7e6 cebd efe7 443c f5f8 c3bc
00000020: e3db 893c f263 dbbc 7788 823a c605 2c3c
00000030: dd4d 45bc b895 05bd 1da4 6039 4322 80bc
00000040: 6099 ae3d ee66 cc3c 96d2 b23d 6c56 c03d
00000050: ee4f c33d 137d 03bd d957 d93d c73c 4c3d
00000060: e622 f33c 8d5e 26bc 1cfd a83d aff8 0cbc
00000070: 1f12 9e3d c3cd c83c c4d0 b33b 9b33 22be
00000080: c7c6 883d 65e4 40bc 431c 07bd 4275 e1b9
00000090: 13bc a33c 3a48 9e3b 9b88 c83c 0bdb ee3c
000000a0: 4031 733d fb83 bdbc 171f e23b bdc1 8dbc
000000b0: 7abb 943d 522b 5d3c cd03 cf3c 8aae 5dbc
000000c0: 84f4 acba a10f 1c3d 37ef b8bc a248 a63d
000000d0: 9ef5 343b 783a 693b 53b5 52bd 2147 0f3d
000000e0: 8b04 493c 57f8 cebc 6834 dabc a608 26bc
000000f0: b47b 31bd 7e47 d73c 8ca7 7d3d a16f 85bd
00000100: ea1a 1f3c b199 43bd ca45 a43d d2db c2bc
00000110: e887 153d 86e8 093c 51f2 35bd 5410 c9bb
00000120: cc0b 8f3c 5f88 673d 1918 0a3d cb73 0f3d
00000130: 55ac 3f3c 39a4 a13c 9cf8 1f3d ecf5 28bd
00000140: abc2 8a3c 4a6c 75bd f3d6 6c3c d21f 803d
00000150: ffa4 3fbd ead5 463d 768a 463d 63f2 f73c
00000160: a5db bc3d 4278 763b f9ee 8d3d 2fe0 f1bc
00000170: 8c28 15bd aa69 8abd 76fa a5bb 93a4 84bc
00000180: ff27 263c 7d7a a33d 645c d9bc 033d ffbc
00000190: f290 003c ed61 aabd 4cb1 7dbd 0a83 273d
000001a0: ec71 47bd ef48 01bd bf48 ac3d 8d26 ee3b
000001b0: 360f fbbd 9ab9 57bd 1c04 823d e6b2 403d
000001c0: af70 dcbc bf82 19bd cd90 f6bc 70d1 bd3d
000001d0: 1c64 e93b d452 0c3d 65fe 063d 5393 e13b
000001e0: d2dd c53d 9853 d63c 058b bc3d 1dfb dabb
000001f0: c568 63bc 19a9 513d 0fed 4a3d e2af 85bd

layer_out_2.weight f4 [53, 128]
0.030730495 0.019451743 -0.07298288 -0.019984867 0.07834605 0.04281989 -0.030876849 0.051379107
0.08467178 -0.04690371 0.028696323 0.024672326 0.021983072 0.025248395 0.060106397 0.01717761
-0.056994144 0.033258725 -0.08738657 -0.095332764 -0.034952566 -0.032842096 -0.0014461755 0.021438103
0.053307984 -0.034454487 0.041942626 0.033549614 0.037335258 0.034808807 -0.04313673 0.053683884
0.013569563 0.07409621 0.010781804 -0.13415693 -0.012983398 0.03178645 0.0069354945 -0.027333308
0.044894885 0.04958105 -0.03787642 0.047985625 0.01393168 -0.09439553 -0.038034454 -0.0273609
0.023479274 -0.010886533 0.001639121 0.07242417 -0.006327534 -0.027445167 -0.09014335 0.03179804
0.0624424 -0.050670054 0.02677069 0.016036602 0.043527286 -0.09444581 0.040315688 0.011694461
0.006335881 -0.07527524 -0.042154025 0.08606202 -0.04052746 0.010234505 -0.037854094 0.011408587
-0.039355494 -0.09484499 -0.016441187 0.054579582 0.0339318 0.087047935 0.039331935 0.09256968
0.042280775 -0.07067866 -0.030138882 -0.04969213 0.060963914 -0.11778575 -0.09132341 0.027750773
-0.0050247987 0.043837845 -0.068355545 0.044807587 0.040366977 -0.107729666 0.016744478 0.013790699
0.082337715 0.06911837 0.0049488232 0.08589673 0.061177753 0.008522024 -0.07498511 0.056143545
-0.051644746 0.049833797 -0.07055492 0.04480867 -0.005058485 -0.073096536 0.000118153795 0.02197976
-0.07246692 0.0033872155 0.00872547 -0.057324864 -0.0065494464 0.07609752 -0.07801242 0.036326915
-0.0052911188 -0.025423955 -0.16982748 -0.0052580535 0.01790745 -0.0006857144 -0.020435719 0.0047137323
-0.023344586 -0.05266134 0.06636848 0.05698631 0.076869205 -0.09560002 0.023925351 -0.094371654
-0.02961042 -0.013967897 -0.06827136 -0.051227536 0.05343966 -0.07438822 0.04586452 0.030401004
0.048962742 0.02145923 -0.032141518 0.014017889 -0.0068389517 0.05929397 -0.075624175 0.010823026
-0.058093585 -0.02894501 -0.062583126 0.01765408 -0.017295187 0.043579385 0.0428323 -0.037575833
0.008544175 -0.005072743 0.06735901 0.019547103 0.046903692 0.019667681 -0.06956132 0.03529634
0.064256534 0.034257554 -0.07483668 0.02117015 0.06752224 -0.008937307 -0.08329738 -0.051850688
0.06974676 -0.058043964 0.027192932 -0.00028993306 0.03249357 -0.05321861 0.022573996 0.0609154
0.022338206 -0.03036018 0.0052753664 0.034405302 -0.121020615 -0.0518074 -0.060987208 -0.0062961746
0.014593687 -0.0557369 0.04114259 0.034625895 0.032634288 0.027815545 0.073013134 0.0036809708
0.03998462 -0.10956092 -0.032162484 0.09107179 0.06852522 -0.06797659 -0.03621954 0.015786396
0.043175202 0.006104832 0.06562576 -0.042777356 0.06805762 -0.09036072 -0.008926529 0.014145127
0.12383466 0.04060806 0.0020107077 -0.10910715 0.02979863 -0.01846378 -0.032609962 0.015079493
-0.005805333 0.0460922 -0.10212824 -0.090234146 0.01963536 -0.031251494 0.032500442 0.028814778
-0.016782297 -0.11086523 0.046342082 -0.05773087 -0.043423217 0.014996837 0.01859725 -0.0061036823
0.0016795497 0.028804187 0.011210448 0.06571201 0.059617735 -0.08247261 0.063145205 0.050680667
-0.07927449 -0.057488285 -0.008774399 0.02319029 0.008273051 -0.028156782 0.120320044 0.022277763
00000000: 85be fb3c 4359 9f3c 0c78 95bd 4eb7 a3bc
00000010: e573 a03d e963 2f3d 72f1 fcbc e672 523d
00000020: 6668 ad3d 1b1e 40bd 8d14 eb3c 9e1d ca3c
00000030: d815 b43c b9d5 ce3c 2032 763d 0fb8 8c3c
00000040: b172 69bd 4d3a 083d bbf7 b2bd d33d c3bd
00000050: 6c2a 0fbd 6f85 06bd 998d bdba f69e af3c
00000060: 7959 5a3d 2620 0dbd 08cc 2b3d 526b 093d
00000070: dbec 183d ae93 0e3d 24b0 30bd a2e3 5b3d
00000080: df52 5e3c c1bf 973d 2aa6 303c 6f60 09be
00000090: 51b8 54bc 8232 023d 2543 e33b 1aea dfbc
000000a0: b3e3 373d 8015 4b3d 4e24 1bbd 938c 443d
000000b0: b341 643c 7252 c1bd 04ca 1bbd f723 e0bc
000000c0: 9b57 c03c 6e5d 32bc c6d7 d63a 2053 943d
000000d0: 3457 cfbb b0d4 e0bc 149d b8bd a93e 023d
000000e0: 9ac3 7f3d 678b 4fbd 354e db3c 315f 833c
000000f0: ab49 323d ce6c c1bd 1022 253d 209a 3f3c
00000100: 399d cf3b e829 9abd b3a9 2cbd 4941 b03d
00000110: 1f00 26bd a0ae 273c e50c 1bbd 15eb 3a3c
00000120: 3a33 21bd 173e c2bd abaf 86bc d78e 5f3d
00000130: 12fc 0a3d 3046 b23d 861a 213d 2c95 bd3d
00000140: 9b2e 2d3d f9bf 90bd d1e5 f6bc fa89 4bbd
00000150: 4cb5 793d a839 f1bd c507 bbbd 9755 e33c
00000160: 11a7 a4bb 508f 333d fefd 8bbd 2988 373d
00000170: d857 253d 5fa1 dcbd b72b 893c 62f2 613c
00000180: ada0 a83d ef8d 8d3d bd29 a23b a0ea af3d
00000190: 8695 7a3d f69f 0b3c cb91 99bd c6f6 653d
000001a0: 7189 53bd 861e 4c3d 197f 90bd 4c89 373d
000001b0: a6c1 a5bb a3b3 95bd 56c9 f738 e60e b43c
000001c0: 8969 94bd 0cfc 5d3b 46f5 0e3c 7acd 6abd
000001d0: bd9c d6bb 04d9 9b3d fac4 9fbd 88cb 143d
000001e0: 1f61 adbb e645 d0bc 41e7 2dbe c04b acbb
000001f0: a5b2 923c 84c1 33ba cf68 a7bc a775 9a3b
00000200: 253d bfbc 6bb3 57bd 33ec 873d 7a6a 693d
00000210: 9a6d 9d3d f1c9 c3bd 19ff c33c ed45 c1bd
00000220: 8d91 f2bc 9bd9 64bc dbd1 8bbd f7d3 51bd
00000230: 8ce3 5a3d da58 98bd 6fdc 3b3d 870b f93c
00000240: 288d 483d 44cb af3c d3a6 03bd 4aab 653c
00000250: 4919 e0bb 3cde 723d d9e0 9abd 1053 313c
00000260: 8af3 6dbd 161e edbc 952b 80bd 4a9f 903c
00000270: a3ae 8dbc 4c80 323d ec70 2f3d 1ee9 19bd
00000280: defc 0b3c 4139 a6bb 85f3 893d 3f21 a03c
00000290: 161e 403d 1e1e a13c 2a76 8ebd e592 103d
000002a0: ee98 833d a651 0c3d f943 99bd 066d ad3c
000002b0: 1a49 8a3d c86d 12bc d197 aabd 6361 54bd
000002c0: 64d7 8e3d 82bf 6dbd b6c3 de3c 2802 98b9
000002d0: fa17 053d c2fb 59bd 1aed b83c 6d82 793d
000002e0: 9dfe b63c eab5 f8bc fbdc ac3b 93ec 0c3d
000002f0: a8d9 f7bd ff33 54bd b9cd 79bd 2450 cebb
00000300: 5c1a 6f3c 604c 64bd 2285 283d e2d3 0d3d
00000310: 88ab 053d 6ddd e33c e987 953d 713c 713b
00000320: eac6 233d 7a61 e0bd cfbc 03bd d983 ba3d
00000330: f356 8c3d 4f37 8bbd f15a 14bd 7952 813c
00000340: 7bd8 303d 0b0b c83b cc66 863d 4f37 2fbd
00000350: cb61 8b3d 0b0f b9bd 9440 12bc f6c0 673c
00000360: 079d fd3d a354 263d 14c6 033b 9273 dfbd
00000370: 421c f43c 5a41 97bc 0692 05bd fa0f 773c
00000380: aa3a bebb 2dcb 3c3d 9c28 d1bd aecc b8bd
00000390: 56da a03c 9101 00bd 2f1f 053d f80c ec3c
000003a0: 077b 89bc 4f0d e3bd 32d1 3d3d 3477 6cbd
000003b0: 8bdc 31bd 4bb5 753c 4359 983c 6601 c8bb
000003c0: 5624 dc3a c2f6 eb3c 07ac 373c 0594 863d
000003d0: ba31 743d 66e7 a8bd 4652 813d 8896 4f3d
000003e0: aa5a a2bd d678 6bbd 7fc2 0fbc 90f9 bd3c
000003f0: b18b 073c 0da9 e6bc 5b6a f63d db7f b63c

layer_out_2.bias f4 [53]
-0.0021832439 -0.007968571 -0.0029414454 0.0005036416 -0.0069455924 0.009530176 0.006034095 -0.003062349
-0.012313835 0.011954365 -0.022581453 0.005354481 0.0027232924 -0.0045615574 0.014091615 -0.008202549
-0.0044019115 0.003463172 -0.0055972748 0.014083185 -0.0024308213 -0.0019755294 -0.00121759 0.011446105
0.0015981486 0.0064271903 -0.00841266 -0.005615233 -0.0062336517 -0.010128593 0.0047373027 -0.0018924491
0.004635037 -0.0052436087 -0.0035960888 -0.0033981726 -0.0014237892 0.011704926 0.0021621946 -0.0014421633
0.005884041 -0.024630107 0.02193282 -0.008643912 0.0017146455 0.0098073445 -0.0013494946 -0.017214255
-0.004565318 0.0085706385 0.0137959635 0.0073875496 0.0011121733
00000000: c114 0fbb 9c8e 02bc 44c5 40bb d106 043a
00000010: da97 e3bb 7524 1c3c a8b9 c53b b1b1 48bb
00000020: f8bf 49bc 3edc 433c bdfc b8bc a474 af3b
00000030: 4479 323b 1e79 95bb 84e0 663c fc63 06bc
00000040: e93d 90bb 62f6 623b 5869 b7bb 29bd 663c
00000050: 6a4e 1fbb e277 01bb 8a97 9fba 7288 3b3c
00000060: f878 d13a 2e9b d23b 41d5 09bc fdff b7bb
00000070: a943 ccbb 66f2 25bc 603b 9b3b 0e0c f8ba
00000080: 82e1 973b 94d2 abbb 5cac 6bbb e0b3 5ebb
00000090: 709e baba 05c6 3f3c 9bb3 0d3b f806 bdba
000000a0: eace c03b 14c5 c9bc 75ac b33c 329f 0dbc
000000b0: f5bd e03a fcae 203c 86e1 b0ba e904 8dbc
000000c0: aa98 95bb dd6b 0c3c 7708 623c 4213 f23b
000000d0: 58c6 913a

residual_layers.0.layer_norm.weight f4 [128]
0.96193373 1.0459145 1.0001118 0.93970674 0.9033447 1.0168842 1.0335438 1.0230157
1.0096279 0.99333584 1.0276221 0.982036 1.0284483 1.0338249 1.0133121 0.916116
0.9394167 0.98837787 1.0797724 0.9485527 0.9777789 1.0048486 0.9147056 0.92581755
0.90295666 0.9994845 1.023451 1.0567098 1.022064 0.98663247 0.9775865 1.0469599
0.9925397 0.96657944 0.9256556 0.9600867 1.0323769 1.0081874 0.9708673 0.9294826
0.9448817 0.98228997 1.0342244 0.9967721 1.0003055 1.0551834 1.0280224 1.0119432
1.0281737 1.0106168 1.0373638 0.9916064 1.0307624 1.0044187 0.9801882 0.9553397
1.0479431 0.98169065 1.0373548 0.95401925 0.9025808 1.0795968 0.9568599 1.0144421
0.94610864 0.9385394 0.9870354 0.91441643 1.0137191 1.0356225 1.0589823 1.0499068
0.9370666 0.9668872 0.9287341 1.0857124 1.1007025 0.9602156 0.9519256 0.90705746
1.0348045 0.9326427 1.0202422 1.0027388 0.9929187 0.9008329 1.1274397 1.0124329
1.0177715 0.94320196 1.0410417 1.0413222 1.033425 0.9173506 1.0269405 0.91355515
1.0465038 0.99792445 1.0229837 0.960189 1.074013 1.0011281 0.8901276 1.024047
1.0736763 0.99399227 0.9329184 1.0946457 1.0175436 0.94426703 1.0432203 0.97047096
1.0176294 0.98899233 0.93963534 0.9472756 0.9998707 1.0008706 1.0329823 0.99890786
0.97136676 0.99014705 0.9049168 1.0086701 0.94011986 0.9003437 0.93835086 0.97312176
00000000: 4a41 763f 87e0 853f aa03 803f 9f90 703f
00000010: 9941 673f 4329 823f 2a4b 843f 2ef2 823f
00000020: 7d3b 813f 424b 7e3f 1f89 833f b666 7b3f
00000030: 32a4 833f 6054 843f 36b4 813f 9486 6a3f
00000040: 9d7d 703f 5506 7d3f fb35 8a3f 5ad4 723f
00000050: b84f 7a3f e19e 803f 252a 6a3f 6102 6d3f
00000060: 2b28 673f 37de 7f3f 7100 833f 4442 873f
00000070: fed2 823f f293 7c3f 1c43 7a3f c802 863f
00000080: 1517 7e3f c071 773f c4f7 6c3f 3ec8 753f
00000090: ed24 843f 490c 813f c28a 783f 92f2 6d3f
000000a0: c4e3 713f 5b77 7b3f 7761 843f 752c 7f3f
000000b0: 030a 803f 4010 873f 3d96 833f 5b87 813f
000000c0: 329b 833f e45b 813f 56c8 843f ebd9 7d3f
000000d0: 06f0 833f cb90 803f 9ded 7a3f 2591 743f
000000e0: 0023 863f 1450 7b3f 0bc8 843f 9b3a 743f
000000f0: 890f 673f 3a30 8a3f c5f4 743f 3dd9 813f
00000100: 2d34 723f 1e44 703f 5aae 7c3f 3217 6a3f
00000110: 8cc1 813f 478f 843f bb8c 873f 5963 863f
00000120: 99e3 6f3f eb85 773f 85c1 6d3f a0f8 8a3f
00000130: d2e3 8c3f b1d0 753f 65b1 733f eb34 683f
00000140: 7974 843f acc1 6e3f 4c97 823f bf59 803f
00000150: ec2f 7e3f fc9c 663f f24f 903f 6797 813f
00000160: 5646 823f af75 713f db40 853f 0c4a 853f
00000170: 4547 843f 7dd7 6a3f c972 833f c0de 693f
00000180: d6f3 853f fa77 7f3f 21f1 823f f2ce 753f
00000190: 4279 893f f724 803f 67df 633f f913 833f
000001a0: 3a6e 893f 4776 7e3f bed3 6e3f 5a1d 8c3f
000001b0: de3e 823f 7cbb 713f 3e88 853f c970 783f
000001c0: ae41 823f 9a2e 7d3f f18b 703f a780 723f
000001d0: 87f7 7f3f 871c 803f c438 843f 6db8 7f3f
000001e0: 7eab 783f 477a 7d3f a1a8 673f 1a1c 813f
000001f0: b2ab 703f ed7c 663f c337 703f 821e 793f
