results/DDPM/SEQ_LEN/5/model_final.pth (torch, 204551 bytes, 26 tensors)

layer_x.weight f4 [64, 53]
-0.17710625 0.033526767 -0.103505835 -0.0038628457 0.005804129 0.030714164 -0.14969355 0.031887844
0.21668094 -0.13388908 -0.042305447 0.0010720753 0.0070595187 0.06624918 0.04376233 -0.048840262
0.11769635 0.02612635 0.077620074 0.09143174 -0.00016013157 0.0051297834 -0.06201724 -0.018609362
-0.08310207 -0.00028271924 -0.0037538938 -0.049326707 -0.013084375 0.053588267 0.1288723 -0.0230962
-0.023926046 -0.016770238 0.00020018796 0.16174366 -0.13968416 -0.099392064 -0.101825885 0.05373464
-0.047036935 -0.04809673 -0.10553084 0.12779678 -0.019528313 -0.024413407 0.11045634 0.03386501
-0.10245748 0.015142258 0.0045370357 -0.051172726 0.024131095 0.028018532 0.06283141 -0.04865844
-0.038353235 -0.000953556 0.17722294 -0.15769976 0.10366762 -0.022244643 -0.07977607 0.055922695
0.059760507 0.13949051 0.041109372 0.0222737 -0.10584459 0.122471035 -0.079777114 -0.15658881
-0.10150568 0.0998582 -0.054747444 0.04324869 -0.017402215 -0.040940084 0.094829455 -0.001091492
-0.07882554 0.08813231 0.05144616 0.06832513 0.13587472 -0.09825352 -0.095865294 0.027492633
-0.11695035 -0.0057401983 0.00977369 0.01111392 0.011810883 -0.056818586 0.13408524 0.14141
0.107976794 0.032326102 0.047890462 -0.087103456 0.0671063 -0.0024538846 -0.043790367 -0.022363773
0.0006649534 0.019559054 0.074930646 -0.029401246 -0.062203076 0.043415617 -0.0087537225 -0.00024616416
0.084652334 0.033483487 0.07275607 0.0017286828 0.046536367 0.10197113 0.1422728 0.15312663
0.07320506 0.16070352 0.013111017 0.03346278 0.0004462309 -0.017602341 0.06954501 -0.04206245
0.029532209 0.10808339 0.108667344 0.060201846 0.120956264 -0.041744325 -0.08742505 0.033631086
-0.09150652 0.0013718719 0.04483164 -0.034171294 -0.028919874 0.019252803 0.048663553 -0.0046605803
0.00017154837 0.021562606 0.1581172 0.019133504 -0.027638843 0.10329754 0.12120409 -0.01850322
0.09643813 0.07633267 0.109368116 0.0010124063 0.01673219 0.18114513 -0.16264127 0.100721195
-0.044376425 -0.07846964 -0.0253637 -0.1386398 -0.0203311 0.029303718 -0.07751268 -0.06530952
-0.03656411 -0.13072507 -0.00496665 -0.086851396 -0.21631886 -0.0250863 -0.07295534 0.002319405
-0.089415126 -0.06399916 0.021651765 -0.06424785 -0.15997452 -0.040282242 -0.09445116 0.090487644
-0.21839069 -0.028835062 0.15692794 -0.028472168 -0.03765977 -0.12676106 0.088749945 -0.00707944
0.0052300817 -0.08838813 0.018234354 -0.086452425 -0.088992625 -0.006091558 -0.023874758 0.007190372
-0.04275368 -0.051525842 -0.1799705 0.040780798 -0.13349675 -0.13728349 -0.10769698 -0.09664651
-0.029664565 -0.03698657 -0.06617723 -0.09322095 0.11483683 0.06425319 0.048336532 0.115444355
0.068971775 0.1405388 0.051397517 -0.0099443635 0.03218993 0.16737254 0.010692348 0.0062454394
-0.041880682 0.06719766 0.036725037 0.07316314 0.015299452 -0.0151524395 0.09808614 0.14855707
0.079680145 0.2155174 0.08168617 0.04674028 -0.038447462 0.1431716 0.035132565 0.0015596633
0.14032464 -0.081885464 -0.041274983 0.15056653 0.14850315 0.034692023 -0.02225337 -0.0007064583
-0.022087276 0.0783362 -0.06236945 -0.009828345 0.057980493 0.0982672 -0.06325035 0.04787368
00000000: 575b 35be 5d53 093d defa d3bd cc27 7dbb
00000010: 9030 be3b 459c fb3c 4449 19be d49c 023d
00000020: 9ce1 5d3e 381a 09be 7a48 2dbd e184 8c3a
00000030: 8953 e73b a6ad 873d 2140 333d ba0c 48bd
00000040: c90a f13d ed06 d63c 46f7 9e3d 9040 bb3d
00000050: fee8 27b9 be17 a83b ca05 7ebd a972 98bc
00000060: 6b31 aabd ef39 94b9 e303 76bb cd0a 4abd
00000070: d95f 56bc 5f7f 5b3d 1af7 033e 3e34 bdbc
00000080: 8e00 c4bc bd61 89bc 8ce9 5139 21a0 253e
00000090: 5d09 0fbe 118e cbbd 178a d0bd db18 5c3d
000000a0: cda9 40bd 1401 45bd 8e20 d8bd 29dd 023e
000000b0: d7f9 9fbc a0fe c7bc ef36 e23d 09b6 0a3d
000000c0: 3ad5 d1bd 3c17 783c 6aab 943b 7e9a 51bd
000000d0: 93ae c53c 1f87 e53c c1ad 803d 134e 47bd
000000e0: 4818 1dbd 0ff8 79ba ee79 353e 0c7c 21be
000000f0: b04f d43d 663a b6bc a361 a3bd 320f 653d
00000100: 6fc7 743d 9ad6 0e3e 4d62 283d 5677 b63c
00000110: 0cc5 d8bd 18d2 fa3d 2f62 a3bd d158 20be
00000120: 36e2 cfbd 7582 cc3d db3e 60bd 8a25 313d
00000130: 178f 8ebc cab0 27bd f235 c23d 6510 8fba
00000140: 496f a1bd b67e b43d 35b9 523d 0cee 8b3d
00000150: be22 0b3e 2439 c9bd 0655 c4bd 3b38 e13c
00000160: aa83 efbd 4618 bcbb d421 203c 2917 363c
00000170: 6f82 413c 9bba 68bd a44d 093e c8cd 103e
00000180: f022 dd3d 6068 043d ca28 443d 4c63 b2bd
00000190: 076f 893d 5ad1 20bb 875d 33bd 3b34 b7bc
000001a0: 4450 2e3a 4f3a a03c 3d75 993d e2da f0bc
000001b0: a7c8 7ebd 93d4 313d c66b 0fbc 980f 81b9
000001c0: 345e ad3d fb25 093d 2201 953d f894 e23a
000001d0: eb9c 3e3d 3dd6 d03d f6af 113e 3acd 1c3e
000001e0: 89ec 953d 778f 243e 97cf 563c 4510 093d
000001f0: 19f4 e939 c932 90bc 9d6d 8e3d ad49 2cbd
00000200: 88ed f13c d35a dd3d fc8c de3d 3696 763d
00000210: ebb7 f73d 19fc 2abd e80b b3bd c0c0 093d
00000220: c567 bbbd 62d0 b33a 62a1 373d 33f7 0bbd
00000230: 5fe9 ecbc 0eb8 9d3c 6f53 473d c8b7 98bb
00000240: aae1 3339 10a4 b03c 7ae9 213e debd 9c3c
00000250: db6a e2bc a98d d33d da39 f83d 1194 97bc
00000260: 5b81 c53d 4e54 9c3d 64fc df3d b8b2 843a
00000270: f211 893c 1c7e 393e 6f8b 26be ea46 ce3d
00000280: 0ec4 35bd b1b4 a0bd 89c7 cfbc 97f7 0dbe
00000290: 688d a6bc 5a0e f03c f8be 9ebd ffc0 85bd
000002a0: 40c4 15bd cbdc 05be 48bf a2bb 25df b1bd
000002b0: b182 5dbe c981 cdbc 9c69 95bd 2901 183b
000002c0: 471f b7bd fe11 83bd 0b5f b13c 6094 83bd
000002d0: 5cd0 23be fefe 24bd 9c6f c1bd 9651 b93d
000002e0: cfa1 5fbe 8237 ecbc b8b1 203e 773e e9bc
000002f0: 2241 1abd a7cd 01be 88c2 b53d a6fa e7bb
00000300: 1b61 ab3b d604 b5bd 3660 953c f80d b1bd
00000310: c441 b6bd b19b c7bb ff94 c3bc 369d eb3b
00000320: 7c1e 2fbd c30c 53bd 304a 38be c409 273d
00000330: 5fb3 08be 0b94 0cbe 3c90 dcbd 9bee c5bd
00000340: 1a03 f3bc 3b7f 17bd ed87 87bd a0ea bebd
00000350: 922f eb3d 2d97 833d 87fc 453d 176e ec3d
00000360: 1341 8d3d 67e9 0f3e 3486 523d afed 22bc
00000370: 97d9 033d b563 2b3e f52e 2f3c 8ba6 cc3b
00000380: 148b 2bbd ed9e 893d fe6c 163d 8ed6 953d
00000390: 8daa 7a3c f041 78bc 63e1 c83d 581f 183e
000003a0: 582f a33d 98b0 5c3e 144b a73d bc72 3f3d
000003b0: 167b 1dbd 939b 123e 2ae7 0f3d 9e6d cc3a
000003c0: 43b1 0f3e 91b3 a7bd f50f 29bd 1d2e 1a3e
000003d0: 3611 183e 3919 0e3d b34c b6bc 9d31 39ba
000003e0: 60f0 b4bc bb6e a03d 1c77 7fbd 1107 21bc
000003f0: f47c 6d3d 5040 c93d 6689 81bd 3117 443d

layer_x.bias f4 [64]
0.16841999 0.118667506 0.0533059 0.15034874 0.19996232 0.0050533502 0.105121 0.31194016
0.320426 0.06355983 0.1709646 0.11791357 0.14127538 0.30828944 0.25396523 0.18240644
0.16241705 -0.040239137 0.23394214 0.033704106 0.017801413 0.3036238 0.32150146 0.09642443
0.14797455 0.1607061 0.035766743 0.17837809 0.11454318 -0.057931 0.12530617 0.09111281
0.13942592 0.10626047 0.23645349 0.2835944 0.0838222 0.24788535 0.27643624 0.19285345
0.024768496 0.036250256 0.12011589 0.09903466 0.33572507 0.07472974 0.3173712 0.004276449
0.12468638 0.106392406 0.12463588 0.036853567 0.33845016 0.02279044 0.16932306 0.24077694
0.35903162 0.16737996 0.23862688 0.1209254 0.2582508 -0.009417361 0.16219704 0.2347614
00000000: 4a76 2c3e f307 f33d 4a57 5a3d 05f5 193e
00000010: ecc2 4c3e 9396 a53b ae49 d73d 9fb6 9f3e
00000020: e00e a43e a82b 823d 5811 2f3e ab7c f13d
00000030: 7eaa 103e 1dd8 9d3e bb07 823e c1c8 3a3e
00000040: a850 263e cbd1 24bd 878e 6f3e 510d 0a3d
00000050: 45d4 913c 9474 9b3e d79b a43e 2c7a c53d
00000060: a486 173e 2490 243e 2680 123d bfa8 363e
00000070: 9d95 ea3d 0e49 6dbd 4350 003e 5a99 ba3d
00000080: abc5 0e3e 179f d93d dd20 723e 4933 913e
00000090: f9aa ab3d a8d5 7d3e 0d89 8d3e 607b 453e
000000a0: 4de7 ca3c 267b 143d 52ff f53d afd2 ca3d
000000b0: 28e4 ab3e e80b 993d 7a7e a23e 7421 8c3b
000000c0: 935b ff3d 43e4 d93d 1941 ff3d c4f3 163d
000000d0: 5749 ad3e 04b3 ba3c 0663 2d3e 3b8e 763e
000000e0: fed2 b73e a765 2b3e 9b5a 743e bca7 f73d
000000f0: 7339 843e 464b 1abc fb16 263e 4b65 703e

layer_t_1.weight f4 [64, 64]
-0.06846025 -0.024501977 0.19335651 0.0039139464 0.046412125 0.090532124 0.026708575 -0.02107389
-0.17759788 0.0946736 -0.13339862 -0.07714549 0.08435633 -0.010388984 0.032352567 0.03997187
-0.051665768 -0.119275786 0.028967615 -0.21702187 -0.07971502 0.055128057 0.06408782 -0.07693633
0.0564418 0.09156935 -0.13737871 -0.023156336 0.020196686 -0.1266032 -0.017754536 0.022861706
0.08205392 0.07026044 0.037050057 -0.057231154 0.08289697 -0.06912714 0.20077358 -0.07202226
0.057941124 0.007912733 0.05547141 -0.09652823 0.15292448 0.09819316 0.080491014 0.16266876
-0.061173305 0.060958795 -0.032442406 0.16285194 -0.05477152 -0.050350472 0.02840442 0.051696155
-0.008195292 -0.032729644 0.029055567 -0.027367085 0.028794128 0.062124755 0.09539907 -0.093493074
-0.02573084 0.13172816 -0.12265522 -0.02938181 -0.2012149 0.038659796 -0.059179015 -0.0048664636
0.088672735 -0.0007398507 -0.0044389786 0.104801126 0.09314353 -0.030536488 0.027590595 0.114407465
0.05484742 0.10432562 -0.10177714 0.19336778 -0.15050611 -0.15195878 -0.03041188 0.05410814
0.08101197 0.03137285 -0.12303005 0.0008302103 0.020634104 -0.0493624 -0.015931524 0.11692533
0.05563233 -0.052820794 -0.108786985 0.108795114 -0.066991955 0.042630453 -0.06109343 -0.18995641
-0.037315316 -0.11550008 -0.12908748 0.07321726 0.07355181 0.13196841 0.12635744 -0.077746205
0.10505681 -0.11079164 -0.11349097 -0.07791301 0.072191834 0.12515953 -0.11704588 -0.13672693
0.06801422 -0.053657465 -0.055618525 0.12608042 -0.031403843 0.022188876 0.112723716 0.034364562
0.04231933 -0.012319535 -0.07590739 0.037697207 0.05193676 -0.08859875 0.021666301 -0.13455972
-0.08123023 0.07457767 -0.10297815 -0.016453346 -0.07914849 -0.047492716 -0.01215874 -0.068976805
-0.06789781 -0.0068389717 0.10330426 -0.124440074 0.10193506 0.047659572 -0.059422687 -0.032861542
0.03869703 -0.03086666 -0.08135486 -0.053406928 -0.08415138 -0.06596123 0.06861049 -0.011619389
-0.014208862 -0.029290615 0.040576804 0.09372146 -0.070597135 -0.10129897 0.004863078 -0.055040453
0.024079172 -0.035542008 0.03815578 -0.10309735 0.07638137 0.018591488 -0.060438782 -0.11414589
0.028425984 0.040029943 -0.05015537 0.129646 -0.07922889 -0.06666093 0.06313906 -0.09492528
-0.05107327 -0.015800416 0.03601795 -0.024684813 0.09991959 0.12698744 -0.005684025 -0.08933268
0.018326595 0.14898893 -0.06681877 0.16605508 0.11975935 0.14298262 0.01488464 0.1625967
-0.08286618 -0.043690227 0.16852391 0.19552985 0.06602008 -0.014054612 0.10316701 0.016876029
-0.056719307 0.057665545 -0.17064181 0.43867454 -0.042533495 0.195143 -0.14042056 -0.08558592
-0.11337707 0.01822141 -0.037233923 -0.15259473 -0.075339295 -0.014342297 0.018588362 0.062106352
0.08346173 -0.15199628 -0.077938244 0.08430607 0.16430017 -0.17821369 -0.013353869 -0.13164619
-0.21693788 0.012431417 0.038723007 0.04132088 0.05016162 -0.037225634 0.056474082 -0.27294746
0.049132537 -0.16184458 -0.08886752 -0.12752691 0.008202906 -0.1537021 0.04445828 0.108378135
-0.06245799 -0.06177447 -0.27084914 0.009755835 -0.18717018 0.1138177 0.018676337 0.036766928
00000000: e334 8cbd 5fb8 c8bc 40ff 453e 9040 803b
00000010: a41a 3e3d e868 b93d f1cb da3c 27a3 acbc
00000020: 38dc 35be 3be4 c13d a699 08be 74fe 9dbd
00000030: 03c3 ac3d 8f36 2abc 2084 043d 8bb9 233d
00000040: 7c9f 53bd dd46 f4bd 7e4d ed3c fb3a 5ebe
00000050: a141 a3bd f5cd 613d 7a40 833d cb90 9dbd
00000060: 842f 673d b688 bb3d 01ad 0cbe 5bb2 bdbc
00000070: 8573 a53c 45a4 01be f671 91bc 7948 bb3c
00000080: e30b a83d b5e4 8f3d cdc1 173d 376b 6abd
00000090: e3c5 a93d 8892 8dbd 9797 4d3e 6880 93bd
000000a0: ac53 6d3d 68a4 013c fd35 633d 98b0 c5bd
000000b0: 3c98 1c3e 7f19 c93d 79d8 a43d a492 263e
000000c0: dc90 7abd eeaf 793d 54e2 04bd a9c2 263e
000000d0: 1a58 60bd 4c3c 4ebd 63b0 e83c 59bf 533d
000000e0: 8c45 06bc 850f 06bd f105 ee3c f030 e0bc
000000f0: aae1 eb3c 8776 7e3d 9660 c33d 4c79 bfbd
00000100: 7cc9 d2bc bfe3 063e a932 fbbd 1fb2 f0bc
00000110: 470b 4ebe bc59 1e3d b265 72bd db76 9fbb
00000120: 0d9a b53d 8af2 41ba da74 91bb f9a1 d63d
00000130: 09c2 be3d a827 fabc ac05 e23c 764e ea3d
00000140: b0a7 603d aca8 d53d 8870 d0bd 3402 463e
00000150: 461e 1abe 159b 1bbe 5622 f9bc 7fa0 5d3d
00000160: 9be9 a53d d180 003d 2ef7 fbbd 78a2 593a
00000170: da08 a93c 3a30 4abd d482 82bc 8c76 ef3d
00000180: bade 633d 9e5a 58bd b6cb debd f9cf de3d
00000190: 1433 89bd 459d 2e3d 1b3d 7abd ef83 42be
000001a0: f2d7 18bd 4e8b ecbd 822f 04be eef2 953d
000001b0: 55a2 963d ba22 073e d863 013e 6739 9fbd
000001c0: 0628 d73d bae6 e2bd f46d e8bd db90 9fbd
000001d0: 50d9 933d d229 003e c0b5 efbd 2502 0cbe
000001e0: 0a4b 8b3d eec7 5bbd 40d0 63bd 3a1b 013e
000001f0: 51a1 00bd 72c5 b53c b1db e63d dbc1 0c3d
00000200: 0957 2d3d e0d7 49bc 5575 9bbd 6368 1a3d
00000210: a4bb 543d 4373 b5bd 877d b13c 06ca 09be
00000220: 095c a6bd 2dbc 983d 35e6 d2bd 2bc9 86bc
00000230: 9b18 a2bd b987 42bd 7435 47bc b643 8dbd
00000240: 020e 8bbd 7419 e0bb 2f91 d33d 70da febd
00000250: 54c3 d03d af36 433d 3465 73bd d399 06bd
00000260: c780 1e3d 14dc fcbc 609d a6bd 39c1 5abd
00000270: 8f57 acbd ae16 87bd a883 8c3d 405f 3ebc
00000280: 49cc 68bc dff2 efbc dd33 263d 09f1 bf3d
00000290: 3b95 90bd d675 cfbd 745a 9f3b 1972 61bd
000002a0: af41 c53c 7f94 11bd 3c49 1c3d b424 d3bd
000002b0: d66d 9c3d 2d4d 983c a88e 77bd 52c5 e9bd
000002c0: 9cdd e83c 70f6 233d b86f 4dbd ecc1 043e
000002d0: c242 a2bd 8785 88bd 0d4f 813d 2f68 c2bd
000002e0: 3532 51bd e06f 81bc 8f87 133d ce37 cabc
000002f0: a4a2 cc3d ff08 023e 0f41 babb 0df4 b6bd
00000300: a821 963c 8e90 183e 47d8 88bd 580a 2a3e
00000310: 6444 f53d 096a 123e b5de 733c c07f 263e
00000320: beb5 a9bd 86f4 32bd 8891 2c3e fa38 483e
00000330: 8935 873d 5145 66bc 3a49 d33d 993f 8a3c
00000340: 8152 68bd b532 6c3d babc 2ebe f399 e03e
00000350: 9a37 2ebd 91d3 473e 68ca 0fbe ac47 afbd
00000360: 3d32 e8bd 1145 953c 9982 18bd cb41 1cbe
00000370: 7d4b 9abd f4fb 6abc 9f46 983c 3b63 7e3d
00000380: fced aa3d eaa4 1bbe 169e 9fbd a9a8 ac3d
00000390: 4e3e 283e a67d 36be 30ca 5abc 42ce 06be
000003a0: f724 5ebe 24ad 4b3c 049c 1e3d 1540 293d
000003b0: 4576 4d3d e879 18bd 5e51 673d c5bf 8bbe
000003c0: 333f 493d 96ba 25be 2d00 b6bd 6a96 02be
000003d0: 7b65 063c 1564 1dbe e319 363d 5bf5 dd3d
000003e0: f3d3 7fbd 3a07 7dbd bdac 8abe f0d6 1f3c
000003f0: 8aa9 3fbe 4119 e93d 1eff 983c eb98 163d

layer_t_1.bias f4 [64]
-0.09620708 -0.08438675 -0.10003086 0.18925947 0.04419108 0.16179556 -0.047665 -0.1184612
-0.0013799916 0.12824462 0.036836166 -0.03187019 0.08558127 0.024659561 0.06722543 -0.07426513
0.098578386 -0.027772281 0.016655145 0.0979436 0.042561468 -0.12117377 -0.009440559 -0.03687361
-0.04387654 0.011636756 0.109723754 0.022033028 0.03635011 -0.109035164 0.07494279 0.057924546
-0.15151414 -0.03295375 -0.027574996 0.14670976 0.016839722 -0.15645278 0.1384908 0.09371355
-0.0005388918 0.064001285 -0.10172307 0.0016180477 0.005978353 -0.09447482 0.048768833 0.0020121941
0.047775026 0.028762445 -0.06805234 -0.019825982 0.05841991 -0.12515275 0.12605508 -0.042927522
-0.18984942 0.03276976 -0.041065503 0.055867855 0.039028283 -0.022647578 -0.12722246 -0.07115994
00000000: 3808 c5bd f6d2 acbd fbdc ccbd 3ccd 413e
00000010: b501 353d bcad 253e 603c 43bd c99b f2bd
00000020: d6e0 b4ba 8f52 033e 85e1 163d 518a 02bd
00000030: 3c45 af3d d902 ca3c 7cad 893d 5118 98bd
00000040: 77e3 c93d b282 e3bc 5f70 883c a796 c83d
00000050: ef54 2e3d f429 f8bd 93ac 1abc c808 17bd
00000060: e3b7 33bd 18a8 3e3c d9b6 e03d 9c7e b43c
00000070: dae3 143d d44d dfbd 9b7b 993d 4a42 6d3d
00000080: 8626 1bbe 83fa 06bd f5e4 e1bc 153b 163e
00000090: 75f3 893c 2835 20be 88d0 0d3e e4ec bf3d
000000a0: 6b44 0dba 1b13 833d 2f54 d0bd ac14 d43a
000000b0: 0fe6 c33b 047c c1bd d4c1 473d 04df 033b
000000c0: bfaf 433d 389f eb3c 065f 8bbd 196a a2bc
000000d0: b749 6f3d 0b28 00be 9514 013e c5d4 2fbd
000000e0: e367 42be 9539 063d 4d34 28bd b1d5 643d
000000f0: 1fdc 1f3d 6a87 b9bc 9b46 02be 4dbc 91bd

layer_t_2.weight f4 [64, 64]
-0.02443638 -0.0018285305 -0.061287 0.09535382 0.077721 0.0672866 0.095687725 -0.035698503
0.06796201 0.12665106 0.11582361 0.10496077 -0.04935248 -0.049572196 0.067671984 -0.08082073
-0.05469179 0.11021589 0.108646184 0.056525882 0.003419455 -0.100475945 -0.024189843 -0.022936108
0.14923243 0.006118649 0.035770554 0.07029408 0.055247758 0.09638287 0.05755378 0.121597104
-0.16989382 0.06263969 0.050489757 0.081659876 -0.17690109 -0.12693907 -0.011193723 0.030119091
0.06908334 0.09251263 -0.14072986 0.11893857 0.0064564785 0.04706617 0.035232976 0.040531058
-0.030521924 -0.010439889 0.017508628 0.07714578 0.14592773 -0.0017312897 0.07863646 -0.08740154
-0.19584101 -0.08124811 -0.12754552 0.014169107 0.10182682 0.0900132 -0.16074371 0.004688994
0.057243533 0.031997122 0.01351532 0.032558106 0.048217136 -0.16224517 -0.04996983 0.03130647
0.047829952 -0.12968649 -0.052226733 -0.052899495 0.020516682 -0.06493745 -0.004044412 -0.02637471
0.03928437 -0.028316936 0.028649217 -0.043327324 -0.0198663 -0.030843593 0.05566155 0.08277105
-0.1250227 -0.12638173 -0.095790185 -0.015142212 0.074454635 0.08339197 0.04204403 -0.04131362
-0.011322532 0.06853568 0.05605887 -0.03766689 -0.034457847 0.14342774 -0.0933555 -0.12200057
-0.06365804 0.03273343 -0.1444016 -0.014058921 0.05360336 -0.019673077 -0.07510478 -0.13494454
0.048831064 -0.12878379 0.10123563 0.06815955 -0.02100686 0.034930438 -0.030276181 -0.09477052
0.015195984 -0.010152253 -0.0354349 -0.054068826 0.02495748 -0.020557592 0.054328058 0.008298571
0.03147316 -0.12535563 -0.09031259 -0.18120459 -0.05090411 -0.11128016 -0.16429558 -0.11973864
0.028156696 -0.12256984 -0.032228317 0.040866267 -0.00984467 0.09695881 -0.078444876 0.1317497
-0.071147785 -0.047024917 -0.023042496 0.0009523324 0.057803597 0.10778173 0.17878942 0.14824195
0.018991293 0.017542543 0.042460024 -0.009144541 -0.06741735 -0.14564632 0.022052854 0.08536809
0.14986722 0.049022082 -0.058338746 -0.092175 0.18227996 0.15773225 -0.10502274 -0.1410678
-0.075376965 0.010091608 0.06854553 0.11477394 0.05729472 -0.018161073 -0.0845878 -0.015548787
0.16831487 -0.051088825 0.012526689 0.07357047 -0.037194252 0.13825291 0.058990605 -0.00048241916
0.02326126 0.075424656 0.07766589 0.05361426 -0.090386495 -0.17171149 0.026615186 -0.10015959
-0.021396127 -0.1079032 0.06359399 0.08766495 0.047372937 -0.11599066 -0.019428438 -0.110726506
-0.034970764 0.028940208 -0.053928133 0.10049951 -0.03941317 -0.0022501454 -0.21523763 0.07232578
0.0063183005 -0.027052086 -0.08596872 0.023014124 0.09695255 0.06359864 0.0753563 0.12844975
-0.08329309 0.1295947 -0.13891062 -0.030910796 0.023566492 0.06461359 -0.07294539 -0.03919179
0.15107803 0.12113956 -0.07572049 -0.024107695 0.103365935 0.19037195 -0.17591554 -0.14710039
0.01052292 -0.09201933 -0.044534758 0.03558341 0.017498517 0.097220056 -0.08298678 -0.16489989
0.1465073 0.02688475 0.0043576076 0.031888254 -0.07795334 0.16219042 -0.074000455 -0.035490017
-0.048356008 -0.05542701 -0.02077737 0.11455481 -0.08087788 -0.091087446 0.11807741 -0.018069087
00000000: ce2e c8bc 4dab efba 1408 7bbd dd48 c33d
00000010: 302c 9f3d 8fcd 893d edf7 c33d 9838 12bd
00000020: ab2f 8b3d d1b0 013e ee34 ed3d acf5 d63d
00000030: d325 4abd 370c 4bbd 9c97 8a3d 5785 a5bd
00000040: 8004 60bd deb8 e13d e481 de3d af87 673d
00000050: ef18 603b 55c6 cdbd c729 c6bc 81e4 bbbc
00000060: 63d0 183e f37e c83b 2584 123d 58f6 8f3d
00000070: 794b 623d 6264 c53d 83bd 6b3d e707 f93d
00000080: a5f8 2dbe 3d49 803d 59ce 4e3d 4b3d a73d
00000090: 8f25 35be 51fc 01be e165 37bc 50bc f63c
000000a0: 917b 8d3d 4377 bd3d 7d1b 10be 1196 f33d
000000b0: de90 d33b 75c8 403d 7450 103d e503 263d
000000c0: 1d09 fabc 110c 2bbc 416e 8f3c 9bfe 9d3d
000000d0: 146e 153e 71ec e2ba 270c a13d 94ff b2bd
000000e0: 8c8a 48be 6965 a6bd 4b9b 02be 8b25 683c
000000f0: 948a d03d d758 b83d 009a 24be 22a6 993b
00000100: 3278 6a3d 6a0f 033d 5c6f 5d3c a65b 053d
00000110: 557f 453d 9923 26be 2aad 4cbd 373b 003d
00000120: 57e9 433d 89cc 04be b3eb 55bd 24ad 58bd
00000130: 9a12 a83c edfd 84bd fd86 84bb c70f d8bc
00000140: a6e8 203d ebf8 e7bc c3b1 ea3c fe77 31bd
00000150: a7be a2bc b4ab fcbc 5efd 633d de83 a93d
00000160: f305 00be 366a 01be a52d c4bd 0a17 78bc
00000170: ac7b 983d 69c9 aa3d 5c36 2c3d 7838 29bd
00000180: 2482 39bc 6f5c 8c3d fc9d 653d 9948 1abd
00000190: ac23 0dbd b9de 123e 2b31 bfbd 6fdb f9bd
000001a0: 255f 82bd 7d13 063d 03de 13be 6357 66bc
000001b0: 328f 5b3d 6f29 a1bc 89d0 99bd e72e 0abe
000001c0: 1503 483d e6df 03be a054 cf3d 3c97 8b3d
000001d0: 9416 acbc 3813 0f3d c105 f8bc 0c17 c2bd
000001e0: 94f8 783c a355 26bc 3024 11bd 4677 5dbd
000001f0: a173 cc3c 6568 a8bc 1987 5e3d bbf6 073c
00000200: 00ea 003d 3a5d 00be cff5 b8bd b28d 39be
00000210: d480 50bd dae6 e3bd 1a3d 28be 8839 f5bd
00000220: dfa8 e63c e505 fbbd d701 04bd 6363 273d
00000230: 8a4b 21bc 5792 c63d b5a7 a0bd 65e9 063e
00000240: eeb5 91bd 339d 40bd 9ec3 bcbc f2a5 793a
00000250: 77c3 6c3d abbc dc3d 9314 373e bdcc 173e
00000260: a193 9b3c 61b5 8f3c 90ea 2d3d fcd2 15bc
00000270: 1c12 8abd 4f24 15be 30a8 b43c 77d5 ae3d
00000280: cb76 193e 61cb 483d 9cf4 6ebd 3fc6 bcbd
00000290: 99a7 3a3e 9084 213e 2a16 d7bd 1474 10be
000002a0: 3d5f 9abd 4657 253c 9961 8c3d 990e eb3d
000002b0: dead 6a3d 88c6 94bc 5e3c adbd 57c0 7ebc
000002c0: bc5a 2c3e 8442 51bd be3c 4d3c 1dac 963d
000002d0: 0059 18bd 2c92 0d3e 22a0 713d 34ed fcb9
000002e0: 668e be3c 3e78 9a3d 4b0f 9f3d a09a 5b3d
000002f0: 8e1c b9bd 23d5 2fbe 1708 da3c 7920 cdbd
00000300: ee46 afbc 5afc dcbd 913d 823d ae89 b33d
00000310: 200a 423d 838c edbd 6328 9fbc 94c4 e2bd
00000320: 813d 0fbd 0414 ed3c bfe3 5cbd b0d2 cd3d
00000330: b46f 21bd 2d77 13bb 4167 5cbe 8a1f 943d
00000340: bf09 cf3b 569c ddbc 5e10 b0bd 1e88 bc3c
00000350: 0f8f c63d 0140 823d 6754 9a3d 5588 033e
00000360: 9195 aabd 79b4 043e 963e 0ebe a338 fdbc
00000370: 840e c13c 2154 843d 6564 95bd 9287 20bd
00000380: 33b4 1a3e 0518 f83d 5813 9bbd 807d c5bc
00000390: 85b1 d33d ddf0 423e 3423 34be 7ca1 16be
000003a0: 5368 2c3c a174 bcbd 146a 36bd e9bf 113d
000003b0: 0d59 8f3c 4f1b c73d f9f4 a9bd 84db 28be
000003c0: 0206 163e 683d dc3c 43ca 8e3b 429d 023d
000003d0: 00a6 9fbd 3f15 263e 8d8d 97bd fb5d 11bd
000003e0: f310 46bd 6f07 63bd 4e35 aabc b69b ea3d
000003f0: 4da3 a5bd 0e8c babd 92d2 f13d 9f05 94bc

layer_t_2.bias f4 [64]
-0.0033225762 0.017325122 0.11143789 0.075372346 -0.022379732 0.089698195 0.07671934 -0.05802321
-0.1053837 -0.08888487 0.035991155 -0.09025278 0.02010286 -0.013101933 -0.08734463 -0.07461912
0.060723424 0.11414184 -0.054516528 0.08498916 -0.061816763 0.006098106 -0.0003564452 -0.030358579
-0.006797509 0.08234261 0.07394231 0.025834918 -0.050304286 0.033696238 0.09971464 -0.062992215
0.06852804 0.15428257 -0.12672926 0.017435357 0.12408529 -0.014650598 -0.12536247 -0.033273917
-0.07241133 -0.10894397 -0.02510808 0.06621849 0.116637096 -0.020364145 0.038548633 0.11206771
-0.012358852 -0.06604164 0.055177752 0.11540817 0.02238037 -0.06105061 -0.08278195 0.1031804
0.058452554 -0.14020704 -0.06731556 -0.050252847 -0.08169227 -0.08405689 -0.018168382 0.08219171
00000000: 94bf 59bb 6aed 8d3c 8c39 e43d d15c 9a3d
00000010: b355 b7bc b0b3 b73d 081f 9d3d bfa9 6dbd
00000020: 69d3 d7bd 4509 b6bd 766b 133d 73d6 b8bd
00000030: c1ae a43c 7da9 56bc bee1 b2bd e9d1 98bd
00000040: 20b9 783d 32c3 e93d b94c 5fbd cc0e ae3d
00000050: 9333 7dbd 9fd2 c73b 44e1 bab9 8eb2 f8bc
00000060: a3bd debb 3ea3 a83d 116f 973d c0a3 d33c
00000070: de0b 4ebd 1105 0a3d 3037 cc3d 1002 81bd
00000080: 6e58 8c3d 40fc 1d3e 51c5 01be 98d4 8e3c
00000090: 6e20 fe3d 1009 70bc 055f 00be 3b4a 08bd
000000a0: 644c 94bd 041e dfbd 76af cdbc 8f9d 873d
000000b0: 6edf ee3d b5d2 a6bc 2ce5 1d3d c183 e53d
000000c0: c87c 4abc d740 87bd 1102 623d 1e5b ec3d
000000d0: 0a57 b73c 3410 7abd 9589 a9bd 3f50 d33d
000000e0: f26b 6f3d 6f92 0fbe bedc 89bd eed5 4dbd
000000f0: 474e a7bd 0526 acbd dcd5 94bc 2154 a83d

layer_out_1.weight f4 [64, 64]
-0.04522539 0.08511388 -0.0121897645 0.07764183 0.027524116 -0.08328651 -0.035148483 0.13167198
0.049028277 0.06600958 0.07923639 -0.086586185 -0.06695138 0.07499557 0.11888351 0.060275033
-0.066969246 -0.06275582 -0.112233326 -0.0687574 -0.11305021 0.022131281 0.049029067 -0.06579857
-0.04017323 0.08920984 0.011824192 0.09272483 -0.0018107098 0.06340095 0.0051805605 0.060133506
-0.07103173 -0.05971278 0.07435959 0.06959693 0.11612386 -0.06128389 0.17393047 -0.002812028
0.08038376 -0.062093012 -0.08184791 0.13054796 0.0691573 0.010159282 -0.04686694 -0.109405346
0.09875456 0.061250865 0.043631 -0.059367582 0.024065685 -0.032588422 0.08433466 -0.036832336
0.004030246 0.06486016 -0.021554273 -0.11927281 -0.01417021 -0.08038608 -0.12682179 -0.07415135
-0.059761416 0.09646553 0.011055184 -0.10695148 0.04514466 0.10152704 -0.0021233067 0.08520645
-0.010414861 0.042865682 0.013744581 -0.028794708 0.03837981 0.037391055 0.050162166 0.00247361
-0.026950452 0.00049906055 -0.14389409 0.05948131 -0.05306567 -0.07324572 -0.0012541744 0.1142004
0.05078077 0.117040254 -0.10177756 0.050749518 -0.003989952 -0.07030733 -0.00393992 -0.028231211
0.09746202 0.022484934 -0.012221812 -0.096658684 0.028879765 -0.1004523 -0.08479231 0.018616483
0.07595252 -0.14589305 0.10375448 0.14736263 -0.038635794 -0.034882396 -0.023556124 -0.12139655
-0.0012137594 -0.040320393 0.0634817 0.09614335 -0.03878749 0.050050016 0.036225807 -0.14815168
-0.05086388 -0.051876966 -0.025132922 0.15672415 -0.027730137 0.027825946 -0.08416712 0.041623473
-0.019013114 -0.026452618 -0.010021402 -0.039885066 0.062039975 -0.087030776 0.0691776 0.14376988
0.07754177 0.051238175 0.09000532 0.0038816815 0.058046322 0.12980779 -0.0032112608 0.06707841
-0.012101413 0.031771317 0.025140755 -0.090231895 -0.11217524 -0.050957236 -0.006092217 0.12368156
0.049082074 -0.08879402 -0.009062086 0.078737676 -0.12490952 0.11887384 0.05511896 -0.04300879
-0.10932451 -0.15757804 -0.12289575 0.019568002 0.01827682 0.0501958 0.022260265 -0.06542832
-0.08253119 -0.0778265 0.12862271 -0.038827214 -0.072077684 0.11195423 -0.020251783 -0.15000804
0.13112259 -0.09601167 -0.008605095 0.07796021 -0.052046534 0.098142445 -0.11081722 0.027726345
0.10361424 0.108571276 -0.046847522 -0.037792627 -0.015741399 -0.116022184 -0.0713044 -0.0396512
-0.043178845 -0.014712023 0.056003433 -0.07985294 0.122657396 -0.03762724 0.050732497 -0.0102913985
0.09246519 0.07914605 0.032320857 -0.14894938 -0.08379578 -0.066407494 0.046151105 0.061787453
0.11479784 0.07892446 -0.05319151 -0.01546846 -0.1424742 -0.065415315 -0.0010757796 -0.044199444
-0.014868588 0.040323965 -0.058449093 -0.0929798 0.005288261 -0.083810344 -0.031295754 -0.14461346
0.16353805 0.044316817 -0.002691264 0.07078282 -0.10251018 0.045645528 0.0887905 0.07200089
0.08397168 -0.087903306 0.0745258 0.10792696 0.07473982 0.03158317 -0.15645134 0.10197334
0.027913287 -0.0904995 -0.009934713 -0.021405749 0.04646579 -0.12603927 -0.043293457 0.013364254
0.09572734 0.012444053 0.04113916 -0.12482539 -0.08268085 0.084254816 -0.0009328614 0.03062274
00000000: 423e 39bd 3050 ae3d 94b7 47bc ae02 9f3d
00000010: 417a e13c 1e92 aabd dbf7 0fbd 05d5 063e
00000020: e0d1 483d 0830 873d b046 a23d 1954 b1bd
00000030: ce1d 89bd 4797 993d 3379 f33d f4e2 763d
00000040: 2c27 89bd 2086 80bd 96da e5bd aed0 8cbd
00000050: de86 e7bd a94c b53c b4d2 483d 67c1 86bd
00000060: af8c 24bd a6b3 b63d 41ba 413c 84e6 bd3d
00000070: 5755 edba 5bd8 813d b1c1 a93b 8d4e 763d
00000080: 1579 91bd 6395 74bd d749 983d d688 8e3d
00000090: 59d2 ed3d d104 7bbd d41a 323e 004a 38bb
000000a0: 3ea0 a43d 3e55 7ebd e19f a7bd 5dae 053e
000000b0: 58a2 8d3d 1e73 263c 8cf7 3fbd e90f e0bd
000000c0: d53f ca3d 30e2 7a3d 6bb6 323d 6c2b 73bd
000000d0: 6625 c53c 707b 05bd a6b7 ac3d 81dd 16bd
000000e0: 2710 843b 67d5 843d 9692 b0bc 4e45 f4bd
000000f0: 2b2a 68bc 75a1 a4bd 92dd 01be aadc 97bd
00000100: 63c8 74bd b88f c53d cd20 353c 6109 dbbd
00000110: 9be9 383d 69ed cf3d 2d27 0bbb b880 ae3d
00000120: 18a3 2abc ed93 2f3d f330 613c e1e2 ebbc
00000130: 2634 1d3d 5d27 193d d876 4d3d 4a1c 223b
00000140: 32c7 dcbc 63d3 023a f958 13be ada2 733d
00000150: 635b 59bd da01 96bd 1c63 a4ba e6e1 e93d
00000160: 7fff 4f3d cdb2 ef3d c170 d0bd bade 4f3d
00000170: 25be 82bb 4afd 8fbd 721a 81bb 2445 e7bc
00000180: 2b9a c73d 5332 b83c ff3d 48bc fdf4 c5bd
00000190: 4295 ec3c efb9 cdbd 97a7 adbd 9881 983c
000001a0: ff8c 9b3d fd64 15be 3b7d d43d 3be6 163e
000001b0: 9140 1ebd d8e0 0ebd c6f8 c0bc c19e f8bd
000001c0: 0217 9fba ff26 25bd b202 823d cee6 c43d
000001d0: a2df 1ebd 3f01 4d3d 8361 143d 13b5 17be
000001e0: a556 50bd f17c 54bd 8fe3 cdbc 4c7c 203e
000001f0: 502a e3bc 3df3 e33c d05f acbd 607d 2a3d
00000200: 64c1 9bbc 29b3 d8bc ce30 24bc 865e 23bd
00000210: a11d 7e3d 313d b2bd fcac 8d3d 6938 133e
00000220: 38ce 9e3d 1fdf 513d b654 b83d cf63 7e3b
00000230: fbc1 6d3d 55ec 043e 0474 52bb 6860 893d
00000240: 0145 46bc a422 023d fcf3 cd3c 80cb b8bd
00000250: 22bc e5bd 89b8 50bd 38a1 c7bb c24c fd3d
00000260: 490a 493d a4d9 b5bd 2579 14bc 3841 a13d
00000270: 90d0 ffbd 2174 f33d 6bc4 613d fc29 30bd
00000280: 87e5 dfbd 235c 21be c4b0 fbbd 134d a03c
00000290: 45b9 953c 1c9a 4d3d 295b b63c 48ff 85bd
000002a0: 1d06 a9bd 8063 9fbd acb5 033e 4909 1fbd
000002b0: 779d 93bd 4248 e53d 11e7 a5bc b59b 19be
000002c0: 0045 063e c4a1 c4bd 62fc 0cbc 9aa9 9f3d
000002d0: bf2e 55bd e8fe c83d 23f4 e2bd 5c22 e33c
000002e0: b433 d43d 9e5a de3d 30e3 3fbd 71cc 1abd
000002f0: 1bf4 80bc 0a9d edbd 0b08 92bd 4c69 22bd
00000300: 4ddc 30bd b20a 71bc db63 653d f089 a3bd
00000310: cd33 fb3d 051f 1abd e1cc 4f3d 419d 28bc
00000320: 645e bd3d 5317 a23d e062 043d 3086 18be
00000330: 1f9d abbd a700 88bd f108 3d3d d714 7d3d
00000340: 211b eb3d 26a3 a13d 57df 59bd 6c6f 7dbc
00000350: c2e4 11be 77f8 85bd 2c01 8dba 7a0a 35bd
00000360: 619b 73bc be2a 253d 5168 6fbd 326c bebd
00000370: 2649 ad3b c2a4 abbd fa2f 00bd 8d15 14be
00000380: 8576 273e 8d85 353d eb5f 30bb 95f6 903d
00000390: dbf0 d1bd cef6 3a3d cbd7 b53d 3475 933d
000003a0: 58f9 ab3d a606 b4bd fca0 983d cf08 dd3d
000003b0: 3111 993d 5b5d 013d c834 20be 66d7 d03d
000003c0: 68aa e43c cd57 b9bd 35c5 22bc 1c5b afbc
000003d0: ea52 3e3d 7010 01be 7b54 31bd bef5 5a3c
000003e0: b20c c43d 24e2 4b3c 8981 283d 74a4 ffbd
000003f0: 9454 a9bd ca8d ac3d 458b 74ba 8adc fa3c

layer_out_1.bias f4 [64]
0.05966547 0.09459088 0.06431131 -0.0954131 0.09231039 0.04896149 -0.13972092 -0.053165127
0.0529046 0.07408297 0.0406905 0.07675342 0.10401164 -0.09532284 0.128334 0.06283348
-0.07138873 -0.104574725 0.039892837 -0.05793743 -0.013362951 -0.05553241 -0.05114327 -0.07702824
-0.012245231 -0.020864347 0.031912997 0.04530793 -0.06860276 0.03066351 0.106504 -0.06555766
0.031255133 0.0725397 -0.06628278 -0.024156094 -0.035503823 -0.16408576 -0.06890778 0.009973155
0.037820656 0.12854905 0.09217218 -0.02774623 -0.076908216 -0.1667747 0.057340026 0.04292507
0.1285935 -0.028589627 0.053187106 -0.094329454 0.03138797 -0.090278365 -0.11420583 -0.12990677
0.08896778 0.0739339 -0.0346806 -0.022078963 -0.010224545 -0.08479635 -0.15430757 -0.04551642
00000000: c863 743d ddb8 c13d a6b5 833d f267 c3bd
00000010: 3b0d bd3d d88b 483d 0013 0fbe adc3 59bd
00000020: 7eb2 583d d0b8 973d 15ab 263d e630 9d3d
00000030: 0e04 d53d 9f38 c3bd fd69 033e d7ae 803d
00000040: 4134 92bd 462b d6bd ac66 233d cc4f 6dbd
00000050: 47f0 5abc f475 63bd 9b7b 51bd fbc0 9dbd
00000060: 39a0 48bc b5eb aabc 34b7 023d cf94 393d
00000070: 9b7f 8cbd 0b32 fb3c c51e da3d 1843 86bd
00000080: 6205 003d b28f 943d 44bf 87bd 00e3 c5bc
00000090: 756c 11bd 1906 28be 861f 8dbd 7266 233c
000000a0: d5e9 1a3d 5da2 033e c5c4 bc3d 104c e3bc
000000b0: 0e82 9dbd fdc6 2abe 60dd 6a3d 33d2 2f3d
000000c0: 04ae 033e cb34 eabc b9da 593d cd2f c1bd
000000d0: ac90 003d dde3 b8bd bfe4 e9bd 4806 05be
000000e0: bd34 b63d a86a 973d 3f0d 0ebd f1de b4bc
000000f0: da84 27bc b5a9 adbd ce02 1ebe 6d6f 3abd

layer_out_2.weight f4 [53, 64]
-0.028569883 -0.026626788 -0.18004309 0.03647857 0.054845914 -0.06030104 -0.102795556 0.12570332
-0.021164885 -0.06449952 0.05613617 0.016951315 -0.037503075 -0.04398957 0.15257974 0.17167872
-0.08960456 0.038338263 0.06334704 -0.036579575 -0.1366392 0.034438998 -0.09396234 0.08853729
0.030758476 -0.013581323 -0.14631782 -0.063766494 0.033483114 0.014279766 -0.10251915 0.053716917
0.10282871 0.040948786 -0.028411102 0.118073665 -0.057395715 -0.08604143 0.11814066 -0.001298132
-0.03814002 -0.109237485 0.12408645 0.07884992 -0.032720763 -0.01924166 0.044695705 -0.12421057
-0.1317154 0.032838285 -0.05465365 -0.01636114 -0.04144291 -0.018733453 0.094685785 -0.10982979
-0.014908049 0.056930877 0.06652529 0.030675506 -0.09473367 0.09248812 -0.08764771 0.017921379
-0.039764732 0.024972558 -0.10743516 -0.07260742 -0.056862883 0.033219654 -0.037569247 0.013665577
0.09519249 0.007128999 -0.035781324 -0.048939098 0.013480532 -0.081204906 -0.093358904 0.015687019
0.0954801 -0.03282685 0.07210621 -0.08675609 0.02056293 0.019659499 -0.07582538 -0.074371606
0.087681286 0.022885887 0.08048552 -0.059914865 0.13675645 0.082740694 0.04203355 0.014291904
-0.040263686 0.014827085 -0.045770094 -0.021843562 -0.084970236 -0.09757242 0.13584116 -0.02063583
0.028191349 -0.055178605 -0.019654863 -0.11569365 -0.06689537 0.049703706 0.038014546 -0.09400735
-0.024118122 0.019971265 0.03711945 -0.036746237 -0.08065686 0.060873926 0.0053183353 0.043540444
0.06438513 0.121852905 0.031219477 -0.035859227 0.040128548 0.016989963 -0.13132524 -0.095509805
-0.14695364 -0.059257165 0.013312033 0.008526133 -0.0017034626 0.06859619 -0.054093998 -0.06715032
-0.09016666 0.0028890227 0.011163035 0.14321758 -0.0059981556 0.048975248 -0.093881376 0.08729046
0.05128704 -0.0243243 0.06941705 -0.037056297 -0.0042245723 0.039566003 -0.028674522 -0.014620454
0.019169927 -0.048600953 0.11420017 0.00830786 -0.044542246 0.095789485 0.00367559 -0.0021442415
-0.12003614 0.07767723 0.13907886 0.08752394 -0.11144312 0.033248458 -0.0041638743 0.016464902
-0.060683478 -0.023015674 0.1345998 -0.05205914 -0.13195392 0.052370165 0.04775271 -0.19284904
-0.12987444 0.051641464 -0.046605807 -0.07253481 0.025820475 -0.107693166 0.0020481106 -0.009423858
-0.032115035 -0.008518424 0.03690984 0.13957958 0.08536009 -0.064965144 0.07683277 0.111493
-0.06952348 -0.0059461133 -0.050874814 0.12758997 -0.013405134 0.046123903 -0.032509353 -0.061121464
0.06935272 -0.0018560332 -0.06015124 -0.058465917 0.0225412 0.003146381 0.0664135 -0.0071448297
0.06739914 0.005653223 0.09300977 -0.08152889 -0.0313586 -0.0048774392 -0.025278715 -0.06241282
0.021072585 -0.014336329 -0.067182094 0.05467001 0.028014356 0.0136155095 -0.04099501 0.08886533
0.049125794 0.12338548 0.054959454 -0.14177297 -0.019945301 0.03136973 -0.026023528 -0.0604778
0.013911434 0.07883562 0.07128054 -0.007355855 -0.0716959 0.038900234 -0.038098443 -0.061469544
-0.07368814 -0.048179753 0.10927364 0.09861183 0.010477846 -0.061452582 0.017247057 -0.06816609
0.05443239 -0.03450964 0.06336811 -0.0034403768 -0.041573934 -0.057074863 0.018785782 0.09658574
00000000: 630b eabc 6c20 dabc 375d 38be 8e6a 153d
00000010: 1ca6 603d 39fe 76bd 7a86 d2bd 5fb8 003e
00000020: fb61 adbc 5318 84bd 0aef 653d 7cdd 8a3c
00000030: d39c 19bd 682e 34bd dd3d 1c3e 8ccc 2f3e
00000040: 9882 b7bd 9508 1d3d 18bc 813d 77d4 15bd
00000050: 25eb 0bbe e80f 0d3d 546f c0bd 0a53 b53d
00000060: 33f9 fb3c 3384 5ebc 57d4 15be 0298 82bd
00000070: 9725 093d aef5 693c 8ff5 d1bd 4506 5c3d
00000080: dc97 d23d eab9 273d 66be e8bc 9bd0 f13d
00000090: c517 6bbd 7d36 b0bd bbf3 f13d 1526 aaba
000000a0: b638 1cbd e7b7 dfbd 0921 fe3d 117c a13d
000000b0: 3506 06bd b0a0 9dbc d812 373d 1c62 febd
000000c0: 67e0 06be 7081 063d 81dc 5fbd cc07 86bc
000000d0: 0ac0 29bd e676 99bc 9fea c13d 71ee e0bd
000000e0: e440 74bc 5a30 693d 693e 883d 334b fb3c
000000f0: ba03 c2bd 696a bd3d a580 b3bd dbcf 923c
00000100: 58e0 22bd 4093 cc3c f706 dcbd 33b3 94bd
00000110: 0ee9 68bd 5511 083d 36e2 19bd 96e5 5f3c
00000120: 48f4 c23d 619a e93b 708f 12bd 5d74 48bd
00000130: 73dd 5c3c c24e a6bd f432 bfbd 1082 803c
00000140: 128b c33d 7275 06bd 6cac 933d 2dad b1bd
00000150: 9773 a83c f50c a13c 564a 9bbd 2450 98bd
00000160: 3f92 b33d 2f7b bb3c 98d5 a43d 4a69 75bd
00000170: e209 0c3e f473 a93d 5f2b 2c3d 9728 6a3c
00000180: 89eb 24bd 4ded 723c 6c79 3bbd 45f1 b2bc
00000190: e004 aebd 0dd4 c7bd f219 0b3e 790c a9bc
000001a0: 8bf1 e63c f602 62bd 3c03 a1bc cbf0 ecbd
000001b0: 7100 89bd 1d96 4b3d 24b5 1b3d ed86 c0bd
000001c0: 5e93 c5bc c79a a33c 900a 183d 3983 16bd
000001d0: 6c2f a5bd f056 793d 6e45 ae3b 7757 323d
000001e0: 5adc 833d 048e f93d fdbf ff3c 20e1 12bd
000001f0: d55d 243d 892e 8b3c 207a 06be a59a c3bd
00000200: 047b 16be a4b7 72bd b71a 5a3c 32b1 0b3c
00000210: b846 dfba 297c 8c3d ab91 5dbd 1b86 89bd
00000220: 4ca9 b8bd c255 3d3b 2ae5 363c a1a7 123e
00000230: 2d8c c4bb 459a 483d e144 c0bd 57c5 b23d
00000240: 5c12 523d c143 c7bc 872a 8e3d 58c8 17bd
00000250: 486e 8abb f60f 223d d5e6 eabc a18a 6fbc
00000260: 400a 9d3c cb11 47bd c7e1 e93d b11d 083c
00000270: ee71 36bd 472d c43d 2be2 703b 6786 0cbb
00000280: 82d5 f5bd 3d15 9f3d b06a 0e3e c03f b33d
00000290: 4a3c e4bd 892f 083d 1c71 88bb 67e1 863c
000002a0: 3d8f 78bd 5e8b bcbc 88d4 093e f73b 55bd
000002b0: ee1e 07be 1982 563d 5898 433d 387a 45be
000002c0: cefd 04be 0086 533d bbe5 3ebd 218d 94bd
000002d0: 7685 d33c 3c8e dcbd 9839 063b 8666 1abc
000002e0: 0e8b 03bd dc90 0bbc c62e 173d f3ed 0e3e
000002f0: 45d1 ae3d 720c 85bd 805a 9d3d 7156 e43d
00000300: 5462 8ebd 9dd7 c2bb 1c62 50bd f2a6 023e
00000310: 35a1 5bbc 6bec 3c3d 8728 05bd 805a 7abd
00000320: cd08 8e3d 2446 f3ba 2661 76bd f579 6fbd
00000330: 53a8 b83c 8333 4e3b cd03 883d 2d1f eabb
00000340: 8f08 8a3d ac3e b93b e87b be3d 9ef8 a6bd
00000350: e071 00bd edd2 9fbb 4f15 cfbc 96a4 7fbd
00000360: 6aa0 ac3c ece2 6abc c496 89bd a9ed 5f3d
00000370: 5d7e e53c 9613 5f3c 62ea 27bd 07ff b53d
00000380: 2138 493d 87b1 fc3d 2a1d 613d ef2c 11be
00000390: 5464 a3bc 8c7d 003d 4b2f d5bc 92b7 77bd
000003a0: c9ec 633c 9274 a13d 88fb 913d 6209 f1bb
000003b0: 4dd5 92bd da55 1f3d 1d0d 1cbd 7dc7 7bbd
000003c0: cfe9 96bd 2258 45bd dcca df3d 00f5 c93d
000003d0: 45ab 2b3c b4b5 7bbd b349 8d3c aa9a 8bbd
000003e0: 7ff4 5e3d fb59 0dbd 24c7 813d f277 61bb
000003f0: 6e49 2abd 55c7 69bd a4e4 993c bfce c53d

layer_out_2.bias f4 [53]
0.012149802 0.01842878 0.016232949 -0.0054644635 0.0147931855 0.006070958 0.04219438 -0.01776261
0.008357973 0.011662627 0.008758966 0.009921428 -0.033975154 -0.012173248 -0.0083449995 -0.00036555956
-0.030771218 -0.013276589 0.019798689 -0.053148217 -0.0039799474 -0.012833646 -0.016997475 0.014562298
-0.033592045 0.010733422 -0.021306144 0.011136433 -0.049462717 -0.035317235 -0.04242416 0.023690084
-0.05187874 0.004724668 0.006155393 0.033492856 0.009474239 -0.04637161 -0.024146415 0.010609124
-0.056574706 0.021291949 0.028469505 -0.019909898 -0.049433205 -0.0424304 0.022415753 0.013736606
-0.043716345 -0.01693188 -0.019431083 -0.0018533643 0.03489263
00000000: f70f 473c f4f7 963c f6fa 843c 3e0f b3bb
00000010: 1e5f 723c e3ee c63b 04d4 2c3d e582 91bc
00000020: e1ef 083c 9a14 3f3c c481 0f3c 7c8d 223c
00000030: 8829 0bbd 4e72 47bc 77b9 08bc 93a8 bfb9
00000040: ec13 fcbc 0d86 59bc dc30 a23c f2b1 59bd
00000050: 386a 82bb 3644 52bc 4a3e 8bbc b496 6e3c
00000060: d097 09bd 3cdb 2f3c 398a aebc 9675 363c
00000070: 6b99 4abd cea8 10bd f5c4 2dbd b511 c23c
00000080: cd7e 54bd 63d1 9a3b 2eb3 c93b ce2f 093d
00000090: d739 1b3c 28f0 3dbd b4ce c5bc e4d1 2d3c
000000a0: e1ba 67bd 746c ae3c e138 e93c 151a a3bc
000000b0: 797a 4abd 80cb 2dbd 3ea1 b73c 800f 613c
000000c0: e90f 33bd bab4 8abc ef2d 9fbc 96ec f2ba
000000d0: 93eb 0e3d

residual_layers.0.layer_norm.weight f4 [64]
0.9977289 0.92728114 0.971726 1.0528834 0.99858934 0.9523169 0.98643655 1.107917
1.0483538 0.9604855 0.9739476 0.9822407 1.022252 1.0505457 1.0301533 0.94462675
0.92121106 0.9288341 0.96477944 0.9516706 0.9411047 0.99252176 1.2005886 0.99830157
0.97491705 0.95065624 0.96226484 1.0214102 0.9842592 0.92075396 0.96523255 0.9539837
0.92838126 0.972697 0.95284575 1.0203215 0.97484016 0.9948694 1.0100981 0.96547556
0.9694794 0.9695796 0.9460853 0.9958552 1.0177087 0.93024164 1.0479308 0.9607347
0.9701935 0.9447353 0.9743549 0.96164656 1.191895 0.94969636 1.00504 0.95083576
1.1494577 0.9878632 1.0161723 0.9325663 1.0232272 0.95317614 0.9858795 0.99337906
00000000: 296b 7f3f 4c62 6d3f 09c3 783f e2c4 863f
00000010: 8da3 7f3f 0acb 733f 1b87 7c3f 39d0 8d3f
00000020: 7530 863f 61e2 753f a154 793f 2074 7b3f
00000030: 27d9 823f 4878 863f 10dc 833f 0fd3 713f
00000040: 7dd4 6b3f 12c8 6d3f c9fb 763f afa0 733f
00000050: 3dec 703f e815 7e3f e3ac 993f b190 7f3f
00000060: 2a94 793f 355e 733f fd56 763f 92bd 823f
00000070: 69f8 7b3f 88b6 6b3f 7b19 773f 4738 743f
00000080: 65aa 6d3f ac02 793f b3ed 733f e599 823f
00000090: 208f 793f c3af 7e3f e54a 813f 6829 773f
000000a0: cd2f 783f 5e36 783f a532 723f 5ef0 7e3f
000000b0: 4744 823f 5124 6e3f 9922 863f b6f2 753f
000000c0: 9a5e 783f 2cda 713f 536f 793f 782e 763f
000000d0: 0490 983f 4d1f 733f 27a5 803f f969 733f
000000e0: 6e21 933f 9ae4 7c3f ef11 823f aabc 6e3f
000000f0: 1cf9 823f 5a03 743f 9962 7c3f 174e 7e3f

residual_layers.0.layer_norm.bias f4 [64]
-0.034323107 0.012227919 0.0026104327 0.009157766 -0.0106389765 -0.040165976 -0.016295662 -0.0116130905
-0.017614102 0.006379751 -0.00663538 0.028284445 0.04263215 0.008306631 -0.061901506 -0.047180902
0.039653454 -0.004611525 0.033275045 0.04175775 -0.022643795 0.0023626536 0.027564686 0.024131656
0.029637303 -0.0020858934 -0.004536703 -0.051492367 0.022979563 0.0029582065 0.042093247 -0.052614532
0.055842545 -0.059471253 0.022554308 -0.010216783 0.01104413 -0.023985995 -0.013815021 0.09812835
-0.011117099 0.005695903 0.025958944 -0.074107274 0.0013446661 -0.02195949 0.01010848 -0.023291284
0.024053557 0.030987464 0.018000295 0.048011515 -0.009228749 -0.024357853 0.046085224 0.02427109
-0.028340394 0.012717462 -0.03450617 -0.04416147 -0.014435903 -0.012756049 0.011698565 0.022132717
00000000: 6396 0cbd 9c57 483c cb13 2b3b 740a 163c
00000010: 1a4f 2ebc 1485 24bd 7b7e 85bc d544 3ebc
00000020: 734b 90bc 3b0d d13b 9a6d d9bb c8b4 e73c
00000030: 0d9f 2e3d 8918 083c 6f8c 7dbd c340 41bd
00000040: a96b 223d 471c 97bb 6a4b 083d 2d0a 2b3d
00000050: 7b7f b9bc c0d6 1a3b 56cf e13c c0af c53c
00000060: eec9 f23c 7cb3 08bb a0a8 94bb a9e9 52bd
00000070: a33f bc3c 78de 413b f869 2c3d 5682 57bd
00000080: 27bb 643d 2198 73bd d0c3 b83c 4b64 27bc
00000090: 70f2 343c 477e c4bc 6658 62bc 84f7 c83d
000000a0: 7e24 36bc b3a4 ba3b daa7 d43c 8ec5 97bd
000000b0: 823f b03a 63e4 b3bc 0a9e 253c 5dcd bebc
000000c0: f70b c53c 6cd9 fd3c 5b75 933c b9a7 443d
000000d0: 2e34 17bc 1f8a c7bc dcc3 3c3d 2ad4 c63c
000000e0: 1d2a e8bc e75c 503c 5756 0dbd a8e2 34bd
000000f0: 9184 6cbc bffe 50bc 57ab 3f3c ac4f b53c

residual_layers.0.time_layer.layers.0.self_attn.in_proj_weight f4 [192, 64]
-0.030813195 0.07183292 -0.07064675 0.13015339 -0.08191377 0.12780455 0.02282754 0.004432349
0.0064274697 -0.052886404 -0.064572364 0.025851497 0.12128279 -0.08305329 -0.074590094 -0.04239411
-0.00063310436 0.12279744 -0.018224327 -0.023075484 -0.06821668 -0.03538523 -0.13203861 -0.007762169
0.052315556 -0.0064043114 -0.08624858 -0.15247983 0.07024691 -0.15149188 0.12983033 -0.14335161
-0.0622867 0.044465054 -0.11187009 -0.011416482 0.09452469 -0.014253511 -0.14087105 0.02527542
0.10153109 -0.10551246 -0.036268156 -0.14896688 0.07587334 -0.08931905 -0.0028198925 0.054067228
0.067020126 -0.045137238 -0.059750568 -0.13111642 -0.13764738 0.12169349 0.020702455 -0.01636909
0.099709705 -0.09481256 -0.09282356 -0.11299781 0.0625416 -0.039478123 0.1084061 -0.08177712
0.032002635 -0.11075678 0.07764919 0.025964413 -0.038132265 0.056269046 0.1448924 -0.055095293
0.023345299 -0.03847252 0.03848838 0.08872746 -0.053473383 -0.071899 -0.09899931 0.12822612
-0.043570813 0.06681629 -0.019975023 -0.016938068 -0.05669349 -0.11976747 0.09819461 0.033259954
0.0038870082 -0.033949323 -0.05703624 0.1332719 -0.07902119 -0.0021525435 -0.12084465 -0.088519156
0.103572115 0.059030198 -0.159088 -0.016133547 0.11320278 0.15150908 0.08809545 0.038362827
-0.026184132 -0.07529941 -0.054264616 0.09463129 0.10385598 -0.02364421 0.09957677 0.032680973
-0.1728067 -0.11886834 0.0894037 -0.027435921 0.0036294442 0.124773994 0.09755588 0.06290144
-0.04375394 0.0059942575 0.07707976 0.020396667 -0.058349147 0.09566281 0.049951468 -0.13442877
0.010758314 -0.0040149153 -0.006420675 -0.10343084 -0.06650155 -0.13588542 0.025733266 0.044674713
0.088915534 -0.010456783 -0.068752475 -0.11956216 0.0905234 0.13882364 -0.03546691 0.055028085
-0.06271156 0.11280251 -0.06583499 0.13862659 0.10499042 -0.042384915 -0.09976648 -0.1249976
-0.04732292 0.18624173 -0.06947352 0.017283319 -0.05880281 0.093450785 0.05751392 0.011081615
-0.053957902 -0.17789261 0.07222838 0.17166544 -0.068402775 -0.10595807 -0.08120464 -0.0547777
0.038048554 0.078388855 0.0413454 -0.010983831 0.09632968 -0.118876494 -0.085601926 0.015205713
0.062232006 0.013180589 -0.055553097 -0.14635617 -0.043385 0.17665045 0.031364366 0.08310434
-0.009994769 0.11545706 -0.023449574 -0.057844654 0.10297651 0.12838937 0.007516933 0.031109752
0.10670489 0.17664745 -0.04638654 -0.020801378 -0.03292737 0.012012737 0.1756554 -0.08412551
-0.004766553 -0.06315942 -0.095473416 -0.1455386 -0.117761396 0.010791685 -0.08403456 -0.11823732
-0.0032117697 0.14810242 -0.045079928 -0.10630568 -0.014319007 0.04808314 -0.15035264 -0.0423447
-0.036361195 -0.061986286 -0.18357316 -0.0362099 -0.04720692 0.15835722 -0.0075487862 0.14030118
0.08490994 0.11688358 0.146692 -0.044045623 0.09880993 -0.14301951 -0.034068003 -0.13903143
-0.05670522 -0.059478033 -0.101978295 -0.009459433 0.018848 0.08756042 -0.036204122 -0.13120583
-0.10914986 0.08191226 0.119636565 -0.0024185912 -0.0078478865 -0.17450926 -0.13386337 -0.040595297
-0.13116585 0.013965643 -0.0035434784 -0.03263652 0.016867118 0.0066093933 -0.05909459 -0.10454859
00000000: f46b fcbc 231d 933d 3eaf 90bd ee46 053e
00000010: 68c2 a7bd 32df 023e d200 bb3c 3d3d 913b
00000020: 869d d23b 6a9f 58bd 843e 84bd 85c6 d33c
00000030: 1d63 f83d d817 aabd b1c2 98bd 72a5 2dbd
00000040: eaf6 25ba 397d fb3d 2f4b 95bc cc08 bdbc
00000050: 30b5 8bbd 1af0 10bd 2135 07be cb59 febb
00000060: d648 563d 42db d1bb 18a3 b0bd ac23 1cbe
00000070: 9ddd 8f3d b020 1bbe 3ef2 043e c4ca 12be
00000080: 5720 7fbd fd20 363d 251c e5bd 320c 3bbc
00000090: 2996 c13d 8f87 69bc 8040 10be 660e cf3c
000000a0: 88ef cf3d eb16 d8bd eb8d 14bd c68a 18be
000000b0: 7b63 9b3d e8ec b6bd f2cd 38bb 9975 5d3d
000000c0: d941 893d d3e1 38bd 03bd 74bd 6243 06be
000000d0: 6ff3 0cbe 703a f93d 3298 a93c 7818 86bc
000000e0: 9a34 cc3d 162d c2bd 471a bebd 656b e7bd
000000f0: cf15 803d d0b3 21bd 0404 de3d c37a a7bd
00000100: 3215 033d 73d4 e2bd 8a06 9f3d 52b3 d43c
00000110: 9430 1cbd 5f7a 663d ac5e 143e 9aab 61bd
00000120: a43e bf3c 5c95 1dbd fea5 1d3d beb6 b53d
00000130: e806 5bbd c83f 93bd 26c0 cabd b54d 033e
00000140: 4f77 32bd fbd6 883d a9a2 a3bc b4c1 8abc
00000150: 6f37 68bd a648 f5bd 411a c93d 973b 083d
00000160: 2dbd 7e3b 720e 0bbd d59e 69bd 6e78 083e
00000170: ddd5 a1bd b011 0dbb 667d f7bd 8849 b5bd
00000180: 9e1d d43d a6c9 713d f7e7 22be 802a 84bc
00000190: dcd6 e73d 3225 1b3e 636b b43d 5722 1d3d
000001a0: 1b80 d6bc 9436 9abd 9344 5ebd 0dce c13d
000001b0: 72b2 d43d 81b1 c1bc e8ee cb3d 7cdc 053d
000001c0: 3df4 30be 3f71 f3bd 4919 b73d 4cc1 e0bc
000001d0: f8db 6d3b 8289 ff3d 61cb c73d 78d2 803d
000001e0: 5537 33bd 7a6b c43b fedb 9d3d e916 a73c
000001f0: 84ff 6ebd ddea c33d e999 4c3d b2a7 09be
00000200: a443 303c 8d8f 83bb 8764 d2bb 8cd3 d3bd
00000210: f731 88bd 8c25 0bbe 92ce d23c d5fc 363d
00000220: 5919 b63d ed52 2bbc 19ce 8cbd 01dd f4bd
00000230: 5564 b93d c927 0e3e c045 11bd 2165 613d
00000240: eb6e 80bd 0105 e73d 7fd4 86bd 21f4 0d3e
00000250: 3805 d73d ce9b 2dbd 5e52 ccbd befe ffbd
00000260: aed5 41bd 27b6 3e3e 2248 8ebd bf95 8d3c
00000270: 37db 70bd 2063 bf3d b793 6b3d aa8f 353c
00000280: f602 5dbd 7b29 36be 79ec 933d 11c9 2f3e
00000290: c116 8cbd 8b00 d9bd 9e4e a6bd 955e 60bd
000002a0: cdd8 1b3d 568a a03d cb59 293d 87f5 33bc
000002b0: 7f48 c53d 8575 f3bd 1050 afbd 6221 793c
000002c0: fde6 7e3d 66f3 573c a58b 63bd 64de 15be
000002d0: 78b4 31bd dbe3 343e ec77 003d 9c32 aa3d
000002e0: 19c1 23bc c074 ec3d 5219 c0bc 84ee 6cbd
000002f0: 59e5 d23d 8178 033e 9b50 f63b e1d9 fe3c
00000300: 1888 da3d 12e3 343e d0ff 3dbd a767 aabc
00000310: dade 06bd 12d1 443c 02df 333e ff49 acbd
00000320: bf30 9cbb ba59 81bd 9187 c3bd 1208 15be
00000330: e32c f1bd 9ccf 303c 501a acbd 6826 f2bd
00000340: 8e7c 52bb 29a8 173e bba5 38bd cbb6 d9bd
00000350: 459a 6abc d4f2 443d 0bf6 19be a371 2dbd
00000360: 7aef 14bd 55e5 7dbd 9afa 3bbe d550 14bd
00000370: 0b5c 41bd 6528 223e cf5b f7bb 1dab 0f3e
00000380: 43e5 ad3d a960 ef3d 6d36 163e 2f69 34bd
00000390: dc5c ca3d b573 12be e48a 0bbd 415e 0ebe
000003a0: bc43 68bd 3d9f 73bd ffd9 d0bd bdfb 1abc
000003b0: 1f67 9a3c e152 b33d c64a 14bd d25a 06be
000003c0: f689 dfbd 9dc1 a73d 0404 f53d 3a81 1ebb
000003d0: 6c94 00bc 8eb2 32be 7b13 09be 4147 26bd
000003e0: 5750 06be 27d0 643c b439 68bb dfad 05bd
000003f0: e92c 8a3c 9c93 d83b 2b0d 72bd 921d d6bd
