results/DDPM/SEQ_LEN/252/model_final.pth (torch, 204551 bytes, 26 tensors)

layer_x.weight f4 [64, 53]
00000000: d69c 433e dca3 5f3c 20b6 1e3e 025f 173d
00000010: a781 7a3d 6ca8 3dbd 84d3 de3b 76e4 4c3d
00000020: 3a0b 8f3e 62ad e4bc c2e8 ae3b 9445 79bd
00000030: afc8 8dbd eb7d 0abe 6edc 113d 8234 a73d
00000040: 1bc5 923d a883 0b39 d5ff 28bd d21d 3d3a
00000050: faf7 56bd ea31 d63d 9493 a83c 40b9 98bd
00000060: 9cef aabc 34b8 e5bd 0c64 c93b 8c3d 083e
00000070: a16b 583d c707 e33d 10b1 7b3b 2099 453d
00000080: f668 9c3c a7a0 863d fac7 a3bc 36f1 f03c
00000090: 3e84 c23c 2a57 4bbd 5e8d 963c 4a7a 6cbc
000000a0: 1c22 23be e390 3a3c c432 97bb 6641 d53d
000000b0: 9d4c a83c fea4 c83d 3b10 7aba 8f7e 98bd
000000c0: 37e2 58bd 187d cebd 20cd 50bc ac1a eb3c
000000d0: 7676 3ebe 495b e4bd ef63 e0bd dad8 03be
000000e0: 2ea4 e8bd 1e03 d3bd 72b5 e9bd 80e0 cabd
000000f0: 6512 ccbd 9461 04be 2597 aabd fecd debd
00000100: 1bff e6bd de8a cfbd f1e6 dabd e1b3 e7bd
00000110: 554a dfbd 73d5 bbbd 174b d9bd 1743 cfbd
00000120: 2177 e1bd 0f61 f4bd cda9 bbbd 3e80 e6bd
00000130: 04c4 e3bd c793 e8bd 3751 e3bd 8403 e1bd
00000140: cea7 03be 59b7 d6bd d6c8 e7bd e317 cdbd
00000150: 088d d3bd 1620 03be 5b15 dbbd 7320 cebd
00000160: b40c e0bd d583 e5bd 68c9 cfbd d193 f7bd
00000170: b6c3 cfbd eaa3 bcbd 60b7 e5bd ca3d bebd
00000180: 57ed c3bd c891 04be 6f1f eabd 21fe cfbd
00000190: 83fe debd 23de f4bd f706 d5bd 805c ecbd
000001a0: 94bf d7bd a5e2 ccbd c299 023d 9e7b 2a3d
000001b0: a5f4 b63d 67d0 bebb 593f 583d 0328 d53b
000001c0: 8205 893d b522 1f3d 7371 33bc 393e b83e
000001d0: 5119 3e3d 15bf 413d 8e0f 263d 917b a93d
000001e0: a110 43bb b63a 00be 4a9b 1fbd e7a4 633b
000001f0: fc94 853c 8965 9e3d 8fb9 123d 2c65 01bd
00000200: 6554 6c3c 1a52 523d 9be8 853d 9919 aa3d
00000210: 027a 113d 2aa5 e6bc 6932 a63c bbc8 01bb
00000220: 0cac 813d 3515 4b3d 22e2 ca3d be9b 3c3d
00000230: f5f9 573d 908a fb3b aeb4 903c 90d2 42bc
00000240: e9e4 343d 7c27 b33c 0f53 86bd ef96 503d
00000250: 9c49 20bd b36b f93d f698 813c e514 873c
00000260: 1625 f43c 1d68 9a3e 15dd 23be eaac 6a3d
00000270: 5edb 4d3c 0d02 003d 419e 493c 0ba4 363d
00000280: db39 523c 4630 8a3c 7422 a03d 4304 2abe
00000290: d890 27bc 8a2e 493d fbd8 f4bc 6a1f 893e
000002a0: 64ee 90be 24ae 1e3d dad4 bb3d 32f1 863c
000002b0: 60d7 233e 84cc 263d 8060 e73c 2e11 72bc
000002c0: 663b 013d 8d13 0c3c 1c33 113d 166f 1d3c
000002d0: 7da9 833d e4ae 0e3c 3d7b c8bb c9e0 993c
000002e0: fc97 c63d 38a1 963c a332 28be aabf ff3c
000002f0: f943 1e3c 24ac 1c3d 126a 3b3c 182e 42bd
00000300: ff74 673d 16b3 56bb 4e1f 35be b645 323d
00000310: a467 293c 38cb 6abd aae6 cfbc 1413 5d3d
00000320: ef85 84bd 6668 783c f3f1 923d da95 643c
00000330: 79b7 823b 688c 8abc 2726 fcbc 0808 d33d
00000340: cb57 953c 8be1 433c 6dfa 953d 0c0c 5c3d
00000350: 4751 a6bc 3c84 8fbc 110d 2f3e 2f19 223d
00000360: 1dfc d23d bed6 c83c 4781 c23d 1507 0bbd
00000370: 57d3 92bc 3510 a5bc 4d38 99bd 195f 84bd
00000380: 8c0f 22bd efb7 b03d ac2f a03c d3d7 20be
00000390: 293f 053e a3fc 363d 65f8 d73c 3072 903d
000003a0: 5d9e 053d 0bc4 d8bd c7c4 f4bb 8aea 02bd
000003b0: 4e9e e9bc 52fe 47be 87ca 2fbd b3a2 3abd
000003c0: ece3 27bd 4420 0ebd 5ed5 483d ff78 e1bd
000003d0: e089 84be 4938 2ebd 7acf b13a f0b2 b8bd
000003e0: 17ad 353e 222c 4b3e 5808 4b3c 0e4d e4bb
000003f0: c5cb 27bd 6a0e d83d c928 b8bd 2a83 cdbd
0.19102797 0.013649907 0.15499163 0.03695584 0.061158802 -0.046303198 0.006800117 0.050022565
0.27938253 -0.027914707 0.0053378055 -0.06085737 -0.06923043 -0.13524596 0.03561061 0.08164312
0.07166501 0.00013305119 -0.041259605 0.00072142214 -0.052482583 0.10458739 0.020578183 -0.07457209
-0.020866208 -0.112167746 0.0061459597 0.13304728 0.052837018 0.11085468 0.0038405098 0.048241735
0.019093018 0.06573611 -0.019992817 0.029411893 0.023744699 -0.049643673 0.018377956 -0.014433453
-0.1593098 0.011387083 -0.004614206 0.104128644 0.020544345 0.09797095 -0.00095391617 -0.07446014
-0.05295011 -0.100824535 -0.012744218 0.028699242 -0.18599877 -0.11150224 -0.10956561 -0.12875691
-0.1135944 -0.10303329 -0.11411561 -0.09906101 -0.09964446 -0.12927848 -0.0832961 -0.10879134
-0.11279126 -0.10133909 -0.1068858 -0.11313606 -0.109028496 -0.091715716 -0.106100254 -0.10120218
-0.1100905 -0.11932575 -0.09163246 -0.11254929 -0.111213714 -0.11356311 -0.11099475 -0.10986999
-0.12856981 -0.104841895 -0.11317603 -0.10014322 -0.10329634 -0.12805209 -0.106974326 -0.10064783
-0.10939923 -0.112067856 -0.10145837 -0.120887406 -0.10144751 -0.092109516 -0.11216617 -0.09289129
-0.09566753 -0.12946236 -0.11431777 -0.10155893 -0.10888388 -0.11956432 -0.10401719 -0.115410805
-0.105345875 -0.100041665 0.031884916 0.041621797 0.08933381 -0.0058231833 0.052794788 0.006505014
0.06690504 0.03885146 -0.010952341 0.35984972 0.046410862 0.04730137 0.040542178 0.082755215
-0.002976455 -0.12522396 -0.038966455 0.003473574 0.016306393 0.0773421 0.035821494 -0.031590626
0.014424418 0.05134783 0.065385066 0.083056636 0.035516746 -0.028154928 0.02028771 -0.0019803483
0.063316435 0.04958077 0.09906413 0.046046965 0.052728612 0.00767643 0.01766428 -0.011891022
0.04416362 0.021869414 -0.06558811 0.05092519 -0.0391327 0.12178745 0.015820008 0.016489455
0.02980284 0.30157557 -0.16002305 0.05729381 0.012564508 0.031251956 0.012305797 0.044590037
0.012831177 0.016868722 0.078190714 -0.16603188 -0.010227405 0.04911665 -0.02988862 0.2678178
-0.28306878 0.038740292 0.091714576 0.016472433 0.16000128 0.040722385 0.028244257 -0.014774604
0.031550787 0.008549583 0.035449132 0.0096090045 0.06428812 0.008708689 -0.006118207 0.018783944
0.096969575 0.018387422 -0.16425566 0.031219322 0.009659761 0.038250104 0.011438863 -0.04740724
0.05650806 -0.0032760552 -0.17687723 0.043523513 0.010339651 -0.05732271 -0.025378544 0.053973272
-0.06470858 0.015161609 0.071750544 0.013951743 0.003989157 -0.016912654 -0.030779911 0.10304266
0.01823034 0.011955629 0.073231556 0.053722426 -0.020302428 -0.017519109 0.17094828 0.0395748
0.10301993 0.02451646 0.09497314 -0.0339423 -0.01792304 -0.02014933 -0.07481442 -0.06463451
-0.039565608 0.086288325 0.019553982 -0.1570733 0.13012375 0.044674527 0.02636356 0.070530295
0.03262173 -0.10584267 -0.0074697467 -0.031961955 -0.028517868 -0.19530609 -0.042917755 -0.04556532
-0.040988848 -0.03469874 0.049031608 -0.11009406 -0.2588644 -0.042534146 0.0013565861 -0.090185046
0.1774181 0.19841054 0.012392126 -0.0069671934 -0.040965814 0.10549624 -0.08992154 -0.10034783

layer_x.bias f4 [64]
00000000: 7970 3d3e 3f25 933e 2fbb 9e3e b512 923e
00000010: 6da5 283e b5aa 0fbd 805b bf3e bbfc 463e
00000020: f22d b53e 9688 993e 1fda 013e bffa a83e
00000030: def9 603e e7f1 963e 41c0 993d 25a6 943e
00000040: 2735 a93e 48e1 523e 7480 343e 6a40 513e
00000050: da8b f73d 30f6 683e c09e 7c3e 8ec2 a13e
00000060: 467d 4d3e c9ea 933e 6fd5 3e3e b99d 9e3e
00000070: 9496 443e eae2 9d3e 07e5 703e 7b97 6f3e
00000080: a1fb a73e 83f2 ae3e 6f6d 623e baf1 613e
00000090: 4c5f 763e 5dd4 2d3e e89b 233e 248d 983e
000000a0: 2528 013d 9c8d 363e ac5e ae3e c3ea 913e
000000b0: 7392 cd3e 3ddb 063e 5ddd a23e 3b2b 3c3e
000000c0: bf55 523e 3f13 573e 6ff1 593e 4b7f 863d
000000d0: a340 5d3e f851 a83e 3d9e 193e 4b74 7e3e
000000e0: 0da0 573e cea5 673e 3abc 7b3e c237 053e
000000f0: 617c 3a3e 07c8 a53e 1187 773e 73a8 933e
0.18499936 0.28739354 0.31002185 0.28529897 0.16469355 -0.03507491 0.37374496 0.19432347
0.35386616 0.2998702 0.12680863 0.33003804 0.21970317 0.29481432 0.07507373 0.29033008
0.33048365 0.2059375 0.17627126 0.20434728 0.120872214 0.22750163 0.24669933 0.31593746
0.2006732 0.28890064 0.18636106 0.30979708 0.19198066 0.30837184 0.23524867 0.23397629
0.32809165 0.34169397 0.22112058 0.22064868 0.2405979 0.16975541 0.15977442 0.29795182
0.031532425 0.17827457 0.34056604 0.2849942 0.40150794 0.1316957 0.31809512 0.18375866
0.20540522 0.21003436 0.21283506 0.06567248 0.21606688 0.32875037 0.1500177 0.2484905
0.21057148 0.22621843 0.24583521 0.13009551 0.1821151 0.3237917 0.24172617 0.28839454

layer_t_1.weight f4 [64, 64]
00000000: 331e a5bb 28de 1b3e 92dc 123d be68 8ebd
00000010: b2c5 c2bd 520e 42bd 9c2e e43c d772 d23d
00000020: a7ed 8a3d 1d55 9b3b 738c ca3c 58b9 f2bd
00000030: 46a9 1cbd a28c f13d 56fd 153d 51bd 043e
00000040: aa8f 0a3c dd73 b6bd c008 3bbe 514a b4bd
00000050: dd2d 583d 05e7 27be 0bba 2d3c 53de 383d
00000060: 2c24 eb3d 6682 f6bc dca7 84bd b914 243e
00000070: 26ec 6dbd 0df0 043e 1df9 9f3d 1865 a03c
00000080: 1168 a7bd 3e6e 153e e87b bfbd 1666 cc3d
00000090: 03c4 1d3e 996c 3cbd c09e c7bd b302 8b3c
000000a0: f5d5 94bd 4dec 013e e2af f2ba 0576 c6bd
000000b0: 9143 5cbd 73c8 c0bd 6766 c9bb a838 f23d
000000c0: 2330 6cbd ef3e 1b3e 486b 623c b5a8 f23d
000000d0: a09e cbbd cd31 e13d 467b d7bd b4f2 fdbd
000000e0: 0811 b2bd f8bb 47be 68a0 fbbd ee59 a7bc
000000f0: bb95 063d de1c 9bbb 82d3 02be 119d 533b
00000100: f7a3 663d 569f c83d 04c6 acbc fb92 12bd
00000110: 67e7 f4bd aa4f 0bbc e129 fe3d 3fa4 80bd
00000120: a69f bb3d 0094 a0bd e443 093d 85fa 413d
00000130: fbc1 473d eb73 cebd e854 acbc 7544 8e3d
00000140: 6748 1a3e c614 d5bd 7a55 233e 2fb9 6d3e
00000150: 5acb 363d dcfd 33be bc3a 0bbe c0eb 823d
00000160: d9dc e4bd ffec d2bb 13df 50bc 978b dcbd
00000170: f43e e43c c063 12be 7dce 553e 0955 40be
00000180: 1575 1d3d b409 1ebe d283 62be 1fa0 d23d
00000190: 1e5b 16be 0bf2 f5bd d1a9 05be c378 d3bd
000001a0: b310 b8bd 972e 9dbd 4c85 95bd c08d 5ebd
000001b0: 5e25 733c 90d3 c93d efbc 833d aa16 e2bd
000001c0: 8464 2bbe f61d a53d 1193 59bd 0db2 a5bd
000001d0: 43b3 963c 4a8e 743d ea2e 333d 9366 473d
000001e0: 8ec4 cd3c 34a1 52bd 54a4 b8bd 4e50 b33d
000001f0: c172 093d ae70 853c a776 2ebe de77 a5bc
00000200: 2031 5fbe 793c 463e d44e 4e3d 9343 df3d
00000210: 9936 8fbd d226 9a3d 1de2 cbbd 17f4 44bd
00000220: 4690 38be be49 133e b83c da3d 6ff9 7cbe
00000230: 0a7a ac3d 1af2 dc3b e79e 2e3e f4a5 eabd
00000240: 5882 24be 219a 55be 6959 b5bd ab0b 17be
00000250: 0246 0c3e 4609 f0bd 6134 f0bd ac88 d8bd
00000260: 4e56 36bc 5aff 4b3e 7fa3 37bd 365f 2dbd
00000270: c3d0 523c 3fcd ab3d c65a ecbd 6ad6 0ebe
00000280: 7c7e 7abb edf8 92bd 9fd8 23be a790 0a3c
00000290: e620 c1bd 366f 1d3e ba34 013d b03b b6bc
000002a0: a049 a6bd 9423 34be 784f 9f3d b36f d9bd
000002b0: ef9b bbbd 37a8 0a3e fcaa 153c 3de1 013d
000002c0: 75a4 4a3d 2637 243e bf15 8c3d 3ccb 803e
000002d0: c97f 6d3b 1c8a 1fbe e1ed d1bd 88d9 b6bd
000002e0: e2fb 123d 9628 c1bb 67f0 013e 11e8 633c
000002f0: fa50 b4bc e7f4 5fbc 8515 8dbd cd51 f03d
00000300: 142b 233d 4a55 353d 6d3d 533e 8110 31be
00000310: 5371 90bd 9566 08be 7c69 1e3e 0656 603e
00000320: 781b 88bd c8ab 04bd 4b2f 523d c8f3 d1bd
00000330: 2154 c93d 3fc2 c33d 57f8 f2bd 0c1e fabd
00000340: 2067 053e 27e0 23bc 4d5d 033d 1bee 093e
00000350: f117 313e e2ea 843d 224d 34bc f1bc f1bd
00000360: 6f11 37be e39f 94bd 8ae8 bf3d 52ff d2bd
00000370: e737 8dbd 9773 b3bd 954e 84bc 6542 173c
00000380: 35fa 05be c96b a23d 8dd6 d03c db7e 60be
00000390: fba9 a0bd 56b9 a5bb a52b 753c eb36 03be
000003a0: b75f f1bd 05bf 05be 7bf7 21bd f124 c33d
000003b0: ab88 83bd 9fad 1a3e a64e 2bbc ad60 5ebe
000003c0: 91e0 853d 1d1d 14bd 3c60 eabb 736c ddbd
000003d0: 885e 19be 2bdb 383e f5eb 1d3e 1c8b 5b3d
000003e0: 7ea7 853d 4b84 60be 3812 98bd 096d 323d
000003f0: 4b99 67bd 9227 263e 7b33 8fbd 827e 0b3e
-0.0050390004 0.15221465 0.035854883 -0.06953572 -0.09510364 -0.04737694 0.027854256 0.1027581
0.0678361 0.004740371 0.024725175 -0.11851758 -0.03824737 0.11794402 0.036618553 0.12962843
0.008457104 -0.08908818 -0.18265057 -0.08803237 0.052778114 -0.1639672 0.010603438 0.0451339
0.114815086 -0.030091476 -0.06477329 0.1602353 -0.058086537 0.12982197 0.078111865 0.019579455
-0.08174146 0.14592835 -0.09349805 0.09980409 0.15406804 -0.046002004 -0.09747076 0.01696906
-0.072673716 0.12687798 -0.0018515552 -0.09690479 -0.053775374 -0.09413233 -0.0061462405 0.118272126
-0.057663094 0.15160726 0.013819523 0.118485846 -0.09942365 0.10995827 -0.105215594 -0.123998076
-0.08694655 -0.19505298 -0.122864544 -0.020428624 0.032857638 -0.004733666 -0.12775996 0.0032289664
0.056308713 0.09796016 -0.021090515 -0.035784703 -0.11958199 -0.00850288 0.124103315 -0.062813275
0.0916131 -0.07840729 0.03351201 0.047358055 0.04876898 -0.10080703 -0.02103658 0.06946651
0.15066682 -0.10404353 0.15950575 0.23215173 0.044627525 -0.17577308 -0.13596624 0.06392622
-0.11174936 -0.0064369435 -0.012748498 -0.10768812 0.02786205 -0.14295864 0.2087955 -0.18782438
0.038441736 -0.15433389 -0.22120598 0.10284447 -0.14683196 -0.12009057 -0.13053061 -0.10325768
-0.0898756 -0.07674902 -0.07300815 -0.054334402 0.014840452 0.098548055 0.064325206 -0.11039479
-0.16737562 0.08062355 -0.05311877 -0.08090601 0.018396026 0.05970601 0.043745913 0.048681807
0.025118139 -0.051423267 -0.09015718 0.08755551 0.033556703 0.016289081 -0.1703745 -0.020198759
-0.21796083 0.19359006 0.050368145 0.10901561 -0.069928356 0.07526936 -0.09955237 -0.048084345
-0.18023786 0.14383599 0.106561124 -0.24704526 0.084217146 0.006742728 0.17052804 -0.11457434
-0.16065347 -0.20859577 -0.08854944 -0.14750545 0.13698581 -0.11720519 -0.117287405 -0.10572943
-0.011128975 0.19921628 -0.044833656 -0.04232713 0.0128671555 0.08388757 -0.11540751 -0.1394898
-0.0038222363 -0.07176385 -0.16000603 0.008457339 -0.09430103 0.15374455 0.031544425 -0.022245258
-0.081195116 -0.17591697 0.07778829 -0.10617008 -0.09160601 0.13540731 0.009135004 0.031708945
0.049473245 0.16036662 0.06840085 0.25155056 0.0036239496 -0.15580028 -0.1025045 -0.089282095
0.035884745 -0.005894731 0.12689362 0.013910309 -0.022011269 -0.013669229 -0.0688887 0.11734352
0.039836004 0.04427079 0.20628901 -0.17291452 -0.07052865 -0.13320382 0.15469927 0.21907815
-0.06645864 -0.032390386 0.051314633 -0.10251576 0.098304994 0.09558534 -0.11863773 -0.12212762
0.1302762 -0.010002173 0.0320714 0.13469736 0.17294289 0.06490113 -0.011004718 -0.11803616
-0.17877744 -0.072570585 0.09370525 -0.10302605 -0.06895428 -0.087622814 -0.016150752 0.009232138
-0.13083728 0.07930715 0.02549293 -0.21923392 -0.07844921 -0.005057494 0.014964019 -0.12813918
-0.11785834 -0.1306115 -0.039542656 0.095285304 -0.06422552 0.15105294 -0.010455763 -0.21716566
0.06536973 -0.036160577 -0.0071525853 -0.10811701 -0.14977467 0.18052356 0.15422042 0.053599462
0.06526087 -0.21925466 -0.0742535 0.043561015 -0.056542676 0.16226032 -0.06992241 0.13622478

layer_t_1.bias f4 [64]
00000000: 3c03 ebbd 85f2 12bc d676 7e3a fdc9 25bd
00000010: 6a5c b23d bbf4 58be a5a8 db3d a91f cbbd
00000020: eae7 e4bd 9a37 d93d b597 dfbd 32ba c53d
00000030: 1451 0abd 804b d3bd 16c7 99bd 41c4 163c
00000040: ffde b0bd a46d febc 52a7 833b eea3 133d
00000050: bdea 19be 0246 2bbc 537a e43c 465e d13d
00000060: 4fe5 1a3d 849c 29bd 2764 f7bd 9a21 343c
00000070: 8d69 68bd 3483 9ebc cead d8bc 4c07 40bd
00000080: 2bd0 fa3c bd59 84bd 60d2 c6bd 826d dabc
00000090: 7756 09bd 502f 38bc 8a3e 6f3d 6966 033d
000000a0: 3526 41bd c5f9 a3bc a28d 32be 67a7 c5bd
000000b0: c22e 15ba a716 353b 987d 913c f0f8 713d
000000c0: c94d a73c 555b 3fbd d520 c7bd 0716 2dbd
000000d0: 47ac 6bbd eb80 f53b 1111 b7bd 38bc 85bd
000000e0: c745 c13d ba2a b53d 3c80 1fbe 3096 023d
000000f0: f825 c1bd f3f2 53bc 6334 e4bb e894 6cbd
-0.11475226 -0.008968954 0.0009707039 -0.040475834 0.08709033 -0.21187107 0.10725526 -0.09918148
-0.111770466 0.10606308 -0.10917608 0.096546546 -0.03376873 -0.10317135 -0.07508676 0.009202064
-0.08636283 -0.03105814 0.004017749 0.036045007 -0.15030952 -0.010453703 0.02789036 0.10223059
0.037816342 -0.04140903 -0.120796494 0.010994339 -0.056741286 -0.019349672 -0.026450064 -0.04688196
0.03061684 -0.06462429 -0.097080946 -0.026663546 -0.033529725 -0.011241749 0.05840925 0.032080088
-0.047155578 -0.02001656 -0.17436841 -0.0965107 -0.00056908664 0.002763191 0.017760083 0.059075296
0.020422833 -0.04671796 -0.09723059 -0.042257335 -0.057537343 0.007492175 -0.08938802 -0.065300405
0.09437137 0.0884604 -0.15576261 0.03188151 -0.0943107 -0.012936342 -0.006964253 -0.057759196

layer_t_2.weight f4 [64, 64]
00000000: 57ca e2bd 62f9 933d 281a 8bbd 7651 c83d
00000010: 1c33 a03b 0484 993c e8c8 103b 7e9c 813b
00000020: 2d78 823d e52b 463e f7c2 bd3d 8c78 203e
00000030: 958b 273e 9152 afbc 871d 263e 5381 59bd
00000040: 02f7 19bc f5c1 26be 7582 b33c 4c2c 133d
00000050: bd85 d4bd 1903 fb3d a137 893d 2319 503c
00000060: 4ec2 c1bc 35f0 6d3e 142c 22bd 39f2 513d
00000070: a6ae 2d3e fa07 4a3e aa74 dc3d e0af b73b
00000080: 6190 763d 180f 79be 1917 683d 2098 dabc
00000090: 6fca 1c3e ff46 193e 886c 1ebc 4962 bc3d
000000a0: e81c 183e 6d2d 953d e84f eebc df6c d03b
000000b0: 5afd 8a3c a8ec 13bc 29bb ea3d ebe5 93bd
000000c0: 766e bc3c 8d05 013e 602d 2d3e 8d75 683e
000000d0: a394 803d 0a5f 8ebb b422 423e c219 4bbe
000000e0: 22a8 c4bd 8f36 2bbd 6e48 b53d 98a6 0dbd
000000f0: cccb ffbd 9b93 40be ab15 e1bd da7a 35be
00000100: bad3 3eba 81dd 593d 8175 d7bd 7ce0 2f3c
00000110: ec04 b3bb 653a c33c 6f88 853d a021 4abc
00000120: 1180 83bd 6746 89bd 4117 bf3d c2bb cb3d
00000130: 34ef eb3c e094 00bb abb8 a93c 8b69 6d3d
00000140: 7c00 f23c 5bcf debd a76f 8abd a487 18bc
00000150: f452 a4bc 481f 913d 8922 ff3d 949d 023b
00000160: d1f8 f13d b74a 8a3d 3ebc 563d 6470 8c3d
00000170: 7778 ca3d 8d40 253d 3dd5 173d b09b a63d
00000180: 20d6 203d 8e20 30bd 7e53 c73c 0aa8 6fbc
00000190: faaa 95bd c357 93bc 3df0 043d 8fad 73bd
000001a0: 1289 cd3d 2103 e53d d259 88bd 0228 1dbc
000001b0: 0765 6d3d 5548 d2bc a7f0 b4bd 607f 8fbd
000001c0: a937 a13d de98 d7bb 4ba6 32bd ae11 ff3a
000001d0: 49a9 9d3a 64cb 19bc b83d 0b3c 558a 19be
000001e0: 644a bcbd 246f fb3a 407e bc3d a8be 753d
000001f0: f097 89bd 36c5 4fbd efcb ecbd 952f d9bc
00000200: 7d54 a9bd 2d52 813e 64e1 dbbd 3c4f c63d
00000210: 07fc adbd 915d c03b 236f ebbd 1bde 023e
00000220: 82de 6c3c 4ed1 7a3d eb1b 7e3e 9296 683e
00000230: 5b0e cc3b 9140 243e d46f 2f3e d6af 33bd
00000240: 3bb2 5c3d c298 823b 37a4 3d3d 1f36 f53c
00000250: c31d 77bc 41cc 1e3e b3d7 133e 5871 df3c
00000260: db83 c43d 047b 343e 790a 3b3c e70a c93d
00000270: 1233 723e f0b9 1a3e f2cd 2e3e 162c 353e
00000280: 52c2 00be b584 85be be05 04be 6ce1 88bd
00000290: 5663 063e a27e d73d 8cbe 98bd aef4 173c
000002a0: 5ab4 a53c 5853 3d3e 9863 3abe 4349 163c
000002b0: 6ddb 3e3e fcd8 a5bd 6825 d73c ec2b 11be
000002c0: 56b8 593e f2f7 133e 543a fe3a 3c9d 133e
000002d0: 8def ff3c 5964 9a3d 4dc1 c13d 7064 efbd
000002e0: aaa5 1bbe 9556 2c3d c4da cd3d e30a 033e
000002f0: 37f9 edbd cb12 5ebe 6729 41bd 6a63 8bbd
00000300: 86a4 fdbc 09fe b13d 3734 823d 34ce cf3d
00000310: 62f5 30be 4fc9 023d 0264 f7bd 64e9 113e
00000320: 7210 153e 0e94 b63d 452d af3c 7a09 ca3c
00000330: 9cc8 973d b92c 033d c562 d33c 403b bdbd
00000340: 6023 63bd 6e85 ea3c 9642 dc3d 5147 16be
00000350: 3d4e cdbd d1ca 103e 8066 973d a246 dc3c
00000360: a2f7 383d e63f fb3d 63f8 933d 5e30 dbbc
00000370: ae16 f73c 0ce4 b13c 7fd7 fc3c 5fe3 6cbd
00000380: 6ea4 5dbd c2fe 0dbe aeae f1bc 1d86 6dbd
00000390: 0de5 243d 7c07 43bd cc10 7b3c af91 8fbb
000003a0: 8dd9 16bc f276 ac3d 77d7 e5bc e0e2 423d
000003b0: 2e5e a2bd 8532 283c 040c e0bd d00f 1bbe
000003c0: c5d9 4abb c684 b0bd 7cda 1c3e 9895 cd3d
000003d0: f872 683d 734b 083d 3979 803c 2af0 c6bd
000003e0: c822 9e3c 9743 eebd 7289 f1bc 28ce 9bbd
000003f0: 30a2 20bd 7ab5 0cbe 467b 723d ec93 a8bd
-0.110737495 0.072253 -0.06792098 0.097811624 0.004888905 0.018739708 0.0022092406 0.003955423
0.06370578 0.19352682 0.09265702 0.15670985 0.1636184 -0.021401675 0.16222201 -0.05310185
-0.00939727 -0.16284926 0.021912793 0.035930917 -0.10377071 0.1225645 0.067000635 0.012701306
-0.023652222 0.23236163 -0.039592817 0.051256392 0.16961154 0.19729605 0.107644394 0.0056056827
0.060196284 -0.24322164 0.056662653 -0.026683867 0.15311597 0.14968489 -0.009669431 0.09198434
0.14854777 0.07284055 -0.029090837 0.0063606347 0.01696651 -0.009028591 0.11461479 -0.07221588
0.02300189 0.12599774 0.1691184 0.22701092 0.0627835 -0.0043448256 0.1895855 -0.19834045
-0.09602381 -0.041800078 0.088517055 -0.034582704 -0.12490043 -0.18806307 -0.10990461 -0.17722645
-0.00072794745 0.05318976 -0.10520459 0.010734674 -0.005463233 0.023831556 0.06520163 -0.012337118
-0.06420911 -0.06702881 0.09330607 0.09947921 0.028800584 -0.0019619986 0.02071794 0.05796198
0.029541247 -0.10879394 -0.06759577 -0.009309683 -0.020059086 0.070860445 0.12457759 0.001993035
0.11815036 0.06752532 0.052425615 0.06857374 0.09886258 0.040344764 0.037068594 0.08135164
0.039266706 -0.042999797 0.024331804 -0.014627466 -0.07308002 -0.017986184 0.03245567 -0.05949169
0.1003591 0.111822374 -0.06657757 -0.009592058 0.057957675 -0.025669256 -0.08834963 -0.07006717
0.078719445 -0.0065795025 -0.04361562 0.0019460225 0.00120286 -0.009386871 0.008498602 -0.14994176
-0.091938764 0.0019182903 0.09203768 0.059996277 -0.06718433 -0.050725184 -0.11562335 -0.026511947
-0.08268068 0.25258008 -0.10736349 0.096830815 -0.08495336 0.005870529 -0.11495807 0.12780039
0.014457347 0.061234765 0.24815337 0.22713688 0.0062272972 0.16040255 0.17132503 -0.043868862
0.05388091 0.0039854953 0.046299186 0.029933034 -0.015082779 0.15507604 0.14437751 0.027275726
0.09595462 0.17625052 0.011416071 0.098165326 0.23652294 0.15109992 0.1707075 0.17692599
-0.12574127 -0.2607781 -0.12892815 -0.06683621 0.13123831 0.105222 -0.07458219 0.009274645
0.0202276 0.18488824 -0.18202055 0.00917274 0.18638392 -0.08098027 0.026262954 -0.14176911
0.21261725 0.14450052 0.0019396045 0.14415449 0.031242156 0.07538671 0.09460697 -0.11689079
-0.15199915 0.04207476 0.10051492 0.12797122 -0.116197996 -0.21686856 -0.047158625 -0.06806071
-0.03096224 0.086910315 0.063576154 0.10146752 -0.17281106 0.031930264 -0.12079622 0.14249188
0.14557055 0.08914958 0.02138389 0.024662722 0.0741131 0.032025073 0.025803933 -0.09239817
-0.055453658 0.028628077 0.10754888 -0.14675643 -0.100246884 0.14139868 0.07392597 0.02688915
0.045158036 0.12268047 0.072251104 -0.026756462 0.030162182 0.021715187 0.030864475 -0.057834025
-0.05411189 -0.13866714 -0.02950224 -0.05798923 0.040257502 -0.04761456 0.015323829 -0.0043813805
-0.009207142 0.084211245 -0.028056843 0.047579646 -0.079281196 0.010265951 -0.10939792 -0.1514275
-0.0030952555 -0.086190745 0.1531772 0.10038298 0.056750268 0.03327508 0.015682803 -0.097137764
0.019303694 -0.116339855 -0.029484484 -0.076076806 -0.039217174 -0.13741103 0.059199594 -0.08231339

layer_t_2.bias f4 [64]
00000000: 0fed b83c 5ee3 82bc 8ab4 93bd baa9 09be
00000010: 68ee 81bd 4625 89bd 3a51 01bd 6182 d43d
00000020: e41f 613d 5276 b1bc 6e0c 16be 65d8 2bbe
00000030: 0db3 9abd 9c4c 2abd d84c 90bc fc76 97bd
00000040: f650 193d 73fd cebd af1a a4bd e616 b0bd
00000050: 929e d9bd 70b1 4a3d dabe 11be 063a f23c
00000060: 8f47 f0bd f958 6c3d 590f e2bd 6a4c e5bd
00000070: 1f0b 00be 57f6 e93d 31e8 8bbd e7dc 113e
00000080: 0aab ccbd 49c3 cbbd 9aab 12be b166 e1bc
00000090: 8fdd a33d 9274 b5bc 50df a23c c844 1b3d
000000a0: 2162 bfbd 17cf c0bd e5bb ccbd bb74 773c
000000b0: a227 ad3d d73a 16be f5b2 ebbc a336 c7bd
000000c0: 9f09 c7bd 8330 693d 2611 533d 6ead d4bd
000000d0: 3b7f 163c b18c 95bd e2f7 9a3d d5db 7cbd
000000e0: ae05 6d3d 31b7 d9bd 19f2 083d fec9 863c
000000f0: 2cc8 393d f267 a43c 6cc4 b13d d913 bf3c
0.022573976 -0.015977558 -0.072121695 -0.13443652 -0.063443005 -0.066965625 -0.031571604 0.1037643
0.054962054 -0.021662865 -0.14653179 -0.16781767 -0.075536825 -0.041576967 -0.017614767 -0.07395741
0.037430726 -0.10106935 -0.08012902 -0.085981175 -0.10625948 0.049485624 -0.1423296 0.029568683
-0.11732399 0.05770204 -0.110380836 -0.111962155 -0.12504242 0.11423939 -0.06831396 0.14244424
-0.099935606 -0.09949357 -0.14323273 -0.027514787 0.08001243 -0.022150312 0.019881874 0.03790739
-0.093448885 -0.09414499 -0.099967755 0.015103514 0.08454825 -0.14670883 -0.028771857 -0.09727218
-0.09718632 0.05693103 0.051530026 -0.103846416 0.009185608 -0.073022254 0.07566811 -0.061733086
0.057866745 -0.10630644 0.033434007 0.01645374 0.045356914 0.020069096 0.086800426 0.023324894

layer_out_1.weight f4 [64, 64]
00000000: 0fd7 313c 10fe 953d f401 1cbd e5b1 a03d
00000010: fec5 3fbe 8fe3 a23d e301 06be 3cfa 22bc
00000020: 8ee3 033e 9dac e2bd 7a98 78bd 8885 0cbe
00000030: 5e5f 583d a496 bbbc 12e0 09bc 3234 15bc
00000040: ec85 26bc e71f 0a3e fe39 273d 237a bb3d
00000050: b70c 013d 018b 343d a65e 133d 2a3f d93d
00000060: d7b7 bc3d 126e 1cbd 0b22 e0bc 4f49 ff3d
00000070: b682 193d ca27 013d 56c7 16ba 91a3 4abc
00000080: 5347 99bd 61ed 73bd 7981 833c bed4 f13b
00000090: b67a ba3d e50a 88bd 8938 1dbd 8069 943d
000000a0: 2a15 953d 9651 16be 9b0d 553d 28a7 b93d
000000b0: cd8f 91bc 5337 023e 8bb9 473d 05d9 e4bd
000000c0: 8744 f9bd 4dba 3c3d 1aec c0bd eddf b03d
000000d0: fca2 293d b6f9 3cbd ceaa a3bc 3dee 0d3d
000000e0: c294 1c3d adf8 dc3c 8708 76bc c8f7 2f3b
000000f0: 4a91 89bd a951 d9bd a2e7 8f3d ad46 993d
00000100: 1dd0 09be fbab d93c 7ced ecbc ec61 0f3e
00000110: 23b1 c23d 3ed9 ab3d 0410 6a3b cc73 f6bd
00000120: afcf afbb 0fe0 b43d fc7e 1dbe cd3f f33a
00000130: 70c5 94bd dc54 4abd acf8 0f3d 34e7 02be
00000140: 42f3 bd3d 2960 e63c 9d67 023e 2625 123d
00000150: 0e00 03bc cbca 553d b424 5cbd f51c f93d
00000160: 8fa1 8a3b 2cb1 8539 dd19 a1bd 70e8 7c3b
00000170: aeac e1bc 98ac 183d 64dd 14ba 5cd3 fabd
00000180: a939 013d 1f4f 0f3d 7ff3 1c3d f4ed ef3d
00000190: 753d 8a3d 38b3 203e 0f0b 34be 7e2e 2dbe
000001a0: f9c9 24bd dbbf 73bd 852d 5abd 63e0 b63c
000001b0: 821b 6fbd 5964 243d d777 b4bd 59a2 ffbb
000001c0: 282e 8fbc 9b00 5d3c d09d a23d f81c eabd
000001d0: be86 2a3e 02bb a53c 4440 92bc 320e f3bb
000001e0: 82da 3fbe ca17 b63c 2a74 ee3c 99ba 70bd
000001f0: b28b 85bd b448 5dbc dbec 7e3d 5e05 423d
00000200: 9a60 bfbc fda7 8f3d 38c1 a8bc d156 013d
00000210: 7eed 91bd 2e28 db3d 7d92 943d 70dc bebc
00000220: 8539 053c 814c b0bc 4925 ab3d ab87 d8bc
00000230: 942a 433d 1bab c6bd 1053 90bd 8ee6 abbd
00000240: 4bcd 4a3d 95de 103e 634b 55bd 54e4 93bd
00000250: bf4b d3bc 1479 00bd ad28 f7bc 00c5 183e
00000260: 14c0 01bc e974 62bd 5821 823d da92 8cbd
00000270: 63b6 023d f99d 0a3d 035d debd f015 063e
00000280: 598e c4bd 510a f93d 7c8d 0abb 0a7c 6c3b
00000290: feb3 81bd 46f2 a63d 0be8 ebbc 8c21 0dbe
000002a0: fcde 7d3d de36 2a3a fcf9 04bd f835 2cbd
000002b0: cd4d 583c 41a0 78bb 5eda 973d 6ad7 78bd
000002c0: 77a2 04be dad6 f4bc 5157 963d 48c7 0a3c
000002d0: 0b2a 453d 8f0f 8dbc be1d 15bd 5b20 993c
000002e0: 7930 c2bd 98b6 b6bc 1040 aabd 86e0 7c3d
000002f0: 5c40 d33d 3b00 b4bd 0fbd d73d 75e4 33bd
00000300: 0a9f 213c 0a97 04bd 49fc 35be df39 d73c
00000310: b584 0cba d885 043e 9b82 483d 0178 9c3d
00000320: 3736 893d 8fee b5bd 6c72 0e3e 05a5 e1bd
00000330: 77d7 c8bd 1802 f4bd d42f fd3c 80b2 143d
00000340: 4d21 ed3d 1a46 acbd 22b9 203c 5e31 023e
00000350: 2c70 cc3c ce39 c3bd ca7b 013d 094c 9b3d
00000360: 7607 f8bc 8fed 2abc 7bc6 343d b5d4 7fbd
00000370: b779 bfbd a064 3f3d 6cb5 5ebc 05ac b3bd
00000380: 180d f83c 7974 1cbe 7802 603d d51f 28bd
00000390: ab82 593d d5ab 1b3c de18 abbd adaf b23d
000003a0: bb47 f9bc 058f 9ebd 6510 9ebd 2691 7a3d
000003b0: 6052 073e fb4b 8ebb 4a75 f43c 8fd2 acbc
000003c0: dd8d 5dbd bcd3 f2bc 27b6 febc 01bf 82bd
000003d0: 5dd6 653d ab8b c93d 2ee7 b6bd e7bf 183e
000003e0: 4462 c7bd bf44 a53c dc6a 8cbc e209 3bbd
000003f0: 6862 bbbd 0861 cd3c 1011 5bbc 65c4 a43d
0.010854497 0.07323849 -0.0380878 0.07846431 -0.18727872 0.079535596 -0.13086657 -0.009947356
0.12879774 -0.110680796 -0.060692288 -0.13722813 0.052825324 -0.02289898 -0.008415239 -0.009106683
-0.010163765 0.13488732 0.04082679 0.09154155 0.031506266 0.044077877 0.035978936 0.10607751
0.09214752 -0.03819091 -0.027359983 0.124651544 0.03747817 0.031532086 -0.0005751749 -0.012368099
-0.07484307 -0.059552554 0.016052948 0.007380097 0.091054365 -0.06642703 -0.038383994 0.07246685
0.07279427 -0.1467956 0.05201493 0.09065086 -0.017768765 0.12716417 0.048760932 -0.11174206
-0.12171274 0.046076108 -0.09420033 0.086364605 0.0414152 -0.04613658 -0.019978907 0.03465103
0.038227804 0.026974047 -0.0150166815 0.002685057 -0.06717165 -0.106112786 0.07026602 0.074841835
-0.13458295 0.026571264 -0.028921835 0.14002198 0.095064424 0.08391045 0.0035715112 -0.12033805
-0.005365334 0.08831798 -0.15380472 0.0018558443 -0.07264221 -0.049397334 0.03514926 -0.1278351
0.09274913 0.028122025 0.12734838 0.03567996 -0.0079956185 0.05219535 -0.05374594 0.12163726
0.004230685 0.0002549974 -0.07866261 0.0038590692 -0.02754816 0.037273973 -0.0005678742 -0.12247345
0.03154913 0.034987565 0.038318153 0.11715308 0.06750003 0.15693367 -0.17582344 -0.16912267
-0.04023168 -0.05950914 -0.053266067 0.022323793 -0.058375843 0.04013476 -0.0881192 -0.007801336
-0.017478064 0.013488914 0.079402566 -0.114313066 0.16652963 0.020230774 -0.01785291 -0.0074174637
-0.18735698 0.02222814 0.029108126 -0.058771703 -0.065207854 -0.013506103 0.0622376 0.0473684
-0.023361493 0.07014463 -0.020599946 0.031576935 -0.07125376 0.10701023 0.07254503 -0.023298472
0.0081313895 -0.021520855 0.08356721 -0.026431879 0.047648028 -0.097006045 -0.07047093 -0.08393584
0.04951219 0.14147408 -0.052073848 -0.072212845 -0.025792954 -0.03136547 -0.030170763 0.149189
-0.00791933 -0.055287275 0.06354016 -0.06863947 0.03191222 0.03384206 -0.10857584 0.13094306
-0.09597463 0.12160171 -0.002114146 0.0036084675 -0.06333159 0.08151679 -0.02879717 -0.13782328
0.061980233 0.0006493161 -0.032464966 -0.042043656 0.013202143 -0.0037937316 0.07414697 -0.06075231
-0.129526 -0.029887605 0.07340873 0.008470364 0.0481358 -0.017219333 -0.036405317 0.018692186
-0.09481902 -0.022303864 -0.08313 0.06173756 0.1031501 -0.087891065 0.10534107 -0.043919045
0.009864578 -0.032370605 -0.1777202 0.026272712 -0.0005360351 0.12941682 0.04895268 0.076400764
0.06699794 -0.08883392 0.13910836 -0.11017803 -0.09806722 -0.11914462 0.030906595 0.036303043
0.11578617 -0.08411808 0.009809764 0.12714145 0.024955831 -0.0953251 0.031612195 0.07582862
-0.030276995 -0.010432615 0.0441346 -0.062458713 -0.09349387 0.046726823 -0.013593059 -0.087730445
0.030279681 -0.15278806 0.054689854 -0.041045982 0.05310313 0.009501417 -0.083543524 0.08724914
-0.030429712 -0.077421226 -0.07717971 0.06117358 0.13215017 -0.0043425537 0.029841084 -0.021096496
-0.05409037 -0.029641978 -0.031092716 -0.06384087 0.056112636 0.09841093 -0.08930813 0.14916955
-0.097355396 0.020174382 -0.017140798 -0.04566372 -0.09149629 0.025070682 -0.013370767 0.08045272

layer_out_1.bias f4 [64]
00000000: 7200 833b c9ab 503d 301a 45bd 7d31 f23c
00000010: 1d39 a4bc 42bc e5bd 254f 6fbc cd63 00be
00000020: 7ae6 acbd c896 08bc 8193 c6bd 4071 a73d
00000030: 4269 14bd c28e bb3d dda3 793d f2dc 163d
00000040: 1926 353d 492b ec3d f611 53bd b8b0 9e3d
00000050: 2475 343d dbbc cb3c 854a a53d 303c c63d
00000060: 1088 803d 5d78 c6bd 24de 80ba f9a7 d93c
00000070: d270 b13d 7a31 a3bc 02d0 c1bd bc0c 69bd
00000080: c2b1 aebb c437 1ebd b0ef c63b 1238 92bd
00000090: e963 5b3e f890 4fbd 1633 a43d f217 9bbc
000000a0: b6fb 36bd c249 4c3d e328 1e3d 21c8 b0bd
000000b0: 606f 49bc a84e b93d 2eac ae3c fe1d 5ebc
000000c0: 9565 49bd 651f 07be 570c f4bc c8ed 83bd
000000d0: 8dc6 333d f48d ebbc 6d60 29be 2e2f 8e3d
000000e0: 12f3 cc3b 24ec 8b3c a258 6cbd f730 493d
000000f0: bcbf 8bbd 2f23 74ba 8083 9ebd 777a 55bc
0.003997856 0.050945077 -0.048120677 0.029564613 -0.020046765 -0.11217548 -0.014606272 -0.12538071
-0.084423974 -0.00833673 -0.09696103 0.081758976 -0.036233194 0.09158088 0.060947288 0.036831804
0.044225786 0.115316935 -0.0515308 0.0774855 0.044057027 0.024870327 0.08070854 0.096794486
0.06275952 -0.09690926 -0.0009831828 0.026569353 0.08664097 -0.019921053 -0.094635025 -0.05689691
-0.005331249 -0.0386274 0.0060710534 -0.07139601 0.21424831 -0.050675362 0.08017556 -0.018932316
-0.044673644 0.04987503 0.03861321 -0.086319216 -0.01229462 0.090482056 0.021322336 -0.013556955
-0.04916914 -0.1319557 -0.02979104 -0.064418375 0.043890525 -0.028754212 -0.1654069 0.069425926
0.006254562 0.017080374 -0.057701714 0.049118962 -0.0682368 -0.0009313104 -0.077399254 -0.013029686

layer_out_2.weight f4 [53, 64]
00000000: 1ab2 f9bc 5995 df3d 4f6f 6f3c b9f5 9dbd
00000010: 78fd 19bd 29b1 33bd d338 083d 9bef adbc
00000020: 364b 34bd c4b6 eebc f6f8 23bd 77f6 d3bd
00000030: 9567 883c 8695 443c 0fb9 073d add0 b83d
00000040: de8e 52bd 4c75 ca3c 934b ccbc 6c69 5bbd
00000050: 56e3 14ba 517d 463d 7c3f 143d cf08 30bd
00000060: bf59 0bbd 4cc9 e9bd b600 f43d 89e3 19be
00000070: 1d15 ea3d 59cb a73d 165d 4d3d 9ffa 7f3e
00000080: cc30 dcbd 8177 1cbd cc55 9a3c e492 e7bd
00000090: 5e45 b2bd 43c7 8b3d 8e54 243e c584 a83d
000000a0: ddcf 8b3c 8f1a d73d 5091 883d 2ae6 60bd
000000b0: be23 2ebd 9dc1 463e 5fbb 17be 37e8 6ebd
000000c0: b475 70bc 260d a63d 8af8 9ebd 3821 0ebe
000000d0: d23f 72bd 90d1 6e3c c626 22bb d15a e33d
000000e0: a8c9 a03c 85c5 683d c4f8 2d3b 63f4 e9bb
000000f0: c92f 9bbd 850d 24bd ee83 b8bd e6de 9f3c
00000100: 39d6 bd3a 2ad1 0a3d e11d 06bd a8fa eabc
00000110: a6a9 88bd 7a34 a53c 6713 87bc cb7e d0bc
00000120: 0e53 043d 30ee 0cbd 799f e93c 4100 be3c
00000130: 0a2a 8a3b 40ca 943d 7756 8dbd f2ff 0abd
00000140: 5cef 973c 8f47 8abd a0bb e43d 22fc c33c
00000150: 8c15 8bbd a3fe 823d 70b4 8a3b f801 27bd
00000160: 1013 6fbd cfc7 04bd b1d0 ab3d 04c6 f1bb
00000170: 8085 d13c 62ab b33d 9422 acba d63f babc
00000180: 6a15 993c 61eb 6bbd 76f4 a2bc 10ec 633c
00000190: e998 45bd 31a7 d3bd 9d49 813d b1fc 193d
000001a0: aeb8 f03a b334 383d a35d cb3c 2150 91bd
000001b0: 2e96 7e3b b281 c9bc 4934 9b3c 5f5b 55bd
000001c0: a52e 7c3c 2cf4 93bc 8eff 103d 3e58 083c
000001d0: 32df aa3b 4879 d43d 3e26 8cbb 8356 dbbc
000001e0: b2ed 91bb 538d ad3d 02b8 09bd 78b7 afbd
000001f0: 9fe1 2b3d fb12 4bbc f745 003c ee9f 523d
00000200: 0c8d 093e 1c3d c73c 0ebd 8e3d fdaa be3c
00000210: da23 0cbd bd71 b53c 3f11 d0bd 1e02 9d3c
00000220: 0bf9 e83d 1be6 343d d357 f7bb 13b8 11bd
00000230: f1c4 6c3d 26cb dabc 8014 5cbd 564a a03d
00000240: ea6e 9b3d d613 703d efe2 523d 1f2d bdbc
00000250: 574c dbbc 003e 6bbd c350 c43d 38dc 25bc
00000260: dd59 853d 0c98 ccbc 4613 5abd e53c e5bd
00000270: 0df3 62bd bab7 c63d 5b28 703e e916 3b3d
00000280: b4d9 4ebd e894 a63b 09a6 17bd 3c9c fd3c
00000290: fcde 00be 5f7d 973d 95e3 b0bd d0bc ea3b
000002a0: 6081 b83c 36f4 843d 44a6 0ebe 6c5d 91bc
000002b0: 626c b3bb c018 c2bd e0f8 c33d 69df e2bd
000002c0: c29d 863d a4e3 46bd a631 40be d988 18bd
000002d0: 8dfb 873c aa7e e7bb 90d5 81bc 0b53 3cbd
000002e0: d573 00be 2aef 4a3c ca14 a13d 466c f8bd
000002f0: 6431 243d 4ffe 45bd 9c0c e1bd dd8f 7f3d
00000300: 8fb5 0e3d 9aab 05bd d030 10bd 69e8 90bc
00000310: 6936 983d 4b81 b33c 94d1 053e c9da f3bc
00000320: 1471 86bd 9e66 19bd f71e 223d e729 0dbd
00000330: f0d8 b4bd cc63 95bd 062e 5c3d f3b9 263d
00000340: e352 8b3d 8822 c93d 03fc febd aaef 5d3d
00000350: 40f8 42ba 1633 98bd 5207 e93b 2b3d 6cbc
00000360: 668c 7d3d abd2 c3bd 4366 1c3e ba1c 283d
00000370: 1046 31bd 5da6 a23d cc9c 993d 8509 6dbd
00000380: 92dd 11bd e88a 34bd ce64 70bd cb62 103d
00000390: f835 76bd bc6e 92bd 5f49 84bb 01b5 783b
000003a0: 7a86 213d 3ecf 113c 3dac bbbc 3f56 a9bd
000003b0: 5ba7 4b3c 23c1 23bd 1fe4 503d fa77 13bd
000003c0: e84a aebc 190d 26bd a664 d33c ac43 9dbd
000003d0: e166 543d 657a e2bc e877 883c f357 283d
000003e0: 779f 0c3d 98a6 a9bd 5ba1 683d 1013 6fbd
000003f0: f380 abbd 2554 00be 710b 643d 2b39 d5bd
-0.030480433 0.10917158 0.01461394 -0.077128835 -0.037595242 -0.043870125 0.033257317 -0.021232417
-0.04401704 -0.029139884 -0.04003235 -0.10349744 0.016650954 0.01199854 0.03313547 0.09024177
-0.05140578 0.024714135 -0.02493838 -0.053567335 -0.00056796276 0.048459355 0.036193356 -0.04297715
-0.034021135 -0.114153475 0.11914198 -0.15028204 0.11429808 0.08193082 0.0501376 0.24997948
-0.10751495 -0.038199905 0.01883974 -0.11307314 -0.08704637 0.068251155 0.1604788 0.08228449
0.01706689 0.105031125 0.06668341 -0.054907 -0.042514555 0.19409795 -0.1481757 -0.058326926
-0.0146765 0.081079766 -0.07762249 -0.1387986 -0.059142895 0.014576331 -0.002474235 0.11101306
0.019627407 0.056828994 0.002654598 -0.007139729 -0.07577474 -0.040051956 -0.090095386 0.019515466
0.0014483399 0.03389088 -0.03274334 -0.028683975 -0.06672983 0.020166624 -0.016488744 -0.025451085
0.03230577 -0.03440684 0.028518425 0.02319348 0.004216437 0.072651386 -0.069012575 -0.033935495
0.018546753 -0.0675193 0.11168599 0.023923937 -0.06791219 0.06396224 0.0042329356 -0.040773362
-0.05836779 -0.032417115 0.08389414 -0.0073783416 0.025576353 0.08772923 -0.0013132864 -0.022735517
0.018686969 -0.05759752 -0.019891959 0.013911262 -0.04824153 -0.103346236 0.06312869 0.0375945
0.0018365586 0.044972133 0.024824923 -0.070953615 0.0038846838 -0.024597976 0.01894583 -0.05208909
0.01539198 -0.018060766 0.035399966 0.00832182 0.0052145952 0.10374695 -0.0042770198 -0.02677465
-0.0044533843 0.08474221 -0.03362275 -0.08579916 0.041963216 -0.012394662 0.007829181 0.051422052
0.13432711 0.024321131 0.06969653 0.023274893 -0.03421388 0.022148961 -0.101595394 0.019166049
0.11375626 0.04416476 -0.0075483113 -0.035575937 0.057805005 -0.026708197 -0.053730488 0.078266785
0.075895146 0.058612667 0.051485952 -0.023092804 -0.0267698 -0.057432175 0.095857166 -0.010123305
0.06511281 -0.024974845 -0.053241037 -0.11193255 -0.055407573 0.09703012 0.23452894 0.045676146
-0.050500587 0.005083669 -0.037023578 0.030958287 -0.12585062 0.073969595 -0.08637158 0.0071636215
0.022522628 0.06491892 -0.13930613 -0.017744742 -0.0054755667 -0.09477377 0.095689535 -0.11077768
0.06573059 -0.04855694 -0.1876894 -0.037239883 0.016599441 -0.00706466 -0.015848905 -0.045977633
-0.12544186 0.012386123 0.07865293 -0.121300265 0.040086165 -0.04833823 -0.10988733 0.062393058
0.034841117 -0.032634355 -0.0352028 -0.017688947 0.07432253 0.021912238 0.13068229 -0.02976741
-0.06564537 -0.03745138 0.03958031 -0.03446379 -0.0883044 -0.07294425 0.05375483 0.04070468
0.06802919 0.098210394 -0.12450411 0.05418364 -0.0007437505 -0.07431619 0.0071114684 -0.01441888
0.061901473 -0.09561666 0.15273385 0.04104302 -0.043279707 0.079418875 0.0750061 -0.057870407
-0.035611697 -0.044077784 -0.058689885 0.035250466 -0.060110062 -0.07150027 -0.004037067 0.0037949684
0.039434887 0.008899508 -0.022909278 -0.08268403 0.012430037 -0.03997911 0.050998803 -0.03600309
-0.021275952 -0.040539835 0.025804829 -0.07678923 0.051855925 -0.027646253 0.016658738 0.0410995
0.034331765 -0.08283728 0.056794506 -0.05836779 -0.083742045 -0.12532099 0.055674974 -0.104112945

layer_out_2.bias f4 [53]
00000000: f44e 303d c727 8b3b dc90 4e3d 50d1 a83c
00000010: 5a64 bebb 8f3c 9fbc 050e 98bb 5ebc a73c
00000020: 6108 1d3d 98b9 53bd 793d 1e3d ebc4 2dbd
00000030: a513 94bc 500d 1dbc 5e30 003d 7991 0cbd
00000040: 7a29 64bd c355 18bd 9e90 453c d57b 6e3d
00000050: cd8e 503d f8c6 973c be07 413d d14b 96bd
00000060: 27fb adbc 9309 123d 7374 833c 604d 15bc
00000070: c0c0 78bd c80e 413d 258b 6f3d bab2 94bd
00000080: c2db 763d 306d b53b 0483 66bc 8637 033d
00000090: 36d4 a0bb 927b 86bc 2447 4a3c 5ac6 e0bc
000000a0: da1b d63c 6322 543d d8e9 59bd 96fa 6ebc
000000b0: 28aa 943c 0934 fdbb 0b72 efbc a16f ad3c
000000c0: 0e9e 96bd c726 b6bc d0fb 63bc 7644 8bbd
000000d0: 63c0 b03c
0.043044046 0.004246685 0.050431117 0.02060762 -0.0058103027 -0.019438056 -0.004640343 0.020475563
0.03833807 -0.051690668 0.038632844 -0.042424124 -0.018075773 -0.0095856935 0.031296127 -0.03431842
-0.055703618 -0.037191164 0.012058405 0.058223564 0.050917435 0.018527493 0.047126524 -0.073386796
-0.021237923 0.035653662 0.016046738 -0.009112686 -0.060730696 0.047133237 0.058482308 -0.07260652
0.06026817 0.005536698 -0.0140693225 0.032035373 -0.00490811 -0.016416345 0.012346063 -0.027438331
0.026136328 0.051790606 -0.053201526 -0.0145861115 0.018147543 -0.0077271503 -0.029229185 0.021171393
-0.07354365 -0.022235287 -0.013915017 -0.06800167 0.021576112

residual_layers.0.layer_norm.weight f4 [64]
00000000: 0e92 6a3f cd26 be3f 4c8a 843f f622 823f
00000010: 07d6 733f e9eb 5e3f 8b89 783f ff08 743f
00000020: 86da 803f 59ca 7b3f c70a 633f 6f05 7c3f
00000030: c654 713f a83f 823f e788 673f 4e23 8d3f
00000040: 4e3c 733f 419e 653f 4c49 6a3f ebbd 6a3f
00000050: bcd3 643f c49e 6d3f fc5a 733f 168e c13f
00000060: b813 773f 65d9 753f d127 5b3f 8471 833f
00000070: f939 693f 38cd 6e3f 1390 6e3f aa59 733f
00000080: 01aa 883f d5ef 813f fe58 6b3f 2e18 693f
00000090: 5eeb 703f a031 573f 6278 6e3f a5d4 703f
000000a0: bad9 6d3f 95ac 793f 09c0 803f 132c 793f
000000b0: 9642 903f ef9d 683f f1c1 713f 7aad 6d3f
000000c0: 500a 673f bc14 733f 571d 713f b250 553f
000000d0: fc25 623f 1d03 703f 680a 673f 0d92 713f
000000e0: 0ad3 6d3f fdaa 613f fcaa 6c3f 8222 5d3f
000000f0: 706f 6a3f dca0 813f 0919 813f c578 6e3f
0.9162911 1.4855591 1.0354705 1.0166919 0.95248455 0.8707872 0.97084874 0.95326227
1.0066688 0.98355633 0.8868832 0.9844579 0.9426998 1.0175676 0.9044327 1.1026399
0.9501389 0.896946 0.9151809 0.9169604 0.8938558 0.9282038 0.95060706 1.5121486
0.96514463 0.9603484 0.8560763 1.0269017 0.91104084 0.9328189 0.9318859 0.9505869
1.0676881 1.0151316 0.91932666 0.9105252 0.9410914 0.84060097 0.9315244 0.9407447
0.9291035 0.97528964 1.0058604 0.97332877 1.127032 0.9086599 0.94436556 0.9284283
0.9025011 0.94953513 0.94185394 0.83326256 0.8833921 0.9375475 0.90250254 0.9436348
0.92900145 0.8815153 0.924484 0.8638078 0.9157629 1.0127215 1.0085765 0.9315303

residual_layers.0.layer_norm.bias f4 [64]
00000000: 0c6f fabc 53fd e1b9 5345 0abd bfff 9bbc
00000010: 82ef 7e3c 117f dc3c f4e2 a1bd c8b3 b3ba
00000020: 1b4a 0ebd 94b6 873b 1c7f f83b d18c 6bbd
00000030: 26b9 a53c 198a 3dbb f9a7 dc38 9348 743c
00000040: 826b 19bb 8bbe 98bb 06f0 993c 1a1a 803c
00000050: 5c3a e33c 207a a1bc 40bb c3bc 1c0c 593c
00000060: a20f ec3b 34e8 3bbd 70e4 96bc 0a8b 2f3c
00000070: a89c 223c 2d63 70bd 15f5 20bd da26 253d
00000080: 1052 acbc accb 82bc 6e3d 9b3a 2cb1 16bc
00000090: 23af f53c d81f e53b 64de 4b3d e1c9 7ebd
000000a0: 45a9 b93b 31e9 bf3c 5be9 14bd 47a6 5a3c
000000b0: 04b4 9ebc 5d46 bc3c 342a 80bb cce5 e33c
000000c0: 53b2 0bbc f39a d9bc d912 cc3c 2682 33bb
000000d0: ca1f f53b c7be a7bc 4f86 df3c 6940 d1bc
000000e0: 000d 0c3d e77c 183c 0812 31bc 48e1 913c
000000f0: d7a8 c8bc df11 243c 5734 b53c 123b 10bd
-0.03057053 -0.00043104085 -0.03375752 -0.019042848 0.015560033 0.026916059 -0.07904616 -0.0013710195
-0.03473864 0.004141638 0.007583512 -0.05750734 0.020229887 -0.0028921424 0.00010521705 0.014909881
-0.0023410027 -0.0046613864 0.01879121 0.015637446 0.027737789 -0.019711554 -0.023892999 0.013247516
0.007204012 -0.045875743 -0.018419474 0.010714302 0.009925045 -0.05868833 -0.03929623 0.040320255
-0.021035224 -0.015966259 0.0011843869 -0.0091975145 0.029990738 0.0069923215 0.049772635 -0.062204245
0.0056659305 0.023426624 -0.036355358 0.013345308 -0.019372948 0.02298277 -0.003911281 0.027819537
-0.0085264025 -0.026563143 0.024911331 -0.0027390807 0.007480596 -0.020476712 0.027285723 -0.025543408
0.034192085 0.009307123 -0.010807522 0.017807618 -0.024494572 0.010014026 0.022119684 -0.035212584

residual_layers.0.time_layer.layers.0.self_attn.in_proj_weight f4 [192, 64]
00000000: 97ec 793c 686c 573e c6bb 1dbd 7691 83bd
00000010: 8ab3 31bd d19e b23d e321 dbbd ebda 103c
00000020: 29a2 7dbc 0601 dabd fcb9 8b3d ebf2 4bbd
00000030: 9078 06be 1afe 59bd 793e 0bbe 0c87 e93c
00000040: df6f b53b 12ab 68bd c56e 5f3d 0856 d03d
00000050: ee4f 72bd 3546 97bd 3805 1e3d cd70 8ebe
00000060: e2d3 24bd 6ba9 fa3d ac0f 293d 34d5 bdbd
00000070: bd3f ae3c 2e4b 3ebe 2cca 03be c2dc a0bd
00000080: 2487 bbbd a7a1 3d3d f251 b33d a213 79bd
00000090: a809 1f3e f521 8cbd 0ea8 0bbd 034b 123e
000000a0: 5c94 a6bd e0b8 02bd 8e64 d3bc 6c01 993d
000000b0: 3509 a03d 8196 01be 838b c93d 84bc 80bb
000000c0: 58a6 07be 8e2d d83d 3a93 0a3d 2aad 86bd
000000d0: 40e1 09be 0076 483d 4ac9 fc3d 016a 5cbd
000000e0: 2625 343d febf 63be 2dc7 473d af4e c2bc
000000f0: 2923 e4bd e1b5 403c d793 cc3d 4dbf 8ebd
00000100: 705b 623c 2e7d c13e 86da 613d 27c9 fc3d
00000110: 299f 8a3c 01a7 4f3d 5067 f73c 8753 703d
00000120: d660 59bd b400 dbbd 8e47 91bc 7c53 ccbd
00000130: 3aca b4bd 34b5 a73c 8b1c 19be a6d6 11be
00000140: 03ab b5bc 6b00 963c c57b 7f3d 49a9 dbbd
00000150: 6ab3 e3bd a1bf c2bd 09d9 033e 732f 76be
00000160: 8879 1ebc 9c4d 7b3a bf28 f63c 677d 123e
00000170: 2e52 0fbc e946 a2bd 1a48 ebbc 787e d3bd
00000180: c495 0f3c 2285 413c 2658 e43d d450 afbd
00000190: 52d2 0dbe d8fd 9dbd b62f 05be 8fe4 3d3d
000001a0: f1a6 2bbd b4ec c2bd bbbf a13d 3e80 df3d
000001b0: 4f2a b53d 6426 973d 616a 0ebd 3e1f d33d
000001c0: f16e 323d e04c 613c 57eb 0fbe 6c87 c23d
000001d0: c2fe debc 663f 13be 51d3 76bd 39ed c53d
000001e0: e63b 59bd 159c f7bc 715e 8bbd a845 053e
000001f0: e876 54bc 096f 91ba a23e 07ba 5a2d a33d
00000200: e954 58bd 0169 27bf 1823 0bbe 0f8a 00bd
00000210: 2cf2 dfbd 297f 783d 291f 55bd f99c 9a3d
00000220: 08de 02bd e2b6 823d 052b 473d 197e da3d
00000230: 6d7f 973c 4390 bfbd 237a 82bb 74c4 0a3e
00000240: 1818 19bd 7f45 b1bc 91ff 17be 21a1 90bb
00000250: b4cc b0bd f49c ec3d e0d4 e63d a668 1e3f
00000260: 128a 253c df66 a23c 9bd6 1a3d f864 f43d
00000270: 5340 db3d 5e3a 76bb dff3 06be f465 553c
00000280: 5779 44bd 736f 9ebd e950 d53d 5bd1 a7bc
00000290: e170 02bd 7846 5fbd 1df7 74bd 28d5 bdbd
000002a0: a0cd f73d 323e e6bd 0bb6 0fbe 5b36 ef3d
000002b0: 75e2 c83d d027 e3b7 38da 443d 63af a5bc
000002c0: ce5f ae3c 8b53 ac3d ea9a bc3c 0fad ea3b
000002d0: 4e72 ac3d 50e3 ffbd b338 cbbc 4a02 5c3d
000002e0: 0c4a 17be def5 17be 743c 01bc f42b 89bd
000002f0: e690 c93d ac38 823d 5d40 e83c f75d 8a3d
00000300: 4278 783d fbec a73e 69e9 de3d 6f47 57bd
00000310: c301 a0bd 9101 eebd 7b6c 5c3c 67a4 d13d
00000320: eb59 533d 7253 6c3d 0944 c03d d31d 563d
00000330: 6bb7 f33d 72f9 323e 2e3a c4bd b0ac 4cbe
00000340: b27b 76bd 5f69 e5bd 3af5 ffbd 6a08 683c
00000350: d2e3 113d 7c54 723d 9d5e 1a3e b597 eabe
00000360: d9c1 fa3d f22e 91bc c262 59bc 7bb0 e43d
00000370: d787 b93c 1c83 8a3d eb44 613d d440 9b3d
00000380: 4696 fabd 17d7 09bd 9c90 10be 2249 083e
00000390: 7f4f 913d 1529 e03c 1a89 59bc c814 ba3c
000003a0: 6548 2a3d 5ca1 97bd a4b3 9cbb 61e5 9bbc
000003b0: 3a92 15be 87dc b1bd c40d 553d 9be8 11be
000003c0: f8df 423d c093 4dbd 5cf8 f3ba c5a2 ad3d
000003d0: 5b37 f33c 712b d93d e40a 253d 626c bf3d
000003e0: a7f2 dc3c 569d 8a3d 7f77 f3bd f902 e5bd
000003f0: 23d0 b83c 2746 c5bd 37f5 c6bd 859f b0bc
0.015254161 0.21037447 -0.038509153 -0.06424229 -0.043384112 0.08721698 -0.10699823 0.008841257
-0.0154805565 -0.106447265 0.06822583 -0.04979221 -0.13131928 -0.053220846 -0.1359805 0.028506778
0.0055370177 -0.05680377 0.054548997 0.10172659 -0.05915826 -0.07386438 0.038579196 -0.27820435
-0.04024113 0.12239345 0.04127471 -0.09269181 0.021270627 -0.18583366 -0.12870091 -0.07854606
-0.091566354 0.04629674 0.08755864 -0.06080974 0.15531027 -0.06842414 -0.034095816 0.14286427
-0.08133766 -0.03191459 -0.025804784 0.07470974 0.07814256 -0.12655069 0.09841063 -0.003928723
-0.13247049 0.10555564 0.033831812 -0.06575997 -0.13464832 0.04894066 0.1234308 -0.05381203
0.04398074 -0.22241208 0.048773933 -0.02371916 -0.11139519 0.011762113 0.09989136 -0.069700815
0.013815746 0.37790817 0.05514004 0.12343054 0.016921597 0.050696377 0.03020063 0.058673408
-0.053070866 -0.106934935 -0.017734315 -0.09976861 -0.08827634 0.020472147 -0.14952295 -0.14242038
-0.022176271 0.018310746 0.062373895 -0.10725648 -0.11118205 -0.095092066 0.12875761 -0.24041538
-0.00967253 0.0009586455 0.030048726 0.1430565 -0.0087476205 -0.07923681 -0.028720904 -0.103268564
0.008763734 0.0118115265 0.111496255 -0.085603386 -0.13849762 -0.077144325 -0.13006482 0.04636055
-0.041907255 -0.09517804 0.07897898 0.10913132 0.0884596 0.07380369 -0.03476942 0.10308693
0.043562833 0.013751239 -0.14054619 0.09498486 -0.027221087 -0.14379653 -0.06026012 0.09664387
-0.05303564 -0.030225793 -0.06805123 0.13014853 -0.012967803 -0.0011095713 -0.00051591743 0.079676345
-0.05281535 -0.653946 -0.13587606 -0.031381663 -0.109348625 0.060668144 -0.05203167 0.075494714
-0.031950027 0.063825384 0.04862501 0.106685825 0.018493379 -0.093536876 -0.003981845 0.13551503
-0.037376493 -0.021639584 -0.14843585 -0.0044137393 -0.08632794 0.11553374 0.112710714 0.6187843
0.010103719 0.019824443 0.03780232 0.11933321 0.10705628 -0.003757141 -0.13178967 0.013024796
-0.04796728 -0.07736101 0.10415823 -0.02048557 -0.03184593 -0.054510564 -0.059805978 -0.09269172
0.12099767 -0.112423316 -0.14034288 0.11680289 0.09808818 -2.7079048e-05 0.048059672 -0.020225232
0.021285918 0.08414372 0.023023088 0.0071617435 0.084202394 -0.12494528 -0.02480731 0.05371312
-0.1477434 -0.14839885 -0.007887948 -0.066978365 0.0984209 0.063584656 0.028351003 0.067562036
0.06066156 0.3279799 0.10884363 -0.05255836 -0.07812836 -0.116213925 0.013453598 0.102364354
0.051599424 0.057696767 0.09387977 0.052274536 0.119002186 0.17477968 -0.095814094 -0.1998775
-0.06017656 -0.112017386 -0.12497945 0.014162162 0.035617657 0.0591626 0.15075155 -0.45818868
0.12244005 -0.01772258 -0.013268175 0.111664735 0.022647781 0.067632884 0.054997366 0.07580724
-0.12235694 -0.03365239 -0.14117664 0.13309148 0.07095241 0.02736334 -0.0132773165 0.022714987
0.041572947 -0.07403824 -0.004782157 -0.019030275 -0.14606562 -0.086846404 0.05201508 -0.14248888
0.047576874 -0.050189734 -0.0018613446 0.084783114 0.029689481 0.10603989 0.04029359 0.09346844
0.026971174 0.06768291 -0.118880264 -0.111822076 0.022560185 -0.09632521 -0.0971474 -0.02156044
