results/DDPM/SEQ_LEN/252/model_final.pth (torch, 661767 bytes, 26 tensors)

layer_x.weight f4 [128, 53]
0	0xbde78aba	-0.11305757
1	0x3d4952f0	0.04915136
2	0x3cd47351	0.025933893
3	0xbd34996b	-0.044091623
4	0xbe269f8b	-0.16271798
5	0xbd5727c9	-0.052528176
6	0x3d5e1e98	0.054228395
7	0x3e07feba	0.13280764
8	0x3da2b680	0.07944965
9	0xbc3f2f84	-0.011669043
10	0x3c873ddd	0.01650899
11	0xbd880703	-0.066419624
12	0x3bc5a553	0.006031671
13	0xbd69edf5	-0.0571117
14	0x3c117ff9	0.008880609
15	0x3e432c57	0.19059883
16	0xbe000e80	-0.12505531
17	0x3d87d96e	0.06633268
18	0x3be5ac68	0.007009078
19	0xbd6af3fa	-0.05736158
20	0xbd3b02f8	-0.045657128
21	0xbd3cda47	-0.046106603
22	0x3c8d1719	0.017222928
23	0xbd9b45f1	-0.075817
24	0xbd26670b	-0.040625613
25	0x3c80f979	0.015743958
26	0xbd6861e4	-0.05673398
27	0xbc9f8a26	-0.019475054
28	0xbd9a5e8b	-0.07537564
29	0x3d86daa5	0.06584672
30	0x3c9a2411	0.018816026
31	0x3db25d7f	0.08709239
32	0xbd60bede	-0.054869525
33	0x3dca4b7b	0.09877678
34	0x3d02c0cb	0.031922143
35	0xbbf468e2	-0.007458792
36	0x3d1771ad	0.036973644
37	0xbd8b7a5b	-0.06810447
38	0x3db16509	0.08661849
39	0x3d65e1bd	0.056123484
40	0x3d579f3d	0.052642096
41	0x3c4af7af	0.012388154
42	0x3c7c94af	0.015416308
43	0xbd0efb18	-0.03490743
44	0xbc4509b6	-0.012026241
45	0x3d5260e1	0.051361922
46	0x3ddcb779	0.10777182
47	0x3d52634e	0.051364236
48	0xbe1c1ffb	-0.15246575
49	0xbd894265	-0.06702117
50	0x3d0fb9ee	0.035089426
51	0x3d954686	0.07288842
52	0xbdd722f7	-0.10504716
53	0xbc8a8393	-0.016908443
54	0x3dcf3e94	0.10119358
55	0xbd94d64e	-0.07267438
56	0xbbf12328	-0.0073589273
57	0xbdb27b60	-0.08714938
58	0xbbe81ce1	-0.0070835208
59	0x3d4fa26c	0.050692007
60	0xbd864652	-0.06556381
61	0x3d9c7493	0.07639422
62	0xbd7ec421	-0.06219876
63	0xbe02262e	-0.12709877
64	0x3ddda07c	0.108216256
65	0x3e1fe10d	0.15613194
66	0xbdb951fc	-0.090488404
67	0x3deab690	0.11460602
68	0xbe100661	-0.14064933
69	0xbe327bfe	-0.17430112
70	0x3e27a88b	0.16372888
71	0xbb471275	-0.0030375991
72	0xbd0c739a	-0.034289934
73	0xbe0570f9	-0.13031377
74	0xbe058f99	-0.1304306
75	0x3d64a472	0.05582089
76	0xbcc9e4c3	-0.024645215
77	0x3d44b9b5	0.048028667
78	0xbe219750	-0.15780377
79	0x3dddfd31	0.10839308
80	0x3bd290c1	0.0064259474
81	0xbdaf8381	-0.08570004
82	0xbcf6a184	-0.030106314
83	0x3e1684bb	0.1469907
84	0x3d61c4fd	0.055119503
85	0xbda58350	-0.080816865
86	0xbe0e68ac	-0.13907117
87	0xbd9a03c7	-0.07520252
88	0x3e5853ba	0.21125689
89	0x3ce5e28e	0.028062131
90	0x3cc91efc	0.024550907
91	0xbc6f21da	-0.014595473
92	0x3c86a536	0.0164362
93	0xbd821dca	-0.06353338
94	0xbcc49a64	-0.0239994
95	0xbd30316e	-0.04301589
96	0xbb378fa9	-0.0028009212
97	0xbdc19257	-0.0945174
98	0x3e1b1234	0.15143663
99	0xbd49f95e	-0.04931008
100	0xbe0e0ac4	-0.13871294
101	0xbd80d60e	-0.06290828
102	0x3e0e1f71	0.13879181
103	0xbd9f66c1	-0.077832706
104	0x3e4eb929	0.2018782
105	0x3e2922ef	0.16517232
106	0xbd10a523	-0.035313737
107	0xbde0995a	-0.109667495
108	0x3d945318	0.072424114
109	0x3c9e945c	0.019357853
110	0xbc9f4ebc	-0.019446723
111	0x3d8741ff	0.06604385
112	0xbd6fa757	-0.058509197
113	0x3dccc145	0.09997801
114	0xba4cfab4	-0.000781934
115	0x3e3ce8e9	0.18448223
116	0xbd61c9d7	-0.05512413
117	0x3c13c63d	0.009019432
118	0xbc033cad	-0.008010072
119	0xbdc2e06c	-0.09515461
120	0xbdb98123	-0.09057834
121	0xbcbc6e3e	-0.023001786
122	0xbdc2619b	-0.09491273
123	0x3c5fd6eb	0.01366208
124	0xbc133db3	-0.008986878
125	0x3d046854	0.032326058
126	0x3cf0a5ee	0.029375996
127	0xbd98382d	-0.0743259
128	0x3a7f4702	0.0009738059
129	0xbb60c1a8	-0.0034295116
130	0xbd0eecbd	-0.03489374
131	0xbdf0f46f	-0.11765372
132	0x3ccdf44e	0.025140908
133	0x3e2779ed	0.16355105
134	0xbc8581bf	-0.01629722
135	0x3de60b9a	0.112326816
136	0x3d12d45e	0.03584706
137	0x3d2b7168	0.0418562
138	0x3d354e18	0.04426393
139	0x3e0a4d77	0.13506113
140	0xbdd3d949	-0.10344178
141	0x3e02de8e	0.1278021
142	0xbd1fc1ff	-0.03900337
143	0xbae4b482	-0.0017448815
144	0xbdf93508	-0.12168318
145	0xbc788b47	-0.015169925
146	0xbd4a4a83	-0.049387466
147	0x3d7b4b69	0.061351214
148	0x3e0c4194	0.13696891
149	0x3d803174	0.062594324
150	0xbcc1e91f	-0.023670731
151	0x3d8cb2ad	0.06870017
152	0x3c4a2273	0.012337315
153	0xbde2bd9d	-0.11071322
154	0xbda299b5	-0.079394735
155	0x3de9e8ee	0.11421381
156	0x3bf833b0	0.007574521
157	0xbd011396	-0.03151282
158	0xbd7e2f30	-0.06205672
159	0x3dec478a	0.115370825
160	0xbb4709d3	-0.0030370846
161	0x3c173656	0.009229263
162	0xbc9a8487	-0.018862022
163	0xbaccaa21	-0.0015614667
164	0xbdb1dcd5	-0.086846985
165	0xbc10f893	-0.008848327
166	0xbce4ca26	-0.027928423
167	0xbddd0f9a	-0.107939914
168	0x3cf0910d	0.02936604
169	0xbd8a6b00	-0.0675869
170	0xbc5e02fc	-0.013550516
171	0x3cd50c7e	0.026006933
172	0x3de510e0	0.11184859
173	0xbe445f28	-0.19176924
174	0x3db0d0d4	0.08633581
175	0x3cc40b3f	0.023931144
176	0x3d512981	0.05106497
177	0xbd34c9cf	-0.044137772
178	0x3e287967	0.16452561
179	0x3d5c7c21	0.053829316
180	0xbd80113e	-0.06253289
181	0xbcf876bf	-0.03033006
182	0xbd405edd	-0.04696547
183	0xbc7fd565	-0.015614842
184	0xbc3544a5	-0.011063729
185	0x3d8d7595	0.069071926
186	0xbdd56a6e	-0.104206905
187	0xbc974839	-0.018467056
188	0xbd9f5d48	-0.07781464
189	0xbc9e0f1f	-0.01929432
190	0x3ddde3a5	0.108344354
191	0x3d991e0d	0.07476435
192	0x3d9a7b90	0.07543099
193	0xbdc3391a	-0.09532376
194	0x3d579d60	0.05264032
195	0x3d07579d	0.03304254
196	0x3cd1d9d5	0.025616566
197	0x3d516d7c	0.051129803
198	0xbdf92bff	-0.12166595
199	0xbc620375	-0.0137947695
200	0xbd82a3cb	-0.06378897
201	0x3e19db38	0.15025032
202	0x3da85282	0.08218862
203	0x3d25ae34	0.040449336
204	0xbd612cd4	-0.054974392
205	0xbe77660a	-0.24160019
206	0x3c9c3ab2	0.019070957
207	0x3b84b15d	0.0040494637
208	0x3d9449d6	0.072406456
209	0xbdcc2826	-0.09968595
210	0xbdef8802	-0.11695863
211	0xbc9a7784	-0.018855818
212	0x3d01c685	0.031683464
213	0xbd46c509	-0.04852775
214	0x3d039125	0.032120842
215	0x3c6ca66e	0.014443977
216	0x3d5bbf17	0.053649034
217	0xbd900d52	-0.07033791
218	0x3d5484a4	0.05188431
219	0xbc74c52c	-0.014939588
220	0xbe3a5b9c	-0.18199009
221	0xbd2e2d1c	-0.04252349
222	0x3e23f40f	0.1601107
223	0xbdb73f60	-0.08947635
224	0xbd1d3f2c	-0.038390324
225	0xbd61b807	-0.055107143
226	0x3cd0e48d	0.025499607
227	0xbdcbac96	-0.099450275
228	0x3d2b6b7c	0.041850552
229	0x3d8d96d1	0.069135316
230	0x3dd1e1f3	0.102481745
231	0xbca877f5	-0.020565012
232	0xbd419103	-0.047257435
233	0x3ce8941d	0.028390938
234	0x3c69fff9	0.01428222
235	0xbdcfb9e1	-0.101428755
236	0x3bf40775	0.007447178
237	0xbd1088c5	-0.035286684
238	0x3c9f0b6d	0.019414628
239	0xbc5e7a68	-0.013578989
240	0x3c91ce2a	0.017798502
241	0xbd04c032	-0.032409854
242	0x3b246648	0.0025085378
243	0x3c93695d	0.017994577
244	0xbd23559f	-0.039876577
245	0x3d4b1bb1	0.049586955
246	0xbd9dfd55	-0.07714335
247	0xbd94a026	-0.072571084
248	0x3e29d30e	0.16584417
249	0x3c827c47	0.0159284
250	0x3d8f19ca	0.06987341
251	0xbc5798f6	-0.013159027
252	0xbdc13d8a	-0.09435566
253	0x3e192ab0	0.1495769
254	0xbda6d915	-0.08146874
255	0xbd8f58f5	-0.06999389

layer_x.bias f4 [128]
0	0x3e8ec191	0.27882054
1	0x3d320741	0.04346395
2	0x3e82ed28	0.2557156
3	0x3e852ef1	0.26012376
4	0x3ea5069a	0.322316
5	0x3e2c664c	0.16835898
6	0x3d581929	0.05275837
7	0x3e019b4f	0.12656902
8	0xbcda52c0	-0.026650786
9	0x3e8f770f	0.28020522
10	0x3e72674d	0.23672219
11	0x3e365a0a	0.17807785
12	0x3e897245	0.26844993
13	0xbc0d0d9c	-0.008609202
14	0x3e6d623d	0.23182006
15	0x3e885788	0.2662928
16	0x3e799537	0.24373327
17	0x3e664c67	0.22490083
18	0x3e9e6756	0.30938214
19	0x3e40bdba	0.18822375
20	0x3ea420f3	0.32056388
21	0x3e97d05d	0.29651156
22	0x3dca7330	0.098852515
23	0x3e6bd7a9	0.23031487
24	0x3c36ecc8	0.0111648515
25	0x3e53c6bf	0.20681284
26	0x3dc3cb21	0.09560228
27	0x3e47a23f	0.19495486
28	0xbc85dbeb	-0.016340217
29	0x3e15e012	0.14636257
30	0x3e658ded	0.22417422
31	0x3d806c6f	0.06270682
32	0x3e561cba	0.20909396
33	0x3e582b29	0.21110214
34	0x3e5ab881	0.21359445
35	0x3d6ec37c	0.058291897
36	0x3db1d545	0.08683256
37	0x3e15c247	0.14624892
38	0x3db88fb6	0.09011786
39	0x3ccf3fb0	0.025298923
40	0x3e95f3d3	0.29287586
41	0x3e51b59e	0.20479438
42	0x3ea4a200	0.32154846
43	0x3d87221c	0.06598303
44	0x3e87a2cf	0.264914
45	0x3d8ebbf1	0.06969441
46	0x3e12e676	0.14345726
47	0x3e4fcab4	0.20292169
48	0xbd52ecfc	-0.051495537
49	0x3e75b229	0.23993744
50	0x3d120cd0	0.03565675
51	0x3e6413d3	0.22273187
52	0x3e10e639	0.14150323
53	0x3e7cf070	0.24701095
54	0x3e949946	0.29023188
55	0x3ea0a600	0.31376648
56	0x3de4be4c	0.11169109
57	0x3e312c9d	0.17302175
58	0x3e08eefe	0.13372418
59	0x3e809eb3	0.25121078
60	0x3df4641f	0.11933159
61	0x3db76bd1	0.08956111
62	0x3e62bd90	0.22142625
63	0x3ea20fc2	0.31652647
64	0x3e68f1ba	0.22748461
65	0x3d297486	0.04137089
66	0x3db22e4a	0.08700235
67	0x3e8c75ec	0.27433717
68	0x3e5aeba0	0.21378946
69	0x3e1f24b4	0.15541345
70	0x3e741ab5	0.23838313
71	0x3e4b9930	0.19882655
72	0x3e55e8d1	0.20889594
73	0x3e45fb2d	0.19334097
74	0x3e3fcfc1	0.18731596
75	0x3d9fc7ce	0.078017816
76	0x3e725e0a	0.23668686
77	0x3d22d462	0.039753325
78	0x3e46ad02	0.19401935
79	0x3e93fe79	0.28905085
80	0x3ded6f22	0.115934625
81	0x3e88aef6	0.26695985
82	0x3c7a57d8	0.015279733
83	0x3de411b4	0.11136189
84	0x3e70a7aa	0.23501459
85	0x3e63462f	0.22194742
86	0x3e28fc49	0.16502489
87	0x3c291735	0.010320474
88	0x3e8ca849	0.2747214
89	0x3e81351b	0.2523583
90	0x3e77cc1c	0.24198955
91	0x3dc441e8	0.09582883
92	0xbd0a58e5	-0.033776183
93	0xbd441021	-0.047866944
94	0x3e9b670d	0.3035206
95	0x3e39e600	0.18154144
96	0x3e55b9f8	0.20871723
97	0x3e456d60	0.19280005
98	0x3e915e19	0.28392103
99	0x3ce52588	0.027971998
100	0x3eb1855a	0.34672052
101	0x3e9c064b	0.3047355
102	0x3dd843ec	0.1055983
103	0x3e57e1ff	0.21082304
104	0x3dc4ab3c	0.09602973
105	0x3e8ab3a4	0.2709018
106	0x3ceae001	0.028671267
107	0x3e82741e	0.25479215
108	0x3e794a11	0.2434466
109	0x3e60d9fa	0.21958151
110	0x3e318757	0.17336784
111	0x3ccd2216	0.025040668
112	0x3df88875	0.12135402
113	0x3e65e405	0.22450264
114	0x3ea6a42c	0.32547128
115	0x3e92a90c	0.28644598
116	0x3d83af3b	0.06429907
117	0x3d9d0edf	0.07668852
118	0x3d6732f9	0.056445096
119	0x3c6cbd8b	0.014449487
120	0x3e9a4d0d	0.3013691
121	0x3e510b3b	0.2041444
122	0x3e42942f	0.1900184
123	0x3e2db7d7	0.1696466
124	0x3e310285	0.17286117
125	0x3d995cbd	0.074883915
126	0xbc23a38e	-0.009987725
127	0x3d10689e	0.03525602

layer_t_1.weight f4 [128, 128]
0	0xbd75e354	-0.06003125
1	0x3be299cd	0.006915307
2	0xbc209b83	-0.009802702
3	0x3c2d5af7	0.01058077
4	0xbd7126b4	-0.0588748
5	0xbd8b829f	-0.06812023
6	0xbca6cb9c	-0.02036076
7	0xbb91a257	-0.0044444012
8	0xbd0272e2	-0.031847842
9	0x3bb33604	0.0054690856
10	0xbd56c706	-0.052435897
11	0xbce00f43	-0.027351027
12	0x3cfa3121	0.030541005
13	0xbca73fb5	-0.02041612
14	0x3d30ef3f	0.043196913
15	0xbd93dfcf	-0.072204225
16	0x3cf280af	0.029602377
17	0x3d5016b6	0.05080291
18	0x3da8c86f	0.08241355
19	0x3d6ff96b	0.058587473
20	0xbd068fe6	-0.032852076
21	0x3cbbd0a1	0.02292663
22	0x3d7cfda6	0.061765336
23	0x3c9dacad	0.019247377
24	0xba435716	-0.00074516365
25	0x3beb90d3	0.0071888953
26	0x3c878106	0.016541015
27	0x3cd674ac	0.02617868
28	0xbcf9cac7	-0.0304922
29	0xbc350515	-0.011048575
30	0x3d896ef0	0.06710613
31	0xbaeafac0	-0.0017927513
32	0x3d1ea4cd	0.038731385
33	0xbbfdd7ae	-0.0077466583
34	0x3b13c15f	0.0022545678
35	0xbc8beda8	-0.017081097
36	0x3d6ab77b	0.057303887
37	0xbd9195e4	-0.071086675
38	0xbcdd16a9	-0.026988344
39	0x3b86d109	0.0041142744
40	0xbd5bc940	-0.053658724
41	0x3d73f7f6	0.059562646
42	0x3da1059b	0.07862397
43	0x3d97746e	0.07395254
44	0x3d53774d	0.051627446
45	0xbd3158fe	-0.04329776
46	0x3d455c12	0.04818351
47	0xbd63407e	-0.055481426
48	0xbcbdbdc9	-0.023161786
49	0xbdb4b10e	-0.08822833
50	0x3cc12f5f	0.023582159
51	0xbd6c28b2	-0.057655998
52	0xbd3abcd8	-0.04559025
53	0x3dc37c2a	0.09545167
54	0x3b5cc2b7	0.0033685395
55	0xbd93f75e	-0.07224916
56	0x3d84dc54	0.06487337
57	0xbdf96d37	-0.12179034
58	0x3d9eeb6f	0.07759749
59	0x3c3e0010	0.011596695
60	0xbd342339	-0.043978903
61	0x3dc46039	0.095886655
62	0x3c744a36	0.014910271
63	0xbbdadc0c	-0.0066790637
64	0x3d420256	0.04736551
65	0xbd997361	-0.0749271
66	0x3c8e943a	0.017404664
67	0xbd9cf4cf	-0.07663881
68	0xbcd19e69	-0.025588231
69	0xbc9350ee	-0.017982926
70	0xbcca5835	-0.024700264
71	0xbcb6294d	-0.02223649
72	0x3daeac71	0.08528984
73	0x3d9e62cb	0.07733687
74	0xbbe05840	-0.0068464577
75	0x3bf916db	0.0076016015
76	0xbd2604f0	-0.040532053
77	0xbc650f0c	-0.013980638
78	0x3c0a1fc4	0.008430425
79	0xbd2b3707	-0.041800525
80	0xbd2addef	-0.04171556
81	0x3d7baba9	0.061443005
82	0x3d8a4661	0.06751705
83	0x3d28a648	0.041174203
84	0xbcac23ff	-0.021013258
85	0x3d2d937f	0.04237699
86	0x3d02a00b	0.03189091
87	0x3d072342	0.03299261
88	0x3d87c07d	0.06628511
89	0xbd888c1f	-0.06667351
90	0x3d5b9358	0.053607315
91	0x3cc3ac87	0.023885978
92	0x3c11def0	0.00890325
93	0x3d76d835	0.060264785
94	0xbd9b8ab7	-0.07594817
95	0xbd27c2ea	-0.04095737
96	0xbd676e81	-0.05650187
97	0x3ac51135	0.0015035035
98	0x3d750094	0.059815004
99	0xbd1ae873	-0.037819337
100	0x3d98d77b	0.07462975
101	0xbbba694b	-0.0056888214
102	0x3d5fc0da	0.054627277
103	0x3bf95d68	0.007610012
104	0x3cf91c98	0.030409142
105	0xbd6e30d3	-0.05815203
106	0xbca2894b	-0.019840857
107	0x3c2cb740	0.010541737
108	0xbbec5187	-0.0072118673
109	0xbd26a816	-0.040687643
110	0x3a9f5e35	0.0012158813
111	0xbcbcc270	-0.023041934
112	0x3d2292c5	0.03969075
113	0x3cf883c6	0.030336272
114	0xbc06e1c6	-0.0082325395
115	0xbd5abce8	-0.05340281
116	0xbd5f08ab	-0.054451626
117	0xbd3aa07f	-0.045563217
118	0x3ceaa49f	0.02864295
119	0xbb3c1004	-0.002869607
120	0x3d9b3996	0.07579343
121	0xbd0d62c5	-0.034518022
122	0xbc8b13e9	-0.016977267
123	0x3d3645a9	0.044500027
124	0x3cd1fe89	0.025634067
125	0x3d121186	0.035661243
126	0x3ce89423	0.02839095
127	0xbd152eca	-0.036421575
128	0x3d87e5a7	0.066355996
129	0xbc54cd4e	-0.012988402
130	0xbbada586	-0.005299273
131	0xbd61fad4	-0.05517085
132	0xbdaaf7eb	-0.08348068
133	0xbda1df1d	-0.079038836
134	0x3d46d898	0.048546404
135	0xbc971322	-0.01844174
136	0xbd1745f1	-0.036931936
137	0x3d982aae	0.074300155
138	0x3d29ddab	0.041471165
139	0x3d8611a0	0.065463305
140	0xbcde69a2	-0.027149979
141	0x3c98fe11	0.018675836
142	0xbd86bd31	-0.06579054
143	0xbcadc00a	-0.021209735
144	0x3d67a5bc	0.05655454
145	0x3d582f17	0.052779283
146	0x3d36f9c0	0.044671774
147	0xbd44c275	-0.04803701
148	0x3b91e62d	0.004452488
149	0xbda2a4d6	-0.07941596
150	0x3ce888ab	0.02838548
151	0xbd2ea0f9	-0.042633984
152	0xbdaf1dec	-0.08550629
153	0xbbf88931	-0.007584714
154	0xbd84f949	-0.0649286
155	0x3c904a19	0.017613458
156	0x3d81d890	0.06340134
157	0xbd84cc67	-0.06484299
158	0x3d74cb27	0.059764054
159	0x3c2527e4	0.010080311
160	0x3d178619	0.03699312
161	0xbd76eb0b	-0.06028275
162	0xbd5410c8	-0.051773816
163	0x3ad8a3f1	0.001652835
164	0x3db219a0	0.08696294
165	0x3d73edba	0.059552886
166	0xbde6845d	-0.11255715
167	0x3c66c9b3	0.014086175
168	0x3d03a96e	0.032144003
169	0xbd0106ec	-0.03150074
170	0x3d16a8f7	0.03678223
171	0xbd91707e	-0.07101534
172	0x3d2ab5ea	0.041677393
173	0xbabb7a52	-0.0014303422
174	0x3d9e4b4b	0.07729205
175	0xbcfe4d99	-0.03104286
176	0x3b5783b2	0.0032884893
177	0x3d22a5f1	0.039709035
178	0xbd06a749	-0.03287438
179	0x3d2eeb71	0.042705003
180	0xbd0d96ca	-0.03456763
181	0x3c24ce9f	0.010059028
182	0xbd3b8a7a	-0.04578636
183	0xbcbc7f7a	-0.023010004
184	0x3c51f8b7	0.012815646
185	0xbd49e775	-0.049293
186	0x3da12acf	0.07869493
187	0x3d245bda	0.04012666
188	0xbd2ed7cf	-0.04268628
189	0x3d2d4939	0.04230616
190	0xbcf3a895	-0.029743472
191	0x3da4bf30	0.080442786
192	0xbd002362	-0.031283744
193	0xbc7b1f16	-0.015327236
194	0xbc6869f8	-0.014185421
195	0x3d621f66	0.055205725
196	0x3a10d25e	0.0005524511
197	0xbd039918	-0.032128423
198	0xbc0b091c	-0.008486059
199	0x3c14712a	0.009060184
200	0xbdb54924	-0.08851841
201	0xbbbdb663	-0.0057895645
202	0x3d0a4c27	0.03376403
203	0xbd66decc	-0.05636482
204	0xbcbccbbe	-0.02304637
205	0x3d825c42	0.06365253
206	0x3d0c9c37	0.034328666
207	0x3ce27f06	0.02764846
208	0xbd0c8270	-0.034304082
209	0xbd192701	-0.037390713
210	0x3c75bb9b	0.014998342
211	0xbd171a10	-0.03689009
212	0xbbd8a044	-0.006610902
213	0x3d55acf7	0.052166905
214	0x3d23c734	0.039984897
215	0x3d7e7128	0.062119633
216	0xbd3bfff0	-0.045898378
217	0xbd8f228a	-0.0698901
218	0x3cb59b84	0.022168882
219	0xbd15c527	-0.036564972
220	0xbd699b0d	-0.057032634
221	0xbc7dc196	-0.015488049
222	0xbd52ac23	-0.051433694
223	0xbdbcb46c	-0.092141
224	0xbda65160	-0.0812099
225	0xbc095dd1	-0.008384184
226	0xba962366	-0.0011454641
227	0x3d2b867e	0.04187631
228	0x3d1da3a6	0.038486145
229	0xbd0a8e96	-0.033827387
230	0x3d7cf304	0.061755195
231	0x3d290538	0.041264743
232	0x3d2f24bc	0.042759642
233	0xbb98c043	-0.0046615913
234	0xbdb9e2f2	-0.090764895
235	0xbd2897bc	-0.04116033
236	0x3cfdf971	0.031002732
237	0xbcca5b98	-0.024701878
238	0x3cef5cac	0.029218994
239	0x3d3d2031	0.04617328
240	0xbc61aa2c	-0.013773482
241	0x3d591294	0.052996233
242	0x3d66d850	0.056358635
243	0x3d9135f9	0.070903726
244	0x3d58c7ca	0.05292491
245	0xbcf45dbb	-0.02982985
246	0xbb7eb15c	-0.0038863039
247	0x3c005f84	0.007835273
248	0xbd45e1ee	-0.048311166
249	0xbd7436c8	-0.059622556
250	0xbdbd9550	-0.09256995
251	0x3dca33fa	0.09873195
252	0xbd927394	-0.07150951
253	0xbda8d01c	-0.08242819
254	0xbc81f8bd	-0.015865678
255	0xbca749a1	-0.020420851

layer_t_1.bias f4 [128]
0	0x3d920779	0.071303315
1	0xbb84df0b	-0.004054909
2	0xbd6e0a62	-0.05811537
3	0x3d7b65b2	0.06137628
4	0xbdb5aca1	-0.08870817
5	0xbd99dc63	-0.075127386
6	0x3c08f0bc	0.008358177
7	0xbd8fdc95	-0.070244946
8	0x3d9b3079	0.07577605
9	0xbdb881a0	-0.09009099
10	0x3d76cb94	0.06025274
11	0xbd30a26c	-0.043123648
12	0x3db42202	0.08795549
13	0x3d907f5d	0.070555426
14	0xbd442000	-0.04788208
15	0xbd4e0d4a	-0.050305642
16	0xbbc4982b	-0.005999585
17	0xbcf56358	-0.029954597
18	0xbc331fe2	-0.010932894
19	0xbda41083	-0.08010962
20	0xbce08ab7	-0.027409894
21	0xbd9c4f6d	-0.07632337
22	0xbdcf194b	-0.10112246
23	0xbd9b92a8	-0.07596332
24	0xbd17f8b8	-0.03710243
25	0x3d526331	0.051364128
26	0xbde09460	-0.109658
27	0xbd41cfb9	-0.04731724
28	0xbd07dad8	-0.03316769
29	0x3cec399d	0.028836066
30	0x3dda4590	0.10657799
31	0x3c6d6fc0	0.014491975
32	0xbcdcbe72	-0.02694628
33	0xbd2b88b2	-0.04187841
34	0xbcfc60cf	-0.03080788
35	0x3ced9395	0.029001037
36	0xbce9af10	-0.02852586
37	0x3c22f678	0.009946458
38	0x3c16eef6	0.009212246
39	0xbcd1c2ee	-0.025605645
40	0xbd382e29	-0.044965897
41	0xbd40cb2b	-0.047068756
42	0xbd0ab9f3	-0.03386874
43	0xbd475b11	-0.048670832
44	0x3d6148bd	0.05500101
45	0xbd9040f3	-0.07043638
46	0xbc47d685	-0.012197142
47	0x3d394bca	0.045238294
48	0xbc94b0ab	-0.018150648
49	0xbd73d45c	-0.059528694
50	0xbbfe0396	-0.0077518923
51	0x3dfb9b43	0.12285473
52	0x3cccf0a7	0.025017096
53	0x3c45ade7	0.012065387
54	0x3dda60f1	0.10663021
55	0xbd04fcb4	-0.03246756
56	0x3d3cddc3	0.046109926
57	0xbc22c823	-0.009935412
58	0xbcb7eb8e	-0.022451188
59	0xbdb6e0ec	-0.08929619
60	0xbd0466ee	-0.032324724
61	0xbda1c282	-0.078984275
62	0xbd43093f	-0.04761624
63	0xbd8d52e9	-0.069005795
64	0x3d6e8b9d	0.058238614
65	0x3d9f683d	0.07783554
66	0x3c5adca7	0.013358272
67	0xbd86b5ef	-0.0657767
68	0xbd7e7b7f	-0.062129494
69	0xbc16fca1	-0.009215505
70	0xbd1d0122	-0.03833116
71	0xbd8d37bc	-0.06895396
72	0x3dade894	0.084916264
73	0xbcd8d984	-0.026470907
74	0xbce1dd2a	-0.02757128
75	0x3d8717d4	0.06596342
76	0x3df37416	0.11887376
77	0xbbb995d9	-0.005663615
78	0x3ce7252f	0.028215973
79	0xbdddaafb	-0.108236276
80	0x3c90a7be	0.01765811
81	0x3c8ce166	0.017197322
82	0x3d058319	0.032595728
83	0x3dab3ccb	0.08361205
84	0x3da144c9	0.07874448
85	0xbd657f03	-0.05602933
86	0xbabfb1f8	-0.0014625182
87	0xbca38bcc	-0.019964121
88	0x3da744b5	0.08167402
89	0xbe2016aa	-0.15633646
90	0xbd300ea7	-0.042982724
91	0xbc27a0be	-0.010231195
92	0x3c8398ec	0.01606413
93	0xbd44b904	-0.048028007
94	0xbd58f130	-0.05296439
95	0x3dad13d8	0.084510505
96	0xbd7632f3	-0.060107183
97	0x3cdaf4ae	0.026728
98	0xbc8b5809	-0.017009752
99	0x3d64010f	0.055665072
100	0x38955446	7.120571e-05
101	0x3dad2cf4	0.0845584
102	0xbcfb13c4	-0.030649073
103	0xbd4041cc	-0.04693775
104	0xbcdc8fcd	-0.026924038
105	0xbdc58e44	-0.09646276
106	0x3d6c0722	0.05762399
107	0x3da0d655	0.078533806
108	0x3d4875a6	0.048940323
109	0xbdaeac91	-0.08529008
110	0xbd8bc2bf	-0.06824254
111	0x3d150c51	0.0363887
112	0x3d32449f	0.043522473
113	0xbe0172f7	-0.12641512
114	0xbd9b47cd	-0.07582054
115	0xbd6e9efb	-0.058257084
116	0xbd38583f	-0.045006033
117	0xbb1340f5	-0.0022469137
118	0xbc5ac699	-0.013353013
119	0xbd825f05	-0.0636578
120	0x3c318ab3	0.010836291
121	0x3d7d5baf	0.061855014
122	0xbd685ee5	-0.056731123
123	0xbd0eaf8c	-0.034835383
124	0xbdb260d4	-0.08709875
125	0xbc94f866	-0.018184852
126	0x3d91a419	0.07111377
127	0x3d472eb4	0.048628524

layer_t_2.weight f4 [128, 128]
0	0x3b845203	0.004038097
1	0x3cc0306e	0.023460593
2	0xbc19d2cf	-0.00938864
3	0x3cf82596	0.03029136
4	0x3d1c3823	0.038139474
5	0x3d663526	0.05620303
6	0xbdd202a5	-0.10254411
7	0xbcef4203	-0.029206282
8	0xbdb333e8	-0.08750135
9	0x3c374223	0.011185202
10	0xbcb72044	-0.022354253
11	0xbd8a3787	-0.06748872
12	0x3d92cd4e	0.07168065
13	0x3cf7d0ca	0.030250926
14	0xbc7f450b	-0.015580426
15	0xbd57ede3	-0.0527171
16	0x3ce3a253	0.027787363
17	0xbd67292a	-0.05643574
18	0xbdab0c1b	-0.08351918
19	0xbd89f0fa	-0.06735416
20	0xbd170d30	-0.03687781
21	0xbc325855	-0.010885318
22	0xbd9f22e8	-0.0777033
23	0x3c022f3a	0.00794583
24	0xbc78cbe9	-0.015185335
25	0xbded9255	-0.11600176
26	0xbd9f9d98	-0.077937305
27	0xbd6b7122	-0.05748094
28	0x3db9b9d6	0.090686485
29	0x3dc2c680	0.09510517
30	0xbd374547	-0.044743802
31	0xbd8c6d15	-0.06856743
32	0xbbf1d03b	-0.0073795593
33	0xbd0284d8	-0.03186497
34	0x3d552400	0.052036285
35	0xbe0a9ea1	-0.13537075
36	0x3de7c81a	0.11317463
37	0xbbfd8cca	-0.0077377306
38	0xbc9ccbb7	-0.019140108
39	0x3cc163e7	0.023607207
40	0x3da7dafb	0.08196064
41	0xbd4d78e9	-0.050164137
42	0x3ccd2878	0.025043711
43	0x3c7625d3	0.015023666
44	0xbd595f83	-0.053069603
45	0x3dc5152d	0.096231796
46	0xbd36b742	-0.044608362
47	0x3d214c6e	0.03937953
48	0xbc9b3552	-0.018946324
49	0xbd526c80	-0.051373005
50	0xbdb81ff2	-0.08990468
51	0xbd684e64	-0.056715384
52	0xbd0a03c1	-0.033694986
53	0xbd8c4224	-0.06848553
54	0xbdd728df	-0.105058424
55	0xbd4c4a56	-0.04987558
56	0xbd56ac69	-0.052410517
57	0xbc985196	-0.01859359
58	0x3d1fdc89	0.039028678
59	0x3d0b52ca	0.0340145
60	0x3ccbcdde	0.024878439
61	0x3d19e7d1	0.037574593
62	0xbc169cf2	-0.009192692
63	0xbd1cbdb6	-0.03826686
64	0xbbc4a193	-0.0060007065
65	0xbb5a09f0	-0.0033270083
66	0xbd87bc8b	-0.066277586
67	0xbd3c22f9	-0.04593179
68	0x3c3ce2f9	0.011528724
69	0x3cccae3c	0.024985425
70	0x39e3a714	0.00043421297
71	0xbd304824	-0.04303755
72	0x3cd2db4a	0.02573933
73	0xbd900ee5	-0.07034091
74	0x3c9409a1	0.018070998
75	0xbb876cec	-0.0041328575
76	0x3c904e85	0.017615566
77	0xbd702a8d	-0.05863433
78	0xbdbcdbe4	-0.09221628
79	0xbc314c5b	-0.010821427
80	0x3cc56f42	0.024100903
81	0x3c60fb15	0.013731738
82	0xbd4c407f	-0.049866196
83	0x3d4c2d83	0.04984809
84	0xbd97856d	-0.07398496
85	0xbce6f46e	-0.028192725
86	0x3c94f6e7	0.018184138
87	0xbd36b643	-0.044607412
88	0xbd913054	-0.07089296
89	0x3e1eb98d	0.1550047
90	0xbdad29dd	-0.084552504
91	0xbd586548	-0.052830964
92	0xbe1bcd3d	-0.15215011
93	0x3ca9f06e	0.020744529
94	0xbcf07fab	-0.029357752
95	0xbc539389	-0.012913593
96	0x3ba99364	0.005175041
97	0x3cfcb024	0.03084571
98	0x3d128780	0.035773754
99	0x3cadb15b	0.021202734
100	0xbc57a850	-0.013162687
101	0xbd0dcba2	-0.034618028
102	0x3d8c63fa	0.068550065
103	0xbd251c90	-0.040310442
104	0x3d9ec23e	0.077518925
105	0xbcb53b26	-0.02212293
106	0x3ce2e89e	0.027698811
107	0x3b917ce2	0.004439936
108	0xbdc62750	-0.09675467
109	0x3d4bb1d7	0.04973015
110	0x3d93e64a	0.072216585
111	0xbdd2b958	-0.10289258
112	0x3d33e821	0.043922547
113	0x3c3952ac	0.011311214
114	0x3dcb3183	0.09921553
115	0xbc2a92c6	-0.01041097
116	0xbbaa7835	-0.005202318
117	0xbd41e420	-0.047336698
118	0x3d187cef	0.03722852
119	0xbd834dda	-0.064113334
120	0x3ce4fb3a	0.027951825
121	0xbd155296	-0.036455713
122	0x3c9b391e	0.018948134
123	0xbd8784c5	-0.06617121
124	0xbd1a0800	-0.037605286
125	0x3c8476d3	0.016169941
126	0xbd8f9c11	-0.07012189
127	0x3cfd4141	0.030914905
128	0xb97bd999	-0.00024018287
129	0x3cf40497	0.029787345
130	0x3d70f310	0.058825552
131	0x3cf033e8	0.029321626
132	0xbd1d6794	-0.038428858
133	0xbd0146be	-0.031561606
134	0x3d1dfa39	0.03856871
135	0x3d0f0c41	0.034923796
136	0x3db58e97	0.088650875
137	0x3d57ba5b	0.052667957
138	0x3d390dfd	0.045179356
139	0x3c6288e3	0.013826582
140	0xbbf1c8dd	-0.007378681
141	0xbc0a4f68	-0.0084417835
142	0xbdf76fd7	-0.12081879
143	0xbd9e419f	-0.0772736
144	0xbd0b1dab	-0.03396384
145	0x3c07bc0f	0.008284583
146	0xbc89c929	-0.016819553
147	0x3d6806f9	0.056647275
148	0x3e05955f	0.13045262
149	0xbc3fcc74	-0.01170646
150	0xbd9110cd	-0.070832826
151	0x3c6a53cc	0.014302205
152	0x3d99f1e8	0.07516843
153	0x3d0a7d0f	0.03381067
154	0xbcecafaa	-0.028892357
155	0x3d0d6c7d	0.03452729
156	0x3d26df32	0.0407402
157	0x3b35982c	0.002770911
158	0xbd6fbea9	-0.058531437
159	0x3da8e46d	0.08246694
160	0xbd50cdaa	-0.050977387
161	0x3d86113d	0.06546257
162	0xbde47dcf	-0.111568086
163	0x3c4c2bfe	0.01246166
164	0x3ce2a084	0.02766443
165	0xbda5be5f	-0.08092951
166	0x3d56e051	0.05246002
167	0xbc00fd92	-0.007872956
168	0xbd3af74c	-0.045645997
169	0xbd8fd811	-0.07023633
170	0xbd43a9d6	-0.04776939
171	0xbd85ed1c	-0.06539366
172	0xbd3384f6	-0.043827973
173	0x3d73a945	0.0594876
174	0x3d767b50	0.060176194
175	0x3d5fac1b	0.054607492
176	0x3cc16fc4	0.023612864
177	0xbdba38b0	-0.090928435
178	0x3c83520c	0.016030334
179	0xbd801450	-0.06253874
180	0x3979f456	0.00023837513
181	0x3d425845	0.04744746
182	0xb9e0f718	-0.0004290871
183	0x3d1706a2	0.03687156
184	0x3cff5859	0.031170057
185	0xbd9f6ce3	-0.0778444
186	0x3d9b8d0e	0.075952634
187	0x3cc9a367	0.02461405
188	0x3bc839f4	0.006110424
189	0xbb65d4af	-0.0035069396
190	0x3d9c0995	0.07619015
191	0x3cfb4591	0.03067282
192	0xbcb79881	-0.022411587
193	0x3d0ef6a1	0.034903172
194	0x3aae8efd	0.001331776
195	0xbdc55a12	-0.0963632
196	0x3d051cff	0.032498356
197	0x3da62db6	0.081141874
198	0x3c888c5e	0.016668495
199	0xbe0c574c	-0.13705176
200	0xbd060cec	-0.032727167
201	0x3bc2cc92	0.005944797
202	0x3d835c69	0.0641411
203	0x3d62edba	0.055402495
204	0x3d8804d4	0.06641546
205	0x3de7977b	0.113081895
206	0xbd993141	-0.074800976
207	0xbd31db91	-0.043422285
208	0x3d11304a	0.035446443
209	0x3d0d7180	0.03453207
210	0x3ba525a4	0.0050398875
211	0x3d263a60	0.040583014
212	0xbd0c3c81	-0.03423739
213	0xbd51443f	-0.051090475
214	0xbd35b7ba	-0.04436467
215	0xbc78e37b	-0.015190954
216	0xba3bbcd7	-0.0007161623
217	0x3d62344c	0.055225655
218	0xbc3005c8	-0.010743566
219	0x3d333971	0.043755952
220	0x3d0ccd3e	0.03437542
221	0xbd8682a8	-0.065678895
222	0x3dce4896	0.100724384
223	0x3bbc41b5	0.0057451376
224	0xbd19795b	-0.03746925
225	0xbd3bd92a	-0.0458614
226	0xbd8a2f56	-0.0674731
227	0xbcbb5312	-0.02286676
228	0x3d0d241e	0.034458272
229	0x3b6d4f73	0.0036210686
230	0xbd52e39c	-0.051486596
231	0xbe2cfdc6	-0.16893682
232	0xbc7396ba	-0.014867479
233	0x3ca67ac1	0.020322205
234	0xbc84a0c3	-0.016189938
235	0x3ca2b222	0.019860331
236	0x3de48365	0.11157874
237	0xbe16908c	-0.14703578
238	0x3d2d495b	0.042306285
239	0xbd1fea6b	-0.039041918
240	0x3d79d884	0.0609975
241	0x3d1e6781	0.038672928
242	0xbc2ed7aa	-0.0106715355
243	0x3dbc9a8f	0.09209167
244	0xbcc29cf2	-0.023756478
245	0x3d34707f	0.044052597
246	0x3d5a7a41	0.053339247
247	0xbe10561c	-0.14095348
248	0xbd631f62	-0.05544985
249	0xbd884224	-0.0665324
250	0xbda4412b	-0.08020242
251	0x3d7d62e3	0.061861884
252	0xbd44c981	-0.04804373
253	0x3cb4bddc	0.022063188
254	0xbdc3aaae	-0.09554039
255	0x3c4d885e	0.0125447195

layer_t_2.bias f4 [128]
0	0xbd099326	-0.033587597
1	0xbdd28e1c	-0.102810115
2	0xbcbb6431	-0.022874923
3	0x3c8448db	0.016148021
4	0xbcd4208f	-0.025894431
5	0xbda49d38	-0.080377996
6	0xbc26b9b4	-0.010176111
7	0x3d54b40d	0.051929522
8	0xbddaf2be	-0.10690831
9	0xbd92a37d	-0.07160089
10	0xbda0fc18	-0.07860583
11	0xbe14a0a8	-0.1451441
12	0xbd01240f	-0.03152853
13	0x3ca1fef0	0.019774884
14	0xbc765bc8	-0.015036531
15	0xbdc5fbf9	-0.096672006
16	0xbdbf9773	-0.093550585
17	0xbdcd9723	-0.10038593
18	0xbdc24566	-0.09485893
19	0xbdb1d89c	-0.08683893
20	0xbd9cb94e	-0.076525316
21	0xbe191732	-0.14950255
22	0x3cf43c24	0.029813834
23	0x3cc30ef4	0.023810841
24	0x3d2e0c1e	0.042492025
25	0xbde59e0f	-0.11211788
26	0xbcb1476e	-0.021640506
27	0xbaadc385	-0.0013257122
28	0x3d8771a3	0.06613471
29	0x3d03030d	0.03198533
30	0xbd1e0682	-0.038580425
31	0x3d0bb6cc	0.034109876
32	0xbd5eadbc	-0.054364905
33	0x3d3606a4	0.044439927
34	0xbe008836	-0.1255196
35	0x3c940918	0.018070742
36	0x3d85d38f	0.06534492
37	0x3cdcbe2e	0.026946153
38	0x3c1475d7	0.009061298
39	0x3bd00534	0.0063482765
40	0xbba6e14f	-0.005092777
41	0xbda29f51	-0.079405434
42	0xbdb80413	-0.08985152
43	0xba5db878	-0.0008457969
44	0xbd0e8f47	-0.03480461
45	0x3d5293e2	0.051410563
46	0xbdfc9958	-0.123339355
47	0xbdd47747	-0.10374313
48	0x3d0fa554	0.03506978
49	0xbc28b815	-0.010297795
50	0x3c14a120	0.009071618
51	0x3b9becbf	0.004758447
52	0x3d474641	0.048650984
53	0xbd78b03d	-0.06071495
54	0xbd88bae9	-0.06676275
55	0xbda0bac0	-0.0784812
56	0xbd16046e	-0.03662532
57	0x3d03d67d	0.032186974
58	0x3d3fbc88	0.046810657
59	0xbe10efb1	-0.14153935
60	0xbd8372a7	-0.064183526
61	0x3ca450b8	0.020058021
62	0xbdb6a02a	-0.089172676
63	0xbda4ad65	-0.08040885
64	0xbdbf723c	-0.0934796
65	0xbd2a495e	-0.041573875
66	0xbc3e5714	-0.011617441
67	0xbe20ce53	-0.15703706
68	0xbd2b63c6	-0.0418432
69	0xbcea3a5c	-0.028592281
70	0xbdb74f85	-0.08950714
71	0xbd918536	-0.07105486
72	0xbe065f0c	-0.13122195
73	0xbda0d0d6	-0.07852332
74	0xbd5bf004	-0.053695694
75	0xbcae6895	-0.021290103
76	0xbde09737	-0.10966342
77	0xbc33c0ba	-0.010971243
78	0xbdd4d4f9	-0.10392184
79	0xbcedf968	-0.02904959
80	0xba5857d7	-0.0008252835
81	0x3b6e7b13	0.0036389276
82	0xbd601148	-0.05470398
83	0xbe0da1db	-0.13831274
84	0xbd8c9070	-0.06863487
85	0xbe02eae5	-0.12784918
86	0x3d3b3f28	0.045714527
87	0x3db527da	0.08845492
88	0xbdb58284	-0.088627845
89	0xbe12ddf9	-0.14342488
90	0x3cf4b8ec	0.029873334
91	0xbd91be72	-0.07116403
92	0xbccf883c	-0.025333516
93	0xbbe10ea7	-0.006868202
94	0x3a932a84	0.0011227881
95	0xbdaf5ee0	-0.08563018
96	0xbd1fda73	-0.03902669
97	0xbc360ab9	-0.011110955
98	0xbdfb23f3	-0.12262716
99	0xbdb5984b	-0.08866938
100	0x3d0ea018	0.034820646
101	0xbe0d24d7	-0.13783585
102	0xbd5619ed	-0.05227082
103	0xbe1196f0	-0.14217734
104	0xbc8e58e0	-0.017376363
105	0xbda04e56	-0.078274414
106	0x3b48c741	0.0030636343
107	0xbe073fbf	-0.13207911
108	0x3bfbf0e4	0.0076886285
109	0xbddb12a5	-0.106969155
110	0xbcc29766	-0.023753833
111	0xbd77902b	-0.060440224
112	0xbde42cc2	-0.111413494
113	0x3d402402	0.04690934
114	0xbd67b89b	-0.056572538
115	0xbd568f33	-0.05238266
116	0xbbf3bb16	-0.007438074
117	0x3ca197cf	0.019725708
118	0xbd85fe78	-0.06542677
119	0x3d7f8c01	0.062389378
120	0xbd80ddeb	-0.062923275
121	0xbdf398a3	-0.118943475
122	0xbdea8b29	-0.11452324
123	0x3d1cf91c	0.038323507
124	0xbb424096	-0.0029640547
125	0xbe21adf1	-0.1578901
126	0xbcac3ed5	-0.021026054
127	0x3c6cd771	0.014455662

layer_out_1.weight f4 [128, 128]
0	0x3c1f9839	0.009740883
1	0x3d9a586c	0.075363964
2	0x3d6c893b	0.05774806
3	0xba26929c	-0.0006354244
4	0x3d29b236	0.04142972
5	0xbd78b719	-0.06072149
6	0x3d5b4f88	0.053542644
7	0x3d105938	0.035241336
8	0xbdd09a3e	-0.10185669
9	0x3b8a9e40	0.0042302907
10	0x3da5571e	0.08073257
11	0x3d2382ce	0.039919667
12	0x3c1a1b54	0.00940593
13	0x3c383057	0.011241994
14	0x3d388ca8	0.045056015
15	0xbc4ca801	-0.012491227
16	0x3d730c6d	0.059338022
17	0xbd8ff5cc	-0.07029304
18	0xbd69c403	-0.057071697
19	0x3cb64a40	0.022252202
20	0xbd0e548d	-0.034748603
21	0x3e0cf2d8	0.13764513
22	0xbd6ead74	-0.058270887
23	0x3db98ada	0.09059687
24	0xbdc67c0e	-0.0969163
25	0x3a3e2ead	0.000725488
26	0xbd756306	-0.05990889
27	0xbc0c4d15	-0.0085633
28	0xbdd16bac	-0.10225615
29	0x3da2ac48	0.07943016
30	0xbd9a717c	-0.07541177
31	0x3d93e995	0.072222866
32	0xbd375ecf	-0.04476815
33	0xbd236866	-0.039894484
34	0x3c3a9627	0.011388338
35	0xbdc67983	-0.09691145
36	0x3c91b6ea	0.017787416
37	0x3cf41ac4	0.02979792
38	0xbdba422e	-0.09094654
39	0xbd42f789	-0.04759935
40	0x3db7a515	0.08967034
41	0xbb08864a	-0.0020831996
42	0xbd08c47a	-0.0333905
43	0x3e02df67	0.12780534
44	0x3d94ee7b	0.07272049
45	0xbe0405fb	-0.12892906
46	0x3d5e3149	0.05424622
47	0x3dc30020	0.09521508
48	0x3d918d0b	0.0710698
49	0xbdcaf69f	-0.099103205
50	0xbcaa8c07	-0.020818723
51	0x3cacad38	0.02107869
52	0x3ce538a6	0.027981114
53	0xbd972e80	-0.07381916
54	0x3cbfa03c	0.023391835
55	0x3c9a6421	0.018846573
56	0xbce7b653	-0.028285181
57	0x3cf66373	0.030076718
58	0x3cbff233	0.02343092
59	0xbd5b3702	-0.053519256
60	0x3dd761c8	0.10516697
61	0xbd2c61b6	-0.042085372
62	0xbd2fa51c	-0.04288207
63	0xbdb7ae6e	-0.08968817
64	0x3d8961f5	0.06708137
65	0xbc49e7b2	-0.012323307
66	0xbca13f83	-0.019683605
67	0xbd87cbcf	-0.0663067
68	0x3d39b782	0.045341022
69	0x3c1a0f23	0.009403023
70	0x3d4b1b35	0.049586494
71	0x3d98944d	0.07450161
72	0xbdfedc9d	-0.124444224
73	0xba3cb608	-0.00071987556
74	0xbd5cabd3	-0.0538748
75	0xbdd12fab	-0.1021417
76	0xbc80e43a	-0.015733827
77	0xbcf87c53	-0.03033272
78	0xbc99b593	-0.01876334
79	0xbcd9ce72	-0.026587699
80	0xbd4c2100	-0.04983616
81	0x3c63bbd6	0.013899764
82	0xbc028cc1	-0.007968129
83	0x3d545860	0.051842093
84	0xbc94447a	-0.018099058
85	0x3cc27dee	0.023741689
86	0x3cd47bf9	0.025938021
87	0xbd12309f	-0.0356909
88	0xbb9f4496	-0.004860471
89	0xbaeea1b6	-0.0018206153
90	0x3d6dc8ba	0.058052756
91	0xbd6a3df5	-0.057187993
92	0x3d91cd93	0.07119288
93	0xbce52609	-0.027972238
94	0x3dc4fca5	0.096185006
95	0xbcc3ffc6	-0.023925673
96	0x3d2273e5	0.039661307
97	0x3c89c70a	0.016818542
98	0x3dd85b8c	0.10564336
99	0xbc1f2ce4	-0.009715293
100	0xbd0ab58b	-0.03386454
101	0xbde3d246	-0.11124091
102	0xbdd485e1	-0.10377098
103	0x3caf2349	0.02137913
104	0x3d231fbd	0.03982519
105	0x3d06d878	0.032921284
106	0x3d331d5f	0.043729182
107	0x3d93238f	0.07184517
108	0x3d6c3a3a	0.057672717
109	0xbd1b9aa9	-0.037989292
110	0x3d986202	0.074405685
111	0xbd3a20eb	-0.04544155
112	0xbb3133b5	-0.0027038876
113	0xbdab56f5	-0.08366195
114	0xbd4248ff	-0.047432896
115	0x3d6c81a0	0.057740808
116	0x3c19b0b5	0.009380509
117	0xbdce6ca6	-0.10079317
118	0xbd863382	-0.06552793
119	0xbc9039c4	-0.01760567
120	0xbd8f42a6	-0.06995134
121	0xbcc94a90	-0.024571687
122	0xbc6bebb2	-0.014399456
123	0x3bb3a213	0.0054819672
124	0x3c69e07e	0.0142747145
125	0xbc9d1428	-0.01917465
126	0x3da91ee3	0.08257844
127	0xbb115e32	-0.002218139
128	0xbca1c668	-0.019747928
129	0xbcb94932	-0.02261791
130	0x3d08a390	0.03335911
131	0xbd256871	-0.040382806
132	0xbd098a82	-0.033579357
133	0xbdce0549	-0.10059602
134	0x3cb465b4	0.022021152
135	0xbcc8d047	-0.024513377
136	0xbacad415	-0.0015474582
137	0x3c239f27	0.009986675
138	0xba8f7c52	-0.0010947085
139	0xba3812f7	-0.0007021869
140	0x3c34ca41	0.011034549
141	0xbd260a89	-0.04053739
142	0x3d8b77da	0.06809969
143	0x3d4a0a72	0.049326368
144	0x3d6be060	0.057587028
145	0x3d0fcfe9	0.035110388
146	0xbcfadc88	-0.030622736
147	0x3d0bc6ee	0.03412526
148	0xbd779823	-0.060447823
149	0x3c599458	0.013279997
150	0xbd6e7aee	-0.058222704
151	0x3c196f4f	0.009364917
152	0x3bedb187	0.007253829
153	0x3cccece1	0.025015296
154	0xbc1c674e	-0.009546114
155	0xbd256ef8	-0.04038903
156	0xbd8c8496	-0.06861226
157	0x3d8ebdf4	0.069698244
158	0x3d1763c9	0.036960397
159	0xbda468eb	-0.08027824
160	0xbd8db6d9	-0.06919641
161	0x3d732516	0.05936154
162	0x3d193d84	0.03741218
163	0x3d50b27d	0.05095147
164	0x3d7106a5	0.058844227
165	0xbcd4c494	-0.025972642
166	0x3d3dc040	0.046325922
167	0xbd3eae7f	-0.04655313
168	0x3c4ac553	0.012376147
169	0x3d81ea05	0.06343464
170	0x3d3fa9c4	0.04679276
171	0x3d2aed0d	0.041729975
172	0x3c28cc8e	0.010302676
173	0xbdb0d7aa	-0.08634885
174	0xbccbe828	-0.024890974
175	0xbd869887	-0.06572061
176	0xbcbae70b	-0.022815248
177	0x3c8e1039	0.01734172
178	0x3d3c355a	0.045949318
179	0xbdd40a24	-0.10353497
180	0x3c5fd5b4	0.013661791
181	0xbd2b90a6	-0.041885994
182	0xbdbef384	-0.09323791
183	0x3e1c6a68	0.15274966
184	0x3c044a78	0.008074395
185	0xbc36228a	-0.011116633
186	0xbd8c0a79	-0.06837935
187	0xbafc1e14	-0.0019235038
188	0x3de41eea	0.11138709
189	0x3dabe20f	0.08392727
190	0x3db666b9	0.089063115
191	0x3dbcfc11	0.09227765
192	0x3d53fae0	0.051752925
193	0x3d94ba96	0.07262151
194	0x3c820714	0.015872516
195	0xbe0f5686	-0.1399785
196	0x3c996916	0.018726867
197	0x3e055270	0.13019729
198	0x3dcab7b1	0.098983176
199	0x3cc3443d	0.02383625
200	0x3ca3b6de	0.019984659
201	0xbd5f0ac9	-0.054453645
202	0x3cd1e35d	0.02562111
203	0x3d767552	0.06017048
204	0xbc261fea	-0.010139445
205	0x3b2a9e16	0.0026034168
206	0xbd9696a4	-0.07352951
207	0xbdb64cfc	-0.08901402
208	0x3d9a5d88	0.07537371
209	0x3c8510f9	0.016243445
210	0xbd41bf32	-0.04730148
211	0x3d1d93c4	0.038471
212	0xbdf231c5	-0.11825899
213	0x3db0b380	0.08627987
214	0xbcd7279b	-0.026264003
215	0xbda3287d	-0.07966707
216	0x3db4b271	0.088230975
217	0xbd911dc8	-0.070857584
218	0x3d9b5164	0.075838834
219	0x3cee4682	0.029086355
220	0x3bb23098	0.0054379217
221	0x3d12b444	0.035816446
222	0xbc34cf4e	-0.011035753
223	0x3d9a52dd	0.07535336
224	0xbde24b53	-0.11049523
225	0xbd4bad47	-0.049725797
226	0xbd014cbd	-0.031567324
227	0x3d980771	0.07423294
228	0x3d347e19	0.04406557
229	0xbd8154cc	-0.06315002
230	0x3c7c1e16	0.015388032
231	0xbd466b04	-0.0484419
232	0xbb924642	-0.004463942
233	0xbda85292	-0.08218874
234	0x3d9dc6f6	0.077039644
235	0xbc4dfa65	-0.012571906
236	0x3cfb598e	0.030682351
237	0xbc5d7a0a	-0.013517866
238	0x3ce04a62	0.027379218
239	0xbde28516	-0.110605404
240	0xbd5ca5ae	-0.053868942
241	0xbc8a5115	-0.016884366
242	0xbcf48a19	-0.029851006
243	0xbd990c36	-0.07473032
244	0xbda14e77	-0.07876294
245	0xbd50213c	-0.050812945
246	0x3bfca489	0.007710044
247	0x3dd817e7	0.10551434
248	0x3c46ec43	0.01214129
249	0xbd90a99e	-0.07063602
250	0xbc91932a	-0.017770369
251	0xbd0d376c	-0.034476683
252	0xbdc17ae6	-0.09447269
253	0x3ca1e746	0.0197636
254	0xbde488f2	-0.11158933
255	0x3ccd0492	0.025026593

layer_out_1.bias f4 [128]
0	0x3cae0c66	0.021246146
1	0xbbc192d4	-0.005907396
2	0x3d9533d9	0.0728528
3	0xbd74e844	-0.05979182
4	0x3d9d5ca2	0.07683684
5	0xbbe8b5e6	-0.007101762
6	0x3d67e76e	0.056617193
7	0xbd2d0611	-0.042242114
8	0xbd1cd371	-0.038287584
9	0xbd856417	-0.06513231
10	0x3d65a4b0	0.05606526
11	0x3d0480b5	0.032349307
12	0xbcfacf09	-0.0306163
13	0x3dbd3577	0.09238713
14	0x3ccbbd36	0.024870496
15	0xbaa861c7	-0.0012846523
16	0x398bc0dc	0.00026655837
17	0xbcf03e19	-0.029326485
18	0x3d7a9888	0.06118062
19	0x3db5e0ee	0.088807926
20	0x3ca89c0b	0.02058222
21	0x3b8c1bba	0.004275766
22	0x3de85e6d	0.11346135
23	0xbd03ff54	-0.03222592
24	0x3d94c7de	0.07264684
25	0x3d32be9a	0.043638803
26	0x3dc124f6	0.09430878
27	0x3d28ee6b	0.041242998
28	0x3d70e556	0.05881246
29	0xbc44d456	-0.012013515
30	0xbcd30745	-0.025760302
31	0x3d89826b	0.067143284
32	0xbb8a9b31	-0.004229926
33	0xbd178a49	-0.036997113
34	0x3da7bbc5	0.08190111
35	0xbdeaad5d	-0.11458848
36	0xba59fd4c	-0.0008315637
37	0x3dcc5eff	0.099790566
38	0x3c8fdc0f	0.017560987
39	0x3d9ea5d1	0.07746471
40	0x3d02ba47	0.03191593
41	0x3bb1acc2	0.0054222057
42	0xbd704156	-0.05865606
43	0x3ce8b1d5	0.02840511
44	0x3deaa913	0.114580296
45	0x3ba6a2b2	0.0050853128
46	0x3d8202c1	0.063481815
47	0x3d76d3dd	0.060260642
48	0xbc5678fe	-0.01309037
49	0xbcba0926	-0.02270944
50	0x3d99977e	0.07499598
51	0x3cfcc164	0.030853935
52	0xbcd8c240	-0.026459813
53	0xbd01afba	-0.031661727
54	0xbcf38d8e	-0.029730584
55	0x3d2d000f	0.042236384
56	0xbdb268a3	-0.08711364
57	0xbc4225f1	-0.011849866
58	0xbae23b73	-0.0017260149
59	0xbd329f7b	-0.043609124
60	0xbd7ee97f	-0.062234398
61	0xbd783f57	-0.06060728
62	0xbd05c5f5	-0.03265949
63	0x3d1cba89	0.03826383
64	0x3c84e5c8	0.01622285
65	0xbd0d7e18	-0.03454408
66	0x3d16033d	0.036624182
67	0x3ca6ed40	0.020376801
68	0x3d4e6c9c	0.050396547
69	0xbd77a563	-0.06046046
70	0x3d061441	0.03273416
71	0xbdbc4229	-0.091923065
72	0x3de14455	0.109993614
73	0x3d593efd	0.053038586
74	0x3bbbef84	0.0057353396
75	0x3d810cfe	0.06301306
76	0x3cfaaaf3	0.030599093
77	0x3d4703bb	0.048587542
78	0xbdb0f87d	-0.086411454
79	0x3dc12a24	0.09431866
80	0x3d8fab03	0.0701504
81	0x3d2e24a4	0.042515412
82	0xbce9efc1	-0.028556706
83	0x3d79d85b	0.06099735
84	0xbce751bf	-0.028237222
85	0x3bd8a5b6	0.006611551
86	0xbcc4b8ff	-0.024013994
87	0xbd7e3d4c	-0.062070176
88	0xbd581773	-0.052756738
89	0xbd2db7fc	-0.04241179
90	0x3dce8a25	0.10084943
91	0x3d92ec62	0.07173993
92	0x3da339f0	0.07970035
93	0x3d7447fd	0.059638966
94	0x3c75bcc8	0.014998622
95	0xbc8ba18e	-0.017044809
96	0x3d6573a3	0.056018483
97	0x3d8c58ef	0.068529
98	0x3dc69191	0.09695733
99	0xbd4e7cc4	-0.050411955
100	0x3da290ac	0.0793775
101	0xb9e78fac	-0.00044166797
102	0x3d170e15	0.036878664
103	0x3da346e7	0.07972508
104	0xbd8cc1fb	-0.06872936
105	0xbd416731	-0.04721755
106	0xbd3572d2	-0.044298954
107	0x3d437dc9	0.04772738
108	0x3dfe120a	0.124057844
109	0x3d0b8d34	0.03407021
110	0xbd7bab4d	-0.061442662
111	0x3cc8f228	0.024529532
112	0x3b84e527	0.0040556374
113	0x3caa804e	0.020813134
114	0x3d95ccc0	0.073144436
115	0x3ad3cac3	0.001615845
116	0x3dfde568	0.123972714
117	0x3d9cd7be	0.07658337
118	0x3dbbeab6	0.09175627
119	0x3dbbcd91	0.09170068
120	0xbd1409c2	-0.03614212
121	0xbd05d9fc	-0.03267859
122	0xba275a15	-0.00063839677
123	0xbcbdca57	-0.023167772
124	0xbcbba2eb	-0.022904834
125	0x3d98b50c	0.07456407
126	0xbd0c4ee6	-0.03425493
127	0x3d8a61fb	0.067569695

layer_out_2.weight f4 [53, 128]
0	0xbd3e8f5d	-0.04652344
1	0xbd8950aa	-0.067048386
2	0xbc3debee	-0.011591895
3	0x3d5a0cf9	0.053235028
4	0xbc820911	-0.015873464
5	0xbbe4ae2b	-0.0069787703
6	0xbc8f0f5b	-0.017463377
7	0xbd3933b6	-0.04521533
8	0x3c7c8254	0.015411932
9	0x3d2b3d7c	0.041806683
10	0xbd0feef7	-0.035140004
11	0x3cb99fd3	0.022659218
12	0x3c6d8195	0.014496227
13	0x3a9f49dd	0.001215275
14	0x3d6d6022	0.057953008
15	0x3d7daa47	0.061929967
16	0x3a101d20	0.0005497504
17	0x3cff491e	0.031162795
18	0xbb1da5b8	-0.0024055075
19	0xbcb3f642	-0.02196801
20	0xbc541186	-0.012943631
21	0x3d97de12	0.074154034
22	0xbcb7a51e	-0.022417601
23	0x3da74670	0.08167732
24	0xbd637844	-0.055534616
25	0xbc73a7ec	-0.014871579
26	0xbd3eb947	-0.046563413
27	0xbd0eb583	-0.03484107
28	0x3d8d272c	0.06892237
29	0x3d0db097	0.034592237
30	0xbc9d6432	-0.019212816
31	0x3d5ef541	0.05443311
32	0xbd4b5848	-0.04964474
33	0xbdce54d9	-0.10074777
34	0x3d2ec320	0.042666554
35	0xbbaf27e8	-0.0053453334
36	0x3c5f0ea3	0.0136143295
37	0xbda331d7	-0.079684906
38	0x3a90439d	0.0011006478
39	0xbcee26d4	-0.029071249
40	0xbce64967	-0.028111173
41	0xbc8bc9c0	-0.017063975
42	0xbae61400	-0.0017553568
43	0x3ce73f1d	0.028228337
44	0x3c57b007	0.013164527
45	0xbda80184	-0.08203414
46	0x3d3f0f15	0.046645243
47	0xbcb895f2	-0.022532437
48	0x3ca057b7	0.019573076
49	0x3cf64857	0.030063791
50	0xbcd6d890	-0.026226312
51	0x3d293588	0.041310817
52	0xbd2af350	-0.041735947
53	0xbd57d268	-0.052690893
54	0x3d82ae00	0.06380844
55	0xbde50c7e	-0.11184023
56	0xbd3c8bf5	-0.04603191
57	0xbdaf9d1d	-0.08574889
58	0xbd80a276	-0.06280987
59	0x3d300d25	0.042981286
60	0xbd9f4c78	-0.07778257
61	0x3c3376a2	0.010953577
62	0xbe1cbc4a	-0.15306202
63	0x3d04bed7	0.03240856
64	0x3d77e34b	0.060519498
65	0x3d61fddb	0.055173736
66	0x3d07dbcc	0.0331686
67	0x3c2d1159	0.010563218
68	0xbdb5ce8a	-0.08877285
69	0x3d85ce54	0.065334946
70	0xbdc5c864	-0.09657362
71	0x3c1b0d5d	0.009463635
72	0xbd8c5a22	-0.06853129
73	0x3dc5837f	0.096442215
74	0x39943619	0.00028269066
75	0x3d341326	0.043963574
76	0x3daf09ef	0.085468166
77	0xbd08d664	-0.033407584
78	0x3bdba0a1	0.006702498
79	0x3d7c3ebb	0.061583262
80	0x3cda06d9	0.026614593
81	0x3c8f08ef	0.017460315
82	0x3d244f56	0.040114723
83	0x3bbad106	0.005701187
84	0x3db0f4ab	0.08640417
85	0x3da66487	0.08124643
86	0xbb1472b1	-0.002265137
87	0x3d60eedb	0.05491529
88	0xbda67bf2	-0.081291094
89	0xbca9855a	-0.02069347
90	0x3ced3841	0.028957488
91	0xbdca0ffc	-0.0986633
92	0x3c7494ed	0.014928085
93	0xbc52fc56	-0.012877544
94	0xbcc1058c	-0.023562215
95	0x3cef7013	0.029228246
96	0x3db92740	0.090406895
97	0x3d747c7f	0.05968904
98	0x3d084a90	0.033274233
99	0x3d07fae4	0.033198252
100	0x3d9c4fe1	0.07632423
101	0xbe0f017b	-0.13965409
102	0xbdb7a28c	-0.0896655
103	0xbc14280b	-0.00904275
104	0xbca1b077	-0.019737465
105	0xbc448a85	-0.011995916
106	0xba9d562c	-0.0012003831
107	0x3d3657dc	0.044517383
108	0xbc4269ac	-0.011866014
109	0xbd5c7a8e	-0.053827815
110	0x3dbfb282	0.093602195
111	0xbc8db1a2	-0.017296616
112	0x3da41b89	0.080130644
113	0x3d69d65d	0.0570892
114	0x3db00edb	0.085965835
115	0xbd88ba49	-0.06676156
116	0xbd2098b9	-0.039208148
117	0x3c85433c	0.016267411
118	0xbd237527	-0.039906647
119	0x3daf8f93	0.085723065
120	0xbcd309ac	-0.025761448
121	0xbbb8c14f	-0.0056382786
122	0x3d0db9a6	0.034600876
123	0x3d09f665	0.033682246
124	0x3cb372de	0.021905359
125	0x3bfd0e78	0.007722672
126	0xbd72f870	-0.05931896
127	0x3d2c42e7	0.04205599
128	0xbd48cb0a	-0.04902176
129	0xbd2af9bb	-0.041742068
130	0x3c224405	0.009903912
131	0x3d90d50a	0.07071884
132	0x3c938a37	0.018010242
133	0xbc4bb110	-0.012432352
134	0xbd182de4	-0.03715314
135	0x3d939fd6	0.07208221
136	0x3d3b8818	0.045784086
137	0xbda3cc28	-0.07997924
138	0x3cdeaa42	0.027180795
139	0x3d01c292	0.031679697
140	0xbdfc085d	-0.12306283
141	0xbbfec4be	-0.0077749183
142	0xbc1c7248	-0.009548731
143	0x3da023fc	0.078193635
144	0x3d9aaf5b	0.07552978
145	0x3cd9d608	0.026591316
146	0x3caa55c7	0.020792855
147	0xbc834d85	-0.016028175
148	0x3be02d23	0.006841318
149	0xbd323f6c	-0.043517515
150	0xbcbd3440	-0.023096204
151	0xbda79ce9	-0.08184225
152	0xbd3c958b	-0.046041053
153	0xbd884c49	-0.06655175
154	0xbdc1106f	-0.094269626
155	0xbdad207f	-0.08453464
156	0x3d8fbae0	0.070180655
157	0xbc162b64	-0.009165619
158	0xbcdbb711	-0.026820691
159	0x3c0d56b6	0.0086266305
160	0x3d8e8e14	0.06960693
161	0xbcbccd14	-0.023047008
162	0xbdc44ede	-0.09585355
163	0xbdb8c686	-0.0902224
164	0x3d2b96b5	0.041891772
165	0x3d9df999	0.077136226
166	0x3c20bf37	0.009811214
167	0x3c78b5da	0.015180076
168	0xbda363b8	-0.07978004
169	0xbc00baba	-0.007857019
170	0xbd644ef6	-0.055739366
171	0xbaf98a1c	-0.0019038352
172	0x3cdc51fe	0.026894566
173	0x3d825e12	0.06365599
174	0x3d181ae5	0.037135024
175	0x3d8d75c5	0.069072284
176	0x3d498a9f	0.049204465
177	0x3d7e383f	0.06206536
178	0xbb47af81	-0.0030469599
179	0xbcbaa30c	-0.022782825
180	0xbaff91b2	-0.0019498377
181	0xbde54760	-0.11195254
182	0xbce2bbf9	-0.027677523
183	0xbd09969c	-0.033590898
184	0xbc9d487e	-0.019199606
185	0x3d4a4688	0.04938367
186	0xbcbb17eb	-0.022838553
187	0xbd593b2d	-0.05303495
188	0x3d07bf16	0.033141218
189	0xbda8e197	-0.08246153
190	0x3d6d0eaf	0.05787533
191	0x3b45b5cf	0.003016818
192	0xbbbe3055	-0.0058041015
193	0x3bc690c7	0.0060597393
194	0x3bd1d312	0.0064033354
195	0xbd190337	-0.03735658
196	0xbd95fdc5	-0.07323793
197	0xbdb596da	-0.08866663
198	0xbcb0f5a6	-0.02160151
199	0x3df02d96	0.11727445
200	0x3cc0f385	0.02355362
201	0xbd09ce03	-0.033643734
202	0x3d7e36bd	0.06206392
203	0xbd0190df	-0.0316323
204	0xbd8ac783	-0.06776335
205	0xbb4ce249	-0.0031262806
206	0x3c8cc2a7	0.017182661
207	0xbc9a15d5	-0.018809238
208	0x3d9bb5fb	0.076030694
209	0x3ca822dd	0.020524437
210	0xbc2cb5fc	-0.010541435
211	0xbc490218	-0.012268566
212	0x3cc73058	0.024315044
213	0x3cabf434	0.020990469
214	0xbdbdde2f	-0.09270894
215	0xbd94f306	-0.072729155
216	0x3b170760	0.0023045167
217	0x3d323694	0.04350908
218	0x3da7d40c	0.081947416
219	0xbd83ac82	-0.06429388
220	0xbbe983a4	-0.0071262885
221	0x3da3fa71	0.08006752
222	0xbc243701	-0.01002288
223	0xbdca97a4	-0.098922044
224	0x3d93d09a	0.07217522
225	0x3d275ce2	0.040860064
226	0x3c3c71d5	0.011501749
227	0x3d10b1ba	0.035325743
228	0x3d1a2f34	0.037642673
229	0xbd36ff9b	-0.044677358
230	0xbc758883	-0.01498616
231	0xbc5c2a5a	-0.013437832
232	0x3db06c79	0.086144395
233	0x3d15303f	0.036422964
234	0xbd5741ef	-0.052553114
235	0x3dada000	0.08477783
236	0x3bc3d1d5	0.0059759417
237	0xbcf1cee3	-0.029517597
238	0xbd1510a7	-0.036392834
239	0x3d09b19e	0.033616655
240	0x3d145379	0.03621242
241	0xbc666326	-0.014061725
242	0x3c25e338	0.010124974
243	0x3d75da27	0.0600225
244	0x3d42571e	0.047446363
245	0xbc12abca	-0.0089520905
246	0x3c7a2550	0.015267685
247	0xbdb815b3	-0.08988514
248	0x3d39152b	0.045186203
249	0xbdc8ead4	-0.09810415
250	0x3d5f37bd	0.054496516
251	0xbc5e218b	-0.013557802
252	0x3cd620b0	0.026138633
253	0xbd1c2193	-0.038117956
254	0x3da7ffc6	0.08203082
255	0x3d556daa	0.052106537

layer_out_2.bias f4 [53]
0	0xba71a005	-0.0009217265
1	0xbbcf70f4	-0.0063306037
2	0x3a8bcdda	0.0010666207
3	0xbb079d4e	-0.0020693126
4	0x3b00024b	0.0019532617
5	0x3944a290	0.00018752576
6	0x3b396b55	0.0028292735
7	0xba90b99e	-0.0011041646
8	0x3b372fad	0.0027952
9	0xbb8ae855	-0.004239122
10	0xba24f9a6	-0.0006293304
11	0xba8836d5	-0.0010392318
12	0xbb8ef01a	-0.0043621184
13	0x3af02b2d	0.0018323414
14	0x3afe8bb3	0.0019420296
15	0x39840b82	0.00025185576
16	0xbb1751b9	-0.0023089482
17	0x3b54bc48	0.0032460857
18	0xba0aa9c1	-0.00052895775
19	0xbb62ab32	-0.0034586904
20	0x3ab086af	0.0013467873
21	0x3b66d848	0.0035224129
22	0xbbc2a665	-0.005940246
23	0xba839196	-0.0010037895
24	0x39302944	0.0001680004
25	0x3a3486dc	0.00068865507
26	0x3a531cf8	0.0008053328
27	0xbba65a2b	-0.005076667
28	0x3aedc2fc	0.0018139775
29	0xbbfdd25c	-0.007746024
30	0xba9ffe91	-0.0012206604
31	0x3abe5a09	0.0014522682
32	0xb9fb73b8	-0.00047960668
33	0xbbd8bfa7	-0.0066146436
34	0xbb86a831	-0.0041094054
35	0x3b81a269	0.0039561284
36	0x3b077640	0.0020669848
37	0x3b6c6567	0.0036071183
38	0xb966c32a	-0.00022007214
39	0x3b607fb6	0.003425581
40	0x3add1916	0.0016868438
41	0x3aab21d8	0.0013056351
42	0x3c1b6299	0.009483957
43	0x3a5b717e	0.00083710987
44	0x3bcec9e8	0.00631069
45	0xbae81d32	-0.0017708896
46	0xba278270	-0.0006389981
47	0xbb51f527	-0.0032036991
48	0xbb013928	-0.0019717906
49	0xbaa8bac8	-0.0012873048
50	0xba8d25dc	-0.0010768729
51	0xb996f315	-0.0002879134
52	0xbb06b085	-0.0020551991
