results/DDPM/SEQ_LEN/10/model_final.pth (torch, 204551 bytes, 26 tensors)

layer_x.weight f4 [64, 53]
0	0x3df49bd7	0.119437866
1	0xbbba81cf	-0.005691744
2	0xbcea336a	-0.02858897
3	0xbced9f05	-0.02900649
4	0x3d20a230	0.039217174
5	0xbd0429d9	-0.03226647
6	0x3ddb585e	0.10710214
7	0x3b9bcd6b	0.0047547123
8	0x3eb56f9c	0.35436714
9	0x3e5c2798	0.21499479
10	0x3d032c76	0.032024823
11	0xbcfc40db	-0.030792644
12	0x3ca4492c	0.020054422
13	0xbdaea209	-0.085269995
14	0x3d94e0d5	0.07269446
15	0x3e1c9760	0.1529212
16	0x3b8d09ce	0.0043041473
17	0x3cd62943	0.026142722
18	0xbde2ad13	-0.110681675
19	0x3e1cdc83	0.15318494
20	0x3c91d221	0.017800393
21	0x3e32353e	0.17403123
22	0x3d4ba6af	0.04971951
23	0x3bd408cb	0.0064707748
24	0x3d88a138	0.06671375
25	0xbc875bfe	-0.016523357
26	0xbc4bf633	-0.012448835
27	0xbddcd5fc	-0.10783002
28	0xbd04ce39	-0.03242323
29	0x3dcaafbd	0.09896801
30	0x3db41f83	0.08795073
31	0xbc64778b	-0.013944517
32	0xbdab3d98	-0.083613575
33	0x3cd59855	0.026073614
34	0x3b6d0d0f	0.0036171114
35	0xbda34aa6	-0.079732224
36	0x3c57f927	0.013181961
37	0xbd46cd0b	-0.048535388
38	0x3c460e3e	0.012088357
39	0x3dab523c	0.08365294
40	0xbe49f781	-0.19723321
41	0xbc347036	-0.011013081
42	0xbe0746d7	-0.13210617
43	0x3d17556d	0.036946703
44	0xbcb43bf0	-0.022001237
45	0xbc84d7f8	-0.016216263
46	0xbd21748f	-0.0394178
47	0x3d67d93d	0.05660366
48	0xbe29269c	-0.16518635
49	0xbd902d85	-0.07039932
50	0xbce8ae6e	-0.028403487
51	0x3d76b370	0.06022972
52	0xbd3b892e	-0.04578512
53	0xbe0b288c	-0.13589686
54	0x3d0bb513	0.034108233
55	0x3d374a3b	0.044748526
56	0xbd898bff	-0.06716155
57	0xbd8e3712	-0.069440976
58	0xbb0293c4	-0.00199245
59	0xbbc41633	-0.0059840917
60	0x3bc53036	0.00601771
61	0xbe4441f4	-0.19165784
62	0xbd9cdd3d	-0.07659385
63	0xbd486413	-0.048923563
64	0xbb9a6792	-0.0047120536
65	0xbcdab169	-0.026695924
66	0xbe2e88dd	-0.17044397
67	0xbcb88c2a	-0.022527773
68	0x3c804ffb	0.015663138
69	0xbdd16a9b	-0.102254115
70	0x3c610da7	0.013736165
71	0xbd403789	-0.046927962
72	0xbd63b86a	-0.055595793
73	0x3bf94624	0.0076072384
74	0xbd19b2cb	-0.037524026
75	0x3ba144c9	0.00492153
76	0xbd4897ed	-0.048973013
77	0x3db41893	0.0879375
78	0x3dd86138	0.10565418
79	0xbd254222	-0.040346272
80	0x3d19c90d	0.037545253
81	0xbe0a2006	-0.13488778
82	0xbcc93bda	-0.024564672
83	0x3d85dfd2	0.06536831
84	0xbd90dfc4	-0.0707393
85	0xbda0da73	-0.07854166
86	0x3d16443b	0.036686163
87	0xbb668245	-0.0035172862
88	0xbe16eba2	-0.14738324
89	0x3cad1812	0.021129642
90	0xbdcf9fb0	-0.1013788
91	0xbc9246cd	-0.017856026
92	0xbdd53b72	-0.10411729
93	0xbd103c09	-0.035213504
94	0xbc14ce10	-0.009082332
95	0x3b5a91fd	0.0033351176
96	0x3cc15719	0.023601102
97	0xbe15a839	-0.14614953
98	0x3d35480d	0.044258166
99	0xbc59159f	-0.013249784
100	0x3d271203	0.04078866
101	0x3e8ecc81	0.278904
102	0xbc48df62	-0.01226029
103	0xbcbaee6f	-0.022818772
104	0x3d809ff2	0.06280507
105	0xbd97eed0	-0.07418597
106	0xbdbbe4e9	-0.091745205
107	0xbdc4049b	-0.09571191
108	0xbddb0417	-0.106941395
109	0xbd127293	-0.035753798
110	0xbdadbf70	-0.084837794
111	0x3c63d743	0.013906303
112	0xbd5272cd	-0.051379014
113	0xbdd874e7	-0.10569172
114	0x3cac7e6e	0.02105638
115	0xbe0d1efa	-0.13781348
116	0xbd5e65c4	-0.05429627
117	0xbd8b7550	-0.06809485
118	0xbc8ebfb7	-0.017425401
119	0xbd82a90e	-0.06379901
120	0xbd8957a7	-0.067061715
121	0xbdab859b	-0.083750926
122	0xbe0de891	-0.13858248
123	0xbd31b33e	-0.04338383
124	0xbe08f8e2	-0.13376191
125	0x3dffdb96	0.124930546
126	0xbe0472e4	-0.12934452
127	0xbcaba9ae	-0.020954933
128	0xbd2f17cd	-0.042747308
129	0xba75906a	-0.00093675277
130	0xbd4ba52f	-0.04971808
131	0xbd481a40	-0.04885316
132	0xbda4591e	-0.0802481
133	0xbda75a6e	-0.08171545
134	0xbda8731a	-0.08225079
135	0xbdb4ac11	-0.088218816
136	0xba376070	-0.00069952663
137	0xbdc173a8	-0.09445888
138	0xbd8a9795	-0.06767193
139	0xbdc96fbd	-0.098357655
140	0xbddbe773	-0.10737505
141	0xbdea68c3	-0.11445763
142	0xbdb5a5dc	-0.08869526
143	0xbe30a855	-0.17251714
144	0xbdbe00a1	-0.09277464
145	0xbd66f49c	-0.05638562
146	0x3d92ead0	0.07173693
147	0xbdba4e6f	-0.09096991
148	0xbdadc80f	-0.08485424
149	0xbd9592ca	-0.073033884
150	0xbdb50f59	-0.08840818
151	0xbd681f12	-0.056670256
152	0xbdb53db8	-0.088496625
153	0xbda48385	-0.08032898
154	0xbe0e9b63	-0.13926463
155	0xbd6f794c	-0.058465287
156	0xbda02266	-0.07819061
157	0xbd9799a7	-0.07402354
158	0xbde22394	-0.11041942
159	0x3d44b92e	0.048028164
160	0x3c7e3a06	0.015516764
161	0xbd8bff5a	-0.06835814
162	0xbdb1b407	-0.086769156
163	0x3d286293	0.041109633
164	0xbdf254ee	-0.11832605
165	0xbde0751a	-0.10959835
166	0x3d02106b	0.03175394
167	0xbda5eaa8	-0.08101398
168	0xbe13c4ba	-0.14430514
169	0xbd6011b4	-0.054704383
170	0xbd129892	-0.035790034
171	0x3d94c78f	0.07264625
172	0xbd8467f7	-0.06465142
173	0x3bf9c8cc	0.007622814
174	0x3dea882d	0.11451755
175	0x3cbf0201	0.023316385
176	0x3c8324af	0.016008703
177	0x3df4cd35	0.11953203
178	0xbd8a2f65	-0.06747321
179	0xbdba507c	-0.090973824
180	0x3e0a4111	0.13501383
181	0xbaabda0c	-0.0013111248
182	0xbd9fc2c8	-0.078008235
183	0xbdc87c58	-0.09789342
184	0xbd6bc86d	-0.057564188
185	0xbcff5505	-0.03116847
186	0xbde8c497	-0.113656215
187	0xbdbac43d	-0.09119461
188	0x3c04868a	0.008088717
189	0x3dcd843b	0.100349866
190	0x3d02c357	0.03192457
191	0xbdfc9b07	-0.123342566
192	0xbd62e440	-0.055393457
193	0x3be93f4f	0.0071181427
194	0x3cd6b361	0.026208581
195	0xbdd6c2cb	-0.104863726
196	0x3d84b2e7	0.064794354
197	0x3c27c84c	0.010240626
198	0x3a4c2ee4	0.00077889697
199	0x3e515bf9	0.20445241
200	0xbdf96c46	-0.12178855
201	0xbc08ea5f	-0.00835666
202	0xbdacf1a6	-0.08444528
203	0xbdb53b9d	-0.08849261
204	0x3dbf4f8d	0.09341345
205	0xbc414cc9	-0.011798092
206	0xbe606b4d	-0.21915932
207	0x3e6920c0	0.227664
208	0xbdb1c1e6	-0.08679561
209	0xbccfb124	-0.025353022
210	0x3d1632e3	0.036669623
211	0xbbc0c561	-0.0058829044
212	0xbd967b97	-0.07347792
213	0xbc8d4807	-0.01724626
214	0xbe465438	-0.19368064
215	0xbd549832	-0.051902957
216	0x3c2a8d78	0.010409705
217	0xbdb9c9af	-0.09071671
218	0x3e5fc270	0.21851516
219	0x3ce64d56	0.028113049
220	0xbe0ee125	-0.13953073
221	0xbcfca391	-0.030839713
222	0xbd00ba3b	-0.031427603
223	0xbd9a377a	-0.075301126
224	0xbc255fed	-0.010093671
225	0x3e1ae910	0.15127969
226	0x3b82b8c8	0.003989313
227	0xbdb784e5	-0.089608945
228	0xbd422d76	-0.047406636
229	0x3cf1e328	0.029527262
230	0xbdc4b353	-0.09604516
231	0xbda4c2ce	-0.080449685
232	0x3da64ba1	0.08119894
233	0x3e11f799	0.14254607
234	0xbcbd9780	-0.02314353
235	0xbd8a5c96	-0.067559406
236	0xbd218584	-0.03943397
237	0x3c538099	0.012909078
238	0xbd683a64	-0.05669631
239	0x3dc72aa9	0.09724934
240	0x3da1e87a	0.079056695
241	0x3ce927eb	0.028461417
242	0x3d1b1bd2	0.03786833
243	0xbdb1305d	-0.08651803
244	0xbd1d8f8b	-0.03846697
245	0xbda5bca8	-0.08092624
246	0xbd9a956a	-0.0754803
247	0xbe976ead	-0.29576626
248	0x3e09ac90	0.13444734
249	0xbc7fb5a5	-0.015607272
250	0xbdc8ede2	-0.098109975
251	0x3cefec81	0.029287579
252	0xbd223be3	-0.039607894
253	0xbdc4a02b	-0.09600862
254	0xbc5147db	-0.012773479
255	0x3ce05624	0.027384825

layer_x.bias f4 [64]
0	0x3e83bf7f	0.25732037
1	0x3e7f60dd	0.24939294
2	0x3e7aafb4	0.24481088
3	0x3e914dcd	0.2837967
4	0x3e7c6042	0.24646094
5	0x3ea2983a	0.31756765
6	0x3eabc884	0.3355142
7	0x3e7f4070	0.24926925
8	0x3dba28eb	0.09089836
9	0x3e3499a0	0.17636728
10	0x3d67fa97	0.056635465
11	0x3e02939b	0.1275162
12	0x3e6ac8d4	0.22928172
13	0xbbee47d2	-0.0072717452
14	0x3e9b9027	0.30383417
15	0x3d97ef59	0.07418699
16	0x3e0f30f9	0.13983525
17	0x3e65c5f6	0.22438797
18	0x3ea73af8	0.32662177
19	0x3e22b76a	0.1589028
20	0x3e2d7e80	0.16942787
21	0x3e0c2d2c	0.13689107
22	0x3e325178	0.1741389
23	0x3e1b528a	0.15168205
24	0x3e3ad464	0.18245083
25	0x3de11ee4	0.1099222
26	0x3d9ff813	0.07810988
27	0x3e11a73f	0.14223956
28	0x3e4770d3	0.19476633
29	0x3e6e8112	0.23291424
30	0x3b1143b1	0.0022165591
31	0x3e6c4d7a	0.2307643
32	0x3e44196c	0.19150323
33	0x3ec7d2a5	0.39027897
34	0x3e85d93c	0.261423
35	0x3e9c9ce4	0.30588448
36	0x3e4d1b3e	0.20029923
37	0x3e5f2636	0.2179192
38	0x3e40111f	0.18756531
39	0x3ebba40b	0.36648592
40	0x3e9090f4	0.2823559
41	0x3e322ca7	0.17399846
42	0x3e9669a6	0.29377478
43	0x3ed65290	0.41859865
44	0x3eacf4ba	0.33780462
45	0x3dd3bb98	0.10338515
46	0x3e24149a	0.16023484
47	0x3e012153	0.12610368
48	0x3d3e25e4	0.046422854
49	0x3e154078	0.14575374
50	0x3ea92f2f	0.3304381
51	0x3c3f7a1f	0.011686831
52	0x3ea42f1f	0.320672
53	0x3e9468bb	0.28986153
54	0x3da19935	0.0789055
55	0x3cad276d	0.021136964
56	0x3e8db3ed	0.27676335
57	0x3ded6044	0.11590627
58	0x3d0a9c40	0.033840418
59	0x3d174f3b	0.036940794
60	0x3dba6dfe	0.091030106
61	0x3e94bc50	0.2904992
62	0x3e8e0ae1	0.27742675
63	0x3e2199e7	0.15781365

layer_t_1.weight f4 [64, 64]
0	0xbe30abcb	-0.17253034
1	0xbdf3d9d0	-0.11906779
2	0x3d962965	0.07332114
3	0xbdbb177c	-0.09135339
4	0xbe99cc51	-0.30038694
5	0xbe0fcd3e	-0.14043137
6	0x3ddd7654	0.10813585
7	0xbd645191	-0.05574185
8	0x3c8d84f3	0.01727531
9	0x3e8c4139	0.2739351
10	0x3e8f94f9	0.28043345
11	0xbe0b031e	-0.13575408
12	0xbcade4be	-0.021227237
13	0x3d3b57d3	0.045738053
14	0xbe8f1711	-0.27947286
15	0x3ab426d1	0.0013744478
16	0x3e2e2e54	0.1700986
17	0x3d751304	0.059832588
18	0x3de7c031	0.113159545
19	0x3e929760	0.28631115
20	0xbdafe7e5	-0.08589152
21	0xbe1cae4d	-0.15300865
22	0x3e2832b7	0.16425596
23	0xbd4d2c38	-0.050091
24	0xbe50ba76	-0.20383629
25	0xbe167ce5	-0.14696081
26	0xbc14bfcc	-0.009078931
27	0xbd762a54	-0.06009896
28	0xbb7ec9f2	-0.0038877693
29	0xbe2d7d3d	-0.16942306
30	0x3e1d938a	0.15388313
31	0xbe101f6c	-0.14074486
32	0xbd838905	-0.06422619
33	0xbd248614	-0.04016693
34	0x3e55e39c	0.20887607
35	0x3ce696fd	0.028148169
36	0xbd9b8109	-0.07592971
37	0x3e8afd2c	0.2714628
38	0xbe02809e	-0.12744376
39	0x3ec2f287	0.3807566
40	0x3e7e9262	0.24860528
41	0x3d7e6585	0.062108535
42	0xbe925cb4	-0.28586352
43	0xbdf17f97	-0.11791914
44	0xbe180ce8	-0.14848673
45	0x3df94356	0.121710464
46	0x3e05c077	0.13061701
47	0x3e94b14d	0.2904152
48	0x3e0dd82c	0.13851994
49	0xbe9261ad	-0.28590146
50	0xbce432e9	-0.027856307
51	0xbc79dae0	-0.015249938
52	0x3de157cc	0.11003074
53	0x3e5789ba	0.21048632
54	0x3c650b1b	0.0139796985
55	0x3da8120f	0.082065694
56	0xbe5921dc	-0.21204323
57	0x3e0217a6	0.12704334
58	0x3e957d6c	0.29197252
59	0x3e0687d2	0.13137749
60	0x3e821c59	0.25412253
61	0x3d361f23	0.044463288
62	0xbdb9f603	-0.09080126
63	0x3cb96c06	0.022634517
64	0xbcf8ecba	-0.030386318
65	0x3d77fcff	0.06054401
66	0x3ce0d30e	0.027444389
67	0xbda2700a	-0.07931526
68	0x3dff4911	0.12465108
69	0x3c80da5e	0.015729126
70	0x3cbcb955	0.023037592
71	0x3c72dd66	0.014823293
72	0x3d1bae4d	0.038008023
73	0xbda90d1e	-0.08254455
74	0x3dc22012	0.09478773
75	0xbdce19e1	-0.1006353
76	0xbc093d96	-0.0083765
77	0xbeb7a6f7	-0.35869572
78	0xbd8ea7e3	-0.069656156
79	0xbd574b09	-0.052561793
80	0xbe1651e5	-0.14679678
81	0x3df5d0cd	0.12002716
82	0x3e9ab01a	0.3021248
83	0xbdff6ab4	-0.12471524
84	0xbd8d2dbb	-0.06893488
85	0x3eb6c544	0.35697377
86	0x3de726b4	0.11286679
87	0x3e195258	0.14972818
88	0x3e5af368	0.21381915
89	0xbd86c445	-0.06580404
90	0xbdb5b617	-0.088726215
91	0xbc9622a2	-0.018327061
92	0x3da4bab6	0.08043425
93	0xbe9ed745	-0.31023613
94	0xbeb80637	-0.35942242
95	0xbeba6941	-0.36408427
96	0x3d1094ca	0.035298146
97	0x3b5e566b	0.003392602
98	0xbbf45b38	-0.007457163
99	0x3d926fff	0.07150268
100	0xbeaffb25	-0.34371296
101	0x3c789fe5	0.015174841
102	0xbb1ecfa6	-0.0024232655
103	0xbb9fd956	-0.0048782034
104	0x3d900ace	0.07033311
105	0xbce2e3fb	-0.0276966
106	0x3e855110	0.26038408
107	0x3dc0e011	0.09417737
108	0x3b03b0b6	0.0020094342
109	0x3bcac2de	0.0061877808
110	0xbdcd7dca	-0.10033758
111	0xbe11dd95	-0.14244683
112	0x3e996e8b	0.2996715
113	0x3e1f6db8	0.15569198
114	0x3d1d7a6b	0.038446825
115	0x3eb74b07	0.3579943
116	0xbd859378	-0.06522268
117	0xbe118799	-0.14211883
118	0xbc2ad24b	-0.010426114
119	0xbd3602a5	-0.044436116
120	0xbd63ff4a	-0.055663384
121	0xbd2b428a	-0.041811503
122	0x3d49ad4b	0.04923753
123	0x3c1754e7	0.009236551
124	0xbdb52b1b	-0.08846112
125	0xbd86dd92	-0.0658523
126	0x3e8891ff	0.26673886
127	0xbdaddf09	-0.08489806
128	0xbd73ae97	-0.059492674
129	0x38f9ab90	0.00011905201
130	0xbd487aea	-0.048945345
131	0x3bd4aaae	0.006490073
132	0x3cbd2005	0.023086557
133	0xbdcf02b1	-0.10107935
134	0x3cc650e6	0.024208497
135	0x3be59038	0.0070057176
136	0xbe10b15a	-0.14130154
137	0xbd97dcae	-0.07415138
138	0xbd1b7cf1	-0.03796095
139	0xbdb74ef0	-0.08950603
140	0x3cb041bf	0.021515725
141	0x3d9e0714	0.07716194
142	0x3bb7fb31	0.005614661
143	0xbd90ef77	-0.07076924
144	0x3d890c57	0.06691807
145	0x3ddb63c2	0.10712387
146	0xbd883f48	-0.06652695
147	0xbd9379f5	-0.07200996
148	0xbc21b276	-0.009869209
149	0xbd257049	-0.040390287
150	0x3da0a28f	0.078435056
151	0x3d6f0386	0.05835297
152	0xbd7a6a0c	-0.06113629
153	0x3ddcc1eb	0.107791744
154	0xbde81066	-0.11331253
155	0xbc64a071	-0.013954268
156	0xbe169bc8	-0.14707863
157	0xbc30909f	-0.010776668
158	0xbdb57882	-0.08860876
159	0xbda5f5f9	-0.08103556
160	0x3c90a8de	0.017658647
161	0xbcf52592	-0.029925141
162	0xbccaa6dd	-0.02473777
163	0x3cff99c8	0.031201258
164	0x3d9bf3b8	0.07614845
165	0xbd80feb4	-0.06298581
166	0x3d107526	0.03526797
167	0x3dc93303	0.09824183
168	0xbd5dc474	-0.05414243
169	0x3e014baa	0.1262652
170	0x3bb7d386	0.0056099324
171	0xbbb8ca51	-0.0056393524
172	0x3caa0411	0.020753892
173	0x3d3b2224	0.045686856
174	0xbceb3074	-0.028709628
175	0xbd749f1b	-0.059722047
176	0x3cc7c310	0.024385005
177	0x3dcab121	0.09897066
178	0xbdd6d6be	-0.104901776
179	0xbe1c85f3	-0.15285473
180	0xbc82b554	-0.015955605
181	0x3cc4ce20	0.02402407
182	0x3b371578	0.002793638
183	0x3b9e9359	0.0048393426
184	0xbccaa34c	-0.02473607
185	0x3df173ff	0.117897026
186	0xbcfcdd9a	-0.030867387
187	0x3bbbc551	0.005730309
188	0xbc8e4231	-0.017365547
189	0x3da7b22c	0.081882805
190	0x3d4da469	0.050205622
191	0x3d7b99d5	0.061426003
192	0x3ced4053	0.028961336
193	0x3e2a3ef8	0.16625583
194	0xbdefc7e4	-0.11708048
195	0x3d9c39f2	0.0762824
196	0x3d72a64e	0.05924063
197	0x3d66d57e	0.056355946
198	0xbda5a1fe	-0.08087538
199	0xbda9c1b1	-0.08288897
200	0xbdcd3514	-0.100198895
201	0xbc26d67a	-0.010182971
202	0x3d08a408	0.033359557
203	0x3db7cf6f	0.08975112
204	0xbd946b71	-0.07247055
205	0xbdb007c9	-0.08595235
206	0x3d99af4f	0.075041406
207	0x3dbdc377	0.092657976
208	0x3c34468f	0.011003151
209	0xbda65288	-0.0812121
210	0xbca52956	-0.020161312
211	0x3e953ffc	0.2915038
212	0xbdbf3bc3	-0.093375705
213	0xbe086021	-0.1331792
214	0x3d61c49f	0.055119153
215	0xbe09a740	-0.13442707
216	0x3da954c3	0.0826812
217	0x3c9e1596	0.019297402
218	0x3d6d3513	0.057911944
219	0x3b81527f	0.003946602
220	0xbd9fa9f0	-0.07796085
221	0x3da07e4e	0.07836591
222	0xbd8a6e72	-0.06759347
223	0x3c5ab875	0.013349642
224	0x3dd4b015	0.103851475
225	0x3d61363e	0.05498337
226	0x3d0afe05	0.03393366
227	0x3e0424d7	0.12904678
228	0xbe28c117	-0.16479908
229	0xbc2dee5a	-0.0106159095
230	0xbe792a06	-0.24332437
231	0xbdb9697d	-0.090533234
232	0xbcc35185	-0.023842582
233	0x3d6208c3	0.055184137
234	0x3dff6e67	0.124722295
235	0x3cf3f56e	0.029780116
236	0x3dd16d79	0.102259584
237	0x3d00253c	0.03128551
238	0x3d7b220f	0.061311778
239	0x3d5b14c3	0.053486597
240	0xbdeed232	-0.11661185
241	0x3e11a54e	0.14223215
242	0xbc3037de	-0.010755507
243	0x3e48028b	0.1953222
244	0x3d733a40	0.059381723
245	0xbe0f819d	-0.14014287
246	0x3c5603bb	0.013062413
247	0x3d4b9af4	0.04970832
248	0x3e168bff	0.14701842
249	0x3dff3a74	0.12462321
250	0x3d955a67	0.072926335
251	0xbe136227	-0.14392911
252	0xbd96e53f	-0.07367944
253	0xbdcf7fcf	-0.101317994
254	0xbe0901d9	-0.13379611
255	0xbdd36307	-0.10321622

layer_t_1.bias f4 [64]
0	0xbc9adf7f	-0.0189054
1	0xbc1830a2	-0.009288939
2	0xbe264a7c	-0.16239351
3	0x3dd04ba2	0.10170676
4	0x3e49dffd	0.19714351
5	0xbdb347b9	-0.087539144
6	0xbd07f0e9	-0.033188734
7	0xbe590d1e	-0.2119641
8	0x3dd6f58a	0.104960516
9	0x3e527b3a	0.2055482
10	0x3dc8a926	0.097978875
11	0x3cf18d9e	0.029486474
12	0x3e1c85f3	0.15285473
13	0x3cd5d019	0.026100205
14	0xbd117e69	-0.035520945
15	0x3c4872dc	0.012234416
16	0x3d519f74	0.051177457
17	0xbcb71fc0	-0.022354007
18	0x3e21d6cb	0.15804593
19	0xbdba72bb	-0.09103914
20	0xbe5be30b	-0.21473329
21	0x3d76d1e1	0.06025875
22	0x3da4d63f	0.08048677
23	0xbd8598fe	-0.065233216
24	0x3e1c51e3	0.15265612
25	0xbd00141f	-0.03126919
26	0xbd929d28	-0.071588814
27	0x3d45fa55	0.04833444
28	0x3ba7d971	0.0051223566
29	0x3e5fbfd8	0.21850526
30	0xbdebabaa	-0.11507352
31	0xbc4c33c4	-0.012463514
32	0x3d5a9a76	0.05336996
33	0x3dc838f6	0.097764894
34	0x3d9de9d0	0.07710612
35	0xbdfd446f	-0.12366568
36	0xbdc26ee1	-0.09493805
37	0xbd39c0c7	-0.045349862
38	0xbe25e4a0	-0.16200495
39	0x3d0f1686	0.03493359
40	0x3dd05369	0.10172159
41	0x3d4eba2d	0.05047052
42	0xbe714181	-0.23560144
43	0x3da34fe1	0.0797422
44	0x3c7ec7ff	0.0155506125
45	0x3d81d410	0.06339276
46	0xbe184e23	-0.14873557
47	0xbc6e509d	-0.014545587
48	0x3cc10079	0.023559796
49	0xbcf89f4a	-0.030349392
50	0x3c19fae9	0.009398201
51	0xbdc3f304	-0.09567836
52	0x3d9825dd	0.07429097
53	0x3d965cb7	0.07341903
54	0xbdccf5f0	-0.10007846
55	0x3bcc2618	0.006230127
56	0x3e3bad0a	0.18327728
57	0xbcd1b553	-0.025599157
58	0x3dcb90bc	0.09939715
59	0x3d6a3351	0.057177845
60	0xbe0979b1	-0.13425328
61	0xbcf48311	-0.029847654
62	0xbd71b539	-0.059010718
63	0x3d157c3f	0.036495443

layer_t_2.weight f4 [64, 64]
0	0x3e180634	0.14846116
1	0xbde133c8	-0.109962046
2	0x3b15a3be	0.0022833194
3	0x3d0e8160	0.03479135
4	0x3e584f87	0.21124087
5	0x3c6a9bd8	0.014319383
6	0x3c867b78	0.016416296
7	0xbded5de2	-0.11590172
8	0xbc9e6638	-0.019335851
9	0x3e626132	0.2210739
10	0x3e2fec89	0.17180075
11	0x3da40725	0.08009175
12	0x3e2b2acb	0.16715543
13	0xbe3c19ad	-0.1836917
14	0xbe10eb94	-0.14152366
15	0x3d82dad4	0.063893944
16	0xbd472bcb	-0.04862575
17	0xbd8a98a0	-0.06767392
18	0x3d5dcd46	0.054150842
19	0xbcff9c03	-0.031202322
20	0xbe515859	-0.20443858
21	0x3e4fcf05	0.20293815
22	0xbd892f19	-0.06698436
23	0x3d178a1a	0.03699694
24	0x3d0637b6	0.032767974
25	0x3dc43ba9	0.09581692
26	0xbd326bfa	-0.043560006
27	0x3cf552ba	0.029946674
28	0xbd1d46b1	-0.038397495
29	0x3de944aa	0.1139005
30	0xbc05ed40	-0.008174241
31	0xbce32911	-0.027729543
32	0x3e14b823	0.14523368
33	0x3d40bde3	0.04705609
34	0x3dd40162	0.10351826
35	0x3dc77cdf	0.09740614
36	0x3d26aa3e	0.0406897
37	0x3e202a53	0.15641145
38	0xbe4a0b3a	-0.19730845
39	0xbde3d17a	-0.11123939
40	0xbca57a23	-0.02019984
41	0x3d680667	0.05664673
42	0xbdbb38b1	-0.091416724
43	0x3bc6e371	0.0060695936
44	0x3ddf846f	0.109139316
45	0xbd052e80	-0.03251505
46	0xbe40d57c	-0.18831438
47	0x3dbcfc18	0.092277706
48	0xbd808c89	-0.06276805
49	0x3d06d445	0.03291728
50	0xbd8b3197	-0.06796568
51	0x3da889e1	0.08229423
52	0x3d569780	0.052390575
53	0x3d94af41	0.072599895
54	0xbe2addc7	-0.16686164
55	0xbc9507e1	-0.018192234
56	0xbd1d0bdf	-0.0383414
57	0x3cf30756	0.029666584
58	0x3d87a620	0.06623483
59	0xbd89da6d	-0.067311145
60	0xbd584691	-0.052801672
61	0xbdc36ea4	-0.095425874
62	0x3e122b47	0.14274321
63	0x3e498b7b	0.19682114
64	0x3dd732be	0.10507725
65	0xbdfebe40	-0.12438631
66	0xbd645cf2	-0.055752702
67	0x3e010266	0.12598571
68	0x3ca8caca	0.02060451
69	0xbc90acd9	-0.017660545
70	0xbd57b81c	-0.052665815
71	0xbe13ee94	-0.14446479
72	0x3b51c6a3	0.0032009266
73	0x3d123d54	0.03570302
74	0x3e52b91c	0.20578426
75	0xbca0219b	-0.019547274
76	0x3def695d	0.11690018
77	0x3d8007f3	0.06251516
78	0xbd0c7faf	-0.034301456
79	0xbc186f24	-0.009303842
80	0x3dfc0f5a	0.123076156
81	0xbd9436f0	-0.07237041
82	0x3d1530a5	0.036423344
83	0x3d47104a	0.04859952
84	0xbc6d4ff7	-0.014484397
85	0x3df9a9c0	0.1219058
86	0x3dbe7926	0.09300451
87	0xbe02aeb0	-0.1276195
88	0x3d1a7508	0.037709266
89	0x3ce010d3	0.027351772
90	0x3e213928	0.1574446
91	0xbb8eb4f8	-0.0043550692
92	0x3d195ade	0.037440173
93	0x3e370a2e	0.17874977
94	0xbd8dcdd9	-0.06924028
95	0xbd9f8b59	-0.0779025
96	0xbcc83303	-0.024438387
97	0x3d7dd9ae	0.061975174
98	0x3e26591c	0.1624493
99	0xbccbfa74	-0.024899699
100	0x3cb7d51c	0.022440486
101	0xbdae954f	-0.08524572
102	0xbda9bf1f	-0.082884066
103	0xbde06819	-0.10957355
104	0x3e26ff07	0.16308223
105	0x3cebf410	0.028802902
106	0xbda0a69d	-0.07844279
107	0xbd4c36d2	-0.04985697
108	0x3d984b55	0.074362434
109	0xbce61a75	-0.028088788
110	0xbdcf15b4	-0.101115614
111	0xbdd1a6ce	-0.102368936
112	0xbcb635b5	-0.022242406
113	0xbcd97338	-0.026544198
114	0xbd573e6c	-0.052549765
115	0x3e427571	0.18990113
116	0xbd9f749e	-0.07785915
117	0xbe072e8d	-0.13201351
118	0xbdeb9b4b	-0.11504229
119	0xbd89472c	-0.06703028
120	0x3cf2476a	0.029575069
121	0x3e4d2937	0.20035253
122	0x3d88b013	0.066742085
123	0x3d6ff6ee	0.0585851
124	0xbc2f3d95	-0.010695835
125	0xbd972f5f	-0.07382082
126	0x3e09460e	0.1340563
127	0x3dbd96a4	0.09257248
128	0xbd61379b	-0.05498467
129	0x3de82f19	0.11337108
130	0x3d3826dc	0.044958934
131	0x3e15be1d	0.14623304
132	0xbe20a75b	-0.15688841
133	0x3b7e9f4c	0.0038852273
134	0xbb11f125	-0.0022268977
135	0x3dc5d60f	0.09659969
136	0x3d501309	0.050799403
137	0xbdb6463f	-0.08900117
138	0xbdfcf894	-0.123521
139	0xbde454d4	-0.11148992
140	0x3cf43304	0.029809482
141	0x3d744f8b	0.05964617
142	0x3db8e9ab	0.09028944
143	0x3dac0082	0.08398534
144	0xbb0edd8c	-0.0021799533
145	0x3e157859	0.1459669
146	0x3cf58ea6	0.029975247
147	0x3d14f7a4	0.03636898
148	0x3d15fd77	0.036618676
149	0xbcfdaecc	-0.030967139
150	0xbd92e0e7	-0.07171803
151	0xbc969fd0	-0.018386751
152	0xbd353b1d	-0.044245828
153	0xbd98e71f	-0.07465958
154	0xbdd17865	-0.102280416
155	0xbb1f4fad	-0.0024308965
156	0xbddc5811	-0.10758985
157	0xbd9cc1df	-0.076541655
158	0xbb5ff094	-0.0034170495
159	0x3c8dcc6f	0.017309396
160	0xbca701c7	-0.02038659
161	0x3d09c127	0.03363147
162	0xbe292147	-0.165166
163	0x3d8b4503	0.06800272
164	0x3d1ea7a2	0.038734086
165	0x3c909c29	0.017652588
166	0x3c8f95ab	0.017527422
167	0x3e0e9d27	0.13927136
168	0x3ccbd278	0.024880633
169	0x3df84a1b	0.121235095
170	0xbd9eabcf	-0.07747614
171	0xbe043f77	-0.12914835
172	0xbe036ab2	-0.1283367
173	0xba90dd38	-0.0011052256
174	0x3da66666	0.08125
175	0xbdc1f2e4	-0.09470156
176	0x3b36fc53	0.0027921393
177	0xbbd633e9	-0.00653695
178	0x3c8cc219	0.017182397
179	0xbd0daa5b	-0.03458629
180	0x3dec7084	0.11544898
181	0x3db8cb56	0.09023158
182	0xbd576fd4	-0.052596882
183	0xbd58a48b	-0.052891295
184	0xbc0c4f15	-0.0085637765
185	0xbcb32476	-0.021867972
186	0xbd11eb79	-0.035624955
187	0xbc304343	-0.010758224
188	0x3d1643de	0.036685817
189	0xbc31e3e9	-0.010857561
190	0x3d5ab716	0.05339726
191	0xbd920bff	-0.07131194
192	0x3e1154ad	0.14192457
193	0xbe4f51c3	-0.20246033
194	0xbdaa90ec	-0.08328423
195	0xbdd22241	-0.1026044
196	0x3e14863f	0.14504336
197	0x3c611474	0.013737787
198	0xbcc6af96	-0.024253648
199	0xbe7fc10f	-0.2497599
200	0x3d2643c5	0.040591974
201	0x3dbffb72	0.09374131
202	0x3dbdc093	0.09265246
203	0x3d41f595	0.047353346
204	0x3e83f07c	0.25769413
205	0xbdec8e46	-0.11550574
206	0xbe2a3b9c	-0.16624302
207	0x3e389e8c	0.18029231
208	0x3dec6d62	0.115443006
209	0xbdc47640	-0.09592867
210	0x3d8159ce	0.06315957
211	0x3d6866cc	0.05673866
212	0xbe365261	-0.17804863
213	0x3e305988	0.17221653
214	0x3c814485	0.015779743
215	0xbe2015af	-0.15633272
216	0x3e38bd95	0.1804107
217	0xbdbdebd0	-0.09273493
218	0x3db6cf54	0.089262635
219	0x3df0b045	0.11752371
220	0x3de7c8cd	0.113175966
221	0x3e221e66	0.15831909
222	0xbe272e25	-0.16326196
223	0xbe0c7d5c	-0.13719696
224	0x3dec2543	0.115305446
225	0x3b96a1d8	0.00459693
226	0x3e7ccb0e	0.24686834
227	0x3dd38060	0.1032722
228	0xbdb86cf7	-0.090051584
229	0x3da31ba9	0.0796426
230	0xbd45a02c	-0.048248455
231	0xbc2b31f0	-0.010448918
232	0x3d5ff192	0.05467374
233	0xbd750b52	-0.05982525
234	0xbe64fdb8	-0.22362411
235	0xbd407ffd	-0.04699706
236	0x3cf74b53	0.030187285
237	0x3de07402	0.10959627
238	0xbe830b59	-0.25594595
239	0xbd83199f	-0.06401371
240	0x3b9d1726	0.0047940193
241	0xbdae601a	-0.08514424
242	0x3dcca088	0.099915564
243	0xbc951579	-0.018198716
244	0x3e356e7b	0.17717926
245	0xbd59e757	-0.05319914
246	0xbde43144	-0.11142209
247	0xbde06145	-0.10956053
248	0xbdaaa204	-0.08331683
249	0x3cb990b8	0.022652015
250	0x3e044e0f	0.12920402
251	0x3d3b0129	0.045655403
252	0x3d919efd	0.07110403
253	0x3d1231de	0.03569209
254	0x3df58bca	0.11989553
255	0x3e36df52	0.17858627

layer_t_2.bias f4 [64]
0	0x3d3f0989	0.046639953
1	0xbd9fd56d	-0.078043796
2	0x3d985bcf	0.07439386
3	0xbd5a9d21	-0.053372506
4	0xbd907825	-0.07054166
5	0xbc2aa112	-0.010414379
6	0x3db64ab8	0.0890097
7	0x3cea2f51	0.028587015
8	0xbe096ece	-0.13421175
9	0xbb0680ea	-0.0020523616
10	0xbdfb8475	-0.122811235
11	0x3bf25c4f	0.007396258
12	0x3e40aeee	0.1881673
13	0xbd62592b	-0.05526082
14	0x3d502d3a	0.05082438
15	0xbd3bd269	-0.04585496
16	0xbcf1844e	-0.029482033
17	0x3c0a99ae	0.008459492
18	0x3dc21963	0.094774984
19	0xbce659c5	-0.028118977
20	0xbdc6bdb8	-0.09704155
21	0x3d5eb677	0.05437323
22	0x3d9a3b23	0.07530811
23	0xbd5e0727	-0.05420604
24	0xbe114f53	-0.14190416
25	0xbd054ac1	-0.032541994
26	0xbe1160cb	-0.1419708
27	0xbde29106	-0.11062817
28	0x3d4148a8	0.04718843
29	0x3de3d48f	0.11124527
30	0x3de6c116	0.11267297
31	0x3bab87db	0.005234701
32	0x3dc9f584	0.098612815
33	0x3d45b3cf	0.048267182
34	0xbdade840	-0.08491564
35	0x3d997e58	0.07494801
36	0xbda1d5c5	-0.079021014
37	0x3dd5d5da	0.104411796
38	0x3dd6de25	0.104915895
39	0xbd683f23	-0.056700837
40	0xbce33772	-0.0277364
41	0xbbe6f96c	-0.0070487764
42	0x3ce73ca4	0.028227158
43	0xbe0defbc	-0.13860983
44	0xbd76014e	-0.060059838
45	0xbe26bcc6	-0.16282949
46	0x3cf3c5c2	0.029757384
47	0x3d2adc82	0.0417142
48	0xbd59023d	-0.05298065
49	0x3dd5139c	0.10404131
50	0xbb87539a	-0.004129839
51	0x3d865645	0.06559423
52	0x3db26249	0.08710153
53	0x3dabfba6	0.083976075
54	0x3b7b7ed7	0.0038375163
55	0xbdb125be	-0.08649777
56	0xbe26748f	-0.16255401
57	0xbbd70aef	-0.0065625827
58	0xbd3c5731	-0.04598159
59	0xbd24c35a	-0.040225364
60	0x3dd9f245	0.10641912
61	0xbe175408	-0.14778149
62	0xbe1445e8	-0.14479792
63	0x3d8172d8	0.06320733

layer_out_1.weight f4 [64, 64]
0	0xbd4437b9	-0.047904704
1	0x3d6e2ee5	0.05815019
2	0xbe07ead8	-0.1327318
3	0xbd16dc4b	-0.03683118
4	0x3d2a30d4	0.041550472
5	0xbcb210f4	-0.0217366
6	0x3c1da71c	0.0096223615
7	0x3d4a102b	0.049331825
8	0xbe063421	-0.13105823
9	0xbd967e83	-0.07348349
10	0xbc2b735f	-0.010464518
11	0x3e03eb92	0.12882832
12	0xbc653ebf	-0.013992011
13	0x3cfb68c0	0.030689597
14	0x3d7a7388	0.061145335
15	0xbe08662d	-0.13320227
16	0xbdb394ec	-0.08768639
17	0xbd6dcdd6	-0.05805763
18	0x3c2c025c	0.010498609
19	0x3d301e90	0.042997897
20	0x3da6d358	0.08145779
21	0xbd626173	-0.055268716
22	0xba8961e9	-0.001048145
23	0x3d9fc1c4	0.0780063
24	0xbd8215b5	-0.063517965
25	0x3dc90d71	0.09817017
26	0x3de04280	0.10950184
27	0x3c060041	0.0081787715
28	0x3d006f5e	0.031356208
29	0x3daef44b	0.08542689
30	0xbd917063	-0.07101514
31	0xbcf469af	-0.02983555
32	0xbd6c31b5	-0.05766459
33	0x3cff4cdd	0.031164581
34	0x3d1179e3	0.03551663
35	0xbe05e817	-0.13076816
36	0xbb8f1955	-0.0043670335
37	0x3df316ee	0.11869608
38	0x3d1bf968	0.03807965
39	0x3d364c54	0.044506386
40	0x3de17cd4	0.11010137
41	0xbda1c84f	-0.07899534
42	0x3b1e6d13	0.00241739
43	0x3e000485	0.12501724
44	0xbd50375d	-0.05083405
45	0x3dfddc8b	0.12395581
46	0x3d47e4bb	0.04880212
47	0x3d62eed2	0.055403538
48	0x3d886b6c	0.06661114
49	0x3d87b423	0.06626155
50	0xbc4fa1f5	-0.012672891
51	0xbd762e8c	-0.060102984
52	0xbdc449de	-0.095844015
53	0x3d47c830	0.048774898
54	0xbcaf823e	-0.021424409
55	0xbd1fcff6	-0.039016686
56	0xbd885cac	-0.06658301
57	0x3b05ec97	0.0020435208
58	0xbd842cc9	-0.064538546
59	0x3caa1695	0.020762721
60	0x3da878f6	0.082261965
61	0x3df7ae3a	0.12093778
62	0xbd8abf70	-0.06774795
63	0xbd81a2aa	-0.06329854
64	0xbcaf653d	-0.021410579
65	0x3b4744b1	0.0030405934
66	0x3db3dd6f	0.087824695
67	0xbd840dd6	-0.064479515
68	0x3d55823d	0.052126158
69	0xbd28731e	-0.04112541
70	0xbe0ea7e7	-0.13931237
71	0xbd137548	-0.03600052
72	0x3c07e2f7	0.008293859
73	0x3cb73fe0	0.022369325
74	0x3cca45ca	0.024691481
75	0xbb435f68	-0.0029811505
76	0x3d292600	0.041296005
77	0x3e125dc7	0.14293586
78	0xbd9b1d90	-0.07573998
79	0xbd820b54	-0.06349817
80	0xbcdf04c4	-0.027223952
81	0xbcc3831b	-0.023866227
82	0x3dbd3527	0.09238654
83	0x3d8d5761	0.06901432
84	0x3d1456a9	0.036215458
85	0x3e01efeb	0.12689178
86	0xbdc09293	-0.09402957
87	0xbd10c17c	-0.03534077
88	0x3d3ef1bb	0.04661725
89	0xbd8bad49	-0.06820161
90	0xbd63857e	-0.05554723
91	0xbd093f89	-0.033507857
92	0xbccaff80	-0.024780035
93	0xbd977e13	-0.073970936
94	0x3d753958	0.05986914
95	0x3d083f4f	0.0332635
96	0xbdbf5743	-0.09342816
97	0x3cad8f18	0.021186396
98	0xbe01619a	-0.12634888
99	0x3bf75650	0.007548131
100	0xbd504fc3	-0.050857317
101	0xbced39bf	-0.0289582
102	0x3e19e03b	0.15026943
103	0x3d43acb5	0.047772128
104	0xbd9941dd	-0.074832655
105	0xbdc2e07f	-0.095154755
106	0x3d02b3b3	0.031909656
107	0xbc27ebfd	-0.010249135
108	0x3db528f5	0.088457026
109	0xbd54e144	-0.051972643
110	0xbd596329	-0.053073082
111	0x3b5f264b	0.0034049924
112	0xbb14ebaa	-0.0022723475
113	0x3df69fc1	0.120421894
114	0x3d8980f6	0.067140505
115	0x3d54923c	0.051897272
116	0xbd0c0b06	-0.0341902
117	0x3cb31029	0.021858292
118	0xbd963ad1	-0.07335437
119	0xbd9b2cfc	-0.075769395
120	0xbc824bf5	-0.01590536
121	0xbd622c4d	-0.05521803
122	0x3c06d4d2	0.008229451
123	0xbb83c548	-0.0040213205
124	0x3da5f3d6	0.08103149
125	0xbbf30d34	-0.0074173454
126	0xbc9401e2	-0.018067304
127	0xbd36edcc	-0.044660375
128	0xbd8c949b	-0.06864282
129	0x3db41c0e	0.087944135
130	0x3d1d174b	0.038352292
131	0xbdcc3fd7	-0.09973114
132	0xbd811163	-0.063021444
133	0xbe0253e0	-0.12727308
134	0xbb706f97	-0.0036687606
135	0x3da22811	0.07917798
136	0xbe0de674	-0.13857442
137	0xbcfc791b	-0.030819466
138	0xbda65920	-0.08122468
139	0x3dd3bf75	0.10339252
140	0xbcb1d84c	-0.021709584
141	0xbd7da7e7	-0.061927702
142	0x3de6f6cf	0.11277544
143	0xbd804215	-0.06262604
144	0xbc4616b1	-0.012090371
145	0x3c82e5a9	0.015978651
146	0xbd96c5ad	-0.073619224
147	0xbbcf44ad	-0.0063253255
148	0xbd56e386	-0.052463077
149	0x3d286118	0.04110822
150	0x3d2a2262	0.041536696
151	0x3df748b2	0.120744124
152	0x3d425a6c	0.047449514
153	0xbc95fb44	-0.01830829
154	0x3da27b89	0.07933719
155	0xbc861e0b	-0.016371747
156	0xbbabaf83	-0.0052394285
157	0xbcd6aeab	-0.026206335
158	0xbdf9cb33	-0.1219696
159	0xbd07e3d7	-0.03317627
160	0x3b8d9d1d	0.004321708
161	0xbd0c072c	-0.034186527
162	0xbd88d46d	-0.06681142
163	0xbe0959c2	-0.13413146
164	0xbde94f1e	-0.113920435
165	0x3e2983c8	0.16554177
166	0xbd63f264	-0.055651084
167	0xbd04cb81	-0.03242064
168	0x3e111ba9	0.14170708
169	0xbcecb522	-0.028894965
170	0xbd612ab3	-0.05497236
171	0x3c8751c7	0.016518487
172	0x3de42d5f	0.11141466
173	0x3dde937f	0.108679764
174	0x3da4a867	0.08039933
175	0xbd8d60e0	-0.06903243
176	0xbd438a6c	-0.04773943
177	0x3cb8da2b	0.022564968
178	0x3dbeaf9b	0.09310838
179	0xbd34c397	-0.04413184
180	0xbddb422d	-0.107059814
181	0x3c468396	0.0121163335
182	0x3dfce82b	0.1234897
183	0x3b97b409	0.004629616
184	0x3e0e8345	0.13917263
185	0xbd28d2c3	-0.041216623
186	0x3d451c51	0.048122708
187	0x3cb09496	0.021555226
188	0xbd51e346	-0.051242135
189	0x3d5e092d	0.05420797
190	0xbc51e415	-0.012810727
191	0x3cd533b8	0.026025638
192	0x3c56eb5f	0.01311764
193	0x3db2a805	0.087234534
194	0xbcef528c	-0.029214166
195	0xbd911c85	-0.07085518
196	0xbd5c7120	-0.053818822
197	0x3da9f672	0.08298959
198	0x3da7a350	0.08185446
199	0xbd78927d	-0.060686577
200	0xbdd456ab	-0.10368093
201	0xbd4058aa	-0.046959557
202	0x3e0211c3	0.12702088
203	0xbe108751	-0.14114119
204	0x3dc2414b	0.0948511
205	0x3d0ffc79	0.035152886
206	0x3c498d40	0.012301743
207	0xbdb7a05e	-0.089661345
208	0x3d245e46	0.04012897
209	0xbcd7ea44	-0.026356824
210	0xbd77387a	-0.060356595
211	0x3dbca502	0.0921116
212	0xbdd51355	-0.10404078
213	0xbc0df9e4	-0.008665536
214	0xbe0ff268	-0.14057314
215	0xbc9a7c9e	-0.01885825
216	0xbddea638	-0.108715475
217	0xbdb84c4b	-0.08998927
218	0xbd8ee3e9	-0.06977064
219	0xbb6388c7	-0.0034718977
220	0xbd6b5c6e	-0.057461195
221	0x3d2aa14e	0.04165774
222	0xbd9fc5a6	-0.0780137
223	0xbd33d9f8	-0.043909043
224	0x3e029140	0.12750721
225	0xbd05a0b1	-0.03262395
226	0xbe0643dd	-0.13111825
227	0x3d65be01	0.056089405
228	0x3d5198a6	0.051170968
229	0x3ccc2b8d	0.02492311
230	0x3d1f557b	0.03889988
231	0xbd08b744	-0.0333779
232	0x3ddf56eb	0.1090525
233	0xbd662ecf	-0.056196984
234	0xbd7ef538	-0.062245578
235	0x3cf2da96	0.029645246
236	0x3b248ef6	0.0025109625
237	0xbd2afcce	-0.041745
238	0xbde77e37	-0.113033704
239	0xbc5993a6	-0.013279831
240	0x3d06461f	0.032781716
241	0xbca96f83	-0.020683056
242	0xbce1051b	-0.027468255
243	0xbc7e94cb	-0.015538405
244	0xbdeafa00	-0.11473465
245	0x3dbee43b	0.09320875
246	0x3d9965dc	0.07490131
247	0x3ddfe026	0.10931425
248	0xbd80d6d7	-0.062909774
249	0xbe003256	-0.12519202
250	0x3dab8713	0.08375373
251	0xbd9ed293	-0.077550076
252	0x3db4ef77	0.08834737
253	0xbc529dd7	-0.012855015
254	0xbcdde545	-0.027086863
255	0x3c16aa18	0.009195827

layer_out_1.bias f4 [64]
0	0xbe3b231b	-0.1827511
1	0xbd5c0767	-0.053717997
2	0xbccce3e1	-0.025011005
3	0xbd3f1ae1	-0.046656493
4	0xbcf8d4d3	-0.03037492
5	0xbe039a7a	-0.12851897
6	0xbdb9c5a9	-0.09070904
7	0xbc8b3499	-0.016992854
8	0xbc78cc1d	-0.015185383
9	0xbc729108	-0.014805086
10	0x3d828068	0.06372148
11	0x3d6a197c	0.05715321
12	0xbd1fd2d2	-0.039019413
13	0xbc0ca4d1	-0.008584217
14	0xbcd0de42	-0.025496606
15	0x3d36d625	0.044637818
16	0x3d609ccb	0.05483703
17	0x3d1fd246	0.03901889
18	0xbcd18954	-0.025578178
19	0xbd358030	-0.044311702
20	0xbde8e9d0	-0.11372721
21	0xbddce1c7	-0.10785251
22	0xbceb94a7	-0.028757406
23	0xbe208987	-0.15677463
24	0x3d60bcd4	0.05486758
25	0x3d4c6233	0.049898338
26	0xbd4b0ad0	-0.04957086
27	0xbdbd097b	-0.09230324
28	0xbd36b052	-0.044601746
29	0xbda4e538	-0.080515325
30	0xbdbb1b7d	-0.09136102
31	0x3dcac959	0.09901685
32	0xbdb0bfd4	-0.08630338
33	0x3d77d724	0.06050791
34	0x3cfe0e8d	0.031012798
35	0xbe192e6d	-0.14959116
36	0x3da68ccb	0.08132323
37	0xbdbe57f4	-0.092941195
38	0x3d574cdd	0.052563537
39	0x3d774f47	0.06037834
40	0x3d84cf58	0.0648486
41	0xbdd8a776	-0.10578816
42	0x3dd49131	0.103792556
43	0x3cf8dc6f	0.030378548
44	0x3ce982b2	0.028504703
45	0x3b35b97c	0.0027728966
46	0xbd732975	-0.05936571
47	0xbd71d23e	-0.059038393
48	0x3e0aed8b	0.13567178
49	0x3ddf74a1	0.10910917
50	0xbdf3168e	-0.11869536
51	0x3dd56642	0.10419895
52	0x3d8ff4b6	0.07029097
53	0xbe071969	-0.13193287
54	0x3d598abc	0.053110823
55	0xbdde01ae	-0.10840164
56	0x3dab3df7	0.08361428
57	0xbc979081	-0.018501522
58	0xbc070985	-0.008242016
59	0x3d4ea6f6	0.050452195
60	0xbd8c19e5	-0.068408765
61	0x3cc14575	0.02359269
62	0x3cd8cd8f	0.026465205
63	0x3dbc6eff	0.09200858

layer_out_2.weight f4 [53, 64]
0	0xbdbd1117	-0.09231775
1	0xbd089cda	-0.03335271
2	0x3dbabead	0.091184
3	0xbda7367d	-0.0816469
4	0x3e0abe70	0.13549209
5	0x3bd856b8	0.0066021346
6	0xbe19ef9e	-0.15032813
7	0xbcb04e1f	-0.021521626
8	0x3d4d80a0	0.050171494
9	0xbd2f0bcc	-0.04273586
10	0x3c269d94	0.0101694055
11	0xbba79267	-0.005113888
12	0x3dfc04ef	0.123056285
13	0x3c9dc2f9	0.01925801
14	0xbe050c29	-0.1299292
15	0x3d87bfc3	0.066283725
16	0xbccdf276	-0.025140028
17	0xbd0231aa	-0.031785645
18	0xbde36d43	-0.111048244
19	0xbd599847	-0.05312374
20	0xbd41e21b	-0.04733477
21	0xbd9c35fc	-0.07627484
22	0x3dccb49a	0.099953845
23	0xbd91574e	-0.0709673
24	0x3d326e89	0.043562446
25	0xbd665921	-0.056237344
26	0x3dc5c54d	0.09656773
27	0xbdab4c0d	-0.08364115
28	0xbce48cfd	-0.02789926
29	0xbd7681e2	-0.06018246
30	0xbe17796e	-0.14792415
31	0xbd8e463d	-0.06946991
32	0xbdb7d665	-0.089764394
33	0xbcae1a38	-0.021252736
34	0x3dffc963	0.12489583
35	0x3d9b6971	0.07588471
36	0x3dbf2ab5	0.093343176
37	0xbdc42841	-0.0957799
38	0x3cc03347	0.023461951
39	0x3df2252b	0.118234955
40	0x3d1ffd90	0.039060175
41	0x3dc41ccd	0.09575806
42	0xbe0e168e	-0.13875791
43	0xbda0602a	-0.07830842
44	0xbda9de24	-0.08294323
45	0x3d057497	0.032581892
46	0x3da8465d	0.08216546
47	0x3c9ae9cf	0.018910317
48	0x3e106755	0.14101918
49	0x3c31a158	0.01084169
50	0x3da98f3d	0.08279274
51	0x3cfe177b	0.031017056
52	0x3e2e0b3e	0.16996476
53	0xbd484548	-0.048894197
54	0xbd99a972	-0.07503022
55	0xbd957a7f	-0.07298755
56	0x3ded85d2	0.1159779
57	0x3d4e0d8f	0.0503059
58	0x3d038c52	0.03211624
59	0xbd368bf4	-0.044567063
60	0x3c8c8cdc	0.01715701
61	0x3cd5d38c	0.02610185
62	0x3da53b87	0.080679946
63	0xbddd3a00	-0.10802078
64	0xbdd45daf	-0.10369431
65	0x3df29420	0.11844659
66	0x3d40706b	0.04698221
67	0x3d3b6498	0.04575023
68	0xbd368564	-0.044560805
69	0x3ddf5b74	0.10906115
70	0x3d913974	0.070910364
71	0x3da2cb86	0.07948975
72	0x3d1ffaf2	0.03905768
73	0xbc4767c9	-0.01217074
74	0x3d036e26	0.032087468
75	0x3da40a25	0.080097474
76	0xbca66824	-0.02031333
77	0x3dbc8f1f	0.09206986
78	0xbbf74538	-0.0075460933
79	0x3d58554d	0.052815724
80	0xbd91f0f0	-0.07126033
81	0xbd8808a9	-0.06642277
82	0x3d1a9aaa	0.037745155
83	0x3bf7e010	0.007564552
84	0x3c928bb5	0.017888883
85	0x3cd613bf	0.026132463
86	0x3cbf8d69	0.02338286
87	0x3988ea08	0.00026114308
88	0x3d36b0ca	0.044602193
89	0xbd6df633	-0.058096122
90	0x3b81dd82	0.0039631734
91	0xbcba1109	-0.022713201
92	0x3d75dc62	0.060024627
93	0x3c8929d3	0.016743576
94	0xbd7ce957	-0.061745968
95	0xbd8ad24b	-0.067783915
96	0xbe21dc08	-0.15806592
97	0x3c3d147b	0.011540527
98	0x3d7eb8dd	0.062188018
99	0x3ca0a920	0.019611895
100	0xbced68bd	-0.028980607
101	0xbddee196	-0.10882871
102	0xbd5f4960	-0.054513335
103	0x3dab81ba	0.08374353
104	0xbce67d9e	-0.02813607
105	0x3ccc841a	0.024965335
106	0x3d178d48	0.03699997
107	0x3dd3facf	0.10350572
108	0xbdb25807	-0.08708196
109	0xbd624899	-0.055245016
110	0x3da09d57	0.0784251
111	0x3c44710c	0.011989843
112	0xbce40c7a	-0.02783798
113	0xbd63960a	-0.05556301
114	0x3c7a08cf	0.015260889
115	0xbd7bee36	-0.061506473
116	0x3ba07655	0.004896919
117	0xbccee43c	-0.025255315
118	0xbd4739ab	-0.04863898
119	0xbda7a019	-0.08184833
120	0x3d95e39d	0.073188044
121	0xbdca773f	-0.09886026
122	0xbcdf0c10	-0.027227432
123	0x3d46d1c5	0.048539896
124	0x3da07905	0.07835583
125	0xbdc5bacb	-0.096547686
126	0x3b9e33d9	0.004827958
127	0xbc11337e	-0.008862374
128	0x3c48a270	0.012245759
129	0xbd052e96	-0.03251513
130	0x3adb0732	0.0016710518
131	0x3db3fdd6	0.0878865
132	0xbd0f723c	-0.03502105
133	0x3ce9972b	0.028514465
134	0x3d336221	0.043794755
135	0xbd9fa563	-0.07795217
136	0xbd394754	-0.04523404
137	0x3d80d92f	0.062914245
138	0xbd9c594b	-0.07634219
139	0x3d0c6ed3	0.034285378
140	0xbd795e89	-0.06088117
141	0xbdea0a69	-0.11427767
142	0xbc160cec	-0.009158354
143	0x3de54a77	0.11195844
144	0xbd82dabc	-0.063893765
145	0xbcfb7480	-0.0306952
146	0xbd59bd95	-0.053159315
147	0x3e44716d	0.19183894
148	0x3dbe244e	0.09284268
149	0x3d7e1ed6	0.062041126
150	0x3d33833e	0.043826334
151	0xbd38dfec	-0.045135424
152	0xbb055e73	-0.0020350486
153	0xbd2b607b	-0.041840058
154	0xbda429ad	-0.080157615
155	0xba0a3b83	-0.000527315
156	0xbda083f7	-0.0783767
157	0xbd308f3a	-0.04310534
158	0x3e0489f9	0.12943257
159	0xbe07377f	-0.13204764
160	0xbdefa932	-0.11702193
161	0x3d295f26	0.041350506
162	0xbdd6206f	-0.10455405
163	0xbd2f8e7b	-0.04286049
164	0xbc41315f	-0.011791556
165	0xbd6d3688	-0.057913333
166	0xbd922391	-0.0713569
167	0x3db03260	0.08603358
168	0x3cc7c799	0.024387168
169	0xbdaab2cb	-0.08334883
170	0xbd8c8d0a	-0.068628386
171	0x3e17d512	0.14827374
172	0x3d787b7a	0.06066463
173	0x3d7bcb8c	0.061473414
174	0x3dfd4288	0.123662055
175	0x3d9d8e00	0.076931
176	0xbb0f8c13	-0.002190356
177	0xbdde4f7c	-0.10855004
178	0xbda3b4a9	-0.079934426
179	0xbd0a8c84	-0.033825412
180	0x3d87d6cb	0.066327654
181	0x3d55a16c	0.052155897
182	0xbd043e0c	-0.032285735
183	0xbd7cad1c	-0.061688527
184	0x3dfa83a5	0.122321405
185	0xbaa2d1cf	-0.0012422147
186	0x3e108d67	0.1411644
187	0xbe21dbb5	-0.15806468
188	0xbdd500b0	-0.10400522
189	0x3ddf9bb1	0.10918368
190	0x3db555a9	0.08854229
191	0x3c90886d	0.017643178
192	0xbd97373d	-0.07383583
193	0x3dd9af5c	0.1062915
194	0x3cc93dcd	0.024565602
195	0x3d537981	0.051629547
196	0xbccce66d	-0.02501222
197	0xbbc27e30	-0.005935453
198	0x3d0deb94	0.034648493
199	0xbb3a4388	-0.00284216
200	0x3d033d15	0.032040674
201	0x3dd867c6	0.10566668
202	0x3e01522c	0.12629002
203	0xbdd9338f	-0.10605537
204	0xbdca7b5f	-0.098868124
205	0x3c9a5547	0.018839492
206	0xbcc325ee	-0.023821797
207	0xbd49af94	-0.04923971
208	0xbcffaa41	-0.031209113
209	0xbc702f94	-0.014659781
210	0xbc9f54f8	-0.019449696
211	0xbc3314f2	-0.010930287
212	0x3ca66eaf	0.02031645
213	0x3c8321d6	0.016007345
214	0xbd37bb13	-0.044856142
215	0xbda95721	-0.08268572
216	0x3d374141	0.044739965
217	0xbdc48b6a	-0.095969036
218	0xbdc4afc7	-0.09603839
219	0xbc865805	-0.016399393
220	0xbdb7b7cd	-0.08970604
221	0xbd84e553	-0.064890526
222	0xbc6826b6	-0.014169386
223	0xbd808e31	-0.06277121
224	0xbd197eca	-0.03747443
225	0xbcd0ff1d	-0.025512272
226	0xbd2168cc	-0.039406583
227	0xbda2cd70	-0.0794934
228	0xbac27464	-0.0014835712
229	0x3d358d13	0.044323992
230	0x3dbbb4df	0.09165358
231	0x3dea792b	0.11448892
232	0x3d0a3b07	0.0337477
233	0x3d796d2c	0.06089513
234	0xbc428848	-0.011873312
235	0x381db8a4	3.7603677e-05
236	0x3da5f026	0.08102445
237	0xbcaedb5c	-0.021344833
238	0x3d80e924	0.06294468
239	0xbd9a3d3f	-0.07531213
240	0x3c272ade	0.010203091
241	0x3c9b8d12	0.018988166
242	0x3b1561d2	0.00227939
243	0x3db767a5	0.089553155
244	0x3df39ae9	0.11894781
245	0xbcd0027b	-0.025391808
246	0xbd418296	-0.047243677
247	0xbd55555c	-0.05208336
248	0xbb6c31e5	-0.0036040482
249	0x3c95eb39	0.01830064
250	0xbd7e6396	-0.06210669
251	0x3d5d823a	0.05407927
252	0xbc3403db	-0.010987247
253	0x3d0752d2	0.033037968
254	0xbcd58616	-0.026064914
255	0xbdabcd02	-0.083887115

layer_out_2.bias f4 [53]
0	0x3cdf618a	0.02726819
1	0x3c91a3fa	0.017778385
2	0x3d3ea2e1	0.046542052
3	0xbd02e836	-0.031959735
4	0xbc8c60e2	-0.017136041
5	0x3c548f3b	0.012973602
6	0xbdbc481a	-0.0919344
7	0xbd427b53	-0.047480892
8	0x3d03a25f	0.03213727
9	0xbd51356e	-0.051076345
10	0x3cc9caad	0.024632776
11	0x3ce130e8	0.02748914
12	0x3d6827c8	0.056678563
13	0x3cd68ce1	0.026190223
14	0xbc7fa936	-0.015604308
15	0xbd92fb14	-0.071767956
16	0x3caaab4f	0.02083364
17	0xbc1d9319	-0.00961759
18	0x3c258a57	0.010103784
19	0xb98add51	-0.00026486305
20	0xbc82ccb1	-0.015966745
21	0xbd51359b	-0.051076513
22	0x3cba0008	0.022705093
23	0xbb5eae96	-0.0033978573
24	0xbd7820ff	-0.060578343
25	0x3b06ef88	0.002058955
26	0xbc44cec0	-0.012012184
27	0xbc31e833	-0.010858583
28	0xbd01ac64	-0.031658545
29	0x3c062d96	0.0081895795
30	0xbc40daf0	-0.011770949
31	0xbce6e3d8	-0.028184816
32	0x3db58d77	0.08864873
33	0x3bc6e0ea	0.0060692923
34	0xbcd69092	-0.026191983
35	0x3d8f1528	0.06986457
36	0x3d7fbe22	0.062437184
37	0xbd90c904	-0.07069591
38	0x3c0cc7aa	0.0085925255
39	0x3c7b9b0f	0.015356793
40	0xbd5f73da	-0.054553844
41	0xbd8b1b4a	-0.06792314
42	0xbca80a9e	-0.020512875
43	0xbc2202d6	-0.009888371
44	0xbd962716	-0.07331674
45	0xbc801ec7	-0.015639676
46	0x3c16a92e	0.009195609
47	0xbca28342	-0.01983798
48	0x3cb7b3f3	0.022424674
49	0x3d816627	0.06318312
50	0xbd003418	-0.03129968
51	0xbc577bce	-0.013152076
52	0x3ce2781b	0.027645161

residual_layers.0.layer_norm.weight f4 [64]
0	0x3f7eafc8	0.9948697
1	0x3f80f552	1.0074866
2	0x3f82ae22	1.0209391
3	0x3f7bfef8	0.98435926
4	0x3f781109	0.96900994
5	0x3f75e296	0.9604887
6	0x3f981b8d	1.1883408
7	0x3f839a42	1.0281451
8	0x3f7ec12a	0.99513495
9	0x3f6e85f9	0.93173176
10	0x3f78091a	0.9688889
11	0x3f6c41e8	0.92288065
12	0x3f788efa	0.97093165
13	0x3f6ccf7c	0.92504096
14	0x3f7a429f	0.97757906
15	0x3f74a1e6	0.9555954
16	0x3f751bad	0.95745355
17	0x3f86a297	1.0518368
18	0x3f7bb7d1	0.98327357
19	0x3f76900b	0.9631354
20	0x3f745931	0.95448595
21	0x3f85b2d3	1.0445198
22	0x3f7e5eb1	0.9936324
23	0x3f715278	0.9426646
24	0x3f79c05e	0.97559154
25	0x3f7692b9	0.9631763
26	0x3f7214b6	0.9456285
27	0x3f695914	0.9115155
28	0x3f6eea39	0.93326145
29	0x3f7ea37e	0.9946822
30	0x3f6a39b2	0.91494286
31	0x3f7b3549	0.9812818
32	0x3f83d8b5	1.0300509
33	0x3f84b38c	1.0367293
34	0x3f73a102	0.95167553
35	0x3f826852	1.0188086
36	0x3f7222cf	0.94584364
37	0x3f70637d	0.9390181
38	0x3f7eb562	0.9949552
39	0x3f761c2e	0.9613675
40	0x3f79b563	0.975424
41	0x3f71a34d	0.943898
42	0x3f70f0bb	0.94117326
43	0x3fa0af7f	1.2553557
44	0x3fadff46	1.3593528
45	0x3f7998b0	0.9749861
46	0x3f88c209	1.0684215
47	0x3f728651	0.947362
48	0x3f73323d	0.9499853
49	0x3f74a803	0.95568866
50	0x3f777804	0.96667504
51	0x3f67b89f	0.90516084
52	0x3f793879	0.97351795
53	0x3f8038e8	1.0017366
54	0x3f76ef71	0.9645911
55	0x3f67b6d3	0.9051334
56	0x3f72b402	0.9480592
57	0x3f7027bf	0.9381065
58	0x3f711f64	0.94188523
59	0x3f5bd981	0.8587876
60	0x3f7d1e8f	0.98874754
61	0x3f7ce73c	0.98790336
62	0x3f84b2ba	1.0367043
63	0x3f7a880c	0.9786384

residual_layers.0.layer_norm.bias f4 [64]
0	0x3c09f1e5	0.008419489
1	0xbcb81d88	-0.02247502
2	0x3d3beafc	0.045878395
3	0x3b805319	0.003916156
4	0xbb590bd0	-0.0033118613
5	0xbd1bdc26	-0.038051747
6	0xbceba00a	-0.028762836
7	0x3cd8c2ce	0.026460078
8	0xbd4b28d5	-0.049599487
9	0xbccd66ed	-0.025073493
10	0x3c3b6352	0.011437254
11	0x3a9f4742	0.0012151974
12	0xbcf77aac	-0.030209862
13	0xbc65f668	-0.014035799
14	0xbd20528a	-0.039141215
15	0x3bed4c82	0.0072417865
16	0x3d229422	0.03969205
17	0xbc48482f	-0.012224241
18	0x3d3ec0f5	0.046570737
19	0x3c780c61	0.01513967
20	0xbc5fbe33	-0.013656187
21	0xbcd41df9	-0.025893198
22	0xbc2d9686	-0.01059497
23	0xbcbc0a35	-0.022954086
24	0xbd31cc98	-0.043408006
25	0xbc8c1453	-0.017099535
26	0x3d05973f	0.032614943
27	0x3d33c560	0.043889403
28	0xbc4c6190	-0.012474433
29	0xbd021d20	-0.031766057
30	0xbc1726ae	-0.009225531
31	0xbcab6aa6	-0.020924877
32	0xbcb20959	-0.021732973
33	0x3d82a034	0.063782126
34	0x3d32a4d4	0.043614224
35	0xbd379e70	-0.044828832
36	0x3d50440c	0.050846145
37	0xbc6f8489	-0.014619001
38	0xbd5ee8c9	-0.05442122
39	0x3d15c4b5	0.036564548
40	0x3d4d0407	0.05005267
41	0x3d011ca7	0.031521466
42	0xbc15b9da	-0.009138549
43	0x3c8404e2	0.01611561
44	0x3c761097	0.015018604
45	0xbd29bd23	-0.04144014
46	0xbd575761	-0.052573565
47	0x3d11b51c	0.03557311
48	0xbba40933	-0.0050059794
49	0xbcc8f30c	-0.024529956
50	0x3d49fb99	0.049312208
51	0x3c473cd6	0.0121605005
52	0x3d192c8f	0.03739601
53	0x3b313bdf	0.0027043743
54	0x3b178c64	0.002312445
55	0x3d306801	0.043067936
56	0x3c29d00e	0.0103645455
57	0x3c36d533	0.011159229
58	0xbb9628b4	-0.004582489
59	0x3d422f5a	0.04740844
60	0x3c902e69	0.017600255
61	0xbd3d3bbe	-0.046199553
62	0xbb7a0ba5	-0.0038153913
63	0x3d0732c9	0.033007417
