results/DDPM/SEQ_LEN/126/model_final.pth (torch, 661767 bytes, 26 tensors)

layer_x.weight f4 [128, 53]
000000 8b c1 ae 3d 4e e5 87 3c 43 84 28 bd 2a db 9b bd
       0.08533009 0.016588833 -0.04114176 -0.076101616
000010 2c 46 8a 3c 4d e9 47 3a 9a 0a a8 3d fe 68 23 be
       0.016879164 0.0007626012 0.08205147 -0.1595802
000020 ad 06 29 3c 3b 72 d7 bd 04 61 d3 3d d1 4a a2 3d
       0.010316533 -0.105198346 0.10321239 0.07924426
000030 d6 85 40 bc 30 e6 e3 bc c2 da 9d be 13 c8 24 3d
       -0.011750659 -0.027819723 -0.3083096 0.04022987
000040 77 da ea bd cd b4 df 3d a7 71 b4 3d b9 90 af 3d
       -0.1146745 0.10923157 0.0881074 0.085725255
000050 42 e9 57 bc 90 7a d0 3b 08 53 c4 bc b0 99 5f 3b
       -0.013178172 0.006362267 -0.023965374 0.0034118704
000060 99 3c 95 3d e8 9c 3a be ef 7a f7 3c 67 8a c7 3d
       0.07286949 -0.18223917 0.030209986 0.09743195
000070 c5 36 ac bd ad 8f 7b bd ad 5f f2 bb 09 8c 1f bd
       -0.08408884 -0.061416317 -0.0073966593 -0.038951907
000080 25 ff 00 be ca ba 27 bd c8 8f cd bd 82 0f da 3d
       -0.1259733 -0.04094962 -0.1003719 0.10647489
000090 41 57 45 bd 21 67 53 3d e8 b5 f8 bd 79 44 91 3d
       -0.048178915 0.051612023 -0.12144071 0.07093138
0000a0 82 82 84 3d 88 ac f9 bd b0 87 95 3d a4 f0 60 3d
       0.06470205 -0.12191111 0.07301271 0.054916993
0000b0 87 11 a0 bc 75 61 87 bd c9 19 18 3d 11 86 12 3e
       -0.019539608 -0.06610385 0.037133966 0.14308955
0000c0 07 56 90 3d 2f 6c 00 bd 92 e9 c7 3b 06 f4 c9 3d
       0.070476584 -0.031353172 0.006100842 0.09860997
0000d0 93 ec c3 3c 7b a1 5c bd fc 9d 02 be a2 04 a5 3c
       0.023916518 -0.053864937 -0.12755579 0.02014381
0000e0 55 0f 10 3e 56 78 a8 3d f5 06 0c 3e 49 b9 09 bd
       0.14068349 0.08226077 0.13674529 -0.033623967
0000f0 fd e2 ff bd fc e1 09 3c fc 5c b5 bd 9f c5 bf bd
       -0.124944665 0.008415695 -0.08855626 -0.09363865
000100 69 7f 82 3d 95 08 b0 bd 93 e8 7b 3d 1b f0 86 3d
       0.06371958 -0.08595387 0.061501097 0.06588765
000110 90 dd fb bc a3 84 07 3d 31 19 ec 3d a7 af 1b 3e
       -0.030745298 0.033085477 0.115282424 0.15203725
000120 bc 08 67 be 01 3b df 3c 6b 56 1c bd 89 fa 83 bd
       -0.22561926 0.027249815 -0.038168352 -0.0644427
000130 9a 6c 15 3e 50 50 0b bd 4d a6 97 3c db 0c f0 ba
       0.1459221 -0.03401214 0.018511916 -0.0018314378
000140 fb 90 45 be 7f 06 20 3e 78 26 39 ba 94 83 2a bc
       -0.19293587 0.15627478 -0.0007062922 -0.010407347
000150 7b 3d 69 bd 7e 18 17 3e df 69 f3 bd aa 3a 51 3b
       -0.056943398 0.14755437 -0.11885428 0.0031925836
000160 13 29 13 bd 8a b1 00 be 09 c3 6e be 14 5b 84 3d
       -0.035927843 -0.12567726 -0.23316588 0.06462684
000170 48 e0 95 bc f9 06 f3 3c 3b 90 75 3a 52 8c ba bd
       -0.018295422 0.02966641 0.00093675003 -0.09108795
000180 82 d3 42 3d 68 0c 80 bd 53 84 2e bd 09 96 0c 3d
       0.04756499 -0.06252366 -0.042606663 0.034322772
000190 b2 68 81 bd 14 02 84 3d d5 d0 31 3e 28 9e 1d bd
       -0.06318797 0.06445709 0.1736482 -0.038480908
0001a0 65 21 16 3d 03 56 88 3d 10 b5 8e bd bf 18 0a 3d
       0.03665294 0.066570304 -0.06968129 0.033715006
0001b0 83 e0 f2 bc 4f 84 b1 bd 28 40 08 be 95 02 ea 3c
       -0.029648071 -0.08667814 -0.13305724 0.028565684
0001c0 91 d1 08 3d 8e af de 3d f9 69 c8 3d 5b 97 b7 bd
       0.033402983 0.10873328 0.09785838 -0.08964416
0001d0 eb 86 7b bc 02 0a e7 3d 99 69 08 bc ef c1 2a bd
       -0.015351991 0.11281206 -0.008325958 -0.041688856
0001e0 07 85 6c bb c9 0b 52 3c 06 ae f0 bc 19 ef d5 3c
       -0.0036090033 0.012820193 -0.029379856 0.026114987
0001f0 80 f4 dc bd 59 6c 9b 3d 0e 5f 45 3d c9 43 09 3d
       -0.10788822 0.07589025 0.048186354 0.03351191
000200 e6 09 1a 3d bb 9c 9a 3d dc 7f fe 3c 93 13 d0 bd
       0.037607096 0.07549425 0.031066827 -0.101599835
000210 4e 1a 1d 3e ed 25 28 3d b0 a3 af 3d ee bd 78 bd
       0.15342066 0.041051794 0.08576143 -0.060728006
000220 00 ce f4 3b 8d 6d c9 bd 0f 7b d2 bd 29 db df 3d
       0.007470846 -0.09835348 -0.10277378 0.10930473
000230 1e 46 01 3c 04 ea 2c bc 43 cc ff bc c4 4a 4a 3d
       0.007890252 -0.010553841 -0.03122533 0.04938771
000240 df 58 18 3d ac 01 db 3d 8c 6d bb bd 7d 97 06 be
       0.03719413 0.10693678 -0.09151754 -0.13143726
000250 ef 39 e8 3c a2 b1 4e 3d f2 a4 ba 3d 7e 65 76 3d
       0.028347937 0.050462373 0.09113492 0.060155384
000260 ef e8 25 be e4 e4 c7 bc fc 1a db 3d df a0 9d bd
       -0.16202138 -0.024401136 0.10698506 -0.07696699
000270 c3 11 d4 bd 83 c7 08 3a 3f 4a d4 bd aa f4 5b 3d
       -0.1035495 0.0005217718 -0.10365724 0.053700127
000280 61 2e 15 bb 88 17 7b bc 0c 25 a1 3d 37 57 45 3d
       -0.002276324 -0.0153254345 0.07868394 0.048178878
000290 09 43 5c bd a0 4f ce bd 40 0e 69 3c 86 bc d9 bd
       -0.053774867 -0.10073781 0.014224589 -0.10631661
0002a0 0f 60 ff bd 5f 1f 8f 3d 2e 47 ed bc dd 91 40 be
       -0.124694936 0.069884054 -0.028964605 -0.18805642
0002b0 2c e9 53 bc 58 e0 b5 3d 3a b4 3b 3e 1d f0 15 3e
       -0.0129340105 0.08880681 0.1833047 0.14642377
0002c0 ed 34 b6 bc 2e dd 81 bd 1e de a4 3a d9 c5 20 3e
       -0.022242034 -0.06341015 0.0012578403 0.15700473
0002d0 28 61 11 3e 5b 7c 8b 3d c6 7c 17 3c 36 0e 50 3c
       0.14197218 0.06810828 0.009246057 0.012698701
0002e0 85 87 37 3d 47 7c ce bc d9 63 d1 3b 4e 2f 2a 3e
       0.044806976 -0.025205744 0.0063900766 0.16619608
0002f0 8b d6 5b be 9c 9f 02 3d 75 a3 8a bd 3e af f5 bd
       -0.2146856 0.031890497 -0.06769458 -0.119963154
000300 a6 a0 83 bd 9b c7 9a bd 87 e6 0d 3d db 6a af 3d
       -0.06427126 -0.07557603 0.034643676 0.08565303
000310 52 3e 30 3d de d3 be bd 37 e5 e9 bd ca 49 67 bc
       0.043028183 -0.09317754 -0.114206724 -0.014116714
000320 82 1f f7 3c 89 be a1 bc 7c 77 0d bd 03 1b a3 bc
       0.030166391 -0.019744175 -0.034537777 -0.019910341
000330 65 b3 98 bd aa 1c 0d be ea e1 7c bd fd 16 34 3e
       -0.07456092 -0.13780466 -0.061738886 0.17586894
000340 7d 79 bb bd 48 0b 90 3d 09 26 dc 3d 0b e4 17 3d
       -0.091540314 0.07033402 0.10749442 0.037082713
000350 e3 3c 85 b9 fb d0 3a 3d 1a 36 11 be a8 1a 12 3d
       -0.000254131 0.045609456 -0.14180794 0.035669953
000360 19 4a c7 bc e8 4e 87 bd eb d9 08 be 02 60 80 bd
       -0.024327325 -0.06606847 -0.13364379 -0.06268312
000370 84 62 d8 bd 2b ef 6e bd ee 97 42 3b 00 12 d1 bc
       -0.10565665 -0.058333557 0.0029692608 -0.025521278
000380 22 2b 5b 3c d3 66 c9 3d cf d4 8d 3b 6a 47 a4 3d
       0.013376983 0.09834065 0.0043283473 0.08021434
000390 37 2c 26 3d 69 ea 14 3e 50 2c ac 3d eb 7e dd 3d
       0.04056951 0.14542545 0.084068894 0.10815223
0003a0 89 a3 16 be a1 bd 8b bd 1d 2e d4 3d 59 40 3f bd
       -0.14710821 -0.06823278 0.10360358 -0.046692226
0003b0 36 d7 a3 3c fd 2b 1a bd 30 47 d8 3c de df ec ba
       0.020000082 -0.037639607 0.026401132 -0.0018072089
0003c0 85 17 bd bd fb 5b a8 bc 60 58 85 bd 40 e8 68 3d
       -0.092330016 -0.020551672 -0.06510997 0.056862116
0003d0 a0 89 83 bd 8a 22 ca bd f0 63 f5 bc d4 2c 3b bd
       -0.06422734 -0.09869869 -0.02995488 -0.04569705
0003e0 c7 34 7a 3c 34 95 2d 3e 33 a0 d4 3c 56 28 b6 3d
       0.015271372 0.16951448 0.025955295 0.08894412
0003f0 d8 40 3e 3e 28 9f 5e 3e 83 1c 59 bd 4b 7a b0 bb
       0.18579423 0.21740401 -0.053005707 -0.005385672

layer_x.bias f4 [128]
000000 6a 00 04 3e 52 fb a9 3d 2c 5a b8 3e dd 8f 08 3e
       0.12890783 0.08299889 0.36006296 0.1333613
000010 30 91 db 3d a4 55 46 3e 68 07 02 3e e7 07 e5 3d
       0.10721052 0.19368607 0.12698138 0.11183148
000020 37 47 6e 3e 10 fe 58 3e b3 51 83 3e ea 38 75 3e
       0.23269354 0.21190667 0.2564827 0.23947492
000030 5c 3b a3 3e 76 63 2d 3e 38 15 47 3e d3 aa 95 3e
       0.31881225 0.16932473 0.19441688 0.2923189
000040 b9 d5 06 3e de 40 8f 3e 81 2a 10 bd 1e 95 d2 3c
       0.13167466 0.27979177 -0.035196785 0.02570587
000050 69 b8 57 3e ef 86 68 3e 10 66 8d 3e 05 98 68 3e
       0.2106644 0.22707723 0.2761693 0.22714241
000060 79 91 68 3e 7e b7 22 3e f0 4e 8a 3e dc 38 2f 3e
       0.22711743 0.15890309 0.2701335 0.17111534
000070 d5 67 0b 3e 94 6a 59 3d d2 42 64 3e 1e 57 7e 3e
       0.13613828 0.053080156 0.22291115 0.2483792
000080 9c d2 68 3e 24 13 64 bc a5 ad 50 3e f7 b8 e6 3d
       0.22736591 -0.013920579 0.2037874 0.11265748
000090 a1 7b 39 3e 7d 14 d4 3d 2e 58 6b 3e cf 0f 52 3e
       0.18113567 0.1035547 0.22982857 0.20513843
0000a0 e3 a9 8a 3d d9 45 3e 3e cc 37 96 3e 5a 15 ac 3d
       0.067706846 0.18581332 0.29339445 0.0840251
0000b0 b8 0f dd 3d f1 e5 b7 3d f3 28 84 3e 38 e5 80 3e
       0.10794014 0.08979405 0.25812492 0.2517488
0000c0 cf a4 fe 3d 1c 42 63 3e 4f 22 71 3e 1a b7 41 3e
       0.124337785 0.22193187 0.23548244 0.18917504
0000d0 d7 c2 5d 3e e4 04 ac 3e 37 de 93 bd d0 b8 85 3e
       0.21656357 0.3359748 -0.072201185 0.26117563
0000e0 73 01 1c 3e 07 fb 3c 3e 92 55 60 3e f3 ae 11 3e
       0.15234928 0.18455134 0.21907642 0.14226894
0000f0 50 a9 6e 3e 88 ee 0b bc c4 b4 56 3e 32 22 b6 3d
       0.23306775 -0.008540757 0.20967394 0.08893241
000100 42 19 86 3e 3e a7 6d 3d 8b 71 68 3e 25 2d bc bc
       0.26191145 0.058020823 0.22699563 -0.022970745
000110 5d 5a 08 3d 5f 27 17 3e 78 61 70 3e 77 36 a1 3e
       0.033289302 0.14761113 0.23474681 0.31486866
000120 3d a8 11 3e aa 9a a1 3d a5 17 45 3e d9 b1 45 3e
       0.14224334 0.07890828 0.19247301 0.19306125
000130 34 08 a2 3d 65 83 88 3d fb f2 9a 3d 84 89 7f 3e
       0.07911721 0.066656865 0.07565876 0.24954802
000140 9a c8 e7 3c b5 fd 6c 3e 70 e9 59 3e 37 30 96 3d
       0.028293896 0.23143657 0.21280456 0.07333415
000150 b3 15 4e 3e 54 2b 2c 3e ad 13 97 3d 98 17 2e bd
       0.20125465 0.16813403 0.073768 -0.04250297
000160 a4 59 50 3d d3 c2 90 3e 50 ad 6b 3e ed 3b 41 3e
       0.050866738 0.2827364 0.23015332 0.18870516
000170 dd 88 8e 3d d7 16 8d 3e ed be 92 3e 5d d0 84 3e
       0.06959698 0.27556488 0.2866129 0.2594022
000180 5c 68 5f 3e 3c 83 93 3c 99 9d 4a 3e 0e a1 72 3e
       0.21817154 0.018006913 0.19786681 0.2369425
000190 b1 82 67 3e 07 d8 23 3e 41 58 39 3e 16 63 6e 3e
       0.22608449 0.16000377 0.18100072 0.23279986
0001a0 da cc 49 3d 21 b1 ef 3d 78 51 21 3e aa 74 22 3e
       0.049267627 0.117037065 0.15753734 0.15864816
0001b0 3c 94 15 bc 14 0d e1 3d c8 4e 3a 3e e1 aa 83 3e
       -0.00912958 0.109888226 0.18194115 0.25716308
0001c0 e1 32 5f b9 46 71 92 3e 2c 6e 29 3e 6e 81 81 3d
       -0.00021285891 0.28602046 0.16545933 0.06323515
0001d0 d8 2a e1 3d f8 51 97 3e b5 6a 57 3e 32 00 90 3e
       0.109945 0.29554725 0.21036799 0.2812515
0001e0 b3 e6 51 3e ca 29 40 3e a5 f0 e0 3d 35 18 25 3d
       0.20498161 0.18765941 0.10983399 0.04030629
0001f0 0a c5 28 3e 87 f9 54 3e 17 d0 76 3e a6 ee 6b 3e
       0.16481414 0.20798312 0.24102817 0.23040256

layer_t_1.weight f4 [128, 128]
000000 68 5a ca 3c fa 4a 88 3d f4 a3 32 bd 22 2e 05 3d
       0.024701312 0.06654926 -0.04361339 0.0325147
000010 7a 8b 8a 3c ac 74 59 bc cb 20 9d 3d 49 3e 88 bd
       0.01691221 -0.013272446 0.076722704 -0.06652505
000020 55 eb 27 bd 42 9f ff bc 75 43 84 3d da 94 87 3c
       -0.040995914 -0.03120387 0.06458179 0.01655047
000030 96 32 c2 3b 40 27 55 3d ef 25 d2 3d f0 49 47 3d
       0.0059264405 0.052039385 0.102611415 0.048654497
000040 06 b3 ab bd 31 5b 8d 3d 1b 63 9d 3d f2 ff 12 bc
       -0.083837554 0.06902159 0.076849185 -0.008972155
000050 d8 9b 5d 3d f2 48 fe 3b fe 06 b3 bd 74 46 da 3b
       0.054103702 0.0077601606 -0.08741568 0.0066612307
000060 ca 63 83 3d 9c 2e 82 bd 95 60 d3 3d 8f 89 ba 3c
       0.06415518 -0.06356546 0.10321156 0.022770671
000070 04 ac 62 3d fe 66 d9 3d d5 fe 6f bc 44 13 04 3b
       0.055339828 0.10615347 -0.014648159 0.0020153085
000080 05 29 d1 3d 96 33 8e 3d 5b 26 b5 bd 4f be 8c bd
       0.10212902 0.06943433 -0.08845206 -0.06872236
000090 5b f2 ce 3b 3a 5c 8b bd 32 f5 89 bd 7d 3f 5c bc
       0.006315512 -0.068047 -0.067362204 -0.013442871
0000a0 71 f2 be 3d 29 46 83 3d 43 67 2b bc e3 4f 85 bc
       0.09323586 0.06409866 -0.010461631 -0.016273445
0000b0 d1 4d d7 bb 5d 3c d7 3c e1 a7 14 3d 24 18 b2 bd
       -0.0065705557 0.0262739 0.036292914 -0.08696011
0000c0 70 93 57 bd 51 5f c5 bc ae ff 8c 3d 01 e9 29 bd
       -0.05263084 -0.024093302 0.068847045 -0.041481975
0000d0 d4 9f a8 bd 7c e8 10 3d bb a3 e0 bd 60 47 8f bd
       -0.0823361 0.035377964 -0.10968729 -0.069960356
0000e0 a9 f1 47 3b 79 4d 0b bd f3 65 47 bd d2 de 6e 3d
       0.003050903 -0.03400943 -0.04868121 0.058317967
0000f0 25 ee 79 bd a4 ee de 3d f6 4e ad 3d cc bd 99 3d
       -0.061018128 0.10885361 0.08462326 0.07506904
000100 51 b3 31 bc 32 67 7b 3d a0 da c0 ba b1 4a 3c bd
       -0.010845975 0.06137771 -0.0014713593 -0.04596967
000110 49 c3 85 bd 59 16 b2 3c 5d 41 f9 bc 1d 19 ae bc
       -0.06531388 0.021739172 -0.030426675 -0.02125221
000120 63 9e 57 bd 57 bc a7 3b 61 6f 02 3c 14 90 86 3d
       -0.052641284 0.0051188874 0.007961125 0.065704495
000130 c0 bc 86 3d aa 7b 91 3b 4b 41 4a 3c 59 99 df bd
       0.0657897 0.0044397907 0.012344669 -0.109179206
000140 ce b7 f5 bd 73 3e dd bc f7 db 3f 3c 58 bd 07 3d
       -0.119979486 -0.027007317 0.011710159 0.033139557
000150 8f 73 a7 3c f8 a6 46 3d 1e 04 b4 3c 39 14 cc 3c
       0.020440845 0.048499078 0.02197462 0.024911987
000160 00 5d 43 3d 62 8d 25 bd 7f fd 85 3d 36 c7 b6 bd
       0.047696114 -0.040418036 0.06542491 -0.08924715
000170 31 d3 d9 bc 14 1d f4 3c fe 2c 4e 3d c2 0b 14 bd
       -0.026589962 0.029799022 0.050335877 -0.036144026
000180 9c d8 3d 3d 1d 04 32 3d 55 eb 3d 3d 63 25 f4 3b
       0.046349153 0.043460954 0.04636701 0.007450746
000190 ff a1 93 3b f4 27 ab bc 12 da 7f 3d ed 4f d6 bd
       0.0045053954 -0.020893075 0.062463827 -0.104644634
0001a0 48 b7 9e bd ba 87 96 bd 47 ef 25 3d 85 ad 4c bd
       -0.07749802 -0.073501065 0.040511396 -0.04997017
0001b0 b5 6e 9b 3d c0 ec 55 bd 2b 8a 2a 3c a6 9a b7 bd
       0.07589475 -0.052227736 0.010408918 -0.08965044
0001c0 fe 43 9e 3c dd 63 c1 bd ff 93 38 bd 31 ae c7 bd
       0.01931953 -0.094428755 -0.045063015 -0.09750021
0001d0 49 07 4d bd 33 93 17 bd 4a 74 20 bd 50 26 7c 3d
       -0.050055776 -0.037005614 -0.039173402 0.061559975
0001e0 bb e0 65 3a 39 28 95 3d 45 12 07 bd 3c 88 bc 3c
       0.0008769144 0.072830625 -0.032976408 0.02301418
0001f0 de 12 09 3c 2f 56 8a 3d f7 8d 32 bd df 24 3e bc
       0.008366315 0.067547195 -0.04359242 -0.01160547
000200 49 bd d6 bd 35 86 e1 bd 4b 68 7f bd 48 3b 60 3d
       -0.10485322 -0.11011926 -0.06235532 0.054744035
000210 7e 3e 0f 3b 80 9e ba 3d c8 cb f4 3c 64 5c cc bc
       0.0021857317 0.09112263 0.029882327 -0.024946399
000220 55 a9 0b bd 40 28 db 3b 86 f3 f9 bc 1d 2e 35 3c
       -0.034097034 0.006688148 -0.030511629 0.011058358
000230 f2 29 26 3c 9b a5 fe bd a5 f9 4d bb ac 48 d5 bc
       0.0101418365 -0.124339305 -0.0031429317 -0.02603563
000240 3c 03 87 3c d2 e8 97 3b dd 78 9a bd 64 ee 86 bd
       0.016481034 0.0046359086 -0.07542584 -0.06588438
000250 d0 5f 5b b9 7b 99 e7 3c 9d 75 9e bc 04 5b c3 bb
       -0.0002092116 0.028271427 -0.019343192 -0.0059617776
000260 70 bb dc 3c 42 b6 11 3d 69 8d f0 bc 41 3e 96 bd
       0.026944846 0.035574205 -0.029364305 -0.07336093
000270 6a 8b 92 bd 29 00 ed bd 83 90 3e bd e4 46 ac 3d
       -0.07155497 -0.11572296 -0.046524536 0.08411959
000280 86 3a 8b 3c c5 26 8d 3d 3e 65 0a 3e 4d 38 7b 3d
       0.01699568 0.0689216 0.13515183 0.06133299
000290 a6 e5 22 bd eb 0b ca bc d8 41 0f 3c 58 f7 07 be
       -0.03976979 -0.024663886 0.008743726 -0.13277948
0002a0 62 81 16 3d 9f 66 e1 bc d3 65 44 bd 9b 0a 54 bd
       0.036744483 -0.027514754 -0.04794867 -0.051767927
0002b0 5a 73 b0 3d 91 9f 97 bc b4 4e 20 3d 8b e7 c5 3d
       0.086157516 -0.018508704 0.039137557 0.09663304
0002c0 a4 2e 09 3d 4e 3f 60 3d ee c7 bb 3d c0 37 4c bd
       0.033491746 0.054747872 0.09168993 -0.049857855
0002d0 fc ca af 3d 96 1d b0 3d 3f ba 36 3d 62 9d 89 bd
       0.08583638 0.08599393 0.044611212 -0.067194715
0002e0 96 f1 ca 3d 68 16 dc bd 6e 19 aa 3d b0 e9 3b 3a
       0.0990936 -0.10746461 0.083056316 0.0007168306
0002f0 e4 dc 86 3d 5b 90 71 3d bc c4 b2 bd da 4a ce 3d
       0.065851 0.05897556 -0.0872893 0.100728706
000300 bb c6 0d 3d 66 34 b0 3c b8 92 9d 3d 52 e4 ab 3d
       0.034613352 0.02150936 0.07694 0.08393158
000310 7e 63 92 3d d6 19 88 bc 2b a4 a5 3d 0e 6b 72 3d
       0.07147883 -0.016613882 0.08087953 0.059184127
000320 eb 30 b1 3d e2 9c 3d 3d ee 36 de bc c7 b5 56 bd
       0.086519085 0.046292193 -0.027125802 -0.05241945
000330 d8 e4 ae 3c 22 17 fa 3d d9 d7 ca bd a8 11 42 3d
       0.021349356 0.122114435 -0.09904451 0.04738012
000340 34 a7 b1 bc a0 98 9d bd f9 37 9f bd 5e 93 a2 3d
       -0.021686174 -0.076951265 -0.07774348 0.07938264
000350 9f 65 04 bd 62 2a a1 3d e0 36 5e bd 1f c1 5a 3d
       -0.032323476 0.07869412 -0.05425155 0.05340683
000360 0a f0 1d 3c 00 ea b0 3a cc 2a 92 bd 70 99 03 3d
       0.009639749 0.0013497472 -0.07137069 0.03212875
000370 25 31 a7 3d d9 84 34 3e f2 e4 d1 3c 9b 6d c9 bd
       0.081636705 0.17628802 0.025621865 -0.09835359
000380 a5 bc 05 3d 96 c0 de b9 75 b0 b5 3d 30 e6 4c 3d
       0.03265061 -0.00042486627 0.08871547 0.05002421
000390 52 c2 a0 3b 68 c5 f0 bc c8 5f bd 3d 2f 8c 91 3d
       0.0049059773 -0.029391006 0.092467844 0.07106816
0003a0 12 ca 26 bc bd 5d 83 bc 8b 3f 1a ba c6 a8 91 3c
       -0.010180013 -0.016035909 -0.00058841024 0.017780673
0003b0 3c 6f 91 bd 06 08 6d 3d 80 db a7 bd 80 82 54 bd
       -0.071012944 0.05786898 -0.08196163 -0.051882267
0003c0 b6 96 7c bd 83 18 e4 bd a0 67 77 3d 43 60 8e 3d
       -0.061667167 -0.11137488 0.06040156 0.06951954
0003d0 c4 44 aa bd b3 9a 58 3d 31 ae 80 bc 43 03 33 3d
       -0.08313897 0.052881908 -0.015708061 0.043704282
0003e0 7b 17 87 3d 6c cf 09 bb d1 58 08 3c ef 4b b3 3d
       0.065962754 -0.0021028174 0.008321957 0.087547176
0003f0 ba f8 f9 3c d0 6f 04 be 65 f6 01 be 56 0d 91 bd
       0.03051411 -0.12933278 -0.12691648 -0.07082622

layer_t_1.bias f4 [128]
000000 d6 14 68 3d ef 61 8e bd ce 84 f0 bc 54 1f 9c 3d
       0.056660496 -0.06952273 -0.029360201 0.07623163
000010 4a 16 ce bd 02 74 b3 bc e2 5b a5 3b 72 df b0 3d
       -0.10062845 -0.021905903 0.0050463537 0.08636369
000020 fc 1d 11 3c c7 81 b6 bc 25 86 81 3c ef 36 cb 3c
       0.0088572465 -0.02227868 0.015811035 0.024806468
000030 bd 1d 53 3d 94 f7 d7 bd 59 7b 14 bd e8 d3 70 3d
       0.051542033 -0.10545269 -0.036250446 0.05879584
000040 6f 87 46 3b fc a2 30 bd 6e c0 68 bc 9b 0f 9f bd
       0.0030293127 -0.043124184 -0.014206035 -0.077666484
000050 ef 8f bb bc 94 7a 53 3d 8e c8 b4 bb f9 f2 d0 bd
       -0.022895781 0.05163057 -0.005517072 -0.10202593
000060 2f 02 ab 3d 7e 7c 95 bd 47 f8 93 bd a4 55 d1 b9
       0.08350026 -0.072991356 -0.072250895 -0.00039927394
000070 6e b0 0b bd c7 21 be bc e7 66 42 bd d3 47 8a 3d
       -0.034103803 -0.023209466 -0.047461417 0.06751981
000080 0e 55 66 3d 9a ad 18 bd ae 53 42 3d 66 b0 9e 3c
       0.05623346 -0.037274934 0.047443084 0.019371223
000090 c2 6d 98 3c b3 3f 49 3d 13 32 46 bd 55 06 3f 3b
       0.018607024 0.049133014 -0.0483876 0.0029148061
0000a0 2d 7f cb bd cf 70 20 bc f6 7a 75 bd e1 a8 31 3d
       -0.09936366 -0.009792521 -0.059931718 0.043373946
0000b0 2c d8 07 be f6 91 a5 3d 66 e0 45 bd 07 7a 25 3d
       -0.13266057 0.080844805 -0.048309706 0.040399577
0000c0 2b 89 f9 bd 98 e3 5f 3d 6f 14 98 bc fe 7a a5 3b
       -0.12184366 0.05466041 -0.018564431 0.005050062
0000d0 90 34 9a bc 7d 35 ad ba 44 3a 88 3d c3 10 9f bc
       -0.018823892 -0.0013214793 0.06651738 -0.019417172
0000e0 c8 4c 87 bd 1a 9b b7 bd c2 54 64 bc 63 5c 12 bd
       -0.06606442 -0.0896513 -0.013936223 -0.035732638
0000f0 0e f8 77 3c 10 14 75 bd fe f9 c2 bc 54 ec 1e bd
       0.015134824 -0.059833586 -0.023800846 -0.0387996
000100 36 94 74 3d 49 2a 17 3d 66 32 92 3c ee 2f 8b 3d
       0.059711657 0.03690556 0.017846297 0.06796251
000110 1a 28 58 3b ec 87 46 bd 1c 09 05 bd 50 31 fd bb
       0.0032982887 -0.04846947 -0.03247939 -0.007726826
000120 d9 82 61 bc aa 26 b1 bd 09 85 31 bd ee 36 2c bd
       -0.013764107 -0.08649953 -0.043339763 -0.042044573
000130 0b 41 4c 3d 09 d3 6d 3d 3c 2f 99 bd a3 25 a0 3d
       0.049866717 0.058062587 -0.07479712 0.07819679
000140 a3 d5 ad bd 55 e6 af bc cd 3f a7 3d 2c bc 1e 3d
       -0.084880136 -0.021472136 0.08166466 0.038753673
000150 5b cb 2f 3b 12 8d a1 bd a9 a2 35 bd e3 79 2a 3d
       0.002682409 -0.07888235 -0.044344578 0.041620146
000160 38 dd 43 bd 20 c8 96 3d d9 df b3 bd df b0 57 3c
       -0.047818393 0.073623896 -0.0878293 0.013164728
000170 d4 1f 2a 3d fb 84 3d 3d 59 d5 40 bd 8b 2a 64 3d
       0.04153426 0.0462694 -0.047078464 0.055704635
000180 10 2e 7c bc cc 09 7e bd 32 53 54 bd bd 1e 50 bd
       -0.0153918415 -0.06202106 -0.051837154 -0.050810564
000190 10 c8 ad bb fb a2 21 bd a1 54 d5 bd a8 8a 31 3c
       -0.0053033903 -0.03946207 -0.10416532 0.010836281
0001a0 e8 f5 44 bd 2c fe f6 bb a7 59 fb bd f3 cd 38 3d
       -0.048086077 -0.007537624 -0.12272959 0.045118283
0001b0 cc ce b1 3d 40 83 89 3c 9b a7 3b 3c 9e 1a 43 3d
       0.086820215 0.016786218 0.0114535345 0.047632806
0001c0 38 95 e5 3c 48 df 48 3d 51 bc 4f 3d 4d 40 0e 3c
       0.028025255 0.049041063 0.050716702 0.008682323
0001d0 1a 08 a9 3d 6f f4 8e 3d a8 01 35 3c f7 d0 21 bc
       0.082534984 0.06980216 0.011047758 -0.009876481
0001e0 7e 06 48 bd 06 d3 58 bd b6 99 1b 3e f2 19 46 3d
       -0.048834316 -0.052935623 0.15195355 0.048364587
0001f0 5e cd 88 bc 6f 84 40 3c 67 2e 62 bd 58 d4 d2 3d
       -0.01669949 0.011750325 -0.055220034 0.102944076

layer_t_2.weight f4 [128, 128]
000000 ab a2 85 3d b5 c1 07 3d 5e 6d b8 bc 39 03 91 3c
       0.06525167 0.033143718 -0.022513088 0.017701732
000010 b2 cc 7d 3d 48 e8 ea bc c4 37 aa 3b 20 e9 b4 bd
       0.06196279 -0.028675213 0.005194636 -0.088335276
000020 08 c4 6a bd c3 90 f6 3c 3f 8a 38 3c 57 fb 5b bd
       -0.057315856 0.030098325 0.011263429 -0.053706493
000030 01 2a 06 3b 8d fd 1e 3d 9d e1 6b 3d 50 02 74 bd
       0.0020471814 0.038816024 0.05758821 -0.059572518
000040 f7 bf b3 bd 07 49 52 bd 81 cb df bb 34 cd ad bc
       -0.08776849 -0.051339176 -0.0068296795 -0.021216013
000050 9a b6 eb bc 42 87 70 bd fc 1c 04 be d4 18 9e 3c
       -0.028773595 -0.058722742 -0.12901682 0.019298948
000060 63 51 37 bd a5 8a 9c 3d b7 a4 9e bd 89 61 b6 bd
       -0.04475535 0.07643632 -0.077462606 -0.08905322
000070 8b 8e 32 3d bf b3 a9 3c d0 e1 2e bd 31 3a 11 bb
       0.04359297 0.020715592 -0.04269582 -0.002215993
000080 a3 30 fd bd 9d d2 3f 3d 2c 0b 8d 3c 4b ed 3f 3c
       -0.12362792 0.046831716 0.017217241 0.01171429
000090 30 de 1e bd 2c f9 52 bd c1 3a c5 3c 7c b7 cd bd
       -0.038786113 -0.05150716 0.024075868 -0.100447625
0000a0 68 0b f7 bd d4 39 6c bd 2c a8 bd 3d 22 af fb bd
       -0.120627224 -0.057672337 0.09260592 -0.12289263
0000b0 51 60 09 bd 26 f7 80 3d e7 52 52 bc ca 2c b1 bd
       -0.03353912 0.0629714 -0.012837148 -0.08651121
0000c0 26 0e 38 bd 46 18 30 ba 2a ee 4f bd cb 1f be 3a
       -0.044935368 -0.0006717484 -0.05076424 0.0014505325
0000d0 13 76 a2 3c de 87 4c 3c 16 08 a0 bd 3d 6f a8 bd
       0.019831693 0.012483565 -0.07814042 -0.08224342
0000e0 c4 77 33 bd be 28 ad bd ae f9 9a bd b6 f7 84 3c
       -0.04381539 -0.084550366 -0.07567154 0.016231399
0000f0 92 ca ea bd 79 de e2 3b 7b a1 5c bc 4f a1 91 bd
       -0.114644185 0.0069234935 -0.013466234 -0.07110845
000100 ee 4b a1 bd a1 9b 6b bd f2 ad 29 3c a1 89 bb 3c
       -0.078758106 -0.057521466 0.010356413 0.022892775
000110 a4 f7 c3 3c bb 4b 85 bd de ae e9 3b 39 2e 8d 3c
       0.023921795 -0.06508585 0.0071314415 0.017233955
000120 5b 45 34 bc 88 57 3c 3d 0b 8c 6c 3c 7d e0 2d bd
       -0.011002864 0.045981914 0.014437686 -0.042450417
000130 44 d2 0d 3d 79 bb ad bc a6 71 8f 3c d3 2d 66 3a
       0.034624353 -0.021207558 0.017510246 0.0008780632
000140 6d 03 9c bd 9e cb 7f 3c 1b 44 93 3c ef 6e 93 bd
       -0.07617841 0.015612511 0.017976811 -0.07198893
000150 bf 5a 6b bd 5d 79 38 3d 57 db fd 3b fd 67 87 bc
       -0.05745959 0.045037616 0.0077470946 -0.016529078
000160 fb a6 35 3d 50 1f 86 bd 14 ff 48 bd 8d ee 94 bd
       0.044348698 -0.06548941 -0.049071386 -0.072720625
000170 21 ab 1f bc 83 8c 64 bc 8f f2 0f 3d 03 d2 20 bd
       -0.00974539 -0.013949516 0.03514343 -0.039262783
000180 5b 5a 03 bd 8e fe 00 bd c9 13 d3 bc ef ba 7a bc
       -0.03206859 -0.031492762 -0.02576627 -0.0153033575
000190 90 83 51 3d a8 01 af bc fe 66 2d 3d 8b e0 d5 bc
       0.05115086 -0.021363094 0.04233455 -0.026108047
0001a0 fc da 92 bc b0 bc a6 3d 7e c0 d7 3d f1 66 04 bd
       -0.017926686 0.08141458 0.10534762 -0.032324735
0001b0 cd 23 46 3d 5f c5 c1 3d 91 da 88 bd d5 8f 24 3c
       0.048373986 0.09461474 -0.06682313 0.010044058
0001c0 89 47 80 bd 04 68 81 bd 74 a4 58 3d de ac 63 3d
       -0.06263644 -0.063186675 0.05289121 0.05558478
0001d0 66 f2 ac ba 50 ce 87 bc b3 69 4f 3c df b7 b4 bd
       -0.0013194799 -0.01657787 0.012659478 -0.08824133
0001e0 67 a5 0c bc fe db 1f 3d 6f d1 79 bc 3a 9f 35 3d
       -0.008584357 0.03902816 -0.015247687 0.044341303
0001f0 d5 c0 ab 3d 17 22 a3 bc b4 fe 72 bd 8b 3a 21 bd
       0.08386389 -0.019913716 -0.059324935 -0.03936247
000200 cb d2 31 3c 1b 0c 03 3d de a3 f4 3b 02 4b 34 bd
       0.01085348 0.031993967 0.0074658236 -0.044016846
000210 a7 77 7c 3d 62 cc dc 3d 56 c2 7b 3d 00 89 13 bc
       0.061637547 0.107811704 0.06146463 -0.009004831
000220 69 a7 aa bd 5f a3 9b 3d fb 3a 25 bd 5f 8c 11 bd
       -0.08332712 0.0759952 -0.04033945 -0.03553426
000230 a5 59 1f bd ca 29 10 3d f3 a1 80 3d 96 eb 8c 3c
       -0.03890385 0.035196103 0.06280889 0.01720218
000240 da 64 54 bd 5d 71 da 3c 42 ac b7 3d 07 6c e8 bd
       -0.051853992 0.026665384 0.089684024 -0.113487296
000250 79 ca 66 bc 66 3b b2 bd b7 68 01 3d 87 f9 07 3d
       -0.014086359 -0.087027356 0.031594004 0.033196952
000260 5c 16 6c 3d 73 46 80 bc 8c e7 66 bb 69 1d 0d bd
       0.05763851 -0.015658593 -0.0035233228 -0.034451876
000270 c4 2e 4d 3d 25 c3 ba 3d 71 cc 20 bd 42 1d d6 3c
       0.050093427 0.09119252 -0.03925747 0.026136998
000280 f1 71 13 bc 03 6e 95 3d 80 ea 29 be 54 07 e3 3d
       -0.008999334 0.07296374 -0.16593361 0.11085382
000290 3c 88 ac 3c f7 a0 5b bd 3b 31 c6 3c 8e f0 b3 bc
       0.021061055 -0.053620305 0.024193397 -0.021965291
0002a0 64 e7 6a 3c 62 43 ab 3d 3c e0 c6 3d 97 b6 dc 3c
       0.014337394 0.083624616 0.09710738 0.026942534
0002b0 f6 20 82 bd 66 e6 46 bd e1 44 a9 bd 06 9d ee bd
       -0.06353943 -0.04855957 -0.08265091 -0.116510436
0002c0 66 55 12 bd 88 3d 02 be 8d 20 ad bb 4a 30 c5 3c
       -0.035725974 -0.12718785 -0.0052834214 0.024070878
0002d0 4c 75 3a bd 93 31 9f bb 2a 7a 97 3d 0c b9 99 ba
       -0.04552202 -0.0048582046 0.07396348 -0.0011728122
0002e0 99 d9 8c bc 01 37 92 bd 59 bf e9 bd f7 b0 9f bd
       -0.017193602 -0.071393974 -0.1141345 -0.07797425
0002f0 00 e4 31 bc a9 13 e4 bd 22 cc b4 bb 9f 37 98 bd
       -0.010857582 -0.111365624 -0.0055174986 -0.07432484
000300 5e 6e e3 bc 02 9c 81 bd a0 52 8d bd 80 7d c3 3d
       -0.027762588 -0.06328584 -0.06900525 0.095454216
000310 bd c7 0d bd 61 e4 37 bd 22 7d 91 bc 0e b7 ab ba
       -0.034614313 -0.044895533 -0.017759863 -0.0013100819
000320 10 84 73 bc a4 3f 8c bc bf 1f bc bb 0b 97 ec bc
       -0.014863029 -0.01712019 -0.005741089 -0.028880617
000330 15 2d b5 bc 8e f0 93 bd 27 72 00 3e fc be 67 bd
       -0.022116223 -0.072236165 0.12543546 -0.05657862
000340 5f de 2a 3d 33 05 db 3d 52 14 1e bd 02 59 f8 bc
       0.041715976 0.10694351 -0.038593598 -0.03031588
000350 98 eb 1f 3d 97 16 3f 3d 1d f3 88 bd f1 d0 1d bd
       0.03904304 0.046652403 -0.06686995 -0.03852934
000360 f3 dd 8a 3d bb 39 c0 bc bf 3a 1d bd 7f 8a 6f bd
       0.06780615 -0.023465028 -0.038386103 -0.05848169
000370 05 65 01 3c 3a 89 d5 bd fb ec 3a 3d e4 21 00 3e
       0.00789762 -0.104265645 0.04563616 0.12512928
000380 88 4d 29 bd 36 b6 92 bd 1a 5f 3b 3d 7a 95 ab bc
       -0.041333705 -0.0716366 0.045744993 -0.0209453
000390 cc a5 f7 bb a1 8b 9e bd b7 3a 39 3c 09 b0 a0 bd
       -0.0075576063 -0.07741476 0.011305503 -0.07846076
0003a0 e8 c9 ff bc e1 90 48 bd 3c 5f 99 3d 91 f7 e8 bd
       -0.031224206 -0.048966292 0.07488868 -0.113753445
0003b0 05 f1 a1 3d 9c cf bb 3d 8a de 1e bc c1 3a 58 bc
       0.07907299 0.09170458 -0.009696612 -0.013197602
0003c0 76 92 f4 3c 61 cd 0e bd 76 e7 64 bd a8 f7 5a bc
       0.029854994 -0.034863833 -0.0558848 -0.01336471
0003d0 21 e4 1c bd b2 a7 06 bd 42 31 79 3d 28 b3 d2 bc
       -0.0383035 -0.03287477 0.06083799 -0.025720194
0003e0 dd 4b af bd ed ad dc bc 76 c6 53 3d 94 f9 cc bd
       -0.08559392 -0.026938403 0.05170294 -0.10008541
0003f0 9d 74 6d 3d 7a 12 10 bd 5c ba ac 3d b0 d0 ab 3d
       0.05797254 -0.03517387 0.08433983 0.08389413

layer_t_2.bias f4 [128]
000000 83 70 83 bd 56 ca fe 3c d6 25 64 bd 9e e2 80 3c
       -0.06417944 0.03110234 -0.055700146 0.01573306
000010 7a b0 81 bd 9b eb c9 bd f6 e2 9d bd d9 a4 b9 bd
       -0.06332488 -0.09859391 -0.07709305 -0.09064645
000020 bc bd 6b bd 54 3f 3b 3b 55 fc 4c bd 2b 26 a6 bd
       -0.05755399 0.0028571682 -0.05004533 -0.08112749
000030 d7 2c 90 bd d7 17 6f 3c 35 f7 c7 3c 7c 89 b0 bc
       -0.070398025 0.014593086 0.02440987 -0.021549933
000040 a3 2c 67 bc a4 3b 86 bd 7d 6a c8 bc ba 54 84 bd
       -0.014109763 -0.06554344 -0.02446484 -0.06461473
000050 0d 1f 88 bd 51 5d b7 bd f6 4d 17 be d8 09 f3 bd
       -0.066465475 -0.089533456 -0.14775833 -0.11867112
000060 e3 35 d4 bd 14 e3 6c bd b4 29 84 3d 95 0c 04 bd
       -0.103618406 -0.057833746 0.06453267 -0.03223856
000070 5d 2e c9 bd eb 3f 37 3d 4b de 8c bd ad 80 88 bc
       -0.09823296 0.04473869 -0.068783365 -0.01666292
000080 8b 8f 8a bd ce 22 c3 bd 1d 51 38 bd af 9a b9 bd
       -0.0676566 -0.09528123 -0.04499923 -0.09062707
000090 1b cf b7 bd 6e 2c c7 3c a6 8d 4f bd 71 b3 b2 bd
       -0.08975049 0.024313178 -0.050672196 -0.08725632
0000a0 42 c1 86 bd b3 32 43 bd 9b f4 f4 bb 40 96 c2 bd
       -0.0657983 -0.047655772 -0.0074754483 -0.09501314
0000b0 58 96 ca bd 5a 42 ba bd 68 34 da bd 88 76 24 3b
       -0.09891957 -0.09094687 -0.10654527 0.0025095064
0000c0 b7 af a8 bd 24 06 1b be 15 ce a6 3c 67 12 a3 bc
       -0.0823664 -0.15139061 0.02036194 -0.019906236
0000d0 80 85 1e 3d 77 6d bc bd 92 43 e8 3c 33 50 01 be
       0.038701534 -0.09200566 0.028352533 -0.1262825
0000e0 6c 78 f2 bd 61 df 46 bd 32 4d c5 bc 42 c9 e9 3a
       -0.11839375 -0.048552874 -0.024084661 0.0017836469
0000f0 2b 29 1f bd 9c da 10 bd ce 25 ee 3c 2a 71 28 bd
       -0.03885762 -0.035364732 0.029070761 -0.041123547
000100 dc dc 9d bc 25 cb bc bd d8 09 fa bd a1 7d 4c bd
       -0.019270353 -0.09218434 -0.12208909 -0.049924497
000110 99 04 ff bb 90 a0 8c bd ab 87 98 bd 24 2c ca bd
       -0.0077825305 -0.06866562 -0.074477516 -0.098717004
000120 67 e5 c0 bc de 47 17 bd 41 ad 01 be be ad ed bb
       -0.023546888 -0.036933772 -0.12663747 -0.0072533777
000130 25 c6 4d bd e8 41 b0 bc e2 1a 97 bd 97 37 ad bd
       -0.050237793 -0.021515802 -0.07378174 -0.084578685
000140 28 f8 09 3d ee c8 f2 bd f0 e2 ef 3c de 80 94 bd
       0.033683926 -0.118547305 0.029283017 -0.07251142
000150 4d 26 92 bd 9a d7 c8 bc 45 7c 5f bd 9f 2d 84 bc
       -0.071362115 -0.02451687 -0.054561872 -0.016135035
000160 7e 2e 02 3d ec 36 c6 3a c0 80 19 be 91 5a f9 3b
       0.03178262 0.0015122569 -0.1499052 0.0076096733
000170 d6 e6 83 bd 05 a3 51 3b 69 ef 4f 3c 3e 4f 87 bd
       -0.06440513 0.0031988036 0.012691357 -0.06606911
000180 23 38 ad bd b4 07 38 bd eb 60 d1 bd 7d 69 ce bd
       -0.08457973 -0.04492922 -0.10223564 -0.10078714
000190 bf 46 77 bc a0 97 6b bd 98 be 37 3c 04 ba 07 be
       -0.015092551 -0.057517648 0.011214875 -0.13254553
0001a0 34 40 91 3d f2 07 0a 3d e3 6d 0a 3d 1b 3e 21 3d
       0.07092324 0.033698983 0.033796202 0.03936587
0001b0 91 65 83 bd 9d bd 68 bd 0c a5 04 be 09 8a c4 bd
       -0.06415857 -0.056821454 -0.12953585 -0.095966406
0001c0 3c 7a 0f bd 73 c2 f3 bc 81 4a 0b bc 42 fd e6 bc
       -0.03502868 -0.029755807 -0.00850165 -0.028196935
0001d0 3d 14 fb bd 9f 7d f7 bd 1f dc a6 bd ce d3 21 bd
       -0.122597195 -0.12084507 -0.081474535 -0.039508633
0001e0 ee c1 49 bc 7e 37 2b bd 33 c0 4b bd 19 29 aa bd
       -0.012314303 -0.04180097 -0.049743842 -0.0830862
0001f0 1d 29 2f bc 61 bb 07 bb 1b 42 b1 bd c3 7c d3 bd
       -0.0106909545 -0.0020711052 -0.08655187 -0.10326531

layer_out_1.weight f4 [128, 128]
000000 6b 30 bf bd 68 64 1c bd e9 43 5c 3d 20 b8 50 bd
       -0.09335407 -0.038181692 0.0537757 -0.050956845
000010 45 41 00 3d e2 bb a2 bb 30 bb c1 3d 44 90 64 3d
       0.031312246 -0.004966245 0.09459531 0.055801645
000020 a8 c5 52 bd 58 6b 30 3d 67 2e 9c bd 04 52 53 3d
       -0.05145803 0.04307112 -0.07626038 0.051591888
000030 49 22 a7 3d c8 f0 4e 3c ad c2 6b bd a6 66 88 3c
       0.08160836 0.012630649 -0.057558704 0.01665051
000040 5e a5 06 bd 34 67 8b bc 04 d8 2d be 08 a1 9d bc
       -0.03287255 -0.017016985 -0.16976935 -0.019241825
000050 fa 09 e5 3a 9b 68 b9 bc 82 0b 2c bd 93 00 42 bd
       0.0017474287 -0.022632888 -0.042003162 -0.04736383
000060 79 f8 30 3d 9f 35 7e 3b 18 3c ff bc 14 49 ca 3c
       0.043205712 0.0038789285 -0.031156585 0.02469305
000070 5f f8 2f bd 72 69 c6 3a 75 ec b1 bc 60 df 1a bd
       -0.042961475 0.0015137626 -0.021719197 -0.037810683
000080 39 67 22 3d 48 45 5e bd 21 0c 43 bc a7 a3 d5 3d
       0.039649222 -0.05426529 -0.011904747 0.10431605
000090 15 4f 86 3c 2b 56 99 bc a4 3e 95 bd 1f b1 b4 3d
       0.016395131 -0.018717846 -0.072873384 0.08822846
0000a0 a3 a5 88 bc e5 a9 dc 3c 29 df df bc 72 e2 9f bd
       -0.016680544 0.02693648 -0.02732809 -0.07806863
0000b0 5c 27 f4 bd 81 dd 3e bb 2a 58 4b 3d 14 27 7d bd
       -0.1192157 -0.0029123726 0.049644627 -0.061804846
0000c0 76 c1 63 3d d6 d0 b8 3d b4 8d d0 bc 32 35 3a 3d
       0.05560442 0.09024207 -0.025458194 0.045460887
0000d0 cc 26 47 bd 7a df 0a 3a 59 87 95 bc 3a ff 73 3d
       -0.048620984 0.0005297583 -0.018253015 0.059569575
0000e0 29 4d 8d bd 9a 72 7a bd ab 76 52 bb 1c 11 41 3d
       -0.06899483 -0.06114445 -0.0032114189 0.047135457
0000f0 1f 85 7f 3d 0c 9d 85 3d c5 64 e6 3c c7 94 16 3d
       0.062382814 0.06524095 0.028124223 0.03676298
000100 0a 16 c8 bb 1b 25 a5 3c 8e 48 e6 3c 86 41 e5 bd
       -0.006106143 0.020159295 0.028110769 -0.11194138
000110 f9 b5 3b bd 97 d5 94 3d 85 f9 ea bc 47 c5 07 bd
       -0.04582784 0.072673015 -0.028683433 -0.033147123
000120 c4 ab 34 3d 58 2b e5 3d 93 fb bd 3c 3c a0 9e bd
       0.04410912 0.11189908 0.023191249 -0.07745406
000130 19 ac bb bd 8a b6 66 3c 40 4c fa 3d e6 22 00 3e
       -0.091636844 0.014081607 0.12221575 0.12513313
000140 b4 e3 9e 3c e9 a5 ac bd ad 2a 64 3d e8 fb a6 bd
       0.019395687 -0.08430082 0.05570476 -0.08153516
000150 92 7e 06 bd da 37 52 3c 04 9f 8e bc 67 a9 02 bd
       -0.03283555 0.012830699 -0.017409809 -0.031899836
000160 1d fe 87 bd 80 ed 07 3d cb fc 83 bc 92 07 11 bd
       -0.06640265 0.033185482 -0.016111752 -0.03540761
000170 64 89 b6 ba c9 e6 34 bd 30 21 07 3e 9e 48 d0 bd
       -0.0013926444 -0.044165406 0.13196254 -0.10170101
000180 1d 63 93 bd 07 c0 cd 3d db 3d 12 be d8 0f eb 3d
       -0.07196639 0.10046392 -0.14281408 0.11477631
000190 3b 16 f4 bc 7f 84 57 bd 98 57 4a bd f0 cc da 3d
       -0.029795757 -0.052616592 -0.049399942 0.1068362
0001a0 5d 42 4c 3d 0d 86 6e 3c 06 9a fb 3c c4 ce 88 bd
       0.049867976 0.014558327 0.030713093 -0.066800624
0001b0 aa 94 c9 bd eb 2b 1b bd 7a b5 85 3d c5 74 8c bc
       -0.098428085 -0.03788368 0.065287545 -0.017145524
0001c0 60 55 20 3e 4c 68 9a bc 9f 77 86 3d bc 8f 89 bd
       0.15657568 -0.01884856 0.06565785 -0.06716868
0001d0 98 46 98 3c 9c 8f 63 bd a4 e9 ca 3a 30 2e bf bc
       0.01858835 -0.05555688 0.0015481007 -0.023337454
0001e0 5e a1 8a 3d 00 85 8d 3d bf 8d 17 3c e0 11 61 37
       0.067690596 0.06910133 0.0092501035 1.3415207e-05
0001f0 b6 e4 84 3b bd 6e 3d 3d d1 62 93 bd 20 62 fe 3c
       0.004055585 0.046248186 -0.07196582 0.031052649
000200 be fb 61 3c 8f 4c b3 bd 22 9a 29 3d 5b f4 f0 3c
       0.01379293 -0.08754837 0.041406758 0.029413393
000210 ce f6 1d 3e 22 22 a0 bb fe b9 65 3c 01 4b e2 bb
       0.1542618 -0.0048868814 0.014021395 -0.006905914
000220 4f 84 32 bd c4 a4 a5 3a e8 b1 2f 3b e5 68 7d 3d
       -0.04358321 0.0012637605 0.0026808921 0.061867613
000230 9f da 26 3c bf 7b a8 bd 65 0f 7b bd 56 56 8e 3d
       0.010183959 -0.08226728 -0.06129398 0.06950061
000240 08 ee 75 3d 31 c2 13 bc 6b eb 29 3d b8 17 56 3c
       0.060041457 -0.009018467 0.041484278 0.013067178
000250 88 a0 31 bc 31 55 6e bd c0 fb 0c bc 17 20 cd bd
       -0.010841496 -0.058186714 -0.008604944 -0.10015886
000260 2b 8b b4 bd 1f 44 92 3d dc ff d1 bd bd e3 8a bc
       -0.08815607 0.07141899 -0.102538794 -0.016954297
000270 8b a8 3a bd bc c3 b9 bd 56 df d3 bc 22 45 cd bd
       -0.04557089 -0.090705365 -0.02586333 -0.10022952
000280 38 9d 88 bd ca bc a6 3c ff 6e d1 bc 64 10 6c bd
       -0.06670612 0.020353694 -0.025565622 -0.05763282
000290 35 67 b7 bd 15 89 1b 3d 3b de 00 bd 51 2b 8e 3d
       -0.08955232 0.03797253 -0.031461935 0.06941856
0002a0 29 e8 8e bc 83 6c 35 3c 58 99 4e bd 6c 02 ab 3c
       -0.017444687 0.0110732345 -0.05043921 0.020875178
0002b0 9f 04 bc 3d 61 7b c1 bd b9 b0 7c bd b5 ed 6a ba
       0.09180569 -0.09447361 -0.061691973 -0.0008961813
0002c0 33 ea 83 3d be 64 76 3d 1b 48 fe bc 97 d4 46 bd
       0.06441154 0.06015467 -0.031040242 -0.048542585
0002d0 3c 83 40 bc c5 7e b3 3d 14 75 69 bd 66 6e 0a 3e
       -0.011750039 0.08764414 -0.05699642 0.13518676
0002e0 c1 ed ad bd e7 4f 43 3b 2a 5f 49 3d 06 54 90 3d
       -0.084926136 0.0029802264 0.04916302 0.07047276
0002f0 ba cb f0 3d da 82 d8 3c f7 9f d2 3d 50 00 b9 bd
       0.11757608 0.026429582 0.10284417 -0.09033263
000300 ae 99 77 bd 49 09 3e 3c 74 9b 0d be aa 18 2b bd
       -0.060449295 0.011598893 -0.13828832 -0.04177157
000310 44 b7 d7 3c cc d8 80 3d fe f4 68 bd 85 0b 8c bc
       0.026332505 0.06291351 -0.056874268 -0.017095337
000320 2f 88 8e bd 46 37 ea bd 96 54 37 bd d5 34 51 bd
       -0.06959569 -0.11436324 -0.0447584 -0.051075775
000330 74 2d 3a 3d ad fc c4 3c ca 22 57 3d b0 17 87 bd
       0.045453504 0.024046266 0.05252341 -0.06596315
000340 f0 c8 97 3c 0a 44 9c bc 7e 30 71 3c 00 d9 ae bd
       0.018528432 -0.019075412 0.014721034 -0.08537483
000350 36 ee a3 bd 30 50 c7 b8 32 30 bd bc f2 15 ab bc
       -0.080044195 -9.5039955e-05 -0.02309427 -0.020884488
000360 0a 74 7c bb 63 88 89 bd e4 fe 85 3c 95 f9 c7 3c
       -0.0038521313 -0.06715467 0.016356893 0.024411002
000370 e3 b4 d2 3d b7 b7 5e bc 0c d4 91 3d 2f 95 94 bc
       0.10288408 -0.013593606 0.07120523 -0.018137543
000380 da e1 07 bd 58 0f 9b bc ac 18 04 3d 33 b1 9a 3d
       -0.033174373 -0.018928215 0.03225009 0.07553329
000390 eb a6 96 bc 2b af b6 3d d3 90 e2 3d cc ce f0 3c
       -0.01839014 0.089201294 0.11062779 0.029395483
0003a0 c6 9d e5 3a 93 94 39 bd 1f 02 9f bb af cf c8 3c
       0.0017518334 -0.045307707 -0.004852548 0.024513094
0003b0 92 29 cb bd 66 ce 99 3d ee 66 99 bc 12 21 cd bc
       -0.09920038 0.075100705 -0.018725839 -0.025040183
0003c0 94 3b 25 bd a8 f0 ad 3d 05 07 05 3d 72 5a 18 3a
       -0.04034002 0.08493167 0.032477397 0.0005811817
0003d0 e0 46 96 bd 34 a4 80 b9 07 8b 42 bc 3b 2f f5 3c
       -0.07337737 -0.00024536403 -0.011873967 0.029929748
0003e0 4a 95 8f bd 81 5b 90 3d d8 40 b3 bc 5e 33 d5 bc
       -0.070108965 0.07048703 -0.021881506 -0.02602547
0003f0 66 ce f1 bc c4 e1 ec bd 7b 66 34 3d a1 45 a6 3d
       -0.029517364 -0.11566499 0.044043045 0.081187494

layer_out_1.bias f4 [128]
000000 2e e4 62 3b b4 0d 6f bd aa 17 b9 bc 2d 40 09 bb
       0.003462087 -0.058362678 -0.022594292 -0.0020942793
000010 04 c2 85 3c 8f 85 bd 3c ad 34 08 3d 6c 22 6e bd
       0.016327865 0.023134975 0.03325336 -0.058138296
000020 f3 24 03 3d 84 60 de 3c 6f 64 8d bc 0b 7c 20 3b
       0.03201766 0.027145632 -0.017259805 0.0024487998
000030 8a c4 88 bc 02 8b 81 bb 0b e3 4e 3d 0a 63 a2 3d
       -0.01669528 -0.0039533386 0.050509494 0.079290465
000040 a5 42 82 3d a5 84 57 3d dc 61 5d 3d 58 04 35 3d
       0.06360368 0.052616734 0.054048404 0.044193596
000050 04 40 88 3c 6d 69 38 3d 38 98 2a 3d d4 d9 35 3d
       0.016632088 0.045022417 0.041649073 0.04439719
000060 f1 5a 50 3d bd 0a f7 bc 95 1f d6 3d f9 a1 ac 3c
       0.05086798 -0.030156488 0.104552425 0.021073328
000070 d6 05 46 3d ea 38 ba 3d f1 53 b6 3b e1 d4 41 bc
       0.04834541 0.09092887 0.005564206 -0.011830539
000080 0e d1 de bc fc 1a 5b 3c 2b 65 64 3d bf 5a bc bd
       -0.027199294 0.013373133 0.055760544 -0.09196996
000090 7f f7 3e bd 88 ea 8e 3d 20 72 b0 bd 09 90 57 3d
       -0.04662275 0.06978327 -0.086155176 0.052627597
0000a0 6e 86 1e bd e0 b6 cc 3d 9a 66 15 3d fa 5b 66 3c
       -0.03870242 0.09995818 0.0364748 0.014060015
0000b0 60 a8 26 bb 5b 61 73 bd 72 79 a4 bd cc 1a 10 3d
       -0.002542995 -0.059419017 -0.08030976 0.035181805
0000c0 9b 2a 72 3c c3 0b 67 bc 9f 76 93 3d ed 58 02 3c
       0.014780666 -0.014101925 0.072003596 0.007955772
0000d0 6a 1e f3 3b cf 1c e9 3b 68 d5 92 3d e2 b6 dd bc
       0.007419397 0.00711403 0.0716961 -0.027064744
0000e0 af ba 73 3d 9f 24 64 bb 8d 23 2f 3a 22 3c 1c 3d
       0.059504207 -0.0034811867 0.00066810177 0.038143285
0000f0 59 85 11 bb ee 65 d7 bc 25 49 a2 3c e7 40 67 3d
       -0.0022204726 -0.026293721 0.019810269 0.05645838
000100 4e 07 9b 3d 68 ba 73 3d 45 da 06 3e 47 7a 58 3d
       0.07569753 0.059503943 0.131692 0.052850988
000110 a1 2b 88 3d 6b 0d 3e bd d9 96 68 bb bf 13 9a 3d
       0.066489466 -0.046399515 -0.0035490303 0.075232975
000120 21 b2 31 3d 2f 00 bc 3d 96 2f 1c 3c b7 15 ad 3b
       0.043382768 0.091797225 0.00953283 0.0052821296
000130 51 da 1a bd e7 60 9f 3c 0b 22 5c 3d aa 5b 19 3d
       -0.03780586 0.019455386 0.053743403 0.037440933
000140 e5 81 40 3b 8a 85 9f 3d 18 75 2c 3d e0 26 fa bc
       0.0029374298 0.077891424 0.042103857 -0.030536115
000150 d7 f4 9f 3a b0 24 64 bd 45 1a 98 3c 41 cc cf 3d
       0.0012203705 -0.05569905 0.018567214 0.1014638
000160 fd a6 00 3d 30 28 85 3d 47 aa 8b 3d 4d 80 80 bc
       0.031409252 0.06501806 0.06819587 -0.015686179
000170 22 6e e7 38 4d a0 3d bc 22 7b 0e bd 79 e7 a1 3c
       0.00011035452 -0.011573863 -0.034785397 0.019763695
000180 3c 55 95 bc 72 93 6c 3d 7b fa b2 3d b2 b8 61 bb
       -0.01822912 0.057757802 0.087391816 -0.0034442362
000190 c1 91 84 3d 12 7b b0 3d 3e 15 b7 bc 26 8c a6 3d
       0.06473113 0.08617224 -0.022348996 0.081322
0001a0 95 fa b5 3c da 1d 8b 3d ef c1 3e 3d c6 7c 29 3d
       0.022214213 0.06792803 0.04657167 0.04137876
0001b0 e4 47 33 bd 61 e7 46 3d ba 15 33 3d 6e fa ca 3d
       -0.043769732 0.048560504 0.043721892 0.09911047
0001c0 23 1e 41 3d 57 6d e2 3c d5 50 40 bd 88 ca a0 3c
       0.04714788 0.027640028 -0.046952087 0.019627824
0001d0 cf 2f 4a bd d9 db 0e 3d f7 1f fc bc d9 23 77 3d
       -0.049362 0.03487763 -0.03077696 0.06033692
0001e0 b3 bf 4c bd 77 90 b0 bd 43 c9 bc bb 2d e7 b1 3d
       -0.049987506 -0.086213045 -0.005761297 0.086866714
0001f0 e7 9e 51 3d 5f f6 de b9 a9 fc 24 bb 58 29 59 3d
       0.05117693 -0.000425267 -0.0025175011 0.053017944

layer_out_2.weight f4 [53, 128]
000000 83 03 8c 3a fd 29 0c bd 51 7f 28 bd 9d 0f 9b 3d
       0.0010682199 -0.03421973 -0.041137043 0.07571337
000010 6e 0f 16 ba 9c 96 84 bd b0 5f 90 3d 14 58 42 3c
       -0.0005724345 -0.06474039 0.07049501 0.01186182
000020 56 f2 68 bd b4 44 33 3d e8 a2 2c bd 32 03 20 3b
       -0.056871735 0.043766692 -0.042147547 0.0024415967
000030 5f 83 a0 3d 79 f4 29 3a df e1 b5 3d 25 2c e3 bd
       0.07837557 0.00064832676 0.08880972 -0.11092404
000040 7f a0 b5 3c da 7b 52 bd 14 3b cc bc fa f9 1d bd
       0.022171257 -0.051387645 -0.024930514 -0.038568474
000050 0a 4c 38 bc 02 b8 33 bd c1 3e 76 3d e2 40 77 bd
       -0.011248598 -0.043876655 0.06011844 -0.06036461
000060 67 8a 39 3d 4b c1 7b 3c 4b c1 11 3d d8 e6 e7 3d
       0.045298006 0.015365909 0.03558473 0.11323327
000070 4b cb 90 3d ed 24 c7 3c 31 46 3d bb be e9 ae 3c
       0.07070025 0.0243096 -0.0028880949 0.021351691
000080 a7 84 df bd 4d 70 87 bd 6e 13 db bc 18 ab dc bc
       -0.10913973 -0.066132165 -0.026742663 -0.026937053
000090 d6 aa fb bc 65 7f 20 bd fa e1 84 3d 16 f8 89 3d
       -0.03072111 -0.039183993 0.06488414 0.06736772
0000a0 cd 57 17 bd 4d 26 7b 3d 60 da 49 3d f2 26 8f 3d
       -0.036948968 0.061315823 0.049280524 0.0698985
0000b0 01 a0 8f 3d c0 75 2d bc ef 1b 27 bd 0f d2 6c 3d
       0.0701294 -0.010587156 -0.040798124 0.057817515
0000c0 3e c0 55 bd 49 9e 43 3d fd 25 29 bd ca b9 20 3d
       -0.05218529 0.047758374 -0.041295994 0.039239682
0000d0 78 77 89 3d b1 e9 6a bc de d6 e1 bc e7 b1 69 3a
       0.0671224 -0.014337943 -0.027568277 0.0008914754
0000e0 6d da 6f bd 9b 57 a0 3d 37 13 ef 3c 57 54 65 bd
       -0.058557916 0.078292094 0.029183967 -0.055988636
0000f0 5a 3f 93 bc 55 ca 45 3c de 8b 05 bd 2e 3e b4 3d
       -0.017974544 0.0120721655 -0.03260409 0.08800922
000100 4a 89 2f bd 96 c1 78 3d b5 57 5d bd 10 5c 53 3d
       -0.04285554 0.060731493 -0.054038722 0.05160147
000110 80 ad 89 3d e9 ea ac 3d 11 0e 05 bd a8 a5 3a 3d
       0.067225456 0.08443243 -0.032484118 0.04556814
000120 32 18 4d 3d 92 d3 9a bd 96 84 44 3c fd e6 ff bd
       0.050071903 -0.07559885 0.011994502 -0.124952294
000130 c1 d3 9b 3d 9b 9f 7d 3d a9 ba d9 bd d1 f8 03 3c
       0.07608748 0.06191979 -0.10631306 0.008054928
000140 91 22 aa bd 84 7f 62 3d 87 b2 e5 3c 13 ab c9 bd
       -0.08307374 0.05529739 0.02803923 -0.09847083
000150 14 ac fb bd df 6a bc bb 7e 7b 76 3c cf b4 64 bd
       -0.12288681 -0.0057500447 0.015044091 -0.055836495
000160 f9 78 34 bd d5 a1 86 3d 7b 1b f0 3c b1 87 56 bd
       -0.04406068 0.06573836 0.029309979 -0.0523755
000170 8c 16 d7 3c 1c 11 aa bc bb 85 0b bd 36 c7 98 bd
       0.026255868 -0.020760112 -0.034063082 -0.074598715
000180 81 59 c8 3d e0 8f c8 bc 29 6f 4d 3d 40 e6 3d bd
       0.097826965 -0.024482667 0.05015484 -0.04636216
000190 09 d0 3d 3c de 41 3b 3d df 3d 55 3d f2 b7 5e bd
       0.011585244 0.045717113 0.052060958 -0.054374643
0001a0 f7 28 07 bc 6f ae b4 3c 20 24 1d 3d a4 97 a7 3c
       -0.008249513 0.022055833 0.03836453 0.02045805
0001b0 ee f2 d3 3d 2c ef 50 bd cc 53 2d bd 56 9c 75 bd
       0.103490695 -0.051009342 -0.042316243 -0.059963547
0001c0 e8 62 0a bd f3 21 b4 bc 0c bf dc bc f1 3d 01 bc
       -0.03378573 -0.021988844 -0.026946567 -0.007888303
0001d0 be 89 dc bb e8 8f b9 bd ae 61 e4 bc 2e 13 ed ba
       -0.0067302873 -0.09060651 -0.027878609 -0.0018087381
0001e0 5f 42 66 bd 3f 39 ed 3c af 73 ca bc 52 6a a3 3c
       -0.05621564 0.028957961 -0.024713365 0.019948158
0001f0 2e 6e 67 3d 1a 11 47 3d e1 b4 58 3d a9 c4 da bd
       0.05650156 0.048600294 0.052906875 -0.10682041
000200 87 ca 05 3d 2d 8c 8d 3c ba 6f ca bc f7 31 1a bd
       0.03266385 0.017278755 -0.024711479 -0.037645306
000210 c2 48 02 3d ac 8b cc 3c 4c 78 0b 3d 1e db 4b bd
       0.03180767 0.024968944 0.03405027 -0.049769513
000220 c6 2e ab bd e5 bf 6a bc f7 b4 9c 3d 29 c8 ae 3d
       -0.08358531 -0.014327978 0.07651704 0.08534271
000230 33 47 c4 3c 3a 0a f1 bd c4 eb 4f 3d 6e b5 0a 3d
       0.023959732 -0.11769529 0.050761953 0.03386443
000240 32 ac 28 bd f1 e3 e1 bb 0f df 09 bc c8 20 ba bd
       -0.041179843 -0.006893628 -0.008414998 -0.09088284
000250 39 66 c8 bc c0 68 48 3d 4c 2f cd bd e0 e0 03 bd
       -0.024462806 0.048928022 -0.10018787 -0.03219688
000260 08 45 54 bd 3f 71 7a 3b b2 5c 8b bd 4d 0b 2b 3d
       -0.051823646 0.0038214473 -0.068047896 0.041758824
000270 55 42 99 3d 29 6f 3b 3c ae 6b 95 bd 0b 94 70 bc
       0.07483355 0.011440077 -0.07295929 -0.014683734
000280 25 d0 0f 3d 4e b5 30 3d cc 46 a5 bd 44 44 82 3c
       0.03511061 0.043141656 -0.08070144 0.015901692
000290 00 bf 61 bd ec ef 99 bc 50 cb 23 bd b1 ee 9e 3b
       -0.055113792 -0.018791161 -0.039988816 0.0048502316
0002a0 32 14 54 3d 16 a9 42 3b 49 13 87 bc 21 7f 58 bc
       0.051777072 0.0029702834 -0.016488688 -0.013213904
0002b0 ae b5 96 3d 55 ec d4 3b 48 6f 7e bc 01 fe 2a bd
       0.073588714 0.0064978995 -0.015529461 -0.041746143
0002c0 c5 a4 7a bd 18 14 be 3d 28 86 9e 3d df 09 64 3d
       -0.061192293 0.09281176 0.07740432 0.055673476
0002d0 1b ad a2 bd 4f 4c 66 3d d1 c0 3a 3d 41 fc 6c 3d
       -0.079431735 0.056225117 0.04559404 0.057857756
0002e0 b8 39 63 3c fc b8 35 be 59 5c e6 bc 13 74 86 bd
       0.013868742 -0.17746347 -0.028120207 -0.06565108
0002f0 2f 8a 4a bc be 3e 6b bb 24 24 ce bd d0 51 4f 3d
       -0.012362047 -0.0035895552 -0.10065487 0.05061513
000300 25 6f 37 bd c9 7e c1 bd 61 5a c1 3c 4d c3 00 3d
       -0.04478373 -0.094480105 0.023602666 0.031436253
000310 d1 47 a3 bd 15 8c a4 bd 45 5d 8f 3d 92 06 9e 3d
       -0.07972682 -0.08034531 0.070002116 0.07716097
000320 f8 de c8 3c 26 b1 41 bd f2 18 ec 3c 3d 59 bc 3c
       0.024520382 -0.047288083 0.028820489 0.02299177
000330 56 fb 1b ba 36 30 d3 3c b3 8a 34 bc 8b 77 21 3d
       -0.0005950233 0.025779825 -0.011019397 0.039420646
000340 3c 4c db 3b df eb 50 3d 4d b5 74 3d ce 0c 38 bc
       0.0066924375 0.051006194 0.059743214 -0.011233522
000350 25 71 01 be 0b 4e df bc de f9 2d 3d 1e e9 fe 3b
       -0.12640817 -0.027258893 0.04247462 0.0077792546
000360 9e 94 a9 3c c5 5d fc 3d ba 40 af 3c 25 d7 c0 3c
       0.020700749 0.123225726 0.021393169 0.023540089
000370 f5 b6 c5 bc 35 88 66 3d ca 9e 17 3d ef 1b 3d 3d
       -0.024135092 0.05628224 0.037016667 0.046169218
000380 ad 06 7b bd f8 f3 8c 3d a2 9c 46 bd e0 ac 30 bb
       -0.061285663 0.06882471 -0.04848922 -0.002695851
000390 a9 eb 03 bd 59 ba 11 bd 7c fc 8b 3b fb b2 80 3c
       -0.032207165 -0.035578106 0.004272042 0.015710345
0003a0 7d 68 30 3d 67 bc 49 bc 7c f6 67 3d d0 8f e4 3c
       0.043068398 -0.012312985 0.05663155 0.027900606
0003b0 a2 c2 ef 3b 36 1d c9 3d ce a7 03 3d e5 45 c5 bd
       0.007316903 0.09820025 0.032142453 -0.09632472
0003c0 e4 19 a8 bd e7 36 16 3d a9 f6 01 bd 64 59 34 bd
       -0.08208063 0.036673453 -0.031729374 -0.044030562
0003d0 db 7f 30 bc 22 09 02 bd af ff 91 bc 35 fc cf bc
       -0.010772671 -0.03174699 -0.017822115 -0.025388816
0003e0 bf 33 5c 3d d3 9c 4e bc d0 f3 34 bd c7 00 6c bd
       0.053760286 -0.012610632 -0.04417783 -0.05761793
0003f0 c5 8e 1d 3d d0 23 d9 3b 14 a0 d6 3b ec 62 8a 3d
       0.038466234 0.0066265836 0.0065498445 0.06757149
