results/DDPM/SEQ_LEN/126/model_final.pth (torch, 204551 bytes, 26 tensors)

layer_x.weight f4 [64, 53]
00000000: 0e4d 85bd 74f2 3a3d ae93 aebc 80cc 863d
00000010: aa5b 903c 9f79 bb3d eab6 c03b 58a5 613d
00000020: b2ff ab3d 66d4 d0bd aa0f 0c3c 7136 8f3d
00000030: b5be 3d3d 3fb3 ac3c 8fab 773d 8908 593c
00000040: dad8 093d d4f0 623d 94b4 f93d 7656 e73d
00000050: d04d 4e3d 9da1 333e 644f a03d 632e 9a3d
00000060: 341c aa3c 3318 e03d 8433 9b3d dcc8 e3bc
00000070: 9465 9b3d e8c7 c23c 17ad 17be a792 1c3d
00000080: 1a29 333d 084a 9d3d 1922 bc3d 03f0 a53d
00000090: 7b61 f73d 6ce3 a53d 20d6 283d 31f4 743d
000000a0: c8fe 1d3d d440 2f3e 41e2 773c 6ea2 b63d
000000b0: 0886 a53d d948 553c fde7 dc3d e97a 163e
000000c0: 20ba a23d 1ff8 d73c 65e0 593d bdf2 033d
000000d0: 2893 813d e5bf 023d 04b8 f83b b819 05bc
000000e0: 1f95 1cbc 0437 6cbc 9e82 a0bc 7ac4 54be
000000f0: f9dd 84bd 03e4 46be f1ef ed3c dccf 26bd
00000100: 826d d73b 68a2 393d 6ce2 d9bb 1956 afbd
00000110: f88f 4ebe 96f4 96bd 832a d9bc 6845 cf3c
00000120: d37d 243d 018b 7a3c 8510 d53c 6c43 5ebd
00000130: 7275 f0b9 85ea 72be 9970 edbd 738a 2dbd
00000140: 89f7 04be 55b9 fbbd bc25 36bd 32dd 963c
00000150: 7bb5 38bd e5c5 24bc 0a51 efbc eecd a23c
00000160: 4183 fabb 9ac1 e9bd e22a d1bc c188 d7bd
00000170: 8987 93bd 5cd7 513e 8fc6 2ebd b529 c2bd
00000180: 66ca 39bc b0b1 3cbd 44ea 6cbd 041b 79bd
00000190: a4b1 6d3e dccc 0ebe 6d4c 25bd 43d0 9abc
000001a0: 7f0e 08be d47e 673d c9c1 d53c 6703 6b3d
000001b0: 9397 c73d 345d 9b3d bf4d 37bc 3303 413d
000001c0: 7e6e 753d a439 6a3d f725 9fbe aaa5 cf3c
000001d0: 6b1a 103b c9ea 273d 0058 343d 767f 863d
000001e0: bb4f 703d 5f48 f23c d106 883d fed3 173d
000001f0: 8fb5 463d abfd 213d 9c8a f33c da42 85bd
00000200: 2b0e 2f3d ab33 143d 57aa d63d faa4 6e3d
00000210: 5367 113d 8dc1 823c 115f e63c 96ed e0bc
00000220: 134a 763d 932a f63c b768 d73b fa13 ca3d
00000230: 6493 053d ad2d c43d 7998 f63c 8fdf c93d
00000240: e8f8 753d 1941 ad3d 2899 513e 6b50 323d
00000250: 8672 a23d ce46 bb3d 7426 313d 4806 843d
00000260: a911 9abd 0444 26bd b163 053e 776b 0c3d
00000270: 8091 423d d7d6 143c 9f63 80bc ca10 78bd
00000280: d0a9 62bc ac11 8ebd 7941 ce3c 7e73 273d
00000290: d446 5fbc 468b 9ebd 1931 aebc 68dd 1f3e
000002a0: 85c0 c3be 4942 fdba 6dbe 43bd 6d23 733b
000002b0: 0ed2 01bd bc8e 7fbb 047d 3f3c 9685 92bd
000002c0: 535c d2bc 9c4c 6f3d 137d b2bc 5c07 f9bc
000002d0: 21d0 83bd 1a62 b0bc 1dc4 d7bc 9a09 5bbd
000002e0: 466f 4cbd 38de debc f51d 16bd 5c0f a1bc
000002f0: ec83 cfbd 9175 f2bc e4f7 573d d016 5e3c
00000300: 94df 63bc a916 7ebc 7aa0 143d ecf3 63bc
00000310: f620 b03d 6d2b 2dbd 7693 25bd 361a 213d
00000320: 51eb 4abd 513f 40bd 8ad7 43bd c5b6 a93c
00000330: af05 2f3e 9298 64bd 6df8 56bd 8157 c93d
00000340: 3a21 f4bb cc12 52bc cef2 84bd 1781 01bd
00000350: 3604 9ebb 1e93 cebb aea7 103d 1466 4f3c
00000360: 7f08 1d3c cb5c 653d 7e0d 4e3d 13e4 a4bc
00000370: 18ea 62be 726c 803e 12e3 873c 71ca 0abc
00000380: ab9a 44bd 4452 683d 8e43 20bb 092c 0e3e
00000390: 3cf0 8dbe be9d a93c 9ce9 973c 22d9 383d
000003a0: a851 8b3c 5073 c1bc 1083 e6bc a370 363c
000003b0: bb23 7cbc f163 863c fede de3c 2efe 27bd
000003c0: a64c 31bd a7a1 8bbc 4ef0 3cbd b6f5 933d
000003d0: 6c6d aabc 4510 c0bc 2ffc cabc 1fa2 0cbe
000003e0: 8b5f 94bc 4a2f 3dbc 78c6 17bd cd9b 743c
000003f0: 1190 27bc fc26 e53d e4ee 843b 81d5 c43d
-0.06508838 0.045641378 -0.021310654 0.06581974 0.017621834 0.09154057 0.00588118 0.055089325
0.083983794 -0.10196762 0.0085486565 0.06992806 0.04632445 0.021081565 0.060466345 0.013246664
0.03365407 0.055405453 0.12192646 0.11295788 0.050367177 0.1754212 0.078276426 0.07528379
0.020765401 0.10942116 0.07578185 -0.027805738 0.07587734 0.023776963 -0.14812122 0.038225796
0.04374037 0.07680136 0.09186191 0.08102419 0.1207914 0.08100018 0.04121983 0.05980319
0.038573056 0.17114574 0.015129627 0.089177 0.08082205 0.0130178565 0.10786436 0.14695324
0.07945657 0.02636343 0.053192515 0.032213915 0.06326896 0.031921286 0.0075902957 -0.008123808
-0.009557038 -0.014417414 -0.019593533 -0.20778075 -0.064876504 -0.19422917 0.029045077 -0.040725574
0.0065743336 0.0453209 -0.006649306 -0.08561344 -0.20172107 -0.0737087 -0.026509529 0.02530165
0.040159058 0.01529193 0.026008854 -0.054263517 -0.0004586387 -0.23722275 -0.11593742 -0.042368364
-0.12985052 -0.12291209 -0.04446958 0.018416021 -0.04509495 -0.010056947 -0.029213447 0.019873586
-0.007645041 -0.1141388 -0.025533143 -0.105241306 -0.07203586 0.2049231 -0.04266983 -0.09480611
-0.011339759 -0.046067894 -0.0578406 -0.06081678 0.23212296 -0.13945335 -0.04035609 -0.018898135
-0.1328678 0.056517437 0.02609338 0.05737629 0.09745707 0.075861365 -0.01118797 0.04712219
0.059919827 0.057183877 -0.31083652 0.02534755 0.0021988403 0.040995393 0.044029236 0.0656728
0.058669787 0.029575525 0.06641925 0.037067406 0.04851299 0.039548557 0.02972918 -0.065068915
0.04273812 0.036182087 0.104817085 0.058262803 0.03549893 0.015961433 0.028121503 -0.02745704
0.060129236 0.030049598 0.0065737623 0.098670915 0.032611266 0.095790245 0.030102002 0.098570935
0.06005183 0.08459682 0.2046858 0.043533724 0.07932 0.09144364 0.043249562 0.064465106
-0.075229 -0.04059221 0.1302631 0.034282174 0.04750204 0.009084425 -0.015672503 -0.060562886
-0.013834432 -0.069369644 0.025177704 0.040881626 -0.013627727 -0.07741408 -0.021263646 0.15611804
-0.38232818 -0.0019322123 -0.047789026 0.0037099973 -0.031694464 -0.0038994988 0.011687521 -0.07154386
-0.02567879 0.05842267 -0.021788156 -0.030399017 -0.06436182 -0.021531153 -0.026338631 -0.053475954
-0.049910806 -0.027205572 -0.036649663 -0.019660644 -0.10132584 -0.029597076 0.05272664 0.013555244
-0.013908286 -0.015508332 0.036285855 -0.013913136 0.08600037 -0.042277742 -0.040423833 0.039331637
-0.04954082 -0.046935383 -0.047812976 0.020717034 0.17092012 -0.055809565 -0.05248301 0.09831143
-0.00745025 -0.012821864 -0.06491624 -0.03161725 -0.0048222793 -0.006304159 0.03531616 0.012658615
0.009584545 0.055996697 0.050305836 -0.020128286 -0.22159612 0.25082737 0.016587768 -0.008471117
-0.047999065 0.05671908 -0.0024454328 0.13883986 -0.27722347 0.0207051 0.01854401 0.04512895
0.01700671 -0.023614556 -0.028138667 0.011135253 -0.015389378 0.016405078 0.02720594 -0.04101389
-0.04328599 -0.017044855 -0.04612761 0.072246 -0.02080413 -0.023445258 -0.024778454 -0.1373372
-0.018111965 -0.011546919 -0.03705451 0.014929724 -0.010227219 0.11189076 0.0040567983 0.09611035

layer_x.bias f4 [64]
00000000: 1901 9f3e 393c 873e 1363 d13e 9cbd c73e
00000010: 2850 873e 6df6 343e 5544 bb3e bb83 a93d
00000020: 3cce 723d c8c0 973e a0f3 9e3e 1a25 b43e
00000030: f1ae 843e df1e 353e beba a03e b042 b93e
00000040: 7ded df3e be5a 593e 5b46 743e a785 7a3e
00000050: 8c99 983e ae2d 033e 8840 8d3e 2130 b23e
00000060: 3ae5 3c3e 24df 3d3e d6f0 4f3e 434a a03e
00000070: c60a 9e3e 7b6d 5c3e d95d bd3e 1b4e 313e
00000080: 8f9f a33e cff1 6a3e a933 663e 8dbf 893e
00000090: 9e4f 873e 4f78 b13e 6257 ff3d c216 773e
000000a0: 81ce 0e3e dc23 833e f35c 873d 82b9 913e
000000b0: 471f ba3e e3ab 103e 1625 923e 5e12 7a3e
000000c0: 85e0 4a3e 4c2d 653e 1d6d 323e 164e 1a3e
000000d0: 05b9 9d3e f4bf b63e 7a6c 8c3e 16e1 a73e
000000e0: b0b7 4d3e c664 933e de34 a23e 74f0 053e
000000f0: fea6 163e abbc 6d3e e5eb 9e3e 18b6 a13e
0.31055525 0.26413134 0.408959 0.39011848 0.26428342 0.17672129 0.3657557 0.08277079
0.05927871 0.29639268 0.31045246 0.35184556 0.2591472 0.17687558 0.31392473 0.3618369
0.43735877 0.21226022 0.23854963 0.24465047 0.29804647 0.12810394 0.27588296 0.34802344
0.18446818 0.18542153 0.20306715 0.31306657 0.30867594 0.21526138 0.36985663 0.17314951
0.3195767 0.22943805 0.22480644 0.26903954 0.2642793 0.346621 0.12467839 0.24129775
0.13945962 0.25613296 0.066095255 0.28461844 0.36351988 0.1412807 0.2854392 0.24421069
0.1981221 0.2238056 0.17424436 0.1506885 0.3080522 0.35693324 0.2742651 0.32788914
0.20089602 0.28787822 0.3168096 0.13080007 0.1471214 0.23216502 0.31039348 0.3158424

layer_t_1.weight f4 [64, 64]
00000000: 9d88 19be c845 0f3e 8d8e 03be dc7e ac3d
00000010: 5f47 8d3c 68fc efbd 8563 19bd 14c7 1cbd
00000020: f3bf 993b 9fd2 9fbd 7129 59bd 2885 85be
00000030: 9b40 41bb aacc f7bb b28f 0e3e bfa5 3ebe
00000040: 4893 a3bc d908 18bc 71b4 f5bd 1637 4fbe
00000050: 6c30 3b3e 7ad1 41be 979f c3bd 75c9 0cbe
00000060: d91c 203d 0daa c63d 5fe9 833c 8de6 ecbb
00000070: a780 bb3d 57ba 073d 24c0 dc3d 9202 093e
00000080: b663 87bc 2cb5 0a3e b85d cb3c 9e62 e1b9
00000090: b308 443e 6764 d43b 0361 0f3e 0b03 903e
000000a0: 1c5a 03be 7485 2cbe d823 b13c 3907 34be
000000b0: d763 9bbd 0a2c 973d edf7 aebd f504 f0bc
000000c0: a8d1 68be 0ba9 413e de3f f63d d637 76bd
000000d0: 4508 9f3c 3bc1 a13d 89be 07be 5508 cdbd
000000e0: 1250 00be bb28 533e 1783 6b3e 31ae bc3d
000000f0: f609 54be 2ed6 4bbd 806a c6bd e342 dfbc
00000100: 1265 ff3d ec9e a43b c4d2 033e b621 71bd
00000110: 99f9 a1bd 5a68 34be 54f8 f1bd a982 103d
00000120: 350e 2fbc b95e 6b3d 3f6e 813e e5c9 ad3d
00000130: 212a 6f3d d035 083e ec9f bc3d 4466 1dbd
00000140: 2f6b 3c3d 5ce6 31ba 3f33 283d 04e1 8b3c
00000150: da98 a13d 48e8 853d deaf e63c 46f4 8cbd
00000160: c08f 34be 41eb f6bd 6818 c03c 5d84 c6bd
00000170: bb3a e9bd 2074 40bd 759b 0fbe a056 073c
00000180: a375 72bd 31b8 eabd bc69 b0bd 5b14 f6bd
00000190: c6c5 8dbb 1de6 de3d 7160 983d 3d60 a7bc
000001a0: a223 91bc c95d 283d 1ff0 b4bc 33dd b0bd
000001b0: c620 4cbd 2efb 5fbd bb4d 0c3d 2312 29be
000001c0: e047 c5bc c590 9bbd 4cab 08bd 517e 633e
000001d0: 7dc8 173d 372d 903c 14b8 0bbe 8131 bbbc
000001e0: 0ebb 203e fb93 dc3b fe65 afbd f50c 153e
000001f0: 76bc 73bd e6b4 adbc 9fa3 b1bd 794c cdbd
00000200: 206f acbd ade8 a93d 81a0 7b3d b59e e1bd
00000210: fbdc d63d 9ee2 333c 2217 b43c 8ccf e8bd
00000220: cdd3 c23d f9e5 27bd 86c6 b3bd 6edf b9bd
00000230: cc4a e73c eb38 b6bd 0c49 f2bd 80c5 46be
00000240: a08e 28bd 4d8e 053e 164b f43b df51 81be
00000250: 592f 85bd d870 1a3e 7b05 b33d 1946 9b3c
00000260: 20f4 ac3d 3f8d 243d 95d5 54bd 38ac 513d
00000270: c56f ae3d 0a72 77bd 8527 473d cbc8 85bd
00000280: 56b2 b13c 136a d8bc c894 2abd 5beb 44bd
00000290: 2169 77be 994c 813d 39b8 143e bd70 493e
000002a0: 6b9a 30be 1fd6 2cbe 84d3 fd3d dae6 9c3d
000002b0: 3b2d 80bb 231b 24be 89f2 06be 8770 18bd
000002c0: cbfb c13c 65e1 a13d ac94 c4bc 6323 163e
000002d0: 7047 4f3a 1f1f fc3b 6d9f e3bc 261b 1bbe
000002e0: e8e5 343d c067 4f3d 396e d03d db8e 3a3c
000002f0: 612a 7dbd 7360 b4bc e63b 2a3e 740b 153d
00000300: f7b1 023b d380 6f3c 97bc 2c3e 1afe a13d
00000310: dfce fbbc 304c 16be ee1f 2d3d 6625 093e
00000320: 2923 f2ba e17d cb3d d4d8 4a3d 8e29 43bd
00000330: 61a2 b5bd 60ad d7bd 4666 1d3d bedb 52be
00000340: f8f7 7c3d 430f 053e 5c8f 8bbd 00e4 a0bd
00000350: df26 85bd 5b4e e83c 66a6 09bd ef40 c73d
00000360: 671b e6ba dacf 24be acb8 123e 3dcc 9cbc
00000370: dc9f 2cbc 8320 69bd c2e9 81bd 0626 b9bd
00000380: 6ae8 dfbd 71f6 493e 5f49 463d b394 f83b
00000390: c0ec 903b 462e b43d 325e adbd b27a 683d
000003a0: 3295 453d 75b9 47bd 11c8 f3bd 1710 c03d
000003b0: 6800 fcbd 79f7 a83b 1bcc 863c 56fb 353d
000003c0: 7637 cfbd 1e58 bfbc df26 1e3c 5843 a03d
000003d0: d3df b33b a14c a73d e69a 5c3d 9147 f13d
000003e0: 9f9c a8bd 98ec 3dbd cd5f afbd b3b2 c73d
000003f0: 7d5e c5bd 3e9e 033c 1b68 59bd e4ef ecbd
-0.1499352 0.13991463 -0.12847348 0.08422634 0.017245946 -0.117180645 -0.037448425 -0.038275793
0.0046920716 -0.07803845 -0.053018037 -0.26078153 -0.002948797 -0.0075622397 0.13922003 -0.18617915
-0.01996769 -0.009279453 -0.11997307 -0.20235857 0.1828019 -0.18927565 -0.09551924 -0.13748725
0.03909001 0.09700403 0.016102491 -0.007229632 0.09155398 0.033136692 0.107788354 0.13379887
-0.016527038 0.13545674 0.024824962 -0.0004298882 0.19143943 0.0064816955 0.14001851 0.28127322
-0.12827343 -0.16847783 0.021623537 -0.1758088 -0.07587402 0.07381447 -0.08543382 -0.029299239
-0.22736228 0.18912141 0.120239004 -0.060111843 0.019413123 0.07898184 -0.13256277 -0.10011355
-0.12530544 0.20621006 0.22999226 0.09212912 -0.20706925 -0.049764805 -0.09688282 -0.027253574
0.124704495 0.005023828 0.1287337 -0.05887004 -0.07908935 -0.17617932 -0.11814943 0.035280857
-0.01068454 0.05746338 0.25279424 0.08485774 0.058389787 0.13301778 0.0921019 -0.038427606
0.046000656 -0.00067863404 0.041064497 0.01707507 0.07890482 0.06538445 0.028160032 -0.06882529
-0.17632961 -0.1205659 0.023449138 -0.09693215 -0.11388155 -0.046985745 -0.14024146 0.008260399
-0.05919422 -0.11460913 -0.08613917 -0.12015601 -0.004326555 0.108837344 0.0744027 -0.020431632
-0.017717186 0.041105065 -0.022087155 -0.086359404 -0.049835943 -0.054682903 0.034253817 -0.16510825
-0.024082124 -0.07595972 -0.033366486 0.22216155 0.037056435 0.017599685 -0.13644439 -0.022850754
0.15696356 0.006731508 -0.08564375 0.14555724 -0.059505902 -0.021204423 -0.08673786 -0.100243516
-0.08419633 0.082963325 0.061432365 -0.11016599 0.104913674 0.010979323 0.021983687 -0.113677114
0.09513054 -0.040990803 -0.087781 -0.09075819 0.028233908 -0.08897575 -0.11830339 -0.19411278
-0.041151643 0.13042565 0.00745524 -0.25257775 -0.065031715 0.15082109 0.0874128 0.018954324
0.08445001 0.040173765 -0.0519615 0.05118963 0.08517412 -0.06041149 0.048621673 -0.06532439
0.021691483 -0.026417768 -0.041645795 -0.048076015 -0.24161197 0.06313438 0.145234 0.19671912
-0.17246406 -0.16878556 0.12393859 0.07661219 -0.003911642 -0.16025977 -0.13178457 -0.03721669
0.023679635 0.07904319 -0.023996674 0.14661936 0.00079070684 0.0076941396 -0.027785981 -0.15147075
0.04416457 0.050636053 0.10177273 0.011386598 -0.061807994 -0.022018647 0.16624412 0.036387876
0.00199425 0.014618116 0.16868816 0.07909794 -0.030738292 -0.146775 0.04226678 0.13393173
-0.0018473613 0.09936119 0.04952319 -0.04764705 -0.08868862 -0.105311155 0.038427614 -0.20591637
0.06175992 0.12994103 -0.06814453 -0.078559875 -0.06501555 0.028357675 -0.033605956 0.09729182
-0.0017555774 -0.16094914 0.14328259 -0.019140357 -0.01053616 -0.05691577 -0.06343414 -0.090404555
-0.10933001 0.19722916 0.048409816 0.0075860857 0.004422754 0.087978885 -0.08465232 0.056757636
0.048237987 -0.04876085 -0.11903394 0.09378069 -0.12304765 0.005156454 0.016454747 0.044429146
-0.10118 -0.023357447 0.009652822 0.07825345 0.0054893284 0.08168913 0.05385866 0.11781228
-0.08232998 -0.04636821 -0.085631944 0.09750881 -0.09637163 0.008033333 -0.0530778 -0.11569193

layer_t_1.bias f4 [64]
00000000: c8fd a8bd d774 47bd fb87 81bd 8be5 233d
00000010: 1bfb 73bd 7142 b4bd cd95 aabc 8693 0cbe
00000020: 2a52 353d d739 d63d bd90 7f3d 37d3 cc3c
00000030: 1a60 c33d 56a8 ee3d 9891 f8bd d840 35bd
00000040: 366a 8fbd b521 013d cf00 16bd 00cb 38bc
00000050: a307 a13d d451 483c 4a0b babc 4a56 e5bd
00000060: 21e8 d3bc c857 4f3b ccc3 c83d de33 c7bc
00000070: 2e40 043e e683 08bd a600 d5bd 7797 f5bc
00000080: 685a 9cbd 9a9d 703d 1ffb 143e a596 b6bd
00000090: 5a40 8abd 1237 e43d e2d3 91bd a44c 87bd
000000a0: 012a aebd 32b4 cc3c 5be1 18bd d19e 94bc
000000b0: ea18 4c3d a1e5 08be 2cf5 b53d 00e0 a1bd
000000c0: f073 093d 264e c93d 989f e9bd 5b33 653d
000000d0: facc 933d 42b2 1b3d 2259 8f3d 555c aabd
000000e0: 60ce ec3c 330d ecbd fe07 18be fe4f 9f3b
000000f0: c304 9b3c 5b7d 2b3d 2a19 523d 7b0f 143e
-0.0825153 -0.04869541 -0.06324764 0.04001383 -0.059565645 -0.08801735 -0.020823384 -0.1372815
0.04426781 0.10460251 0.062393893 0.025003059 0.09539814 0.11653201 -0.12137145 -0.044251293
-0.0700268 0.031526286 -0.036621865 -0.011278868 0.07862785 0.012226541 -0.022710461 -0.11198099
-0.025867524 0.0031638015 0.0980297 -0.024316724 0.12915108 -0.033328913 -0.10400514 -0.02997945
-0.07634431 0.05874405 0.1454892 -0.08915452 -0.06750555 0.11143316 -0.071204916 -0.06606415
-0.08504105 0.024988268 -0.03732429 -0.018142136 0.049828447 -0.13368846 0.088846534 -0.07904053
0.033557832 0.09829359 -0.11407393 0.05595718 0.072168306 0.038011797 0.069994226 -0.08318392
0.028907001 -0.11525955 -0.14846799 0.0048618307 0.018923169 0.041867595 0.05129353 0.1445903

layer_t_2.weight f4 [64, 64]
00000000: 0d98 12be 2a7a e4bc 83e8 d9bd 3499 a03d
00000010: 750d cabd 6a5f c63c b7eb 06be 4352 7ebd
00000020: c87b 023e f505 ea3d 6c37 d63d 5e8f 123e
00000030: 4fb8 8f3d 3581 b7bd 0072 d3bc 3642 ac3d
00000040: 9176 d83c c2b1 c73c 27a8 4b3d d06b 06be
00000050: 176f ee3d 8390 f73c 8302 993d 81a9 283e
00000060: 94de ab3d d483 e83d 09b7 953d 625b db3d
00000070: 42bc 453d cf84 323c f27c 1abe ce7e 903d
00000080: 5b23 653d e8ba 62bd e94b 25bd 9995 123e
00000090: 98b1 e2bd 3ee1 e0bd d58a c2bb 2df0 c4bd
000000a0: 0186 05be 8c17 98bd f33a 31bd 1856 c2bc
000000b0: 81de 9cbd 0b0c efbd e261 0d3e 9a0e 233d
000000c0: 6075 0bbd 20f0 773d ad64 5cbc b3d6 9d3d
000000d0: ed27 0d3e 013e 8fbd de9b de3d 514f 933c
000000e0: 7e4c 30be cfdb a03d 6ef8 d5bd 808b 26bc
000000f0: 71ee 50be 2170 d33c 4663 203a 9912 75bd
00000100: 7722 30bd f103 0fbe 545d 5bbe 9d66 153e
00000110: 71df 4cbe b52c 103e d585 06be 2c8f 2dbe
00000120: fda2 f73d 8542 ca3d 26d7 dc3d ac0d 7c3d
00000130: 583d f53d fd94 aebd 0d8e 37be c1fc 9a3d
00000140: 54ee bb3d e1af 3cbb 4bbe 003e f4d6 f9bd
00000150: 92fb 1d3e ba2d 5fbd ce80 fa3c e9f7 bc3d
00000160: 5db3 043e 8f79 cf3d 378e ccbd 03c3 113e
00000170: b23f 1a3d bd37 a6bd 4f21 4abe 0e69 303d
00000180: 99bc 703a 5e62 bb3d 661c 893d 370a 473d
00000190: d418 94bd ef82 8c3d 44be 843e 7f73 6fbe
000001a0: 1b43 99bd eff5 be3d 1ecb 9a3d 24c7 43be
000001b0: 538a 2a3e 9055 c6bd 20fe 803d f877 0d3e
000001c0: 48be 14be a305 58bc e6a6 89bd e537 ac3d
000001d0: c480 f73c beb9 43bc 084b 263e e1a5 debd
000001e0: 18c7 76bd b6eb 143e 430a 51be e851 1ebd
000001f0: 6aec ccbd 2676 dc3d e230 dbbd 826b 01bd
00000200: 839d b0bc 9ef8 8a3c 633e 583c 0903 30bd
00000210: f2eb 023e bc19 c9bd 35d4 f0bc 84ff 0c3e
00000220: 7011 15be 526e bdbd 038f 3bbe d380 b8bd
00000230: 1685 0cbd b4ab a4bd 1bc2 9bbd 28cf 543c
00000240: ab94 523b 0fdb 5dbd 6549 253d 5cae d73d
00000250: 9635 bfbd c61d 733c e18f d3bd 5ee6 d0bc
00000260: fb35 773c 2900 27be b30b 67bd debc 723c
00000270: 7987 a9bd cfab 48bd f81f bc3a 7f0e 7b3d
00000280: 4b3a 4e3d 5f1d 02be b7a1 333d 3273 6b3d
00000290: 1e26 66bd 9839 263d 9225 b4bd fda1 be3c
000002a0: bd38 94bc 7cdd c5bd d718 82bd 8e58 86bc
000002b0: 59bb 79bd 6d8c cd3d 1b26 613c e376 d2bd
000002c0: 0996 ef3d f940 0fbd c774 dd3d d559 20be
000002d0: 2b22 833d bac5 8dbd 30ed ac3b 8fc9 813d
000002e0: 1174 d13d 4caa 02bd 89b5 b53d 82e9 8abd
000002f0: 12ee ec3d aa47 a63d 6328 693d d2c7 883d
00000300: b9ad a5bd 94f3 3b3e a739 6cbd d8bd e3bc
00000310: 9f94 0dbe 3db6 1b3e a0c5 0c3e 9a42 01be
00000320: a8fc 263d 2525 b33d 3b64 293e 8613 b13c
00000330: 965b 3ebe 7281 29bd 4d6e d0bd b5bf 723d
00000340: 1bf5 ba3d ca57 01bb 1cc5 013d 7e1f 29be
00000350: ac4a 273b 36b7 f23d fed9 c83d 997c c93c
00000360: 9f09 313e 1612 503e b2a7 0ebe c1ca 40bd
00000370: 3fe0 0b3d e333 d0bd a6aa 84be 14d0 913e
00000380: 3255 0d3d 66c5 8fbb 4daa aebd b4e2 6cbe
00000390: 7dbe 09be d599 c03d f816 273e 9ca7 84be
000003a0: f09d 5f3d a15e ed3d fe94 3f3e c459 c4bd
000003b0: 0e6d 163e 3439 26be 399d 3fbe 6002 073e
000003c0: 67a3 cfbc 4677 093e a32f 04be f4db d93d
000003d0: 7576 083e cceb 443e 7720 ed3d 97fe d4bd
000003e0: 234f 2bbd ce74 2b3e ae57 23be 036a 48bd
000003f0: ca38 90bc 4d07 603e eff1 c0bd 14d1 4fbd
-0.14315815 -0.027890284 -0.10640051 0.07841721 -0.09865848 0.024215419 -0.13175856 -0.06209017
0.12742531 0.114269175 0.1045979 0.14312503 0.07017576 -0.08960191 -0.025811195 0.08411066
0.026423724 0.024376754 0.04972091 -0.13127065 0.116422825 0.030220276 0.07471182 0.1647091
0.08392063 0.11353269 0.07310302 0.10710789 0.04827524 0.010895922 -0.15086725 0.07055436
0.05594192 -0.05535403 -0.040355597 0.1431488 -0.110690296 -0.109804615 -0.00593696 -0.096161224
-0.130394 -0.07426366 -0.04326911 -0.023722693 -0.07659627 -0.11672219 0.1380687 0.039808847
-0.034047484 0.060531735 -0.013451737 0.07706966 0.13784762 -0.06994248 0.10869573 0.017982157
-0.1721668 0.07854425 -0.10447775 -0.010165095 -0.20403458 0.025810303 0.00061183085 -0.05983219
-0.04300162 -0.13966347 -0.2142232 0.14589925 -0.20007111 0.14079554 -0.1313699 -0.16949147
0.120916344 0.09875969 0.10783224 0.061536476 0.11974591 -0.08524511 -0.17925282 0.0756774
0.09176317 -0.0028791355 0.12572591 -0.12199202 0.15427998 -0.054486968 0.030578997 0.092269726
0.12959047 0.10130607 -0.09988063 0.14234547 0.0376584 -0.081161 -0.19739269 0.043068938
0.00091833767 0.091496214 0.0669487 0.048593726 -0.07231298 0.06860911 0.2592641 -0.23383902
-0.074835025 0.09324252 0.07558273 -0.19118935 0.16654329 -0.096842885 0.062984705 0.13815296
-0.14525712 -0.013184938 -0.067212865 0.084090985 0.030212767 -0.01194614 0.1623956 -0.10871483
-0.060248464 0.14543042 -0.20414071 -0.03865233 -0.1000603 0.107647225 -0.10702683 -0.031596668
-0.021559482 0.016964253 0.013198468 -0.042971645 0.12785318 -0.098193616 -0.029398063 0.13769346
-0.14557433 -0.092495576 -0.18316273 -0.09008946 -0.03430661 -0.08040562 -0.07605382 0.012988843
0.003213207 -0.05416399 0.040353198 0.10531303 -0.093363926 0.0148386415 -0.10330177 -0.025500473
0.015088554 -0.16308655 -0.05640764 0.014815537 -0.082777925 -0.048991974 0.0014352789 0.06129312
0.05034856 -0.12706517 0.043855395 0.057482906 -0.056188695 0.04058227 -0.087962285 0.023270601
-0.018093461 -0.096613854 -0.06352394 -0.016399648 -0.060969684 0.1003655 0.013741995 -0.10276582
0.11698539 -0.034974072 0.10813289 -0.15659268 0.064030014 -0.06922479 0.0052772984 0.063372724
0.10227216 -0.03190069 0.08872516 -0.06782819 0.11568846 0.081191376 0.05692328 0.06678738
-0.080897756 0.18354636 -0.05767217 -0.027800485 -0.13826226 0.15206237 0.13747263 -0.12623063
0.040768296 0.08747319 0.16542141 0.021615755 -0.18589625 -0.041383214 -0.10177288 0.059264857
0.091287814 -0.0019736164 0.03168212 -0.1651592 0.0025526686 0.11851351 0.09807204 0.024595546
0.17288826 0.20319399 -0.13931158 -0.04706836 0.034149405 -0.101661466 -0.25911444 0.28479064
0.034505077 -0.0043875454 -0.08528576 -0.23133355 -0.13451572 0.09404341 0.16317356 -0.25909126
0.05459398 0.11590315 0.1870918 -0.09587434 0.14690039 -0.16232759 -0.1871232 0.131845
-0.025346471 0.13424405 -0.12908797 0.10637656 0.13326438 0.19230574 0.11578458 -0.10400122
-0.041823518 0.16743776 -0.15951416 -0.048929226 -0.017605204 0.21877785 -0.09421145 -0.0507365

layer_t_2.bias f4 [64]
00000000: 4321 a5bd 96d1 003e 0874 4e3c ec11 16be
00000010: 8ea0 9c3d 00e6 b13d 8305 05bd 72fb f4bd
00000020: b3f9 cf3d 3063 e13d 7185 4cbd cad6 063d
00000030: 5639 953d 2cce dbbd 5973 fe3c d39e 90bd
00000040: a499 b83d 13ba d33d d629 953d 8db6 29bc
00000050: 6128 56bd e3ec 1f3d 6f7b f9bd 1625 8fbd
00000060: 384c 813d d06a 513e b8fa 8fbd 120d 573d
00000070: d641 c63c 87ad 8cbd 3dcf b2bc 4537 52bd
00000080: f8f2 163e 804d a93d fac8 23be 7c4b a8bd
00000090: a736 3a3d 05d9 963d fb01 aabd 908c 13be
000000a0: 390e cc3c bf72 df3d 8e13 d7bd 1d02 fbbd
000000b0: 5436 afbd 1221 513d c7a5 18be e899 fa3d
000000c0: 107e e33d 5a1f cbbd 671a d2bc 19b2 a43d
000000d0: 0dfc eabd 8a68 0d3e 39a8 0abd 2353 99bd
000000e0: c411 bebd 5ca0 823d 3c08 5abc cda0 403d
000000f0: 3aee 2fbc 0a7e ef3c 629a 15bc eca0 ca3c
-0.08062985 0.1257995 0.012600906 -0.14655274 0.07647811 0.08686447 -0.03247596 -0.11962022
0.10155048 0.11005247 -0.049931947 0.032919683 0.072863266 -0.107326835 0.031060861 -0.07061543
0.090136796 0.10338225 0.0728337 -0.010358465 -0.052284602 0.039044272 -0.12181746 -0.069894955
0.06313366 0.20450902 -0.07030243 0.0525027 0.024201315 -0.06869035 -0.021827335 -0.05132224
0.14741123 0.08266735 -0.15994635 -0.082175225 0.045462277 0.07365612 -0.08301159 -0.14409089
0.024909126 0.10910558 -0.10501777 -0.122562625 -0.08555284 0.05105693 -0.14906989 0.122363865
0.11108029 -0.09918089 -0.025647355 0.08041782 -0.11473856 0.1380941 -0.033851836 -0.0748656
-0.09280732 0.063782424 -0.013307627 0.04702835 -0.01073795 0.029234905 -0.009131046 0.024734937

layer_out_1.weight f4 [64, 64]
00000000: f777 4d3d 10c5 243d 18e2 66bd a313 57bd
00000010: 8a4e ea3c 1675 61bd d5a3 db3d b4c5 9fbd
00000020: 3c40 f9bc 66d6 9bbd 92da 863d d27d 943d
00000030: 9526 ffbd 1966 debd 7185 a9bc d037 aebd
00000040: 4f59 4bbd c18c c23d 12d3 493d d049 39bb
00000050: be3b a13d b3b1 9fbd 8863 003e 5c59 8b3d
00000060: 3493 9cbd 469f 64bd ff90 e1bd 607a 3dbd
00000070: aa2a 153c 9064 703c 342a 20bd 1ebd 123d
00000080: 836b 45bd 445c 85bb 61c9 643d b823 68bd
00000090: 2c45 5ebd b159 483d 99c6 733d fefb e23d
000000a0: 8db7 b1bd 7c44 6e3d 9643 e23d d45c 09be
000000b0: 019f 2c3d 9b98 663d b8b4 293d 1bc2 2abd
000000c0: 8ef7 a4bd 9378 1c3d 2368 5cbd 702d dc3d
000000d0: 1c09 043d 4124 9a3d c288 b63d 37d5 82bc
000000e0: b0f6 963d ad17 9fbd c143 7ebd f724 ce3d
000000f0: aa8f 953d d063 adbd f816 02bc b4b5 6cbd
00000100: c272 993b 21aa d9bc e874 bc3d 121b bc3d
00000110: 7c43 97bd 6b63 72bb c8c1 bdbd 9f61 323d
00000120: 3bdc 90bd e9c5 7b3d 7be4 9e3d 15fe 42bd
00000130: 8ac1 0d3e a82a d63d 88ba 23bd 6b99 123c
00000140: ac3a 02be 4aaf 9bbd ffb7 cb3d eefd 8cbd
00000150: 6a21 12be dc31 23bc f39a d33d 4388 c03c
00000160: 31f9 953b 9bdb e23c 023c af3d b82b a5bd
00000170: 86e9 f6bd 2cda ddbc 5c73 22bd 38e7 513b
00000180: 9865 933c 7850 9cbc 6a28 1fbd 72f4 f9bd
00000190: 3d86 8ebd ce40 4abd 6bc1 803c 9753 83bd
000001a0: 0070 f43c 1b4c 6e3d 9703 693d dd54 ce3a
000001b0: 8113 723d 5204 dabd 3df8 7f3c 338b 023e
000001c0: e5be 01bd 93b7 dd3a b1c7 45bc a3eb b8bd
000001d0: 5f13 c9bc 7046 183d 640b b3bc 46d4 04bd
000001e0: 29f4 aa3d 6275 033e 6711 873d 8f0c ca3c
000001f0: 8a3c 17bd f180 8fbd 6afd a83d 0d4c 1a3d
00000200: b80b 5abd fc45 c1bd e1a0 7c3d f368 c1bc
00000210: 7ad9 803d 67f2 e93d 6a51 153d 8f6d febd
00000220: eafb c93c bf2c 63bc ac0e e23d 9d47 8f3d
00000230: 8fd9 e13d 5b07 493d 2620 533e 5a3f e9bd
00000240: 48de b23d d3b8 1d3e a668 783d be54 6e3d
00000250: 29ad 01bd 4988 b33d 8b46 55bd e911 6a3a
00000260: edb9 463e b086 88bd a480 ce3d a5a2 543d
00000270: 8a67 b2bd 2a0f b33d 727b fdbc 8790 e93c
00000280: e0fb 7b3d 238c 95bd f125 733d e0b5 ba3d
00000290: ac93 c93c 2cb5 033e 61ef bd3d f46f e13c
000002a0: a1e1 0f3d b2e5 2f3d f7be bfbc 4ca2 c23b
000002b0: fdda cfbc d61a f2bd 9db3 263d 231a afbd
000002c0: 6c81 f7bc debd 153d 1c99 9cbd 1156 253c
000002d0: 8909 663d 5193 0b3d b559 82bd 5073 8c3c
000002e0: d946 e93c 7819 7ebc 8be6 913d c752 2a3e
000002f0: 8689 863d a14e c2bd 2530 e7bd a031 dbbd
00000300: 1435 b8ba aba0 66bd 4cb3 383d d47c 233e
00000310: d719 e23d 1609 5a3d 49c9 2f3d c051 c83d
00000320: b027 8e37 6bd8 10bd 6420 c83d 00db 0cbd
00000330: c19a 123e c27a ff3d afd1 6ebd 7ff8 b2bd
00000340: e511 56bd bf8a b0bd e70a b4bd e797 843d
00000350: 2201 67be 35dc 73bd c45f 3f3d 1256 37bd
00000360: c8dc c73c 17c7 863d 39c2 53bd b25b 6ebc
00000370: dafc 363c 4c5a 1cbd ecc6 053d 5535 38bd
00000380: cd75 bb3d b1b7 09bd 0806 823d aee7 cabd
00000390: 2a2c 183d 1c59 653d 5740 d7bd 1981 a8bd
000003a0: 24fe 103d 6d9d 273b 9b57 8c3d 55e6 f63d
000003b0: 6cf8 34bc 457f f9bd f31a 54bd 481c ff3d
000003c0: 9e70 0abd e339 5d3d fe6a 043d 999d 933d
000003d0: 5183 b2bd 75c9 88bd bd83 36bd ce77 093b
000003e0: 3926 2abb 8b65 8a3d a23e bebd f53e eb3b
000003f0: de4e 663d f5ad ecbc 1699 19bd 875c 58bd
0.050163236 0.040226996 -0.056367964 -0.05250896 0.028601903 -0.055043302 0.10724608 -0.07801381
-0.030426137 -0.07609253 0.06584658 0.07250561 -0.12458531 -0.10859317 -0.020693513 -0.08506739
-0.04964572 0.09499503 0.049273558 -0.0028272755 0.07872723 -0.07797565 0.12537968 0.06804153
-0.07645264 -0.055815957 -0.11013984 -0.046259284 0.00910441 0.0146724135 -0.039102748 0.035824887
-0.048198234 -0.004069837 0.055856112 -0.05667469 -0.054265186 0.04891366 0.05951557 0.1108322
-0.08677588 0.05817078 0.11048047 -0.13414317 0.042143825 0.05629788 0.041432112 -0.04168902
-0.0805503 0.038200926 -0.05381025 0.10750854 0.03223525 0.07526446 0.08912803 -0.01597081
0.07371271 -0.07768188 -0.062076334 0.10065644 0.07302792 -0.08466303 -0.0079400465 -0.057790473
0.0046828697 -0.026570382 0.092019856 0.09184851 -0.073859185 -0.0036985527 -0.092654765 0.04355013
-0.07073256 0.06146804 0.07758423 -0.047605593 0.1384336 0.10457355 -0.039972812 0.0089477105
-0.12717694 -0.07601793 0.09947204 -0.06884371 -0.14270559 -0.009960618 0.103322886 0.023502475
0.004576825 0.027692607 0.085563675 -0.08064979 -0.1205626 -0.027081572 -0.039660797 0.0032028686
0.01799278 -0.01908134 -0.0388569 -0.12204827 -0.06959198 -0.04937821 0.015717229 -0.06412428
0.029838562 0.05817805 0.05688819 0.0015741844 0.05910063 -0.10645355 0.015623149 0.12748413
-0.03167619 0.0016915671 -0.012071536 -0.09029319 -0.02454537 0.03717655 -0.021856017 -0.032429002
0.08347351 0.12837747 0.06595116 0.024664192 -0.03692297 -0.070070155 0.0825146 0.037670184
-0.053233832 -0.094371766 0.061676864 -0.023609614 0.0629148 0.11423188 0.036454596 -0.124232404
0.024656255 -0.013865649 0.11037955 0.06996081 0.11027824 0.04907928 0.20617732 -0.113890365
0.08733803 0.15402536 0.060646676 0.058186285 -0.03165928 0.08766229 -0.05206923 0.00089290604
0.19406863 -0.066663146 0.1008313 0.051912922 -0.08711155 0.08743127 -0.030942652 0.028511299
0.061519504 -0.073021196 0.059362356 0.09116721 0.024606548 0.1286208 0.092741735 0.027519204
0.035127286 0.042943664 -0.023406489 0.0059397575 -0.025372976 -0.11821525 0.040698636 -0.08549907
-0.03021308 0.036558025 -0.07646391 0.010091321 0.056161437 0.03407604 -0.063647665 0.017144829
0.028476166 -0.015509002 0.07124051 0.1663314 0.06569199 -0.094876535 -0.1128848 -0.107028246
-0.0014053904 -0.05630557 0.045092866 0.15965587 0.11040085 0.05323132 0.04291657 0.097812176
1.69462e-05 -0.035362642 0.09771803 -0.034388542 0.14316846 0.12474586 -0.05830544 -0.08738803
-0.05226316 -0.08620214 -0.08791142 0.064742856 -0.22559026 -0.059536178 0.04672219 -0.044759817
0.024397269 0.06580942 -0.051698897 -0.014548229 0.011168683 -0.03817205 0.03266041 -0.044972736
0.09153328 -0.033622447 0.063488066 -0.09907471 0.037151493 0.055993184 -0.10510319 -0.082277484
0.035398617 0.002557601 0.06852647 0.12055651 -0.0110455565 -0.12182478 -0.051783513 0.12456566
-0.033798806 0.054010283 0.0323286 0.07207794 -0.08716453 -0.0667905 -0.04455923 0.002097595
-0.0025962724 0.06757649 -0.0928929 0.007179136 0.056227557 -0.028891543 -0.03749951 -0.052822616

layer_out_1.bias f4 [64]
00000000: 48af 523d 2269 29be 950b c5bc c4bd d83c
00000010: d226 853d 611f 853d 69ff a6bc ebe5 ab3d
00000020: eb7f b3bd acaf a53d 44ac 44bd a75a 6abd
00000030: 55de 963d bb79 94bd c5fe d2bd 276a 8dbc
00000040: ed57 1d3d 103d bd3d 251b 84bb bba6 153d
00000050: 7ffa f1bd 8585 a43d 22fd 21be c619 e93d
00000060: 389b 5ebc 71f0 b83d 2ae1 8dbc 3a4c 283d
00000070: b521 72bd 8fa9 e33c 3fde b43d f53d c8bd
00000080: 64fc 01be 263f f53d 66af 9abc 133a 053d
00000090: b8f9 a43d 03f4 2ebd b896 63bd 750c c9bc
000000a0: 43bc c23c 80b0 863c 23c6 0b3e c84d ca3d
000000b0: 9485 99ba 0317 d2bd 2e92 2fbc f920 6c3d
000000c0: 4972 c53d 26bb 86bd 70fb 3bbd c0db bc3d
000000d0: fd7c 60bd aa87 813d d0f8 853d a8ff 84bd
000000e0: b06c 2abc 288c ff3d 7f26 6ebd 7371 e139
000000f0: d0a7 65bd 03ac 34bd 58f2 f13d cd79 cdbd
0.051436692 -0.16544011 -0.024053374 0.026457675 0.06501545 0.06500126 -0.02038546 0.08393463
-0.08764633 0.080901474 -0.048015848 -0.05721536 0.07366625 -0.07249781 -0.103025 -0.017262531
0.03841393 0.092401624 -0.004031556 0.03653596 -0.118153565 0.08033279 -0.15819219 0.11381869
-0.013586812 0.090302356 -0.01731928 0.04108832 -0.059114177 0.027790813 0.088314526 -0.09777442
-0.12693936 0.11974935 -0.018882465 0.032526087 0.080554426 -0.042713176 -0.05556366 -0.024542073
0.02377141 0.016441584 0.13649802 0.09878117 -0.0011712783 -0.102582954 -0.010716004 0.057648633
0.09640939 -0.065786645 -0.045894086 0.092216015 -0.054806698 0.06324704 0.06541598 -0.06494075
-0.01040189 0.124779046 -0.05814218 0.0004299987 -0.05606824 -0.044109356 0.118138015 -0.10032997

layer_out_2.weight f4 [53, 64]
00000000: f5e3 76bd b6c1 bf3b 8434 4e3b 1fe0 e8bb
00000010: 0a00 6f3d 5ff1 013e 6d53 7e3d 6362 fcbd
00000020: bd31 09bd 60cd 14be 118c 713d 1ac1 4f3d
00000030: 990b a33d a271 ceba e5ef e33d 14a3 1fbd
00000040: 4232 013e daf8 81bd 6da9 81bd 225b 0ebd
00000050: 13f4 bf3d ce21 aebd 5db5 d93d 7957 9c3d
00000060: 616d c23d 8302 913d 330b 81bd dafd b1bd
00000070: a009 9dbd 815c fdbd 01f2 e43c 3509 ecbd
00000080: b89d e63c 4ebd e8bd 67ee cebd c8f3 fd3d
00000090: fe35 cdbc e407 173c 1412 9b3b c418 c53c
000000a0: ce83 a6bd fc0b 6fbc b975 e9bd 16be e4bc
000000b0: 906e 963d 281f 93bd beb3 e13b 15de 133d
000000c0: 0e7c 1f3d 18a6 183d a4a4 1ebd 2c72 9dbd
000000d0: 21c9 16be f092 543d 8efb 8d3d a7e5 12be
000000e0: 881a b43d 6222 3f3e d7bb b13d e31e 173e
000000f0: 1684 1f3d 6b8a 8d3a 274b be3d 0bb3 8fbc
00000100: b727 80bd 20c9 dcbd 2968 e63d c3c8 b13d
00000110: ca31 68bd 8570 49bd afbd f7bc 5556 933d
00000120: 2368 383d 798a 8bbd 1720 f4bb 2ec6 db3d
00000130: 5cb0 06bd dcf3 c73c b54d 9e3d cb05 963d
00000140: 2a27 62bd fb41 993d 3d1c cebc 6914 183c
00000150: 89c5 913d a04c 88bd 1afc 7fbd 9f4d 86bc
00000160: 77e9 95ba 32c9 4dbb f733 5dbd be7a adbc
00000170: 4c99 98bd b076 1b3d 7b9c 833d 1f5a ed3d
00000180: 649b 153e 750f 84bd e6be 0a3d d60d 69bd
00000190: bee9 763d 75bc d63c c608 683d 1755 54bc
000001a0: 221d 03be fb8b 153d dad1 d43d 3a7e 10be
000001b0: fb8a 12bd c2f7 37bd cd35 57bd 0d08 c93d
000001c0: a1ba 513d 7ea2 33bc ea3d 8f3d b83b cabd
000001d0: 5f31 dfbc d47a 033d 7e82 fa3c cd32 28bd
000001e0: 3625 283d 6e4e 9bbd d7ef f1bc 548c 603d
000001f0: f213 7ebd f029 8dbd 4723 b73d b341 95bd
00000200: e8ca 58bc 16b5 9bbd db7c 9e3c 36b6 6c3c
00000210: 091c 353d 7d57 783d a8fa 19bc b961 e3bc
00000220: 4fd0 2ebd cc69 ffbd f66f e2bb 38ff b8bd
00000230: 6569 75bd 57cd 4b3d e6e8 883d 1c40 933d
00000240: 60fa 3f3b 38b0 1ebe b191 a9bd 57c5 8d3d
00000250: 48fa 8e3d cde3 d73d f6c7 b6bd a55a 4b3d
00000260: 146c 123e cebb d23d 8515 c83d 9c43 bdbd
00000270: eac5 2abe ea79 39bc b86e dabd 9ee0 ca3d
00000280: de6b 0b3e fe80 a7bc 58a7 213d ab2a 313c
00000290: f94b 0a3d a1a7 40bd e348 a5bb fc23 58be
000002a0: 139b 48bd f128 4abd 69bb 9a3c bd8e f23c
000002b0: e47f 0cbe 6f52 4c3d 78fe 92bd 7bcb 2bbe
000002c0: 9ea9 6ebd 62d9 49bc dd48 a13d f74f 9fbd
000002d0: c564 053e f34d a5bd 2c82 e13c ac27 e9bb
000002e0: 0e5a 4c3d f604 07bd 2ab6 d13d 5ca6 25bd
000002f0: 1f13 4e3b 2665 bc3d 169a ac3d 7b0e 1e3e
00000300: e1c1 4fbd ffbc 59bc 90d5 d1bd 3948 123c
00000310: 4671 b5bc 1ee2 1e3e 953d f33d a3f7 8e3d
00000320: 8343 133d 986c 913d 0003 d4bd f056 7e3c
00000330: 4a51 bbbd 50bd f03c 1bb0 673d c2d6 ab3d
00000340: 8372 adbc 3df6 203d 2cc2 363d 6d70 a33c
00000350: 9d81 f33c 8815 babc 5db3 fcbc 3e17 01bd
00000360: e822 bf3d 74ee 0cbc 1a8a babd edb1 46bd
00000370: 5632 01bd e7a7 9b3c a9e6 96bc 8b7f 093e
00000380: 004b 79bd 88b2 26bd 4190 62bd be0f 823d
00000390: 7965 383c 21cb 47bd 6dcf d2bd 784a c73b
000003a0: a64a 61bd d694 8dbd 9595 81bd 0a7d d33d
000003b0: 404a 36bd b797 afbc acc5 8e3d fd66 6ebd
000003c0: d04d 14bd ea51 0c3d 9354 303e 9489 223d
000003d0: 01e9 0ebd 94f5 6d3c 42d5 5a3d a28d bdbb
000003e0: 5bdb c6bc 3167 a6bc 2eac 20bd dffe 94bb
000003f0: d63e d1bd 1763 a0bd a5d1 b63d fed3 9ebd
-0.06027599 0.0058519496 0.0031464407 -0.0071067954 0.058349647 0.12689732 0.06209128 -0.12323453
-0.0334947 -0.1453147 0.05897147 0.050721265 0.079611965 -0.0015750418 0.111297406 -0.038973883
0.12616828 -0.06346293 -0.063311435 -0.03475488 0.09372725 -0.085025415 0.106302954 0.076338716
0.094935186 0.07080557 -0.06300964 -0.086909965 -0.076678514 -0.12371159 0.027947428 -0.115251936
0.028151378 -0.11364232 -0.101040654 0.12400013 -0.02505016 0.00921819 0.0047323797 0.02405966
-0.081306085 -0.01459026 -0.11399407 -0.027922671 0.07345307 -0.07183677 0.006887882 0.036100466
0.038936667 0.037267774 -0.038731232 -0.07687792 -0.14725162 0.051897943 0.06932746 -0.14345418
0.08794123 0.1866546 0.08678406 0.14757876 0.038944326 0.0010798698 0.09291678 -0.017541429
-0.06257575 -0.10780549 0.11250336 0.086808704 -0.056688108 -0.049179573 -0.030241815 0.07194201
0.045021188 -0.06813521 -0.0074501145 0.10731159 -0.032883033 0.024408273 0.07729665 0.07325324
-0.05521313 0.07483288 -0.02515995 0.00928221 0.07117755 -0.0665524 -0.062496282 -0.016394434
-0.0011437376 -0.003140044 -0.054004636 -0.021176692 -0.07451114 0.037954986 0.06426331 0.11589455
0.14610058 -0.06448261 0.03387346 -0.05689796 0.060281508 0.02621291 0.056648992 -0.01295974
-0.12804082 0.03651045 0.103915885 -0.14110652 -0.035777073 -0.044914015 -0.052541543 0.09815989
0.051203374 -0.010964034 0.06994231 -0.09874672 -0.027245222 0.03209956 0.030579802 -0.041064072
0.041051112 -0.07583319 -0.02953331 0.054821327 -0.06203074 -0.068927646 0.089422755 -0.07287922
-0.01323197 -0.07602899 0.019346645 0.014447739 0.04421619 0.06063031 -0.00939814 -0.027756559
-0.042679127 -0.12471351 -0.0069103194 -0.09033054 -0.059914965 0.049756374 0.06685047 0.07189962
0.0029293522 -0.1549691 -0.082797416 0.06922405 0.06981331 0.105414964 -0.08924858 0.049646992
0.14299041 0.10289727 0.097697295 -0.09241411 -0.1667706 -0.0113205705 -0.10665649 0.099061236
0.13615367 -0.02044725 0.039466232 0.0108133955 0.03376386 -0.047034863 -0.005044089 -0.21107477
-0.048976015 -0.04935545 0.018888192 0.029609079 -0.13720661 0.049883302 -0.07177442 -0.1677684
-0.05826723 -0.0123198945 0.07875226 -0.07778924 0.13026722 -0.08071508 0.027527891 -0.007115325
0.04989057 -0.032963715 0.10239823 -0.040441856 0.0031444503 0.0919898 0.08427827 0.15435211
-0.050722007 -0.013289689 -0.10245812 0.008928352 -0.02214874 0.15515944 0.1187698 0.06980827
0.035953056 0.07100791 -0.10352135 0.015523657 -0.09146364 0.029387146 0.05656443 0.08390571
-0.021172768 0.03929733 0.04461877 0.01995107 0.02972489 -0.022715345 -0.030847246 -0.031516306
0.0933283 -0.0086017735 -0.09108372 -0.048509527 -0.031542145 0.01900096 -0.018420534 0.1342756
-0.06086254 -0.040697604 -0.055313352 0.06350659 0.011254662 -0.048777703 -0.102934696 0.0060818754
-0.05500283 -0.06913154 -0.06327359 0.10326584 -0.044504404 -0.021434648 0.06971297 -0.058203686
-0.03620702 0.034257807 0.17219763 0.039681986 -0.03489018 0.014523882 0.053426035 -0.005784706
-0.024274519 -0.020312877 -0.039226703 -0.0045469846 -0.10217063 -0.078314 0.08926705 -0.07755278

layer_out_2.bias f4 [53]
00000000: 6838 a23b c266 913b 1d15 e83b 3d40 a4ba
00000010: 4d6f 0cbc 2643 a93c 5cda efba d40b 2bbc
00000020: 5d8a aeba 601f bbbb 4f7d c63c e5ad 2d3c
00000030: 9b99 043d aa59 6f3b 85ae 2b3c 049e 6b3c
00000040: 2ca5 353b a0a0 be3c 5a2b 80ba cd62 9dbb
00000050: 2ed1 d53a ab41 f2bb 5aa3 093b ad66 243b
00000060: 5353 523a 8990 d73b 9efe c03b 187f f73c
00000070: 4f35 e83c 1aee 7a3c 0a5d 893c 799a de3c
00000080: 375d 053c 5af9 cbbb 63d2 cdba ff3a dabb
00000090: baca c93b 08fa debc a46e e03c b64e 21bb
000000a0: cc2d 9ebb e416 50bc d1d6 e23a 9c17 bcb9
000000b0: b4e9 893c 7d3e 06bc d3ce 183b 15bc 283c
000000c0: e478 dfbb 8948 973c 4d75 813c 62f9 cdbc
000000d0: 7a9e 253c
0.004950572 0.0044372985 0.007082595 -0.0012531352 -0.008571458 0.020661902 -0.0018299329 -0.010439832
-0.0013316382 -0.0057105273 0.024229674 0.010600542 0.032373052 0.003652195 0.01047862 0.014380936
0.0027716858 0.023269951 -0.0009778545 -0.0048030377 0.0016312951 -0.007393082 0.0021001906 0.0025085614
0.00080232805 0.006578509 0.0058897277 0.03021197 0.028345732 0.015315557 0.016767997 0.027173268
0.0081399 -0.0062247934 -0.0015702959 -0.006659865 0.0061582 -0.027218834 0.027396508 -0.0024613566
-0.0048272368 -0.01270077 0.0017306452 -0.00035875745 0.016835071 -0.008193609 0.0023316636 0.0102987485
-0.006819831 0.018467205 0.015803004 -0.025143329 0.010108585

residual_layers.0.layer_norm.weight f4 [64]
00000000: a730 803f d295 783f 6a1c 823f c9d1 743f
00000010: 49f5 7a3f 25ec 6a3f 2b55 7b3f 4054 733f
00000020: 64dc 6a3f dc62 833f 8fd6 813f 92c3 723f
00000030: 2ccd 763f 089f 673f 34a8 753f 5d04 823f
00000040: c5d3 863f cd09 793f 8d86 763f 2d9c 6d3f
00000050: 3aa8 943f e5c9 6c3f a22b 823f 2e74 ab3f
00000060: b0aa 843f e250 6c3f 72b5 6d3f 4710 b13f
00000070: c226 743f 5099 613f 66fb 803f 21b6 5f3f
00000080: 12b1 7e3f a40d 673f 969e 633f 8c4e 6d3f
00000090: 46b2 763f 7cb9 833f afe5 653f 545b 7a3f
000000a0: 6e73 693f 8f76 7b3f e8fc 633f de63 7a3f
000000b0: 521a 873f 66a7 713f 09fe 7b3f c7dc 6a3f
000000c0: 9fa8 6a3f 124c 793f 760b 5f3f 23bb 743f
000000d0: 3c94 833f 70e7 793f 76ac 753f 87fb a83f
000000e0: ab57 6c3f a0e2 833f 4291 863f 2974 693f
000000f0: 0e41 5a3f fddf 723f 3e84 7a3f c91c 803f
1.0014848 0.9710361 1.0164921 0.95632607 0.98030525 0.9176658 0.9817683 0.9505043
0.9174254 1.0264544 1.0143603 0.94829667 0.9640682 0.9047704 0.9595978 1.0157582
1.0533377 0.9728058 0.9629906 0.9281643 1.1613839 0.92495567 1.0169566 1.339483
1.036459 0.9231092 0.9285499 1.3833092 0.9537164 0.8812456 1.0076721 0.8738728
0.9948894 0.9025519 0.8891386 0.9269798 0.96365774 1.029098 0.89803594 0.97795606
0.91191757 0.9822778 0.8905778 0.97808635 1.0554907 0.94396055 0.984345 0.9174313
0.91663545 0.973817 0.87126863 0.9559805 1.0279613 0.9761877 0.9596628 1.320176
0.9232127 1.0303535 1.0513079 0.9119287 0.85255516 0.9487303 0.97858036 1.0008785

residual_layers.0.layer_norm.bias f4 [64]
00000000: 67ba d1bc 3539 e2bc 967b 51bd 5d5b 9abd
00000010: ac83 bdb9 c4de 41bc e6da 2fbd 27be ea3c
00000020: 0244 0f3d 1616 24bc d55b cebc 41c2 4dbc
00000030: 3921 a73c ba67 e13b 17bc 1c3c 20c5 21bd
00000040: f289 863d ff0a 62bc f8bf 8d3d aaa2 853c
00000050: c4c6 86ba 3b85 58bc 17d4 603a 6fac 50ba
00000060: 67bc 4f39 53eb 583b f5fa 623c 271b c93c
00000070: 1c59 4abd 89fb 19bc 039c a5bb 33b5 993c
00000080: aa5d 89bc f325 2a3d 4fc3 a93b f396 133d
00000090: 156d c83b e407 89bd af4b 113d 7441 69bc
000000a0: c581 1a3d ecd6 b73c cd27 5abb 4f2e c23b
000000b0: 3473 12bd e292 07bc b1c2 0bbd 0579 b93c
000000c0: f297 3e3d 7a15 4f3c d2b8 453d 105a f53c
000000d0: 0215 f1bc 5699 c0ba 111b d3bc d621 b2bc
000000e0: 1af4 483c 985c 50bc 0906 babc 6f09 9d3d
000000f0: 9be8 61bb acc9 b23a b017 42bd bc1e 0cbd
-0.025601579 -0.027615169 -0.05114325 -0.075369574 -0.00036146992 -0.011832897 -0.042933367 0.028655125
0.034976967 -0.010015031 -0.025190273 -0.012558521 0.020401584 0.0068788202 0.0095663285 -0.039494634
0.0656928 -0.013796567 0.06921381 0.016312916 -0.0010282625 -0.013215358 0.0008576526 -0.0007960265
0.00019811244 0.0033099249 0.013853778 0.02454908 -0.049401388 -0.00939835 -0.0050539984 0.01876316
-0.016768295 0.041540097 0.0051807533 0.03603263 0.006116519 -0.06690958 0.035472568 -0.014236797
0.037721414 0.02244135 -0.0033287883 0.0059259306 -0.035754398 -0.008274766 -0.03412122 0.022640714
0.046531625 0.012639398 0.04827196 0.029950172 -0.029428963 -0.0014694135 -0.025769742 -0.02174465
0.01226523 -0.012717389 -0.022707956 0.07667815 -0.003447092 0.0013640425 -0.04738587 -0.034208998

residual_layers.0.time_layer.layers.0.self_attn.in_proj_weight f4 [192, 64]
00000000: b1be 03be fcba bcbd 9d38 043e c22d 193e
00000010: d1e0 dd3d 479a ee3d 9b0c dfbd eb0b c13c
00000020: 8246 16bd 4596 a33d 0adb cbbd 59a6 a8bd
00000030: b5df f63c d7b1 07bd 26bc 20be 4860 1c3d
00000040: 2c23 bb3d ea50 e93c b066 a1bd bdf5 23bd
00000050: 6d2b 2abe d5cc 2dbc df5d 20bd e669 7abe
00000060: 5dc8 d3bd 8a3b 7f3c d4b5 ccbd 0c02 1c3e
00000070: abbd 6d3d 51d0 743d c0e7 8f3d 149b 383d
00000080: a321 fa3d 8931 f23d a446 cdbd 2b61 efbd
00000090: 6ed3 5e3d a126 283e 3217 7ebd f5ea 2f3d
000000a0: 25df 92bd 5d0d 793d 94ba 623e e48c 823d
000000b0: f2bf 0ebe e63c 7bbd 6cec 14be 4535 38be
000000c0: cb61 1cbe 3acf 5cbd 84e5 28be cc1d 8ebc
000000d0: 087d a7bc 31fa 0dbd 195e 6c3d 58a5 5c3e
000000e0: 5abf 943d f723 a33d 373d 763d 00bd d43d
000000f0: 2898 5b3d db4d eabc 645c 063e 3490 0dbe
00000100: e3c7 dfbd c6f3 eb3d d564 eebd 0d85 dd3b
00000110: 89fa db3d ab12 02bd 2ebe 473e 367e cfbc
00000120: 2af6 063e a02b a23d 4c94 f8bd ee6b ca3d
00000130: 75f4 0b3e 0b1d f1bd 2c08 9b3c 7cb9 c43c
00000140: 55e5 123d 64aa a33d 7be6 3b3c 78d8 2ebe
00000150: f94a 14be de81 bf3d ac5e d73d 1fc6 d63d
00000160: 1160 b6bd 1c8e b7bb 5507 be3d eab4 3c3e
00000170: 8dd3 70bd ab26 ddbc 7937 4dbd 5046 cebd
00000180: 5a15 103e 1298 f33d 7dcd 1fbd b042 d0bd
00000190: 87bc 713d c85e ad3d 6b0c eebc dab3 e7bd
000001a0: c1cb 2e3c 353a 403c bb74 b63d 343f 623d
000001b0: 2e16 813d 0cf8 94bd befa 953d 36c4 a63d
000001c0: 344a c33c f1f7 22be f0de 90bd 7b2c f3bd
000001d0: 9630 96bd 9a61 d83d fd74 cfbd 968c d6bd
000001e0: 9422 883d edbd 423e 8c1a 6c3d 59f3 9bbc
000001f0: 303a e3bd 1d55 373d 4134 02bd bcc8 e4bd
00000200: 3f8a 993d 1a73 1a3d 0eb1 563d 71ea 18bc
00000210: 305a 223e 0d1d b3bc 6ebc 67bc 3ed3 b23d
00000220: 266b 3bbe ec2c c7bd 31ef 8fbd 49e4 d8bd
00000230: 3fe3 cb3d fef1 d73d 68f4 16be 75f1 00be
00000240: 9604 903d 5220 fb3d a510 8e3d dd5c 343d
00000250: 1cf1 2a3e f4a7 993d cc3f 7f3d 789a 2ebd
00000260: bd02 a73d f4d0 8dbc 225f 503b 5e76 9bbe
00000270: 0e93 46bd c3e3 87bd f5dd 703d 5f63 9cbd
00000280: 6148 9abd 35c9 58be 1c7a 06bd 4400 c23d
00000290: 3f5c e83d b42d 0ebd bfe6 23bc 7ee7 bcbd
000002a0: 95fe ea3c 086f 38bd 858d c23c 4b8b 843d
000002b0: 6a2e 423d 54cb 9d3d acf9 273e fe2c 263e
000002c0: a22d 8fbd d7af 51bd 6a43 a8bc 3394 183d
000002d0: 8c9d d6bd d6cb 93bd 0eff 32be 039d d7bd
000002e0: 0f72 f8bd b7b9 b5bd 185d 74bd 516b bbbd
000002f0: 3d5b abbd fedd b63d cffa ce3d c3c1 b4bd
00000300: 6093 d13c c955 4b3d 55ea dcbd 7b9e 21bd
00000310: ddf4 7d3d 5db1 0c3e c602 89bd 1d8c a63d
00000320: 17c4 80bd 3332 b6bd 07e4 9a3d 58f9 373d
00000330: c046 003e a4ba 023e e2db 923d b2eb 0dbe
00000340: ff5a dd3b 949a 433c 3d54 1d3d 5f9e 70bd
00000350: f944 febd b3f2 78bd dc51 b33d dbed a0be
00000360: 26b4 0a3d 6a17 d2bd c6cf d53d 5546 ab3e
00000370: aa27 61bd ff01 80bd b7dc 4fbc 06a2 adbc
00000380: 72cf 8d3d 88d4 02be d745 edbd e9b5 98bd
00000390: fb68 c9bd b3d7 403d 02da 27bc 372a 603d
000003a0: c322 123e b695 b0bd 2a71 9bbd 762e e53d
000003b0: f336 223e 7285 a2bd f75c ab3d a3da 0cbd
000003c0: ea3d a63d 4232 363c d125 5a3d aa27 f8bd
000003d0: 83c9 dfbd e683 66bd 9728 9abd 272e 663e
000003e0: a727 52be 7456 fdbd e9f2 55bd 99f9 d4bd
000003f0: e63d 463e d0e6 2b3e 0390 7fbd 88bd 313e
-0.12865712 -0.09215352 0.12912221 0.14958861 0.10833896 0.1165052 -0.10891076 0.023565253
-0.036688335 0.07987646 -0.09953888 -0.08234853 0.030135969 -0.033128586 -0.15696773 0.03817776
0.09137568 0.028480966 -0.07880914 -0.040029276 -0.16618128 -0.010607918 -0.039152022 -0.2445446
-0.10340951 0.01557816 -0.099956185 0.15235156 0.05804221 0.05976898 0.07026625 0.04506977
0.12213447 0.11825854 -0.10023239 -0.11688455 0.054400854 0.16420986 -0.06203384 0.04294868
-0.07171468 0.06080376 0.22141486 0.06374529 -0.13940409 -0.061337374 -0.14543313 -0.1798907
-0.1527168 -0.053908564 -0.16493803 -0.017348193 -0.020445362 -0.03466243 0.057706926 0.21547449
0.0726306 0.07965844 0.060116973 0.103876114 0.053611904 -0.028601578 0.13121182 -0.1382454
-0.10926797 0.115211055 -0.11640326 0.0067602457 0.10741145 -0.031756084 0.19506142 -0.025328737
0.13179842 0.07918477 -0.121376604 0.09883867 0.13667472 -0.11773118 0.018924795 0.024014227
0.03586324 0.07991484 0.011468525 -0.17074764 -0.14481725 0.09350942 0.10516104 0.10487007
-0.08905042 -0.0056016576 0.09278742 0.18428388 -0.0587955 -0.026995977 -0.05010173 -0.10072005
0.14070645 0.118942395 -0.03901433 -0.1016897 0.059017684 0.08465344 -0.029058656 -0.11313601
0.010668696 0.011732628 0.08908983 0.055236056 0.063030586 -0.07273874 0.07323216 0.08142893
0.023839094 -0.15914895 -0.07073772 -0.11873718 -0.07333486 0.10565491 -0.101297356 -0.104760334
0.0664722 0.19017763 0.057642505 -0.019036936 -0.11095083 0.044758905 -0.031788114 -0.111710995
0.074970715 0.037707426 0.052414946 -0.009333239 0.15854716 -0.021864438 -0.014144046 0.087316975
-0.18302593 -0.09725365 -0.07028044 -0.10590417 0.09955453 0.10544203 -0.14741671 -0.12592109
0.07032125 0.12262024 0.069367684 0.044033874 0.16693538 0.07502738 0.0623167 -0.04262778
0.08154819 -0.01731155 0.0031794985 -0.30363744 -0.048480086 -0.06635239 0.058805425 -0.07636141
-0.075333364 -0.21170504 -0.032831296 0.09472707 0.113457195 -0.034711555 -0.010003745 -0.09223841
0.028685847 -0.045027763 0.023749122 0.064718805 0.047407545 0.077047974 0.16403836 0.162281
-0.06991126 -0.051193085 -0.020539958 0.03725071 -0.104792684 -0.07216613 -0.17480108 -0.105279945
-0.1213113 -0.08873313 -0.059659094 -0.09151328 -0.08367012 0.089290604 0.10106432 -0.088260196
0.02558297 0.049642358 -0.10786883 -0.03945778 0.062001098 0.13739534 -0.06689982 0.08132193
-0.06287401 -0.088962935 0.07563024 0.044915527 0.12526989 0.1276651 0.071708456 -0.13859442
0.0067552323 0.01193871 0.038410414 -0.058744784 -0.12415499 -0.06077833 0.08755848 -0.3143147
0.03386321 -0.10258372 0.1044002 0.33452097 -0.054969467 -0.06250381 -0.0126869 -0.021195423
0.06924333 -0.12776387 -0.115855865 -0.074565716 -0.098344766 0.047080707 -0.010244848 0.05472776
0.14271073 -0.08622305 -0.07589944 0.11190502 0.15841274 -0.07935609 0.08367341 -0.034388196
0.08117278 0.011120381 0.05325872 -0.1211694 -0.10927107 -0.056278132 -0.07527273 0.22478543
-0.20522939 -0.12370005 -0.05223361 -0.103991695 0.1935955 0.16787267 -0.0623932 0.17357457
