results/DDPM/LRATE/0.001/model_final.pth (torch, 661767 bytes, 26 tensors)

layer_x.weight f4 [128, 53]
0	0xbd251dff	-0.04031181
1	0x3cc2646e	0.02372953
2	0xbccece44	-0.02524484
3	0x3de584fd	0.11207006
4	0x3e0044d2	0.12526253
5	0xbe01fe1f	-0.12694596
6	0x3e13b459	0.14424266
7	0xbd83d9e5	-0.064380445
8	0x3d3f5648	0.046713144
9	0xbe1e893f	-0.15482043
10	0xbe27d493	-0.16389684
11	0xbddf1b3c	-0.108938664
12	0xbceb57b0	-0.028728336
13	0xbdff1ac3	-0.12456276
14	0xbccda8b8	-0.025104865
15	0x3ba638ee	0.0050727045
16	0x3e1b3b2a	0.15159288
17	0xbbd13fa1	-0.006385759
18	0x3dc73bd3	0.097282074
19	0xbdccc59c	-0.099986285
20	0xbd1f355d	-0.03886925
21	0x3c9468c9	0.018116372
22	0xbe25931d	-0.161694
23	0xbd8ed035	-0.06973306
24	0x3d71402a	0.058899082
25	0xbb21fe9d	-0.0024718412
26	0x3ddabd7c	0.106806725
27	0xbe32d58d	-0.17464276
28	0x3d09f8a1	0.033684377
29	0xbdc5315c	-0.09628555
30	0x3cc9ee2e	0.024649706
31	0xbd682874	-0.056679204
32	0xbc703b01	-0.014662505
33	0x3d922058	0.07135075
34	0xbdaf5163	-0.08560445
35	0x3dc6c1f4	0.097049624
36	0xbbc9d63f	-0.0061595733
37	0x3e0f67fd	0.14004512
38	0x3d725931	0.05916709
39	0x3e1b273c	0.15151685
40	0x3d82f9e9	0.06395323
41	0x3ca4c6e4	0.02011437
42	0x3dee243d	0.11628006
43	0x3e070c32	0.13188246
44	0xbd6c4b95	-0.05768927
45	0xbb026a43	-0.0019899763
46	0x3d64f441	0.055897
47	0x3d635bae	0.055507354
48	0xbdccc1ee	-0.09997927
49	0xbd39c240	-0.045351267
50	0x3c79fdf3	0.0152583
51	0xbdc520ec	-0.0962542
52	0xbda231cd	-0.07919655
53	0x3e0c70b5	0.1371487
54	0x3dd27da1	0.10277868
55	0xbd60dc4a	-0.054897584
56	0xbd894320	-0.06702256
57	0xbdcf6f6d	-0.10128675
58	0x3e137901	0.14401628
59	0xbdb2f35e	-0.08737825
60	0x3ddf7f8b	0.10912999
61	0xbdc735e1	-0.097270735
62	0x3d39d267	0.04536667
63	0x3de991a8	0.11404735
64	0xbd6bd378	-0.05757472
65	0x3e12acd4	0.14323741
66	0x3cfc08c3	0.030765897
67	0xbc4441fc	-0.0119786225
68	0xbd3cd7ca	-0.04610423
69	0xbddf673e	-0.10908364
70	0xbd944d15	-0.07241265
71	0x3d951ad6	0.07280509
72	0x3e28e3e4	0.16493183
73	0xbce4e1ba	-0.027939666
74	0xbccf606f	-0.025314538
75	0x3d8db467	0.06919175
76	0x3dd315af	0.1030687
77	0xbdadfe13	-0.084957264
78	0x3cdf904e	0.02729049
79	0xbc0a0d75	-0.00842606
80	0xbd23c9f4	-0.03998752
81	0x3db60a13	0.0888864
82	0x3c38c5ab	0.0112775965
83	0xbdacb6d1	-0.08433307
84	0x3d177eb8	0.036986083
85	0xbcbc0057	-0.02294938
86	0x3e40d601	0.18831636
87	0x3a213c5a	0.00061506557
88	0xbdcf6096	-0.10125844
89	0xbd125b56	-0.035731636
90	0xbd89e838	-0.06733745
91	0x3d895cd9	0.067071624
92	0x3da3a852	0.07991089
93	0x3e625360	0.22102118
94	0xbd9a7b4a	-0.07543047
95	0x3d185033	0.03718586
96	0xbd89f1a2	-0.06735541
97	0xbdb14f18	-0.08657664
98	0xbc1cf19e	-0.00957909
99	0xbd454d5c	-0.04816948
100	0xbdaef741	-0.08543254
101	0xbd914351	-0.07092918
102	0xbdc73772	-0.09727372
103	0xbdf052d6	-0.1173455
104	0xbbb042f0	-0.0053790733
105	0xbe4a06a5	-0.19729097
106	0x3d8456c1	0.064618595
107	0xbda7442c	-0.081673
108	0xbdaf58c3	-0.08561852
109	0x3d4cebf0	0.050029695
110	0x3dd779e6	0.10521297
111	0x3d8b3749	0.06797654
112	0xbca8fb19	-0.020627545
113	0xbddb8ea3	-0.10720565
114	0x3be81edd	0.0070837573
115	0xbe076d2b	-0.13225238
116	0x3db0fe8a	0.086422995
117	0xbde73024	-0.11288479
118	0x3d97371e	0.0738356
119	0x3e0a75c4	0.13521487
120	0x3ca703c2	0.020387534
121	0xbd44bd8b	-0.048032325
122	0x3d8e5a15	0.069507755
123	0xbc6192f3	-0.013767946
124	0x3db82e13	0.08993163
125	0x3e33baa3	0.17551665
126	0x3cc3672e	0.02385291
127	0x3d4d554d	0.050130177
128	0x3d8cc4a3	0.06873443
129	0xbc718e10	-0.014743343
130	0xbe2e5912	-0.17026165
131	0xbe3fd1af	-0.18732332
132	0x3da452e8	0.080236256
133	0xbc8f653d	-0.017504329
134	0xbdbc753f	-0.092020504
135	0x3ca422a9	0.020036059
136	0x3dc1d4ae	0.094643936
137	0xbd862bf4	-0.06551352
138	0x3b3210d9	0.0027170687
139	0x3e4bd6c8	0.19906151
140	0x3d8daa12	0.06917204
141	0xbd014a32	-0.0315649
142	0x3dddc99c	0.108294696
143	0xbe21c750	-0.15798688
144	0xbd239461	-0.039936427
145	0xbd646b3d	-0.055766333
146	0x3d9502b0	0.07275903
147	0xbd3666a3	-0.044531476
148	0x3be516fe	0.0069912663
149	0x3d33a6d6	0.04386028
150	0x3b932a91	0.0044911583
151	0x3c01101e	0.007877378
152	0xbd8f9195	-0.070101894
153	0x3e012a6f	0.12613843
154	0xbda24820	-0.07923913
155	0x3dad45ce	0.0846058
156	0xbdbdc7e5	-0.092666425
157	0xbd6430d6	-0.055710636
158	0x3db34bde	0.08754705
159	0x3dc59c28	0.09648925
160	0x3dbc6c5b	0.09200355
161	0x3d89edb7	0.06734794
162	0xbddb95d0	-0.10721934
163	0x3e21e9a1	0.15811779
164	0xbdda5de8	-0.106624424
165	0xbd8cfaad	-0.0688375
166	0x3d2150a1	0.039383534
167	0xbdb5f165	-0.08883933
168	0x3d875eb1	0.06609858
169	0xbe0835cb	-0.1330177
170	0xbd135f5b	-0.03597961
171	0xbcf48777	-0.02984975
172	0x3e0abd0e	0.13548681
173	0x3da20a99	0.079121776
174	0xbb847ff5	-0.004043574
175	0xbd9a4793	-0.07533183
176	0xbd64ac28	-0.055828243
177	0xbc0f076d	-0.008729798
178	0x3e22426e	0.15845653
179	0x3d66306f	0.056198534
180	0xbda43082	-0.08017065
181	0xbe435765	-0.19076307
182	0x3dc6998d	0.09697256
183	0xbbb7fdf4	-0.0056149904
184	0xbdbbb3cb	-0.09165152
185	0x3d06db47	0.032923963
186	0x3d99be8d	0.07507048
187	0x3baa697a	0.005200562
188	0xbdca3cb5	-0.0987486
189	0x3d813487	0.06308847
190	0xbd533a3c	-0.05156921
191	0xbc517554	-0.012784321
192	0x3dab064f	0.08350813
193	0x3becc841	0.0072260206
194	0xbdeec433	-0.11658516
195	0x3e1c1d1f	0.15245484
196	0xbd87300b	-0.0660096
197	0x3c751a36	0.014959862
198	0xbd8b5a01	-0.06804276
199	0x3e272067	0.16320954
200	0x3dfb2f51	0.12264884
201	0xbe07ed63	-0.1327415
202	0x3d9ab045	0.07553152
203	0xbc0eced1	-0.008716301
204	0xbe1b3f82	-0.15160945
205	0xbd20886d	-0.039192606
206	0x3daf39e1	0.085559614
207	0xbd13fdc1	-0.03613067
208	0xbd8d0b2f	-0.06886899
209	0x3db5aef3	0.088712595
210	0x3dfce949	0.12349183
211	0x3d4d4fab	0.050124805
212	0x3d03eb7f	0.03220701
213	0xbd8b5904	-0.06804088
214	0xbd262f94	-0.040572718
215	0x3dfc02d9	0.12305231
216	0xbd9eff23	-0.07763507
217	0x3c155de0	0.00911662
218	0xbd8d25b9	-0.06891961
219	0x3d2771c2	0.040879972
220	0xbe432ba8	-0.19059622
221	0x3d853b31	0.065054305
222	0x3e1ddb40	0.15415668
223	0x3d13cd16	0.036084257
224	0x3bbde92f	0.00579562
225	0x3e0288ca	0.12747493
226	0xbd6b880f	-0.057502802
227	0x3d41c033	0.047302436
228	0xbd0a3f7f	-0.03375196
229	0xbd670588	-0.05640176
230	0x3d0843ab	0.03326766
231	0x3b9a063b	0.0047004498
232	0x3d3752ae	0.044756584
233	0x3db8ab0d	0.09017
234	0xbd15d9b1	-0.03658456
235	0x3b7f1228	0.0038920734
236	0xbc8a3e4e	-0.016875412
237	0xbe2c1d09	-0.16807951
238	0x3dcc8d70	0.099879146
239	0xbdf1771f	-0.11790299
240	0x3d439e31	0.047758285
241	0xbc309ff8	-0.010780327
242	0x3c985f01	0.018599989
243	0xbdda7ca3	-0.10668304
244	0xbd1a5a60	-0.037683845
245	0xbd328b4f	-0.043589886
246	0x3e0fb024	0.14032036
247	0xbdec9094	-0.115510136
248	0x3d4ad4a7	0.049519207
249	0xbd81e819	-0.06343097
250	0x3d070faf	0.03297394
251	0x3e135f48	0.14391816
252	0x3dc04f03	0.0939007
253	0xbb41bed5	-0.0029563208
254	0x3e03ecdc	0.12883323
255	0xbd53f052	-0.05174286

layer_x.bias f4 [128]
0	0xbb8a584f	-0.004221953
1	0x3c09309f	0.008373409
2	0x3e2c60f3	0.16833858
3	0x3e2c67d8	0.16836488
4	0x3db9b1eb	0.09067138
5	0x3e38bcbd	0.18040748
6	0x3e5309ac	0.20609158
7	0x3dcb7fd8	0.09936494
8	0x3e088fcd	0.13336106
9	0x3dd15411	0.102211125
10	0x3dd12af9	0.102132745
11	0x3e4f1314	0.20222121
12	0x3d34939f	0.044086095
13	0x3e72f10f	0.23724769
14	0x3e897b5e	0.26851934
15	0x3e83852b	0.25687537
16	0x3d221344	0.039569154
17	0x3e36b030	0.17840648
18	0x3e6339bf	0.22189997
19	0x3e955814	0.2916876
20	0x3c1f0ebd	0.009708104
21	0x3e8b7d78	0.27244163
22	0x3dc1694f	0.09443914
23	0xbb729819	-0.0037016927
24	0x3c2e5739	0.010640913
25	0x3e826a6f	0.25471827
26	0x3e3b6028	0.182984
27	0x3e409e8c	0.18810481
28	0x3e3f526f	0.1868379
29	0x3ea32a53	0.31868228
30	0x3e12f45f	0.14351033
31	0x3e8662a3	0.2624713
32	0x3d7aab28	0.061198384
33	0x3e596149	0.21228518
34	0x3d536be6	0.05161657
35	0x3e67080f	0.22561668
36	0x3dce2e94	0.10067478
37	0x3e71ae3e	0.23601624
38	0x3d9174a7	0.07102328
39	0x3e420e6d	0.18950815
40	0x3e847f59	0.2587841
41	0x3e6fbd27	0.23412
42	0x3d483a35	0.048883636
43	0x3e6cba58	0.2311796
44	0x3e07f54c	0.13277167
45	0x3e1c04a4	0.15236145
46	0xbc83e2c1	-0.016099336
47	0x3e3891fa	0.18024436
48	0x3e96862d	0.29399243
49	0x3e87c349	0.26516178
50	0x3db5d6af	0.08878838
51	0x3e6ff1de	0.23432109
52	0x3e476b16	0.19474444
53	0x3e644136	0.22290501
54	0x3e23ab2e	0.15983269
55	0x3e5ef65e	0.21773669
56	0x3ddcad44	0.10775235
57	0x3e8d98fd	0.27655783
58	0x3e7b4306	0.24537286
59	0x3e5cd518	0.21565664
60	0x3e6e2395	0.23255761
61	0x3de67c05	0.112541236
62	0x3dda899a	0.10670777
63	0x3e0a9df9	0.13536824
64	0x3d756467	0.059910204
65	0x3e4cce65	0.20000608
66	0x3ccd4009	0.025054948
67	0x3e2718ef	0.16318105
68	0x3e85415e	0.26026434
69	0x3dc400c9	0.09570462
70	0x3d4ad769	0.049521837
71	0x3e8bcef7	0.2730634
72	0x3d8c9245	0.06863836
73	0x3e45ca9a	0.19315568
74	0x3e3453f0	0.17610145
75	0xbd843931	-0.06456221
76	0x3e4df18e	0.20111677
77	0x3e5922be	0.2120466
78	0x3e13df1e	0.14440581
79	0x3e4c64fc	0.19960397
80	0x3deff850	0.11717284
81	0xbd7e1f85	-0.062041778
82	0x3c0b7aa6	0.008513128
83	0x3e2f5250	0.17121243
84	0x3e2eb18b	0.17059915
85	0x3e4246f9	0.18972386
86	0x3e6d484f	0.23172115
87	0x3df7f9f3	0.12108221
88	0x3e60a0b9	0.21936311
89	0x3e6980e9	0.22803082
90	0x3e020be4	0.12699848
91	0x3e0d0259	0.13770427
92	0x3d1b7ec3	0.037962686
93	0x3e439ddd	0.19103189
94	0x3e7e1d9f	0.24815987
95	0x3e837474	0.25674784
96	0x3d8734ab	0.066018425
97	0x3e183b06	0.14866266
98	0x3e94791a	0.28998643
99	0x3c97b499	0.018518733
100	0x3e5777f5	0.21041854
101	0x3e6a3383	0.22871213
102	0x3daf69bd	0.0856509
103	0x3e19484d	0.14968987
104	0x3e27fd2f	0.16405176
105	0x3da13a73	0.078724764
106	0x3e535426	0.20637569
107	0x3e44ce85	0.19219406
108	0x3d9271ad	0.07150588
109	0x3ea1c657	0.31596634
110	0x3e09df78	0.13464153
111	0x3e42c27e	0.19019505
112	0x3d224192	0.039613314
113	0x3e861a5a	0.2619198
114	0x3e93d921	0.28876594
115	0x3dc8737e	0.097876534
116	0x3e89ce7c	0.26915348
117	0x3e616e6d	0.2201478
118	0x3d9180d4	0.0710465
119	0x3e6a0aa1	0.22855617
120	0x3e42b676	0.19014916
121	0x3de5dd94	0.11223903
122	0x3d8076e8	0.062726796
123	0x3d3c1d3c	0.045926318
124	0x3e614194	0.21997672
125	0x3e51b536	0.20479283
126	0x3e8dc412	0.27688652
127	0x3e919cdd	0.2843999

layer_t_1.weight f4 [128, 128]
0	0xbd571bc8	-0.05251673
1	0x3d8ee0e4	0.06976488
2	0x3cfca22a	0.030839045
3	0x3d06bdb6	0.032895766
4	0x3c2cddc7	0.010550923
5	0xbd962921	-0.073320635
6	0x3d3b24cd	0.045689393
7	0xbcb3ff2a	-0.021972258
8	0x3d846154	0.06463876
9	0x3cbb455f	0.022860227
10	0x3d5593cd	0.052142907
11	0xbda062ff	-0.07831382
12	0x3d7dc829	0.061958466
13	0x3d9d7108	0.076875746
14	0xbc93a99f	-0.018025218
15	0x3d344323	0.04400934
16	0xbd170b23	-0.036875855
17	0x3dc834ab	0.097756706
18	0xbdb7c63c	-0.08973357
19	0x3b8c419f	0.0042802836
20	0xbdad313f	-0.084566586
21	0xbbf0741d	-0.0073380605
22	0x3cc40707	0.023929132
23	0x3d38c5ae	0.045110397
24	0xbd8e2203	-0.06940081
25	0xbcf91ebc	-0.030410163
26	0x3da3c510	0.07996571
27	0x3c8e1841	0.01734555
28	0xbcc8c707	-0.024508966
29	0xbcb18ddb	-0.021674087
30	0xbc280094	-0.010254044
31	0x3c13dd5b	0.009024943
32	0x3d6e009d	0.058106054
33	0x3d781793	0.060569357
34	0x3d66000f	0.0561524
35	0x3d925784	0.071455985
36	0xbce0a026	-0.027420115
37	0xbcf8fd87	-0.030394329
38	0x3c5d0c92	0.0134917665
39	0xbc742d7d	-0.014903423
40	0x3a88cee4	0.0010437635
41	0xbcb5db5e	-0.022199329
42	0x3c9d6d1d	0.019217068
43	0xbd53c2ee	-0.05169957
44	0xbd90d8be	-0.0707259
45	0xba01a6bf	-0.00049458066
46	0xbb04aa91	-0.0020243267
47	0xbd6b9cd0	-0.057522595
48	0x3d25c690	0.040472567
49	0x3b028dce	0.0019920948
50	0x3d9ba4a0	0.07599759
51	0xbd3fa240	-0.046785593
52	0xbd99fa2b	-0.07518419
53	0x3a5db99f	0.00084581407
54	0x3d1e54b6	0.038655005
55	0x3deb3a22	0.11485697
56	0x3c86eefa	0.016471375
57	0x3cb32e61	0.021872701
58	0x3b9896bd	0.0046566413
59	0xbd2b9e47	-0.041898992
60	0x3daa5f3c	0.08318946
61	0x3dbae5b3	0.09125843
62	0x3b886e02	0.0041635046
63	0xbd886a50	-0.066609025
64	0x3cc43407	0.02395059
65	0x3ce1b1a6	0.02755053
66	0x3d978204	0.073978454
67	0x3ccd9490	0.025095254
68	0xbbee7bcc	-0.0072779413
69	0xbca9c261	-0.02072257
70	0x3cf8fd4b	0.030394217
71	0x3d5049ab	0.050851505
72	0xbd49d1da	-0.049272396
73	0xbd1e6a1a	-0.038675405
74	0xbb2138b0	-0.0024600439
75	0x3d5be707	0.05368712
76	0x3d86ffcc	0.06591758
77	0x3cbd9bed	0.02314564
78	0xbbf3eb84	-0.007443847
79	0xbc06f651	-0.008237437
80	0x3d1d01f4	0.03833194
81	0xbcf4a69a	-0.029864598
82	0x3d8692ba	0.065709546
83	0xbb36661d	-0.002783186
84	0x37dc00b0	2.6226364e-05
85	0x3d518573	0.051152658
86	0xbd386f3f	-0.045027968
87	0xbcaf77e6	-0.021419477
88	0xbd44eeaa	-0.04807917
89	0xbd1fcd15	-0.03901394
90	0x3cab3438	0.020898923
91	0x3d5dfe96	0.05419787
92	0x3c1e9722	0.009679588
93	0x3d38258a	0.044957675
94	0xbd15dd40	-0.036587954
95	0xbd3b1a72	-0.045679517
96	0x3ab080c5	0.0013466111
97	0x3d198167	0.037476923
98	0xbdd6f489	-0.1049586
99	0xbda583cd	-0.0808178
100	0xbdbd7377	-0.09250539
101	0x3dc1ed46	0.094690844
102	0x3d48fe3c	0.04907058
103	0x3c896a39	0.016774284
104	0xbbb97764	-0.0056599844
105	0xbd4ffffa	-0.050781228
106	0x3cea73ca	0.028619666
107	0xbc228ee2	-0.009921761
108	0x3c9fa0c1	0.019485833
109	0xbc4bec92	-0.0124465395
110	0x3d633385	0.055469055
111	0x3dc53a87	0.09630304
112	0xbd9db0ec	-0.07699761
113	0xbd8763c1	-0.066108234
114	0x3d37e95b	0.04490028
115	0xbd6b786d	-0.057487894
116	0xbbb284ad	-0.005447945
117	0xbd91f1fb	-0.07126232
118	0xbc569f7d	-0.013099548
119	0x3db82ef4	0.089933306
120	0xbd04c7c6	-0.03241708
121	0xbcee8dfc	-0.029120438
122	0x3db6c89b	0.08924981
123	0xbd71fee1	-0.059080962
124	0x3b985533	0.0046488284
125	0x3c966bbd	0.01836192
126	0xbccdc754	-0.025119461
127	0x3d262567	0.040563013
128	0x3d6c781e	0.05773174
129	0xbcce5dd8	-0.025191233
130	0xbc74504d	-0.014911723
131	0x3d239d89	0.03994516
132	0xbd59673e	-0.053076975
133	0x3d399e9a	0.04531727
134	0x3d5f2ffd	0.054489125
135	0xbdbf1ad7	-0.09331291
136	0xbd26572a	-0.04061047
137	0xbda699ef	-0.08134829
138	0x3d941db5	0.07232229
139	0xbc97ccd5	-0.018530289
140	0x3bd214e3	0.0064111813
141	0xbd8282b4	-0.06372586
142	0xbbab95e3	-0.0052363737
143	0xbdd3227b	-0.10309311
144	0xbca00624	-0.019534178
145	0xbc14244d	-0.009041858
146	0xbc8634e3	-0.01638264
147	0xbd093b3f	-0.033503767
148	0xbd037d7e	-0.0321021
149	0xbc4da37b	-0.012551184
150	0xbdccb91b	-0.099962436
151	0x3dabf428	0.083961785
152	0xbda6bee9	-0.08141882
153	0xbc72bb25	-0.014815127
154	0xbc87b0ce	-0.0165638
155	0xbcc2818e	-0.023743417
156	0x3c4839e0	0.01222083
157	0x3d7d4ce9	0.061840925
158	0x3d8d901e	0.06912254
159	0xbd7d3016	-0.061813436
160	0x3db38a84	0.08766654
161	0xbd0b32a0	-0.033983827
162	0xbc96c1a1	-0.018402876
163	0x3d22e9a1	0.039773587
164	0x3d763929	0.060113106
165	0x3d59ac04	0.053142563
166	0xbb93f4e5	-0.0045152777
167	0xbd5ad333	-0.05342407
168	0x3cc060e5	0.023483703
169	0x3dbb401b	0.091430865
170	0xbcf5ea55	-0.030018965
171	0x3cafa0f8	0.02143906
172	0xbd792687	-0.06082776
173	0x3cdf0946	0.027226102
174	0x3d0513a4	0.032489434
175	0x3d2b838a	0.041873492
176	0x3d31368c	0.04326491
177	0x3c87cff5	0.016578654
178	0x3c3a3de0	0.011367291
179	0x3c19a56e	0.00937782
180	0x3d2d418f	0.04229885
181	0xbcb44bc2	-0.02200878
182	0x3c2e479b	0.010637189
183	0xbd45156d	-0.048116136
184	0xbbace6f2	-0.0052765543
185	0xbb578396	-0.0032884828
186	0x3ce58370	0.028016776
187	0x3d07d187	0.033158805
188	0x3d9bff72	0.07617082
189	0x3d783da4	0.06060566
190	0x3dd46136	0.10370104
191	0xbdaadbb3	-0.083426856
192	0xbc66264c	-0.014047217
193	0x3ce1b091	0.027550014
194	0x3d63af0e	0.055586867
195	0x3be88470	0.007095866
196	0xbdc289a9	-0.09498913
197	0x3d402cac	0.046917602
198	0xbdb82b31	-0.08992613
199	0x3db4319a	0.08798523
200	0xbd6e4f13	-0.05818088
201	0xbd28152d	-0.04103582
202	0x3d2bcd61	0.04194391
203	0x3da68f74	0.0813283
204	0xbc664707	-0.01405502
205	0xbc7cd7a7	-0.015432275
206	0x3dc6aaca	0.09700544
207	0x3d8ea054	0.06964174
208	0xbcd945dd	-0.026522571
209	0xbd2f4bcc	-0.042796895
210	0xbda75cf2	-0.08172025
211	0xbd57dbdd	-0.052699912
212	0x3c1565db	0.0091185225
213	0xbd4870f2	-0.048935838
214	0xbc6c2ae7	-0.014414526
215	0xbdbeb879	-0.09312529
216	0x3d135f45	0.035979528
217	0x3db7259d	0.08942721
218	0xbda52724	-0.08064106
219	0x3d926a03	0.071491264
220	0x3d9c2342	0.076239124
221	0xbdb412ca	-0.08792646
222	0xbd1ce3e2	-0.038303263
223	0x3d830b41	0.06398631
224	0x3cf95018	0.0304337
225	0xbd8b7099	-0.06808586
226	0x3d0496da	0.032370426
227	0x3c409cf9	0.011756175
228	0xbb3fda89	-0.0029274544
229	0x3c988383	0.018617397
230	0x3ce5cea7	0.028052641
231	0xbcc71e28	-0.024306372
232	0x3abd38ac	0.0014436445
233	0x3df8806a	0.12133868
234	0xbdc06c52	-0.093956605
235	0xbda0bda9	-0.07848675
236	0xbdc5a835	-0.096512236
237	0xbd9c9af2	-0.07646741
238	0xbd3dc92f	-0.04633444
239	0x3cc22c44	0.023702748
240	0x3d7b071a	0.06128607
241	0xbd660959	-0.05616126
242	0x3c827768	0.015926078
243	0x3ce42b9c	0.027852826
244	0x3d9e9c71	0.077446826
245	0x3a45e349	0.0007548822
246	0xbc5cd598	-0.013478659
247	0xbc174206	-0.00923205
248	0xbd219f84	-0.039458767
249	0x3a36c73c	0.0006972437
250	0xbcff97a5	-0.03120024
251	0xbb2fb8a8	-0.0026812945
252	0xbbbead1b	-0.0058189756
253	0x3dd6d3aa	0.104895905
254	0xbd2fc1f7	-0.04290959
255	0xbd9f7a8b	-0.07787045

layer_t_1.bias f4 [128]
0	0xba3ce35a	-0.0007205509
1	0xbccae1f2	-0.024765942
2	0x3da392d6	0.07986991
3	0xbc96e01b	-0.018417409
4	0xbdb6e6da	-0.0893075
5	0x3d827ac2	0.063710704
6	0x3d8be835	0.06831399
7	0x3cae3e7a	0.021270026
8	0x3d6a52b7	0.05720779
9	0xbdba2ba0	-0.09090352
10	0x3be05c53	0.0068469434
11	0xbd81dfb8	-0.06341499
12	0x3d40049f	0.046879407
13	0xbe0aa6c3	-0.13540177
14	0x3dbb125e	0.09134363
15	0x3d096bf9	0.033550236
16	0x3d8aca50	0.06776869
17	0xbde480a3	-0.11157348
18	0xbd730965	-0.05933513
19	0x3c0e607c	0.008689996
20	0xbe0872ad	-0.13324995
21	0xbcbd29dc	-0.02309125
22	0x3d06c3af	0.032901462
23	0xbd92a602	-0.0716057
24	0x3c578fb6	0.013156822
25	0xbd4fde53	-0.050749134
26	0xbd795628	-0.06087318
27	0x3d79aec9	0.060957704
28	0x3db50f3b	0.088407956
29	0x3cd2ef7e	0.025748964
30	0xbd31cca2	-0.043408044
31	0xbd6bdbfd	-0.057582844
32	0x3c9082af	0.01764044
33	0xbc468ce6	-0.012118554
34	0x3d0f264c	0.034948632
35	0x3c99a05c	0.018753223
36	0x3c6a487d	0.014299509
37	0xbcb1dfd0	-0.021713167
38	0xbdae2419	-0.08502979
39	0xbd9430c4	-0.07235864
40	0x3dbbc4dc	0.09168407
41	0x3dbc3885	0.09190468
42	0xbd604f87	-0.054763343
43	0xbd35b108	-0.044358283
44	0xbdecd801	-0.11564637
45	0x3d2ab1cc	0.041673467
46	0x3e002745	0.1251498
47	0xbc407db0	-0.011748716
48	0xbda608c6	-0.08107142
49	0xbd348d1a	-0.044079877
50	0xbd6b7f8f	-0.057494696
51	0x3c1f31b3	0.009716439
52	0xbdafcd8b	-0.08584126
53	0x3d1d719c	0.038438424
54	0x3dc15a98	0.094411075
55	0x3d27d4e6	0.04097452
56	0xbd9261a6	-0.07147531
57	0xbc54b60c	-0.0129828565
58	0xbd5e24fb	-0.054234486
59	0x3da68702	0.081312194
60	0x3df021e0	0.11725211
61	0xbb730a63	-0.0037085048
62	0xbd6095ae	-0.054830246
63	0xbddd4836	-0.10804789
64	0x3c21760c	0.009854805
65	0x3dc5e96b	0.096636616
66	0xbc0856cc	-0.008321475
67	0x3ccfd958	0.025372192
68	0x3d17d91d	0.03707229
69	0xbd493ef0	-0.049132288
70	0x3cf6df87	0.030135883
71	0xbca2602f	-0.019821255
72	0xbd8c003b	-0.068359815
73	0xbca5768c	-0.02019813
74	0x3de5db4d	0.11223469
75	0x3d1abc52	0.037777252
76	0x3cad7ea3	0.02117855
77	0x3ce1f8c0	0.027584434
78	0xbb1ca0bc	-0.0023899516
79	0x3d10b24d	0.03532629
80	0x3c4a945d	0.012364474
81	0xbd8d4a1e	-0.06898902
82	0x3d6cd817	0.057823267
83	0xbd906c56	-0.070519134
84	0x3d056a64	0.032572165
85	0x3df541c5	0.11975435
86	0x3d84c08b	0.06482037
87	0xbcf314bc	-0.029672973
88	0x3d58d546	0.05293777
89	0xbd211395	-0.039325316
90	0x3beb16a3	0.0071743294
91	0x3dd9e747	0.10639816
92	0x3b2ce4b3	0.0026381433
93	0xbd91e4b6	-0.07123701
94	0xbcb032a0	-0.021508515
95	0x3d3de6d9	0.04636273
96	0xbcb06e0a	-0.021536846
97	0xbd253034	-0.040329173
98	0x3d9a77ab	0.07542356
99	0x3a92e7f5	0.0011208045
100	0x39aa0fa4	0.0003243658
101	0xbdb123b7	-0.0864939
102	0xbc9126f1	-0.017718764
103	0xbc890c0f	-0.016729383
104	0xbd544d27	-0.05183139
105	0xbd6d0e95	-0.057875235
106	0x3c661390	0.01404275
107	0xbd7be80e	-0.0615006
108	0xbd2d97b6	-0.04238101
109	0xbd9baa51	-0.07600845
110	0x3c5d9f92	0.013526814
111	0x3ce0ef8f	0.02745798
112	0xbd5c934e	-0.05385142
113	0xbcc8d00c	-0.024513267
114	0x3de710f6	0.11282532
115	0x3c1c8805	0.009553914
116	0xbccaffef	-0.024780242
117	0x3def9786	0.11698823
118	0x3d4e9503	0.050435077
119	0xbd1bfd0c	-0.03808312
120	0xbdc33d1a	-0.095331386
121	0x3ba108cb	0.0049143783
122	0x3b9a4186	0.004707518
123	0x3d3a8d33	0.045544814
124	0xbdbbf22f	-0.09177052
125	0xbdc9760e	-0.0983697
126	0xbd91e0bf	-0.07122945
127	0xbc659d06	-0.014014488

layer_t_2.weight f4 [128, 128]
0	0xbd8d24d0	-0.06891787
1	0x3d1fa168	0.03897229
2	0xbc134007	-0.008987433
3	0xbd7f01e5	-0.062257666
4	0x3d564d41	0.05231977
5	0x3d2567ec	0.04038231
6	0x3e08821d	0.13330884
7	0xbdf3ceb1	-0.11904658
8	0x3bc546da	0.006020409
9	0xbdc51a18	-0.096241176
10	0x3dc766d1	0.097364075
11	0xbd98d38e	-0.07462226
12	0x3da11245	0.07864813
13	0xbd5274a1	-0.051380757
14	0x3cb560b4	0.022140838
15	0xbcf1b6c0	-0.029506087
16	0xbdab3a22	-0.08360697
17	0xbd029c16	-0.031887136
18	0x3bed198f	0.007235713
19	0x3d0b194a	0.033959664
20	0xbdd0f9cb	-0.10203894
21	0xbda7ff59	-0.082030006
22	0x3d522570	0.051305234
23	0x3c0c0dea	0.008548239
24	0xbd5c9294	-0.053850725
25	0xbc989bc7	-0.018628968
26	0xbd3192ec	-0.043353006
27	0x3b0c7282	0.0021430557
28	0x3d644695	0.055731375
29	0x3d58d0f8	0.052933663
30	0x3c925a2c	0.017865263
31	0xbd3742f5	-0.04474159
32	0x3c560509	0.013062724
33	0xbd4a15ce	-0.0493372
34	0x3c9d24a3	0.019182509
35	0x3c74f30b	0.014950524
36	0x3bdb3219	0.0066893217
37	0xbd797cf9	-0.0609102
38	0xbdb67aa5	-0.08910111
39	0xbd9dc94e	-0.077044114
40	0xbc56fa63	-0.01312122
41	0xbcd225c3	-0.025652772
42	0xbd924f7e	-0.07144068
43	0x3d93bc99	0.072137065
44	0xbdf88b6d	-0.12135968
45	0x3c349140	0.011020958
46	0x3d84d5e9	0.064861126
47	0xbd2b9f90	-0.041900218
48	0xbd107035	-0.03526326
49	0x3dd4ec17	0.10396593
50	0xbd66551d	-0.056233514
51	0x3d678a86	0.05652859
52	0xbe0d360f	-0.13790153
53	0xbcc381f5	-0.02386568
54	0x3d56bd1d	0.052426446
55	0xbd825949	-0.06364686
56	0xbe0df517	-0.13863026
57	0x3d70f64d	0.05882864
58	0xbd0bc7b0	-0.034125984
59	0x3d4b22f4	0.04959388
60	0xbd455b41	-0.04818273
61	0xbd37e79b	-0.04489861
62	0x3d132abe	0.035929434
63	0xbdd7d4b6	-0.10538618
64	0x3ca74f63	0.020423597
65	0xbc2f16a5	-0.010686551
66	0xbd2cd177	-0.04219195
67	0x3d1cd637	0.03829023
68	0x3e10fa92	0.14158085
69	0x3c7e5666	0.015523529
70	0x3d7285bd	0.059209574
71	0xba0486c2	-0.0005055481
72	0x3daa9759	0.083296485
73	0x3cedb44c	0.029016636
74	0x3d653af1	0.055964414
75	0x3dac1d2a	0.08404
76	0x3d76fdc5	0.060300607
77	0xbb9a13f6	-0.0047020866
78	0x3d1dcaac	0.03852336
79	0xbd901a3c	-0.07036254
80	0x3cdc4c5e	0.026891883
81	0xbc08fc50	-0.008360937
82	0x3d97d7c6	0.074142024
83	0xbd4972a0	-0.04918158
84	0xbc1896c6	-0.009313291
85	0x3ce97537	0.028498275
86	0xbced7913	-0.028988397
87	0x3d569ea4	0.052397385
88	0x3c7568d6	0.014978608
89	0x3d6433e3	0.055713546
90	0xbd503508	-0.050831825
91	0x3df0dddb	0.117610656
92	0xbcfa93b6	-0.030588012
93	0xbdaeaaac	-0.08528647
94	0x3dbc85b1	0.09205187
95	0x3d26fe03	0.04076959
96	0xbb2a6bc1	-0.0026004168
97	0xbd66db43	-0.056361448
98	0x3df3a2e6	0.11896305
99	0xbcb6ad6b	-0.022299489
100	0x3d818555	0.06324259
101	0xbd1a2f11	-0.037642542
102	0x3d05d18e	0.03267055
103	0xbdc5f828	-0.09666473
104	0xbceafd84	-0.028685339
105	0x3d0a11df	0.03370845
106	0x3e27645e	0.16346881
107	0x3cd57cfb	0.026060572
108	0x3ddcff7f	0.107909195
109	0x3c78799c	0.015165713
110	0xbdc7899a	-0.09743042
111	0xbd29b4f3	-0.041432332
112	0xbdabbb7c	-0.08385369
113	0x3ddcd873	0.10783472
114	0x3d242fff	0.040084835
115	0x3d0739f9	0.03301427
116	0xbca6c1b4	-0.020356037
117	0x3d6a590a	0.05721382
118	0xbd625d46	-0.055264734
119	0x3dcdb8f5	0.100450434
120	0xbe0d657c	-0.13808244
121	0x3d28dc8d	0.04122596
122	0x3ce93175	0.028465966
123	0xbdbd7bae	-0.09252106
124	0xbd9aa390	-0.07550728
125	0xbd6e416f	-0.05816787
126	0xbddba9f9	-0.10725779
127	0x3dddddc7	0.10833316
128	0x3d35d20f	0.04438978
129	0xbd9c87d6	-0.07643096
130	0xbd3d466a	-0.04620973
131	0x3c3d4ea7	0.011554397
132	0x3d8438fa	0.0645618
133	0x3b6b5fbf	0.0035915223
134	0xbde20e09	-0.11037833
135	0xbce9f37b	-0.028558483
136	0x3de17f93	0.11010661
137	0x3d835c97	0.064141445
138	0xbd00c74c	-0.031440064
139	0x3c8045e4	0.015658326
140	0x3d642902	0.05570317
141	0xbda50550	-0.08057654
142	0xbd31a02c	-0.043365642
143	0x3ce8f626	0.028437685
144	0x3dad8b8e	0.084738836
145	0x3d9c9dbd	0.07647274
146	0x3be71428	0.0070519634
147	0xba02dad4	-0.00049917144
148	0x3b871b2d	0.0041231127
149	0xbd2f5f92	-0.042815752
150	0x3b03bbba	0.0020100907
151	0xbd4c311e	-0.04985153
152	0xbc8c6cfe	-0.017141815
153	0x3c9581bc	0.018250339
154	0x3df7f47e	0.1210718
155	0x3ccef90e	0.025265243
156	0xbd917a25	-0.07103375
157	0x3d83c7b7	0.06434577
158	0xbd221b32	-0.039576717
159	0xbda492a6	-0.080357835
160	0x3d7ee146	0.062226556
161	0xbca8e8ca	-0.020618815
162	0xbde56d28	-0.112024605
163	0xbdefdfe8	-0.117126286
164	0xbc55f8b9	-0.013059788
165	0xbd408084	-0.046997562
166	0x3de11670	0.10990608
167	0x3d7b9ede	0.061430804
168	0x3b9d7d3a	0.004806188
169	0x3d00041e	0.031253926
170	0x3d52b5c5	0.05144288
171	0x3d1c2ba2	0.03812755
172	0x3da3a979	0.07991309
173	0xbc46c00c	-0.0121307485
174	0x3d7b4676	0.061346494
175	0xbd5d6a87	-0.05405667
176	0x3d08fb2c	0.03344266
177	0x3bf06d5c	0.0073372554
178	0xbcd16dc8	-0.025565043
179	0xbdad816f	-0.08471953
180	0xbcaf8ebf	-0.021430371
181	0xbdb0a42a	-0.08625062
182	0xbca4e5d7	-0.020129127
183	0x3e08f3da	0.13374272
184	0x3c977cd2	0.018492136
185	0xbdb6dec8	-0.08929211
186	0x3da016cc	0.07816848
187	0xbd91ebee	-0.07125078
188	0x3d83ef4a	0.06442125
189	0x3cc502f0	0.024049252
190	0x3d8a4748	0.06751877
191	0x3c9d182b	0.019176563
192	0xbd15f0f5	-0.036606748
193	0xbdceed53	-0.1010386
194	0xbd4f24c9	-0.05057219
195	0xbdc23069	-0.0948189
196	0xbddf9da1	-0.10918737
197	0xbd9eadfe	-0.0774803
198	0x3d585710	0.052817404
199	0xbdeb3fc7	-0.11486774
200	0x3d56aa92	0.052408762
201	0xbd130751	-0.03589565
202	0x3d50887b	0.050911408
203	0xbd30de65	-0.043180842
204	0x3caf7c85	0.02142168
205	0x3d8bd01b	0.06826802
206	0x3e04decb	0.12975614
207	0xbddd6c02	-0.108116165
208	0xbdf45f97	-0.11932295
209	0xbd1b9cc5	-0.037991304
210	0xbcb2ad0f	-0.021811036
211	0xbc7f4d9a	-0.0155824665
212	0xbdbd10ce	-0.09231721
213	0x3d933fe6	0.07189922
214	0xbb8352c2	-0.0040076682
215	0x3c0d8ec0	0.008639991
216	0xbd406bb3	-0.04697771
217	0x3d36e3af	0.04465073
218	0xbbe7537c	-0.0070595127
219	0xbda29299	-0.079381175
220	0xbd4ad16d	-0.04951613
221	0x3d7503c7	0.059818055
222	0x3d7aa45c	0.0611919
223	0x3d66c7e0	0.05634296
224	0x3dbe6907	0.09297376
225	0x3db488e6	0.08815174
226	0xbe08e529	-0.13368668
227	0xbb93503f	-0.00449565
228	0xbdade1fe	-0.0849037
229	0xbd81a579	-0.063303895
230	0x3d263e52	0.040586777
231	0x3dc97455	0.09836642
232	0x3d95d2b5	0.0731558
233	0x3d4bfcda	0.049801685
234	0x3b85d408	0.004084114
235	0x3d05bb04	0.032649055
236	0xbbc18104	-0.0059052724
237	0x3b156220	0.0022794083
238	0x3d5e2275	0.05423208
239	0x3d7b3e3e	0.061338656
240	0x3d2eaa2a	0.04264275
241	0xbb8a605e	-0.0042229136
242	0xbd359e36	-0.044340335
243	0xbc89a056	-0.016800087
244	0x3cf32277	0.02967952
245	0xbdf35299	-0.11880989
246	0x3c43c64a	0.011949131
247	0xbdcfe1b9	-0.10150475
248	0x3d796970	0.06089157
249	0xbc7e5d1d	-0.01552513
250	0xbd37c050	-0.044861138
251	0xbd2bcb1f	-0.04194176
252	0x3c5e97cc	0.013585996
253	0xbd5ca6a8	-0.053869873
254	0x3d9b4831	0.07582129
255	0x3d395000	0.04524231

layer_t_2.bias f4 [128]
0	0xbd69b535	-0.057057578
1	0xbc671f29	-0.01410655
2	0xbdcecef0	-0.10098064
3	0x3ca38bf6	0.0199642
4	0x3d8c4afe	0.06850241
5	0xbc7ff115	-0.015621443
6	0xbce40f0e	-0.02783921
7	0xbd20d4c7	-0.03926542
8	0x3ca5b529	0.020227985
9	0x3d557d67	0.052121546
10	0x3caee28e	0.021348264
11	0xbd0979a6	-0.03356328
12	0x3cff46bd	0.03116166
13	0xbdb53a3b	-0.08848997
14	0xbd138553	-0.03601582
15	0xbd1ffbc7	-0.039058473
16	0xbb4ccc27	-0.0031249614
17	0xbd93cbf8	-0.07216638
18	0xbb2f0abb	-0.0026709277
19	0xbd91cc56	-0.07119052
20	0xbd905145	-0.07046751
21	0xbdb87596	-0.09006803
22	0xbdea2b28	-0.11434013
23	0x3bb903fe	0.005646228
24	0x3bb67d6d	0.005569151
25	0xbda09f73	-0.078429125
26	0xbdd71302	-0.10501672
27	0xbd14485c	-0.03620182
28	0xbc79bd8e	-0.015242947
29	0xbd61fc2c	-0.05517213
30	0xbe17d5b4	-0.14827615
31	0xbcd24054	-0.02566544
32	0x3d055db2	0.032560058
33	0xbe131dfb	-0.14366905
34	0xbb3900fc	-0.0028229346
35	0xbdb5c521	-0.0887549
36	0x3d5564a6	0.05209794
37	0xbdb156c2	-0.08659126
38	0xbd6f2707	-0.05838683
39	0xbdf44079	-0.1192636
40	0x3cb648ba	0.022251476
41	0xbd5c7211	-0.05381972
42	0xbb032306	-0.002000989
43	0x3c4513c9	0.012028643
44	0xbd09c8b9	-0.03363869
45	0xbdc47b1f	-0.09593796
46	0x3d3fc460	0.046818137
47	0x3cf0a1b4	0.029373981
48	0xbaf74bc2	-0.0018867182
49	0xbaedf0e8	-0.0018153461
50	0xbdb19ac3	-0.086720966
51	0xbb9ecd52	-0.0048462534
52	0x3c993570	0.018702239
53	0x3d109f35	0.03530808
54	0xbd8f1895	-0.069871105
55	0xbd55183d	-0.05202507
56	0xbd7ee84e	-0.06223326
57	0xbd873c23	-0.06603267
58	0xbdfcc164	-0.12341574
59	0x3cfa7851	0.03057495
60	0xbd45f4bf	-0.04832911
61	0xbca1950b	-0.01972439
62	0xbda1ec51	-0.07906402
63	0x3d3aeb3b	0.04563449
64	0x3d613104	0.054978386
65	0xbd74439c	-0.05963479
66	0x3d58f8d4	0.052971676
67	0xbca69b84	-0.020337828
68	0xbd38c30f	-0.045107897
69	0xbd3d757e	-0.046254627
70	0xbd758ff5	-0.05995174
71	0xbd192ebf	-0.037398096
72	0x3ca747a1	0.020419898
73	0x3c29293f	0.010324775
74	0xbdbf8cda	-0.09353037
75	0x3d9b3565	0.075785436
76	0xbd703ee2	-0.05865372
77	0xbcad6e97	-0.021170897
78	0xbdbbf061	-0.09176708
79	0xbd1289b2	-0.035775848
80	0xbd07e2f0	-0.03317541
81	0xbd34afc9	-0.044112954
82	0x3c98ee17	0.018668218
83	0xbd865ebf	-0.0656104
84	0x3a756253	0.000936066
85	0xbdb549bf	-0.088519566
86	0xbdc53f8a	-0.0963126
87	0xbd22af55	-0.03971799
88	0x3d08dcea	0.033413805
89	0xbd70e5d5	-0.058812935
90	0xbd0716c7	-0.032980707
91	0xbc5ddbc4	-0.013541166
92	0x3baad62c	0.0052135196
93	0xbdd206b5	-0.102551855
94	0xbce10854	-0.027469791
95	0xbdeffe1e	-0.11718391
96	0xbdbb4897	-0.09144705
97	0xbd7b7a3c	-0.06139587
98	0x3baae9a4	0.0052158404
99	0x3d8f4d77	0.06997197
100	0xbdc3618d	-0.09540091
101	0xbd1af220	-0.037828565
102	0xbcc948bf	-0.02457082
103	0xbcd68879	-0.026188122
104	0x3d8025da	0.062572196
105	0x3c7e7a53	0.015532094
106	0x3cb75c8e	0.022383
107	0x3d2f2974	0.042764142
108	0xbc09e4c0	-0.008416355
109	0xbdaa3e8b	-0.083127104
110	0x3ccc7a19	0.024960564
111	0x3cbcded3	0.02305547
112	0x3a030b14	0.0004998904
113	0xbc68b350	-0.014202908
114	0xbdcbef05	-0.09957699
115	0xbd2c800a	-0.042114295
116	0x3cfc628b	0.030808708
117	0xbccb3c6d	-0.024809087
118	0x3d6e2b08	0.058146507
119	0xbd3e9f06	-0.046538375
120	0xbdc7312d	-0.097261764
121	0x3c961e22	0.018324915
122	0xbd208fb8	-0.03919956
123	0xbda24bd3	-0.079246186
124	0xbd1eec6f	-0.0387997
125	0x3cf99d45	0.0304705
126	0x3d20b837	0.03923818
127	0xbdeb027b	-0.114750825

layer_out_1.weight f4 [128, 128]
0	0x3d857125	0.06515721
1	0x3d75e050	0.060028374
2	0xbdb19746	-0.08671431
3	0x3cc2bcd8	0.023771688
4	0xbd3cc56e	-0.04608672
5	0x3c839dd1	0.016066464
6	0x3b97df12	0.0046347464
7	0xbcfef6e6	-0.03112359
8	0x3d96ad67	0.073572926
9	0x3d2289b7	0.039682116
10	0xbd7e7fe9	-0.062133703
11	0x3d45b5d3	0.048269104
12	0x3c385c8b	0.011252533
13	0x3dd1ddf9	0.10247416
14	0x3d7d5da6	0.06185689
15	0xbdaaec67	-0.083458714
16	0x3d37bf24	0.04486002
17	0xbd267654	-0.04064019
18	0xbd8083d9	-0.06275148
19	0x3d84965a	0.0647399
20	0xbe0ece24	-0.13945824
21	0xbd60ef5d	-0.054915775
22	0xbcd3dae1	-0.025861206
23	0xbd8802db	-0.0664117
24	0x3c05e4fb	0.008172269
25	0x3d0491d7	0.032365646
26	0x3be3ec51	0.0069556613
27	0xbb2d1cd4	-0.0026414888
28	0x3ca35386	0.019937288
29	0xbc075155	-0.008259137
30	0xbd8dab40	-0.06917429
31	0xbd60d1b7	-0.0548875
32	0xbd698ef9	-0.057021115
33	0x3db4e86c	0.088333935
34	0x3c38ea75	0.011286368
35	0x3c1ccc51	0.009570197
36	0x3cefe7a6	0.029285263
37	0xbc7d5817	-0.015462897
38	0x3d502371	0.05081505
39	0x3daee911	0.08540548
40	0x3d4f84f8	0.05066392
41	0xbb7a3f47	-0.003818469
42	0x3d2ad063	0.04170264
43	0xbd700dd9	-0.058606956
44	0xbc0a2f31	-0.008434103
45	0x3bbb21af	0.0057108025
46	0xbbdf4db4	-0.006814683
47	0xbd313c19	-0.043270204
48	0x3d5c5560	0.053792357
49	0xbdb03c6d	-0.08605275
50	0x3cb2523a	0.021767724
51	0x3d9d2b75	0.076743044
52	0xbabbdb14	-0.0014332258
53	0xbddd27b8	-0.107985914
54	0xbc778d71	-0.015109406
55	0xbd01a8ee	-0.031655245
56	0xbcc6e084	-0.02427698
57	0xbdafeac2	-0.085896984
58	0x3e073687	0.13204394
59	0xbc5275e4	-0.01284549
60	0x3a72afec	0.0009257782
61	0xbdd440c2	-0.10363914
62	0xbd78bb99	-0.060725782
63	0xbccb7bbd	-0.024839276
64	0xbb08dbda	-0.0020882995
65	0xbd55b698	-0.052176088
66	0x3df06262	0.11737515
67	0x3dc84982	0.097796455
68	0x3c89c63b	0.016818156
69	0x3cd9dd13	0.026594674
70	0xbddb0c68	-0.10695726
71	0x3ca30b50	0.019902855
72	0xbd7e9801	-0.06215668
73	0xbb303f71	-0.0026893283
74	0xbd977b52	-0.07396568
75	0xbd34edeb	-0.04417221
76	0x3d9d8bfd	0.07692716
77	0xba86abf2	-0.0010274632
78	0x3b5ade51	0.003339667
79	0x3d9e726c	0.07736668
80	0x3dc1c7fc	0.09461972
81	0x3d994383	0.0748358
82	0x3d3281b5	0.04358073
83	0x3d00720b	0.03135876
84	0x3c45f01e	0.012081174
85	0x3db3c9a8	0.08778697
86	0xbcd6efa6	-0.02623732
87	0xbce0bec6	-0.027434718
88	0x3da9fb3e	0.08299874
89	0x3df40c67	0.11916428
90	0xbd189dd0	-0.037259877
91	0xbd2b0d91	-0.041760985
92	0x3d2325cb	0.039830964
93	0x3d3bfc34	0.045894817
94	0x3dd3f89c	0.10350153
95	0x3c5fd7b1	0.013662265
96	0xbcafd971	-0.021465989
97	0xbcc41d4c	-0.023939751
98	0x3cd79c20	0.026319563
99	0x3dd2e3c0	0.10297346
100	0xbd0b2c4e	-0.0339778
101	0xbc9b0aec	-0.018926106
102	0xbd3ee2c7	-0.04660299
103	0xbb2a16a5	-0.0025953439
104	0x3d026c17	0.031841364
105	0x3d9a85d3	0.07545056
106	0xba2d3508	-0.00066073285
107	0xbc187088	-0.009304173
108	0xbd1361dc	-0.035981998
109	0x3c9a2deb	0.018820724
110	0x3cac52ea	0.02103563
111	0xbc9d8f47	-0.019233359
112	0x3d92bf5a	0.07165404
113	0xbd06ec31	-0.032940093
114	0xbdfa412f	-0.12219464
115	0x3dcf73f8	0.10129541
116	0x3d89f6b5	0.06736509
117	0x3d99601f	0.07489037
118	0x3cf59e75	0.029982785
119	0xbd7c6cc3	-0.06162716
120	0x3cd85370	0.026406974
121	0x3d49e88e	0.049294047
122	0xbd3c7519	-0.04601011
123	0x3b728b25	0.0037009206
124	0x3c322d27	0.010875023
125	0x3db2b940	0.0872674
126	0xbc44953a	-0.011998469
127	0xbd8fd5cb	-0.070232
128	0x3d62b2f1	0.055346433
129	0xbc559674	-0.013036359
130	0x3d3e397c	0.04644154
131	0xbd31206e	-0.043243818
132	0xbc518e6c	-0.012790304
133	0xbcc566cb	-0.024096867
134	0x3d07ea10	0.033182204
135	0x3cc283bf	0.023744462
136	0x3dbe0bb7	0.09279578
137	0x3d37614c	0.044770524
138	0xbd573e3b	-0.052549582
139	0xbc6a39f1	-0.014296041
140	0x3d6a6544	0.05722548
141	0x3c089e33	0.008338499
142	0xbda6586e	-0.081223354
143	0xbc74b216	-0.014935037
144	0xbc3fef4f	-0.01171477
145	0x3d9a7a3a	0.07542844
146	0xbdc27052	-0.0949408
147	0x3c46747f	0.012112736
148	0x3cec5da9	0.028853254
149	0xbd18b983	-0.037286293
150	0xbb70eada	-0.0036761076
151	0x3d6f3b61	0.058406238
152	0xbd6f3a1b	-0.058405023
153	0x3e16214b	0.14661138
154	0xba2de7b4	-0.0006633953
155	0x3cf08477	0.02936004
156	0x3db6e37f	0.0893011
157	0x3c0d3252	0.008617954
158	0x3b8946c8	0.004189346
159	0x3da63602	0.0811577
160	0x3cb66092	0.022262845
161	0x3d03a9a2	0.032144196
162	0x3d10b048	0.035324365
163	0x3d825932	0.06364669
164	0x3db771cf	0.08957254
165	0x3b957d29	0.0045620394
166	0x3cfc10fa	0.030769814
167	0xbd803fa7	-0.06262141
168	0xbcb1c56b	-0.021700582
169	0x3d39b38a	0.045337237
170	0x3b96d0d0	0.004602529
171	0x3b275722	0.0025534113
172	0xbdc15fc1	-0.09442092
173	0x3ce9567a	0.028483618
174	0xbc964ea6	-0.01834805
175	0x3a3bed7b	0.0007168871
176	0xbd2924d6	-0.041294895
177	0xbe0c1a5d	-0.13681932
178	0xbc57ffb0	-0.013183519
179	0x3cfcca50	0.030858189
180	0xbd8a68d6	-0.06758277
181	0xbd8f5eb1	-0.07000483
182	0xbab193c8	-0.001354807
183	0xbd426616	-0.047460638
184	0x3cb7e2f2	0.022447083
185	0xbd9cad92	-0.076502934
186	0xbdf42d91	-0.119227536
187	0x3d4bff07	0.04980376
188	0x3d5d5d0b	0.05404381
189	0xbbcf32ff	-0.006323218
190	0x3d8a221e	0.067447886
191	0x3d5f7b88	0.054561168
192	0x3d906b3f	0.070517056
193	0xbd4bebc5	-0.049785394
194	0x3bf9b4e4	0.007620441
195	0x3ca050e0	0.019569814
196	0x3d6c8114	0.057740286
197	0xbd984dab	-0.07436689
198	0xbd333dc2	-0.04376007
199	0xbdc94bad	-0.09828887
200	0x3b314542	0.0027049338
201	0x3d29972e	0.04140394
202	0xbd4a94bd	-0.049458254
203	0x3c90cc57	0.017675562
204	0xba7f04f6	-0.0009728217
205	0xbc842b5a	-0.016133953
206	0x3c80b02a	0.015709002
207	0xbc9372d1	-0.017999085
208	0xbaa973ef	-0.0012928228
209	0xbd86e7a4	-0.06587151
210	0x3d9a17b5	0.07524053
211	0xbd935898	-0.07194632
212	0x3e0fe32d	0.14051504
213	0x3b1928f4	0.0023370357
214	0xbbb25936	-0.0054427637
215	0xbd01897d	-0.03162526
216	0xbababcf3	-0.0014246985
217	0xbb092338	-0.0020925533
218	0x3c47f9bf	0.01220554
219	0x3d1a0490	0.037602007
220	0x3db24c3f	0.08705949
221	0x3d046600	0.032323837
222	0x3c920287	0.01782347
223	0xbd186131	-0.037202064
224	0xbced137b	-0.028939953
225	0xbc816b3a	-0.0157982
226	0x3dc03fe0	0.09387183
227	0xbcb83d6e	-0.02249023
228	0xbd4a7750	-0.04943019
229	0xbd18aadf	-0.03727233
230	0x3c49ec81	0.012324453
231	0xbdac31af	-0.08407914
232	0x3d1c6c39	0.038189147
233	0x3b7a22f6	0.003816781
234	0xbdbdc65e	-0.09266351
235	0x3deb9b2b	0.11504205
236	0x3cfc1477	0.030771477
237	0x3dabde15	0.08391968
238	0xbc2c1c03	-0.010504725
239	0xbd580907	-0.052742984
240	0x3d5af758	0.05345854
241	0xbc187c89	-0.009307035
242	0xbdb06206	-0.086124465
243	0x3db0b6ea	0.08628638
244	0x3d47d08c	0.04878287
245	0x3b3c6820	0.0028748587
246	0xbd9a43c7	-0.07532459
247	0xbc873494	-0.016504563
248	0xbd970292	-0.07373537
249	0x3da1c541	0.07898951
250	0x3c579ed7	0.013160429
251	0x3c591d57	0.013251624
252	0xbcc2d808	-0.023784652
253	0x3d8278af	0.06370675
254	0xbd3581da	-0.04431329
255	0x3d35c375	0.044375855

layer_out_1.bias f4 [128]
0	0x3d6b149d	0.057392705
1	0xbccd3143	-0.025047904
2	0x3da2d5d8	0.07950944
3	0x3d0bd618	0.034139723
4	0xbd7c3e35	-0.061582763
5	0xbd5026b8	-0.050818175
6	0xbd4c65f8	-0.049901932
7	0xbd6e98ba	-0.05825112
8	0x3b2d823a	0.0026475326
9	0x3d9cf726	0.07664327
10	0x3cfa7703	0.030574327
11	0xbcc785bb	-0.02435576
12	0x3ca177b4	0.0197104
13	0xba6e3f76	-0.0009088436
14	0x3db2589a	0.08708306
15	0x3caee89c	0.021351151
16	0x3d22875d	0.039679874
17	0x3c17315d	0.009228078
18	0x3dc85378	0.097815454
19	0x3c7aacf1	0.0153000215
20	0x3d2233a5	0.039600033
21	0x3a4760f2	0.00076056935
22	0xbd29d6cf	-0.041464623
23	0xbd2951f7	-0.041337933
24	0xbbe3c733	-0.0069512366
25	0x3d37c7c6	0.044868253
26	0x3d9192e9	0.07108099
27	0x3d422402	0.04739762
28	0xbba7465c	-0.005104823
29	0xbbe806e9	-0.007080902
30	0xbc7ae0e9	-0.015312412
31	0x3dba5daf	0.090999
32	0xbd3144c7	-0.04327848
33	0x3db23bf8	0.087028444
34	0xbcf6aea2	-0.030112568
35	0x3d86829c	0.065678805
36	0x3d319de9	0.043363485
37	0x3d8ed50a	0.06974228
38	0x3d94d09c	0.072663516
39	0xbd2b2329	-0.04178158
40	0x3dc34857	0.09535282
41	0x3d7b91d0	0.061418355
42	0x3d529e8a	0.051420726
43	0xbd8c9487	-0.06864267
44	0x3d4cf9c8	0.050042897
45	0x3d389ef3	0.04507346
46	0xbd875114	-0.06607261
47	0x3d83a256	0.064274475
48	0x3c010c98	0.007876538
49	0x3d124b7a	0.03571651
50	0x3d0d3833	0.034477424
51	0x3db0a89b	0.08625909
52	0xbcbb4abf	-0.02286279
53	0x3d8c28b5	0.06843702
54	0x3c18eb12	0.009333389
55	0x3c3caf94	0.01151647
56	0x3da604ea	0.08106406
57	0x3d157d97	0.036496725
58	0x3d418810	0.0472489
59	0xbd446a66	-0.047953032
60	0x3dc2b3a9	0.09506924
61	0xbd3f7527	-0.046742585
62	0xbc357c4c	-0.011076998
63	0x3d300ad4	0.042979077
64	0x3dac713b	0.084200345
65	0xbcb4afb0	-0.02205643
66	0xbd4e0c14	-0.050304487
67	0xbe0cb647	-0.13741408
68	0xbdc7cf2d	-0.097563125
69	0xbd7fef68	-0.062484175
70	0x3c985098	0.018593118
71	0x3cf09d77	0.02937196
72	0x3d6283e6	0.05530157
73	0x3d9f69e9	0.07783873
74	0xbb8ef6f4	-0.004362935
75	0x3e07a78d	0.1324751
76	0x3dc9b89e	0.09849666
77	0x3d982b23	0.07430103
78	0xbc37e573	-0.011224139
79	0xbd77d902	-0.06050969
80	0x3ce1471a	0.027499724
81	0x3dce0359	0.10059232
82	0xbc5ad82a	-0.013357202
83	0x3d384fbd	0.04499792
84	0xbd813ce2	-0.063104406
85	0xbc0f19c3	-0.008734169
86	0xbc7b1650	-0.015325144
87	0x3cb142a4	0.021638222
88	0xbd4f4042	-0.05059839
89	0x3d493bac	0.049129173
90	0xbc2350c2	-0.009967985
91	0x3d8e19aa	0.06938489
92	0x3d2a7939	0.041619513
93	0x3da629c7	0.08113437
94	0x3cf4c66e	0.029879775
95	0x3d999e12	0.07500853
96	0xbd1112f0	-0.03541845
97	0x3d925357	0.07144802
98	0xbd0658dd	-0.03279959
99	0x3d86ea8a	0.065877035
100	0xbd597071	-0.053085748
101	0x3be963dd	0.0071225003
102	0x3d971cfa	0.07378574
103	0x3d006f82	0.031356342
104	0x3ca37bce	0.019956496
105	0x3bb6bc63	0.0055766567
106	0xbd281488	-0.041035205
107	0x3d5b5007	0.053543117
108	0x3da94c4e	0.08266507
109	0xbc92cc1b	-0.01791959
110	0x3d39bb25	0.04534449
111	0xbb758f10	-0.0037469305
112	0x3d0d6293	0.034517836
113	0xbab0c14e	-0.0013485344
114	0x3b293693	0.0025819882
115	0x3da517a6	0.08061151
116	0x3d7181e9	0.058961783
117	0x3d7b621b	0.061372858
118	0x3db85ca4	0.09002045
119	0x3d7629b9	0.060098384
120	0x3d58a8e7	0.052895453
121	0xbd1439a7	-0.036187794
122	0x3b86c05f	0.004112288
123	0xbc66ccc3	-0.014086905
124	0x3da7eaa9	0.08199055
125	0x3c79349a	0.015210295
126	0x3cae224d	0.02125659
127	0x3cf00fad	0.02930435

layer_out_2.weight f4 [53, 128]
0	0xbd35a3c1	-0.04434562
1	0xbcdbcc27	-0.026830746
2	0xbd02d570	-0.03194183
3	0xba97d26d	-0.0011583098
4	0xbbb51e54	-0.005527297
5	0x3d257266	0.040392302
6	0xbc370967	-0.011171675
7	0x3d3cc04d	0.04608183
8	0xbda118cc	-0.07866058
9	0xbe10a6ac	-0.1412608
10	0xbbc505a7	-0.0060126367
11	0xbd33b647	-0.043875005
12	0x3d985520	0.07438111
13	0xba8de375	-0.0010825234
14	0x3d8eb80c	0.06968698
15	0xbc286249	-0.010277339
16	0x3c7a758a	0.015286813
17	0x3cca8d4c	0.024725579
18	0xbd2ee005	-0.04269411
19	0x3d4195fc	0.047262177
20	0xbc91322f	-0.017724125
21	0xbd947776	-0.07249348
22	0xbd07a2ef	-0.03311437
23	0xbd9f94b0	-0.07792032
24	0xbbeecc22	-0.007287518
25	0x3d6d07d9	0.057868812
26	0xbda0a71b	-0.07844373
27	0xbc789f2a	-0.015174666
28	0x3cd888aa	0.026432354
29	0x3d33d4a2	0.043903954
30	0x3d584dd1	0.052808587
31	0xbdcc3d92	-0.09972681
32	0x3d41d727	0.047324326
33	0x3cfb4c60	0.030676067
34	0x3ccc8b79	0.02496885
35	0xbabafe69	-0.0014266494
36	0x3d1d8a32	0.03846187
37	0xbce332ca	-0.027734179
38	0xbd104a7e	-0.03522729
39	0x3d3de2aa	0.04635874
40	0xbd8acaee	-0.06776987
41	0xbd96a2bf	-0.0735526
42	0xbcf34523	-0.029696053
43	0xbdb4d13f	-0.08828973
44	0xbbf36f0f	-0.0074290107
45	0xbd2cab82	-0.04215575
46	0x3ddc2715	0.10749642
47	0x3db8152c	0.08988413
48	0xbcfb0aed	-0.030644858
49	0xbd6f80c4	-0.05847241
50	0x3cae5670	0.021281451
51	0x3a96ddfc	0.0011510248
52	0xbd4b56ae	-0.04964321
53	0xbdca1924	-0.098680764
54	0xbd4981d0	-0.049196064
55	0x3daec1d5	0.08533064
56	0x3df2e327	0.11859732
57	0x3cc40806	0.023929607
58	0x3c3b49c6	0.011431163
59	0xbd976d3b	-0.07393881
60	0xbd8c71ac	-0.06857619
61	0xbd1e873a	-0.03870318
62	0xbce78e4d	-0.028266096
63	0x3d218223	0.03943075
64	0xbd891028	-0.06692535
65	0x3d21ea13	0.03952987
66	0x3d78089f	0.060555097
67	0x37c5de40	2.3587723e-05
68	0x3cdd99fc	0.027050965
69	0xbd108399	-0.03528175
70	0xbdbf9317	-0.09354227
71	0x3de8a5e0	0.11359763
72	0xbd139f08	-0.036040336
73	0x3b5fbf16	0.0034140996
74	0x3cf6e318	0.030137584
75	0x3d369d3e	0.04458355
76	0xbdba9d63	-0.091120504
77	0xbcf13c2d	-0.02944764
78	0x3d72e9cb	0.059304994
79	0x3dba8c56	0.09108798
80	0x3d8042ba	0.06262727
81	0x3e044723	0.12917762
82	0xbd593499	-0.053028677
83	0xbd379337	-0.04481813
84	0xba528c5d	-0.000803178
85	0xbc3ea3b7	-0.011635712
86	0x3ca88856	0.020572823
87	0x3c3d3f29	0.011550703
88	0x3caa8729	0.020816403
89	0x3c46161a	0.01209023
90	0xbde608ab	-0.11232122
91	0x3d28f69f	0.04125082
92	0x3b032b64	0.0020014876
93	0x3d172f9b	0.036910634
94	0x3dad2a06	0.08455281
95	0xbbe8f544	-0.007109316
96	0xbca6591a	-0.020306159
97	0x3d4acd70	0.049512327
98	0x3d7637da	0.060111858
99	0xbcf0cce5	-0.029394576
100	0x3d83b01a	0.06430073
101	0x3d6500a6	0.05590882
102	0xbd420b18	-0.04737386
103	0xbcb8656f	-0.022509305
104	0xbb311a10	-0.002702359
105	0x3d8745eb	0.06605133
106	0x3d66af5a	0.056319572
107	0x3ce38290	0.027772218
108	0xbd45f50b	-0.048329394
109	0x39902138	0.0002749057
110	0x3d7828b0	0.060585678
111	0x3d081fb0	0.033233345
112	0x3c80ede5	0.015738437
113	0xbc3a2f63	-0.011363837
114	0xbe024426	-0.12721309
115	0x3cc70678	0.024295077
116	0x3d2f2c09	0.042766605
117	0xbcd7e92a	-0.026356298
118	0xbda0383b	-0.07823225
119	0xbcba3eb3	-0.022734975
120	0xbcc9d7ea	-0.024639089
121	0x3cb8cc0f	0.02255824
122	0x3d7b578e	0.061362796
123	0x3bc41d83	0.0059849634
124	0x3d90a3de	0.07062505
125	0xbd09f842	-0.033684023
126	0xbd813bb8	-0.063102186
127	0xbbf26488	-0.007397238
128	0x3cb099a4	0.021557637
129	0xbcc1c196	-0.02365188
130	0xbd8323eb	-0.06403335
131	0x3d68a973	0.056802224
132	0xbd60b671	-0.05486149
133	0x3d140899	0.036141012
134	0x3c8ae066	0.016952705
135	0x3cb92fd6	0.022605818
136	0xbd1b2cf2	-0.03788466
137	0x3cad384c	0.021145009
138	0x3d971f52	0.07379021
139	0xbd40b347	-0.047045972
140	0xbd96144c	-0.0732809
141	0xbc076ec5	-0.008266156
142	0x3d97324d	0.07382641
143	0x3cff0fe1	0.031135501
144	0x3cb1f849	0.021724837
145	0x3d0c9d71	0.034329835
146	0x3ba16369	0.0049251807
147	0x3cc5e454	0.024156727
148	0xbddee5ee	-0.10883699
149	0x3db3a897	0.0877239
150	0xbd745783	-0.05965377
151	0x3d42f7a5	0.047599453
152	0xbdd97264	-0.106175214
153	0x3ce91cb7	0.028456075
154	0x3d841e33	0.064510725
155	0x3c9bce08	0.019019142
156	0x3d47ffe9	0.04882804
157	0xbccb8332	-0.024842832
158	0xbbfde2d8	-0.007747989
159	0xbc96cf2d	-0.018409336
160	0xbd80e715	-0.062940754
161	0x3cc6de08	0.024275795
162	0x3db88119	0.090089984
163	0x3c58a1bd	0.013222155
164	0xbd3e96e5	-0.046530623
165	0x3d4c094f	0.049813565
166	0xbd95e5fd	-0.073192574
167	0x3c20528a	0.009785304
168	0x3b8a509e	0.004221036
169	0xbdaa2b1c	-0.08309004
170	0x3d2e5582	0.042562015
171	0xbd638986	-0.055551074
172	0x3cfe2c7d	0.031027073
173	0x3db3217e	0.087466225
174	0x3da9d8d5	0.082933106
175	0xbd045b19	-0.03231344
176	0xbce0f276	-0.027459364
177	0x3c509dd6	0.0127329435
178	0xbb4814e0	-0.003053002
179	0x3bbf1208	0.005831007
180	0x3ddb4c0a	0.10707863
181	0x3da4b9e8	0.08043271
182	0xbcd6284c	-0.026142262
183	0xbd8140f1	-0.06311215
184	0xbd4a3773	-0.049369287
185	0xbcc90e4b	-0.024542948
186	0xbd9b2df3	-0.075771235
187	0x3c2bafc0	0.010478914
188	0xbcd3a173	-0.02583382
189	0x3d853994	0.06505123
190	0x3d71b372	0.059009023
191	0xbcbeaf10	-0.023276836
192	0xbd83a7e4	-0.06428507
193	0x3d329c20	0.043605924
194	0xbd1244fc	-0.03571032
195	0x3db17692	0.086651936
196	0xbdcb2a54	-0.09920183
197	0xbd094205	-0.033510227
198	0xbcca965e	-0.024729904
199	0x3d002af0	0.03129095
200	0xbd123387	-0.03569367
201	0x3d88000a	0.066406325
202	0xbda1533b	-0.07877203
203	0x3b9d35e0	0.004797682
204	0xbd1c777a	-0.03819988
205	0x3daef044	0.08541921
206	0xbd3a16ce	-0.045431904
207	0x3d0e8510	0.034794867
208	0x3d3d2e26	0.04618659
209	0x3d0aed78	0.033917874
210	0x3d31e575	0.043431718
211	0x3d53b051	0.05168182
212	0xbc96f91f	-0.018429337
213	0xbb12d0de	-0.0022402327
214	0x3bcaceb0	0.00618919
215	0x3dbe8e78	0.093045175
216	0xbd65092a	-0.055916943
217	0xbca7736b	-0.020440778
218	0xbd1443fb	-0.036197644
219	0xbd178402	-0.036991127
220	0xbd490537	-0.04907724
221	0x3d5640e6	0.052307986
222	0x3c902739	0.017596828
223	0xbd781cec	-0.060574457
224	0xbc96c7cc	-0.018405817
225	0x3debc29d	0.11511729
226	0x3c166000	0.009178162
227	0x3d475903	0.048668873
228	0xbdb8ff80	-0.09033108
229	0x3d580708	0.05274108
230	0xbd75af33	-0.059981536
231	0x3d29c6ba	0.041449286
232	0xbdf83818	-0.12120074
233	0x3d943d91	0.07238305
234	0x3b329fb3	0.0027255833
235	0xbcf7b627	-0.030238224
236	0x3df14090	0.117798924
237	0x3c45162c	0.012029212
238	0xbd83facf	-0.06444322
239	0xbd823b3a	-0.06358953
240	0xbd1303fb	-0.035892468
241	0xbd62d830	-0.055381954
242	0xbd7494e2	-0.0597123
243	0xbd4bd8f3	-0.049767446
244	0x3cfe1220	0.031014502
245	0x3d997364	0.07492712
246	0x3cdaca32	0.026707742
247	0x3d6acb6c	0.057322904
248	0xbc93bac3	-0.01803339
249	0xbd344c53	-0.0440181
250	0x3cdfa77d	0.027301544
251	0xba5454db	-0.00080998027
252	0x3b68c628	0.00355185
253	0x3ccdbd54	0.025114693
254	0x3d464c7a	0.048412777
255	0xbd808ee2	-0.06277253

layer_out_2.bias f4 [53]
0	0xbbe36b1c	-0.0069402587
1	0xbbca08d0	-0.0061656013
2	0xbbd3591a	-0.0064498307
3	0x3b8e045e	0.0043340167
4	0x3c4905b4	0.012269426
5	0x3adcda0b	0.001684965
6	0xba9b3a99	-0.0011843025
7	0xbc2810b6	-0.01025789
8	0xbc10fc8b	-0.008849273
9	0x3ab9ec93	0.0014184884
10	0xbc341965	-0.010992383
11	0xbbbdc405	-0.0057911896
12	0xba25f2be	-0.0006330422
13	0xbb968843	-0.0045938804
14	0x3c2878e0	0.010282725
15	0x3a473d71	0.0007600403
16	0x3c4d9eb8	0.0125500485
17	0xba82d44a	-0.000998148
18	0xb9f9eebd	-0.00047670855
19	0xbc8b4b65	-0.017003724
20	0x3c8014f3	0.01563499
21	0x3abb8624	0.0014306945
22	0xbb994fb7	-0.004678692
23	0xbba91cda	-0.00516091
24	0xbac58bfa	-0.0015071623
25	0xbb646364	-0.003484928
26	0xbbe0965e	-0.0068538627
27	0x3c00906c	0.007846933
28	0x3c28f601	0.010312558
29	0xbb3164c4	-0.0027068118
30	0xbb819313	-0.0039543
31	0x3c207ff3	0.0097961305
32	0x3b8454c3	0.0040384247
33	0xbba63b7c	-0.005073009
34	0xbb98aca2	-0.0046592513
35	0xbbfa5024	-0.007638948
36	0x3b8fcb34	0.0043882374
37	0xbbd12a5c	-0.0063832235
38	0x3af941aa	0.0019016762
39	0xbbb62ea0	-0.0055597574
40	0x3c13b6cf	0.009015753
41	0x3c10ef45	0.008846109
42	0xbba7bbce	-0.0051188236
43	0x3912014e	0.00013924131
44	0xbbb296a5	-0.005450087
45	0x3c430ac7	0.011904425
46	0xbc347e8d	-0.0110165
47	0x3c79cc41	0.015246452
48	0x3b610eac	0.003434102
49	0xba110280	-0.00055316836
50	0x3a8d08a8	0.0010760026
51	0x3ae037d9	0.0017106488
52	0xbb54e072	-0.0032482413
