results/DDPM/BATCH_SIZE/64/model_final.pth (torch, 661767 bytes, 26 tensors)

layer_x.weight f4 [128, 53]
0	0x3de810cb	0.11331328
1	0xbe06f2d7	-0.13178574
2	0xbe11c29a	-0.14234391
3	0xbd334730	-0.04376906
4	0x3c79a109	0.015236148
5	0x3d82fc7f	0.06395816
6	0xbdcf0546	-0.10108428
7	0x3cf70cc0	0.030157447
8	0x3dc07994	0.09398189
9	0x3d896584	0.06708816
10	0xbd72eca7	-0.05930772
11	0xbd666009	-0.05624393
12	0xbd99b75e	-0.07505678
13	0x3d64dc27	0.055874016
14	0x3de6a5d1	0.11262096
15	0xbd74f2f9	-0.05980203
16	0x3da6e4f0	0.08149135
17	0x3d9257fa	0.071456864
18	0x3d9dfee2	0.07714631
19	0x3d4575a7	0.048207905
20	0xbe297c91	-0.16551425
21	0x3e10760b	0.1410753
22	0x3d815215	0.06314484
23	0x3d9e8521	0.07740236
24	0x3e17db46	0.1482974
25	0xbcad9608	-0.021189705
26	0xbcdae733	-0.026721573
27	0xbd96f111	-0.073701985
28	0xbde6bceb	-0.11266502
29	0x3d1bbd35	0.03802224
30	0xbd620e0e	-0.055189185
31	0x3d9ac4c2	0.0755706
32	0x3dd0a871	0.10188378
33	0x3e01fa43	0.12693124
34	0xbcf2ac5e	-0.029623207
35	0xbd0e21ea	-0.03470031
36	0x3dd29aa8	0.102834046
37	0x3d28e2e5	0.04123201
38	0xbd2288ed	-0.039681364
39	0x3c1d0260	0.009583086
40	0x3e3505a3	0.17677931
41	0xbc6a69dc	-0.014307465
42	0xbe053f9a	-0.13012543
43	0x3db8a7c5	0.090163745
44	0x3cc59fbe	0.024124023
45	0x3ce08cd2	0.027410898
46	0x3e061511	0.13093974
47	0x3cfafe47	0.030638827
48	0xbe39aaea	-0.18131605
49	0xbe019661	-0.12655021
50	0xbda08abe	-0.07838963
51	0x3ca801a8	0.020508602
52	0xbdfcc0eb	-0.12341484
53	0x3d1a8172	0.037721105
54	0xbc8c004c	-0.017089985
55	0x3df0e173	0.11761751
56	0x3d75e3ee	0.060031824
57	0xbcd04c80	-0.025427103
58	0xbdbfc3e7	-0.09363537
59	0xbd5b9ce1	-0.05361641
60	0xbd75b1a0	-0.05998385
61	0x3da2085c	0.07911751
62	0xbdb1f58a	-0.08689411
63	0xbdebe00b	-0.11517342
64	0x3d9e64cb	0.077340685
65	0xbdc3d016	-0.095611736
66	0x3d3376b8	0.04381439
67	0x3dc59d6a	0.09649165
68	0xbe0e7f75	-0.13915808
69	0xbd94c98e	-0.07265006
70	0xbcc5cdf1	-0.024146052
71	0x3c17a63c	0.009255942
72	0xbe26ea58	-0.16300333
73	0xbdaec9be	-0.08534573
74	0xbb29f709	-0.0025934598
75	0xbd049e70	-0.03237766
76	0x3d871fe7	0.06597882
77	0xbd9b685d	-0.07588265
78	0x3e0bda18	0.13657415
79	0x3d6bbec1	0.057554964
80	0xbdd55658	-0.104168594
81	0x3cc570be	0.024101611
82	0xbe1e558b	-0.1546232
83	0x3d9a5b55	0.075369515
84	0x3c181035	0.009281208
85	0x3dc0e6b1	0.09419001
86	0x3e0e03d6	0.13868651
87	0xbdfff2af	-0.1249746
88	0x3d445a46	0.047937654
89	0xbb6a26b7	-0.0035728642
90	0x3e1c04a0	0.1523614
91	0x3d3f9b4e	0.04677897
92	0x3d4b248e	0.04959541
93	0xbe370fb8	-0.1787709
94	0x3d1256b7	0.03572723
95	0xbdde30e2	-0.108491674
96	0x3d09049a	0.033451654
97	0x3e0a3ffd	0.13500972
98	0x3d9d9a2d	0.07695422
99	0x3d8eecd5	0.06978766
100	0xbbc3f630	-0.0059802756
101	0x3da66653	0.081249855
102	0x3e19c997	0.15018307
103	0xbde6f309	-0.11276824
104	0xbe13b91e	-0.14426085
105	0xbdf6cdf3	-0.120510004
106	0xbcc5a7a7	-0.024127794
107	0xbda95374	-0.082678705
108	0x3cc7642e	0.024339762
109	0x3df027a3	0.1172631
110	0x3e009430	0.12556529
111	0x3d2f3377	0.04277369
112	0xbda50224	-0.08057049
113	0x3db6c0c1	0.08923484
114	0xbe37aebe	-0.17937753
115	0xbc94207b	-0.018081894
116	0xbdd8a72e	-0.10578762
117	0xbd72a241	-0.05923677
118	0x3cbfeb7c	0.023427717
119	0xbbcb13be	-0.006197422
120	0xbd703264	-0.058641806
121	0xbcf02d0c	-0.029318355
122	0xbb08c574	-0.0020869644
123	0xbd0feff0	-0.03514093
124	0x3d9abb98	0.07555312
125	0xbd1805fa	-0.037115075
126	0xbdf1d301	-0.11807824
127	0x3d3518e4	0.04421319
128	0x3dcb4256	0.09924762
129	0xbddbd39e	-0.10733722
130	0xbe0db66b	-0.13839118
131	0xbda99393	-0.08280101
132	0x3d72d5de	0.05928599
133	0x3d3a5771	0.045493547
134	0xbcd56207	-0.02604772
135	0xbcb54509	-0.022127645
136	0xbcb52ced	-0.022116149
137	0x3ceeab64	0.02913446
138	0x3df7e364	0.12103918
139	0x3d9ca030	0.07647741
140	0xbc1a8528	-0.009431161
141	0x3e0e6889	0.13907064
142	0xbd21a191	-0.039460722
143	0x3d6dd3f7	0.058063474
144	0x3c5934ea	0.013257245
145	0xbe065bae	-0.1312091
146	0x3de26f89	0.1105643
147	0x3d2ee508	0.04269889
148	0x3d4a5b4f	0.049403485
149	0xbdf80f40	-0.12112284
150	0x3ccb255f	0.024798093
151	0xbd298a68	-0.04139176
152	0x3d4a8e20	0.049451947
153	0x3cdf8adb	0.027287891
154	0x3d663292	0.05620057
155	0x3cf7c867	0.030246926
156	0xbc8ca397	-0.01716785
157	0x3da3e69a	0.08002968
158	0xbccc152d	-0.024912441
159	0xbd620db3	-0.055188846
160	0x3c3001ef	0.0107426485
161	0x3cf64e37	0.030066593
162	0xbe0d5133	-0.13800506
163	0x3d10acb7	0.035320964
164	0x3d518972	0.05115647
165	0x3dd6492d	0.10463176
166	0xbda9d76e	-0.08293043
167	0xbdc66980	-0.09688091
168	0xbdbd4a4f	-0.09242689
169	0xbd8fb131	-0.070162185
170	0xbe4f0f32	-0.2022064
171	0xbd29a941	-0.04142118
172	0x3cee45b8	0.029085979
173	0xbc5e9e04	-0.013587479
174	0xbdd9781a	-0.10618611
175	0xbc659840	-0.01401335
176	0xbdb5802c	-0.088623375
177	0x3dce1d2e	0.10064159
178	0x3dae436c	0.085089535
179	0x3d904460	0.070442915
180	0x3e16b3ea	0.1471707
181	0xbdc7abf8	-0.09749597
182	0x3d026772	0.031836934
183	0xbd31a71a	-0.04337225
184	0xbd5fa1bc	-0.0545976
185	0xbd8ce0ec	-0.06878838
186	0xbdb9d080	-0.09072971
187	0xbdaa7627	-0.08323317
188	0x3cd45a94	0.025922097
189	0xbd211a19	-0.03933153
190	0x3d1918bf	0.037377115
191	0x3e135ee2	0.14391664
192	0xbde33aa9	-0.11095173
193	0xbd821122	-0.06350924
194	0x3de8e2a7	0.113713555
195	0x3d8b8117	0.06811731
196	0x3d44e47b	0.04806946
197	0x3de7dbd7	0.11321228
198	0xbb18cbd5	-0.0023314853
199	0x3e162374	0.14661962
200	0x3d87326d	0.06601415
201	0x3b2e2e92	0.002657805
202	0x3c4ce578	0.0125058815
203	0x3d0f74bc	0.035023436
204	0x3d6a4e8b	0.05720381
205	0x3df9af3a	0.12191625
206	0xbb809579	-0.0039240685
207	0xbe176acf	-0.14786838
208	0x3d05d941	0.032677893
209	0x3cf494e8	0.02985616
210	0xbe3c855e	-0.1841025
211	0x3bbd9570	0.0057856366
212	0xbd37f5a2	-0.044911988
213	0x3c1bcf6a	0.009509901
214	0x3dec8f43	0.115507625
215	0x3dbe0815	0.09278885
216	0xbdd21906	-0.10258679
217	0x3d8167de	0.06318639
218	0x3d9d1a05	0.076709785
219	0xbd1e4f2d	-0.038649727
220	0xbd77bc65	-0.0604824
221	0x3d1cf9cb	0.03832416
222	0xbbfa9d1e	-0.0076481244
223	0x3dc9dfac	0.09857115
224	0xbe152ad9	-0.14567126
225	0x3ccbd8a1	0.02488357
226	0x3c9d6088	0.019211069
227	0xbc1363fc	-0.008996006
228	0xbdc6729c	-0.09689829
229	0x3d8cf84f	0.068832986
230	0xbdfac10b	-0.12243851
231	0x3e5244b8	0.20534027
232	0xbdb7ebc4	-0.089805156
233	0xbc79d4bc	-0.015248474
234	0x3ce96161	0.028488817
235	0x3c801307	0.015634073
236	0xbd37e89f	-0.04489958
237	0x3d04bdca	0.03240756
238	0xbc07ae77	-0.008281342
239	0x3dca178a	0.09867771
240	0x3e0cd052	0.13751343
241	0xbdd5df81	-0.104430206
242	0xbbfd240b	-0.007725244
243	0xbc0307bc	-0.0079974495
244	0xbda71b01	-0.081594475
245	0xbd96ac57	-0.0735709
246	0xbe25df4a	-0.1619846
247	0x3d21e92e	0.039529018
248	0x3d949276	0.07254498
249	0xbe1b1f74	-0.15148717
250	0x3dbdf300	0.09274864
251	0x3e008146	0.12549314
252	0xbd64db3f	-0.055873152
253	0xbd223cef	-0.039608892
254	0x3da7eb5d	0.08199189
255	0x3d7c78b6	0.061638556

layer_x.bias f4 [128]
0	0x3da63261	0.08115078
1	0x3db5aaac	0.08870444
2	0x3e6d183c	0.23153776
3	0x3df69e42	0.12041904
4	0x3e34cf62	0.17657235
5	0x3d5c5863	0.05379523
6	0xbb6dc001	-0.0036277773
7	0x3e3170e6	0.17328224
8	0x3e8f6897	0.28009483
9	0x3e56d469	0.20979466
10	0x3e5d0c78	0.21586788
11	0x3e6d824d	0.23194237
12	0x3e47c9fa	0.19510642
13	0x3e1a8350	0.15089154
14	0x3e23b205	0.15985878
15	0x3e184de2	0.1487346
16	0x3e2ccf3a	0.16875926
17	0xbce432df	-0.027856288
18	0x3e02689e	0.12735221
19	0x3e40332c	0.1876952
20	0x3e37ae6b	0.17937629
21	0x3e5ec3ea	0.21754423
22	0x3e3683de	0.17823741
23	0x3dc4b877	0.096054964
24	0x3e71095f	0.23538731
25	0x3dfee294	0.1244556
26	0x3c3cce49	0.011523792
27	0x3e92caef	0.2867045
28	0x3c8f35af	0.017481653
29	0x3e8a7109	0.27039364
30	0x3df3027f	0.118657105
31	0x3dbede03	0.09319689
32	0x3cdd2f87	0.027000202
33	0x3dedd65d	0.11613152
34	0x3e7d84a2	0.24757627
35	0x3e2395bb	0.15975086
36	0x3da7554e	0.081705675
37	0x3d83dc88	0.064385474
38	0x3cc63a30	0.024197668
39	0x3e64c56e	0.22340938
40	0x3e372a59	0.17887248
41	0xbd883ce0	-0.06652236
42	0x3e0d1c94	0.13780433
43	0x3e5631e8	0.20917475
44	0x3e7a3530	0.24434352
45	0x3e2eb78c	0.17062205
46	0x3e7466c1	0.23867323
47	0x3e94b064	0.29040825
48	0xbce3473b	-0.027743926
49	0x3e0680bc	0.13135046
50	0x3e1f1a14	0.15537292
51	0x3e05e738	0.13076484
52	0x3e7b8f3f	0.24566363
53	0x3e5efcad	0.21776076
54	0x3e6542d5	0.22388776
55	0x3e818729	0.25298432
56	0x3e6dea31	0.23233868
57	0x3e267062	0.16253808
58	0x3d95202d	0.07281528
59	0x3e98b83d	0.29828063
60	0x3e166d8c	0.14690226
61	0x3e62a2c7	0.22132407
62	0x3e75f2b6	0.24018368
63	0x3d303893	0.043022703
64	0x3da3ab0b	0.07991608
65	0x3e8121cb	0.25221094
66	0x3d2422e9	0.040072355
67	0x3deb2268	0.11481172
68	0x3dd4ec38	0.10396618
69	0x3b0264fb	0.0019896615
70	0xbd3be413	-0.045871805
71	0x3dc59b62	0.096487775
72	0x3c808376	0.015687685
73	0x3e21cb52	0.15800217
74	0x3e75002a	0.23925844
75	0x3dc41671	0.09574593
76	0x3e198d69	0.1499535
77	0x3e6e447b	0.2326831
78	0x3d80337f	0.06259822
79	0x3e6ef951	0.23337294
80	0x3d117203	0.03550912
81	0x3e3ee5c5	0.18642338
82	0x3e89b3be	0.26894945
83	0x3e8fa3de	0.28054708
84	0x3e90ebb8	0.2830484
85	0x3e0c1dd8	0.1368326
86	0x3e825480	0.25455093
87	0x3e7802c0	0.24219799
88	0x3e1dcb40	0.15409565
89	0x3e7ab304	0.24482352
90	0x3e14e41f	0.14540146
91	0xbc14350a	-0.009045849
92	0x3e13992f	0.14413904
93	0xbcae3105	-0.021263609
94	0x3e27d75d	0.16390748
95	0x3e0f61c3	0.14002137
96	0x3e4892fb	0.19587319
97	0x3e6cebd3	0.23136835
98	0x3e51c164	0.20483929
99	0x3d48765a	0.048940994
100	0x3e885e6e	0.26634544
101	0x3e4aeff5	0.19818099
102	0x3e416d48	0.18889344
103	0x3e330321	0.17481662
104	0x3e2a2e10	0.16619134
105	0x3e7140ce	0.23559877
106	0x3e369b86	0.17832765
107	0x3e048eee	0.12945148
108	0x3e44664e	0.19179651
109	0x3e7b14ec	0.245197
110	0x3e86932c	0.26284158
111	0x3da2f3b2	0.079566374
112	0x3de11634	0.10990563
113	0x3dc47722	0.09593035
114	0x3c75047e	0.014954684
115	0x3de230b8	0.110444486
116	0x3e4f8793	0.20266561
117	0x3d1b8e9f	0.03797781
118	0x3e945f27	0.28978845
119	0x3e349bb3	0.1763752
120	0x3d882fb7	0.06649726
121	0x3e7c3670	0.24630141
122	0x3e32edc4	0.17473513
123	0x3e4cd71c	0.20003933
124	0x3d86dd42	0.0658517
125	0x3e2ce791	0.1688521
126	0x3e84785d	0.2587308
127	0x3d079709	0.033103023

layer_t_1.weight f4 [128, 128]
0	0xbd301dfc	-0.042997345
1	0x3d5868ea	0.05283443
2	0xbc5b33b7	-0.013379029
3	0x3d341244	0.043962732
4	0xbd2f7ce0	-0.0428437
5	0xbce038e1	-0.027370872
6	0x3d8ad121	0.067781694
7	0x3c41be83	0.011825207
8	0x3d88608b	0.06659039
9	0xbccfc8ca	-0.025364298
10	0x3d419925	0.04726519
11	0xbd468375	-0.04846521
12	0xbdfebfa2	-0.12438895
13	0x3d9453c5	0.0724254
14	0x3d980bda	0.074241355
15	0xbca53bef	-0.02017018
16	0xbc8c52c6	-0.017129313
17	0xbdbbf56f	-0.09177672
18	0xbd1cfccf	-0.038327035
19	0xbd2b7444	-0.041858926
20	0x3cd03b3b	0.025418868
21	0x3d0145f7	0.031560864
22	0x3de33117	0.110933475
23	0xbd8632e6	-0.06552677
24	0x3d8bffb4	0.06835881
25	0xbcd58af0	-0.026067227
26	0xbcebb0ed	-0.028770888
27	0xbd839b99	-0.06426162
28	0x3da672fc	0.081274
29	0x3daa24fa	0.08307834
30	0xbd96d164	-0.07364157
31	0x3b80481d	0.0039148466
32	0x3d9f28df	0.077714674
33	0x3cf2ff38	0.029662713
34	0xbb707547	-0.0036690996
35	0xbb08699e	-0.0020814906
36	0xbd8e77e9	-0.06956465
37	0xbc29dd4c	-0.010367703
38	0x3c870c3f	0.016485332
39	0xbccaa60d	-0.024737382
40	0x3d7ff70c	0.06249146
41	0x3cb13159	0.021629976
42	0x3d0e25d3	0.03470404
43	0xbb04d033	-0.0020265698
44	0xbc2d5ec8	-0.01058168
45	0xbd6c7775	-0.05773111
46	0x3d63197a	0.05544422
47	0x3d291888	0.04128316
48	0x3d9d6bf3	0.07686605
49	0x3cb19d88	0.021681562
50	0xbc414f70	-0.0117987245
51	0xbb40f311	-0.0029441754
52	0xbd16df80	-0.03683424
53	0xbc9a4385	-0.018831024
54	0xbd9157ce	-0.070968255
55	0xbd21f1f0	-0.03953737
56	0xbdad1d2c	-0.0845283
57	0x3d8e1150	0.06936896
58	0xbdb464bb	-0.08808275
59	0xbc290c30	-0.010317847
60	0xbc5b6988	-0.01339186
61	0x3ceaf172	0.028679583
62	0x3da5f505	0.081033744
63	0x3cc480ac	0.023987137
64	0xbda75138	-0.08169788
65	0x3cd847b7	0.026401384
66	0xbd6dcc27	-0.058056023
67	0x3d5bf9af	0.053704914
68	0x3d85cef8	0.06533617
69	0x3d01cda8	0.03169027
70	0xbd19316d	-0.03740065
71	0x3d26e12d	0.040742088
72	0x3c592f07	0.013255841
73	0xbdc2c274	-0.09509745
74	0xbd816389	-0.06317813
75	0xbbde7efc	-0.00679004
76	0x3d3ee7e1	0.046607856
77	0x3d1375e4	0.0360011
78	0x3d2623d6	0.04056152
79	0xbd75a8af	-0.059975322
80	0xbd596a75	-0.05308004
81	0x3aba10bc	0.0014195661
82	0x3d85e120	0.0653708
83	0xbd950c69	-0.07277758
84	0x3c98d777	0.01865743
85	0x3d1e3584	0.038625255
86	0x3d3c56de	0.04598128
87	0xbd8af110	-0.0678426
88	0x3d4695a2	0.048482545
89	0x3d876ea0	0.06612897
90	0xbd6d6a06	-0.05796244
91	0xbd6692dc	-0.0562924
92	0xbcda37aa	-0.02663787
93	0xbd0cea05	-0.034402866
94	0xbd96bfec	-0.07360825
95	0xbbb35e0b	-0.0054738573
96	0x3d5ebf39	0.054381583
97	0x3d2b21b0	0.041780174
98	0xbd2cffe4	-0.042236224
99	0x3d6fc17a	0.058534123
100	0x3b118a76	0.0022207773
101	0x3d554ca0	0.05207503
102	0xbda61a83	-0.081105255
103	0xbd1b4580	-0.037908077
104	0x3c258164	0.01010165
105	0x3d345e27	0.044035103
106	0x3cc90cc6	0.024542224
107	0xbd13a6cc	-0.03604774
108	0xbb5e5cde	-0.0033929865
109	0x3da70ad5	0.08156363
110	0xbd453bcf	-0.04815274
111	0x3d506a38	0.050882548
112	0xbca85a1a	-0.020550776
113	0xbc002841	-0.007822097
114	0x3d16f078	0.036850423
115	0xbdbb0ceb	-0.09133323
116	0x3cf06549	0.029345172
117	0xbda932f8	-0.08261675
118	0x3daf691a	0.085649684
119	0xbd7105a8	-0.058843285
120	0xbc71a11c	-0.014747884
121	0x3d8d56ab	0.06901296
122	0xbd59befc	-0.053160653
123	0x3d396fed	0.045272756
124	0xbd41ea42	-0.047342546
125	0x3d9d70e5	0.076875485
126	0xbd96d10b	-0.073640905
127	0x3d012c70	0.03153652
128	0x3c7de22d	0.015495819
129	0x3bbeeea4	0.005826788
130	0x3d800aa6	0.06252031
131	0xbd8c99c4	-0.06865266
132	0x3d46b29d	0.048510183
133	0xbc141fb5	-0.009040763
134	0xbd4a2b23	-0.049357545
135	0xbd83b2cb	-0.064305864
136	0xbd2b7a94	-0.041864946
137	0xbc8fdaa1	-0.017560305
138	0x3d92189a	0.071335986
139	0x3a0783f9	0.0005169507
140	0xbd50025a	-0.050783493
141	0xbcfafcab	-0.03063806
142	0x3d521eef	0.05129903
143	0xbd17ce86	-0.03706219
144	0xbd91f219	-0.071262546
145	0x3d194d20	0.037427068
146	0xbc94e442	-0.018175248
147	0xbc8f0c5b	-0.017461946
148	0xbde4f824	-0.111801416
149	0x3d4278a3	0.04747833
150	0xbaa22242	-0.0012369829
151	0x3d8523f2	0.06500997
152	0x3d29e03c	0.041473612
153	0xbcbbc416	-0.02292065
154	0x3ce65aa2	0.028119389
155	0xbca0af7b	-0.019614926
156	0xbd8dc89d	-0.069230296
157	0x3cd1f214	0.025628127
158	0x3d4d4ddd	0.050123084
159	0xbc305145	-0.010761564
160	0xbd2aa872	-0.04166455
161	0x3d388331	0.04504699
162	0xbdb4a04e	-0.08819638
163	0xbd3db5e0	-0.046316028
164	0x3cd5a780	0.026080847
165	0x3d47f27b	0.04881523
166	0xbc1205fb	-0.008912559
167	0xbd0b44d2	-0.03400118
168	0xbb346244	-0.0027524391
169	0xbd2bca1e	-0.0419408
170	0x3c732262	0.0148397405
171	0xbd8da4c5	-0.06916193
172	0x3bbb9abb	0.0057252324
173	0xbd0740c2	-0.033020742
174	0x3cdfaad4	0.027303137
175	0x3ce5474f	0.027988104
176	0x3da164b2	0.07880534
177	0xbd1d554a	-0.038411416
178	0x3dc5e0f0	0.09662044
179	0x3d46901f	0.04847729
180	0xbd1aa5c6	-0.03775575
181	0x3d89d941	0.06730891
182	0xbd7efc87	-0.062252548
183	0xbd72fb23	-0.059321534
184	0xbd47e715	-0.04880436
185	0x3c6b84a5	0.014374887
186	0xbdc10806	-0.094253585
187	0xbd8dd9a5	-0.06926278
188	0x3d203591	0.039113585
189	0x3c77cc90	0.015124455
190	0x3b5ec091	0.003398929
191	0xbc16ee8e	-0.009212149
192	0xbd2ed600	-0.042684555
193	0x3b389b10	0.0028168596
194	0xbd46b4d9	-0.048512314
195	0xbda3df7f	-0.08001613
196	0x3c08451e	0.00831726
197	0xbd58c82c	-0.052925274
198	0xbdb0e176	-0.08636753
199	0x3d1e50e0	0.038651347
200	0x3ca391ce	0.019966986
201	0xbc4a80c0	-0.012359798
202	0x3d8a7d60	0.06762195
203	0xbd08e4ff	-0.033421513
204	0xbcb560ae	-0.022140827
205	0xbcfe8f74	-0.031074263
206	0xbd7fe9e6	-0.062478922
207	0x3d81998e	0.06328116
208	0x3ca5ff2a	0.020263273
209	0x3d313da9	0.043271694
210	0x3dba0e72	0.090847865
211	0x3caa00b5	0.02075229
212	0xbd53df9e	-0.05172693
213	0x3d729255	0.059221584
214	0xba757b40	-0.0009364374
215	0x3bcfed30	0.0063454136
216	0xbd55c2f4	-0.052187875
217	0xbcbb9cf3	-0.022901988
218	0x3c26aa13	0.010172385
219	0xbd3ba685	-0.045813102
220	0x3da8437f	0.08215999
221	0x3d42723a	0.047472216
222	0xbd16ed6a	-0.03684751
223	0x3c651786	0.013982659
224	0xbd30b8c2	-0.04314495
225	0x3b3d1f63	0.002885782
226	0xbceeaa7b	-0.029134026
227	0xbd93a9c3	-0.07210114
228	0xbc36d7a9	-0.011159816
229	0x3c456d72	0.01205002
230	0x3b8365d3	0.004009941
231	0x3cc86513	0.024462258
232	0x3cf6cf22	0.030128065
233	0xbd188e58	-0.037245125
234	0x3c6867f7	0.014184943
235	0x3dcb2f56	0.09921138
236	0xbcd0520b	-0.025429746
237	0xbcaa31e5	-0.020775745
238	0x3daaa66a	0.08332522
239	0xbc816175	-0.015793541
240	0xbcf52ece	-0.029929545
241	0x3d3e6dbe	0.046491377
242	0x3cabf7d8	0.020992205
243	0xbd8a17b2	-0.06742801
244	0xbd4cea23	-0.050027978
245	0x3c895ac1	0.016766908
246	0x3d46d084	0.0485387
247	0x3d55b51d	0.052174676
248	0xbb58ae2c	-0.00330628
249	0x3d82402c	0.06359896
250	0xbd910502	-0.07081033
251	0x3d927a13	0.0715219
252	0xbd7af3d0	-0.061267674
253	0x3da7acdf	0.081872694
254	0xbd264b26	-0.04059901
255	0xbc84e0a4	-0.016220398

layer_t_1.bias f4 [128]
0	0xbddb7492	-0.107155934
1	0xb942e5b3	-0.00018586851
2	0xbd552e14	-0.052045897
3	0xbd341491	-0.043964926
4	0x39d51399	0.00040641127
5	0xbca9710d	-0.02068379
6	0xbbed385e	-0.0072393855
7	0xbdbbd524	-0.09171513
8	0xbe052f03	-0.13006215
9	0x3ceedf8d	0.029159332
10	0x3d3c3292	0.045946665
11	0xbdcab64d	-0.09898052
12	0x3d59dd65	0.053189654
13	0xbcf57056	-0.029960793
14	0x3c8ecd71	0.017431946
15	0x3cb860d8	0.022507116
16	0xbd3a0b6e	-0.045421056
17	0xbdb25c3d	-0.08708999
18	0x3de9e7cd	0.114211656
19	0xbdfee986	-0.12446885
20	0x3ca04637	0.019564731
21	0xbbd25644	-0.006418975
22	0xbd463ecc	-0.04839973
23	0x3d96d83e	0.07365464
24	0x3c45fece	0.012084676
25	0xbdb5866c	-0.088635296
26	0xbba68663	-0.005081938
27	0x3da17fb7	0.07885688
28	0xbd0ddfa8	-0.034637123
29	0x3a9857c4	0.0011622836
30	0x3ca86922	0.020557944
31	0x3cfc8d12	0.030828986
32	0xbbb3a9f6	-0.0054829074
33	0xbd593e94	-0.053038195
34	0x3db07e96	0.08617894
35	0xbc0cdf0f	-0.008598103
36	0x3cd24bf1	0.025670977
37	0xbce70c72	-0.028204177
38	0xbd73d9b6	-0.059533797
39	0x3deb043f	0.11475419
40	0xbda30e21	-0.07961679
41	0xbd70f66d	-0.05882876
42	0x3d11f962	0.03563822
43	0x3cbdca87	0.023167862
44	0x3d6ed64f	0.05830985
45	0x3d511519	0.05104551
46	0xbd206db5	-0.039167125
47	0x3d8fa000	0.070129395
48	0xbda4630d	-0.08026705
49	0x3d4c8188	0.049928218
50	0x3d2807a0	0.041022897
51	0x3da172fc	0.0788326
52	0xbd435d84	-0.047696605
53	0xbd7f2045	-0.062286634
54	0xbd6d16d6	-0.057883106
55	0x3d51c609	0.05121425
56	0xbcb510a1	-0.022102656
57	0x3d525c21	0.051357392
58	0xbda1b073	-0.07894983
59	0x3cb3d4df	0.02195209
60	0x3ba5486e	0.0050440347
61	0xbc6822cc	-0.0141684525
62	0xbca220ab	-0.019790968
63	0x3bbf6a24	0.0058415104
64	0x3d35cbcf	0.04438382
65	0x3c8ea274	0.017411448
66	0xbd4ae589	-0.049535308
67	0x3d2f5e96	0.042814814
68	0x3ce05146	0.027382504
69	0x3cd94a04	0.026524551
70	0xbc6c8db8	-0.014438085
71	0xbdd4456c	-0.10364804
72	0xbc8f7de0	-0.017516077
73	0xbd4151df	-0.04719722
74	0xbd82aa0f	-0.06380092
75	0xbd64999f	-0.055810567
76	0xbad1decc	-0.0016011833
77	0x3bf1934f	0.007372297
78	0xb69c2a60	-4.6540954e-06
79	0x3d6095d8	0.054830402
80	0xbd439048	-0.04774502
81	0x3c269d20	0.010169297
82	0x3d199f69	0.03750554
83	0xbc3e5d73	-0.01161896
84	0xba235336	-0.0006230356
85	0x3d190030	0.037353694
86	0xbd87a18a	-0.06622608
87	0xbdb7f21a	-0.08981724
88	0xbd8f1a06	-0.069873855
89	0xbd8dd72e	-0.06925808
90	0xbdaa918c	-0.08328542
91	0x3d9de0fa	0.077089265
92	0x3b53f25a	0.0032340498
93	0xbddd1f1c	-0.10796949
94	0x3d96eb25	0.07369069
95	0x3cd4758b	0.025934955
96	0x392ff4b4	0.0001678046
97	0xbd7ebc6a	-0.062191404
98	0x3d2acb1a	0.0416976
99	0x3de0a4aa	0.10968907
100	0x3d3c6873	0.045998048
101	0x3c216b46	0.009852236
102	0xbcba6ffe	-0.02275848
103	0x3d9e4056	0.07727115
104	0x3d861ddb	0.06548663
105	0xbd69c496	-0.057072245
106	0xbd824358	-0.06360501
107	0xbd84a9fa	-0.06477733
108	0xbd458506	-0.048222564
109	0xbd95082e	-0.07276951
110	0x3d6b4da5	0.057447094
111	0xbd283bfa	-0.041072823
112	0xbdc2b068	-0.09506303
113	0xbd0b51b9	-0.034013484
114	0xbc9601d8	-0.018311426
115	0x3dba075f	0.09083437
116	0xbd8df03c	-0.06930587
117	0xbd9c074f	-0.076185815
118	0x3d5efe1e	0.054441564
119	0xbd35e186	-0.04440453
120	0x3ce36836	0.027759653
121	0xbdaadc43	-0.08342793
122	0xbcacfd32	-0.021116827
123	0xbcf33d85	-0.02969242
124	0xbd3fc03e	-0.046814196
125	0xbd8a585e	-0.06755136
126	0x3d1b5609	0.037923846
127	0x3d407af6	0.046992265

layer_t_2.weight f4 [128, 128]
0	0x3ca77149	0.02043976
1	0x3d4a1efb	0.04934595
2	0x3c05a96e	0.008158071
3	0x3c094577	0.008378378
4	0xbb6c351d	-0.00360424
5	0x3d8807cb	0.066421114
6	0xbd970fda	-0.0737607
7	0x3d0ab871	0.033867303
8	0x3dd6e5be	0.104930386
9	0x3da25e11	0.07928098
10	0xbd0ea3b7	-0.0348241
11	0x3d5fe12a	0.054658093
12	0x3cc3562a	0.023844797
13	0x3d89d815	0.067306675
14	0xbc136e04	-0.008998398
15	0xbcc4662d	-0.023974502
16	0x3d6ea308	0.058260947
17	0x3c81d912	0.015850578
18	0x3d0c43b8	0.03424427
19	0xbcada8b6	-0.021198612
20	0xb90bb045	-0.00013321739
21	0xbc99c55d	-0.018770868
22	0x3d122c9b	0.03568707
23	0x3d2bff73	0.041991662
24	0xbb9f4181	-0.0048601036
25	0xba0c1987	-0.000534438
26	0xbb2eed02	-0.002669156
27	0xbcc24750	-0.023715645
28	0xbd206497	-0.03915843
29	0xbcaf51ae	-0.021401253
30	0xbe07bf3d	-0.13256545
31	0xbd322272	-0.04348988
32	0x3d0ab8f8	0.033867806
33	0x3d1cc00d	0.03826909
34	0xbd3de5f3	-0.046361875
35	0x3cff0bc6	0.031133544
36	0x3d320bb4	0.043468192
37	0xbc83819d	-0.016053015
38	0x3d465836	0.04842397
39	0xbda24990	-0.07924187
40	0xbd6b91dc	-0.05751215
41	0xbd2e7e3b	-0.04260085
42	0xbbcdf534	-0.006285334
43	0xbd9868a0	-0.07441831
44	0x3d0245fe	0.03180503
45	0xbc16f23e	-0.0092130285
46	0xbd9c6135	-0.07635728
47	0xbdde1e4d	-0.10845623
48	0x3d5cc982	0.05390311
49	0xbdec195f	-0.11528277
50	0x3d5190d5	0.051163513
51	0x3d68c11d	0.056824792
52	0x3d676687	0.056494262
53	0xbd9c78ab	-0.07640203
54	0xbd2cd8d2	-0.042198963
55	0x3d8f4bcc	0.06996879
56	0xbd5ecbc4	-0.054393545
57	0xbd0e74cb	-0.03477935
58	0xbd1b43e5	-0.037906546
59	0xbdb71024	-0.089386255
60	0xbd8811f3	-0.066440485
61	0x3db56c0e	0.088585004
62	0xbd5c818d	-0.053834487
63	0x3cc965ce	0.024584677
64	0x3d40c546	0.047063135
65	0xbdfa522f	-0.122227065
66	0x3d497a1c	0.04918872
67	0xbca1c784	-0.019748457
68	0xbdd41c17	-0.1035692
69	0xbc756bfe	-0.014979361
70	0xbd64c925	-0.05585589
71	0xbdb8105e	-0.08987497
72	0xbd6c2472	-0.057651944
73	0x3d9ac3c8	0.075568736
74	0xbdbf04bd	-0.09327076
75	0xbd5e6956	-0.054299675
76	0x3d4a49de	0.04938685
77	0x3d9c44cf	0.07630312
78	0xbd3c11df	-0.04591548
79	0x3c99e673	0.018786645
80	0x3b4da37c	0.0031377962
81	0x3d081644	0.03322436
82	0xbd89c897	-0.067277126
83	0x3cd27d94	0.025694646
84	0x3d0c9710	0.034323752
85	0x3d427f0d	0.047484446
86	0x3d4ae1ec	0.049531862
87	0x3cbadbd3	0.022809898
88	0xbd6fe947	-0.05857208
89	0xbd81c214	-0.063358456
90	0xbd8a55c1	-0.067546375
91	0xbe026f8d	-0.12737866
92	0xbda1e8bf	-0.07905721
93	0x3d5721c4	0.052522436
94	0x3d3e70d9	0.04649434
95	0xbd9cda85	-0.07658867
96	0xbd1777cd	-0.036979485
97	0xbda1e1be	-0.07904385
98	0x3d06b150	0.032883942
99	0x3dac9ee0	0.084287405
100	0x3d49cc42	0.04926706
101	0xbd1586ab	-0.036505383
102	0x3ccf1282	0.02527738
103	0xbdbdfb31	-0.092764266
104	0x3d4b00ce	0.049561314
105	0x3cae3383	0.021264797
106	0x3d86b3b2	0.06577243
107	0xbdfcbc32	-0.12340583
108	0x3d319d61	0.04336298
109	0x3d76be1f	0.060239907
110	0xbd8e9425	-0.0696185
111	0x3d3bd631	0.045858566
112	0xbc43ab53	-0.011942702
113	0xbcf880e8	-0.030334905
114	0xbd038324	-0.032107487
115	0x3cd3b8ba	0.02584492
116	0x3d79d518	0.060994238
117	0x3d5663da	0.05234132
118	0x3d50ccfe	0.050976746
119	0xbd62d582	-0.0553794
120	0xbc03268d	-0.008004797
121	0x38697d38	5.5668148e-05
122	0xbcc44353	-0.023957884
123	0xbd72e27a	-0.059298016
124	0xbc60d2d8	-0.013722144
125	0xbd44fa86	-0.04809048
126	0xbc0f820a	-0.008759031
127	0xbda6498a	-0.08119495
128	0x3dc04d12	0.093897
129	0xbafc752b	-0.0019260993
130	0xbcf42974	-0.029804923
131	0x3d7c5447	0.06160381
132	0xbd8953c9	-0.06705434
133	0xbd508795	-0.05091055
134	0xbded3376	-0.11582081
135	0x3d0f54e7	0.03499308
136	0x3d4cf814	0.050041273
137	0xbb930983	-0.004487218
138	0xbd03b820	-0.032158017
139	0xbd307ca2	-0.04308761
140	0x3cba5003	0.02274323
141	0x3d1b3373	0.037890863
142	0x3d527388	0.05137971
143	0xbdc75ff3	-0.09735098
144	0x3d8ea827	0.06965666
145	0xbd5e3cb5	-0.054257113
146	0x3d608662	0.054815657
147	0x3c3dc0ac	0.011581581
148	0xbdb3d157	-0.08780163
149	0x3d63d9f5	0.055627782
150	0xbd98bebb	-0.07458254
151	0x3baaa9c8	0.005208228
152	0x3d85e3ef	0.065376155
153	0x3d5370be	0.05162119
154	0x3dcabd0a	0.098993376
155	0xbc8c0779	-0.017093407
156	0x3b96f3e6	0.0046067117
157	0xbd65deed	-0.0561208
158	0xbd841380	-0.06449032
159	0xbd56aed2	-0.052412815
160	0xbd92036a	-0.071295574
161	0xbd3da28c	-0.046297595
162	0xbcaba32a	-0.020951826
163	0x3d474232	0.048647113
164	0xbbf06c9c	-0.007337166
165	0x3d0d9240	0.034563303
166	0x3d4b11c0	0.049577475
167	0xbdff7614	-0.124736935
168	0x3c97639d	0.018480117
169	0xbd51cfb9	-0.05122349
170	0xbdf00b8e	-0.11720954
171	0xbddc0192	-0.10742487
172	0x3d8d11f9	0.06888194
173	0x3c23a355	0.009987672
174	0x3cdf2664	0.027239986
175	0xbd1f7703	-0.038931858
176	0x3c6db0b9	0.014507466
177	0xbddd492c	-0.10804972
178	0x3d93b0b4	0.07211438
179	0xbd85e52c	-0.06537852
180	0x3b3973cd	0.0028297782
181	0xbca5ead7	-0.020253582
182	0xbdb3c82f	-0.08778416
183	0xbd2d5d3b	-0.04232524
184	0xbd170943	-0.036874067
185	0x3d439d26	0.04775729
186	0x3cc88d2c	0.024481378
187	0xbd6a8c4f	-0.057262715
188	0xbda7890f	-0.08180439
189	0xbd4caff5	-0.049972493
190	0xbc5ae654	-0.013360579
191	0x3d2db2da	0.042406894
192	0xbd157609	-0.03648952
193	0xbd4ca7e3	-0.049964797
194	0xbd6e5127	-0.05818286
195	0xbd530ece	-0.05152779
196	0x3cba9f6a	0.022781093
197	0x3c90ca1d	0.0176745
198	0xbc9d911a	-0.019234229
199	0xbc9dece0	-0.01927799
200	0xbd98ef5b	-0.074675284
201	0xbd7e7a0c	-0.06212811
202	0x3bd590ff	0.006517529
203	0xbc805965	-0.015667627
204	0xbdae356f	-0.085062854
205	0xbcf6be07	-0.030119909
206	0x3d9870ac	0.074433655
207	0xbcaa38c2	-0.020779017
208	0xbc8e32a3	-0.01735813
209	0xbd843e1f	-0.06457161
210	0xbd77a7ad	-0.060462642
211	0x3a01ac45	0.00049466296
212	0xbd8bdcc3	-0.06829216
213	0xbd4ce4b8	-0.05002281
214	0xbdc45b06	-0.09587674
215	0xbc8230ea	-0.015892465
216	0xbd1c374a	-0.038138665
217	0xbd2d0335	-0.042239387
218	0xbdaa30cf	-0.08310091
219	0xbd9eb2ec	-0.077489704
220	0xbd431ce5	-0.047634978
221	0xbc3dba5e	-0.011580078
222	0xbd86e5b8	-0.06586784
223	0x3ca6f3a3	0.020379847
224	0xbcb7a1e0	-0.022416055
225	0xbcffd813	-0.031230962
226	0xbce7c591	-0.02829245
227	0xbd97b361	-0.07407261
228	0xbd92722d	-0.071506836
229	0x3b1c4292	0.002384339
230	0x3d4277d7	0.04747757
231	0xbd265c5a	-0.040615417
232	0xbc80b720	-0.01571232
233	0xbd2be672	-0.041967817
234	0xbd8945d1	-0.067027695
235	0xbdc1d8d7	-0.09465187
236	0x3c95e2fa	0.018296707
237	0xbd8d1830	-0.06889379
238	0xbda4f9f1	-0.08055485
239	0xbd626f31	-0.05528182
240	0xbbc48c51	-0.0059981723
241	0x3d418100	0.047242165
242	0xbd70e839	-0.058815215
243	0xbd87b625	-0.06626538
244	0xbc94cbcc	-0.018163584
245	0xbdd0d98b	-0.10197743
246	0x3b9893d2	0.0046562934
247	0x3d5932fb	0.053027134
248	0x3d412fc5	0.047164697
249	0x3ca55884	0.02018381
250	0xbd3e81bf	-0.046510454
251	0xbc9698e8	-0.018383458
252	0x3d940a3c	0.072285146
253	0xb7e1c8e0	-2.691563e-05
254	0xbda8d931	-0.08244551
255	0x3cf06402	0.029344562

layer_t_2.bias f4 [128]
0	0x3ce89031	0.028389068
1	0xbdf181cd	-0.11792336
2	0xbce5a468	-0.028032497
3	0xbdf50869	-0.11964495
4	0xbc810316	-0.015748542
5	0x3d86becc	0.0657936
6	0xbc80fe8e	-0.015746381
7	0x3b6a324b	0.0035735543
8	0xbde38040	-0.11108446
9	0xbdc1ea9f	-0.094685785
10	0xbd08bd20	-0.03338349
11	0xbd15e1f8	-0.036592454
12	0xbd889560	-0.06669116
13	0xbcc1b3a0	-0.023645222
14	0x3c7bcfc7	0.015369362
15	0xbdc522db	-0.09625789
16	0xbd9ff1da	-0.078098014
17	0xbc9e1a99	-0.019299792
18	0x3d46bf10	0.048522055
19	0xbd7ffb76	-0.06249567
20	0xbd6ef43d	-0.058338393
21	0xbc2f47e6	-0.010698294
22	0xbd398eac	-0.045302078
23	0xbc0ace95	-0.008472105
24	0xbdcc80a8	-0.09985477
25	0xbdcd82cb	-0.100347124
26	0xbbd390a4	-0.0064564515
27	0xbc929f85	-0.01789833
28	0xbd35b683	-0.04436351
29	0xbdd5622d	-0.10419116
30	0xbe04649b	-0.12929003
31	0xbdbc4f45	-0.09194807
32	0xbdc32f67	-0.09530526
33	0xbd2ea1bc	-0.04263471
34	0xbd5719d0	-0.05251485
35	0xbd76ced9	-0.06025586
36	0xbcb971ce	-0.022637274
37	0x3cad5ab1	0.02116141
38	0xbd380931	-0.04493064
39	0xbd9e498a	-0.0772887
40	0xbd832add	-0.0640466
41	0xbd1ace51	-0.037794415
42	0xbd64f927	-0.055901673
43	0xbdd48064	-0.10376051
44	0x3d61a3eb	0.055087965
45	0xbbf70c45	-0.0075393044
46	0xbd92bd74	-0.071650416
47	0x3c16305e	0.009166805
48	0x3d3b8314	0.045779303
49	0xbd71472f	-0.058905777
50	0xbc72bb5b	-0.014815177
51	0xbd79d465	-0.06099357
52	0xbe0871ba	-0.13324633
53	0xbc8f5911	-0.017498525
54	0x3b293959	0.0025821535
55	0x3cae470e	0.021274116
56	0xbd147d29	-0.036252175
57	0x3d168e98	0.03675708
58	0xbdca5e4c	-0.09881267
59	0xbdda49cd	-0.10658608
60	0xbdae2ccf	-0.0850464
61	0xbcb5a1e0	-0.022171915
62	0xbb690d9a	-0.0035561086
63	0x3c58d2ec	0.013233881
64	0xbde12856	-0.109940216
65	0xbdc2917d	-0.09500406
66	0x3d480012	0.048828192
67	0xbcc693d9	-0.024240421
68	0x3afb80f6	0.0019188214
69	0xbc2a5dae	-0.010398312
70	0x3d25638f	0.04037815
71	0x3d941e2a	0.07232316
72	0xbd94a1dc	-0.07257435
73	0xbd3af48a	-0.045643367
74	0xbe0ffa99	-0.14060439
75	0xbcbbf536	-0.022944074
76	0xbdcae2cc	-0.09906539
77	0xbe04ebbd	-0.12980552
78	0x3d8bcc09	0.06826026
79	0xbe10ec51	-0.14152648
80	0x3c3b6dd2	0.011439757
81	0xbd2a5022	-0.041580327
82	0xbd690567	-0.056889918
83	0xbd910377	-0.07080739
84	0xbdd65b2a	-0.10466607
85	0x3c057ac8	0.008146949
86	0xbdc0b44a	-0.094093874
87	0xbc92e2d8	-0.017930433
88	0x3d3d6f78	0.046248883
89	0xbda575e1	-0.08079124
90	0x3d4ed529	0.050496254
91	0x3d705949	0.0586789
92	0xbdeae3c7	-0.11469226
93	0x3d0aea76	0.033915006
94	0x3c025a41	0.0079560885
95	0xbd73c273	-0.059511613
96	0xbdc86a44	-0.097858936
97	0x3d81769a	0.063214496
98	0xbcd00a0d	-0.025395418
99	0x3caea7c0	0.021320224
100	0x3963e37f	0.00021733156
101	0xbd3d26cb	-0.046179574
102	0x3d09d793	0.033652853
103	0x3c8688e2	0.016422693
104	0xbcb03c01	-0.021512987
105	0xbc6dfb1d	-0.014525202
106	0xbc04e6d5	-0.008111675
107	0x3d69a2be	0.05703997
108	0xbdc24c3a	-0.09487195
109	0x3ccd37ce	0.025051024
110	0xbde2b38a	-0.110694006
111	0x3bd5192f	0.0065032463
112	0x3c639380	0.013890147
113	0xbd0f2303	-0.0349455
114	0xbd9375e9	-0.07200224
115	0xbd1c6d8b	-0.038190406
116	0x3cbf896c	0.023380958
117	0x3c8bbd2e	0.017057981
118	0x3cbb58f8	0.022869572
119	0xbc805416	-0.015665095
120	0xbca84970	-0.02054283
121	0x3b3fefbd	0.0029287182
122	0xbdcd9e6d	-0.10039983
123	0xbdccf643	-0.10007908
124	0xbd744df8	-0.05964467
125	0x3cf4d768	0.02988787
126	0xbe00db74	-0.12583715
127	0x3d4a9e3a	0.049467303

layer_out_1.weight f4 [128, 128]
0	0xbca070f7	-0.019585116
1	0x3b6348bf	0.0034680811
2	0x3d04610f	0.032319125
3	0xbd3b8d93	-0.045789313
4	0x3b9e3858	0.004828494
5	0x3ca81ce5	0.02052159
6	0xbddc980e	-0.1077119
7	0xbdcc79bf	-0.09984159
8	0xbd5c3c63	-0.053768527
9	0x3c662ce5	0.01404879
10	0x3d3ad62c	0.045614406
11	0x3cef47c6	0.029209029
12	0x3d8f894b	0.070086084
13	0x3d098686	0.033575557
14	0x3d48a10d	0.048981715
15	0x3c3f7cec	0.011687499
16	0xbdc851cf	-0.09781229
17	0xbd91dd08	-0.071222365
18	0x3d46c7e2	0.048530467
19	0xbd32e5c5	-0.043676157
20	0xbcb1d66e	-0.021708693
21	0xbd1eac5c	-0.038738593
22	0xbdd4f6af	-0.10398614
23	0x3cd874cd	0.026422882
24	0xbd820c9a	-0.0635006
25	0xbbcbf2b5	-0.0062240013
26	0x3d1b11d1	0.037858788
27	0x3ce5b996	0.028042596
28	0x3cae7ec1	0.021300675
29	0x3d048c8d	0.032360602
30	0xbdaf2e1d	-0.08553717
31	0x3b0fa36d	0.0021917478
32	0xbd5b1b28	-0.053492695
33	0x3d1e3719	0.038626764
34	0x3d558ca4	0.05213608
35	0xbb2aefff	-0.002608299
36	0x3d9f5d40	0.07781458
37	0xbd8749c6	-0.06605868
38	0xbda0d3c2	-0.078528896
39	0x3da4b57a	0.080424264
40	0xbd5c2d98	-0.05375442
41	0xbd72ac7b	-0.05924652
42	0xbcc1b04d	-0.023643637
43	0xbd198b81	-0.037486557
44	0x3db259e7	0.08708554
45	0xbdd4a205	-0.10382465
46	0xbdf19e63	-0.11797788
47	0x3d698390	0.057010233
48	0xbc28d026	-0.010303533
49	0x3d76762b	0.060171288
50	0xbd185944	-0.037194505
51	0xbd45785a	-0.04821048
52	0xbd34b218	-0.044115156
53	0x3d6af535	0.057362754
54	0x3b6c3832	0.0036044237
55	0x3d6e5907	0.05819037
56	0xbc6a0b7a	-0.014284963
57	0xbcc68be1	-0.024236621
58	0xbd1584a0	-0.036503434
59	0x3bfe4116	0.0077592237
60	0x3ddce08a	0.10785015
61	0xb947f7cf	-0.00019070435
62	0x3d298578	0.04138705
63	0x3e136dbc	0.14397329
64	0x3cf7626b	0.030198297
65	0x3d23e35a	0.04001174
66	0x3ccd347d	0.025049442
67	0xbe0234de	-0.1271548
68	0x3d4cb535	0.0499775
69	0xbdb43651	-0.087994225
70	0x3d4cb66d	0.049978662
71	0xbb280624	-0.0025638426
72	0x3d09339e	0.03349649
73	0x3ca29a74	0.01984904
74	0xbaa36f8a	-0.0012469154
75	0xbc39d828	-0.01134304
76	0x3d86001d	0.0654299
77	0x3d49a7bf	0.04923224
78	0x3d962266	0.0733078
79	0xbd54209e	-0.05178892
80	0xbdd62378	-0.10455984
81	0xbd69b2e1	-0.057055358
82	0x3cf08f49	0.029365199
83	0xbc3d529e	-0.011555342
84	0xbdd6e1f6	-0.104923174
85	0xbd3045ec	-0.043035433
86	0x3dbe0bb4	0.09279576
87	0xbd89cbfb	-0.06728359
88	0x3c80aa61	0.015706243
89	0x3cc8ce71	0.024512501
90	0x3d00eeee	0.03147786
91	0x3c533a9a	0.01289239
92	0xbd71a1e3	-0.058992278
93	0x3c0bb082	0.008525969
94	0x3d8cb615	0.06870667
95	0x3d069c53	0.032863926
96	0x3cf37b59	0.029721903
97	0xbd1ef4ab	-0.038807552
98	0xbcf0dbc1	-0.029401662
99	0x3d52f7d4	0.05150588
100	0xbd553c8b	-0.05205969
101	0xbcce0a3b	-0.025151363
102	0x3d131d2b	0.03591649
103	0x3d1b3d88	0.037900478
104	0x3de28ae1	0.11061645
105	0xbc1bb269	-0.0095029855
106	0x3c31985b	0.010839547
107	0xbdfc1545	-0.12308744
108	0x3c5de57c	0.013543483
109	0x3c8189f3	0.01581285
110	0x3d51b6c3	0.051199686
111	0xbdae707b	-0.08517548
112	0xbd7ac9e6	-0.0612277
113	0xbd8777a0	-0.066146135
114	0x3ad08dd8	0.0015911413
115	0xbd7bd4d2	-0.06148226
116	0x3c8957c6	0.016765486
117	0x3d4355e4	0.047689334
118	0x3d669ac3	0.056299936
119	0x3cf1b1a9	0.02950366
120	0x3cbafd57	0.02282588
121	0xbd7d9f5f	-0.061919566
122	0xbd288d62	-0.04115046
123	0xbd252634	-0.040319636
124	0x3ca1f1f7	0.019768698
125	0xbdb5a206	-0.08868794
126	0xbd20abae	-0.039226227
127	0x3d3a4d62	0.045483954
128	0x3db32628	0.08747512
129	0xbcc759bd	-0.024334783
130	0xbd00d0d4	-0.031449154
131	0x3cf97662	0.030451957
132	0xbd9b8ccd	-0.07595215
133	0x3cd50631	0.026003929
134	0xbc044c14	-0.008074779
135	0x3cc513c7	0.024057282
136	0xbca56761	-0.020190896
137	0x3d976db9	0.07393975
138	0x3d78e65d	0.060766567
139	0xbd65ce6d	-0.056105066
140	0x3d357786	0.04430344
141	0xbdb23dd4	-0.08703199
142	0xbd45c1fe	-0.04828071
143	0x3d86552e	0.065592155
144	0xbdfd89e0	-0.12379813
145	0xbd8bf42b	-0.06833681
146	0x3d598559	0.053105686
147	0xbd97ab66	-0.074057385
148	0xbd677351	-0.05650646
149	0xbcfff181	-0.031243088
150	0xbdf4177f	-0.11918544
151	0xbdd1e881	-0.10249425
152	0x3d894a1e	0.0670359
153	0x3d15346e	0.036426954
154	0xbd7e3b5a	-0.06206832
155	0x3db22279	0.086979814
156	0x3d1ee60e	0.038793616
157	0xbd0790d5	-0.033097107
158	0x3c3c7626	0.011502778
159	0xbd2bc824	-0.041938916
160	0xbd8d41d3	-0.068973206
161	0xbd37d05d	-0.044876445
162	0xbd3f0439	-0.046634886
163	0x3d1088d3	0.035286736
164	0xbd86bd30	-0.065790534
165	0x3db3dec4	0.087827235
166	0xbdbf004f	-0.09326231
167	0x3c3a4333	0.011368561
168	0xbc2993b0	-0.010350153
169	0x3d9a5bfc	0.07537076
170	0xbc568e07	-0.013095385
171	0xbce50e8c	-0.027961038
172	0xbd082235	-0.033235747
173	0xbd66f877	-0.0563893
174	0x3c2c2b71	0.010508404
175	0x3d9735db	0.07383319
176	0xbbc41aa7	-0.0059846225
177	0x3cf74e0c	0.030188583
178	0xbbb963b0	-0.0056576356
179	0x3db41930	0.08793867
180	0x3da8dad1	0.08244861
181	0xbcc3ced2	-0.02390233
182	0x3ddbb0b1	0.107270606
183	0xbd197af5	-0.037470777
184	0x3d8bd373	0.0682744
185	0x3d582606	0.052770637
186	0x3d8dc0bb	0.06921526
187	0x3dcc7441	0.09983111
188	0x3db1be41	0.08678866
189	0x3bde3dcd	0.0067822696
190	0x3d5ed03f	0.054397818
191	0x3e08066f	0.13283704
192	0x3ca14ef9	0.019690977
193	0xbc452395	-0.012032409
194	0x3c65738c	0.014004599
195	0xbcfee7dd	-0.03111642
196	0x3c73e638	0.014886431
197	0xbc811e09	-0.015761392
198	0xbc91a948	-0.017780915
199	0x3cc0faa8	0.023557022
200	0x3d803c24	0.06261471
201	0x3e00e8ac	0.12588757
202	0xbd0f8205	-0.035036106
203	0xbda184a5	-0.07886628
204	0x3d90debf	0.070737354
205	0x3d90723c	0.070530385
206	0x3d4b2491	0.04959542
207	0xbd177b6a	-0.03698293
208	0x3d964102	0.07336618
209	0xbd85198e	-0.06499015
210	0xbd0ab1c6	-0.033860944
211	0x3da71470	0.08158195
212	0x3db49f7e	0.08819483
213	0xbd91986b	-0.071091495
214	0x3d0ad852	0.033897705
215	0xbd67b1f6	-0.0565662
216	0x3c47736a	0.012173513
217	0xbd07e18d	-0.033174086
218	0xbcff1a38	-0.031140432
219	0xbb7eddfa	-0.0038889633
220	0x3cf5c33b	0.03000032
221	0xbd1ae85a	-0.037819244
222	0xbbb6130f	-0.005556471
223	0xbb3f5bd5	-0.0029199023
224	0x3e039cf9	0.12852849
225	0xbd0765e9	-0.033056173
226	0x3d921aa0	0.071339846
227	0x3d9b796f	0.07591521
228	0xbd909194	-0.07059017
229	0x3d2104f5	0.039311368
230	0xbd90d699	-0.07072181
231	0x3ce72664	0.028216548
232	0x3d70cdeb	0.05879013
233	0x3d0635d2	0.03276617
234	0xbcb148b1	-0.021641107
235	0x3da3f55e	0.080057845
236	0xbcac42b8	-0.021027908
237	0xbd0a5a01	-0.03377724
238	0xbd439540	-0.047749758
239	0x3d14d16c	0.036332533
240	0xbd88f016	-0.06686418
241	0x3d894e7c	0.06704423
242	0xbc460071	-0.012085066
243	0x3c957ce2	0.018248025
244	0xbd9c5d7d	-0.07635019
245	0xbdd2f7e5	-0.103011884
246	0xbcaf07ba	-0.021365989
247	0xbdfb1884	-0.12260535
248	0x3dc6f175	0.09714023
249	0x3d419faa	0.04727141
250	0x3ba28825	0.0049600773
251	0xbc93a451	-0.018022688
252	0x3d011e2c	0.031522915
253	0xbd71e4a8	-0.059055954
254	0xbca419ee	-0.020031895
255	0xbd8aed6f	-0.06783568

layer_out_1.bias f4 [128]
0	0x3dbb18cf	0.09135591
1	0xbbd58b70	-0.0065168664
2	0xbcc518f7	-0.024059756
3	0x3d21f3d0	0.03953916
4	0xbd76a458	-0.060215324
5	0x3d361351	0.044452015
6	0xbd438c76	-0.047741376
7	0xbc59086c	-0.013246637
8	0x3d3bba73	0.04583211
9	0x3c726c1e	0.014796285
10	0xbc527b57	-0.012846789
11	0xbd5b9735	-0.053611
12	0xbc435937	-0.011923126
13	0x3d9cf390	0.07663643
14	0xbc79200c	-0.0152053945
15	0x3d4881f1	0.048952047
16	0x3c73c0cc	0.014877509
17	0x3d5f737f	0.054553505
18	0xbd04df0a	-0.03243927
19	0x3d7b2ee6	0.061324023
20	0xbd8e32b6	-0.06943266
21	0x3d2107dc	0.039314136
22	0x3d761844	0.060081735
23	0x3d683aa7	0.05669656
24	0xbbf59fa7	-0.0074958387
25	0xbd0c8d07	-0.03431418
26	0x3d84cbf7	0.06484216
27	0xbc7bcf86	-0.015369302
28	0xbc856f15	-0.01628832
29	0x3c8ed1f6	0.017434102
30	0xbdc19af3	-0.09453382
31	0x3d631cc0	0.05544734
32	0x3dce78e6	0.10081653
33	0xbc00a858	-0.007852636
34	0xbd972a4d	-0.07381115
35	0xbd656598	-0.05600509
36	0x3d682649	0.056677137
37	0xbc94591e	-0.0181089
38	0x3c15f67a	0.009153003
39	0xbde0d53c	-0.10978171
40	0x3adc8039	0.0016822881
41	0x3c517037	0.012783102
42	0xbbc17179	-0.0059034196
43	0x3d432b0a	0.047648467
44	0x3dd4507f	0.10366916
45	0xbd038438	-0.032108516
46	0x3d17d582	0.03706885
47	0xbcb89a96	-0.02253465
48	0x3da68bd7	0.08132141
49	0x3db09769	0.08622629
50	0xbd08d05c	-0.033401832
51	0x3d3434a0	0.0439955
52	0x3cd799ab	0.026318392
53	0xbc92a8c7	-0.017902745
54	0xbd343374	-0.043994382
55	0xbb1b7714	-0.00237221
56	0x3d2a2d66	0.0415472
57	0x3d4f1f1b	0.050566774
58	0x3d58b887	0.052910354
59	0xbd00487b	-0.031319123
60	0xbad168c6	-0.001597666
61	0x3cefe2ab	0.029282888
62	0x3dcbec53	0.09957185
63	0x3d92d13a	0.07168813
64	0xbc6b3cf2	-0.014357792
65	0xbd080d80	-0.033216
66	0xbd03fdf7	-0.03222462
67	0xbcef3f9c	-0.029205136
68	0xbb9d4e72	-0.004800611
69	0x3ded550f	0.11588489
70	0xba7e64e0	-0.00097043626
71	0xbcca6e55	-0.024710814
72	0xbcf21bfb	-0.029554358
73	0x3d5ce0ac	0.0539252
74	0x3dc02e1d	0.093837954
75	0x3c8c47a7	0.01712401
76	0x3d99da9b	0.07512399
77	0x3d8d97a8	0.06913692
78	0xbb78bf89	-0.003795596
79	0xbd277092	-0.04087884
80	0x3db26fc6	0.08712725
81	0x3d3b12a3	0.04567207
82	0xbd7d87e1	-0.061897162
83	0x3c534534	0.012894917
84	0x3d94583c	0.07243392
85	0x3d7cf61f	0.061758157
86	0x3cf06243	0.02934373
87	0xbcbe37bc	-0.023219936
88	0x3db72b26	0.08943777
89	0x3d64e992	0.055886813
90	0x3d4b6aa4	0.049662247
91	0xbd167fcd	-0.036742974
92	0x3d68ca29	0.05683342
93	0xbc52fe44	-0.012878004
94	0xbd88e1a1	-0.0668366
95	0xbd1f7292	-0.038927622
96	0xbc5540bd	-0.013015923
97	0xbcaa478e	-0.020786073
98	0xbd993fc0	-0.074828625
99	0x3d2f7176	0.042832814
100	0xbcb688bb	-0.022281995
101	0xbc31ecd6	-0.010859689
102	0xbc26df12	-0.01018502
103	0xbccb86ce	-0.024844553
104	0xbd53d0b0	-0.05171269
105	0xbd2c3ff2	-0.04205317
106	0xbd8cfb9a	-0.06883927
107	0xbd976a33	-0.07393303
108	0x3da6f03a	0.08151288
109	0x3d849b67	0.06474953
110	0x3c6f7377	0.014614931
111	0x3cf04bb5	0.029332975
112	0x3c198b35	0.009371568
113	0x3af4a8b0	0.0018665995
114	0x3cfd7f35	0.030944446
115	0xbe13a650	-0.14418912
116	0x3d8d4997	0.06898802
117	0x3d9187e3	0.071059965
118	0x3d8ede4e	0.06975995
119	0x3d11f90f	0.03563791
120	0x3d9faa73	0.077961825
121	0xbc96a436	-0.018388849
122	0xbd71017d	-0.05883931
123	0x3c8427d3	0.01613227
124	0x3dc239ea	0.094837025
125	0xbc17d04b	-0.0092659695
126	0x3cbd28c3	0.023090726
127	0xbd8ef922	-0.06981112

layer_out_2.weight f4 [53, 128]
0	0xbc7c3290	-0.015392914
1	0x3d03a22d	0.032137085
2	0x3d26868d	0.04065566
3	0x3d4ece34	0.05048962
4	0x3b3d5c29	0.0028894043
5	0x3dd62837	0.10456889
6	0x3ce211c4	0.027596362
7	0xbd74efb5	-0.059798915
8	0xbcf94dc1	-0.030432584
9	0xbde36550	-0.11103308
10	0xbcb361cc	-0.02189722
11	0x3cc61491	0.024179729
12	0x3d39bd84	0.04534675
13	0xbd23567e	-0.039877407
14	0xbbb582ab	-0.0055392585
15	0xbdd391b3	-0.10330524
16	0xbe10831b	-0.14112513
17	0x3cfd467d	0.0309174
18	0x3dca6670	0.0988282
19	0xbd54f6a1	-0.051993016
20	0x3d09bced	0.03362744
21	0x3c42d1ce	0.011890842
22	0xbcca4462	-0.02469081
23	0xbd523e62	-0.051329024
24	0x3d2a2232	0.041536517
25	0x3ce0e240	0.027451634
26	0x3d8bbf39	0.06823582
27	0x3dcc0a1b	0.09962865
28	0xbd10ece4	-0.035382167
29	0xbba494b3	-0.005022609
30	0x3cd1c112	0.025604758
31	0x3d65a4b6	0.056065284
32	0x3da8a936	0.082353994
33	0x3d051ec9	0.032500062
34	0x3bb90164	0.0056459177
35	0xbbcfff66	-0.0063475845
36	0x3d951205	0.072788276
37	0x3cb1f02b	0.021720966
38	0xbc7b4cfa	-0.015338177
39	0xbd001caf	-0.031277355
40	0x3d2c1c7f	0.042019363
41	0x3bb588d8	0.0055399947
42	0x3d860f82	0.06545927
43	0xbe16fa2c	-0.1474387
44	0x3c87e1b5	0.016587118
45	0xbdc4bd0d	-0.09606371
46	0x3d23ee6f	0.04002231
47	0xbccd498a	-0.02505948
48	0x3caee0e5	0.021347472
49	0x3d0921ec	0.033479616
50	0x3d522b7c	0.051311
51	0x3d2372db	0.039904457
52	0x3dc5008b	0.09619244
53	0xbc0592eb	-0.008152704
54	0x3d70b055	0.058761913
55	0xbd123939	-0.035699103
56	0xbd700e7a	-0.058607556
57	0x3ccc1b0d	0.024915243
58	0xbd4f9ba9	-0.05068556
59	0xbccc4f29	-0.02494009
60	0xbd49f8e3	-0.049309622
61	0xbda54aef	-0.08070933
62	0xbd3961a1	-0.04525912
63	0xbdad9c51	-0.084770806
64	0x3dc41150	0.095736146
65	0xbda4a96d	-0.08040128
66	0xbdd31f18	-0.10308665
67	0x3cace087	0.021103157
68	0x3d727afa	0.05919931
69	0x3d566cf8	0.052350014
70	0x3d67f83c	0.05663322
71	0xbd07dd5f	-0.0331701
72	0x3d678e1c	0.05653201
73	0x3c405643	0.011739316
74	0xbc1154ff	-0.008870362
75	0xbdc55c43	-0.09636738
76	0x3cec7cfc	0.028868191
77	0x3d6d633f	0.057955977
78	0xbc46533c	-0.012104806
79	0x3d96eda1	0.07369543
80	0xbd2f10ac	-0.04274051
81	0xbb087f34	-0.0020827772
82	0x3cef4416	0.02920727
83	0xbd713816	-0.05889138
84	0x3d1f2579	0.038854096
85	0xbd1940c0	-0.037415266
86	0xbd20e5e1	-0.03928173
87	0xbcaa8704	-0.020816334
88	0xbc871d15	-0.01649336
89	0x3dcb3907	0.099229865
90	0xbd0eadc9	-0.034833703
91	0x3d851ce6	0.064996526
92	0xbdf0f14d	-0.117647745
93	0xbcce54f6	-0.025186997
94	0x3adfec1a	0.0017083914
95	0xbddb08a1	-0.10695005
96	0x3cdfbab3	0.027310705
97	0xbd6b5883	-0.05745746
98	0xbccb8f4b	-0.0248486
99	0xbd849210	-0.06473172
100	0x3d81f947	0.06346374
101	0xbdaa8ab1	-0.083272345
102	0x3d8ad6ef	0.067792766
103	0xbcbdd978	-0.023174986
104	0xbd1a3bca	-0.037654676
105	0x3d702bb0	0.058635414
106	0xbd3418fb	-0.043969136
107	0xb9e7df05	-0.00044225916
108	0x3b48dbc2	0.0030648564
109	0x3d355294	0.044268206
110	0xbcf63b86	-0.03005768
111	0xbcb7eddb	-0.022452286
112	0xbcd8ca0a	-0.026463527
113	0x3c48d844	0.012258593
114	0xbc9fd0a5	-0.01950867
115	0x3ce5df43	0.028060561
116	0x3d65ca2e	0.056101017
117	0x3cf66c58	0.03008096
118	0x3d753246	0.059862398
119	0x3c32930b	0.010899316
120	0xbd5a5f6c	-0.053313658
121	0xbd904f00	-0.07046318
122	0x3d667385	0.05626251
123	0x3c754462	0.014969917
124	0xbd5c467f	-0.053778168
125	0x3cb1db73	0.021711087
126	0xbd8418a7	-0.064500146
127	0x3d17499d	0.036935437
128	0x3d6c78d8	0.057732433
129	0xbc7d0911	-0.015444056
130	0xbc6bef28	-0.014400281
131	0xbd3d2905	-0.046181697
132	0xbcd4c9eb	-0.025975188
133	0x3c4d6fba	0.012538845
134	0x3aea2bcc	0.0017865836
135	0x3cb3df24	0.021956988
136	0xbd2da0ce	-0.042389683
137	0x3cd499ad	0.025952185
138	0x3c33650b	0.0109493835
139	0xbc1e740a	-0.009671221
140	0xbcc48775	-0.023990372
141	0x3d350f38	0.044203967
142	0x3dbe2dff	0.09286117
143	0xbc961182	-0.018318895
144	0xbd907468	-0.07053453
145	0xbc83a456	-0.016069572
146	0xba93aaf9	-0.0011266164
147	0x3d8473b7	0.06467383
148	0x3d9b18df	0.07573103
149	0x3d68a8a7	0.056801464
150	0xbd4a390d	-0.049370814
151	0xbcb3f51c	-0.021967463
152	0x3d32b0e6	0.043625735
153	0x3be3a299	0.0069468734
154	0xbca83317	-0.020532174
155	0xbd5a4297	-0.05328616
156	0x3d8ee304	0.069768935
157	0x3d53977e	0.051658146
158	0x3d6b3ab2	0.057429023
159	0x3c40c370	0.011765346
160	0xbce8d3f4	-0.02842138
161	0xbd9b5e2d	-0.07586322
162	0xbd05c778	-0.03266093
163	0xbd9aa1a7	-0.07550364
164	0x3d285167	0.041093256
165	0x3d30559e	0.0430504
166	0x3da42665	0.08015136
167	0x3d8dc8e9	0.06923086
168	0xbc860c4f	-0.016363291
169	0xbca152a8	-0.019692734
170	0xbd2b18a8	-0.04177156
171	0xbdac50c3	-0.084138416
172	0x3c14464f	0.009049966
173	0xbd062847	-0.032753255
174	0x3d3bc50e	0.045842223
175	0x3d878d0f	0.06618702
176	0x3e003de4	0.1252361
177	0x3c79ee9c	0.015254643
178	0x3d415b53	0.047206234
179	0x3d2a9395	0.04164465
180	0x3cb9c966	0.022679042
181	0xbceff9ba	-0.029293884
182	0x3d601a7d	0.05471276
183	0x3bdf91e8	0.0068228133
184	0x3dbb3ace	0.091420755
185	0xbc9bef57	-0.019035025
186	0xbdb24b0b	-0.087057196
187	0x3de7032b	0.11279901
188	0x3d05a3af	0.032626804
189	0x3b6c868a	0.0036090934
190	0xbd5b65d5	-0.05356391
191	0xbcdf8957	-0.027287168
192	0xbd3a733a	-0.045520045
193	0xbb57224f	-0.0032826846
194	0xbbd6c68b	-0.00655443
195	0xbbb25674	-0.005442435
196	0xbd06ad6e	-0.03288024
197	0xbd30183c	-0.04299186
198	0x3c686a0b	0.014185439
199	0xbd6fc3be	-0.058536284
200	0xbd41c53b	-0.047307234
201	0xbd8c5edc	-0.068540305
202	0xbc31b370	-0.010846004
203	0x3da7a1e8	0.08185178
204	0x3dfadbc3	0.122489475
205	0xbc878308	-0.016541973
206	0xbdc0d233	-0.09415092
207	0x3c2d34fe	0.010571716
208	0xbd45f123	-0.04832567
209	0xbe16dfd5	-0.14733823
210	0xbc917712	-0.017756972
211	0xbda5f104	-0.08102611
212	0xbd5c5440	-0.053791285
213	0xbc904a71	-0.017613621
214	0x3c9e8d47	0.019354476
215	0xbad57afd	-0.0016287264
216	0xbc95e79c	-0.018298917
217	0xbd148a43	-0.03626467
218	0x3d867a76	0.06566326
219	0xbbaada5e	-0.0052140197
220	0x3d1d851e	0.03845703
221	0x3c03215a	0.008003557
222	0xbcfd183f	-0.03089535
223	0xbd1bec79	-0.038067315
224	0xbd900030	-0.07031286
225	0x3dc41d7c	0.09575936
226	0xbd8f101b	-0.06985494
227	0x3c7b642a	0.015343705
228	0x3d53c95f	0.051705714
229	0xbd0c4ae8	-0.034251124
230	0x3ccfb0a7	0.02535279
231	0x3d3f0f87	0.046645667
232	0x3d982e43	0.07430699
233	0xbce28d44	-0.027655251
234	0xbd2fa907	-0.042885806
235	0x3d86e61b	0.06586858
236	0xbc4fcfc4	-0.0126838125
237	0xbdad65b6	-0.084666654
238	0x3d973c3b	0.07384535
239	0x3d7b7170	0.06138748
240	0xb80bafb6	-3.3303826e-05
241	0x3d84a9bb	0.06477686
242	0xbcaaf6e1	-0.020869674
243	0x3cef2e91	0.02919701
244	0xbc2c90b3	-0.010532546
245	0xbca48ed2	-0.020087633
246	0xbde37b6f	-0.111075275
247	0x3d802bb7	0.06258338
248	0x3c41164a	0.011785099
249	0xbcd18c91	-0.025579723
250	0x3dfaffda	0.12255831
251	0xbc1bc36c	-0.009507041
252	0xbd25546e	-0.04036372
253	0xbd21b02b	-0.039474647
254	0xbd72ef3d	-0.059310187
255	0xbb632fb7	-0.0034665891

layer_out_2.bias f4 [53]
0	0xbbace8dd	-0.005276783
1	0xbb94c1cd	-0.0045397044
2	0x3a7b616a	0.0009589406
3	0xbac5b6a6	-0.0015084341
4	0xb90d7377	-0.00013489822
5	0xbbb0854b	-0.0053869835
6	0xbbae9175	-0.0053273984
7	0xbbd69fbd	-0.006549804
8	0x3b8afce5	0.004241573
9	0xbb0b0ab2	-0.0021216092
10	0x3b0f4253	0.00218596
11	0x3b5eeb22	0.0034014662
12	0x3b70d43d	0.0036747598
13	0xb9f9adb7	-0.0004762241
14	0xbb75f303	-0.003752888
15	0xbb7e3a4c	-0.0038792072
16	0x3ab6fb17	0.0013960329
17	0x3b64d747	0.0034918354
18	0x3ba46a68	0.0050175674
19	0x3a8bc12a	0.0010662426
20	0x3b8e283e	0.0043382933
21	0xbbcda70d	-0.0062760175
22	0xbc13b196	-0.009014508
23	0x3b73c452	0.0037195873
24	0x3bfc8fe6	0.0077075837
25	0x3c24c86d	0.010057551
26	0x3a417398	0.00073795905
27	0xbc4b30b5	-0.012401749
28	0x39fbf1ed	0.000480547
29	0x3b1d0a31	0.0023962373
30	0xbaa80382	-0.0012818428
31	0x3b75d341	0.003750995
32	0x3bc3c181	0.005973995
33	0xbb233d80	-0.0024908483
34	0xbb16ab37	-0.0022990236
35	0xbadbc8b9	-0.0016768194
36	0x3b314f18	0.00270552
37	0x3a23add7	0.00062438607
38	0x3ab7fe8d	0.0014037654
39	0xbbc24e18	-0.0059297197
40	0x3b766d5c	0.0037601804
41	0x3b11ad16	0.0022228411
42	0xbb87decc	-0.0041464325
43	0x39e6aaba	0.0004399622
44	0xbaeea09f	-0.0018205828
45	0xbb9b79ee	-0.0047447598
46	0x3b2ddf21	0.00265307
47	0x3bf41e02	0.0074498663
48	0x3b627703	0.00345558
49	0xbb1dcf7b	-0.0024079967
50	0xbac8ac80	-0.0015310198
51	0xba07823f	-0.00051692495
52	0xba36c77a	-0.00069724733
