results/DDPM/NUM_LAYERS_TRANSFORMER/2/model_final.pth (torch, 999059 bytes, 38 tensors)

layer_x.weight f4 [128, 53]
0	0x3e000b6a	0.12504354
1	0x3d3b6d08	0.045758277
2	0xbca3a362	-0.019975368
3	0xbe390d05	-0.18071373
4	0x3e10dd3a	0.14146891
5	0xbd11e837	-0.035621848
6	0x3dcb502c	0.09927401
7	0xbc4f69ca	-0.012659499
8	0x3c5b3dcd	0.013381434
9	0xbe0039e2	-0.1252208
10	0x3d46b308	0.04851058
11	0xbdc40474	-0.09571162
12	0xbe1fbeba	-0.156001
13	0x3e3883ff	0.18019103
14	0xbe70c2ac	-0.23511761
15	0xbd5b67c0	-0.05356574
16	0xbd67ae0b	-0.056562465
17	0x3d953e9e	0.07287334
18	0xbd50225c	-0.050814018
19	0x3e12897c	0.14310259
20	0xbcef3c19	-0.029203461
21	0xbd8ba7ed	-0.06819139
22	0xbdf6f7b3	-0.120589636
23	0xbdbd6ec7	-0.09249645
24	0xbdbeb121	-0.093111284
25	0x3c6e12ec	0.0145308785
26	0x3cafd94b	0.021465918
27	0xbdc76a6c	-0.09737095
28	0x3d729463	0.059223544
29	0x3e347cc5	0.17625721
30	0x3e1fdb5c	0.15611023
31	0xbd2db66d	-0.042410303
32	0xbc8a0c14	-0.016851462
33	0xbdf62244	-0.120182544
34	0xbe1af7bc	-0.15133566
35	0x3b8ba6d8	0.0042618327
36	0xbd726b19	-0.059184168
37	0xbdbca9ff	-0.09212112
38	0xbd828646	-0.06373267
39	0x3b35197c	0.0027633598
40	0x3cd535f4	0.026026703
41	0x3dac5c02	0.084159866
42	0x3c6947a7	0.014238275
43	0xbc4685b5	-0.012116839
44	0xbd770cc3	-0.060314905
45	0xbae163ba	-0.0017195859
46	0x3e1a56a7	0.15072118
47	0xbd424af0	-0.047434747
48	0x3bf24004	0.007392885
49	0x3db42e75	0.087979235
50	0x3dc2f3fc	0.095191926
51	0x3dad73ae	0.0846933
52	0xbc934c14	-0.017980613
53	0x3dad8ca9	0.084740944
54	0x3d6e7be2	0.058223613
55	0xbdc7a523	-0.09748294
56	0x3c44959f	0.011998563
57	0xbdea8923	-0.11451938
58	0xbd5e6c93	-0.054302763
59	0x3dc66adb	0.0968835
60	0x3d1b224f	0.037874516
61	0xbdc31638	-0.09525722
62	0xbd1574e8	-0.036488444
63	0xbdd43ecd	-0.10363541
64	0xbd8bc229	-0.068241425
65	0x3cbf5f95	0.023361007
66	0xbc45af8d	-0.01206578
67	0xbdd32f91	-0.10311807
68	0x3aa47fad	0.0012550257
69	0x3dc21fcb	0.0947872
70	0x3d2724af	0.04080647
71	0x3c33e1b5	0.010979106
72	0xbe369e9a	-0.17833939
73	0x3d5cce66	0.053907774
74	0x3c9b612f	0.01896724
75	0xbc1c322f	-0.009533449
76	0xbd5843f2	-0.052799173
77	0x3ceb96b8	0.028758392
78	0x3dce8ad5	0.10085074
79	0xbdca7d6e	-0.09887205
80	0xbb1b9380	-0.002373904
81	0xbd101d12	-0.035183974
82	0x3e32e358	0.17469537
83	0x3d9710ad	0.073762275
84	0x3c8201aa	0.015869934
85	0xbe4d4e4d	-0.200494
86	0xbdb515af	-0.088420264
87	0x3d94234d	0.072332956
88	0xbc68d4ec	-0.014210921
89	0xbd20ec9a	-0.03928814
90	0xbdcf6497	-0.10126608
91	0xbd8e1f5a	-0.069395736
92	0xbdb7eedb	-0.08981105
93	0x3e148424	0.14503533
94	0xbd4f1c50	-0.05056411
95	0x3cebb89f	0.028774558
96	0x3dab280c	0.08357248
97	0x3d36334a	0.044482507
98	0x3cd1ede4	0.02562613
99	0x3dbfd7af	0.0936731
100	0x3c888b42	0.016667966
101	0x3dde68b6	0.10859816
102	0x3b600a77	0.0034185925
103	0xbdaa0c45	-0.083031215
104	0x3e11bc75	0.14232047
105	0x3d80059b	0.06251069
106	0xbcea3878	-0.02859138
107	0xbd26a911	-0.040688578
108	0x3e16b463	0.1471725
109	0x3d8646db	0.06556483
110	0x3ae195ec	0.0017210818
111	0xbdc2ead9	-0.0951745
112	0x3d740296	0.05957278
113	0xbd555704	-0.052084938
114	0xbc9e8482	-0.019350294
115	0xbd8d9264	-0.069126874
116	0xbdccdbdd	-0.10002873
117	0xbe1c79a4	-0.15280777
118	0xbe6495a3	-0.22322707
119	0x3dc03dba	0.093867734
120	0xbe24102b	-0.16021793
121	0xbde27cf3	-0.110589884
122	0x3e2f7ef9	0.1713828
123	0x3d958d0f	0.073022954
124	0xbdc31bb2	-0.09526767
125	0xbdc6519b	-0.09683534
126	0xbba43b61	-0.0050119613
127	0x3dd4871d	0.10377333
128	0xbdaaabd5	-0.083335556
129	0xbd61793c	-0.05504726
130	0x3dd1c1a4	0.10242012
131	0x3c547e29	0.012969532
132	0x3d47576a	0.04866735
133	0xbd7f9aa2	-0.06240333
134	0xbd7d873c	-0.061896548
135	0x3dbe83a4	0.09302452
136	0x3e0dd42d	0.1385047
137	0x3dee9ac0	0.1165061
138	0xbd814a64	-0.06313017
139	0x3d9b8194	0.075930744
140	0x3dc9333a	0.09824224
141	0xbd96b8bc	-0.07359454
142	0x3dc0c408	0.0941239
143	0x3d2881c1	0.041139368
144	0x3cdb516a	0.02677222
145	0xbda3b5f6	-0.07993691
146	0xbd794bce	-0.06086331
147	0x3e1aeaf2	0.15128687
148	0x39e6e4b8	0.00044039427
149	0xbdb45739	-0.08805699
150	0xbd719013	-0.05897529
151	0xbda5ad83	-0.08089735
152	0xbe15ea0e	-0.14640066
153	0x3dd7bd4a	0.10534151
154	0xbcc795ba	-0.024363387
155	0x3e0445ea	0.12917295
156	0xbd690d49	-0.056897435
157	0x3dbd13b5	0.092322744
158	0x3c952611	0.018206628
159	0x3cb7f8c8	0.022457495
160	0x3dafd21b	0.08584996
161	0xbca2dbdc	-0.019880228
162	0x3de4b808	0.11167914
163	0xbd626971	-0.055276338
164	0xbd4bd76e	-0.049765997
165	0x3e1d188d	0.15341397
166	0x3d803358	0.06259793
167	0x3dc6dbf1	0.09709919
168	0xbe43c0ca	-0.19116512
169	0x3df70d4e	0.120630845
170	0x3ce48151	0.027893694
171	0xbca8ac32	-0.020589922
172	0x3d5c12f6	0.05372902
173	0xbc958405	-0.018251428
174	0xbe12eef9	-0.14348973
175	0x3d15c2db	0.03656278
176	0xbba994e4	-0.00517522
177	0xbc9b1d84	-0.018934973
178	0x3e0852e7	0.13312875
179	0x3d340902	0.043953903
180	0x3b4a2d6e	0.0030849832
181	0xbc443e68	-0.011977769
182	0xbdea3dc1	-0.1143756
183	0xbb721ca0	-0.0036943331
184	0x3be8be74	0.007102782
185	0xbe0029ad	-0.12515898
186	0xbe74c171	-0.23901917
187	0xbd2446f3	-0.040106725
188	0x3dd62c8b	0.10457715
189	0x3d323801	0.04351044
190	0xbc96e1c8	-0.018418208
191	0x3d3d6450	0.046238244
192	0xbc72ce27	-0.014819658
193	0x3d394e1d	0.04524051
194	0xbcd12203	-0.025528913
195	0x3e2debc8	0.16984475
196	0xbd8bdd60	-0.06829333
197	0xbd83e271	-0.06439675
198	0x3d4ea15d	0.050446857
199	0xbd096eac	-0.03355281
200	0xbdc5a096	-0.0964977
201	0x3c2d43d8	0.010575257
202	0xbd61c3a2	-0.05511821
203	0xbcbaa799	-0.022784995
204	0x3d5e6ab8	0.054300994
205	0xbd848938	-0.06471485
206	0xbd34e779	-0.044166062
207	0x3d9ea61e	0.07746528
208	0x3ca66d28	0.020315722
209	0x3d164138	0.03668329
210	0xbcf886db	-0.030337742
211	0xbdf9d469	-0.12198717
212	0x3e09705a	0.13421765
213	0xbd7e8d70	-0.062146604
214	0x3d9a88e0	0.07545638
215	0xbd85dd7b	-0.06536385
216	0xbd75999a	-0.05996094
217	0x3d9c37b4	0.07627812
218	0xbdddd28a	-0.10831173
219	0x3d9fb923	0.07798984
220	0x3cd6c81f	0.026218472
221	0x3d6bb6d3	0.0575474
222	0xbd9db47a	-0.07700439
223	0xbb903d9c	-0.0044018757
224	0x3d6cb7ea	0.05779258
225	0x3deab01c	0.114593714
226	0xbdc6e6a5	-0.09711961
227	0xbc4da1e2	-0.012550803
228	0x3d4811f9	0.048845265
229	0xbde8296d	-0.11336026
230	0x3cbadb72	0.022809718
231	0xbde737e4	-0.11289957
232	0x3d447362	0.0479616
233	0x3d435287	0.047686126
234	0xbd062239	-0.03274748
235	0x3c240f4f	0.0100134155
236	0xbd0fc6ac	-0.035101578
237	0xbd19fefa	-0.03759668
238	0x3d1fad7e	0.038983814
239	0xbe44798d	-0.19186993
240	0xbe0adb17	-0.13560139
241	0x3e18018d	0.14844342
242	0x3d25037f	0.040286537
243	0x3d926a6e	0.07149206
244	0x3d4c02a0	0.04980719
245	0xbe328d5f	-0.17436741
246	0x3e1c4d6d	0.1526391
247	0x3d9e8702	0.077405944
248	0xbdcc9e4b	-0.099911295
249	0x3e016802	0.12637332
250	0xbe062366	-0.13099441
251	0x3d0b4659	0.034002636
252	0xbd8cb7c6	-0.068709895
253	0x3d0fef2f	0.035140213
254	0x3a21de94	0.00061748293
255	0xbdba9ab9	-0.09111542

layer_x.bias f4 [128]
0	0x3d9951f8	0.074863374
1	0x3e1fc496	0.15602335
2	0xbcbb02eb	-0.02282854
3	0x3e6dad85	0.23210724
4	0x3e33a54d	0.17543526
5	0x3e11e1ec	0.14246339
6	0x3dfaa0ae	0.122376785
7	0x3e9f921e	0.31166166
8	0x3d0018f7	0.03127381
9	0x3d71651c	0.058934316
10	0x3d64e54f	0.05588275
11	0x3e90887f	0.28229138
12	0x3e7bcc1d	0.24589582
13	0x3e69036f	0.22755216
14	0x3d5fddd3	0.054654907
15	0x3e8319c9	0.2560561
16	0x3e08802e	0.13330147
17	0x3e265541	0.1624346
18	0x3e83f7a7	0.2577488
19	0x3e63cbc9	0.22245707
20	0x3e7e3d68	0.24828112
21	0x3d7ccdd9	0.06171975
22	0x3e701fc4	0.23449618
23	0xbcff3c44	-0.031156667
24	0x3e42481d	0.18972822
25	0x3e6d6e41	0.2318659
26	0x3bc7cdd3	0.006097534
27	0x3def8bac	0.11696562
28	0x3e1c9d0f	0.15294288
29	0x3dc4ac4a	0.09603174
30	0x3e0e3f45	0.13891323
31	0x3e4aa920	0.19791079
32	0x3ce65183	0.02811504
33	0x3d9460fc	0.07245061
34	0x3e872498	0.26395106
35	0x3e91771b	0.28411183
36	0x3e6010fc	0.21881479
37	0x3e8973a6	0.26846045
38	0x3e5dada8	0.21648276
39	0x3e3d388b	0.184786
40	0x3e714397	0.2356094
41	0x3e7a6050	0.24450803
42	0x3d3a62ad	0.04550426
43	0x3de136b0	0.10996759
44	0x3e330cac	0.17485303
45	0x3cc5cc31	0.024145218
46	0x3dc4819d	0.09595034
47	0x3e5472c2	0.20746902
48	0x3d82ae32	0.06380881
49	0x3e3f4a80	0.18680763
50	0x3e81e7ac	0.25372064
51	0x3e22040f	0.1582186
52	0x3e86ebc0	0.26351738
53	0x3e6e9b0a	0.2330133
54	0x3d614809	0.05500034
55	0x3e0acfc6	0.13555822
56	0x3dde616f	0.10858428
57	0x3db1312b	0.08651956
58	0xbb6aa6d3	-0.0035805001
59	0x3e24d304	0.16096121
60	0x3e6da829	0.2320868
61	0x3e83d1f7	0.25746128
62	0x3c49bcf1	0.012313114
63	0xbd0ae9a9	-0.033914242
64	0x3e64b85f	0.22335957
65	0x3ca31320	0.01990658
66	0x3e0e7c4a	0.139146
67	0x3e8ece3d	0.27891722
68	0x3dcdbde5	0.10045985
69	0x3e1bec27	0.15226804
70	0x3e3b5503	0.18294148
71	0x3d7cf55d	0.061757434
72	0xbcadf5eb	-0.021235427
73	0x3e6ed2bb	0.23322575
74	0x3dfcad4d	0.12337742
75	0x3e739220	0.23786211
76	0x3e59f33d	0.21284194
77	0x3d0a4719	0.03375921
78	0x3e9ac89e	0.30231184
79	0xbc35b92e	-0.011091514
80	0x3a2e8b31	0.00066583144
81	0x3e639f2d	0.2222869
82	0x3dc96dd9	0.09835405
83	0x3e67e8d5	0.22647412
84	0x3e387178	0.18012035
85	0x3e7acdbd	0.24492545
86	0x3e8b97a7	0.2726414
87	0x3e37a8cc	0.17935485
88	0x3def38f7	0.11680787
89	0x3d10c4ac	0.03534381
90	0x3e1009ce	0.1406624
91	0x3d5cf0b5	0.053940494
92	0x3e003031	0.12518384
93	0x3e321573	0.17390995
94	0x3e55967f	0.20858191
95	0x3d121705	0.035666484
96	0x3e974154	0.2954203
97	0x3e68ace4	0.22722203
98	0x3e529f1f	0.20568512
99	0x3e9e72eb	0.3094705
100	0x3e41ebe8	0.18937647
101	0x3e99adc9	0.300154
102	0x3cee1078	0.029060587
103	0x3e3dd348	0.18537629
104	0x3ca885a4	0.020571537
105	0x3da422eb	0.080144726
106	0x3e816ddb	0.25279126
107	0x3e4e2911	0.20132853
108	0x3e944ec7	0.28966352
109	0x3e8e7dee	0.27830452
110	0xbc115695	-0.00887074
111	0x3e8e18e1	0.27753356
112	0x3e8afbfc	0.27145374
113	0x3decdbfa	0.11565395
114	0x3e3f90b4	0.18707544
115	0x3e45dd2a	0.19322649
116	0x3e4dfd37	0.20116125
117	0x3e95939a	0.29214174
118	0x3c1d9b58	0.009619556
119	0x3dfce5da	0.12348528
120	0x3e0f72b5	0.14008601
121	0x3d3e97ba	0.046531416
122	0x3e4c1adf	0.19932126
123	0x3d4ee06b	0.05050699
124	0x3e3c1f1a	0.1837124
125	0x3dd357e7	0.103195004
126	0x3e1177d4	0.14205867
127	0x3e9fb61d	0.3119363

layer_t_1.weight f4 [128, 128]
0	0xbda0ebac	-0.07857451
1	0x3d859778	0.06523031
2	0x3d928736	0.07154696
3	0x3db6899e	0.08912967
4	0xbcd2c261	-0.025727453
5	0x3d92c022	0.07165553
6	0x3ddce624	0.10786083
7	0xbd891183	-0.06692793
8	0xbdbe07b3	-0.09278812
9	0xbbba0e4f	-0.0056779752
10	0xbd3c8941	-0.046029333
11	0x3d8b3c94	0.06798664
12	0xbdb925a9	-0.09040386
13	0x3c8cfb43	0.017209655
14	0x3de810ea	0.11331351
15	0xbe2dbb0c	-0.16965884
16	0xbd8d219c	-0.06891176
17	0xbd31a246	-0.043367647
18	0xbd022739	-0.031775687
19	0x3dca2c56	0.09871738
20	0xbc8aac3e	-0.016927835
21	0xbdffec2b	-0.12496217
22	0xbd0713bf	-0.032977816
23	0x3b5e7eda	0.003395012
24	0xbcd108c6	-0.025516879
25	0xbdbf3d5c	-0.09337875
26	0x3dbd85f2	0.09254064
27	0x3df241eb	0.11828979
28	0x3cda69e4	0.02666182
29	0x3e03a4c6	0.12855825
30	0xbdbd63eb	-0.092475735
31	0xbdc2e46d	-0.09516225
32	0x3dd33eda	0.10314722
33	0xbd43c45f	-0.047794696
34	0x3bc64c9a	0.006051612
35	0x3e201f89	0.1563703
36	0x3d03fc78	0.032223195
37	0x3db5ee7a	0.088833764
38	0x3ca42023	0.020034855
39	0xbdbf7d90	-0.09350121
40	0xbdb85094	-0.08999744
41	0x3b88a270	0.0041697547
42	0xbe096ff2	-0.1342161
43	0xbd22f051	-0.039779965
44	0xbe1a268e	-0.1505377
45	0x3c104d5b	0.0088075055
46	0x3dcb8f7b	0.09939476
47	0xbe0f434e	-0.13990518
48	0xbd06bdbc	-0.03289579
49	0x3db30909	0.08741958
50	0xbdd713e1	-0.105018385
51	0x3dfe871b	0.12428113
52	0xbd5789a4	-0.0526215
53	0xbdfb26e0	-0.12263274
54	0xbe27c120	-0.16382265
55	0x3dc5aed3	0.09652486
56	0xbe2f84cc	-0.17140502
57	0x3d37cfa7	0.044875767
58	0x3e05811d	0.13037534
59	0x3deeec5c	0.11666176
60	0x3c985ad8	0.018598005
61	0x3d14f998	0.036370844
62	0x3d932a2d	0.07185779
63	0x3cfc0abd	0.03076684
64	0xbdb9446f	-0.09046256
65	0x3d19df01	0.03756619
66	0x3d1e67f5	0.03867336
67	0xbc81e8c7	-0.015858067
68	0xbb1bac42	-0.0023753797
69	0xbc82fe70	-0.015990466
70	0xbdfb7209	-0.1227761
71	0x3da184fb	0.07886692
72	0xbdc59d17	-0.09649103
73	0xbda1071b	-0.078626834
74	0x3d10df7f	0.035369392
75	0x3c912f84	0.017722853
76	0x3db16c46	0.0866323
77	0xbc5dba0f	-0.013533129
78	0xbd39dbca	-0.045375623
79	0xbcd67d27	-0.026182724
80	0xbd4b056d	-0.04956572
81	0x3e051b7f	0.1299877
82	0x3dc0419d	0.09387515
83	0x3c60a32d	0.013710779
84	0x3d93388f	0.07188522
85	0xbd8c36d7	-0.06846397
86	0xbda50b6d	-0.0805882
87	0xbcfc0bab	-0.030767282
88	0x3db8a51c	0.09015867
89	0xbd35c2a8	-0.04437509
90	0xbd0e7754	-0.03478177
91	0xbc1c9fc7	-0.009559578
92	0x3e257a97	0.16160046
93	0x3dad20a5	0.08453492
94	0x3d9981f7	0.07495492
95	0xbd89c370	-0.0672673
96	0xbda78985	-0.08180527
97	0xbd26b3b9	-0.04069874
98	0x3d4305fb	0.047613125
99	0xbc7ceb60	-0.015436977
100	0xbdf9a0f7	-0.12188905
101	0xbd69ddd3	-0.057096314
102	0x3d71b0a2	0.05900634
103	0x3da324d6	0.0796601
104	0xbdc75c4a	-0.097343996
105	0x3c9e51f9	0.019326197
106	0xbdd455ef	-0.10367953
107	0x3c364860	0.011125654
108	0x3d906e48	0.070522845
109	0x3bfccdb8	0.0077149533
110	0xbd27cdbe	-0.040967695
111	0x3d870fb6	0.065947935
112	0xbd8ab3cc	-0.06772575
113	0x3bfd4d8a	0.0077301906
114	0x3d352e56	0.044233643
115	0xbdf91db6	-0.1216387
116	0xbdc3af89	-0.09554965
117	0xbac044e6	-0.0014668971
118	0x3d36948d	0.044575263
119	0x3d66d33c	0.056353793
120	0xbd203e49	-0.0391219
121	0x3e6c51fc	0.2307815
122	0x3d891e27	0.06695204
123	0xbe0bd35a	-0.13654843
124	0x3c3e28c5	0.0116064
125	0xbcecf902	-0.02892733
126	0x3cba3869	0.022731977
127	0x3d957b01	0.07298852
128	0xbced8b82	-0.028997187
129	0xbdabbc14	-0.083854824
130	0x3dc34d62	0.09536244
131	0xbd4a318d	-0.04936366
132	0xbc8da747	-0.017291678
133	0x3a4ec8e7	0.0007888213
134	0x3d7e9732	0.06215591
135	0xbd5d7296	-0.054064356
136	0xbd9ef61c	-0.077617854
137	0xbd8f3cd3	-0.06994023
138	0xbd276719	-0.040869806
139	0xbe07ddff	-0.13268279
140	0xbdb38dc8	-0.08767277
141	0x3d913487	0.07090097
142	0x3db4b12c	0.08822855
143	0x3cdcc720	0.026950419
144	0xbd96ea40	-0.073688984
145	0x3d11d682	0.03560496
146	0x3c1a2845	0.009409015
147	0xbd51a1d6	-0.05117973
148	0xbd181bf3	-0.03713603
149	0xbd374fd4	-0.044753864
150	0xbd7d127c	-0.061785206
151	0x3db4658c	0.08808431
152	0x3d73a794	0.059485987
153	0xbd9c7f10	-0.07641423
154	0x3d9ad385	0.075598754
155	0x3d950fc0	0.07278395
156	0xbc8976a4	-0.016780205
157	0x3df16e74	0.117886454
158	0xbdddcacb	-0.10829695
159	0x3ca94063	0.020660585
160	0xbcaa71a5	-0.020806143
161	0xbc96c3af	-0.018403856
162	0x3d81354e	0.06308995
163	0xbd11f4db	-0.035633903
164	0x3c3ac248	0.011398859
165	0x3cd90901	0.026493551
166	0xbd3a4a29	-0.04548088
167	0x3cd09024	0.025459357
168	0xbda6fb5d	-0.081534125
169	0xbbcdbee7	-0.006278861
170	0xbdab6499	-0.08368797
171	0x3cd27629	0.025691109
172	0x3ce86bc7	0.028371705
173	0xbccb68ce	-0.024830248
174	0x3a42e6c8	0.0007434902
175	0x3da49355	0.08035914
176	0x3d0e92ed	0.034808088
177	0x3d680ccb	0.056652825
178	0xbdda090d	-0.106462575
179	0xbcfa786b	-0.030574998
180	0x3cb63933	0.022244072
181	0xbc1a77c2	-0.009427967
182	0xbd7050e0	-0.05867088
183	0xbd7ce84d	-0.061744977
184	0xbd96f437	-0.07370799
185	0x3dc7d5d3	0.097575806
186	0x3d929341	0.07156993
187	0x3bc0a816	0.0058794124
188	0x3dfd8dee	0.123805866
189	0xbd152a92	-0.03641755
190	0x3bb65e71	0.0055654575
191	0xbd796363	-0.0608858
192	0x3ce88f19	0.028388547
193	0xbcfbde9d	-0.030745799
194	0x3d3c5db2	0.045987792
195	0xbd0c007a	-0.034180142
196	0x3d504644	0.05084826
197	0xbca206db	-0.01977866
198	0xbd21cde9	-0.03950301
199	0xbda4aa08	-0.080402434
200	0xbdac5367	-0.08414345
201	0xbd9e020d	-0.07715235
202	0xbd8163b8	-0.06317848
203	0xbc7bab58	-0.015360676
204	0xbd0305c6	-0.031987928
205	0xbcb5fc3d	-0.022215003
206	0xbd998cc8	-0.07497555
207	0xbd2888dc	-0.041146144
208	0xbbee8aa6	-0.007279712
209	0x3c2041e4	0.009781335
210	0xbd873368	-0.06601602
211	0x3c831d56	0.0160052
212	0xbd0e6b7c	-0.034770474
213	0x3dbb922e	0.09158741
214	0xbd42b779	-0.047538254
215	0xbd32a113	-0.043610644
216	0xbc855a76	-0.016278487
217	0xb94f13b8	-0.00019748404
218	0xbd2a61b3	-0.04159708
219	0x3cc19eff	0.023635386
220	0x3d933a94	0.07188907
221	0xbd582342	-0.052768
222	0xbce42f2d	-0.027854526
223	0xbc903c2c	-0.017606817
224	0xbc2938ba	-0.010328466
225	0x3d8f46df	0.069959395
226	0xbb7e6e01	-0.0038822892
227	0xbd3fea43	-0.04685427
228	0xbd3a9c4b	-0.04555921
229	0xbc828651	-0.015933188
230	0xb87c79bc	-6.0194856e-05
231	0x3d1d4802	0.03839875
232	0xbc408c27	-0.011752165
233	0x3be49e8e	0.006976909
234	0xbd734928	-0.05939594
235	0xbd8abc90	-0.06774247
236	0xbd999aee	-0.075002536
237	0xbd1ea0a7	-0.03872743
238	0xbd8f220f	-0.06988918
239	0xbd629784	-0.055320278
240	0x3d62c621	0.05536473
241	0x3d4c87dc	0.049934253
242	0x3ce3cd7c	0.027807944
243	0xbcb52cc0	-0.022116065
244	0xbd8eb385	-0.069678344
245	0xbda0bd1b	-0.07848569
246	0x3cc5857b	0.0241115
247	0x3d7fec24	0.06248106
248	0xbde5480a	-0.11195381
249	0x3ddc5954	0.107592255
250	0xbce07d11	-0.027403386
251	0xbce7b630	-0.028285116
252	0x3c900b03	0.017583376
253	0x3d398b2a	0.045298733
254	0xbcd230e3	-0.025658077
255	0x3c421cb4	0.011847664

layer_t_1.bias f4 [128]
0	0xbc969db0	-0.018385738
1	0xbd93db20	-0.07219529
2	0xbcfdb3e5	-0.03096957
3	0xbc26ef24	-0.0101888515
4	0xbd2868f6	-0.041115724
5	0x3d098262	0.03357161
6	0x3d2f9c19	0.042873476
7	0xbda91d8b	-0.08257588
8	0x3e00dfbc	0.12585348
9	0x3d1b3368	0.03789082
10	0xbd47435e	-0.04864823
11	0xbde647bf	-0.11244153
12	0xbd724438	-0.05914709
13	0xbdba374b	-0.090925775
14	0xbd2a991e	-0.04164993
15	0x3deb9e61	0.11504818
16	0x3c85d42d	0.016336525
17	0x3d060c0a	0.032726325
18	0x3d8f056e	0.069834575
19	0xbcbf5d4a	-0.023359913
20	0xbdf5abc5	-0.11995653
21	0x3cf79ee1	0.030227127
22	0x3cee8a3b	0.029118648
23	0xbcee2aef	-0.029073207
24	0x3c1a4130	0.009414956
25	0xbc4d18bc	-0.012518104
26	0x3db5912b	0.08865579
27	0xbc4e39f6	-0.012587061
28	0x3c9aa2cf	0.018876461
29	0x3d02ed2e	0.031964473
30	0x3b0f9f35	0.0021914963
31	0x3d3a42f8	0.045474023
32	0xbdf4036d	-0.11914716
33	0xbbaf7d19	-0.005355489
34	0xbcb9fc57	-0.022703333
35	0xba43c488	-0.0007467945
36	0x3df21917	0.11821192
37	0xbd2872bf	-0.041125055
38	0xbd97d9a2	-0.07414557
39	0x3ca9e354	0.020738281
40	0x3db02cea	0.08602317
41	0x3ce3a9f8	0.027791008
42	0xbd35512c	-0.044266865
43	0x3bfb1ac2	0.007663102
44	0x3dc62f7b	0.09677025
45	0x3dcd89a8	0.100360215
46	0x3cc2d780	0.023784399
47	0x3cd02b6d	0.025411332
48	0x3db88e1d	0.09011481
49	0xbd601898	-0.054710954
50	0xbca7053e	-0.020388242
51	0x3d5a966a	0.053366102
52	0x3c7e34d6	0.015515527
53	0xbc2fe8e0	-0.010736674
54	0xbd19ae2f	-0.03751963
55	0xbd4e6b50	-0.05039531
56	0x3c28adbc	0.010295328
57	0xbd92734c	-0.071508974
58	0xbdd161b8	-0.102237165
59	0xbb03cecf	-0.0020112281
60	0x3dc5576e	0.096358165
61	0x3d3bcb3c	0.045848116
62	0x3d3475f9	0.04405782
63	0xbd260479	-0.04053161
64	0xbdb8b5a8	-0.09019023
65	0xbdaf13f6	-0.08548729
66	0xbc8f0121	-0.017456593
67	0xbdbefb60	-0.0932529
68	0x3cb3d928	0.021954134
69	0x3e10a3b9	0.14124955
70	0x3d1f0064	0.038818732
71	0x3d107f09	0.0352774
72	0xbdf777ec	-0.1208342
73	0x3b486a6e	0.0030581015
74	0x3b53a409	0.0032293817
75	0x3c9cbb05	0.019132147
76	0xbd4e2c74	-0.050335363
77	0xbd917fdf	-0.071044676
78	0xb9c435a2	-0.00037423993
79	0xbd81ce64	-0.06338194
80	0x3d43ca3a	0.04780028
81	0xbba67b54	-0.00508062
82	0x3deae8cf	0.11470186
83	0x3da9f65e	0.08298944
84	0x3d812461	0.06305767
85	0xbd90bcab	-0.070672356
86	0x3d0d7236	0.03453275
87	0x3de616dc	0.11234829
88	0x3dc2376a	0.09483226
89	0xbd113f67	-0.035460856
90	0x3d7cdb15	0.06173237
91	0x3d929031	0.071564086
92	0x3cafcff3	0.021461463
93	0x3d13ed67	0.036115076
94	0xbdc727b1	-0.097243674
95	0xbdf9116c	-0.12161526
96	0xbcbb964d	-0.022898817
97	0x3d227bce	0.03966885
98	0x3cfe311c	0.031029277
99	0xbce1e45d	-0.027574712
100	0xbc0b72cb	-0.0085112555
101	0xbd27e76c	-0.040992185
102	0x3d88d43a	0.06681104
103	0xbda4116d	-0.08011136
104	0xbca8d4cc	-0.020609282
105	0x3c823d21	0.01589829
106	0x3bfc2573	0.007694894
107	0xbd5be64a	-0.053686418
108	0xbd8ae052	-0.06781067
109	0xbc87f1b2	-0.016594741
110	0x3de6d41b	0.11270925
111	0x3cc241cb	0.023713013
112	0x3bc1c3a7	0.005913216
113	0x3d6d99c3	0.058007967
114	0x3d02507e	0.031815045
115	0x3dacb843	0.08433583
116	0x3dbbce1b	0.09170171
117	0xbd120c14	-0.03565605
118	0xbd289edf	-0.041167136
119	0xbc96395f	-0.018337904
120	0xbd2531cf	-0.040330704
121	0x3ceea9e5	0.029133746
122	0xbcc692ed	-0.024239982
123	0xbd7cbfde	-0.061706416
124	0x3dcd82ba	0.100347
125	0xbd60d0ef	-0.054886755
126	0xbce5e4a6	-0.02806313
127	0xbcbe3723	-0.02321965

layer_t_2.weight f4 [128, 128]
0	0xbcfd858d	-0.030947471
1	0xbd575a4e	-0.052576356
2	0x3cb02da0	0.02150613
3	0x3bf3a61c	0.0074355733
4	0x3d0516cc	0.032492444
5	0xbc51a2c3	-0.012795153
6	0x3d086aea	0.033305086
7	0x3b91fef5	0.004455442
8	0x3d12b9f9	0.03582189
9	0x3c5f5ad2	0.013632493
10	0x3d7edd71	0.0622229
11	0xbc45929b	-0.012058879
12	0xbbfaa1e1	-0.007648692
13	0xbc8d5dc4	-0.017256625
14	0xbd8849ea	-0.06654723
15	0x3ca7a6dd	0.020465309
16	0xbce2b28b	-0.027673027
17	0xbd1b8d66	-0.037976645
18	0x3cc980c9	0.024597542
19	0x3de6e9ac	0.11275038
20	0x3bb87c78	0.005630072
21	0xbc6c96b4	-0.014440227
22	0x3d17832e	0.036990337
23	0xbdaf945f	-0.085732214
24	0xbd4ce649	-0.050024305
25	0xbe2d686e	-0.16934368
26	0x3d16b1b8	0.03679058
27	0xbae0892f	-0.0017130728
28	0x3cc4260a	0.02394392
29	0xba70b065	-0.0009181558
30	0x3d338f0e	0.0438376
31	0x3d4f202f	0.050567802
32	0x3df859ca	0.12126501
33	0xbdaa2103	-0.08307078
34	0xbc5736a5	-0.013135587
35	0xbbeadbee	-0.007167331
36	0xbd4b0406	-0.049564384
37	0xbdb6b405	-0.08921055
38	0xbd278d48	-0.04090622
39	0xbe218799	-0.15774383
40	0x3c38b75b	0.011274184
41	0x3db081ea	0.08618529
42	0xbd255b67	-0.04037037
43	0xbdb33b25	-0.08751515
44	0xbb9bb8d3	-0.0047522574
45	0x3cf879ce	0.030331519
46	0x3c212091	0.009834425
47	0xbc54896f	-0.01297222
48	0x3ac8cf73	0.0015320614
49	0xbe11d06a	-0.1423966
50	0xbc1c2228	-0.009529628
51	0xbd7d1563	-0.061787974
52	0x3b8c9b5f	0.0042909826
53	0xbdaebd65	-0.08532218
54	0xbd213266	-0.039354704
55	0xbca8cc80	-0.020605326
56	0xbc42409a	-0.0118562225
57	0x3d9e7d9c	0.07738802
58	0x3d51e60e	0.051244788
59	0xbd01564d	-0.031576443
60	0xbd4537a5	-0.04814877
61	0x3a8b0cf2	0.0010608716
62	0xbd6923d1	-0.056918923
63	0xbd29ba53	-0.04143746
64	0xbcdc998d	-0.026928687
65	0xbdf59293	-0.119908474
66	0xbd190fd2	-0.037368603
67	0x3b49e4fb	0.003080665
68	0x3ceac633	0.028658962
69	0x3d4ecd3e	0.050488703
70	0xbd7e9328	-0.062152058
71	0xbd63a20f	-0.055574473
72	0xbd3aa89d	-0.04557096
73	0x3ca28649	0.019839423
74	0x3d981b8d	0.0742713
75	0x3cea8d3d	0.0286318
76	0x3d3eff51	0.046630207
77	0x3d771b7f	0.060328957
78	0xbc4189a5	-0.011812602
79	0x3cb1e5f7	0.021716101
80	0x3c3ac687	0.011399872
81	0xbd59dbac	-0.05318801
82	0x3d0ae75c	0.033912048
83	0xbc7c25c0	-0.01538986
84	0xbd215faa	-0.039397873
85	0x3d80d4c8	0.06290585
86	0x3d6d1d9d	0.05788957
87	0x3c671db5	0.014106204
88	0x3cdf5e78	0.027266726
89	0xbd076d9c	-0.033063516
90	0xbd269c16	-0.0406762
91	0xbe153c96	-0.14573893
92	0xbcb02a4e	-0.021504547
93	0xbb2c1d02	-0.0026262407
94	0xbd5cad31	-0.053876106
95	0xbcd3c6fc	-0.02585172
96	0xbc0d9f6e	-0.008643968
97	0x3c3ac1f0	0.011398777
98	0x3a9a6eec	0.0011782325
99	0xbbd816a8	-0.0065944977
100	0xbd11dcf2	-0.0356111
101	0xbd13d5af	-0.036092456
102	0x3c8c1d06	0.017103683
103	0xbcd2132b	-0.025643906
104	0xbd6941ea	-0.056947626
105	0xbd833bd4	-0.06407896
106	0xbd6e9bdc	-0.058254108
107	0x3d5598bc	0.052147612
108	0xbd4df9c5	-0.050287027
109	0xbd433ad9	-0.047663543
110	0xbd848ed9	-0.064725585
111	0x3cc31954	0.023815788
112	0xbdbd5501	-0.09244729
113	0x3ccaab04	0.02473975
114	0x3d4e4454	0.05035813
115	0xbcee8835	-0.029117683
116	0xbba2c8ec	-0.0049677994
117	0x3d3ef623	0.046621453
118	0x3d14b352	0.036303826
119	0x3d50f251	0.05101234
120	0xbb35fd82	-0.002776951
121	0xbdb5d790	-0.08879006
122	0x3dae9cdb	0.085260116
123	0x3d7bb563	0.06145228
124	0xbbb4eed5	-0.005521635
125	0xbd9a59fe	-0.07536696
126	0xbceafed3	-0.028685963
127	0x3d1006a6	0.03516259
128	0x3d99932e	0.074987754
129	0x3d23996e	0.039941244
130	0x3d626026	0.055267476
131	0xbdaa343d	-0.08310745
132	0xbbb4dd12	-0.0055195177
133	0x3d097593	0.033559393
134	0x3db0bc5c	0.08629677
135	0x3d6a2063	0.057159793
136	0xbd89ebce	-0.06734429
137	0x3ca792fc	0.02045583
138	0x3c1acf70	0.009448871
139	0x3d6d09b0	0.057870567
140	0x3d82e7c2	0.063918605
141	0x3d4091cc	0.047014043
142	0x3d22e01c	0.03976451
143	0x3d6a8a7e	0.057260983
144	0xbd74bc8f	-0.059750136
145	0x3cede279	0.029038655
146	0xbdbd489a	-0.09242363
147	0x3d3f688f	0.046730574
148	0x3cc9cdf7	0.024634345
149	0x3d179adc	0.03701292
150	0x3d646d30	0.05576819
151	0x3c640502	0.01391721
152	0x3c67b45a	0.01414212
153	0xbd37a1a2	-0.04483188
154	0xbc7f346a	-0.015576461
155	0x3d8e54f8	0.069498
156	0xbd9ee921	-0.077593096
157	0xbd76f50c	-0.06029229
158	0xbbb2edd4	-0.00546048
159	0xbcc72181	-0.024307968
160	0xbd01d492	-0.031696863
161	0x3cf92efc	0.030417912
162	0x3ca1cb75	0.019750336
163	0x3d50335e	0.050830238
164	0xbd45ad08	-0.04826072
165	0xbdc7ed3c	-0.09762046
166	0x3d570783	0.052497398
167	0xbd750aaa	-0.059824623
168	0xbd10fee1	-0.03539932
169	0xbcae7afb	-0.021298876
170	0xbcd0d0ca	-0.025490183
171	0x3c4137c6	0.011793083
172	0xbdf0b4fb	-0.11753269
173	0xbd7886ea	-0.06067554
174	0xbdbb8e44	-0.091579944
175	0x3c2cd3a6	0.010548508
176	0x3cad3850	0.021145016
177	0xbd1d7a1d	-0.038446534
178	0xbc675a10	-0.014120594
179	0x3d787f40	0.06066823
180	0x3bab82f1	0.0052341153
181	0xbcfa23fc	-0.030534737
182	0xbd60bab3	-0.05486555
183	0xbd33094a	-0.04371003
184	0x3b0f7770	0.0021891259
185	0xbc97150a	-0.01844265
186	0x3d0f901f	0.035049554
187	0xbd050698	-0.03247699
188	0x3c6242aa	0.013809839
189	0xbdd1f6e2	-0.10252167
190	0xbdb05efa	-0.08611865
191	0x3d3e2ca5	0.046429295
192	0xbd5b48ee	-0.053536348
193	0xbdd1334b	-0.102148615
194	0xbda4447a	-0.08020873
195	0x3d33d414	0.043903425
196	0xbd67d6e2	-0.056601413
197	0xbd7fdc90	-0.062466204
198	0xbc8cbfc5	-0.017181287
199	0x3ca0fc72	0.019651625
200	0x3d9a203f	0.07525682
201	0x3c913946	0.017727505
202	0x3c31946c	0.010838609
203	0xbcb4d649	-0.022074835
204	0xbc807503	-0.015680796
205	0xbc71b469	-0.014752486
206	0xbc2b613a	-0.010460192
207	0x3cdffe4c	0.027342938
208	0x3d8a3169	0.067477055
209	0xbded8f99	-0.11599655
210	0xbd52af03	-0.051436435
211	0x3b318b70	0.0027091168
212	0xbde024e3	-0.109445356
213	0xbd98ce0b	-0.074611746
214	0xbcce4f51	-0.025184305
215	0xbc51819e	-0.012787251
216	0x3d0fb1ff	0.03508186
217	0x3d8acea3	0.06777694
218	0xbd6c61c6	-0.05771043
219	0x3d156ec6	0.036482595
220	0x3d3a7855	0.045524914
221	0xbd19f9c7	-0.03759172
222	0xbd904dff	-0.070461266
223	0xbd736690	-0.059423983
224	0xbca798c8	-0.020458594
225	0xbd4137fe	-0.04717254
226	0xbd486ffa	-0.048934914
227	0xbd9dd7a5	-0.077071466
228	0x3d16ad78	0.036786526
229	0x3d55a7b7	0.0521619
230	0x3c66de69	0.014091113
231	0xbc8cc433	-0.017183399
232	0x3d3afff2	0.045654245
233	0x3d1522a7	0.03641
234	0xbd9cfd3e	-0.076654896
235	0x3c427fe4	0.011871312
236	0xb963e25f	-0.00021732737
237	0xbd80c145	-0.06286863
238	0x3b0c5a57	0.0021416151
239	0x3d2ea60f	0.042638835
240	0x3a739e64	0.00092933164
241	0xbd0361f3	-0.032075834
242	0xb905cfe0	-0.00012761308
243	0xbd862db2	-0.065516844
244	0xbd1ac76a	-0.037787832
245	0x3d428195	0.04748686
246	0xbd808430	-0.06275213
247	0x3d6e64b0	0.05820149
248	0x3d080ef8	0.0332174
249	0xbd630aa0	-0.055430055
250	0xbdb2509e	-0.08706783
251	0xbd38e2bd	-0.04513811
252	0xbd95f8dd	-0.073228575
253	0x3ce72746	0.02821697
254	0xbd95cf72	-0.07314958
255	0xbd475dca	-0.04867343

layer_t_2.bias f4 [128]
0	0xbb92b00c	-0.004476553
1	0xbe075ea0	-0.1321969
2	0xbd6852d5	-0.05671962
3	0xbc8a2b43	-0.016866332
4	0xbd1b96e2	-0.03798569
5	0x3d1ab168	0.037766844
6	0xbdcc7a53	-0.09984269
7	0x3d22bdcd	0.03973179
8	0x3da4d8e2	0.080491796
9	0xbb95872f	-0.0045632343
10	0xbdcdebcf	-0.100547425
11	0x3c7d29fe	0.015451906
12	0xbd94a2f6	-0.07257645
13	0xbd218bf6	-0.039440118
14	0xbdfc1a8c	-0.12309751
15	0xbd35ac59	-0.044353817
16	0xbe10235b	-0.14075987
17	0x3d045805	0.032310504
18	0xbdf38b1a	-0.11891766
19	0xbd0062a0	-0.031344056
20	0xbdbe66f5	-0.09296981
21	0xbd4bc2cd	-0.049746323
22	0xbdb1dbd2	-0.086845055
23	0x3d61192a	0.05495564
24	0xbd9e77e3	-0.0773771
25	0xbd682b93	-0.05668218
26	0xbdc192e8	-0.09451848
27	0x3c995586	0.018717539
28	0x3d09dc35	0.03365727
29	0xbd3f2097	-0.04666194
30	0x3d03a618	0.03214082
31	0xbdec6718	-0.11543101
32	0xbcb39ba8	-0.021924809
33	0xbc0815c3	-0.00830597
34	0xbb88c82b	-0.0041742525
35	0xbdd5060b	-0.10401543
36	0xbd51874c	-0.05115442
37	0xbdd0710a	-0.101778105
38	0x3caf9d59	0.021437334
39	0xbd9806fd	-0.07423208
40	0xbd55a824	-0.052162305
41	0xbd091b55	-0.03347333
42	0xbd4a48ad	-0.049385715
43	0xbd3769ce	-0.044778638
44	0x3c08f950	0.008360222
45	0x3cc682dd	0.024232322
46	0xbdad4375	-0.08460132
47	0xbdf61540	-0.12015772
48	0xbdaedb55	-0.08537928
49	0x3d0e201c	0.03469859
50	0xbd205fd7	-0.0391539
51	0x3cbf9b07	0.023389352
52	0xbccec943	-0.025242453
53	0x3ccc56c9	0.024943726
54	0x3d46b2d0	0.048510373
55	0xbd232170	-0.03982681
56	0xbd1b6361	-0.037936572
57	0xbce73361	-0.028222742
58	0x3d383e2a	0.04498116
59	0xbd46442c	-0.048404858
60	0xbcd3ef06	-0.025870811
61	0xbbd08f7b	-0.0063647605
62	0xbe07cf3c	-0.13262647
63	0xbdc8bd90	-0.09801781
64	0xbd8c9d16	-0.06865899
65	0xbce27a14	-0.027646102
66	0xbdc404ba	-0.09571214
67	0xbd0e5846	-0.034752153
68	0x3c94550f	0.018106965
69	0xbd0f37a0	-0.034965158
70	0xbddead72	-0.10872926
71	0x3c0107d0	0.007875398
72	0x38c33e48	9.3099254e-05
73	0xbdddcf20	-0.108305216
74	0x3c1a0220	0.009399921
75	0xbdb7245a	-0.089424804
76	0xbcd03fe7	-0.025421096
77	0xbe04e384	-0.12977415
78	0xbd6f51ea	-0.05842773
79	0x3d29e76c	0.041480467
80	0xbc6c1cee	-0.014411194
81	0x3c8aff39	0.016967403
82	0x3c37f89a	0.011228705
83	0x3c23d549	0.009999582
84	0x3d8eb2d7	0.06967705
85	0x3a366ab6	0.000695865
86	0x3b05ac1d	0.0020396777
87	0xbcd719f7	-0.026257498
88	0xbdbe0eab	-0.092801414
89	0xbdd78091	-0.10522569
90	0xbdbe880a	-0.09303291
91	0xbd94fcc7	-0.07274776
92	0xbc3d347c	-0.011548158
93	0xbd83440a	-0.06409462
94	0xbd95802d	-0.07299838
95	0xbbf764d4	-0.0075498614
96	0xbda5e1c5	-0.08099703
97	0xbcdeba37	-0.027188404
98	0xbd3c2652	-0.045934983
99	0xbd1ddc76	-0.038540326
100	0xbd56ee6e	-0.052473478
101	0xbd087c12	-0.033321448
102	0xbc6ce7e4	-0.014459584
103	0x3d2649ca	0.040597714
104	0x3b4837a4	0.0030550743
105	0xbbdddd30	-0.0067707524
106	0xbdf6a7d0	-0.120437264
107	0x3d93bf88	0.07214266
108	0xbe0895c1	-0.13338377
109	0xbd1c20d0	-0.03811723
110	0xbdccae63	-0.09994199
111	0xbd41ab1e	-0.04728233
112	0x3c20cde1	0.00981471
113	0xbc8ec0be	-0.017425891
114	0xbde10eb2	-0.10989131
115	0x3cda88cc	0.026676558
116	0x3bd7d30b	0.0065864376
117	0x3d1269d1	0.035745446
118	0x3cc7f1f1	0.024407359
119	0xbd53a8a5	-0.051674504
120	0x3c604e39	0.013690525
121	0x3caf98dd	0.021435196
122	0x3b1669f7	0.0022951344
123	0xbd2d6622	-0.04233373
124	0xbd7e3ae3	-0.062067878
125	0xbd2d4bec	-0.042308733
126	0xbd219a03	-0.039453518
127	0xbd9da3c3	-0.07697251

layer_out_1.weight f4 [128, 128]
0	0x3d069965	0.032861132
1	0x3da10140	0.078615665
2	0xbc5d6287	-0.01351226
3	0xbccbc0a1	-0.024872126
4	0xbc4672c1	-0.01211232
5	0xbd8bd2d2	-0.0682732
6	0x3d80a9de	0.062823996
7	0x3da39d73	0.079890154
8	0xbd88602f	-0.066589706
9	0x3d1f99b4	0.038964942
10	0x3cdd8cff	0.027044771
11	0x3da81f68	0.08209115
12	0xbd896261	-0.067082174
13	0xbc6d28b0	-0.014475033
14	0x3cde0592	0.027102266
15	0x3ccfdcaf	0.025373785
16	0xbb02fa66	-0.0019985675
17	0x3c743445	0.01490504
18	0xbbec897e	-0.007218539
19	0xbca65d4f	-0.020308165
20	0xbb371c29	-0.0027940369
21	0xbd5ca490	-0.053867877
22	0xbdbff9d8	-0.09373826
23	0x3cfd2c68	0.030904964
24	0x3d621988	0.05520013
25	0x3d059ed2	0.032622166
26	0xbcb76f04	-0.022391804
27	0xbd12eed8	-0.03587231
28	0x3d697824	0.05699934
29	0x3c8cebb7	0.017202241
30	0x3b442736	0.0029930598
31	0xbd9e4540	-0.07728052
32	0xbd72c664	-0.05927123
33	0xbdd04e8f	-0.10171234
34	0xbd0d1f6a	-0.034453787
35	0x3c9d72d0	0.019219786
36	0x3db2fe49	0.08739907
37	0x3cee1af1	0.029065581
38	0x3ba5e7e3	0.0050630434
39	0x3e05cf06	0.13067254
40	0xbdb9ef3e	-0.09078835
41	0x3dd16d84	0.102259666
42	0x3d4a9bf7	0.049465146
43	0x3de45f99	0.11151046
44	0x3d0901b0	0.033448875
45	0xbd573054	-0.052536324
46	0xbd1df9f3	-0.03856845
47	0x3c8cf03b	0.017204395
48	0x3d881497	0.06644552
49	0xbd4b54f6	-0.049641572
50	0xbc41301f	-0.011791258
51	0xbd50bc65	-0.050960917
52	0xbc7c2d93	-0.015391725
53	0xbb10b8c0	-0.0022082776
54	0xbd8c7696	-0.06858556
55	0xbd7b9fda	-0.061431743
56	0xbceb6902	-0.028736595
57	0x3da5bc4d	0.08092556
58	0xbd7dcc74	-0.06196256
59	0xbd49d7c2	-0.04927803
60	0xbcc18c98	-0.02362661
61	0xbd922e10	-0.07137692
62	0xbd160642	-0.03662706
63	0x3daaecac	0.08345923
64	0x3c31e5df	0.010858028
65	0xbddb8fd1	-0.1072079
66	0xbdc522d6	-0.09625785
67	0xbdb4c835	-0.08827249
68	0xbc9478b9	-0.018123971
69	0x3c1e53e0	0.009663552
70	0xbdbbf187	-0.09176927
71	0xbd1fe0af	-0.039032634
72	0xbe09eba0	-0.1346879
73	0xbbb529b2	-0.005528652
74	0x3c2b06d2	0.010438638
75	0x3d8a5ca8	0.06755954
76	0x3cc60901	0.024174215
77	0x3da4234c	0.08014545
78	0xba14928e	-0.00056675903
79	0x3d126ab9	0.03574631
80	0xbc976330	-0.018479913
81	0xbd8ddebc	-0.06927249
82	0xbbf20dd6	-0.0073869033
83	0xbda4e31a	-0.08051129
84	0x3c1a1b44	0.009405915
85	0x3a49045e	0.0007668192
86	0x3c601de7	0.013679004
87	0x3d2637e3	0.04058064
88	0x3d77065d	0.060308803
89	0xbcb5e96f	-0.022206036
90	0x3c22de5a	0.009940708
91	0xbd355299	-0.044268224
92	0xbd3543ab	-0.044253986
93	0x3d0d1502	0.034443863
94	0xbd897b91	-0.067130215
95	0x3d75f3a9	0.060046826
96	0x3d8c4235	0.068485655
97	0x3d4a88d3	0.049446892
98	0xbd881d52	-0.066462174
99	0xbb73207c	-0.003709822
100	0xba8218f4	-0.000992565
101	0x3d94354e	0.072367296
102	0x3d3e52d0	0.046465695
103	0x3d39275a	0.045203544
104	0x3c754cd6	0.014971932
105	0x3db72412	0.08942427
106	0xbce01176	-0.027352076
107	0xbd2299aa	-0.039697327
108	0x3c4539d4	0.012037713
109	0x3d9b6e91	0.07589448
110	0x3d8bdd8c	0.06829366
111	0xbbb8374e	-0.005621827
112	0xbd4df4d9	-0.050282333
113	0xbc91dd55	-0.017805735
114	0x3b85c878	0.0040827356
115	0x3b49d472	0.0030796793
116	0x3dafa1b8	0.08575767
117	0xbd41c18c	-0.04730372
118	0x3d23d312	0.039996214
119	0xbd66cce9	-0.05634776
120	0xbdc2b6d9	-0.09507532
121	0xbdd99398	-0.106238544
122	0x3cd8fa02	0.0264864
123	0xbdb2f6a6	-0.08738451
124	0x3d17bc21	0.037044648
125	0x3cd23580	0.025660276
126	0xbd4043ba	-0.04693959
127	0xbc957feb	-0.018249473
128	0x3d67a5cc	0.0565546
129	0x3d636e6f	0.05552524
130	0xbca9a125	-0.020706723
131	0xbca5eb42	-0.020253781
132	0xbce19267	-0.02753563
133	0xbd001e4b	-0.03127889
134	0xbd1327da	-0.035926677
135	0x3d767a89	0.060175452
136	0xbde08c68	-0.1096428
137	0xbc93c91d	-0.018040234
138	0x3d323713	0.043509554
139	0x3c5b4c5a	0.013384903
140	0x3dd3e3c2	0.10346176
141	0xbce15cd5	-0.027510086
142	0x3e2eddd3	0.17076807
143	0xbcaf4e1a	-0.021399546
144	0x3d897b05	0.06712917
145	0x3d7b632c	0.061373875
146	0x3db0798e	0.08616935
147	0x3c754ecf	0.014972403
148	0x3c263b21	0.010145933
149	0x3d5062cb	0.050875466
150	0xbc8f16a5	-0.017466852
151	0xbc33c23f	-0.010971605
152	0xbd012d46	-0.031537317
153	0xbb480eb4	-0.0030526342
154	0xbe07e946	-0.1327258
155	0x3b634f74	0.003468481
156	0x3d684fd7	0.056716766
157	0xbd198480	-0.037479877
158	0x3d75719b	0.059922796
159	0x3bbcf6b6	0.005766715
160	0xbd1f4a13	-0.038889002
161	0xbc44d7a7	-0.012014306
162	0x3d6f6b8e	0.05845218
163	0x3c15600e	0.0091171395
164	0x3d1f85f4	0.038946107
165	0x3d21dcc0	0.039517164
166	0x3d3bb813	0.045829844
167	0x3c4881ae	0.012237949
168	0x3d97c63c	0.07410857
169	0x3d6aec06	0.057353996
170	0xbca691b9	-0.020333158
171	0xbb22984b	-0.0024810012
172	0x3d782ec2	0.060591467
173	0x3d127556	0.03575643
174	0x3c8549a7	0.016270472
175	0x3d1e06a3	0.038580548
176	0x3d28b21f	0.041185495
177	0x3c23f6a4	0.010007534
178	0xbd1f6236	-0.03891202
179	0x3da6e16a	0.08148463
180	0xbbfc6f4a	-0.0077036964
181	0xbde3ad4f	-0.1111704
182	0x3d3b87ec	0.045783922
183	0xbd51aa30	-0.051187694
184	0xbd572c00	-0.052532196
185	0x3c2de584	0.010613803
186	0xbd09eebe	-0.033674948
187	0xbdb508b2	-0.08839549
188	0xbc32025b	-0.010864819
189	0x3d889f53	0.06671014
190	0x3da85aed	0.08220468
191	0x3d463704	0.04839231
192	0xbd4de2fb	-0.050265294
193	0xbd2adf83	-0.041717064
194	0x3c170411	0.009217278
195	0x3d0f1cb9	0.0349395
196	0x3ccfc7dc	0.025363855
197	0xbc6942c4	-0.01423711
198	0xbcd02be9	-0.025411563
199	0x3d8a1b37	0.06743472
200	0x3c9da925	0.019245693
201	0xbb8bf04d	-0.0042705894
202	0xbe0beaeb	-0.13663833
203	0xbd5903f9	-0.052982304
204	0x3dcb3ced	0.0992373
205	0x3d8cad52	0.06868996
206	0xbdbb9443	-0.09159138
207	0x3ca5b4d6	0.02022783
208	0xbc9e027d	-0.019288296
209	0xbd94d566	-0.07267265
210	0xbd906b89	-0.07051761
211	0xbd1c508c	-0.038162753
212	0x3d9fbb87	0.0779944
213	0x3bd32175	0.0064431974
214	0x3cc7299f	0.024311839
215	0x3df60545	0.12012724
216	0xbdab21cd	-0.08356056
217	0x3dcd4099	0.10022087
218	0xbd711488	-0.05885747
219	0xbd87f684	-0.06638816
220	0xbd755d47	-0.05990341
221	0xbda5be9f	-0.08092999
222	0xbd9fff77	-0.07812398
223	0xbcd9564a	-0.026530404
224	0xbd99f7f6	-0.07517998
225	0x3b49bd6e	0.0030783075
226	0xbd50327d	-0.0508294
227	0x3bb8ff95	0.005645702
228	0x3dcd5e83	0.10027792
229	0xbdf67f7f	-0.12036037
230	0x3c784a12	0.0151543785
231	0xbd3eddd9	-0.04659829
232	0xbd170c74	-0.03687711
233	0x3d3a1ce0	0.045437694
234	0x3d722756	0.059119545
235	0xbbc42290	-0.0059855655
236	0xbd550b17	-0.05201253
237	0xba99b168	-0.0011725845
238	0x3dc04aec	0.0938929
239	0xbc2f643c	-0.01070505
240	0x3d4b97be	0.04970526
241	0xbca58e62	-0.020209495
242	0x3ddfafbf	0.10922193
243	0x3cbb44b8	0.022859916
244	0x3d7da425	0.06192412
245	0x3c024ee6	0.007953381
246	0xbc03b7b7	-0.0080394065
247	0x3df03f46	0.117308185
248	0x3b32240a	0.0027182125
249	0x3c3ef2e4	0.011654589
250	0x3cf14d66	0.029455852
251	0xbd0d5514	-0.034504965
252	0x3bd4a974	0.006489927
253	0x3c4e4851	0.012590484
254	0xbd272afc	-0.040812477
255	0xbde27bfb	-0.11058804

layer_out_1.bias f4 [128]
0	0xbd85b3be	-0.06528424
1	0x3bef2e79	0.007299241
2	0x3dd86a54	0.105671555
3	0xbd9c8c34	-0.07643929
4	0xbc836ac8	-0.016042128
5	0xbd83e8ad	-0.06440864
6	0x3cdd43a2	0.027009789
7	0xbcfeb871	-0.031093808
8	0x3d9ee4e7	0.077585034
9	0xbd5c8d8b	-0.053845923
10	0xbd5add4c	-0.0534337
11	0x3d55310f	0.05204874
12	0x3d780144	0.060548082
13	0xbca94eba	-0.020667423
14	0x3d3608d6	0.04444202
15	0x3a707295	0.00091723475
16	0xbcdc921e	-0.026925143
17	0x39fb49f4	0.0004792955
18	0x3d7ae3ee	0.061252527
19	0x3cdf2ac8	0.02724208
20	0xbd18b929	-0.037285957
21	0xbbc07668	-0.00587349
22	0x3cc9f74e	0.024654057
23	0xba0a7f26	-0.0005283229
24	0xbd7fb5cf	-0.062429246
25	0x3d49471f	0.049140092
26	0x3d40316c	0.046922132
27	0x3df62f68	0.12020761
28	0x3dac00a5	0.083985604
29	0xbd814d76	-0.063136026
30	0x3dd5c904	0.10438731
31	0xbc8a4fd6	-0.016883772
32	0x3c94f255	0.01818196
33	0x3db59ee0	0.088681936
34	0xbdcf253c	-0.10114524
35	0x3d03f9d0	0.03222066
36	0x3d4bc9f6	0.04975315
37	0xbcee0b6c	-0.02905818
38	0x3dd3020d	0.103031255
39	0x3dccd8f2	0.100023165
40	0xbd28e056	-0.04122957
41	0x3c85732f	0.016290275
42	0x398739fe	0.00025792414
43	0xbca44e75	-0.020056942
44	0x3da5e17f	0.080996506
45	0x38b03f87	8.404167e-05
46	0x3dcc2caa	0.099694565
47	0x3d506dfc	0.05088614
48	0x3d741efa	0.059599854
49	0xbd6196bb	-0.05507539
50	0x3d14b2ad	0.03630321
51	0x3d594f11	0.05305392
52	0x3d952f23	0.07284381
53	0x3d099acf	0.033594903
54	0xbd1fe8a8	-0.039040238
55	0xbd276a3a	-0.04087279
56	0xbdbe1084	-0.09280494
57	0x3d228107	0.03967383
58	0x3d2358de	0.039879672
59	0x3becc298	0.007225346
60	0xbdb77b1d	-0.08959029
61	0x3b88fe7d	0.004180728
62	0x3c9fa9f2	0.019490216
63	0xbdea7773	-0.114485644
64	0xbd496bb3	-0.049174976
65	0xbd992425	-0.07477597
66	0x3dbc6519	0.0919897
67	0x3cdde260	0.027085483
68	0xbc2fd7be	-0.010732589
69	0xbcb4384f	-0.021999506
70	0x3daa8570	0.083262324
71	0x3dc5df3c	0.09661719
72	0x3dda6892	0.106644765
73	0xbd26092e	-0.0405361
74	0x3d7b94ba	0.061421134
75	0xbd31b236	-0.043382846
76	0xbd5651b2	-0.052324004
77	0xbcbf52df	-0.023354946
78	0x3dc367fc	0.09541318
79	0x3d32927f	0.04359674
80	0x3da92619	0.0825922
81	0x3ba72db3	0.0051018833
82	0x3d9b7887	0.07591348
83	0x3ce83ff2	0.028350804
84	0x3d6e04cd	0.058110047
85	0xbcee1a9f	-0.029065428
86	0x3d4c7294	0.049913958
87	0x3d74e1de	0.059785716
88	0x3d527bb4	0.051387504
89	0xbcaf8192	-0.021424089
90	0xbb18785f	-0.0023265106
91	0xbd1fdbec	-0.039028093
92	0xbd28e1df	-0.041231032
93	0x3c0a5b79	0.00844466
94	0xbdbb7ed6	-0.091550514
95	0xbd9395c2	-0.072062984
96	0x3df1cdae	0.118068084
97	0xbcba7a14	-0.02276329
98	0x3cfe4829	0.031040268
99	0xbc646e34	-0.01394229
100	0x3d899ad1	0.06718982
101	0xbd3692a6	-0.04457345
102	0xbd9acc5f	-0.07558512
103	0xbd21ac64	-0.039471045
104	0x3aff023e	0.0019455624
105	0x3d8bda3b	0.068287335
106	0x3d94466b	0.07239994
107	0x3cc3d6c5	0.023906121
108	0x3da6637c	0.08124444
109	0xbdd5f656	-0.104473755
110	0x3ccfa14e	0.02534547
111	0xbda2f4f4	-0.07956877
112	0xbdb6be6a	-0.08923037
113	0xbd91c2e8	-0.071172535
114	0x3dad3fdb	0.08459445
115	0x3d684475	0.05670591
116	0xbc850e6d	-0.01624223
117	0x3c3150dd	0.010822502
118	0x3c4c7314	0.012478609
119	0x3da95631	0.08268393
120	0x3b4376a0	0.0029825345
121	0x3d6b0611	0.057378832
122	0x3d3abf9e	0.045592897
123	0x3d84307d	0.06454561
124	0xbcc581ea	-0.0241098
125	0x3d8c35bf	0.06846189
126	0xbc54d82b	-0.012990992
127	0x3d066c10	0.0328179

layer_out_2.weight f4 [53, 128]
0	0x3b001f04	0.0019549737
1	0xb8b9f18c	-8.866479e-05
2	0x3d77c572	0.060491033
3	0x3d317104	0.04332067
4	0x3d2940eb	0.041321676
5	0x3ceea43c	0.029131047
6	0x3b1e486c	0.0024152054
7	0x3ca53e8a	0.020171423
8	0xbda0d284	-0.07852653
9	0xbe096e08	-0.1342088
10	0xbbd46203	-0.0064814105
11	0x3dfdd6ca	0.123944834
12	0x3d0b56cb	0.03401832
13	0xbcd6a4bd	-0.0262016
14	0x3a82a96d	0.0009968706
15	0x3c00146a	0.007817367
16	0xbc329354	-0.010899384
17	0x3d63a4f3	0.05557723
18	0x3cb2d319	0.021829175
19	0x3d30d753	0.0431741
20	0x3c84366a	0.016139228
21	0x3b52fa2a	0.0032192566
22	0xbc9eea3a	-0.019398797
23	0x3cf9c5d3	0.030489838
24	0x3c8f2e7f	0.017478226
25	0x3d28781f	0.04113018
26	0xbdee6f0e	-0.11642276
27	0x3d5acc9d	0.05341779
28	0x3bf774e2	0.0075517753
29	0x3cb10322	0.02160794
30	0xbcb969c0	-0.022633433
31	0x3d6f8c88	0.05848363
32	0x3ce43ba7	0.027860476
33	0xbc4f5584	-0.012654666
34	0x3c024938	0.007952027
35	0x3dae851f	0.085214846
36	0x3db3dfa3	0.0878289
37	0xbbd4a5f8	-0.0064895116
38	0xbd4bedd6	-0.049787365
39	0xbdfd2d0e	-0.12362109
40	0xbdd0b7c9	-0.10191304
41	0xbd42ce44	-0.04755999
42	0xbd77fdda	-0.060544826
43	0xbd50dfd2	-0.0509947
44	0xbd50de9c	-0.050993547
45	0xbdb921b7	-0.09039634
46	0x3dcea8bc	0.10090777
47	0x3cbd277c	0.023090117
48	0xbde4cc2c	-0.11171755
49	0xbd8b16e8	-0.067914784
50	0x3d16ddfe	0.036832802
51	0xbb9e933c	-0.004839329
52	0xbc2b18de	-0.0104429405
53	0x3ce58656	0.028018158
54	0xbc44117c	-0.011967059
55	0xbb4273df	-0.0029671115
56	0xbda4f673	-0.08054819
57	0xbd615287	-0.055010345
58	0xbc6a65b7	-0.014306477
59	0xbc8d924a	-0.01728167
60	0xbd0007d4	-0.031257465
61	0x3bd93daf	0.0066296677
62	0xbcb4d939	-0.022076236
63	0xbd8205d1	-0.06348766
64	0x3d821c92	0.063531056
65	0xbda1574c	-0.07877979
66	0x3d0f7b5f	0.035029765
67	0x3ceb2e21	0.02870852
68	0x3d66f493	0.056385588
69	0x3cabcd4b	0.020971915
70	0xbd238e18	-0.039930433
71	0x3dd8f11a	0.105928615
72	0x3d9c486a	0.076309994
73	0xbc6d1fc5	-0.0144729065
74	0xbc82203c	-0.015884511
75	0xbda70a29	-0.08156235
76	0xbcc46aa7	-0.023976637
77	0xbb4ed747	-0.003156142
78	0x3a9413f6	0.0011297453
79	0x3df0bc5e	0.11754678
80	0x3dc489fc	0.09596631
81	0x3d4bec9b	0.04978619
82	0x3be0a095	0.0068550804
83	0xbc62917a	-0.01382863
84	0xbc6aba9a	-0.014326716
85	0x3c549446	0.012974804
86	0x3c357a7f	0.011076569
87	0xbc388a48	-0.011263438
88	0x3cf74438	0.030183896
89	0xbcbb7167	-0.022881223
90	0xbce52a72	-0.027974341
91	0xbdb72b20	-0.08943772
92	0xbdb0aea3	-0.08627059
93	0x3c740f5d	0.014896241
94	0x3c225d90	0.009910002
95	0xbd711748	-0.058860093
96	0x3ccd9800	0.025096893
97	0x3cda9cfb	0.026686182
98	0xbd0414b2	-0.0322463
99	0xbd733a16	-0.059381567
100	0x3cab14a2	0.020883862
101	0xbb89de14	-0.004207382
102	0x3ceb37e1	0.028713169
103	0xbd8f2121	-0.06988741
104	0xbccb7eed	-0.024840796
105	0x3c296927	0.010340012
106	0xbe2f2810	-0.17105126
107	0x3d2c7aeb	0.04210941
108	0x3d741795	0.059592802
109	0x3ca6f0e6	0.020378541
110	0x39d28b2e	0.00040158018
111	0x3cb20e96	0.02173547
112	0xbcad4ce0	-0.02115482
113	0xbc558c21	-0.013033898
114	0x3d48937f	0.04896879
115	0xbd53b1f0	-0.051683366
116	0xbd954f13	-0.07290473
117	0x3ccfbefe	0.025359627
118	0xbcbf2ec0	-0.023337722
119	0x3bcefa3a	0.0063164504
120	0x3d2567dc	0.04038225
121	0xbd67e285	-0.05661251
122	0x3d77eb2c	0.06052701
123	0xbcf896a9	-0.030345278
124	0xbd9fa9d5	-0.07796065
125	0x3d58433b	0.05279849
126	0x3db1a509	0.08674056
127	0x3d56be56	0.052427612
128	0x3c8b89ab	0.017033419
129	0xbd17a053	-0.03701813
130	0xbd142286	-0.036165737
131	0xbd2ba88a	-0.04190878
132	0xbde5306d	-0.11190877
133	0x3d881969	0.066454716
134	0xbdf9eea0	-0.12203717
135	0x3cc10704	0.023562916
136	0x3d2437e3	0.04009236
137	0x3d4d450e	0.050114684
138	0x3c7e1008	0.015506752
139	0x3cc970ec	0.024589978
140	0xbcf931df	-0.030419288
141	0x3c910999	0.017704772
142	0xbd20b4db	-0.039234977
143	0xbc382072	-0.011238204
144	0x3ca289db	0.019841125
145	0xbd0b7fef	-0.034057554
146	0x3c9a8590	0.018862516
147	0x3d566e03	0.05235101
148	0xbde7b968	-0.1131466
149	0x3cafb18d	0.021446967
150	0x3da2f01e	0.07955955
151	0x3d4b95b7	0.049703326
152	0x3d9a0b36	0.075216696
153	0x3c427954	0.011869747
154	0x3c87a06a	0.016555984
155	0xbd96a42a	-0.073555306
156	0xbdde4c92	-0.108544484
157	0x3c2a8f11	0.010410086
158	0xbdb1e80b	-0.08686837
159	0x3c196a8a	0.00936378
160	0x3d06f8ee	0.03295224
161	0x3daf05a6	0.08545999
162	0xbc8afdf7	-0.016966803
163	0x3d739dd7	0.0594767
164	0x3d8db54f	0.069193475
165	0x3dc72461	0.097237356
166	0x3d303beb	0.043025892
167	0x3d64f016	0.055893026
168	0xbda9c055	-0.082886375
169	0x3c3bd3a1	0.0114640305
170	0x3adcdfb1	0.0016851333
171	0xbbfed34e	-0.0077766543
172	0xbd346df3	-0.04405017
173	0xbc5fe4b4	-0.013665367
174	0xbd31b881	-0.043388847
175	0xbcfa3669	-0.030543523
176	0x3a0a841d	0.00052839686
177	0xbcc8251f	-0.024431763
178	0x3cefc168	0.029267028
179	0x3b40ca74	0.0029417546
180	0x3c8e9abd	0.01740777
181	0xbd0e87a7	-0.034797337
182	0xbc78a17f	-0.015175222
183	0x3d29e46f	0.041477617
184	0xbdd9e472	-0.106392756
185	0xbc7c84dc	-0.0154125355
186	0xbce92e5f	-0.028464494
187	0x3bad3835	0.0052862414
188	0xbb799abb	-0.0038086611
189	0xbb1c55f7	-0.002385495
190	0xbd195fc6	-0.037444852
191	0x3cdc3a83	0.02688337
192	0x3d8f0a7d	0.06984422
193	0xb9ad51db	-0.00033058118
194	0x3d840c4e	0.064476594
195	0xbdb33d52	-0.0875193
196	0x3d0200dc	0.0317391
197	0x3d5ec8a0	0.05439055
198	0xbcd992d2	-0.026559267
199	0xbc9b8892	-0.01898602
200	0x3d9e198b	0.07719716
201	0x3cc33203	0.023827558
202	0x3d7c3fad	0.061584163
203	0x3ce11360	0.027475059
204	0x3d92f06a	0.071747616
205	0xbd8b6199	-0.06805725
206	0xbdbc6bdf	-0.09200262
207	0x3c5fe2eb	0.013664941
208	0xbdb64032	-0.08898963
209	0x3aca3c8e	0.0015429424
210	0xbdcae2c1	-0.09906531
211	0x3ccfa507	0.025347246
212	0x3d162ded	0.036664892
213	0xbd0e6bdd	-0.034770835
214	0x3d44a8a3	0.048012387
215	0xbc6f85b5	-0.014619281
216	0x3d9839bf	0.07432889
217	0xbcb9cb7e	-0.02268004
218	0x3cb42044	0.021988042
219	0xba08aee4	-0.0005214049
220	0xbd94ae1a	-0.0725977
221	0x3d2cf8a8	0.042229325
222	0x3d93f28a	0.07223995
223	0xbc1c4679	-0.009538286
224	0x3d1e1fb5	0.038604457
225	0xbdd068a4	-0.101762086
226	0xbdaad134	-0.083406836
227	0xbd3ac17e	-0.045594685
228	0x3c1a5a9b	0.009421016
229	0x3d4ac37c	0.049502835
230	0x3da48892	0.08033861
231	0x3d965eac	0.07342276
232	0x3d065be4	0.032802477
233	0xbc6f5806	-0.014608389
234	0x3cf13017	0.029441876
235	0x3d573684	0.052542225
236	0xbdbbd216	-0.0917093
237	0x3d8ee703	0.06977656
238	0xbcff19a1	-0.03114015
239	0x3d994a3a	0.07484861
240	0xbcd83cc9	-0.026396172
241	0xbd2efbe6	-0.042720698
242	0x3d68d5db	0.056844573
243	0xbc35c0f9	-0.011093372
244	0x3c8ae14c	0.016953133
245	0xbd4d56f1	-0.050131742
246	0x3d03ab5a	0.032145835
247	0x3c68dbfc	0.014212605
248	0x3dcb353e	0.099222645
249	0x3d852342	0.065008655
250	0x3ccb45e0	0.024813592
251	0xbca6c0e0	-0.020355642
252	0x3c9e2fa2	0.019309822
253	0xbc18b43f	-0.009320318
254	0x3d3d7f6a	0.04626409
255	0xbdeb788d	-0.114976026

layer_out_2.bias f4 [53]
0	0x3d14250b	0.03616814
1	0x3c390aa0	0.011294037
2	0x3cb26fd8	0.021781847
3	0xbcb5c3fa	-0.022188175
4	0xbcebeb14	-0.028798617
5	0x3b375cef	0.0027978977
6	0xbbe1f5bc	-0.006895749
7	0x3c988e06	0.01862241
8	0xbcdebf05	-0.027190695
9	0x3c9eb1f1	0.019371958
10	0xbcb9243c	-0.022600286
11	0x3be49a7c	0.006976424
12	0x3c9ebfcc	0.019378565
13	0xbc053014	-0.0081291385
14	0x3b457c36	0.003013385
15	0x3c04ff41	0.008117498
16	0x3c8091df	0.015694557
17	0xbb9b3a5b	-0.004737181
18	0xbc7ca537	-0.01542025
19	0x3c61706d	0.013759715
20	0xbbe22c03	-0.0069022193
21	0x3c38ceca	0.011279771
22	0x3cc7300e	0.024314906
23	0xbc97a184	-0.018509634
24	0xbd10b1ec	-0.03532593
25	0xbd254c00	-0.040355682
26	0x3c997d3b	0.018736472
27	0x3c4a2722	0.012338432
28	0xb81f95ec	-3.804818e-05
29	0x3adfac3d	0.0017064881
30	0x3c9139a0	0.017727673
31	0xbc310374	-0.010804046
32	0xbc3c8161	-0.011505456
33	0x3a9b3a60	0.0011842959
34	0x3cbf951f	0.023386536
35	0xbc87b6f9	-0.01656674
36	0x3c305134	0.010761548
37	0x3c30a2a1	0.010780961
38	0xbc25c26b	-0.010117154
39	0xbc86fb60	-0.016477287
40	0x3c0d9078	0.008640401
41	0xbc2be4f9	-0.010491603
42	0xbcb53426	-0.022119593
43	0x3c5b9f83	0.01340473
44	0xbc5b6967	-0.013391829
45	0xbc116e25	-0.008876358
46	0x3b1ec426	0.00242258
47	0x3cb54a12	0.022130046
48	0xbc3bbb9f	-0.011458307
49	0xbce5e2ef	-0.028062312
50	0xb97eea4b	-0.00024310609
51	0x3b5828fc	0.0032983413
52	0xbc7b99d6	-0.015356502
