results/DDPM/NUM_LAYERS_TRANSFORMER/2/model_final.pth (torch, 310163 bytes, 38 tensors)

layer_x.weight f4 [64, 53]
000000 75 e0 4d be 0c ad 40 3d e3 bc 3b 3e 97 87 ab 3b
       -0.20105155 0.04704003 0.18333773 0.0052346694
000010 02 91 4d 3d 5e 3e 21 3d 7e ce 17 3e 4e ba 15 3d
       0.05018712 0.03936612 0.14824864 0.036554627
000020 92 ff 6c bd 58 90 94 3d 3b 22 27 bd 4a 4d 63 3d
       -0.05786092 0.07254094 -0.04080413 0.05549363
000030 7c 26 46 bc fa 5e ab 3d 31 f7 92 3d 9a 08 8a 3c
       -0.012094136 0.08367725 0.07176054 0.016849805
000040 fd 7f 1f 3d 6e ef ef 3c c1 f2 90 bd b8 74 54 be
       0.03894042 0.029288974 -0.07077552 -0.2074765
000050 c4 cb 93 bd 2e 01 79 3d 51 49 29 3d 87 85 fd 3c
       -0.072165996 0.06079214 0.041329686 0.03094746
000060 75 da 84 be 49 60 9e 3d c7 97 15 3c fc 0a 9b bd
       -0.2594792 0.07733209 0.009130425 -0.075704545
000070 08 d4 4d 3d e8 1c 03 3e 96 b6 19 3d a1 a0 62 3d
       0.050251037 0.12803996 0.037527643 0.05532897
000080 7c 56 02 3e f9 e5 b8 3c 99 90 85 3d aa 11 65 3c
       0.12728304 0.022570597 0.065217204 0.013981262
000090 2f 8f 8b 3a 75 7b 1b 3e 7f f9 c4 3d b4 80 89 bd
       0.001064753 0.15183814 0.096179 -0.06714001
0000a0 de 28 06 3e e1 51 b3 ba cf c1 3b bd f8 86 1b bd
       0.13101527 -0.0013681018 -0.045839127 -0.037970513
0000b0 fd ed 98 3c 19 1d 04 3d 9e b9 af bd 98 61 4c bd
       0.01866817 0.032254312 -0.085803255 -0.04989776
0000c0 2e 0b 3d 3e 8c fd 87 3d 0c fe 58 3c 87 37 13 3e
       0.18461296 0.06640157 0.013244163 0.14376651
0000d0 29 8a c8 bb 52 ab 05 3e 53 fe 8d 3c f2 eb 0c be
       -0.0061199856 0.13053635 0.017333185 -0.13761881
0000e0 35 f0 fc 3d 52 8a ff bb 15 e3 c7 3d 63 2c 42 3d
       0.12350503 -0.0077984715 0.09760109 0.04740561
0000f0 23 e0 a5 3c f1 33 8f 3d 2c 63 92 3d e1 67 95 3d
       0.020248478 0.06992329 0.07147822 0.07295204
000100 31 4d b2 3d 9d a0 c1 3d 65 ab 0f 3e 38 1a 3c 3d
       0.08706129 0.09454463 0.14030226 0.04592344
000110 82 dd 07 3e ff 7a 2e 3c f1 ec 72 3d 50 87 14 3c
       0.13268092 0.010649442 0.059307996 0.009065464
000120 8c 99 02 3e 1f c7 11 3d db e6 a2 3d ba 6b fd 3c
       0.12753886 0.035590287 0.079541884 0.030935157
000130 de a7 30 3d 7d a7 79 bd bf 85 15 be 0a bd 85 3d
       0.04312884 -0.060950745 -0.14601801 0.06530197
000140 2a 1e 95 bb 2b 13 b9 3d b6 70 08 3e 05 8f e8 bc
       -0.004550715 0.09036859 0.13324246 -0.02838851
000150 64 74 d0 3d 32 cb ac 3b 82 fc 53 3d 4e 41 b3 3d
       0.1017845 0.005273246 0.051754482 0.0875269
000160 b8 ea 0f 3c d1 a2 3f bd bc 12 89 bd cd 8b ae bc
       0.008783989 -0.046786133 -0.066930264 -0.021306897
000170 12 b1 d6 3d 15 9f 9f 3d d5 39 91 3d 2b d9 f6 3d
       0.10482992 0.07794014 0.07091109 0.1205314
000180 36 0e 87 3d 3e 16 c8 3d b5 18 57 3d 61 51 a1 3b
       0.065945074 0.09769867 0.052513797 0.004923031
000190 da d4 88 be 27 e1 02 3d 5f 3f db 3d fd c2 2c 3d
       -0.26724893 0.031953003 0.107054465 0.042178143
0001a0 53 aa 50 bc 57 b1 3c bd 67 22 3e 3d 74 24 02 bd
       -0.012735921 -0.046067562 0.046419527 -0.031773046
0001b0 7b 5b f6 3c 2d 72 ec bd d5 04 9f 3d fd 8a 8f bd
       0.030072918 -0.11545215 0.077645935 -0.07008932
0001c0 08 1f 06 bd d6 61 55 bc 57 13 45 3e 22 d8 6b 3d
       -0.032744437 -0.013023814 0.19245659 0.057579167
0001d0 8b fd d6 bd e0 79 67 bd 6b b6 e1 3c 08 66 18 be
       -0.10497578 -0.056512713 0.027552804 -0.14882672
0001e0 2d 6c 69 bd b7 2a 0f be ea 76 5b bd c9 88 92 bd
       -0.05698793 -0.13981138 -0.053580202 -0.07154996
0001f0 0d 20 4b be d0 50 6a bd 5c ed 9d 3c 26 05 9b bd
       -0.19836445 -0.057205975 0.01927822 -0.07569341
000200 66 bc 78 bd 9d 88 90 bd 17 28 bc bc c3 45 95 3b
       -0.060726546 -0.07057307 -0.022968335 0.0045554354
000210 ed 11 76 bd d6 3d 25 3e 54 09 11 be 06 d1 db bd
       -0.06007569 0.1613687 -0.14163715 -0.107332274
000220 08 25 0a bc 93 33 76 bd de 35 f1 bd 1a 32 21 3a
       -0.0084316805 -0.06010778 -0.117778525 0.00061491283
000230 0a a4 73 bc 82 b4 04 3c 0f e0 99 bd a0 90 3b 3c
       -0.014870653 0.008099677 -0.07513439 0.0114480555
000240 61 28 15 bd e8 42 4d bd b2 3d 60 be 9d 8a a4 bd
       -0.03641546 -0.050112635 -0.21898535 -0.08034251
000250 28 29 aa 3c 42 0a 03 3e 06 6f d4 bd 60 d0 33 3d
       0.020771578 0.12796882 -0.103727385 0.043899894
000260 37 75 cb bd 33 f2 0d be f7 42 97 bd dc 56 e9 bd
       -0.09934466 -0.13861923 -0.073858194 -0.1139352
000270 94 a6 71 bd ae 45 2b bc 6d b5 4a be 53 a0 49 bc
       -0.058996752 -0.010453625 -0.19795771 -0.012306291
000280 ff 98 84 3d a7 a7 8f bb 56 fe 32 3d 6b 52 d8 bd
       0.06474494 -0.0043839994 0.043699585 -0.10562595
000290 c9 5c 64 bd 04 00 01 3e ad e1 04 3d de 10 d5 bd
       -0.05575255 0.12597662 0.032441784 -0.10403608
0002a0 7e 78 24 3e 78 c4 8b 3c cf ee 92 3d 36 5d 01 bd
       0.16061589 0.017061457 0.071744554 -0.031583034
0002b0 89 ba d6 bd 97 ce 99 3c 11 e7 32 bd 49 b5 bd 3d
       -0.104847975 0.018775268 -0.043677393 0.09263093
0002c0 e8 6c da 3c ff 44 3b 3d 17 6a e7 bd d9 75 52 bc
       0.026663259 0.045720097 -0.11299532 -0.01284548
0002d0 ae 24 a3 be e7 70 30 bb fb 3c 12 3d 6f a8 9b 3d
       -0.31863922 -0.0026922764 0.035702687 0.076004855
0002e0 1c 5f 24 3b f0 58 ba 3c 1c f1 2a 3e 35 77 9f 3d
       0.0025081104 0.022747487 0.16693538 0.07786409
0002f0 58 1d 95 3c a5 53 99 bd a9 a8 e4 3d 79 6a fc 3d
       0.018202469 -0.07486657 0.11164982 0.123249955
000300 93 1b d2 3c 86 0e 03 bc b4 52 a1 3b 44 7d f9 bc
       0.025647914 -0.007999068 0.004923189 -0.03045524
000310 b4 5e ce ba 74 08 ba bd fb 71 01 bd 96 92 31 3d
       -0.0015744776 -0.090836436 -0.03160284 0.043352686
000320 14 8a 12 3c 90 c1 d5 bd 13 a1 0c bd 74 bc 9d 3d
       0.008944053 -0.1043731 -0.0343333 0.0770196
000330 e0 b4 a4 bc dd 8d bd 3c 79 43 ec 3d b5 44 b2 3d
       -0.02010578 0.023138935 0.11536307 0.08704511
000340 28 92 7e bd 36 0f 82 bc f6 dd 40 bd 05 0c 20 bd
       -0.062151104 -0.015876394 -0.04708668 -0.039073963
000350 46 db d6 3d d9 12 fc 39 3b c3 d3 3d d2 0b 28 3d
       0.10491042 0.00048079228 0.10339972 0.041026898
000360 1d 3f ad 3d d8 e0 53 3d 99 4a 0f bd 23 47 0e 3d
       0.084593035 0.0517281 -0.03498325 0.03473581
000370 03 77 89 3d 8e 87 38 bc 0e 8f ee bc cd 53 0c ba
       0.06712153 -0.0112627875 -0.029120948 -0.00053530635
000380 19 4a b2 bc a5 30 d1 3c 37 4a ab 3c 0d eb 88 3e
       -0.021763848 0.02553589 0.020909412 0.2674183
000390 aa db 2b be c8 ae c1 3a d2 3b 13 bd e1 07 08 3d
       -0.16783014 0.001477682 -0.03594572 0.03321064
0003a0 0b e6 35 3d 15 45 47 be ab 67 01 3d e9 fc 20 3d
       0.04440884 -0.19459946 0.031593006 0.039303694
0003b0 1a 1d 31 3e ce 63 6b bd 08 9c d8 3a f6 a2 8e bd
       0.17296258 -0.057468228 0.0016525993 -0.06964676
0003c0 4d b9 be 3d d5 7c 3a 3b 4d e0 56 3d 67 4f 5c bd
       0.09312687 0.0028455753 0.052460004 -0.05378666
0003d0 e5 a9 e4 3d 61 88 d0 3c 20 64 c5 3c 66 19 0c 3d
       0.11165217 0.025455656 0.024095595 0.03420391
0003e0 28 7b 23 3c d2 5b c3 3d 3a e9 4d bc 33 b6 54 bc
       0.009978093 0.09538998 -0.012567813 -0.012982893
0003f0 85 b8 b8 bd 3d 33 d1 3d 02 4c 2a bd 80 0f 55 3d
       -0.09019569 0.10214851 -0.041576393 0.052016735

layer_x.bias f4 [64]
000000 ec 48 14 3e be ae 80 3e c4 50 5e 3e 20 ae 8b 3e
       0.14480942 0.25133318 0.21710497 0.27281284
000010 fd 55 81 3e 31 c2 6c 3e 99 29 a4 3e df 42 9c 3e
       0.25260916 0.23120953 0.32062986 0.3051977
000020 f2 ab 28 3e 5c 4f 5c 3e ba b4 29 3e dd fc 89 3c
       0.16471842 0.21514648 0.16572848 0.016844207
000030 cb 2b 48 3e e8 70 2e 3e 9b a8 b4 3d 30 4f 82 3e
       0.19547956 0.17035258 0.088212214 0.2545104
000040 71 af 9d 3e fa f3 75 3e 9c de 17 3e f5 2e d9 3d
       0.30797914 0.24018851 0.14831012 0.106046595
000050 2e 0b 67 3e 4f b1 65 3e 60 23 b0 3e a2 dd 04 3e
       0.22562858 0.22430919 0.3440199 0.12975171
000060 ab e2 8b 3e f5 4e 59 3e ea b4 81 3e c9 ed 05 3e
       0.2732137 0.21221526 0.2533334 0.13078989
000070 3a 34 1e 3e a2 7c 6a 3d 61 b8 a8 3d 16 a6 94 3e
       0.1544961 0.057247765 0.082382925 0.29032964
000080 f6 a4 80 3e 02 3e 25 3e 09 fd aa 3e 94 56 9f 3e
       0.25125855 0.16136935 0.33396176 0.3112074
000090 13 4e 58 3e 89 eb 8e 3e 87 62 0c 3d 31 2d 57 3e
       0.21123533 0.27914074 0.03427365 0.21013333
0000a0 fd 17 93 3e 9a af 62 3d 24 e9 43 3e d0 a1 97 3e
       0.2872924 0.055343248 0.19131905 0.2961564
0000b0 5c 50 87 3e 1a bf c4 3d b6 66 08 3e 25 7c 8d 3e
       0.26428497 0.09606762 0.13320431 0.27633777
0000c0 c3 28 84 3e a6 fa 8e 3e 1b e5 47 3e 55 64 5e 3e
       0.2581235 0.27925605 0.1952099 0.21717961
0000d0 4b 1b 86 3e 87 d8 77 3e 0b f7 46 3e bc 8b 36 3e
       0.26192698 0.24203692 0.19430177 0.17826742
0000e0 aa ef a7 3e 75 c3 15 3e 5f 02 62 3e 4c 49 03 3d
       0.32800037 0.14625342 0.22071217 0.032052323
0000f0 6e 38 b5 3d 88 37 19 3e 7b d2 1a 3e 3e 2a be 3e
       0.08848654 0.1496259 0.15119354 0.37141603

layer_t_1.weight f4 [64, 64]
000000 d8 cd f4 3d 05 b3 3a 3d eb dd d7 bd b7 ae 02 bd
       0.11953324 0.045580883 -0.10540374 -0.031904902
000010 1a 71 ab bd 79 e1 2b 3e 01 69 91 3d dd 6f 15 3e
       -0.08371182 0.1678523 0.07100106 0.14593454
000020 c6 5e 90 ba 01 24 81 be 88 e5 00 be ee 12 f3 3a
       -0.0011014573 -0.2522278 -0.12587559 0.001854507
000030 fe a0 90 3c 3c 97 ea 3d da e5 e3 3d 8e 51 2b 3d
       0.017654892 0.11454627 0.11127825 0.041825823
000040 c0 a2 b3 3d 5e 33 fe 3d d6 f8 4d bc 78 a0 97 3e
       0.087712765 0.12412141 -0.012571534 0.29614615
000050 6c 1a c5 3d 01 23 69 3e 94 d3 f3 bd 23 88 0f be
       0.0962418 0.22767259 -0.1190559 -0.14016776
000060 3d f8 c3 3d c0 10 80 3e b1 a3 9b bd 80 ef 09 be
       0.09568832 0.2501278 -0.07599581 -0.13470268
000070 bf bc c4 3b ca e5 d5 3d 96 5c 83 bd 3c e4 3a 3d
       0.0060039456 0.104442194 -0.06414144 0.045627818
000080 62 a9 b2 3c 41 ef 1c be 5b 78 55 be c7 ad 17 3c
       0.021809284 -0.15325643 -0.20846693 0.00925774
000090 70 9d 1a 3e 30 ec 40 be a3 b5 c5 bd 49 af 4c be
       0.1509912 -0.18840098 -0.09653785 -0.19988741
0000a0 5a ad 1b be 53 de 00 bd 88 d2 03 be 52 1d d0 3d
       -0.15202847 -0.031462025 -0.1287328 0.101618424
0000b0 03 c2 d9 3c ed 36 74 bd 1d c2 67 3e ca 60 99 bd
       0.02658177 -0.059622694 0.22632642 -0.07489164
0000c0 59 0b 2f 3e 84 35 9b bc ba e2 95 3d 4e 19 69 be
       0.17094173 -0.018946417 0.07318635 -0.22763559
0000d0 a6 ae 21 3b d6 39 93 bc 20 5f 70 3d ce 88 23 bd
       0.002467075 -0.017971914 0.05868447 -0.03992539
0000e0 48 6d f8 3d 0f 43 ca bd b1 ed 2e be bd 3f 64 bd
       0.12130219 -0.09876072 -0.1708286 -0.055724848
0000f0 85 30 c3 bd 13 32 2c 3e 82 04 01 3e 1e 6a 94 3b
       -0.09530739 0.16815977 0.12599376 0.0045292517
000100 d6 e3 8f bb c6 0d d4 bd e8 7e da 3c 44 1b c6 bd
       -0.004391174 -0.103541896 0.026671842 -0.09673169
000110 7c 86 fe bc 38 73 34 3c e0 ba 7b bc 68 36 c5 bd
       -0.031069987 0.011013798 -0.015364379 -0.09629518
000120 00 6c 90 3d 9d 02 5f 3c 0c d8 96 bd 7c 24 de 3c
       0.07051849 0.013611463 -0.073654264 0.027117006
000130 42 95 eb 3c 5f af f8 3d 20 6b 20 3c 68 73 4c 3d
       0.028757695 0.121428244 0.009791166 0.049914747
000140 cb fd 0d 3e fe 9e 39 bd 42 cd fa 3c 77 97 8c 3d
       0.13866346 -0.045317642 0.030615453 0.06864827
000150 15 38 e1 bd 3d d3 91 38 a7 0d 02 3e 00 23 c0 bd
       -0.10997025 6.953485e-05 0.1270052 -0.09381676
000160 eb 10 ae 3c 78 9e 86 bc db c6 19 3e df 7c 4b bd
       0.021248301 -0.016432986 0.15017264 -0.049679633
000170 5e 9f 66 bd bf 6b 0a 3d c6 cb 1e bd d7 d1 95 bd
       -0.05630433 0.03379416 -0.038768552 -0.073154144
000180 da 6b 61 bc ee 33 a0 3d aa e5 56 3d 33 53 c2 3d
       -0.013758624 0.07822405 0.05246512 0.09488525
000190 cf dc 06 be 0c bb a0 3d c2 d4 88 3e 5b 3d 9f bd
       -0.1317017 0.07848176 0.2672482 -0.077753745
0001a0 1b 4f c5 bc c6 e1 08 bd b8 84 be 3d fb 56 8d bc
       -0.024085572 -0.03341844 0.09302658 -0.01725339
0001b0 ac 33 6c bd 59 df 87 bd 85 f7 b7 3d de b5 bc bc
       -0.057666466 -0.06634397 0.089827575 -0.02303594
0001c0 c7 d5 72 3c e6 d5 3d 3d b3 6d 59 bd 16 4f f3 be
       0.014821476 0.046346568 -0.053083133 -0.47521275
0001d0 bf 8a 99 3c 2a 10 33 bd e7 b4 a4 bd 2e 66 ab 39
       0.018742917 -0.043716587 -0.08042317 0.0003269179
0001e0 b9 8b 97 3d fd 3c 95 3d c6 d8 e4 bb df 6b 27 3e
       0.07399697 0.07287023 -0.006983849 0.16349743
0001f0 38 c6 17 bd a5 1c 4c 3d 01 7c 9e bd 52 ba 0b bd
       -0.03705427 0.049832005 -0.077384956 -0.034113236
000200 bd 79 ef bd 66 f1 d3 3d f2 c4 06 3d c2 69 b2 bd
       -0.116931416 0.103487775 0.032902665 -0.08711578
000210 65 4c 90 3d b8 ba 59 3e 11 67 f4 39 95 65 1d be
       0.07045821 0.21262634 0.00046616097 -0.15370782
000220 e8 71 19 bd eb 2c 2d 3e fd e6 41 bc 23 50 c3 bd
       -0.037462145 0.16911666 -0.011834857 -0.09536769
000230 48 4e 1c 3d 8f 50 0f 3e 4d d0 9b 3d 6a f3 c6 bc
       0.038160592 0.13995574 0.076080896 -0.02428599
000240 e7 b2 84 bd 5e 66 5e 3d 55 b3 df 3d eb 9f c5 bc
       -0.064794354 0.054296844 0.10922877 -0.024124106
000250 39 0a 24 be b9 c8 9e bd 4d 15 00 be e7 98 1c 3d
       -0.16019525 -0.077531286 -0.12508126 0.038231757
000260 18 66 1a 3e 2d 3e 15 bc 28 49 d3 bd 29 e7 9f 3d
       0.15078008 -0.009109062 -0.10316688 0.07807762
000270 52 38 bf bd 9e 53 3d bd aa 6e 85 bd 1c 0a 5b bd
       -0.09336914 -0.04622232 -0.06515248 -0.053476438
000280 27 9d 46 be e4 8e e0 b9 95 1a 15 be 8a cc 03 3e
       -0.19395886 -0.0004283107 -0.14560921 0.12870994
000290 f4 cf 2a 3d 95 ff 12 3e dd 9f 21 3c 76 a0 c7 3c
       0.041702226 0.1435531 0.0098647745 0.024368506
0002a0 33 36 f2 bc de 3d d3 3d dc f4 0a 3d 7c 56 2c be
       -0.02956686 0.103145346 0.033924922 -0.16829866
0002b0 2c c0 86 3a 21 ae f9 3c b5 fb 8c 3d f9 19 d5 3d
       0.001028066 0.030478539 0.06883947 0.104053445
0002c0 a2 cb 02 be 43 c7 66 3e 5c 54 f4 3c 79 ac 76 3e
       -0.12772992 0.2253695 0.029825382 0.2408923
0002d0 6b 35 e5 bd 1d 8a d8 3d 6e dc e4 3d d7 f7 07 3d
       -0.11191829 0.10573218 0.11174856 0.033195343
0002e0 2a 32 e6 3d d6 9c 27 be 18 0b 48 bc e4 84 94 3c
       0.11240037 -0.16368422 -0.012209676 0.018129773
0002f0 64 ac 88 3d b5 e9 69 bc 25 d3 9c 3d e1 bf e6 3c
       0.06673506 -0.0142769115 0.0765746 0.028167667
000300 62 55 e2 3c 2f 40 02 3e 2d db 23 bd 26 75 89 bd
       0.027628604 0.12719797 -0.040003944 -0.067117974
000310 68 da 3a 3e a3 bf 1f be f6 23 57 bd 36 9b bd bd
       0.18247378 -0.15600447 -0.05252453 -0.0925812
000320 03 1e a5 3c e1 63 6d 3d 9e 00 03 3e dd 83 ba 3d
       0.020155912 0.05795658 0.12793204 0.09107182
000330 29 08 00 3e 94 2a 8d 3e b4 7b 6b 3c 6b c7 e3 bd
       0.12503113 0.27571547 0.014372755 -0.1112202
000340 d7 5b 35 be 9f 86 80 bd c0 e1 c3 bd 21 85 22 3e
       -0.17710815 -0.06275677 -0.09564543 0.15871097
000350 c7 7e 39 3c 2e f5 6f 3e f2 97 1f bc 5e d7 ea 3d
       0.01132173 0.23433372 -0.009740816 0.11466859
000360 0b fb 00 be ae 55 9f 3a 7f 55 49 3d 42 0f 0e be
       -0.12595765 0.0012156272 0.0491538 -0.13873008
000370 b3 f5 08 bd e6 4f 7d 3e f3 57 61 be ea e0 46 3e
       -0.033437442 0.2473751 -0.22006206 0.19421735
000380 8c 08 f1 bd bd c0 0e 3d 1a c5 a3 bd 5b bd 83 bd
       -0.11769208 0.03485178 -0.079965785 -0.06432601
000390 2f 7a 35 3e 72 0d 3f be 1b ba 12 be ec 0d 11 bd
       0.1772239 -0.18657473 -0.14328806 -0.035413668
0003a0 45 8d 51 bd 0a 8d f1 bc 6f 92 fc 3c 29 bb 47 3d
       -0.051160116 -0.029486198 0.030831544 0.048762474
0003b0 64 50 f3 bd 17 5e 2c be f9 2b ec 3b 50 68 57 bd
       -0.11880568 -0.16832767 0.0072073904 -0.052589715
0003c0 7d bb 53 3e 22 fa 1c be d9 e3 0d 3e b9 37 83 3d
       0.2067699 -0.15329793 0.13856448 0.06407113
0003d0 91 3e aa bd eb 45 12 be 81 d2 3c 3c 31 0e e0 3d
       -0.08312715 -0.14284484 0.011524797 0.10940207
0003e0 0b e2 a1 bd 6c dd 87 bc 43 7d 3e bd 69 3b 4f 3d
       -0.079044424 -0.016585074 -0.046506178 0.050593767
0003f0 ab 04 56 3d 4a 78 25 3e c1 4c 31 3e 97 7c 56 bd
       0.052250545 0.16159168 0.17314436 -0.052364912

layer_t_1.bias f4 [64]
000000 af 5a de 3d 22 af 0a 3e 90 6d 4d 3d ae bc 0d be
       0.1085714 0.1354337 0.050153315 -0.13841507
000010 7c 68 bd bc 0d c5 85 bd 00 99 86 3d 92 b7 a4 3d
       -0.023121111 -0.06531725 0.06572151 0.08042826
000020 b7 cc 1b 3d 6c 44 90 3d a7 be 1c be 2e f6 86 3c
       0.03803703 0.070443004 -0.15307103 0.01647481
000030 84 08 f2 bc 9b 56 0d 3d 90 5b 2d be 8e b7 1e 3d
       -0.029545076 0.03450642 -0.1692946 0.03874927
000040 ab cf 99 bd db 07 38 bd ad b2 8c bd da 26 c3 bb
       -0.07510313 -0.044929367 -0.06870017 -0.005955559
000050 fd 3d a5 bd 5f 9e eb 3c f7 70 6c bd ce d6 eb 3d
       -0.08068464 0.02876204 -0.05772492 0.1151558
000060 80 1b 82 bd 25 bf 04 3e a5 31 3b 3d c3 82 5e 3d
       -0.063529015 0.12963541 0.04570164 0.054323923
000070 ac 1e da bd b0 16 f1 bc 1d fe 04 3e 37 dd e0 bd
       -0.106503814 -0.029429764 0.12987562 -0.109796934
000080 e2 30 c3 3c e4 46 56 3d eb 10 6f bd eb c4 ec bc
       0.02382702 0.0523137 -0.058365744 -0.028902492
000090 ff 6c 03 3e 13 9f 1b 3c a3 cb b2 bd 78 33 81 38
       0.12834547 0.0094983755 -0.08730247 6.160786e-05
0000a0 be fc 4c bd 18 99 b2 3d 81 1b 0f 3e 0f 3a 95 bd
       -0.05004572 0.087206066 0.13975336 -0.072864644
0000b0 d7 3a e8 3d 1f 6f 4f 3d dd 61 81 bd 74 d1 c1 3d
       0.11339348 0.050643083 -0.06317494 0.09463778
0000c0 e1 0b ed bd 09 d6 10 be b0 85 dd 3b 67 7c 2e 3d
       -0.11574531 -0.14144148 0.0067603216 0.042599108
0000d0 fe 58 7a 3d 13 39 04 3d 84 10 bd bc c0 e9 11 bd
       0.061120026 0.032280993 -0.023079164 -0.035623312
0000e0 d4 53 76 bd 3c 2c 08 bb f7 47 81 3d 5d 45 22 bd
       -0.06013854 -0.002077832 0.06312554 -0.03961693
0000f0 48 da 28 bd 1f d3 29 3d c4 d1 a4 3d dc de 0c 3e
       -0.041223794 0.041461106 0.08047822 0.13756889

layer_t_2.weight f4 [64, 64]
000000 ea 65 34 3d 4e 90 96 3c 8f 52 e6 3a 55 bf 1f 3e
       0.044042505 0.018379357 0.0017572212 0.15600331
000010 95 54 0e 3c be 2c 94 3d e3 7a 80 bd 17 99 12 3e
       0.008687158 0.072350964 -0.06273439 0.14316212
000020 ee 4f 39 39 ef 12 36 bd e5 fa 18 be 64 b5 64 bd
       0.00017672751 -0.04445165 -0.14939459 -0.05583705
000030 c3 e6 98 3d 40 1f 33 bd 00 79 87 3d d4 80 9e 3d
       0.07465889 -0.043730974 0.06614876 0.07739416
000040 73 88 00 be 14 5b c0 bd 80 e9 7e 3d 3b be 09 3e
       -0.12552051 -0.09392372 0.0622344 0.13451473
000050 a9 29 65 bc 7a 97 12 3e 68 1c 7f bc 06 d2 e7 3d
       -0.013986983 0.14315596 -0.015570737 0.11319356
000060 39 6c 6e 3d 0a d5 47 bd 95 2f aa 3d cd b6 11 3e
       0.058208678 -0.048787154 0.08309857 0.14229889
000070 9c c5 ca bd 8a 67 cc 3a 71 07 37 3c 4d 11 99 3d
       -0.09900972 0.0015594822 0.011171208 0.07474003
000080 61 0c 04 be c4 20 fa bd b4 e9 37 3c 83 23 8d 3d
       -0.12895347 -0.12213281 0.011225153 0.06891539
000090 3a c5 3e bd c8 2f 36 3d 8b 95 19 3e a4 71 84 3d
       -0.04657481 0.04447916 0.14998452 0.06466988
0000a0 8f d7 1a bc 88 fe 4c 3e a2 0c a4 3d 72 33 96 bd
       -0.009450807 0.20018971 0.08010222 -0.07334031
0000b0 36 79 67 bc 13 55 96 bd d6 9b c3 bd f6 1b 91 bc
       -0.01412802 -0.07340445 -0.09551208 -0.017713528
0000c0 02 4b d5 bc 39 9d 07 bd 21 96 f5 bd 19 45 13 3c
       -0.026036743 -0.033108924 -0.119915254 0.008988642
0000d0 ff 69 16 3e a1 df 4a bd e6 49 db 3d 79 3c 2f 3c
       0.14688872 -0.049529675 0.107074544 0.01069557
0000e0 d7 de b6 3a 5b 14 4f 3c d2 9e 22 3c ba 45 ce bd
       0.001395191 0.0126391305 0.009925561 -0.10071893
0000f0 f0 ef d0 3d fc fb d8 3c 70 a8 96 bd 94 b7 f4 bc
       0.102020144 0.026487343 -0.07356346 -0.029872693
000100 0e 57 f8 bd bd 00 1f bd 9f 5f 26 3e 0c 78 93 bd
       -0.12125979 -0.038819063 0.16247414 -0.072006315
000110 65 7d 34 bd ad 5d 43 3d 76 9b 62 3e a3 9e 23 be
       -0.044064898 0.047696758 0.22129616 -0.15978484
000120 b4 96 9a bc 81 ab 03 3e 9e 73 1e 3e 94 89 4f 3b
       -0.018870689 0.12858392 0.15473792 0.0031667696
000130 41 b7 71 bc 28 2a 27 bd d0 3e 9b bd 56 cb 8c bc
       -0.014753164 -0.040811688 -0.0758034 -0.017186802
000140 e7 43 bb 3d d9 2c b1 3d 6a 06 bc bd 33 5c 33 bd
       0.09143811 0.08651132 -0.09180911 -0.0437891
000150 05 f0 e2 3c 98 f3 17 bd 51 42 4a be 0f 58 84 bd
       0.02770234 -0.037097543 -0.1975186 -0.06462108
000160 c2 a2 06 3d a2 bc 00 be b9 99 7d 3d 29 f7 e5 bd
       0.03287006 -0.12571958 0.06191418 -0.11228783
000170 5e 17 03 3e 4b 3b dc 3d 10 90 13 bd a9 97 35 3d
       0.12801883 0.10753497 -0.03602606 0.044334088
000180 74 1b 28 3e 82 73 0e bd 96 ab a5 3d ca 2e df bd
       0.16416723 -0.034778126 0.08089368 -0.10897596
000190 64 98 12 3d e2 5d d6 3d 17 27 34 be 6e bb 03 bd
       0.035789862 0.104671255 -0.17593037 -0.03216117
0001a0 02 85 4a 39 a4 fc 4e 3d 03 09 40 3e 12 38 b1 bd
       0.0001931377 0.050533906 0.18753438 -0.08653273
0001b0 de cf d3 3d a7 ee f5 bb 6a 00 69 bd fd b1 16 3e
       0.10342382 -0.007505256 -0.05688516 0.14716335
0001c0 a4 61 59 3c 65 b8 46 bd 05 d4 1b 3e ac 61 e8 bd
       0.013267908 -0.048515696 0.15217598 -0.113467544
0001d0 64 e5 91 bd 9a e4 f2 bd cd 24 b6 bd 12 19 d7 bd
       -0.07123831 -0.118600085 -0.08893738 -0.10502829
0001e0 fc 7a 5d 3d f1 a2 e4 3d 13 d4 62 bd ec 78 cc 3d
       0.054072365 0.11163891 -0.05537803 0.099840015
0001f0 ac c2 26 be df 98 90 bc fc d2 2d 3e 5a f1 8b 3d
       -0.16285199 -0.01765102 0.16975015 0.068331435
000200 5e b4 6d bd 79 06 08 be 5e f2 22 3e 9c 74 cc bd
       -0.05803334 -0.13283719 0.15912768 -0.09983179
000210 eb 87 b1 bd 17 b3 07 bd 6f ef 58 3e 83 91 13 be
       -0.086685024 -0.033129778 0.21185087 -0.14410977
000220 82 fa 4f bd ec 21 82 3d ca 86 a1 3d 65 72 a9 3d
       -0.050776012 0.06354126 0.07887037 0.08273772
000230 41 11 65 3d b1 0b 32 bd f6 a7 13 be 72 00 f6 bd
       0.055924658 -0.04346818 -0.14419541 -0.12011804
000240 21 b8 c6 3d bb 87 09 3e 10 22 81 bd 0d 0b 2b bd
       0.097030886 0.13430683 -0.06305325 -0.041758586
000250 e5 2d 83 3d d3 8f 96 3d e3 bd 0a be 84 36 9b bb
       0.06405238 0.07351651 -0.13548999 -0.0047367234
000260 c7 58 98 3d e3 54 53 be da dd d0 bd e0 4d 3b 3c
       0.07438808 -0.2063785 -0.10198565 0.011432141
000270 e5 0f 4a 3d 52 75 a6 3c 24 aa 10 be 9d 1b 0c bd
       0.049331564 0.020319615 -0.14127403 -0.03420602
000280 53 65 f3 3d 44 ee 2c 3b ce 23 2e 3e 1a b7 53 bd
       0.118845604 0.0026387135 0.17005846 -0.05168829
000290 f7 10 c3 3d 98 2a bc 3d 16 6e 73 bd b5 8c 05 3d
       0.0952472 0.091878116 -0.059431158 0.03260489
0002a0 60 f9 34 3e 8a ac f8 3c 2b 5a 93 3d b4 f8 fb 3d
       0.17673254 0.03035571 0.071949326 0.12303296
0002b0 93 8d 24 3d c4 cf b3 3d 23 b1 03 3e 37 55 b8 3d
       0.04017408 0.087798625 0.12860541 0.090006284
0002c0 d3 df eb 3d 48 44 05 3d 1a 4b 25 3e 9c fd 61 bc
       0.115173005 0.03253582 0.1614193 -0.013793375
0002d0 16 58 0a bd 49 74 ba 3d 94 eb d1 3a bf f6 06 bd
       -0.03377541 0.09104211 0.0016015642 -0.03295016
0002e0 5a 08 d0 bd e6 c9 3a 3e c1 46 41 3d 27 21 ed 3c
       -0.10157843 0.1824108 0.047186617 0.028946472
0002f0 ed da 7c bc 5a 7c 1b be ea be 19 3e a0 08 f5 3d
       -0.015433055 -0.15184155 0.15014234 0.11964536
000300 5f 47 b9 3d d6 3d 08 be fa 3d 65 3b fd 09 c2 bd
       0.09046816 -0.13304839 0.0034979568 -0.09474561
000310 84 d7 53 bc 65 9b a9 3d 35 83 93 3d 48 5e d2 bd
       -0.012929801 0.08281592 0.0720276 -0.10271889
000320 a0 38 a5 bd 52 c6 06 3d db 79 e4 bc 19 13 9b 3d
       -0.08067441 0.032903977 -0.027890136 0.07572002
000330 b3 69 a6 3d 9c ee 1d 3d 33 32 22 3d 6b 02 c5 bd
       0.08125629 0.038557634 0.039598655 -0.09619602
000340 0f d7 4f 3c f6 ef 3f bd 3c 10 6a bc ec 9b 23 3d
       0.012685551 -0.046859704 -0.014286097 0.03994362
000350 c6 bf 2e 3d e2 64 fa bb 97 61 fe bc 24 a5 57 bc
       0.04266336 -0.0076414207 -0.031052394 -0.013161931
000360 c3 2e 03 ba 5d 38 4a bd 06 08 4a bd 26 3f e0 3d
       -0.00050042215 -0.04937016 -0.049324058 0.109495446
000370 a8 a9 5c 3d ef 7a 1a 3d 62 0b 56 bd 70 5d c0 3c
       0.053872734 0.037714895 -0.05225695 0.023482054
000380 64 7e df 3d 99 66 b9 3d a9 e8 7d bd 62 9d 8a bd
       0.10912779 0.09052772 -0.06198946 -0.067683
000390 ee 0b 05 3c 48 45 13 3d 8a 7b 70 3d 73 b0 95 bc
       0.00812052 0.035954744 0.058711566 -0.018272614
0003a0 8b 6d 24 bd 05 ee 37 bc ae f1 dd 3d 27 50 ec bc
       -0.04014353 -0.011226182 0.10837112 -0.028846813
0003b0 0f 2a 6a 3d 8e 9d e3 bc 30 f2 d4 3c a3 eb 2d 3d
       0.057169016 -0.027785089 0.02599439 0.04246105
0003c0 96 80 15 3d 15 59 94 bd e9 4a e0 3c 45 6f 83 3d
       0.036499582 -0.072435535 0.02737947 0.06417707
0003d0 8d d7 94 3b 84 a2 92 bc 34 09 85 3c 06 b1 66 bd
       0.004542297 -0.01789976 0.01623974 -0.056321166
0003e0 ba b8 7f bb e4 15 67 3d 90 6f 86 bd ca 8d aa 3d
       -0.0039020018 0.05641736 -0.065642476 0.08327825
0003f0 a0 af 9c 3d 8b 02 a5 bd 32 ed 0a 3d bc 6e 3d 3d
       0.07650685 -0.08057126 0.033917613 0.046248183

layer_t_2.bias f4 [64]
000000 e5 01 28 3d 34 cb b7 3d 49 29 55 bd e0 73 fc bc
       0.04101743 0.08974305 -0.052041326 -0.030816972
000010 39 59 45 3d 61 06 db 3c b6 ae 91 bd d4 b4 a1 bd
       0.048180792 0.02673644 -0.071134016 -0.07895818
000020 49 b3 a0 bd 16 0b d9 bb ad 80 b1 bc 5d 28 f1 3d
       -0.07846696 -0.006623636 -0.021667803 0.11775277
000030 d2 b9 bb 3d 1d a3 0e 3e 45 fe 2c 3d c7 3a 08 3e
       0.09166302 0.1392941 0.042234678 0.13303672
000040 96 81 6b 3d 8f a0 f4 3d 1d 26 aa 3c 73 6e b7 3d
       0.05749663 0.119446866 0.020770127 0.089566134
000050 e9 f9 18 3c db 24 b1 bd f1 cc a5 bd 8f 5a 43 3c
       0.009336927 -0.08649608 -0.0809573 0.011923446
000060 99 55 5d 3d ef b2 82 bd c3 5f ce bd 33 02 dc 3b
       0.05403671 -0.06381785 -0.10076859 0.0067141294
000070 a2 d9 02 bc 83 69 cb bd 7e 2c 74 bd 6e 31 09 be
       -0.007986458 -0.09932234 -0.059612744 -0.13397762
000080 26 49 d0 3c a9 9c 35 3e 4f 63 9f bd fb ef 9f bd
       0.025425505 0.17735542 -0.077826135 -0.078094445
000090 ff 0e 6d bd df 44 c0 bc ad ec f1 bd a0 bd 95 3c
       -0.05787563 -0.02347034 -0.118127204 0.018278897
0000a0 91 19 b8 3d db 02 8b bd 73 04 f8 3d 42 1a ec 3d
       0.089892514 -0.06787654 0.121102236 0.11528446
0000b0 85 44 f1 bc 69 6a 2c bd 86 f9 2c 3e 47 21 2b bd
       -0.029451618 -0.042093668 0.1689206 -0.041779783
0000c0 38 f0 18 3e 92 9b f6 bd 07 71 5b 3c 3d a2 b3 3d
       0.14935386 -0.120413914 0.013393647 0.08771179
0000d0 9a a0 45 bd 14 66 be ba ab 9d 06 be a6 3c f2 3d
       -0.048248865 -0.0014526271 -0.13146083 0.11827974
0000e0 31 17 85 3d 6e 7a 85 bd c6 8f b2 3d 26 37 34 bd
       0.06498564 -0.06517492 0.08718829 -0.043997906
0000f0 16 a2 8d bd 42 59 b1 3d 21 c3 ba bd 5e b7 37 3d
       -0.06915681 0.08659603 -0.09119249 0.044852607

layer_out_1.weight f4 [64, 64]
000000 a6 68 24 3d 5f cf a1 bd bc 7f b1 bc 43 61 34 3d
       0.040138863 -0.07900881 -0.021667354 0.04403807
000010 de a3 8e 3d a1 49 0e 3e 84 19 c7 bd 47 27 43 3d
       0.06964849 0.13895275 -0.097216636 0.04764488
000020 f1 0d 29 3d 80 92 15 3d c6 99 8a 3d c2 2d e7 bd
       0.04127306 0.036516666 0.06767611 -0.112880245
000030 e6 05 41 bd df 95 3d bd ee 45 c1 3d 7f da ea 3c
       -0.047124766 -0.046285506 0.09437166 0.02866864
000040 ca ad e9 3d dc 53 0c be 1f 8d 30 bc b7 b9 d0 3c
       0.11410101 -0.13703865 -0.010775833 0.02547918
000050 3b 91 fa bd 5e 1d d7 3c 93 4d 0b be 29 20 07 3a
       -0.12234732 0.02625912 -0.13603811 0.00051546335
000060 1a 11 6f bb 00 a4 a2 bd 57 5d 12 be 77 cd 98 3d
       -0.00364787 -0.07941437 -0.14293419 0.07461064
000070 6a f1 a3 bd 57 fe 87 bd 3b 28 e8 3d 08 40 35 be
       -0.080050305 -0.06640308 0.11335798 -0.17700207
000080 a5 20 d6 3d b0 3e 69 bd aa 7f bf 3d fa 9d ce b9
       0.10455445 -0.05694455 0.09350522 -0.00039409084
000090 e7 61 0e 3c ad ca d2 3c e0 ba f2 3d 20 98 75 3d
       0.008690334 0.025731409 0.1185205 0.05995953
0000a0 92 ad 06 bd 90 d3 c7 3d ef 69 5b bd e0 15 89 3d
       -0.032880373 0.09757149 -0.053567823 0.066936255
0000b0 96 a0 c8 ba fe 7d 34 3c 95 3b 76 bd ab 3b 2d 3c
       -0.0015306647 0.011016367 -0.060115416 0.010573308
0000c0 1b 76 d2 3d c4 40 2d bd 9b 79 12 bd fe c7 05 3e
       0.10276433 -0.042298093 -0.035760503 0.13064572
0000d0 3f ae b5 bd d5 ca a0 3d 06 af bf bd 45 f7 b5 3d
       -0.088711254 0.07851187 -0.09359555 0.088850535
0000e0 46 d8 02 3e 73 1c 78 bd 09 78 99 3c 73 98 13 bc
       0.12777814 -0.060574006 0.018733995 -0.009008515
0000f0 fd 02 58 bd 4a 0e 84 3d 70 b3 fb 3c ec 64 a0 3d
       -0.052737225 0.06448038 0.03072521 0.07831749
000100 4e 23 8d 3d dc 99 91 3d ce 8a f7 bd 0f 07 99 bd
       0.068914995 0.071094245 -0.12087022 -0.074720494
000110 0d 21 69 3d 65 12 68 3b 24 78 81 bb a3 86 29 3d
       0.056916285 0.0035411355 -0.0039510895 0.041388165
000120 b7 d0 e9 3d ae 28 29 bd c8 60 fe bc b3 3a 3a 3d
       0.11416762 -0.04129856 -0.031052008 0.045466136
000130 93 29 28 3d c7 4e 05 3d e9 49 1d 3c 4f ce ce 3d
       0.041055273 0.03254583 0.009600141 0.10097944
000140 b8 0a 37 3d ac fa 23 bd 02 86 1a bd be b6 0d 3e
       0.044687957 -0.04003398 -0.037725456 0.13839242
000150 cc 30 e2 3d 9a 32 f1 bd 5d dd aa bd 7e c3 07 bc
       0.110444635 -0.117772296 -0.08343003 -0.008286355
000160 0d 70 0e 3c f2 c6 2d 3c e7 6c 49 bd b6 4c 4d bd
       0.008693707 0.010606514 -0.049176123 -0.050121985
000170 80 88 15 3e 0d de 2a bd 8c f7 a6 bd 7e c0 85 bd
       0.14602852 -0.04171567 -0.081526846 -0.065308556
000180 32 fd 01 bd b9 7a a9 bd 4a 73 a3 3a 98 d2 2d 3d
       -0.031735606 -0.082753606 0.0012470272 0.042437166
000190 0b 23 e4 3c 90 3e bc bd 47 9a f7 3d 9c d3 55 bd
       0.027848741 -0.0919162 0.12089973 -0.05220376
0001a0 59 34 c2 3d c5 3b b9 3d db 1b 26 3d ea 24 ca 3d
       0.09482641 0.09044603 0.04055391 0.09870322
0001b0 e0 45 58 bd 2e d5 35 3d bd 61 e4 bc 63 66 3f 3d
       -0.052801013 0.044392757 -0.027878636 0.046728503
0001c0 02 d0 46 bd 3d b0 af 3d 2a ee 83 bd 40 64 9a 3c
       -0.048538215 0.08578537 -0.064419106 0.018846631
0001d0 4f 7c 14 bd 83 40 c4 bd 9f 49 0f 3e b1 18 24 3d
       -0.036251362 -0.09582617 0.13992928 0.04006261
0001e0 a2 30 d3 3b 51 e0 19 3c 81 69 6f bd c2 05 af 3d
       0.0064450065 0.00939186 -0.058450226 0.0854602
0001f0 04 65 c7 3c 47 ae d6 3d 56 c8 b8 3d 47 0c 26 3e
       0.02434016 0.104824595 0.09022586 0.16215621
000200 92 39 5e 3d bc 66 87 3d d4 0d 33 bd f8 75 88 3d
       0.054254122 0.06611392 -0.04371436 0.06663126
000210 ff 65 7f bd bb 5a e1 bc f5 83 17 3e 3d 19 04 bd
       -0.06235313 -0.027509084 0.14796431 -0.03225063
000220 80 cf 78 3d 25 ae 9e 3d b7 8f 80 3d f8 84 f5 3d
       0.060744762 0.07748059 0.062774114 0.119882524
000230 0b 67 8b bd 13 28 80 bd 55 54 7c 3d 66 53 ab bd
       -0.06806763 -0.062576436 0.061603863 -0.08365516
000240 f9 4b 55 bd f0 e7 91 bd c4 4b 9c bd 97 d1 02 3c
       -0.052074406 -0.07124317 -0.07631639 0.00798454
000250 9d b3 d4 3d 08 fc 0b 3e 06 32 8c 3d 2b 89 e6 3d
       0.10385821 0.13670361 0.06845479 0.112566315
000260 68 0d b8 3d fe 51 d8 bc be 27 bd 3c bc 26 c6 3d
       0.08986932 -0.026406284 0.02309024 0.09675357
000270 7f 4e 9b bc 38 68 98 bd 10 f3 6f 3b b1 e6 c0 bc
       -0.018958328 -0.07441753 0.0036613382 -0.023547502
000280 15 1a 44 3d 54 09 59 3d a7 2c 21 3d 99 29 97 3c
       0.047876436 0.05298741 0.039349224 0.018452452
000290 4f fd 13 bd 3c 85 e3 bc 03 93 4b 3c e5 51 48 3d
       -0.036130246 -0.027773492 0.012425187 0.048906226
0002a0 62 d8 23 bd 66 8c 22 bd e4 1b c0 bd e0 a9 e7 bd
       -0.04000128 -0.039684676 -0.0938032 -0.11311698
0002b0 84 67 31 3b c9 5c 91 3d 6c 03 30 bc 2e 1f 94 3d
       0.0027069757 0.070977755 -0.010743003 0.072325096
0002c0 25 83 1b be 28 14 66 3d 7e 18 e8 3d 1a c0 31 bd
       -0.15186746 0.056171566 0.113327965 -0.043396093
0002d0 0e a0 68 bd 35 7f 1b 3d 23 bc c7 bd ce 7c b2 3d
       -0.056793265 0.03796311 -0.09752681 0.08715211
0002e0 0c 79 92 bd 53 05 5b 3d d2 6f ff bc 01 88 e4 bc
       -0.07151994 0.053471874 -0.03118125 -0.027896883
0002f0 44 f5 81 bd 11 09 11 bd 62 a8 3a 3d d2 c5 00 3e
       -0.06345609 -0.035409037 0.04557074 0.12575462
000300 87 33 96 3a 65 b5 50 3d 4d b3 f4 3c 81 7b fc 3c
       0.0011459448 0.05095424 0.029870654 0.03082061
000310 2a 24 ad 3b c2 32 94 bc e1 6c cc bd 74 b0 d0 3d
       0.005283852 -0.01809061 -0.099817045 0.10189906
000320 47 e1 a4 3d 25 f3 9c bc 15 56 50 bd 70 85 cd bd
       0.08050781 -0.01915891 -0.050863344 -0.10035217
000330 46 66 13 bd 62 45 4f bd 1a 51 d4 3d c2 82 09 3e
       -0.035986207 -0.050603278 0.103670314 0.13428786
000340 a0 9e ee 3b cc 7e 64 bd 7c 27 d3 3d d3 f2 03 bb
       0.007282093 -0.055784985 0.103102654 -0.0020133748
000350 7c 9c 5f 3d 6b c9 32 3b 3c 9c cd bd bb 6f a5 3d
       0.054592595 0.00272807 -0.10039565 0.080779515
000360 30 14 29 3d cc 03 9e 3d 53 06 aa 3d 95 c4 13 be
       0.041279018 0.07715568 0.083019875 -0.14430459
000370 30 75 46 bd ef 9e fc bd 0b 64 a8 3d 34 18 fa 3c
       -0.048451602 -0.12335002 0.08222207 0.03052912
000380 10 ac c4 bc d4 84 12 3d ce a0 12 bd fd e0 fa bc
       -0.024007827 0.035771206 -0.035797887 -0.03062486
000390 dd a0 88 3d 7a 76 8e 3d f8 3b 63 bd d2 7e 35 be
       0.06671307 0.06956191 -0.055477113 -0.1772416
0003a0 6e 0b b5 3c a4 95 04 3e 5f 39 de 3c 50 12 c7 3c
       0.022100177 0.12947708 0.027126966 0.024300724
0003b0 a2 af 9c bd 00 29 dd bd 34 7d 8a bd 6c b1 02 bc
       -0.07650687 -0.10798836 -0.06762162 -0.007976871
0003c0 48 1a 8e 3b cf 30 99 bd d7 2f 2a 3d 02 d8 d3 bd
       0.004336629 -0.074800126 0.04154953 -0.103439346
0003d0 dd c4 90 bd c9 ce cf bd af f7 b5 3d 06 43 9a bb
       -0.07068799 -0.10146863 0.088851325 -0.004707697
0003e0 fd a2 a5 3c 2d 62 a2 3d 6b 2a d9 bc 25 71 bd 3d
       0.02021932 0.07928882 -0.026509484 0.09250096
0003f0 a4 de 2b bd 16 04 ee 3d f5 d4 37 bc bc 7f d9 bd
       -0.041960374 0.11621873 -0.0112202065 -0.106200665

layer_out_1.bias f4 [64]
000000 26 a4 c5 3d 90 97 a6 3c d7 d8 88 bd 11 d4 79 bd
       0.096504495 0.020335943 -0.06681984 -0.060993258
000010 0d 3d 2e 3c f3 f5 9e 3d 3f a3 e4 3c 74 fb 12 bd
       0.010634673 0.07761755 0.027909873 -0.035884336
000020 78 d4 64 bd ba d2 c1 3c fb a5 17 be 8c b7 be 3d
       -0.05586669 0.023660053 -0.1480941 0.093123525
000030 54 01 ad bd b0 2b 6d 3d 4f a8 ad bd f1 94 b6 bd
       -0.08447519 0.05790299 -0.08479368 -0.08915127
000040 bd b9 0c bd c4 32 74 bd 4a a9 b5 bc c8 12 5f 3d
       -0.03435682 -0.059618726 -0.02217545 0.05446127
000050 33 05 98 3d e1 03 93 3c 5f 74 2a 3d 09 bb 4a bd
       0.07422867 0.017946186 0.041614886 -0.049494777
000060 ef c2 25 bd 14 e7 85 3d 74 cf 7e bd 37 7b ec bd
       -0.040469106 0.06538215 -0.06220956 -0.11546939
000070 a1 67 a8 bd aa 83 f6 3d d6 42 b4 bd a1 b7 c8 3c
       -0.08222891 0.12036832 -0.088018104 0.024501624
000080 ce ee 25 bc 93 e0 28 3d c7 10 ae bd 94 12 81 bb
       -0.010127736 0.041229796 -0.08499294 -0.0039389823
000090 39 c4 8e bd 9d 94 42 bd 02 17 49 bb 96 5f 10 be
       -0.0697102 -0.04750501 -0.003068388 -0.14098963
0000a0 da 85 a2 bd b1 38 d7 3c db b3 82 bc fe 72 14 3d
       -0.079356864 0.02627215 -0.015954902 0.036242478
0000b0 af 66 97 bd 18 bc 83 bd 04 39 c6 3c 80 8b 05 be
       -0.07392632 -0.064323604 0.024197109 -0.13041496
0000c0 53 32 a4 3d 70 23 ca bd bf 6e db bd 86 59 a8 3d
       0.08017411 -0.098700404 -0.107144825 0.082202
0000d0 03 dd 02 bd 60 1f bf 3c 3d 24 b9 3d 99 77 c6 3d
       -0.031949054 0.02333039 0.09040115 0.0969078
0000e0 b2 ee c4 bd 70 fd 10 be 28 c6 ea bd 95 7f 5e 3a
       -0.0961584 -0.14159179 -0.114635766 0.0008487639
0000f0 b2 e7 bb bb 23 27 57 bc dd a4 df 3d ef e8 fb bd
       -0.0057344073 -0.0131318895 0.10920117 -0.12300288

layer_out_2.weight f4 [53, 64]
000000 73 cd 99 bd bf f3 cc 3d 9e 8a a5 3c a1 0b 15 3e
       -0.075098895 0.100074284 0.0202077 0.14555217
000010 6c 2c ec 3d 44 43 05 3d 55 07 82 3d ea bf 0a 3e
       0.1153191 0.032534853 0.06349055 0.13549772
000020 95 bd b1 bd c7 09 f4 3b 52 29 5f bd c9 d3 20 3e
       -0.08678738 0.0074474546 -0.054482765 0.1570579
000030 89 17 43 3e 72 67 bf 3d 85 53 be bd 94 bb b6 ba
       0.19051947 0.093459025 -0.09293274 -0.0013941401
000040 9d bc 2b bd 1a b9 dd bd 8d 95 c0 bd 3d 38 a3 3d
       -0.041927923 -0.10826321 -0.094035245 0.07969711
000050 85 36 16 bc b6 b9 ff bc 85 03 32 3d 62 aa 58 3d
       -0.009168272 -0.031216484 0.043460388 0.052896865
000060 3c 0f 82 bd 86 13 0b 3d ed e3 02 bb 91 5a ce bd
       -0.06350562 0.033954166 -0.001997228 -0.10075868
000070 87 6b 37 be 98 29 d0 3c 0c a9 fe bd ae f8 da bd
       -0.17912112 0.025410458 -0.12434587 -0.10691963
000080 dc 72 4b bd c6 79 c5 bd 96 96 89 3d 86 67 6f 3d
       -0.049670085 -0.09642367 0.06718175 0.058448337
000090 9e ba 01 bd b6 3a 8a bd 45 28 4b 3d 33 89 52 bc
       -0.031672113 -0.067494795 0.04959895 -0.012850094
0000a0 00 83 5a 3d 9d 52 d4 3d 76 ef 93 3d 42 a1 e8 bd
       0.053347588 0.1036732 0.07223408 -0.113588825
0000b0 26 fb 5d bd 61 43 20 bd 4e dd 4d 3d 19 cc dd 3d
       -0.054194592 -0.039126758 0.05025988 0.10829944
0000c0 43 e7 a8 3d ea ef 3b bd ec ff 18 bc 63 5a e7 3d
       0.08247235 -0.045883097 -0.00933836 0.11296537
0000d0 80 cc 98 bd 62 3f 6c 3d 56 a1 03 bd 73 bf 9c bb
       -0.0746088 0.057677634 -0.032136284 -0.0047835647
0000e0 20 01 b8 bd cd 44 bb bc 06 c3 0c 3e 21 a6 c2 bd
       -0.089845896 -0.022859955 0.1374627 -0.09504343
0000f0 66 eb f7 3b 68 32 f0 3c 52 8c c0 bd e8 ba ee 3c
       0.0075659035 0.02932091 -0.09401764 0.029141858
000100 a8 f4 42 bd a0 63 31 bd 4d 53 b2 3d 45 f8 7e bc
       -0.047596604 -0.0433079 0.087072946 -0.015562122
000110 93 34 ab 3c d2 2e e6 bc a8 41 fc 3c d2 b0 6f 3b
       0.020899093 -0.028098498 0.030793026 0.00365739
000120 ec ff 91 3d 3f 75 99 bc c6 b0 95 3c f6 4e 86 bc
       0.07128891 -0.018732665 0.018272769 -0.016395073
000130 94 0d d1 bc f6 e3 85 bd 35 c1 4f 3d 6d 35 02 bd
       -0.02551917 -0.06537621 0.050721366 -0.031789232
000140 28 c0 de bd 80 3a ae bc 70 20 d3 bc 01 ba 68 3d
       -0.10876495 -0.02126813 -0.025772303 0.056818012
000150 1f f3 f3 3a 5d 64 f1 bd 65 21 fe 3b 24 29 b1 bc
       0.0018611884 -0.11786721 0.007755446 -0.021626063
000160 ef cb b1 3b 8c 9d 39 3d 85 d2 6d 3b d2 46 e3 bb
       0.005425922 0.045316264 0.003628881 -0.0069359327
000170 44 a1 cd bc e7 4c 07 bd 96 1d 86 3d 07 2c fc bc
       -0.025101312 -0.033032324 0.06548612 -0.030782713
000180 53 74 87 3b 1d d6 81 3d 7c 61 54 3d 1f bb 84 bd
       0.00413374 0.06339667 0.05185078 -0.06481003
000190 0c 13 b7 bd 9f b2 7a bc 1f ca a4 bc ca 12 91 3d
       -0.0893918 -0.015301376 -0.02011591 0.07083662
0001a0 b4 4f b7 3c 3b 4a 33 bc 87 23 da 3d 9a 0d 67 bc
       0.022376873 -0.010942991 0.106513076 -0.014102364
0001b0 71 b4 ca 3c dc 9f b8 3d a7 b7 24 bd 25 07 22 bd
       0.024744244 0.09014866 -0.040214207 -0.039557595
0001c0 67 61 60 3a 34 4c a7 3c 80 4e 1f bd ae 30 68 3d
       0.0008559436 0.020422079 -0.038893223 0.05668705
0001d0 63 69 39 3d b6 01 88 3d b5 ac 29 3d 15 42 ce 3d
       0.04526652 0.06640951 0.041424472 0.10071198
0001e0 66 3b cc bc 6a 1d 1f bb 51 2b 06 bd ca b7 91 3d
       -0.024930667 -0.0024279007 -0.032756153 0.07115133
0001f0 96 70 7e bb c8 13 96 bc 95 d3 cf bd 5c 27 86 3b
       -0.003882443 -0.01831998 -0.10147778 0.0040940475
000200 c2 ec 80 bd 8f ea c4 bd ed cf 52 3d 63 8e dc bd
       -0.06295158 -0.09615051 0.051467825 -0.107693456
000210 96 36 2c bd cb 9c 37 3d 9f 44 d1 3d 4e 49 29 3e
       -0.042044245 0.044827264 0.102181666 0.1653187
000220 10 28 b7 3d 70 7f af 3a 33 8f d7 3d f4 85 a1 bd
       0.08943188 0.001338942 0.1052536 -0.07886878
000230 f7 04 73 3b fc 0a c9 3d 92 ff b2 bc 6e d7 07 bd
       0.0037081817 0.09816548 -0.021850381 -0.033164434
000240 21 73 d9 bd e1 2a 47 3d f7 42 52 3c 72 39 84 3d
       -0.10617662 0.048624877 0.0128333485 0.06456269
000250 ea e9 62 3d 75 24 a7 bd 00 b4 a5 bd ac 75 bf bd
       0.05539886 -0.081612505 -0.08090973 -0.09348616
000260 58 ae 02 be f1 34 8a bd d1 ac 87 bd 71 f4 71 bc
       -0.1276182 -0.06748379 -0.06624759 -0.014767752
000270 ed 6c e8 bc 76 57 c9 bd fc ad 0c 3e 3f 9d aa 3c
       -0.028372252 -0.09831135 0.13738245 0.020826934
000280 78 ff 42 bd 49 e4 55 bd ba b4 8e be 4a 9e fe bd
       -0.047606915 -0.052219663 -0.27872258 -0.12432535
000290 d1 6a 04 3c 95 8e bb bd 28 c3 d2 bc 38 3d bf bd
       0.008082108 -0.09158055 -0.025727823 -0.093378484
0002a0 dc 1b 1c bd cd bd 42 3d 67 c1 b4 3d 95 d0 bb bd
       -0.038112506 0.04754429 0.08825951 -0.09170643
0002b0 5d 82 e1 3d 03 63 c2 bc d3 e5 c6 bc d8 f7 9d bd
       0.11011193 -0.023728853 -0.02427951 -0.07713288
0002c0 e6 b9 92 3d e1 8f d0 3c 2f 18 77 3e 65 66 06 3e
       0.071643636 0.025459232 0.24130319 0.13124998
0002d0 cb df 3f 3d 5c 4e f1 3d 93 c7 bc 3c 84 22 2d bd
       0.046844285 0.11782524 0.023044383 -0.042269245
0002e0 5a 05 30 3d 9b 68 cd bc d2 12 99 bc 04 0b a9 bd
       0.042973854 -0.025074294 -0.018685732 -0.08254054
0002f0 6b eb 34 3d b2 b4 1a bd 32 ca cf bd 54 0a 2b bd
       0.044169825 -0.03776998 -0.101459876 -0.041757897
000300 ec 95 aa 3c cb d8 86 bc be f8 b3 bb 81 5e c7 3d
       0.020823441 -0.016460797 -0.005492299 0.09734822
000310 5c f7 00 bd 16 64 f3 bb ca f3 98 3d a3 aa e3 3d
       -0.0314859 -0.0074277027 0.07468374 0.11116531
000320 35 3a 33 3d ae 9a cd bd 6c bb 4b 3d 30 b6 95 3d
       0.043756682 -0.100392684 0.049739286 0.0731014
000330 10 55 02 be eb 77 93 bd 5c ce 1b 39 a1 3e 83 bc
       -0.12727761 -0.07200607 0.00014858827 -0.016021075
000340 41 1d e2 bc dc 66 b7 3c 47 03 4c bd 70 4a 70 3d
       -0.02760184 0.022387914 -0.049807813 0.05866474
000350 44 45 2b bd af 48 8b 3d e0 92 bb 3d c7 19 b0 3d
       -0.041814104 0.06800973 0.091588736 0.08598667
000360 3f 3c da bc 00 14 92 3d 61 4d 2b bd 04 cf 26 bd
       -0.026640056 0.07132721 -0.04182184 -0.04072477
000370 2b d4 56 bd 28 0a 86 bd f0 9e 96 bd be e3 d1 bb
       -0.052448433 -0.06544906 -0.07354534 -0.006405323
000380 04 33 aa 3c bd 20 11 bd 74 56 25 bd 26 84 92 bc
       0.02077628 -0.035431612 -0.04036565 -0.017885279
000390 a2 53 b6 bc d5 9f 1b 3d 03 dc 5e bd 69 8c 16 bd
       -0.022256676 0.037994225 -0.05440904 -0.036755
0003a0 4d a3 2f bd ad 31 cc bd 96 9d 00 3e 6a 6e 93 3d
       -0.042880345 -0.099704124 0.12560114 0.07198794
0003b0 96 5c 2b 3c 2f 40 a1 3c 7c 3a e2 bc 9f 2a 6b 3c
       0.010459086 0.019683925 -0.027615778 0.014353423
0003c0 99 08 88 bd 92 f3 48 bd b2 03 35 bd a4 91 fc 3d
       -0.06642265 -0.04906041 -0.044192977 0.12332466
0003d0 75 a3 b5 3d ca 33 ce 3c 34 14 96 3d d8 31 c9 bc
       0.088690676 0.02517118 0.07328072 -0.0245599
0003e0 68 f8 2e 3d 6b a7 27 3d 7c eb 8c bd 58 b2 2d 3d
       0.042717367 0.040931147 -0.068808526 0.04240641
0003f0 8f 83 10 3c 41 93 ba 3c 4c 37 d0 bd 5f 48 49 3d
       0.0088204285 0.022775294 -0.10166797 0.049141284

layer_out_2.bias f4 [53]
000000 19 8f 8b bb c5 17 d2 bb aa 0d 3e 3c 85 1b e5 bb
       -0.004259002 -0.006411525 0.011599937 -0.006991806
000010 25 77 d1 3b a4 44 87 3c 0a ea 49 bc 45 bf b9 3c
       0.006392377 0.016512223 -0.012323866 0.022674212
000020 72 de 52 bc 1f f2 e4 3c 65 fc 8f bc 1d 36 40 3d
       -0.012870418 0.027947484 -0.017576406 0.046926606
000030 79 09 2a 3b 59 98 fe bc dc 18 1a bc 2a 43 39 3d
       0.0025945588 -0.031078504 -0.009405341 0.04523007
000040 96 d8 e2 bc 78 46 89 3c 9a ad 8e bc 7c 7d c9 3c
       -0.027691167 0.016757235 -0.017416764 0.024595968
000050 cf 14 bd bc 8e 4c 09 3c 9d 05 71 3c 37 65 7a 3b
       -0.023081211 0.0083800685 0.014710811 0.0038207301
000060 62 ce a8 3d c6 42 e5 3b 54 d3 64 bb 15 45 32 bc
       0.082424894 0.0069964854 -0.0034916 -0.010880728
000070 a1 1e 02 bd 1a e7 0b 3d 50 d2 ca 3d 91 2b 0f 3d
       -0.03176749 0.034155942 0.09903395 0.034953658
000080 91 2b 46 3c cf 45 43 3b 0a f8 cb 3c d5 d0 1a bc
       0.012095348 0.0029796248 0.024898548 -0.0094492035
000090 cb bf b7 3b 51 8e 4b 3d b7 fc 37 3d f2 b6 e0 bc
       0.0056075803 0.04969627 0.044918742 -0.027430985
0000a0 fc 80 bc bc 51 ac fb bc 00 4c 96 bc 02 76 d5 bb
       -0.023010723 -0.030721815 -0.018346786 -0.006514312
0000b0 77 c5 2e 3c d0 4c be 3b c2 f0 0e bd a2 99 65 3d
       0.0106671965 0.0058074966 -0.034897573 0.05605472
0000c0 b1 61 02 3d b0 f8 c8 3c ff a4 93 3c f8 ca 01 bc
       0.031831447 0.024532646 0.018023012 -0.007921927
0000d0 07 e3 00 3d
       0.03146651

residual_layers.0.layer_norm.weight f4 [64]
000000 bc c5 77 3f 03 fc 72 3f 1c a0 77 3f 8f a1 70 3f
       0.96786094 0.9491579 0.9672868 0.9399652
000010 54 90 7b 3f 72 15 6a 3f cf 35 78 3f e2 a2 87 3f
       0.982671 0.9143897 0.96957105 1.0596583
000020 d2 ab 6f 3f 93 d9 81 3f 49 eb 72 3f 71 e2 81 3f
       0.9362155 1.0144523 0.94890267 1.014723
000030 f6 5e 7a 3f eb fc 72 3f 8a a5 6b 3f ae cc 77 3f
       0.9780115 0.9491717 0.9204947 0.9679669
000040 00 29 ad 3f 98 c5 70 3f 0e e5 77 3f 37 7e 6e 3f
       1.3528137 0.94051504 0.96833885 0.9316134
000050 d6 60 6d 3f 64 9f 6e 3f 0c 86 98 3f d1 e0 6a 3f
       0.92725885 0.9321196 1.1915908 0.9174929
000060 0a e1 83 3f 47 a1 70 3f d2 7e 76 3f e3 99 68 3f
       1.0303051 0.9399609 0.9628726 0.9085981
000070 06 fd 73 3f e6 b2 6b 3f 62 df 6e 3f 86 41 74 3f
       0.9530796 0.9206985 0.93309605 0.9541248
000080 bd fa 6d 3f 4c 73 82 3f 05 54 a7 3f a5 55 6d 3f
       0.9296072 1.0191436 1.3072516 0.9270881
000090 df 39 6b 3f a0 ca 82 3f 2d 85 60 3f 2b f3 76 3f
       0.9188518 1.0218086 0.8770321 0.96464795
0000a0 60 f1 6a 3f 1d 97 75 3f cd 67 66 3f a0 d5 9f 3f
       0.9177456 0.95933706 0.9000214 1.2487068
0000b0 7a cd 7a 3f a1 4a 6b 3f dc 85 70 3f 86 9f 77 3f
       0.9796978 0.9191075 0.93954253 0.9672779
0000c0 5c f8 7f 3f 84 f9 79 3f 66 4f 7b 3f 70 fb 70 3f
       0.9998834 0.97646356 0.9816803 0.94133663
0000d0 f5 7f 6c 3f d7 a9 6a 3f 9b 39 82 3f a9 0f 6b 3f
       0.92382747 0.91665405 1.017383 0.9182077
0000e0 ac dc 82 3f 60 18 76 3f bd 73 70 3f 7a a9 65 3f
       1.0223594 0.96130943 0.939266 0.89711726
0000f0 07 1c 76 3f c8 73 7f 3f 35 43 6d 3f c3 7f 7c 3f
       0.96136516 0.99786043 0.92680675 0.9863245

residual_layers.0.layer_norm.bias f4 [64]
000000 81 13 a8 3c 6f 6e 14 3d ac 40 cd 3c bd 8c 98 bc
       0.020517113 0.03623813 0.025055252 -0.018621797
000010 40 dc ed bc f0 22 66 bc 40 a7 3e bc f4 b2 db 3c
       -0.029035687 -0.014046416 -0.011636555 0.02681873
000020 e3 30 ad 3c 11 eb ee bc 1b 43 de 3c 94 d0 37 bb
       0.021141475 -0.029164823 0.027131608 -0.0028047906
000030 52 3a cd 3c 19 c0 0c 3c 45 19 04 ba 65 0d f4 3b
       0.025052223 0.0085907215 -0.0005039166 0.007447886
000040 79 20 c0 bc 07 2c 69 3c d9 7c 4a 3d 1e da 4c ba
       -0.023452984 0.014231688 0.04943547 -0.00078144844
000050 e6 f8 71 3c 2d 02 06 bb 6a 6c 85 3c e6 e1 87 bc
       0.014768815 -0.0020448074 0.016287047 -0.016587209
000060 74 ae 34 3a ff ac 40 bc d5 84 23 3c 44 8a 67 3b
       0.00068924506 -0.0117599955 0.0099804 0.0035330215
000070 68 f7 93 bc 2f 99 b2 3a 56 5e 11 3d 97 3f 3c bd
       -0.018062308 0.0013625975 0.035490356 -0.04595908
000080 f4 24 07 bc 2d 4d a5 bc ef 3f 1b bc bd 81 8b 3c
       -0.008248556 -0.020178402 -0.009475692 0.017029637
000090 94 40 df 3c e6 27 3f 3b ad 92 7f 3c 09 c7 a3 bc
       0.027252473 0.0029168068 0.015598935 -0.019992368
0000a0 df 1d 2b bd 11 ad 1f bb bb 2a 61 bc dc 45 db 3c
       -0.041776534 -0.002436463 -0.013743098 0.02676671
0000b0 78 be 05 3b b3 56 a5 3b 47 27 40 bc b9 32 67 3c
       0.0020407718 0.0050457357 -0.011728114 0.014111214
0000c0 24 f1 1a bd 29 73 f4 bc 68 76 02 ba 36 2c 15 bc
       -0.037827626 -0.029840069 -0.00049767504 -0.009104779
0000d0 d4 a8 24 3b 98 21 11 bc ac 4d f2 3b b7 b9 f4 3c
       0.0025125043 -0.008858107 0.007394513 0.029873712
0000e0 13 b0 3f 3b 1a 9e 10 3d dd 19 c7 bb 94 1b c2 ba
       0.0029249236 0.035307027 -0.006076081 -0.0014809244
0000f0 dc c7 cd bb 46 0f 1f 3b 3a cb cb 3b dd 12 c3 3b
       -0.0062799286 0.0024270578 0.006219295 0.0059531764
