results/DDPM/LRATE/0.01/model_final.pth (torch, 661767 bytes, 26 tensors)

layer_x.weight f4 [128, 53]
0.021411536 -0.070851125 -0.02197659 -0.015310334 0.11380224 0.09341837 0.07006368 0.17015538
0.16859566 -0.0785581 -0.007746433 0.11603152 0.036408838 -0.0163783 -0.05257639 -0.09829488
0.015049785 -0.055299833 -0.12926413 -0.05187998 -0.047599804 0.18924262 0.010551489 0.103703715
0.011266205 -0.08547113 0.13587244 -0.04655305 -0.04362839 0.15443796 -0.022316856 -0.008524105
0.019418515 0.122753225 -0.16778834 -0.06436569 0.06584331 -0.057489216 0.1127799 -0.08613707
0.046524815 0.013130132 0.003310985 -0.08668097 0.015235289 -0.019194536 -0.03849636 -0.105593696
0.03087327 0.0043175886 -0.023421228 -0.015770312 -0.083899364 -0.0559675 0.010238419 -0.038771614
-0.05878788 -0.12572499 0.076769255 -0.08764617 -0.058769915 -0.10191774 0.018278338 0.042084895
-0.11879656 -0.023682145 0.045978487 0.00041741366 -0.0071693263 -0.09055682 0.09498357 0.011758646
-0.13877174 0.07675332 -0.08850837 0.024184207 -0.17707331 0.07646063 0.02746483 -0.09078607
0.114992 -0.021315897 -0.19145967 -0.061241973 -0.10123651 -0.17504472 0.042178605 -0.0525911
0.04653542 -0.16673583 0.06298775 0.06501356 0.055880535 -0.09592514 -0.037315015 -0.083921425
0.059710808 -0.043902166 0.052808404 -0.112107545 0.040047318 0.12835364 -0.11929393 -0.008681444
-0.009632496 0.08682892 0.11761689 0.049290076 0.10988559 0.045202516 0.11731063 0.1034922
-0.027099378 0.19241048 -0.072228566 0.053536154 -0.0019897595 -0.04922819 0.06251431 -0.05120752
0.177684 -0.052392934 -0.035711825 -0.06955008 -0.15536992 0.18268055 -0.016718224 0.02047212
0.0015236186 -0.034601163 -0.13316254 0.06278811 -0.012407276 -0.11303896 0.0027226466 0.088912204
0.116564095 0.10334315 -0.043163788 0.14466706 -0.023990303 -0.11293413 0.12567462 -0.0553999
0.047518946 0.032385435 0.10739277 -0.070887454 -0.1084632 0.015949823 0.08825227 -0.015104811
0.12442174 0.07464736 -0.074256055 0.14698309 -0.009977492 0.07935487 -0.0057943286 0.03136835
0.074447885 0.01378472 0.080491416 -0.09230421 -0.14964564 -0.19236937 0.22966564 -0.041347694
0.03673078 -0.0059723286 0.1069355 0.066699676 -0.026170159 0.11376877 -0.037835367 0.06208792
0.03146315 0.063595414 -0.09099828 0.06669131 0.102635615 -0.058087885 -0.043437496 -0.1799503
-0.011440864 0.040585477 -0.06903831 -0.051088613 0.09952701 -0.18773222 0.073379055 0.04568058
-0.13671638 -0.017524986 0.04325654 0.0791723 -0.019709418 -0.01036392 0.083352625 0.048863597
0.0014661588 -0.013170919 -0.1972359 -0.0900651 -0.039667178 0.08727534 -0.20161325 -0.19516969
-0.017206373 -0.05314661 0.16484146 -0.20495772 -0.09557411 -0.067852505 0.01726461 0.10765215
-0.08768014 0.05402335 0.025837973 0.017284531 0.13405623 0.078408234 -0.115969375 0.0039146226
-0.11324495 -0.010907378 -0.08083061 -0.09811198 0.007449452 0.047936417 -7.234775e-06 -0.08177587
-0.040605187 -0.071658164 -0.039448805 0.062337637 0.0072938153 -0.028962966 -0.044511244 0.009253726
-0.08218684 -0.015596364 -0.08530442 0.026327087 0.011545539 -0.24364077 -0.0020847952 0.03486649
-0.010260241 -0.17110103 -0.08710564 -0.16545683 -0.022863932 0.011804981 -0.08952602 -0.012373435
00000000: 3f67 af3c 651a 91bd 4008 b4bc 32d8 7abc
00000010: 2611 e93d 2152 bf3d 8c7d 8f3d 363d 2e3e
00000020: 57a4 2c3e 12e3 a0bd cad5 fdbb efa1 ed3d
00000030: 6f21 153d c92b 86bc 575a 57bd d34e c9bd
00000040: 6093 763c 1482 62bd d15d 04be 1a80 54bd
00000050: 03f8 42bd d1c8 413e 27e0 2c3c 9d62 d43d
00000060: e495 383c 7d0b afbd 2522 0b3e 69ae 3ebd
00000070: afb3 32bd fc24 1e3e d7d1 b6bc b0a8 0bbc
00000080: 9413 9f3c 0b66 fb3d b5d0 2bbe 29d2 83bd
00000090: dbd8 863d d079 6bbd 26f9 e63d a268 b0bd
000000a0: ce90 3e3d c41f 573c 1cfd 583b cb85 b1bd
000000b0: 6f9d 793c dc3d 9dbc 5cae 1dbd 8241 d8bd
000000c0: f1e9 fc3c 8f7a 8d3b e0dd bfbc be30 81bc
000000d0: 6ed3 abbd 2d3e 65bd 0bbf 273c fcce 1ebd
000000e0: 8fcb 70bd 0dbe 00be 3339 9d3d d67f b3bd
000000f0: b9b8 70bd 40ba d0bd 74bc 953c 3661 2c3d
00000100: 9c4b f3bd 0f01 c2bc f053 3c3d 50d8 da39
00000110: abec eabb db75 b9bd bf86 c23d 56a7 403c
00000120: 2e1a 0ebe d830 9d3d e043 b5bd f51d c63c
00000130: b552 35be 6497 9c3d ecfd e03c 0cee b9bd
00000140: ed80 eb3d ad9e aebc 010e 44be ddd8 7abd
00000150: 1655 cfbd ec3e 33be 79c3 2c3d c469 57bd
00000160: ed9b 3e3d ccbc 2abe b9ff 803d d425 853d
00000170: fde2 643d 6674 c4bd a1d7 18bd ffde abbd
00000180: 5293 743d c2d2 33bd a04d 583d a498 e5bd
00000190: a808 243d 236f 033e 6050 f4bd 9e3c 0ebc
000001a0: 9ed1 1dbc 5cd3 b13d 20e1 f03d 64e4 493d
000001b0: b20b e13d 4626 393d 8e40 f03d b8f3 d33d
000001c0: 84ff ddbc 4107 453e 92ec 93bd ba48 5b3d
000001d0: a066 02bb 80a3 49bd 8107 803d fabe 51bd
000001e0: cbf2 353e f999 56bd 9046 12bd 4670 8ebd
000001f0: 4b19 1fbe 9c10 3b3e a8f4 88bc 26b5 a73c
00000200: 28b4 c73a f3b9 0dbd c35b 08be 0d97 803d
00000210: e347 4bbc f880 e7bd 6e6e 323b 9a17 b63d
00000220: 28b9 ee3d 93a5 d33d 83cc 30bd 9a23 143e
00000230: 5087 c4bc 024a e7bd d9b0 003e 01eb 62bd
00000240: 3aa3 423d 97a6 043d bef0 db3d 712d 91bd
00000250: f421 debd 34a9 823c 9bbd b43d 2b7a 77bc
00000260: d3d0 fe3d b7e0 983d 8f13 98bd bc82 163e
00000270: a278 23bc ce84 a23d 5ade bdbb 197c 003d
00000280: 2278 983d 4ed9 613c afd8 a43d fd09 bdbd
00000290: b53c 19be 7afc 44be 782d 6b3e 335c 29bd
000002a0: 0473 163d 86b3 c3bb 0001 db3d d799 883d
000002b0: cd62 d6bc 9aff e83d 42f9 1abd e74f 7e3d
000002c0: 81df 003d 503e 823d 4e5d babd 7495 883d
000002d0: 9f32 d23d 90ed 6dbd 84eb 31bd e444 38be
000002e0: 7672 3bbc f53c 263d f563 8dbd 4b42 51bd
000002f0: d1d4 cb3d e03c 40be c247 963d 8f1b 3b3d
00000300: 61ff 0bbe 8f90 8fbc c52d 313d 1625 a23d
00000310: a575 a1bc 6ecd 29bc c8b4 aa3d 3225 483d
00000320: 202c c03a d7ca 57bc 35f8 49be 0d74 b8bd
00000330: 0d7a 22bd 6abd b23d b473 4ebe 90da 47be
00000340: 61f4 8cbc 42b0 59bd 33cc 283e 70e0 51be
00000350: 5cbc c3bd 41f6 8abd 836e 8d3c bb78 dc3d
00000360: a591 b3bd 9747 5d3d 28aa d33c 4a98 8d3c
00000370: 0946 093e 7f94 a03d 5a81 edbd 3c46 803b
00000380: f8ec e7bd dcb4 32bc 858a a5bd efee c8bd
00000390: 881a f43b fa58 443d 3ec2 f2b6 1b7a a7bd
000003a0: a051 26bd 84c1 92bd 1295 21bd c055 7f3d
000003b0: f500 ef3b be43 edbc 6c51 36bd f19c 173c
000003c0: 9351 a8bd e487 7fbc 15b4 aebd e7ab d73c
000003d0: 8029 3d3c f77c 79be 0fa1 08bb 2ad0 0e3d
000003e0: 921a 28bc 1c35 2fbe 7164 b2bd 846d 29be
000003f0: 244d bbbc ae69 413c 6b59 b7bd f3b9 4abc

layer_x.bias f4 [128]
-0.1765607 -0.11332763 -0.104800835 -0.08917814 -0.20242013 -0.1211441 0.02224287 -0.115482904
0.05426909 -0.076031275 -0.049231313 -0.011138143 0.001032902 -0.0121588 -0.14549832 -0.08234272
-0.133035 -0.101330206 0.004302784 0.08054829 0.12773769 0.041928813 0.06775423 -0.041489534
0.03978438 0.060713433 -0.0035754298 -0.14921133 0.10775911 -0.16022088 -0.17331862 0.12046112
-0.02399665 0.12838756 -0.020853018 -0.09519164 -0.09003363 0.09366162 -0.158325 -0.0035409043
0.013070763 -0.02401593 -0.003830802 -0.012852241 -0.0404438 0.11910046 0.017100267 0.18537565
-0.08598135 -0.20667684 -0.13578676 -0.18152884 0.00785981 -0.027102092 -0.10606547 0.07033508
0.13058878 -0.17194295 0.10780592 -0.05165254 0.07933059 0.008007935 0.017421639 -0.07561365
-0.06838588 -0.13099514 -0.11413632 0.084345855 -0.14097719 0.03329605 -0.19515343 -0.111380465
0.13952708 -0.013317684 -0.016020648 0.13507019 -0.06561455 -0.040626228 0.0865408 0.031541213
-0.22295666 0.024241494 -0.010944874 0.064809464 0.030363148 -0.11273336 -0.08380616 -0.05839305
0.12181814 0.11632093 0.08695376 -0.02080594 -0.013154584 -0.18424655 0.026403705 0.14223224
0.04550942 -0.13666792 -0.00026984888 -0.17076656 -0.039153416 -0.03361867 0.043602847 -0.033144727
0.08318365 0.048674278 0.013142656 -0.13218917 -0.04531128 0.05841374 0.101562366 0.012983439
-0.12661722 0.002686693 0.030103732 -0.08330063 -0.031743675 -0.0835565 0.030940466 -0.0030913271
-0.05999888 0.0040132618 -0.0445914 0.1327016 -0.01797575 0.07249309 -0.00028496177 0.098868445
00000000: 54cc 34be 5118 e8bd d2a1 d6bd 07a3 b6bd
00000010: 3947 4fbe 661a f8bd ae36 b63c 4d82 ecbd
00000020: 4449 5e3d 49b6 9bbd c6a6 49bd c27c 36bc
00000030: 7162 873a b435 47bc 83fd 14be 4da3 a8bd
00000040: 543a 08be 3686 cfbd 5efe 8c3b 80f6 a43d
00000050: abcd 023e 8cbd 2b3d bbc2 8a3d eef0 29bd
00000060: f2f4 223d a6ae 783d c251 6abb dbca 18be
00000070: cfb0 dc3d f110 24be 707a 31be 52b4 f63d
00000080: 9f94 c4bc 0778 033e f3d3 aabc d6f3 c2bd
00000090: 8d63 b8bd aad1 bf3d f31f 22be 840e 68bb
000000a0: c126 563c 0ebd c4bc 310e 7bbb 3592 52bc
000000b0: 66a8 25bd f1ea f33d dc15 8c3c 1dd3 3d3e
000000c0: fd16 b0bd 18a3 53be af0b 0bbe b2e2 39be
000000d0: 6fc6 003c 3505 debc da38 d9bd d70b 903d
000000e0: 11b9 053e d011 30be 5ac9 dc3d 9d91 53bd
000000f0: 1478 a23d b733 033c d3b7 8e3c 54db 9abd
00000100: e50d 8cbd 9723 06be 4ec0 e9bd 85bd ac3d
00000110: 535c 10be 7061 083d 4dd6 47be 711b e4bd
00000120: 30e0 0e3e 6a32 5abc bc3d 83bc d74f 0a3e
00000130: ec60 86bd b067 26bd 4e3c b13d 5c31 013d
00000140: c04e 64be 1996 c63c 2152 33bc d3ba 843d
00000150: 23bc f83c bfe0 e6bd 90a2 abbd 8d2d 6fbd
00000160: ca7b f93d ab39 ee3d d014 b23d 3871 aabc
00000170: 5386 57bc 21ab 3cbe 954c d83c 54a5 113e
00000180: 1668 3a3d adf2 0bbe 817a 8db9 6edd 2ebe
00000190: 555f 20bd bbb3 09bd e698 323d c4c2 07bd
000001a0: 315c aa3d ae5e 473d 4b54 573c 995c 07be
000001b0: 5298 39bd 3f43 6f3d eeff cf3d 7db8 543c
000001c0: f2a7 01be 3b13 303b 1a9c f63c 8599 aabd
000001d0: a805 02bd ac1f abbd dc76 fd3c dd97 4abb
000001e0: 63c1 75bd ae81 833b 79a5 36bd eee2 073e
000001f0: e141 93bc 4277 943d ec66 95b9 8a7b ca3d

layer_t_1.weight f4 [128, 128]
0.11988821 -0.063209355 -0.030091327 -0.032107376 -0.102756456 -0.08290427 0.0010594586 -0.09863981
-0.08218786 0.05076399 -0.009666355 0.009040645 -0.07859685 -0.052056186 -0.03954855 -0.005380481
-0.02205676 0.12010146 -0.06711026 0.022139698 -0.035657857 0.1348298 -0.06445345 -0.005859704
0.043505266 0.006422258 0.02290648 0.038831353 -0.03837204 -0.069547325 0.018437333 0.09893569
0.051833168 0.058150697 0.123123586 0.05644159 -0.03369103 0.08009084 -0.032776963 -0.0749479
0.009964948 -0.04536663 -0.049197435 -0.06952627 -0.15381208 -0.032504234 -0.113549516 -0.1346222
0.09185162 0.04111904 0.11186503 -0.08862322 0.120367244 0.014961296 -0.069360346 0.0019345147
0.06715373 -0.09097589 -0.06795282 -0.014370361 0.025490845 -0.004064504 0.03579906 -0.06657521
-0.10484735 -0.067169465 0.02502664 0.016233938 -0.024629667 -0.04722147 0.11204562 0.02558562
-0.14754426 -0.056485042 0.033749968 0.041607138 -0.014886733 0.1278405 0.07386441 0.05025407
-0.04393286 0.11191497 0.02037483 0.075174175 -0.009555561 -0.05092581 0.021421466 0.014195203
0.073152594 -0.03503055 0.1214786 -0.0005121275 -0.0159262 -0.08741833 -0.059993666 0.031883378
0.12772793 -0.035477325 0.06434831 0.023543613 -0.13612378 -0.07279493 -0.032386407 -0.055561505
0.047990657 -0.08069785 0.062089995 -0.112994514 -0.055137623 0.09998203 -0.058165397 0.10408107
-0.05869288 0.09333414 -0.024805041 -0.1721664 -0.057349376 -0.045201518 0.03295231 -0.004192866
0.05779777 -0.060874525 0.08506625 0.10840802 -0.0655548 -0.048460696 0.016829282 0.07932574
0.019913329 -0.045033146 -0.14868227 0.0031256103 0.00025085476 -0.03357409 -0.11297198 -0.010660753
0.08426136 0.08996628 0.15128173 0.02670458 0.040244553 -0.07131585 -0.011005388 -0.0753525
-0.11225827 -0.0129095325 -0.13720031 0.00849563 -0.04640624 -0.003460304 0.014256878 0.048714187
-0.14071804 -0.06770801 -0.063567236 -0.042241428 0.0005469406 -0.010928004 0.010213735 0.08747885
-0.10884131 -0.08303322 0.14710057 0.052945927 0.090783544 0.045544103 0.042514574 0.009057188
0.044930838 -0.066063985 0.046031408 0.027367434 -0.03744036 -0.10978457 0.05952864 -0.04483998
0.01769904 0.00834183 0.10653763 0.112163156 -0.04936118 0.18259616 0.010780907 0.0046888823
0.029617257 -0.03858872 0.07828548 0.0017733568 0.033505157 0.014297854 -0.10441987 -0.027513053
0.045180626 0.014399568 0.10221616 0.1115179 -0.08969731 0.03941878 -0.046458658 0.04357462
-0.04274679 0.053388797 -0.009790204 0.05809078 0.030619958 -0.04522586 -0.009978559 0.05487064
0.070057854 0.099354856 0.081344284 0.11255393 0.011679887 0.06772624 0.02078315 0.098807804
0.09340426 -0.030085279 0.0031168936 0.07856454 0.14336799 -0.17431492 0.1293098 0.003601514
0.030781051 -0.052512184 0.0052359123 0.01969783 -0.09847171 -0.019816007 0.06402578 -0.11252378
-0.107899874 -0.050423346 0.016447052 0.008405675 -0.07912549 0.16609463 -0.00372209 0.018642949
0.09936757 0.089659564 -0.09507588 0.010485775 -0.077477634 -0.048422325 -0.099475116 -0.09975129
0.07616473 0.015506319 0.082032375 -0.01808569 0.0252817 -0.02572268 0.002701829 0.14486887
00000000: f387 f53d e873 81bd 1682 f6bc 0683 03bd
00000010: fa71 d2bd b7c9 a9bd 88dd 8a3a ab03 cabd
00000020: 1c52 a8bd e7ed 4f3d a25f 1ebc 371f 143c
00000030: 63f7 a0bd de38 55bd a9fd 21bd bf4e b0bb
00000040: 61b0 b4bc c1f7 f53d 1b71 89bd 505e b53c
00000050: f90d 12bd d310 0a3e 2c00 84bd c302 c0bb
00000060: 9432 323d ce71 d23b 5fa6 bb3c a00d 1f3d
00000070: 002c 1dbd d46e 8ebd e409 973c cc9e ca3d
00000080: 044f 543d 6d2f 6e3d 3828 fc3d 4c2f 673d
00000090: 9bff 09bd ab06 a43d 2341 06bd 497e 99bd
000000a0: 0544 233c 5cd2 39bd 4083 49bd ca63 8ebd
000000b0: ea80 1dbe 2923 05bd a68c e8bd 67da 09be
000000c0: b41c bc3d 706c 283d 7e19 e53d 1780 b5bd
000000d0: 1a83 f63d 3920 753c cc0c 8ebd 8b8f fd3a
000000e0: e587 893d 9151 babd d92a 8bbd aa71 6bbc
000000f0: 2dd2 d03c 882f 85bb 09a2 123d 9558 88bd
00000100: 35ba d6bd 2590 89bd ab04 cd3c 09fd 843c
00000110: 28c4 c9bc 4d6b 41bd 2d78 e53d ef98 d13c
00000120: d815 17be dc5c 67bd 683d 0a3d 3f6c 2a3d
00000130: 7ce7 73bc 9fe8 023e 3946 973d 36d7 4d3d
00000140: f1f2 33bd ad33 e53d 1ee9 a63c ebf4 993d
00000150: ed8e 1cbc 9597 50bd 127c af3c ff92 683c
00000160: 07d1 953d 327c 0fbd c6c9 f83d 4b40 06ba
00000170: aa77 82bc 6208 b3bd ebbb 75bd 2598 023d
00000180: 1ccb 023e ac50 11bd 0cc9 833d 89de c03c
00000190: 0864 0bbe 8215 95bd 9ca7 04bd 7694 63bd
000001a0: da91 443d ea44 a5bd 1452 7e3d ab69 e7bd
000001b0: fdd7 61bd 61c3 cc3d d73e 6ebd 7528 d53d
000001c0: f267 70bd f825 bf3d f133 cbbc 644c 30be
000001d0: 2ee7 6abd 3a25 39bd 00f9 063d 4f64 89bb
000001e0: 5bbd 6c3d 9157 79bd 3737 ae3d 0605 de3d
000001f0: 9841 86bd b97e 46bd 90dd 893c 8975 a23d
00000200: 4721 a33c ad74 38bd 2a40 18be 0ad7 4c3b
00000210: 2885 8339 fc84 09bd da5d e7bd 70aa 2ebc
00000220: 3891 ac3d 3e40 b83d 99e9 1a3e 90c3 da3c
00000230: 79d7 243d 0b0e 92bd f14f 34bc 6952 9abd
00000240: aae7 e5bd 8182 53bc 3d7e 0cbe 4131 0b3c
00000250: 7814 3ebd 45c6 62bb ae95 693c 8788 473d
00000260: 6418 10be 7faa 8abd 8a2f 82bd 5905 2dbd
00000270: 9060 0f3a 5f0b 33bc 8257 273c 1c28 b33d
00000280: 31e8 debd 520d aabd 88a1 163e d4dd 583d
00000290: b9ec b93d 748c 3a3d c323 2e3d 9a64 143c
000002a0: 6609 383d 8e4c 87bd 6e8b 3c3d ab31 e03c
000002b0: 105b 19bd bcd6 e0bd 4ed4 733d 20aa 37bd
000002c0: 94fd 903c 2cac 083c 6730 da3d ccb5 e53d
000002d0: f32e 4abd 7dfa 3a3e 67a2 303c 32a5 993b
000002e0: e49f f23c 350f 1ebd 2354 a03d fb6f e83a
000002f0: b43c 093d 8c41 6a3c 16da d5bd 0e63 e1bc
00000300: 520f 393d 2aec 6b3c b556 d13d 7f63 e43d
00000310: 39b3 b7bd 9675 213d 6f4b 3ebd 4d7b 323d
00000320: 4217 2fbd 36ae 5a3d 1867 20bc 99f0 6d3d
00000330: b5d6 fa3c c03e 39bd 1c7d 23bc 09c0 603d
00000340: 7e7a 8f3d 8f7a cb3d d597 a63d ad82 e63d
00000350: ff5c 3f3c 0eb4 8a3d 6d41 aa3c bf5b ca3d
00000360: bc4a bf3d 6775 f6bc cc44 4c3b 72e6 a03d
00000370: 0fcf 123e 9c7f 32be ca69 043e 6107 6c3b
00000380: 8b28 fc3c 0417 57bd 0492 ab3b 585d a13c
00000390: 89ab c9bd 2e55 a2bc f31f 833d de72 e6bd
000003a0: 9cfa dcbd b688 4ebd f8bb 863c f5b7 093c
000003b0: 8b0c a2bd b614 2a3e 4fee 73bb 19b9 983c
000003c0: 3981 cb3d 6f9f b73d 25b7 c2bd 87cc 2b3c
000003d0: 98ac 9ebd 7d56 46bd 9cb9 cbbd 684a ccbd
000003e0: 41fc 9b3d 370e 7e3c 9700 a83d 7128 94bc
000003f0: 911b cf3c 5fb8 d2bc 2b11 313b 8158 143e

layer_t_1.bias f4 [128]
-0.08816653 -0.032781813 0.038259834 0.0054099266 -0.06471124 -0.06092885 -0.089648604 -0.006211953
-0.1442293 -0.04540222 -0.09628814 -0.051896174 -0.11950424 -0.04809945 0.04365122 -0.14396597
-0.0021187935 -0.09565101 -0.026820622 0.061203226 -0.031762213 -0.051059898 -0.018707536 -0.121200785
-0.0008826983 -0.032996714 0.023748752 0.006853999 -0.0009886108 -0.09360441 0.023613822 0.040578954
-0.0019262856 -0.102767974 -0.10013319 0.027340543 -0.1469265 -0.051077783 0.0667427 -0.06995444
0.06265354 -0.005497105 -0.053116817 -0.094248675 -0.017087271 0.009623144 -0.107866034 -0.071084015
-0.084128745 0.00556908 0.06287084 0.065642595 0.07969686 -0.028879976 -0.06058897 -0.026148893
0.024518194 -0.015562823 0.080841914 -0.04716464 -0.052321937 -0.020370448 -0.13863668 -0.10439774
-0.02679853 -0.15812746 0.06665912 -0.056907155 0.0014601254 -0.04914435 -0.06903698 -0.040875696
-0.026300827 -0.011044571 -0.010420817 0.034342926 -0.04548616 0.0392726 0.015055067 -0.060374066
-0.04145593 -0.024005456 0.046879478 0.021122977 0.0065233693 -0.025446823 -0.030443037 0.11276015
-0.0010927811 0.017684596 0.024888022 -0.09473886 -0.0014777519 0.055436216 0.015088204 -0.07041399
0.026676156 0.0032571391 -0.026141953 0.056516156 0.0056260084 -0.04470017 -0.016623683 0.019329803
-0.08401779 -0.09877416 0.0014159677 -0.029310195 -0.02145266 -0.08876908 -0.10327198 0.04132232
0.009258422 -0.043012697 0.0068261786 -0.050138704 -0.021202292 -0.08648492 -0.038427602 -0.043200724
-0.02325143 0.004183261 0.081269875 0.043810934 -0.026586464 -0.122251034 -0.021601357 0.029799497
00000000: a790 b4bd 3946 06bd 58b6 1c3d c145 b13b
00000010: 5487 84bd 8890 79bd b099 b7bd a38d cbbb
00000020: d8b0 13be aef7 39bd b732 c5bd 1591 54bd
00000030: a4be f4bd ee03 45bd 9fcb 323d d16b 13be
00000040: 75db 0abb ade4 c3bd ecb6 dbbc 3cb0 7a3d
00000050: 1819 02bd 2f24 51bd 8c40 99bc 1e38 f8bd
00000060: e164 67ba 9027 07bd be8c c23c 8397 e03b
00000070: 4694 81ba abb3 bfbd c671 c13c 1e36 263d
00000080: 6b7b fcba 0478 d2bd a112 cdbd 46f9 df3c
00000090: e773 16be f036 51bd 66b0 883d 4644 8fbd
000000a0: 8050 803d 0f21 b4bb 0591 59bd 7305 c1bd
000000b0: 9bfa 8bbc 64aa 1d3c dee8 dcbd 7f94 91bd
000000c0: b14b acbd d47c b63b 6dc2 803d a06f 863d
000000d0: 1b38 a33d b395 ecbc 242c 78bd 3436 d6bc
000000e0: 61da c83c 36fb 7ebc 7290 a53d b62f 41bd
000000f0: 874f 56bd eddf a6bc c6f6 0dbe 7bce d5bd
00000100: 9788 dbbc 2aec 21be 9484 883d 7a17 69bd
00000110: ae61 bf3a 964b 49bd 4363 8dbd 466d 27bd
00000120: d574 d7bc 4af4 34bc 13bc 2abc 2bab 0c3d
00000130: b24f 3abd 4edc 203d 87a9 763c cc4a 77bd
00000140: b1cd 29bd 17a7 c4bc b204 403d 180a ad3c
00000150: fdc1 d53b db75 d0bc ad63 f9bc cbee e63d
00000160: a63b 8fba 49df 903c f7e1 cb3c 7306 c2bd
00000170: 20b1 c1ba 1611 633d 8434 773c 3635 90bd
00000180: f487 da3c ba75 553b a627 d6bc 7c7d 673d
00000190: 615a b83b 8717 37bd 642e 88bc 8959 9e3c
000001a0: 8511 acbd 1b4a cabd fe97 b93a ef1b f0bc
000001b0: 7dbd afbc 90cc b5bd 4380 d3bd 9841 293d
000001c0: a3b0 173c 152e 30bd 23ae df3b 3e5e 4dbd
000001d0: 6eb0 adbc 011f b1bd 4366 1dbd 3ef3 30bd
000001e0: c879 bebc bd13 893b d270 a63d 1873 333d
000001f0: dbcb d9bc c05e fabd 54f5 b0bc 131e f43c

layer_t_2.weight f4 [128, 128]
-0.110561565 -0.038028132 -0.17202018 -0.102040894 -0.11382141 -0.042852566 -0.14482944 -0.13556933
-0.052018188 -0.01938685 -0.0029077341 -0.11007527 -0.021053726 -0.06170499 -0.0154719595 -0.10388181
0.0003126774 0.073989026 0.07881473 -0.14030448 0.006944472 0.0009622779 -0.061788347 -0.09475449
0.0047876975 0.011784101 -0.011818321 -0.06506801 -0.06065992 -0.18419172 -0.16029659 -0.11975338
-0.12581205 -0.097329974 -0.056464247 -0.09459326 -0.015365846 0.012527327 -0.04729875 -0.12197613
-0.15039164 -0.033515133 -0.03535103 -0.0381354 -0.10470761 -0.013874048 0.013308819 -0.097834155
0.09246039 -0.038615346 -0.0035976006 -0.06835107 -0.052605275 -0.13354355 -0.006801982 -0.010972727
0.050061654 -0.06398832 -0.071972 -0.007776898 -0.12916236 0.017037032 0.006314971 -0.06504276
-0.08218121 -0.022907682 -0.10352427 -0.18343398 -0.11103634 -0.008976187 0.02070615 0.074541226
-0.13370933 -0.033617035 -0.06685991 -0.14049225 -0.042064738 -0.015077613 -0.1158333 -0.018760707
-0.12592739 -0.12769026 -0.044393823 -0.04962143 0.014723893 -0.022326864 0.0155923 -0.17711394
-0.04950055 -0.075304516 0.015919773 0.105087236 -0.025671624 -0.061099548 -0.012869638 -0.043482568
-0.08601433 0.05684671 -0.022480547 -0.12682119 -0.040702224 -0.10236926 -0.13238826 -0.14054546
-0.027856614 0.044622775 -0.019053206 -0.18999614 0.040541913 -0.022042973 0.06689607 -0.14877973
0.049709346 -0.09342358 -0.02501127 0.018090231 -0.03984745 -0.048664417 0.009012041 -0.06550761
-0.010741431 0.028084708 -0.024656834 -0.063006945 0.11560891 -0.038023863 -0.07560196 -0.16236144
-0.10178383 -0.046152856 0.031489283 0.02848517 0.011026992 -0.023279632 0.016709562 0.084828705
-0.021259468 0.048528668 0.100791916 0.02067956 -0.08409466 0.13260849 0.09238598 0.17957652
-0.0030684196 -0.1303742 -0.1750307 0.016067881 0.038433302 0.050678022 -0.06942598 0.10948881
-0.015097395 0.07211655 0.016911056 0.011571966 -0.02032853 -0.17914198 -0.09834333 -0.044438347
-0.032069463 -0.12154345 0.1187905 0.006719351 0.09660493 0.027440507 0.076650925 0.019734858
0.08358516 0.023594754 0.022046482 0.037181027 -0.07720747 -0.15014453 -0.07628861 -0.05808034
-0.15669167 -0.032011356 -0.06660142 0.05120475 -0.09967623 0.0127100535 -0.042325128 -0.04815212
0.039663475 -0.017405856 0.07641032 0.13504511 -0.10373955 0.017126074 0.068212785 0.14347471
-0.024410512 0.11284954 0.038441356 0.113055095 0.07784883 -0.031729985 0.18366763 0.133466
-0.052361216 0.014464784 0.014127609 0.063293785 0.05299378 0.132879 -0.038373727 -0.0021591962
-0.04717906 -0.16639931 -0.114276424 -0.11330367 0.08651427 0.0655945 -0.055128038 -0.13137338
-0.020507185 -0.09207546 0.089672156 0.11285416 -0.11534946 -0.062531225 -0.0030805208 0.010572516
-0.111853406 -0.051358126 -0.055604488 -0.09791839 -0.063822635 0.049538758 0.039456785 -0.082031675
-0.035516717 0.08785796 -0.13773754 0.04007912 -0.016512772 -0.11439356 0.028211826 0.000712783
0.042015858 -0.06603555 -0.006581347 -0.09285028 0.020372154 -0.03819994 -0.068002716 0.1153493
-0.0037400054 -0.113908425 -0.016779544 0.086830325 0.057733815 -0.06986235 0.04839986 0.067319386
00000000: 1a6e e2bd 63c3 1bbd 0f26 30be d1fa d0bd
00000010: 331b e9bd 2c86 2fbd 2b4e 14be b0d2 0abe
00000020: 0611 55bd 2cd1 9ebc af8f 3ebb 256f e1bd
00000030: dd78 acbc 5fbe 7cbd 1a7e 7dbc fdbf d4bd
00000040: daee a339 8f87 973d 9e69 a13d faab 0fbe
00000050: 748e e33b 6041 7c3a c715 7dbd a40e c2bd
00000060: 1ee2 9c3b 1a12 413c a2a1 41bc 6042 85bd
00000070: 8976 78bd c19c 3cbe ca24 24be 4341 f5bd
00000080: e0d4 00be f054 c7bd 0e47 67bd 1cba c1bd
00000090: 08c1 7bbc 6b3f 4d3c 56bc 41bd 9fce f9bd
000000a0: 4400 1abe 2a47 09bd 3ecc 10bd dd33 1cbd
000000b0: f270 d6bd fa4f 63bc 3c0d 5a3c 465d c8bd
000000c0: df5b bd3d 202b 1ebd b9c5 6bbb a5fb 8bbd
000000d0: a178 57bd a4bf 08be 29e3 debb f4c6 33bc
000000e0: 730d 4d3d 4f0c 83bd 0e66 93bd 59d5 febb
000000f0: 2343 04be 3f91 8b3c d1ed ce3b 2335 85bd
00000100: 9f4e a8bd e4a8 bbbc 8804 d4bd 1ed6 3bbe
00000110: 0567 e3bd db10 13bc f29f a93c 12a9 983d
00000120: 19eb 08be 04b2 09bd d9ed 88bd 33dd 0fbe
00000130: 134c 2cbd 1808 77bc 023a edbd 0eb0 99bc
00000140: 1cf3 00be 3cc1 02be 4cd6 35bd d73f 4bbd
00000150: 7c3c 713c d4e6 b6bc d976 7f3c 5b5d 35be
00000160: 17c1 4abd 4139 9abd 2f6a 823c fa37 d73d
00000170: 4c4d d2bc 8543 7abd 2ddb 52bc c71a 32bd
00000180: 4828 b0bd 19d8 683d 2029 b8bc 6add 01be
00000190: 60b7 26bd f9a6 d1bd ca90 07be 26eb 0fbe
000001a0: 8e33 e4bc 5fc6 363d 7815 9cbc 598e 42be
000001b0: 470f 263d 7793 b4bc cf00 893d b759 18be
000001c0: 079c 4b3d dd54 bfbd 6fe4 ccbc f731 943c
000001d0: 1437 23bd 5754 47bd 3da7 133c db28 86bd
000001e0: d4fc 2fbc e711 e63c 21fd c9bc c909 81bd
000001f0: 5dc4 ec3d e9be 1bbd 33d5 9abd 1442 26be
00000200: 0a74 d0bd c70a 3dbd e8fa 003d bb59 e93c
00000210: 8faa 343c edb4 bebc 7ee2 883c acba ad3d
00000220: 5628 aebc ffc5 463d fe6b ce3d 2e68 a93c
00000230: d239 acbd 85ca 073e dc34 bd3d e8e2 373e
00000240: 8a17 49bb d080 05be 3f3b 33be caa0 833c
00000250: 3d6c 1d3d c293 4f3d 352f 8ebd ab3b e03d
00000260: 105b 77bc d7b1 933d 0e89 8a3c 5898 3d3c
00000270: 0488 a6bc ff70 37be 3a68 c9bd fc04 36bd
00000280: 455b 03bd c6eb f8bd 6f48 f33d 002e dc3b
00000290: ced8 c53d eaca e03c 29fb 9c3d ffaa a13c
000002a0: b22e ab3d c949 c13c d39a b43c 224b 183d
000002b0: f31e 9ebd 7dbf 19be 343d 9cbd a7e5 6dbd
000002c0: c873 20be 571e 03bd 5366 88bd 12bc 513d
000002d0: 0d23 ccbd d43d 503c 1d5d 2dbd 283b 45bd
000002e0: 2b76 223d ba96 8ebc 047d 9c3d 4449 0a3e
000002f0: 6775 d4bd fb4b 8c3c 25b3 8b3d 09eb 123e
00000300: 8ef8 c7bc a91d e73d af74 1d3d 6e89 e73d
00000310: 356f 9f3d 4df7 01bd 5e13 3c3e 50ab 083e
00000320: b778 56bd b4fd 6c3c 7d77 673c 2ca0 813d
00000330: 0110 593d 6f11 083e c52d 1dbd 4d81 0dbb
00000340: d43e 41bd 9564 2abe c209 eabd c10b e8bd
00000350: 652e b13d 6956 863d f0cd 61bd be86 06be
00000360: affe a7bc 0f92 bcbd 09a6 b73d 1520 e73d
00000370: 563c ecbd 5f10 80bd 90e2 49bb 5938 2d3c
00000380: 6613 e5bd e65c 52bd 88c1 63bd 7089 c8bd
00000390: 71b5 82bd 27e9 4a3d 709d 213d 3900 a8bd
000003a0: fa79 11bd e0ee b33d 120b 0dbe 012a 243d
000003b0: cb45 87bc 2c47 eabd 7d1c e73c 0fda 3a3a
000003c0: d218 2c3d a53d 87bd 57a8 d7bb 4a28 bebd
000003d0: 81e3 a63c 8a77 1cbd 0245 8bbd 413c ec3d
000003e0: e11a 75bb d248 e9bd 4175 89bc 19d4 b13d
000003f0: 4b7a 6c3d fe13 8fbd ee3e 463d bfde 893d

layer_t_2.bias f4 [128]
-0.013825445 -0.12314861 -0.06069989 0.03684059 -0.13428988 -0.04044441 0.029698594 -0.05022766
0.0016308672 -0.054952435 -0.01756246 -0.035271887 -0.0310419 -0.00045553368 -0.088116616 0.1454736
-0.06737139 0.0045992075 -0.09387696 0.03988476 -0.05883704 0.095665514 -0.00408783 0.17262062
-0.1119652 -0.09123481 -0.08193701 0.038691867 0.05336433 -0.016788041 -0.058686294 -0.011245031
0.08325583 0.049107835 0.08940065 -0.037381787 -0.070264 -0.023196427 -0.099449866 -0.022863038
-0.11326978 0.106012315 0.022349128 -0.038321298 0.11490895 0.027710788 -0.006972356 0.0664026
-0.11429113 -0.05851631 -0.056342416 -0.039063934 0.0008913478 -0.073058255 -0.13152958 -0.06349721
0.0028535947 0.031214423 0.10866456 0.08071983 0.014688617 -0.034370605 -0.0070420085 0.02921567
-0.056399573 -0.029648101 -0.033893436 0.024287988 -0.029811257 0.07932903 -0.058059853 0.062388893
-0.025505995 0.046808008 -0.11958645 0.008890846 -0.024479372 0.07532065 -0.055168454 -0.1504018
-0.040798273 0.089147866 0.11184473 -0.09204733 -0.0080552725 -0.04140215 -0.083064534 -0.010299932
-0.0148233045 0.08100415 0.019371005 0.00962901 -0.10403368 -0.13121924 0.053607855 0.0022161412
-0.016148526 -0.061136547 -0.069474615 -0.07360779 0.11169677 0.018735051 0.0134073915 -0.049893927
-0.05527317 -0.057091568 -0.057253916 0.052440513 0.0005836367 -0.014729817 0.06726771 0.03933989
0.021845747 0.1137213 -0.08402982 -0.052790496 -0.06653685 0.076019466 0.012169868 -0.058525763
-0.014220078 0.022419441 -0.062249906 0.04866175 0.026103307 0.024775892 -0.135314 0.014430494
00000000: 1f84 62bc 5735 fcbd 73a0 78bd 29e6 163d
00000010: 4983 09be 0aa9 25bd 774a f33c 85bb 4dbd
00000020: d3c2 d53a ce15 61bd 26df 8fbc 4179 10bd
00000030: 954b febc b2d4 eeb9 7c76 b4bd 08f7 143e
00000040: 03fa 89bd f3b4 963b 9042 c0bd 345e 233d
00000050: 1cff 70bd 48ec c33d 34f3 85bb 76c3 303e
00000060: 034e e5bd 51d9 babd 97ce a7bd 5d7b 1e3d
00000070: 8e94 5a3d 1387 89bc 0a61 70bd 143d 38bc
00000080: 0882 aa3d 4c25 493d b017 b73d a51d 19bd
00000090: 92e6 8fbd 6f06 bebc 5fac cbbd 444b bbbc
000000a0: fdf9 e7bd fc1c d93d 8515 b73c cbf6 1cbd
000000b0: 6255 eb3d bc01 e33c 5c78 e4bb 16fe 873d
000000c0: 7811 eabd ccae 6fbd 4ec7 66bd 8101 20bd
000000d0: 57a9 693a 919f 95bd b1af 06be d30a 82bd
000000e0: 6003 3b3b 64b5 ff3c 868b de3d 7050 a53d
000000f0: 86a8 703c 31c8 0cbd a6c0 e6bb b355 ef3c
00000100: 3d03 67bd 93e0 f2bc d8d3 0abd 9af7 c63c
00000110: bd36 f4bc 4277 a23d 2bd0 6dbd 7f8b 7f3d
00000120: f3f1 d0bc c1b9 3f3d bee9 f4bd e9aa 113c
00000130: f788 c8bc b741 9a3d 51f8 61bd ee02 1abe
00000140: 171c 27bd 2893 b63d da0e e53d 5083 bcbd
00000150: 43fa 03bc 4d95 29bd bd1d aabd 0cc1 28bc
00000160: 72dd 72bc 81e5 a53d f1af 9e3c ffc2 1d3c
00000170: 9c0f d5bd 565e 06be e993 5b3d ae3c 113b
00000180: ea49 84bc 516a 7abd b548 8ebd aebf 96bd
00000190: 47c1 e43d 407a 993c adaa 5b3c 935d 4cbd
000001a0: 1f66 62bd d9d8 69bd 1583 6abd ddcb 563d
000001b0: 32ff 183a 5555 71bc a7c3 893d dd22 213d
000001c0: daf5 b23c b7e6 e83d d417 acbd d93a 58bd
000001d0: 7944 88bd 18b0 9b3d 2064 473c b6b8 6fbd
000001e0: 54fb 68bc faa8 b73c c2f9 7ebd 8b51 473d
000001f0: 9ad6 d53c d0f6 ca3c c18f 0abe e16d 6c3c

layer_out_1.weight f4 [128, 128]
0.089635655 -0.0320944 0.02074045 0.101424806 -0.029876124 0.051610384 0.03280645 0.069342256
-0.08756075 0.02816967 0.060352284 0.07482302 0.072078004 -0.022505896 0.005078964 -0.058550373
-0.026171211 0.007619616 0.11725013 -0.00854908 0.025763163 -0.04661616 0.0467418 0.048285514
-0.010801969 0.11903414 -0.017155208 0.014073979 0.022946097 -0.05747325 -0.095683835 0.039922874
0.08342679 -0.01565852 0.061318625 -0.0075473827 -0.019393666 0.08643938 0.16873421 0.021384617
-0.10290908 -0.038131192 -0.09945491 -0.021292785 0.009088182 -0.077654056 0.0129629355 0.06842978
-0.0077505773 0.067322336 -0.07775439 -0.0080781 0.009756025 0.058132276 -0.05729149 -0.029019194
0.04230807 -0.05257966 0.027233647 -0.026426168 -0.017665952 0.03793074 -0.034551077 -0.042866476
-0.050333828 -0.05497673 -0.012082923 -0.13534741 -0.053650573 -0.020757 0.0893269 0.02858404
0.032246873 0.0049633393 0.0033224144 -0.06581187 -0.010381156 -0.026590843 0.026555868 -0.04676756
0.055626877 0.027444508 -0.002887161 0.008478802 -0.0151724825 0.012660197 -0.010290967 -0.010721697
0.1747266 -0.052036382 -0.059279744 -0.057082746 0.09673529 0.07811147 0.033154596 0.015206287
0.058870595 0.046486117 -0.02579918 -0.027473072 0.07078073 -0.024207868 0.059206545 -0.034214187
-0.07108884 0.024624702 -0.0589527 0.028080536 -0.012577352 0.12002395 0.040056005 0.066693254
-0.016821979 0.08053704 -0.03879778 -0.057082593 -0.10807702 0.0667087 0.11065865 -0.0633781
-0.0019761603 -0.077795774 0.0104851145 -0.056147844 -0.13478582 0.024643369 0.083754614 0.08923806
0.044901647 -0.0031077194 -0.14575295 0.0010281589 -0.048590854 -0.045144312 0.03284391 -0.0013099209
-0.05775903 0.121072605 0.05477312 0.008249603 0.017580591 -0.06023631 -0.048131764 -0.009120356
-0.06111818 0.11674294 0.1255736 -0.0812439 0.05216273 -0.060394533 -0.038452517 -0.16779469
-0.004259518 0.082092606 -0.00037789982 -0.046439108 -0.043263536 0.0033676228 -0.05933819 0.058480244
-0.08659156 -0.09229867 -0.11952039 0.034883253 -0.06357622 0.025663707 -0.0067550507 0.09589541
-0.110067934 0.06511104 -0.033599265 0.0122432485 0.1092485 -0.028408242 0.05525812 0.028516496
-0.034876253 0.010220074 0.01836425 -0.062118772 0.08139477 -0.018858187 -0.05281373 -0.17881754
0.03628553 -0.038354706 -0.10371458 0.0031341766 -0.020697145 -0.03177511 0.031054243 0.016729416
0.011397641 0.004099638 -0.032301925 -0.10755318 0.029977374 -0.056456715 0.12599045 0.12774824
0.057378028 0.059902795 0.016750244 -0.14183936 -0.06145777 -0.10898976 -0.01024639 0.009502444
-0.080792665 -0.15028152 -0.14359348 -0.0488579 -0.034629196 0.010342351 -0.06504329 -0.008401083
-0.008722349 -0.009800886 0.093331166 -0.0045391475 0.012197402 0.11998392 0.14783704 -0.00049643527
-0.091700174 0.040363885 -0.022025587 -0.0024821372 0.028148573 -0.03041472 0.1323364 0.015537112
-0.10288818 0.006730117 -0.025445445 0.12383766 -0.008929828 0.037226763 0.08306296 0.036227506
-0.10589629 -0.12038591 0.12878904 0.01004151 0.007255335 -0.050284132 -0.01885758 -0.17904527
0.019267298 -0.09642198 -0.04119007 0.035879053 -0.15708031 0.017473897 0.07311845 0.12901202
00000000: e692 b73d 6b75 03bd e0e7 a93c cfb7 cf3d
00000010: c6be f4bc 6965 533d 0e60 063d 5003 8e3d
00000020: 0d53 b3bd 14c4 e63c f533 773d d03c 993d
00000030: a29d 933d 495e b8bc 706d a63b 84d2 6fbd
00000040: 0265 d6bc f9ad f93b d620 f03d 7111 0cbc
00000050: 450d d33c 96f0 3ebd 5474 3f3d 08c7 453d
00000060: befa 30bc 2cc8 f33d 1489 8cbc 8c96 663c
00000070: 74f9 bb3c 1269 6bbd e3f5 c3bd 2b86 233d
00000080: aadb aa3d 4c46 80bc 3d29 7b3d 0950 f7bb
00000090: 77df 9ebc 2107 b13d a9c8 2c3e cb2e af3c
000000a0: ffc1 d2bd 742f 1cbd 04af cbbd 356e aebc
000000b0: 99e6 143c 1709 9fbd 7e62 543c ea24 8c3d
000000c0: 8ef8 fdbb 4be0 893d b23d 9fbd 025a 04bc
000000d0: bcd7 1f3c 1c1c 6e3d 7baa 6abd a9b9 edbc
000000e0: 3a4b 2d3d c55d 57bd 1919 df3c b17b d8bc
000000f0: 30b8 90bc 435d 1b3d 6e85 0dbd c294 2fbd
00000100: d82a 4ebd 482f 61bd 74f7 45bc 8398 0abe
00000110: b4c0 5bbd 960a aabc 06f1 b63d 1429 ea3c
00000120: 4c15 043d 82a3 a23b ddbc 593b 60c8 86bd
00000130: b915 2abc 0ad5 d9bc b18b d93c 578f 3fbd
00000140: 02d9 633d 4ed3 e03c 8636 3dbb acea 0a3c
00000150: 0196 78bc b76c 4f3c 729b 28bc 0eaa 2fbc
00000160: 88eb 323e 1a24 55bd 51cf 72bd 99cf 69bd
00000170: 271d c63d e8f8 9f3d 1dcd 073d ca23 793c
00000180: 4b22 713d 3a68 3e3d cd58 d3bc 350f e1bc
00000190: 7df5 903d 944f c6bc 9082 723d 2d24 0cbd
000001a0: 0797 91bd beb9 c93c 6378 71bd 2709 e63c
000001b0: 3d11 4ebc 1ecf f53d c411 243d 7996 883d
000001c0: 3fce 89bc 9bf0 a43d 6cea 1ebd 70cf 69bd
000001d0: 7c57 ddbd 929e 883d 01a1 e23d 61cc 81bd
000001e0: 7882 01bb 6453 9fbd c2c9 2b3c 48fb 65bd
000001f0: 4b05 0abe e4e0 c93c 8a87 ab3d 72c2 b63d
00000200: caea 373d e1aa 4bbb 4340 15be 4ac3 863a
00000210: 3407 47bd 3ee9 38bd 5687 063d a7b1 abba
00000220: bc94 6cbd eaf4 f73d c759 603d 5829 073c
00000230: 2c05 903c 59ba 76bd d025 45bd 8c6d 15bc
00000240: 0f57 7abd ec16 ef3d 5e96 003e 3463 a6bd
00000250: 96a8 553d 4260 77bd 6380 1dbd 5fd2 2bbe
00000260: 6d93 8bbb 2b20 a83d db20 c6b9 ef36 3ebd
00000270: 1b35 31bd 56b3 5c3b 9a0c 73bd fb88 6f3d
00000280: ea56 b1bd 1607 bdbd 1bc7 f4bd bee1 0e3d
00000290: 4034 82bd b23c d23c 7959 ddbb d064 c43d
000002a0: 4c6b e1bd f058 853d 629f 09bd e897 483c
000002b0: adbd df3d 67b8 e8bc 5756 623d 6d9b e93c
000002c0: 67da 0ebd 1972 273c a070 963c 4170 7ebd
000002d0: 4db2 a63d 7c7c 9abc 3653 58bd f21b 37be
000002e0: 23a0 143d d319 1dbd 4f68 d4bd c266 4d3b
000002f0: 0f8d a9bc 9e26 02bd 7865 fe3c 210c 893c
00000300: 2cbd 3a3c 4256 863b 064f 04bd d744 dcbd
00000310: 1c93 f53c 283f 67bd a403 013e 6fd0 023e
00000320: 3905 6b3d a25c 753d cf37 893c 563e 11be
00000330: 25bb 7bbd 0636 dfbd 79e0 27bc 24b0 1b3c
00000340: a076 a5bd 66e3 19be 2b0a 13be 391f 48bd
00000350: 58d7 0dbd f772 293c 6b35 85bd b2a4 09bc
00000360: 2fe8 0ebc e593 20bc 6924 bf3d 21bd 94bb
00000370: 9dd7 473c 21ba f53d 9862 173e 3523 02ba
00000380: 4dcd bbbd 9a54 253d 016f b4bc 5aab 22bb
00000390: d697 e63c 4a28 f9bc 3183 073e 5f8f 7e3c
000003a0: 0ab7 d2bd 5088 dc3b f772 d0bc 999e fd3d
000003b0: 6a4e 12bc 177b 183d ea1c aa3d 4b63 143d
000003c0: 27e0 d8bd e38c f6bd 46e1 033e 2585 243c
000003d0: 29be ed3b bcf6 4dbd 367b 9abc a557 37be
000003e0: 74d6 9d3c e378 c5bd ebb6 28bd eaf5 123d
000003f0: a9d9 20be 6b25 8f3c 20bf 953d ba1b 043e

layer_out_1.bias f4 [128]
-0.1048055 0.003823334 -0.021562241 -0.13933729 -0.09432238 -0.028781308 -0.02185649 -0.08892528
-0.16545025 -0.11074755 -0.0037622913 -0.1646646 -0.061694592 -0.11343696 -0.10287315 -0.109835684
-0.105294 -0.14527735 -0.1498961 -0.039378572 -0.12737583 -0.08662242 -0.10878058 -0.16521224
-0.104656525 -0.09102098 -0.032013666 -0.07913592 -0.17484604 -0.019583976 -0.15704106 -0.02210396
-0.014927013 -0.12550545 -0.09564562 -0.10988875 -0.11171118 -0.11394953 -0.009133701 -0.08332319
-0.14145432 -0.17140889 -0.042082507 -0.11842861 -0.09736843 -0.12513876 -0.009346645 -0.007872882
-0.0049296827 -0.036395192 -0.022611797 -0.041666467 0.0071475916 -0.0034224153 -0.11409859 0.012677035
-0.07740466 -0.010104151 -0.049896654 -0.10328649 -0.017504163 -0.0068711382 -0.014752593 -0.14077528
-0.1599431 -0.030636769 -0.1493024 -0.102206506 -0.097915195 -0.09508997 -0.023083929 -0.08813762
-0.0110236 -0.112616085 -0.10757614 -0.044061907 -0.13474315 -0.11450032 -0.007721579 -0.112159096
-0.010091782 -0.027520582 -0.03038406 -0.033188604 -0.12534036 -0.08837789 -0.07832004 -0.120410815
-0.03812162 -0.10720791 -0.014671304 -0.101987004 -0.110531285 -0.16832834 -0.030271148 0.016072
-0.05304281 -0.01654749 -0.060910277 -0.03573687 -0.09509806 -0.01994567 -0.04693385 -0.07860249
-0.16638526 -0.0094896555 -0.1257966 -0.01818125 -0.03559494 0.013668982 -0.04271452 -0.0018097778
-0.0009112643 -0.044782847 -0.029354693 -0.10147608 -0.12631875 -0.01385555 -0.011121866 -0.08991589
0.058979806 -0.14914972 -0.08372329 -0.09781081 -0.07474125 -0.07639594 -0.10899761 -0.16175614
00000000: 44a4 d6bd e690 7a3b 4ca3 b0bc 6fae 0ebe
00000010: 182c c1bd c7c6 ebbc 620c b3bc 751e b6bd
00000020: ca6b 29be 9dcf e2bd c690 76bb d69d 28be
00000030: 78b3 7cbd a351 e8bd 28af d2bd 88f1 e0bd
00000040: 61a4 d7bd 96c3 14be 5d7e 19be 6d4b 21bd
00000050: cf6e 02be 1867 b1bd 5ac8 debd 662d 29be
00000060: 2956 d6bd 3569 babd c320 03bd 0312 a2bd
00000070: d70a 33be 936e a0bc 5fcf 20be 5d13 b5bc
00000080: 6e90 74bc 8084 00be dae1 c3bd 5a0d e1bd
00000090: d5c8 e4bd 5f5e e9bd 85a5 15bc 59a5 aabd
000000a0: 67d9 10be d085 2fbe b55e 2cbd b38a f2bd
000000b0: 1969 c7bd 6024 00be ac22 19bc 43fd 00bc
000000c0: 2d89 a1bb 2013 15bd 603c b9bc 75aa 2abd
000000d0: 5836 ea3b 9a4a 60bb 86ac e9bd 57b3 4f3c
000000e0: 5686 9ebd e28b 25bc 6f60 4cbd de87 d3bd
000000f0: e464 8fbc 4927 e1bb dcb4 71bc 6527 10be
00000100: 20c8 23be f6f9 fabc bae2 18be a551 d1bd
00000110: c387 c8bd 88be c2bd 821a bdbc 7f81 b4bd
00000120: 549c 34bc 43a3 e6bd e150 dcbd 427a 34bd
00000130: 1cfa 09be 257f eabd 4d05 fdbb abb3 e5bd
00000140: 0058 25bc d872 e1bc fee7 f8bc c6f0 07bd
00000150: 3959 00be 78ff b4bd 4266 a0bd f299 f6bd
00000160: 6a25 1cbd d28f dbbd e95f 70bc 90de d0bd
00000170: 3a5e e2bd 445e 2cbe 33fb f7bc 6da9 833c
00000180: 6b43 59bd 9a8e 87bc 0e7d 79bd d360 12bd
00000190: c6c2 c2bd 1a65 a3bc b53d 40bd 58fa a0bd
000001a0: e660 2abe 807a 1bbc d3d0 00be d8f0 94bc
000001b0: 00cc 11bd def3 5f3c 6cf5 2ebd 1136 edba
000001c0: e9e1 6eba 386e 37bd 4179 f0bc b1d2 cfbd
000001d0: b459 01be 6402 63bc 7d38 36bc d225 b8bd
000001e0: cf94 713d b4ba 18be 1e77 abbd 0951 c8bd
000001f0: f111 99bd 7975 9cbd 243a dfbd 67a3 25be

layer_out_2.weight f4 [53, 128]
0.015581901 -0.03594344 -0.12265967 -0.013550413 -0.019476566 0.020398935 -0.03706345 0.0076613207
0.06438644 0.03845415 0.031114561 0.0336872 -0.0007019222 -0.020618884 0.02175354 0.016345708
-0.026058076 -0.043904733 -0.04855507 -0.08834435 -0.0137963565 -0.022523778 -0.043209 0.050328564
0.011075963 -0.056094054 -0.04744891 -0.10384239 0.027119527 0.030620985 0.005865584 0.022116344
0.02104487 -0.008625298 0.0007746132 0.02516948 -0.03233675 0.006441507 0.02125905 0.010483752
-0.040187266 0.021660695 0.024059236 -0.01042785 -0.059422918 -0.027923666 -0.0043345 0.023027083
0.077361636 -0.02122523 -0.06394056 -0.033636402 0.0020867432 -0.014845232 0.02736341 0.011483108
-0.06657875 -0.023543904 -0.13165526 0.009978532 0.00024087925 -0.083862185 -0.034727864 -0.077738605
-0.051616248 -0.0053645326 0.00040873364 0.026484894 0.020082623 -0.004922125 0.03551222 0.0136731565
-0.108804904 -0.039670296 -0.05462336 -0.048142567 -0.0015674735 -0.015360315 -0.040563654 -0.009424433
-0.026330393 -0.04319839 -0.065291606 -0.05519781 -0.01500868 0.01826676 -0.038542558 -0.0691732
-0.03406284 -0.017878398 -0.08093335 -0.061850574 -0.05342142 0.012524163 -0.014937769 -0.0036227545
-0.05671226 -0.0064720293 -0.038375787 -0.038520914 0.088150255 -0.06863145 0.011543765 0.040493846
0.052496545 -0.106653795 -0.09166778 0.04458987 -0.08050227 -0.099432044 -0.054699793 -0.05546843
0.0012038165 -0.0321693 0.011602544 0.0492422 -0.09914196 0.059219796 -0.05610265 0.05101839
0.024376268 -0.047634244 -0.03923001 -0.066182174 -0.0026589874 -0.072714314 0.022046225 0.0032177537
-0.09191355 0.017899645 -0.015160275 -0.06325015 -0.05531351 -0.07542628 -0.036559306 -0.08961579
0.029308692 -0.009728215 -0.06424078 0.05752214 -0.115621515 -0.1025465 0.011776313 0.07449901
-0.054087933 -0.06364214 -0.058574688 0.0792418 -0.012082488 0.020408992 -0.014049003 -0.038642474
0.018143294 -0.031183898 -0.00984914 -0.011661846 0.025043959 0.005790735 -0.024991328 -0.045482613
7.114965e-05 -0.055712316 0.032936953 -0.120564245 -0.02228563 -0.056606356 -0.023365628 -0.043829318
-0.029921098 -0.0012917443 -0.059351217 -0.020811448 0.03853526 0.008554713 0.06853164 0.02015095
-0.024189638 -0.02602529 0.10295169 -0.017838592 0.037039466 -0.08337528 0.14668094 0.030752514
-0.095937416 0.012907112 -0.09777655 -0.012292602 -0.09396101 -0.06464619 0.04323853 -0.0076354723
0.014614381 -0.057973634 0.021778313 -0.009111319 -0.033728737 -0.04430032 -0.0070155775 -0.08993406
-0.008372086 0.016444903 -0.07220554 -0.010776728 -0.042371914 -0.023525534 -0.06347801 0.081695214
-0.07054171 0.023029923 -0.010346939 -0.051843714 -0.07914628 -0.0034406143 -0.07888474 0.019161545
0.0028232073 -0.06440235 -0.09711064 0.018681025 0.028217087 0.030135496 -0.06514696 0.088386804
0.0006452246 0.0043120193 -0.04213082 0.013827827 -0.034609266 -0.069469854 -0.00517742 -0.010837045
-0.093768425 -0.08097547 -0.06727705 -0.05497703 -0.008003245 0.03815334 0.002128457 -0.10109623
-0.055942003 -0.062099345 -0.033274103 -0.044965245 -0.028527955 -0.030032882 0.034514174 -0.10090895
-0.02475714 -0.091907136 -0.034046445 -0.12730412 -0.033974618 0.0019409333 -0.08825722 -0.013311947
00000000: 3b4b 7f3c 6e39 13bd fe34 fbbd 8d02 5ebc
00000010: 528d 9fbc ab1b a73c d8cf 17bd d10b fb3b
00000020: 0add 833d 1982 1d3d f7e3 fe3c 97fb 093d
00000030: 3401 38ba efe8 a8bc 7b34 b23c 6fe7 853c
00000040: bf77 d5bc 73d5 33bd aee1 46bd e2ed b4bd
00000050: 1d0a 62bc c983 b8bc ecfb 30bd 5325 4e3d
00000060: f577 353c e1c2 65bd ca59 42bd 52ab d4bd
00000070: c529 de3c dcd8 fa3c 1634 c03b 562d b53c
00000080: 4b66 ac3c 1f51 0dbc 690f 4b3a 3a30 ce3c
00000090: 8a73 04bd 4713 d33b 7627 ae3c 0bc4 2b3c
000000a0: 679b 24bd c571 b13c e017 c53c 93d9 2abc
000000b0: 7265 73bd 2cc0 e4bc 6c08 8ebb 4ba3 bc3c
000000c0: c76f 9e3d 89e0 adbc 45f3 82bd 53c6 09bd
000000d0: bec1 083b 6a39 73bc 3b29 e03c a523 3c3c
000000e0: 715a 88bd 25df c0bc a3d0 06be ff7c 233c
000000f0: 8894 7c39 f0bf abbd ce3e 0ebd 6b35 9fbd
00000100: 8f6b 53bd f6c8 afbb 4d4b d639 d9f6 d83c
00000110: 5084 a43c c749 a1bb 4375 113d 6005 603c
00000120: 1bd5 debd 527d 22bd bfbc 5fbd 2431 45bd
00000130: af73 cdba d5a9 7bbc 1326 26bd f068 1abc
00000140: d6b2 d7bc ccf0 30bd 9bb7 85bd 1917 62bd
00000150: f7e6 75bc 2ca4 953c cdde 1dbd aeaa 8dbd
00000160: 7a85 0bbd b875 92bc 62c0 a5bd 0757 7dbd
00000170: 6bd0 5abd 2632 4d3c 8bbd 74bc bc6b 6dbb
00000180: 1d4b 68bd 5113 d4bb ee2f 1dbd 1bc8 1dbd
00000190: 1f88 b43d a58e 8cbd 0f22 3d3c e0dc 253d
000001a0: 9e06 573d 4e6d dabd 51bc bbbd dea3 363d
000001b0: 60de a4bd 07a3 cbbd e40c 60bd dd32 63bd
000001c0: 61c9 9d3a f5c3 03bd 9918 3e3c 30b2 493d
000001d0: f10a cbbd 7590 723d e4cb 65bd a9f8 503d
000001e0: bdb0 c73c 201c 43bd a6af 20bd 858a 87bd
000001f0: 6842 2ebb 3eeb 94bd 499a b43c f3e0 523b
00000200: 2c3d bcbd 47a2 923c cd62 78bc 4b89 81bd
00000210: 6b90 62bd 1879 9abd 36bf 15bd 7c88 b7bd
00000220: c818 f03c 1763 1fbc ac90 83bd 569c 6b3d
00000230: f9ca ecbd e603 d2bd 70f1 403c f092 983d
00000240: 4f8b 5dbd cf56 82bd 03ec 6fbd 8649 a23d
00000250: a1f5 45bc c230 a73c ca2d 66bc 9247 1ebd
00000260: 3fa1 943c 6075 ffbc 4a5e 21bc 5411 3fbc
00000270: fd28 cd3c 35c0 bd3b 9dba ccbc fa4b 3abd
00000280: 2d36 9538 9932 64bd e6e8 063d 63ea f6bd
00000290: 5b90 b6bc 11dc 67bd 4669 bfbc 5f86 33bd
000002a0: 171d f5bc bf4f a9ba 431a 73bd c57c aabc
000002b0: 26d7 1d3d 1129 0c3c 515a 8c3d 9b13 a53c
000002c0: 5929 c6bc fd32 d5bc 56d8 d23d 3d22 92bc
000002d0: b2b6 173d a9c0 aabd 8733 163e b2ec fb3c
000002e0: d67a c4bd 5a78 533c 123f c8bd e966 49bc
000002f0: a16e c0bd 3965 84bd e31a 313d fc32 fabb
00000300: 2871 6f3c c375 6dbd 6f68 b23c a447 15bc
00000310: 2527 0abd 4174 35bd eee2 e5bb 592f b8bd
00000320: 132b 09bc 76b7 863c 80e0 93bd e090 30bc
00000330: 2c8e 2dbd 9fb8 c0bc c200 82bd d24f a73d
00000340: 2c78 90bd 40a9 bc3c 3586 29bc 135a 54bd
00000350: 7217 a2bd ee7b 61bb 538e a1bd acf8 9c3c
00000360: 8f05 393b 61e5 83bd f1e1 c6bd f308 993c
00000370: 8527 e73c b7de f63c c56b 85bd 2404 b53d
00000380: 4a24 293a d74b 8d3b 5e91 2cbd 1c8e 623c
00000390: 72c2 0dbd 3646 8ebd 59a7 a9bb dc8d 31bc
000003a0: a909 c0bd 78d6 a5bd 8dc8 89bd 982f 61bd
000003b0: 0b20 03bc ad46 1c3d 957d 0b3b 8a0b cfbd
000003c0: 7123 65bd e25b 7ebd 6d4a 08bd 7a2d 38bd
000003d0: 75b3 e9bc 8507 f6bc bc5e 0d3d 5aa9 cebd
000003e0: 7ccf cabc cf39 bcbd 4974 0bbd 035c 02be
000003f0: f828 0bbd ea66 fe3a 34c0 b4bd 5a1a 5abc

layer_out_2.bias f4 [53]
0.007212769 0.026259119 -0.015179264 -0.0052810917 -0.0039021345 0.02354062 -0.0031403713 -0.001132119
-0.013734274 -0.022281237 0.0055277855 -0.012038565 0.0053729634 0.013878267 0.005603546 0.009324813
0.021231387 -0.029766638 0.0035460477 -0.005030361 0.024895357 0.025752483 -0.020097604 0.008141277
-0.00053553144 0.008725159 0.0009829937 0.0019798197 0.004283747 0.0026004238 0.008445105 0.004450553
-0.026820943 -0.0046317824 0.0041409354 -0.0024672118 -0.0036550006 0.010899539 0.0032354097 -0.010372329
0.01573592 0.016023405 0.020705838 -0.0042521637 0.00016423175 0.007256402 0.0025591296 0.0019247099
0.015688818 -0.0031406102 -0.003991913 0.020097122 -0.014887366
00000000: 1759 ec3b 5d1d d73c 73b2 78bc 020d adbb
00000010: f4ba 7fbb 42d8 c03c b0ce 4dbb 9c63 94ba
00000020: b805 61bc 2487 b6bc 6d22 b53b 673d 45bc
00000030: af0f b03b ac61 633c f39d b73b 1ac7 183c
00000040: 72ed ad3c 2ad9 f3bc cf64 683b bad5 a4bb
00000050: 59f1 cb3c dff6 d23c bba3 a4bc fe62 053c
00000060: e862 0cba f8f3 0e3c ccd7 803a ddbf 013b
00000070: ad5e 8c3b df6b 2a3b 565d 0a3c f2d5 913b
00000080: 98b7 dbbc 35c6 97bb afb0 873b f2b0 21bb
00000090: bc88 6fbb fb93 323c 2b09 543b b3f0 29bc
000000a0: 9ee8 803c 8443 833c 4a9f a93c bc55 8bbb
000000b0: a035 2c39 1dc7 ed3b 12b7 273b 8c46 fc3a
000000c0: d685 803c b2d2 4dbb 98ce 82bb b8a2 a43c
000000d0: 24ea 73bc

residual_layers.0.layer_norm.weight f4 [128]
0.94055384 1.0646033 0.99308723 1.0236795 1.1121377 0.9894769 0.94055057 1.0508595
1.0304823 0.9632874 0.96130437 0.96897435 0.9473671 1.0017122 1.0382627 0.9710042
1.0587277 0.927254 0.98167646 0.9877751 1.0907776 1.0476196 1.0346118 0.8678036
1.0272665 0.93989253 1.0158539 1.0090697 1.1099515 1.0803508 0.97918767 1.0695065
1.0931311 1.0068051 1.0150055 0.9733024 1.0006983 1.0262091 0.9973901 0.9571947
0.94369096 0.9944706 0.92083716 0.93547547 0.9487763 1.0143797 0.9405498 1.1117105
0.94135606 1.0278857 0.93655026 1.0457128 0.9965049 1.0523341 0.9202361 1.0015577
0.9462352 0.91847706 1.0605363 0.9472038 1.1051749 1.0167699 1.0563036 0.9518125
1.0655432 0.9767176 1.0796939 0.97150296 1.0954965 0.9453584 1.0165321 1.085346
1.0542706 1.0369434 0.9830443 0.9446759 1.0578219 0.9196745 1.0057845 1.0729163
0.959883 1.1055355 0.9632642 1.0137196 0.9228101 1.0488728 1.0364525 0.9352319
1.040732 1.1160234 1.0419492 0.90738106 0.9439548 0.97561145 1.0323478 1.0638655
0.90840095 0.94855237 1.0324941 1.0411415 0.9539122 0.9648088 1.0292019 0.9659959
0.9708159 0.96082884 1.0563815 0.95286036 0.9698113 0.96496814 0.974708 0.9402483
0.9492774 1.0680385 1.0663077 0.91202664 1.050165 0.94239545 1.080773 0.9366433
1.0610915 1.0327483 0.90375876 1.0451555 0.98987776 0.9830636 0.931262 1.0344715
00000000: 23c8 703f ec44 883f f73a 7e3f ee07 833f
00000010: 875a 8e3f 5c4e 7d3f ecc7 703f 9082 863f
00000020: d8e6 833f 019a 763f 0b18 763f b40e 783f
00000030: a686 723f 1b38 803f cbe5 843f bb93 783f
00000040: 6484 873f 8560 6d3f 264f 7b3f d4de 7c3f
00000050: 9a9e 8b3f 6618 863f 296e 843f 6028 5e3f
00000060: 787d 833f cc9c 703f 8007 823f 3229 813f
00000070: e412 8e3f ef48 8a3f 0bac 7a3f 97e5 883f
00000080: b8eb 8b3f fdde 803f b3eb 813f 592a 793f
00000090: e216 803f d25a 833f f554 7f3f b60a 753f
000000a0: bb95 713f a095 7e3f fcbb 6b3f 527b 6f3f
000000b0: 01e3 723f 32d7 813f dfc7 703f 884c 8e3f
000000c0: b6fc 703f c291 833f c2c1 6f3f ebd9 853f
000000d0: f21a 7f3f e2b2 863f 9894 6b3f 0b33 803f
000000e0: 783c 723f 5021 6b3f a7bf 873f f37b 723f
000000f0: 5f76 8d3f 8425 823f f534 873f fca9 733f
00000100: b863 883f 2a0a 7a3f 6933 8a3f 6bb4 783f
00000110: 3b39 8c3f 0203 723f b91d 823f 9eec 8a3f
00000120: 57f2 863f 90ba 843f cba8 7b3f 48d6 713f
00000130: b566 873f ca6f 6b3f 8cbd 803f 5255 893f
00000140: e4ba 753f 3082 8d3f 7c98 763f 90c1 813f
00000150: 483d 6c3f 7741 863f 7aaa 843f 5c6b 6f3f
00000160: b536 853f dbd9 8e3f 975e 853f 204a 683f
00000170: 06a7 713f acc1 793f f923 843f bf2c 883f
00000180: f78c 683f 54d4 723f c428 843f 2044 853f
00000190: 9733 743f b6fd 763f e3bc 833f 824b 773f
000001a0: 6487 783f e1f8 753f 8237 873f a8ee 733f
000001b0: 8e45 783f 2708 773f 7786 793f 1db4 703f
000001c0: d803 733f 7cb5 883f c57c 883f 947a 693f
000001d0: cf6b 863f d440 713f c556 8a3f dbc7 6f3f
000001e0: d9d1 873f 1931 843f bc5c 673f a8c7 853f
000001f0: a168 7d3f 0eaa 7b3f 3067 6e3f 9069 843f
