results/F-DDPM/Model/model.pt (torch, 73612 bytes, 26 tensors)

model.layer_x.weight f4 [32, 53]
00000000: 1493 963c ca65 1cbd 94db acbd 1792 d4bd
00000010: 56ac b6bc 6192 f13d 9d0c 0a3c 6647 893c
00000020: b6c5 1cbe ba30 683d 6805 093e 7ef9 59bc
00000030: bbf8 163d 3ee5 233e 415a ce3d ec87 85b9
00000040: b492 523c d667 523d 313b 0cbd 8b40 13be
00000050: ed69 c6bc 75e3 63bc df90 933c 8dba 873d
00000060: 1a58 113d 496f c3bc 9787 92bd 4399 cb3b
00000070: 510e 14bc 9d7c 75bc fd59 35bc ed99 8bbd
00000080: aa82 eb3d 4950 e33b 9c36 283c 5c1a 42bd
00000090: 0032 a53c 6514 8ebd 284a 6ebc ad5d 053e
000000a0: bcbf b0bd ce2a d6bd ebd8 973c 1b39 f03c
000000b0: 3c0f 2b3c ceef 2ebe d852 29bd d730 6d3d
000000c0: acdd 17be e58e dd3b 3e3b 3b3d c66a 3c3d
000000d0: 50d9 c43d 8ead 03bd ed05 2cbd 658b 113d
000000e0: 4939 d63d c5c0 a1bc fe43 1abe 9c20 d6bc
000000f0: 62fd cb3b 11f6 da3c dc10 0d3e 610a 32bd
00000100: 68be 1fbc 17c0 853c 3e55 573d fa50 483e
00000110: b6b2 b4bd 1215 81b9 90d9 fdbd d8ca 65bd
00000120: 58de 1bbc f7fa 2fbd 62b7 22bd b913 b93d
00000130: ec40 733d a374 143d 6c95 23bc 1919 1c3e
00000140: 7029 ee3c 2dbd 6e3e 749e b83c 30a8 4cbb
00000150: fa5c 493c 70fa 3a3d 11a0 2a3c 8bcf 6b3c
00000160: fd1f aebd 9d26 52be d86f 3dbd 67b3 1d3d
00000170: 2c92 0e3d cdc2 02bd f8ec 503c c4fe 463c
00000180: da53 963c c793 ebbd ae2c 2a3d 1edd c4bd
00000190: 8644 3f3d 347d 063d 5282 8b3c 0eef d2bc
000001a0: f969 b13c a363 17bd 4d84 953d 756a 9d3d
000001b0: 0520 993a 5d59 21be ce8c 443d cb23 e63d
000001c0: 2526 0d3c ad1f 5abc d3a0 a23b 8172 4abd
000001d0: 3a51 c43d 51ff 063c 7f65 98bc 324b 03be
000001e0: f204 d53d d564 7fba b44e c23a 8b46 b3bd
000001f0: c139 003d cf9c 6a3e e87d 113d e398 03bd
00000200: 13b2 7a3d 0651 01be 7e20 433e 6227 163b
00000210: d3d6 4ebd 8d22 88bc bcaa 953d 8726 873c
00000220: 3679 d53a 3f17 7a3c bba0 59be 04c3 38bc
00000230: a48c a8bd 7287 92bc 0a8d 2dbb 0c65 5e3d
00000240: 3deb 7fbd 7ba1 5cbb 078b e5bc 4fb9 9e3d
00000250: 3420 a1bd 80d2 8d3c bb05 243d c320 6ebe
00000260: 2520 1abd 2276 8a3d 3360 4b3d e594 8b3c
00000270: a5ac 10be 7c0f 38bd 0d99 883a 70ed 67bc
00000280: 4fe4 30bd e8c3 fbbb 5587 dabc 23dd d2bc
00000290: 6ced 8f3c 9344 043c 30ac ae3c 55c4 95bd
000002a0: d279 11bc abb3 113d 99cc cbbc 0ab9 063d
000002b0: bce0 9a3c 845c 47be daee 7d3d 31fb 0b3c
000002c0: 78f8 813d 77d8 51bd 23db c9bc 0485 0d3d
000002d0: 91f3 78bb 1114 5bbd c862 633d 3699 2b3e
000002e0: 24b7 a4bc cdaf e0bd bbe6 9d38 4e13 393e
000002f0: 6e45 0d3d 78f1 b7bc 069f ad3c c218 7ebd
00000300: 0d20 32bc 5960 05bd bd90 223d b485 36bd
00000310: 0938 a7bd 3a39 64bd c810 9dbd 6dcf e2ba
00000320: 63a6 a23c 44dc c13d 9a9b 2ebd 556b 9ebc
00000330: 863f 6abd 32a2 87bd 4ee2 0c3e 484e 163e
00000340: 4f61 1eba d15d eb3d 6533 fb3d 1ccc 47be
00000350: fee5 feb9 2612 e03b b9ca 59be cf0e e8bc
00000360: 372e 55bb 580c 113d 4b32 903d 8b49 b0bd
00000370: c0dd 9f3d 1bf6 fcbc 0e16 b63d a583 03bd
00000380: 52b6 393d fa90 50bd e9d4 fb3d 704e c33d
00000390: 3a23 8dbc b6c4 1bbd 022c ed3c 37dc 21bd
000003a0: fd37 cb3c bcc8 ae3c 181b a0bd d632 1ebd
000003b0: 3b10 ba3d 2a49 383c d0cf ccbd cf71 66bb
000003c0: f747 e8bc 7c97 7f39 8427 c0bb d181 adbd
000003d0: 5a4e 313d cd57 14bc e986 ac3d 6b4f c5bd
000003e0: b831 05bd 38d2 b03d beeb 0f3e 43a9 7ebc
000003f0: 13e8 393e 82e6 a23d f8c7 27bd 3f66 b03c
0.01838068 -0.03818301 -0.08440319 -0.10379427 -0.022298973 0.11795498 0.008425859 0.016757678
-0.15309796 0.056687094 0.13380969 -0.0133041125 0.0368583 0.16005418 0.10075808 -0.00025469007
0.01285236 0.051368557 -0.034236137 -0.1438009 -0.024220431 -0.01390921 0.018013416 0.066273786
0.03548441 -0.023856776 -0.07154768 0.0062133386 -0.009036616 -0.014983323 -0.011068818 -0.068164684
0.114995316 0.006937061 0.010266926 -0.04738842 0.020165443 -0.06937484 -0.014544047 0.13024016
-0.086303204 -0.10457383 0.018536052 0.029324105 0.010440644 -0.17083666 -0.04133877 0.057907905
-0.14830655 0.006761419 0.045710795 0.046000265 0.096117616 -0.032147937 -0.04199784 0.035533328
0.10460145 -0.01974524 -0.15065 -0.026138596 0.006225274 0.026728662 0.13775963 -0.04346693
-0.009749986 0.016326947 0.052571528 0.1956214 -0.08823149 -0.00024620496 -0.123950124 -0.05610165
-0.00951346 -0.042963948 -0.03972567 0.09036965 0.059388086 0.036244046 -0.009984355 0.15243949
0.029072493 0.23314352 0.022536494 -0.0031228177 0.012290234 0.045648992 0.010414139 0.014392744
-0.08502195 -0.20522542 -0.04624924 0.03850117 0.03480737 -0.031924058 0.01275181 0.012145702
0.01835053 -0.11502796 0.041546516 -0.09612487 0.04669621 0.032834247 0.017029915 -0.025748756
0.021656977 -0.036960255 0.07300625 0.07686321 0.0011682516 -0.15756746 0.047985844 0.11237296
0.008615051 -0.013313216 0.0049630194 -0.049425606 0.09585805 0.008239583 -0.018603085 -0.12821653
0.10401334 -0.0009742503 0.0014824481 -0.087536894 0.03130508 0.2291138 0.035520464 -0.032128226
0.06120498 -0.12628564 0.19055364 0.0022911658 -0.05049784 -0.016618038 0.073079556 0.016497863
0.0016286734 0.015264331 -0.2125272 -0.011276964 -0.0822995 -0.017886851 -0.002648177 0.054295585
-0.0624802 -0.0033665586 -0.028020395 0.077501886 -0.078674704 0.017312288 0.040044528 -0.23254685
-0.03762831 0.06760813 0.04965229 0.017038772 -0.14128359 -0.044936642 0.0010421589 -0.014155731
-0.043186482 -0.007683266 -0.02667586 -0.025740212 0.017569266 0.00807299 0.02132234 -0.07312838
-0.008879142 0.035571735 -0.024877833 0.03289131 0.01890599 -0.19468886 0.061995365 0.008543775
0.0634622 -0.051231828 -0.024640625 0.03455068 -0.0037986974 -0.053485934 0.055514127 0.16757664
-0.02010686 -0.10971031 7.52932e-05 0.1807377 0.03449004 -0.022454008 0.021193992 -0.06203533
-0.010871899 -0.032562587 0.039688814 -0.044561103 -0.08164985 -0.055718638 -0.076692164 -0.0017304249
0.01985473 0.094658405 -0.042628862 -0.01933829 -0.057189487 -0.06622733 0.13758203 0.146783
-0.0006041722 0.114925034 0.12265662 -0.19511455 -0.00048618013 0.006838101 -0.21268739 -0.028327374
-0.0032528767 0.035412163 0.070408426 -0.08607777 0.07805967 -0.030879071 0.08890925 -0.032107968
0.04533989 -0.05091951 0.12296469 0.09536445 -0.017228711 -0.038029395 0.028951649 -0.039516654
0.02480697 0.021335952 -0.07817668 -0.0386227 0.09085127 0.011247912 -0.100005746 -0.003516305
-0.028354628 0.00024375127 -0.0058640856 -0.08472026 0.043287612 -0.009054136 0.084241696 -0.096342884
-0.03251812 0.08633846 0.14054772 -0.015543285 0.18154936 0.07954122 -0.04096219 0.02153313

model.layer_x.bias f4 [32]
00000000: cd6c 133f 1da1 e33e 1317 e93e 6874 103f
00000010: d54b fb3e 1c38 0f3f 1443 133f 1be5 133f
00000020: f352 0c3f d30c f83e 4bf3 143f 4687 133f
00000030: 1a37 173f 5cf0 113f 3887 183f 94fd 103f
00000040: b3a2 123f f146 113f 8412 163f 648f 153f
00000050: e093 ed3e 2031 7d3e 1b31 f03e 08c5 0e3f
00000060: 285e 133f 8683 cb3e 519e cd3e c68d 153f
00000070: 4d9b 063f eb0a 173f 4034 143f 860d 0f3f
0.5758789 0.44458857 0.45525417 0.5642762 0.49081293 0.5594499 0.5752423 0.5777146
0.5481407 0.48447284 0.58183736 0.57628286 0.59068453 0.57007384 0.5958133 0.5663693
0.5727951 0.56748873 0.58622 0.5842192 0.46401882 0.24725771 0.46912464 0.55769396
0.57565546 0.39748782 0.40159848 0.58419454 0.5258072 0.59001034 0.5789223 0.5588001

model.layer_t_1.weight f4 [32, 32]
00000000: 45bd 99bd 5ab5 c23d f16a 3bbd ec5a 503d
00000010: 00fa 2c3d 3e83 86bc 8e92 21bd 4c3c d93d
00000020: f162 a23d e9f3 4abd 63d7 593c ab02 203d
00000030: 207c b9bc 13aa 6d3d a37a d23d a0e1 af3d
00000040: 6d8f 263d f5ef 0bbe 4c9e 01be fa95 c23d
00000050: e680 b33d 4a91 873b 880d a7bc 7492 e1bd
00000060: 4b23 c9bb 6e30 04bf 42bd f5bd 800e ac3d
00000070: 0379 0fbd bc09 093d 790d ea3d a2dc 9dbd
00000080: 01db 1b3d 4974 c7bd a391 2ebd 22b0 123e
00000090: 2a36 78bb 4f16 e2bc 93a5 0bbd b955 97bd
000000a0: 3c2d c1bd 2b1d 8e3d a3eb 8a3b 2f25 9d3d
000000b0: 2f3c a93d 0539 09be 87eb 05bc 7a9e cebc
000000c0: 4483 043d 7424 b63d 25eb 17bd bf81 bfbd
000000d0: 5a97 81bd e90f df3d e35b 9fbc 5d56 193d
000000e0: 8ce0 0c3d e0d1 03be 9872 85bd 80a8 6dbd
000000f0: 12ce 9fbc 1605 ba3c af86 62bd 5614 c23c
00000100: 2bc6 02be 0a68 e63d 0c1c cdbd b148 a8be
00000110: b9c9 75bc e93f 203d fa26 24bd 2c99 ed3c
00000120: 78bb 32bd 26e7 a5be 1f21 adbd 2dbf ee3d
00000130: 09ad b23d 4a70 ac3d 59a3 443e 6b45 133e
00000140: 24ad 92bd 5b11 8bbe ddb6 c2bd f25b b83e
00000150: f971 4bbe 469a 9bbd 109c 0bbe 80fb d23c
00000160: 8bd4 843d 5185 d63e fc49 2cbe 4c24 0ebe
00000170: 6988 4a3c a311 d5bd 6d2a e13b ce50 5dbe
00000180: 8a8c 0c3d e97d 39bd f402 453e 8ca0 c5be
00000190: b058 8f3e d8a2 52be a3ff 443e e59c 1f3e
000001a0: 8958 90be 5843 06bf 6ce2 803d a1d7 7a3d
000001b0: 85b3 27be 006d e0bd f47e 8cbe bf43 90bd
000001c0: 341e 6a3e c0f1 aabc bdb3 8dba bf2f 3a3e
000001d0: 4efa d63d 1e6e 723d 2862 ec3d 97e4 0e3e
000001e0: 647b 99bd 4aac 393e 071f cabc 2d94 3b3d
000001f0: 9511 6dbe 68eb 18be 8ece 003e 0ac8 5f3e
00000200: f410 c9bd d371 8e3b 1163 0abe 64ff 973e
00000210: 5268 c6bd 3169 bdbe d60b 1ebc 8b2f aa3c
00000220: 3e18 383e e9e5 903e 5776 87bd c0f5 be3e
00000230: e9b4 edbc 08f5 363c 8743 8cbd 1534 553e
00000240: e1b8 c73d 5adc 79bd c359 183e 57f3 9abe
00000250: ab29 c43d 0c22 cbbd 9b56 28be 1f93 823e
00000260: 367a 563e bd58 803e ddb4 323c 075e e0be
00000270: b6bc d4bd df77 b7bd 52b4 1e3d f305 17bd
00000280: d207 bb3d a9dd 15b9 c34b d33d 0be3 d8bc
00000290: 111d bdbc 3538 febd 2ebb 1b3c 22dc 633d
000002a0: 0812 97bc 7369 00bc 0fd8 f13d f6f7 3d3d
000002b0: 9939 b43c cd68 653d 78e8 993d e5ec a9bd
000002c0: d1b8 153e eb46 acbb a3b1 a4bd 3541 bb3d
000002d0: 7f3a 923d 9390 113d 28f1 41bc 9e8e 43bd
000002e0: 7c4f af3d 7754 29bf 882d cb3d d9ed 56be
000002f0: aa0f 94bd fa5e d0bd f206 dfbd c574 0e3e
00000300: 1055 0dbd c7cf f0bc e0ce f53d 746f bc3e
00000310: 02e7 f63d caca 2dbd 81f0 083e 9601 a73d
00000320: f6bb 3d3e ebbf 163e df6c 283e b4aa b3bc
00000330: d7fe ccbd b1aa 423c 8739 243d c256 fcbd
00000340: 179b fcbd 01e5 c0bd 9aae c1bd d83c 12be
00000350: 59bc 9e3d 294d 75bd 8ade 20bd 60e2 383e
00000360: 6c47 883c 9289 e83e 9ba4 4d3e ce9b cfbc
00000370: 220f 943d 7e4b 703e 6712 83bd 27bf 86bc
00000380: d047 65bd 1732 003e c08e ecbd 5124 843d
00000390: 2546 113e 10a4 043d 0460 41bc a4ed cebd
000003a0: 5b69 b4bc 3fac a23e 9a70 763d e70b c5bd
000003b0: 7736 9bbd 2e88 c73b 8ce2 43be bf88 813d
000003c0: a8f9 78bd 313b dfbc db29 143e 949b 0ebe
000003d0: 4f98 cbbd 5f9c ebbd 632e 5bbd ba22 67bd
000003e0: 32fe 90bd 1749 94bd 45ed 7e3e 9a67 edbc
000003f0: 0343 213d 12b1 293e 5822 0e3e d364 d0bd
-0.075068034 0.09507246 -0.045756284 0.05086796 0.042230606 -0.016420003 -0.039446406 0.10607204
0.07929028 -0.049549017 0.013295981 0.039065044 -0.022642195 0.058023524 0.10277297 0.085879564
0.040664125 -0.13665755 -0.12658042 0.09501262 0.0876482 0.004137193 -0.020392194 -0.11014262
-0.0061382405 -0.516364 -0.11998989 0.08401203 -0.035027515 0.03345655 0.11428351 -0.07708098
0.038050655 -0.097389765 -0.04261936 0.14325002 -0.0037874081 -0.027598528 -0.03409345 -0.07389397
-0.09432456 0.06939157 0.004239516 0.07673108 0.08263432 -0.13400657 -0.00817383 -0.025222052
0.032351747 0.08893672 -0.037089486 -0.09350919 -0.06327696 0.108917065 -0.019452995 0.037435878
0.034393832 -0.1287303 -0.06515998 -0.058022022 -0.019507442 0.022707503 -0.055304226 0.023691338
-0.12770908 0.112503126 -0.10015115 -0.3286796 -0.015001708 0.03912345 -0.040076233 0.029003702
-0.043635815 -0.32402915 -0.08453583 0.11657558 0.0872441 0.08419855 0.19202937 0.1438195
-0.0716193 -0.2716168 -0.09507535 0.3600765 -0.19867696 -0.07597785 -0.13633752 0.02575469
0.06485852 0.41898587 -0.16825098 -0.13881034 0.012361624 -0.104037546 0.0068715126 -0.21612856
0.034313716 -0.045286093 0.19239408 -0.3859905 0.2799735 -0.20569932 0.19238143 0.15587194
-0.28192547 -0.5244651 0.062931865 0.061240796 -0.16377075 -0.1095829 -0.27440608 -0.070441715
0.22863084 -0.020867229 -0.0010811012 0.18182276 0.104969606 0.059187047 0.11542159 0.13954388
-0.07494238 0.1813213 -0.024672998 0.04579561 -0.23151238 -0.1493355 0.12578794 0.21853653
-0.09817687 0.004347065 -0.13514353 0.29687035 -0.09687866 -0.36994317 -0.009646377 0.020774623
0.17977998 0.28300408 -0.066143684 0.37296867 -0.029016929 0.011166818 -0.06848817 0.20820649
0.0975206 -0.06100116 0.14877991 -0.3026378 0.0957826 -0.09918603 -0.16439287 0.2550287
0.20945057 0.25067702 0.010907379 -0.43821737 -0.10387556 -0.089584105 0.038746186 -0.036870908
0.09132351 -0.00014292322 0.10317185 -0.02647545 -0.023085149 -0.124130644 0.009505076 0.055629857
-0.018441215 -0.007837641 0.11808788 0.046379052 0.022000121 0.05600815 0.07515043 -0.08297137
0.14621283 -0.0052574775 -0.08041694 0.09143297 0.071400635 0.035538267 -0.011837281 -0.047743432
0.08560082 -0.6614451 0.09920794 -0.20989169 -0.0722955 -0.10174365 -0.108899966 0.13911732
-0.03450495 -0.029395951 0.12002349 0.36803782 0.1205578 -0.042429723 0.13372995 0.08154599
0.18528733 0.14721648 0.16447781 -0.021931984 -0.10009544 0.011881516 0.040093925 -0.12321235
-0.123342685 -0.09418679 -0.09457131 -0.14281023 0.07750768 -0.05988804 -0.03927473 0.18055105
0.01663562 0.45417458 0.20082323 -0.025342848 0.07229449 0.23466298 -0.06399994 -0.01644857
-0.05597669 0.12519108 -0.11550665 0.06452239 0.14186914 0.032383025 -0.011802677 -0.1010392
-0.022022894 0.31772038 0.06016598 -0.09621411 -0.07578748 0.006089232 -0.1912939 0.0632491
-0.060784966 -0.027249904 0.14469092 -0.13926536 -0.0994116 -0.11504435 -0.053511035 -0.056429602
-0.07079734 -0.07240503 0.24895199 -0.028980065 0.039370548 0.16571453 0.13880289 -0.10175481

model.layer_t_1.bias f4 [32]
00000000: 206d 1c3e 19ca 6fbc 7912 793e 5e3b 1ebd
00000010: 80a6 80be 15d7 edbd 530a b03d 997e edbd
00000020: 9da9 af3b 0f5e 6ebd 465d 4ebc 00c0 a0bd
00000030: b10d 7d3d b533 373e ee29 e7bd d46d 483c
00000040: 8f8e 653d dd18 45be 3e49 963d 6c6d 1f3e
00000050: 32cf f2bb aa25 a6bd bccb 05bd 99a7 553b
00000060: 1283 2d3d 207e 3a3d 0693 1b3e 5d07 a1bb
00000070: 1870 d2ba 0724 01bb 92c4 51bd 05c2 b1bd
0.15276003 -0.014635586 0.24323453 -0.038630836 -0.2512703 -0.11613289 0.08595719 -0.11596412
0.0053607957 -0.05819517 -0.01259548 -0.07849121 0.061780635 0.17890818 -0.11287294 0.012233216
0.056044158 -0.19247766 0.073381886 0.15569085 -0.0074099535 -0.081126526 -0.032665 0.0032601117
0.042361327 0.04553044 0.15192804 -0.004914208 -0.0016055135 -0.0019705312 -0.051212855 -0.086795844

model.layer_t_2.weight f4 [32, 32]
00000000: 3a97 523d e0d6 c1bd f5e5 443d c0a3 18be
00000010: 0212 083e c62c 49bd d881 ec3d 88cf 3f3d
00000020: 1c45 013e c72d 2a3d 9851 82be 657d 00be
00000030: a198 4dbe b8bf e93c 61e6 a4be b863 2abe
00000040: cc5e a5be 4072 4d3e d232 cfbd aed3 813e
00000050: 2d5c a6be ff52 e2bd 30d7 873e af79 623e
00000060: 7be0 b9bb 898a 113e 7e46 843e 469d be3e
00000070: ea1a 35bc c072 233d 9a15 e73e 20d3 8c3e
00000080: fa56 91bd b445 763d c78a 403d 02f5 403e
00000090: 95bf 79be d794 00be e924 fcbd 857f 46bc
000000a0: b9f2 adbd 9798 7d3e 47d2 24bd 9b12 b4bb
000000b0: dc5f f73d 784f b9bc a1d3 893e 47db 05be
000000c0: 217b 643e 27ce 51bd 2c50 2b3e 7560 32be
000000d0: 2a45 4c3e 976f 903e 3e63 2abe 23dd 8bbe
000000e0: c76a 273e 4095 ac3c c0aa 1abc 5abb a5be
000000f0: 125b 853e d458 67bd 2233 82be af9c 1c3d
00000100: 6209 54bd 8a06 d0bc dbaa 1e3e 9502 15be
00000110: c83a 113e e893 1ebe c955 ef3d f287 e2bb
00000120: 16cb 2c3e 1f9c c93d 76c2 82be f3b1 6ebd
00000130: 96aa 91be 6a88 803d 2b8f b1be 362a a93a
00000140: e724 d9be 6fd7 703e 7a4a 39be 8a50 353e
00000150: 0b77 ebbe 5606 67be b9b2 463e 3330 993e
00000160: 89dd 223e 0e81 403e d83a 953e aa4d b13e
00000170: 3dc4 ef3d 8723 88bd 69c8 db3e 75b0 453e
00000180: 678d 54be 6d6f f9bd db15 063d 4ba5 273e
00000190: a4b0 f2bc 4bc4 64be 3d10 3c3d e05d fdbc
000001a0: 2439 653c 91af 4a3d 7148 33bd a2fa 9c3d
000001b0: 570e 8c3e 3663 ccbd 60d3 b73c e117 45be
000001c0: ae11 3e3e 6116 80bd 3841 4abc 2e26 0fbd
000001d0: 8cd4 753e 4e1d 1e3e d7d9 2bbc 1f94 06be
000001e0: 1c51 14bd 610a f5bd e2da 32be 8028 49be
000001f0: e70a 903e adcc 17be 1be9 71be b868 e6bd
00000200: 490e 82be bbca 76bd e4c2 c93d 5566 0e3e
00000210: d15d 7f3c d6ac 2fbe 2ce8 d93d 775f 8a3d
00000220: 57d3 a23d 00bf 1b3d 8217 b9bd 40cb 5d3d
00000230: 6b8e 9e3d 661b c3bc 85f0 cb3d e4cf 78be
00000240: cc57 193e cd3a 323d ec90 173d 38a9 673c
00000250: 4a66 d73d c606 f43c d241 503d 33ac 54bd
00000260: 3ba8 4bbc 077e a8bc d0bb aebc 5c99 63bc
00000270: 3281 763e ebbe 1dbe 57b8 423d 9550 c23d
00000280: 34c0 adbd d399 eebd 6110 193e d083 923e
00000290: b7e6 73bd 2acf 86be abbb 38be 0541 1bbe
000002a0: 4299 c03c 52ac 723e f6f6 d03d eb42 fa3d
000002b0: 5b29 d23e 6b91 463d d15d 033d a1d0 72be
000002c0: 9dda 5a3e 8a2c 62be 76ec a0bb bd16 29bd
000002d0: e76f 7f3e 8aa2 4c3e c152 94be a514 83be
000002e0: a6c2 a93d 5c79 6f3d de59 16bd 615f 82be
000002f0: d6eb 513e ad70 76be 19d0 9cbe 6507 29be
00000300: a8d9 77be aae3 03be 8329 6fbe 1e72 02b9
00000310: 3f2f 5c3e acb8 24bd 01c2 10be f20c 2b3d
00000320: 1a2b 1f3d 167f 063c c0fc afbd 90f8 e73c
00000330: e2a1 03bd e83f cd3c e342 a43d 6082 583d
00000340: b88f 6ebd b5f4 4bbd b502 8dbd 2cfd b2bd
00000350: 74fb 0d3d 676e 333c b40c e7bd 5ed7 013d
00000360: b9fa 65be d91e 5dbd d36b 31bc 55a9 5dbe
00000370: b903 093d f3ac 14bb d4db e3bd 1e2e 93bc
00000380: 6160 19be b20e 4cbe 1a2e 873b 2f6e 163e
00000390: b290 493b 56bb ecbd a70e dcbd 6d9d 363c
000003a0: dc1a 23bd b57d d0bb cd57 d0bc 3a16 373e
000003b0: 8080 243e f48f 82be c918 863d d24b 6fbd
000003c0: fcca 4abc 39d6 a03d 78d2 d0bd 7a2d b5bd
000003d0: eec2 0b3d de4b 32bb aaa1 68bd 632f 96bd
000003e0: deb0 fdbd 293a 37be 8b27 f4bc 01a6 b6bc
000003f0: b630 643c bf20 a5bd 36ad 65bd b7bc 513d
0.051413752 -0.09464812 0.048070867 -0.14906216 0.1328812 -0.049114965 0.11548203 0.046828777
0.1262402 0.041547563 -0.25452876 -0.12547834 -0.20077755 0.028533801 -0.32207015 -0.16639602
-0.32298887 0.20063114 -0.10117115 0.2535681 -0.324922 -0.110509865 0.26531363 0.22116731
-0.005672512 0.14213003 0.2583503 0.37229365 -0.01105378 0.039904356 0.45133668 0.27504826
-0.070966676 0.060125068 0.04700735 0.18843463 -0.24389489 -0.12556778 -0.123117276 -0.012115364
-0.08493561 0.2476524 -0.0402396 -0.005495382 0.120788306 -0.022620901 0.26919273 -0.13071929
0.22312595 -0.051221993 0.16729802 -0.17419608 0.19948259 0.28210136 -0.1663942 -0.2731715
0.16349326 0.021067262 -0.009440124 -0.323695 0.26046044 -0.056481197 -0.25429636 0.038235363
-0.05176676 -0.025393743 0.15494864 -0.14551766 0.1418258 -0.1548611 0.11686284 -0.0069131786
0.16874346 0.09844231 -0.25538987 -0.058275174 -0.2845046 0.06276019 -0.3467954 0.0012906257
-0.42410967 0.23519681 -0.18094817 0.17706504 -0.4598926 -0.2256101 0.19404115 0.29919586
0.15904821 0.1879923 0.29146457 0.34629565 0.11707351 -0.06647401 0.42926338 0.19305594
-0.20757066 -0.12179456 0.032735687 0.16371648 -0.029625244 -0.22340505 0.045913924 -0.030928552
0.013990674 0.04948384 -0.043770257 0.07664992 0.2735469 -0.099798605 0.022439659 -0.1924739
0.18561432 -0.062542684 -0.012344651 -0.03494852 0.24006861 0.15440866 -0.010488949 -0.13142441
-0.036210164 -0.1196487 -0.1746631 -0.19644356 0.28133318 -0.14824171 -0.23624079 -0.11250442
-0.25401524 -0.060251933 0.098516256 0.13906224 0.015586332 -0.17155775 0.106399864 0.0675649
0.07950466 0.03802395 -0.09037687 0.054148912 0.07742008 -0.023816776 0.09957985 -0.24298054
0.14974898 0.043513108 0.037003443 0.014139466 0.10517557 0.029788386 0.05084402 -0.051922034
-0.012430246 -0.020567907 -0.02132979 -0.013891544 0.24072722 -0.1540486 0.04753908 0.09488026
-0.084839255 -0.116504334 0.14947654 0.2861619 -0.0595462 -0.2632993 -0.1804034 -0.15161522
0.023510579 0.23698547 0.10203354 0.12219795 0.41047177 0.048478525 0.032071892 -0.23712398
0.21372457 -0.22087303 -0.004911001 -0.04128145 0.24945031 0.19983879 -0.28969386 -0.25601688
0.08289079 0.058465347 -0.036706798 -0.25463393 0.2050012 -0.2406642 -0.30627516 -0.16506727
-0.24204123 -0.12879816 -0.23355679 -0.00012440278 0.21502398 -0.04021518 -0.14136507 0.041760392
0.038859464 0.008209011 -0.0859313 0.028316766 -0.032136805 0.025054887 0.0802057 0.05285871
-0.05824253 -0.049793918 -0.06885282 -0.08739695 0.034663633 0.010951615 -0.1128172 0.03169953
-0.22458924 -0.053984497 -0.01082893 -0.21646626 0.033450816 -0.0022686094 -0.11125913 -0.017966326
-0.14978172 -0.19927481 0.004125369 0.14690469 0.003075641 -0.11559169 -0.10744982 0.011145932
-0.039820537 -0.0063626417 -0.025432492 0.17879573 0.16064644 -0.25500453 0.06547696 -0.058421917
-0.012377497 0.0785336 -0.10196394 -0.088465646 0.034121446 -0.0027205865 -0.0567948 -0.07333257
-0.1238725 -0.1789328 -0.029804012 -0.022295954 0.013927629 -0.080628864 -0.05607339 0.051205363

model.layer_t_2.bias f4 [32]
00000000: 4f33 083c 1f6d dfbd 08c5 d53d 4ac6 4fbe
00000010: 9347 52be df54 633d a466 0ebe 6237 96bd
00000020: 718f 8539 411f 5d3d 61dd ba3d d9e9 c63b
00000030: 0985 f9bd 37d6 673e aa52 223d 70fd 0cbe
00000040: 8b28 993d 53ea 023d 4bc8 493e d403 ac3d
00000050: 8fe8 e53d e20e 9c3d c87c 913d fdce dcbd
00000060: 10c5 3dbd 7786 bd3e 6001 da3d 1cd3 c33d
00000070: 80b1 cd3d 552e ff3d 4372 063e ac4d 34be
0.008313014 -0.10909485 0.10437971 -0.20290485 -0.20535116 0.05550086 -0.13906342 -0.07334782
0.0002547461 0.053984884 0.09124256 0.0060703573 -0.121835776 0.2264031 0.039629616 -0.13768554
0.07478436 0.03196175 0.19705312 0.08399168 0.11225998 0.07620026 0.07103878 -0.107816674
-0.04633051 0.3701665 0.106447935 0.0956175 0.10043621 0.12460009 0.13129525 -0.17607754

model.layer_out_1.weight f4 [32, 32]
00000000: 8dcd 9b3d 8394 c0bb 8472 1b3d 4ecc 2ebe
00000010: df0b 453e 01db 883d b88a dc3d 56b1 fe3b
00000020: 86f0 d23d 57c9 bc3c 7129 b53c b992 eebd
00000030: aefd f03d 2857 31be 76aa 62be 343c f6bd
00000040: 62af a8bc 91bb 2bbe 29a6 e0bd 18da 5bbe
00000050: 1c2e 5a3e 15cc 7c3e f8d6 01be 5ed9 033d
00000060: 7e86 fc3d 5e94 803d ec08 a83c 3e62 7abe
00000070: 7146 963d 73d1 6c3e 4a68 2fbe d52d 0b3c
00000080: ff65 c9bd 892b 76be d9d5 e8bc 1d7b 4c3d
00000090: befe 213e 1fe2 123e 400a adbd 7281 33be
000000a0: aa0a 8ebd 8e2c c9bc 6a93 4e3d f9e2 23bd
000000b0: ee48 233e 8cc9 e93d be1c 90be ea8d 7abe
000000c0: 8316 39be 10c6 313e 798a c63c 78bc 9c3e
000000d0: 9969 f9bc e2a3 af3d 4a22 e4bd 1b52 ca3d
000000e0: 87d7 863d 91ef 73be f5a1 f9bb 7285 093c
000000f0: 251c c83c 4346 4b3e 21a6 febc b346 273d
00000100: 3785 213e c22b 033e b927 dbbd f98e 07be
00000110: 5687 69be 65e1 593d 71e2 5d3d 8eae cf3d
00000120: c839 973c 3d88 8fbd 94ce 5c3e 79bf 183b
00000130: 7d84 683e db5f 1f3e f928 2abe d092 dc3d
00000140: 1d33 433c 8dc7 4dbd 93dd 683c 9aa9 093e
00000150: 976f f3bd 23e7 223e 9d0b 84be 39b7 a53d
00000160: 8f34 01be d296 783d 7608 8ebd cad9 1fbd
00000170: a037 b0bd 3b6d cc3c f99d 2d3e b5ad a5be
00000180: f398 4fbd 2622 cdbd 610a 4d3a 43be 00be
00000190: 08a9 113e d70e 3dbe ea81 6cbd c18c 53bb
000001a0: 0a30 47bd 34cd e2bd 4f54 3bbd caa6 c33d
000001b0: 2eab 00bd 1b2e 4e3e 17cc f2bc 26f6 b03d
000001c0: 6d39 5d3d 57c8 363d cb79 8d3d 418f 38be
000001d0: 3421 053d 0bb6 a2bd 0af8 a5be 89f2 823e
000001e0: 1830 153e af6a e1bd 8f3d 573e a773 58be
000001f0: 6c8c 84be 88ee 31bc da44 013e da93 4cbd
00000200: bf45 f43d 402f 3b3d ec3a b43d 709c 68be
00000210: 6c90 8f3c d05c 81be 52da 03be 71e8 1c3d
00000220: edff 81be 4ef7 e6bd 540c 0d3e e3cb 67be
00000230: a8b8 d83d 8027 c6bc 219e 6f3d d46b 19be
00000240: 904e 8dbd 01ac adbd c5a4 603d e673 d43d
00000250: 93ca ddbd 60af ec3d 4557 583e 2dd2 6b3e
00000260: 1ab5 dbbc 7497 073d a56c 56bd 7b96 43be
00000270: b0d7 ba3c ce65 a63d f8c0 153d 1569 a8bd
00000280: af27 1c3d 6f78 c8bd 91e5 333e 15be 0d3e
00000290: 51bf 3c3d f205 f13b 3c73 cabd d4ea 12be
000002a0: 60f5 133e a954 13bc 96f9 593e efc0 39be
000002b0: 9c54 13be 29cf 4f3e 845b c43c e492 493e
000002c0: 700f 3bbe 69ff 463d c5a4 49be e308 053e
000002d0: 2dca 993d 6726 983d 30cf bb3d 540c 6abd
000002e0: 8ba0 433e c4ae 15bd b90d 0e3d 7321 40be
000002f0: 6f0d e83c 01bd a5bd 47a4 2abe 21d2 8ebe
00000300: 4253 d03b 419c 4abd 6604 103d b5d6 c93d
00000310: b5c0 dcbc b25e 7bbe 7383 983d fc31 1dbd
00000320: 7559 f93c 53a9 823d 841f 09bc ad27 57bc
00000330: a5b4 273e 3a8e 013e 05fb 2e3c 1428 7f3d
00000340: 630c 5a3e 0de1 4a3e 17d4 35be 47e4 d93d
00000350: 001c 7b3e 610e 333e 068b e1bb ba18 893e
00000360: e9d9 8f3d 56d1 173e bf19 95be 6ba7 c73c
00000370: 42d3 4fbd 9de6 083e 47d9 9bbd ab51 533d
00000380: a95a 08bd 18b6 50be 5bb1 8b3e 4a9f c3bd
00000390: f925 abbd affa 8dbd a777 72b9 ec62 95bd
000003a0: 9a08 df3c 1baa db3c e956 293d def2 57be
000003b0: d9f5 37bd 7853 893d e8a4 3a3d 1aaf 24bd
000003c0: cf4c 6ebe 496a 06be 1b7b e1bc 632e 3fbe
000003d0: d30c 4f3e e5f1 da3c 88eb 78be 591e 1bbd
000003e0: 75dc 71bd c789 f9bd 707f a2be 9d5b 1a3e
000003f0: 5544 52bc 4fc0 9dbc 6f0f 4a3e b660 d23c
0.07607565 -0.005877079 0.037951007 -0.17070124 0.1924281 0.06682397 0.10768646 0.007772605
0.102997825 0.023045225 0.022114487 -0.11649079 0.117671356 -0.17318404 -0.22135338 -0.120232016
-0.020591442 -0.1677077 -0.109691925 -0.21469915 0.21306652 0.24687226 -0.1267966 0.03218972
0.1233034 0.06278299 0.020512067 -0.24451539 0.073376544 0.23126774 -0.17129627 0.008494814
-0.09833907 -0.24040045 -0.028422283 0.049922097 0.15819833 0.14344071 -0.08449221 -0.17529848
-0.06935628 -0.024557378 0.050433554 -0.04001138 0.15945789 0.11415395 -0.2814693 -0.24468198
-0.18074994 0.17360711 0.02423595 0.3061254 -0.03044586 0.0857618 -0.111393526 0.098789416
0.06584077 -0.23821856 -0.0076181837 0.008393632 0.024427483 0.19851021 -0.031085076 0.04083891
0.15773474 0.12809661 -0.10700936 -0.13238133 -0.22805533 0.05319347 0.05417103 0.101407155
0.01846017 -0.07008407 0.21563178 0.0023307486 0.2270679 0.1556391 -0.16617192 0.1077019
0.011914042 -0.050239135 0.014212984 0.13443604 -0.118865184 0.15908484 -0.2579011 0.080915876
-0.12617706 0.06069071 -0.069352075 -0.03902606 -0.086043596 0.024954429 0.16954793 -0.3235909
-0.050682973 -0.10016279 0.0007821676 -0.12572579 0.14224637 -0.18462692 -0.057741083 -0.003227994
-0.048629798 -0.11074296 -0.0457347 0.09553297 -0.03141325 0.20134775 -0.029638333 0.08640699
0.054009844 0.044624653 0.06907996 -0.18023397 0.032502368 -0.07944878 -0.324158 0.25575665
0.14569128 -0.110066764 0.21019576 -0.21137868 -0.25888383 -0.010860093 0.12623921 -0.04994569
0.119273655 0.045699358 0.08800301 -0.22715926 0.01752492 -0.25266123 -0.12876251 0.03830761
-0.25390568 -0.112776384 0.13774234 -0.2263637 0.105820954 -0.024188757 0.058500413 -0.1498254
-0.0689975 -0.08480073 0.054844636 0.103736684 -0.108296536 0.115568876 0.2112704 0.23029394
-0.026819754 0.03310342 -0.052349705 -0.19100372 0.022807926 0.081248865 0.036560982 -0.08223168
0.038123783 -0.09788596 0.17568041 0.13842042 0.04608089 0.007355445 -0.098852605 -0.14347392
0.14449072 -0.0089923525 0.21286616 -0.18140005 -0.14387745 0.20293869 0.02396942 0.1968494
-0.18267608 0.04858342 -0.19691761 0.12991671 0.07509265 0.074292 0.09170377 -0.057140663
0.19104211 -0.036543623 0.034681056 -0.1876276 0.028326718 -0.0809269 -0.1666423 -0.2789469
0.0063575814 -0.04946542 0.035160445 0.09855405 -0.026947359 -0.24547842 0.07446947 -0.038377747
0.030438164 0.06379952 -0.00836933 -0.013132018 0.16377504 0.12651911 0.010679965 0.06229408
0.21293788 0.19812413 -0.17756687 0.106392436 0.245224 0.17485954 -0.006883028 0.26776677
0.07023985 0.14825949 -0.29121205 0.024371823 -0.05073858 0.13369222 -0.07609802 0.051591557
-0.033289585 -0.20381963 0.2728375 -0.09551866 -0.08356852 -0.0693258 -0.00023123492 -0.072942585
0.027225781 0.026814511 0.04134265 -0.2108874 -0.044912193 0.067053735 0.045567423 -0.040206052
-0.23271488 -0.13126482 -0.027524522 -0.18670039 0.20219736 0.026726672 -0.24308598 -0.03787074
-0.059048135 -0.12184482 -0.31737852 0.1507401 -0.012833674 -0.019256739 0.1973245 0.025680881

model.layer_out_1.bias f4 [32]
00000000: 3c99 333e 2377 d83c dcb6 8a3b 2a20 3c3e
00000010: f0c7 33bc 285e 963d c350 843d 2eb6 cebd
00000020: 5ff5 d53b 3f6b 0c3e e4e9 b6bd ccd1 85bb
00000030: a86d a0bd 7c7c da3d c06d 1dbd 0dba a13b
00000040: 602f 63be 0b4f b3bc a8e1 bd3b 129c 99bb
00000050: efa5 03be a345 92be 8e3a f33d 3ed5 7b3e
00000060: 7ff7 19bd 0416 dfbb 9da0 013e 3e4b 7f3c
00000070: 91b9 cf3d dd9f 48bd 5523 a13c 393b 05be
0.17538923 0.026423996 0.0042332243 0.18371645 -0.010972962 0.07342178 0.064607166 -0.10093342
0.0065294947 0.13712786 -0.0893133 -0.0040838476 -0.07833415 0.10668275 -0.038434744 0.004935509
-0.22186041 -0.021888277 0.0057947226 -0.0046877945 -0.12856267 -0.28568754 0.11876403 0.24593064
-0.037589546 -0.0068080444 0.12658925 0.015581904 0.10142816 -0.048980583 0.019670168 -0.13010873

model.layer_out_2.weight f4 [53, 32]
00000000: cd0e 913d 69c3 0e3c 435b 043e 7580 93bb
00000010: 0e7e 703c 2f0b 53bd 5206 f0ba ae2b 2bbe
00000020: c00e a8bd 0d5a 82bd 85b5 8e3d e565 543d
00000030: 139a 36bd 3afc b1bd 9282 b33d 08c8 59bc
00000040: e27a afbc fbcd e8bc 7ea1 16bd 9199 283d
00000050: feb2 0a3c 223b f83d 85fb f5bc 41f6 043e
00000060: cf6f c1bd 6356 fe3d 4313 f8bb 8cb1 1abd
00000070: 2fcf 86bd db0a 63bd b6a8 c53d a331 40bd
00000080: e6df b13c e66d 72bd 5cc7 fa3d 63bc f2bc
00000090: da43 f3bc 49c8 a6bd 03a5 a9bd 18d3 9abe
000000a0: 43f9 bbbd b167 f7bc 3614 773c 4adc 453d
000000b0: eea9 4f3e 2230 1bbe 029e 44b9 a5a0 b5bd
000000c0: c86b d53c e138 70bd f56e f53d 6727 dc3d
000000d0: f2bd 5dbc aa75 0d3e 7fec e4bd 868b e13d
000000e0: 2d45 c53c f8e4 c63c 428e 423e 1253 343e
000000f0: 4885 8fbd dc30 3c3d 6eee a03d 186b 81be
00000100: abee f0bc b194 e3bd 9645 593d cc81 6cbd
00000110: a32e 30bc b5c0 5b3e 1dc3 163e dd50 34bd
00000120: 5e63 b93d 8399 2e3d de02 44be 603c 2b3e
00000130: 7638 413b 2479 a5bd 6494 d2bd c0c3 343d
00000140: 48b4 98bb 24a8 453e 8c01 d83e 3db7 183d
00000150: ad39 35be ef72 24bd de0c 06bc 3d20 4cbe
00000160: ba52 0cbe 9001 db3d 776c 8fbc 5e52 afbe
00000170: dcf7 2e3e 3211 963d b4bd 73be e280 c0bc
00000180: e5b5 30bd 98f5 483d b688 1abe 27b7 f5bc
00000190: 4ddd 003e 7a2b f43d f43f 96be e550 0abd
000001a0: f552 b3bc 2bd8 04be 1962 1a3e 29ef ed3d
000001b0: 0987 ed3d c12e 5f3e f9fb 79bc 5940 993e
000001c0: 7199 a43e 8b15 a6bd 38f7 543c 1bf7 f6bd
000001d0: 1bd2 c8bd 40d4 d3bc dc87 663c 02b2 38be
000001e0: b445 bbbd 2cce 0a3e 6d06 22be b82b 593e
000001f0: bbe6 3abe 6dbf 00bd f607 d83b df6a ebbd
00000200: 4dfc cbbb 3fad c7bc 329d bd3c 8c47 e73c
00000210: ab04 2fbd d221 1abd d83f 2d3d 39cd 86bd
00000220: 166a fdbb d874 3fbd 0fdd 7dbb c43d 323d
00000230: eadb 143d 2afe 9c3b cc3b b7ba f5ce 7dbc
00000240: c86a cbbc 2dcc 1bbd e848 943a a4a6 b23d
00000250: 9254 44bc c6be 53bc d0fa bf3c 5a0d 203d
00000260: 048a 83bd 5e8f 113d b1c9 933c f775 023d
00000270: 2dad 553c 1420 133c a79f 10bb 3e8d c9bc
00000280: 79bd 643e 8886 283c 7ee3 2dbd 855d 16be
00000290: d5a8 673e 0cd6 18be 1fd7 eb3d aff3 ca3d
000002a0: 8c23 68be 6af6 0abe ebf5 5fbd fd96 3b3e
000002b0: 3e77 84be 5334 9f3e 0ee5 3d3a 2054 1dbe
000002c0: f6fd 33be a587 09be 7ec0 ebbc d4dd 1cbe
000002d0: 0c90 173d fc62 2bbd b5e9 b2bc 90ae db3d
000002e0: d0e4 3f3e 66c7 9e3e 95e3 cabd 2b81 9b3a
000002f0: 0b44 c83d 6b29 7bbc bdbe d8bc 006a cd3b
00000300: 2cef 173d f2a1 de3d bd75 1fbd 2a71 243d
00000310: d8a4 e1bc a9dd 8dbd c87d 36bd c97c 883c
00000320: 21bf 54bd 7131 8a3b 0048 f33d 20cb e8bd
00000330: 7655 1bbd ea5d b53c 1900 d83b b1b5 7dbd
00000340: 9732 ab3c cd63 50bd 5157 1bbe 937a 10bc
00000350: 1955 193e af97 6b3c ff33 303c 566d b33d
00000360: 5ebf eabb 0084 ebbd da9c 04bd bd6c fc3d
00000370: d298 e8bd 8d56 60bd 1586 003e 6677 de3d
00000380: 47d5 0ebd d797 debd 82fb fc3c 0703 3bbe
00000390: a02b 00be 25c2 9abd 79c1 863d a2a7 673a
000003a0: 2361 92bd 2070 983d 2579 d43d 2912 79be
000003b0: a6d8 293d f3b8 abbd a82f 59be f795 23bd
000003c0: 7ac8 b73e c37c 403e c07f 47be 0610 763e
000003d0: c13c 54be f6b3 8b3d 1fcf 12bd ffc4 c43c
000003e0: 5396 9f3e a97d 853e 310b 79be ca47 c6bd
000003f0: 32d7 823c 1887 b23c ffa4 0fbc c794 103e
0.07082901 0.008713582 0.12925439 -0.0045013973 0.014678491 -0.051524337 -0.001831243 -0.16715881
-0.08205938 -0.06364832 0.06968216 0.051854987 -0.04458053 -0.086906865 0.08765139 -0.01329232
-0.0214209 -0.028418532 -0.036775105 0.041162077 0.008465527 0.12120654 -0.03002716 0.12984563
-0.09445154 0.12418821 -0.0075706556 -0.03776698 -0.06582486 -0.055430274 0.0965132 -0.046922337
0.021713208 -0.05918684 0.12245056 -0.029630845 -0.02969544 -0.0814367 -0.082834266 -0.30239177
-0.09178402 -0.030200811 0.015080502 0.048305787 0.20279667 -0.1515508 -0.00018750879 -0.08868531
0.02605237 -0.058647994 0.11984054 0.10749703 -0.013534056 0.13814417 -0.111779206 0.1101294
0.024080837 0.024279103 0.1899958 0.17609814 -0.07007843 0.045945033 0.07857977 -0.2527702
-0.02941068 -0.11112345 0.053044878 -0.05774097 -0.010753307 0.2146023 0.14722867 -0.04402243
0.09052156 0.04262687 -0.19141719 0.1672225 0.0029483116 -0.08079746 -0.102822095 0.044131994
-0.004660163 0.19302422 0.4218868 0.037284125 -0.17697783 -0.04014867 -0.008181779 -0.19934173
-0.13703433 0.106936574 -0.017507775 -0.3424253 0.17086738 0.073274985 -0.23802835 -0.023498956
-0.04314222 0.04906234 -0.15091214 -0.02999456 0.1258442 0.11922355 -0.29345667 -0.033768553
-0.021890143 -0.12973087 0.15076484 0.11617882 0.115980215 0.21795179 -0.015257829 0.29931906
0.32148317 -0.08109578 0.012998395 -0.120588504 -0.098056994 -0.025858045 0.014070477 -0.18036655
-0.09144154 0.13555211 -0.15822764 0.21208084 -0.18252079 -0.031432558 0.006592746 -0.114949934
-0.006225145 -0.024374602 0.023146246 0.028232358 -0.04272906 -0.03762991 0.042297214 -0.06582112
-0.0077335937 -0.04674229 -0.0038736498 0.043515936 0.03634254 0.004791041 -0.0013979613 -0.015491237
-0.02483119 -0.038036514 0.0011313232 0.087231904 -0.011983054 -0.012923902 0.023435026 0.039075233
-0.06422809 0.035537116 0.01804051 0.03185078 0.013041777 0.008979816 -0.0022067816 -0.024603482
0.22337903 0.010285981 -0.04245328 -0.14684112 0.22622998 -0.14925402 0.115156405 0.0990976
-0.2266981 -0.13570562 -0.054677885 0.18319316 -0.25872225 0.31094608 0.00072439096 -0.15364122
-0.17577347 -0.1343065 -0.02877831 -0.15318996 0.03700261 -0.041842446 -0.021839956 0.107266545
0.18739629 0.31011504 -0.09906689 0.0011864057 0.09778603 -0.015329699 -0.026458139 0.0062687397
0.037093326 0.10870732 -0.038930643 0.040146984 -0.027544424 -0.06927044 -0.044553548 0.016661065
-0.051940087 0.0042173197 0.11878967 -0.11366868 -0.0379233 0.022139508 0.0065918085 -0.061940853
0.020898147 -0.050876427 -0.15170027 -0.0088182865 0.14973868 0.014379426 0.010754584 0.087610886
-0.007163926 -0.114997864 -0.032376148 0.12325428 -0.11357273 -0.05477004 0.12551148 0.10862617
-0.034871366 -0.10868805 0.030881647 -0.18262874 -0.12516642 -0.075565614 0.06579871 0.000883693
-0.071474336 0.07443261 0.10374669 -0.24323334 0.041466378 -0.08384886 -0.21209586 -0.03993794
0.3589514 0.18797593 -0.19482327 0.2402955 -0.20726301 0.06821434 -0.035842057 0.024019716
0.31169376 0.26072434 -0.24320675 -0.096816614 0.015971754 0.021792933 -0.0087673655 0.14119254

model.layer_out_2.bias f4 [53]
00000000: 8384 bf3b b89e e83b 0a92 ebbb 9716 aabb
00000010: 6f00 6bbb 5174 943a 6ec4 00bb 84d4 123b
00000020: 67fb 3fbc 0ec4 263c 6333 093a 46df 4fbb
00000030: b966 73bb 185b 923b aec4 09bb 7a7f 19bb
00000040: e559 ecb8 6d34 d73b f469 893b 3097 06bc
00000050: be9d f4ba c3df 333b 6576 8dbb 6196 573b
00000060: d00f 13bc 0b95 903b 8b06 d0ba 754d a7bb
00000070: 54f3 80bb 5be6 1bba 3257 9439 78d4 b2bb
00000080: faa6 e7bb 3643 863b a079 883b c0a1 f03b
00000090: 751f c6bb 7645 103b 9127 693b 92bd 6e3b
000000a0: dec1 f13b 32a8 723c a207 2ebb 4200 18ba
000000b0: d536 003b a435 b4b9 3c9a 49bb 54b6 55bb
000000c0: a03f 4cbb d33c 263a 4b7c bbba 83fe a23b
000000d0: f9f7 cfbb
0.005844654 0.007098999 -0.00718904 -0.005190681 -0.0035858413 0.0011326169 -0.0019648331 0.0022404501
-0.011717654 0.010178579 0.00052337925 -0.0031718775 -0.0037140085 0.0044664256 -0.0021021771 -0.002342193
-0.00011270101 0.006567529 0.004193539 -0.008214757 -0.0018662733 0.0027446605 -0.0043170922 0.003289603
-0.008975938 0.0044122986 -0.001587109 -0.005105669 -0.003935257 -0.00059471064 0.00028293725 -0.005457457
-0.0070694657 0.0040973676 0.0041648895 0.007343501 -0.0060462304 0.0022014058 0.0035576562 0.003642891
0.007377847 0.014810609 -0.0026554842 -0.0005798378 0.0019563932 -0.0003437224 -0.0030762097 -0.0032609897
-0.0031165853 0.0006341461 -0.001430401 0.004974188 -0.0063466993

model.residual_layers.0.layer_norm.weight f4 [32]
00000000: f3db 833f 96d4 873f 865f 703f f06a 763f
00000010: 0402 7b3f 09f4 7c3f 359d 713f 1381 753f
00000020: 9238 713f 0248 7e3f 0973 833f 1334 713f
00000030: f0c7 703f fca1 823f d092 6d3f 33fe 773f
00000040: 64d9 763f 5121 803f bc76 753f ffa6 7c3f
00000050: 5515 813f ea1b 5a3f 0780 843f 9758 763f
00000060: c9f8 713f 11f4 5f3f 59cc 7e3f 9c1c 803f
00000070: 1002 763f 3241 813f dc68 803f 8987 723f
1.0301498 1.0611751 0.9389576 0.96256924 0.9804995 0.9880987 0.94380504 0.95900077
0.94226944 0.99328625 1.0269481 0.94220084 0.9405508 1.0205684 0.92802143 0.9687225
0.9642546 1.0010167 0.958843 0.98692316 1.0084635 0.85198843 1.0351571 0.9622893
0.9452024 0.8748179 0.9953056 1.0008731 0.960969 1.0098021 1.0032 0.9473806

model.residual_layers.0.layer_norm.bias f4 [32]
00000000: 7d85 1abe 7a3d 353e 6239 273e 9e7a 1abe
00000010: 3e97 163e ecf3 c4bd 360e 23be 82c9 cdbd
00000020: 9c55 99bd 6101 303e ea3b 13be 9382 31be
00000030: b8e5 2abe 09d4 06be cb04 51be 29db 09be
00000040: d1c7 d5bd 1713 1bbe 63e6 35be 74d4 85bd
00000050: dfbe 243e 3afd 9c3e 1d89 2b3e 6bde 32bc
00000060: 78b0 2fbe d7eb 523e b0c8 663e d749 2cbe
00000070: 4ca3 7b3d 9340 45be acb4 dfbd ad4f 9dbd
-0.15089984 0.17699233 0.16330484 -0.15085837 0.14706132 -0.09616837 -0.1592339 -0.100482
-0.07487032 0.17188026 -0.14378324 -0.17334966 -0.16689193 -0.13166822 -0.20411985 -0.13462509
-0.104385026 -0.15144001 -0.17763667 -0.06534663 0.16088437 0.30661947 0.16751523 -0.010917286
-0.17157161 0.20597778 0.22537494 -0.16825043 0.06143503 -0.19262914 -0.10923132 -0.076812126

model.residual_layers.0.time_layer.layers.0.self_attn.in_proj_weight f4 [96, 32]
00000000: 7c0b 89bd bfc4 803e 5f49 a13d 3f1d 913d
00000010: 5a70 53bd 2dba 4bbe 6e61 88be fe56 cdbc
00000020: 71e7 683e 8119 73be 7f73 7f3d e837 713d
00000030: 7321 87bb 0ba3 42be c684 dc3b e406 87be
00000040: f31c bd3d 82b5 c13d 4d74 043d fa0c a33c
00000050: 12b0 37bd dc6e 8fbc b034 c63c 9cc2 033e
00000060: 540c 163e 34b2 da3d 8cdd 85bd 39b6 033b
00000070: b98a 6ebe e331 eebd 3d68 c03c 1aae 693d
00000080: 2331 00be 7d26 11be f8eb 1fbd 5f17 d33d
00000090: 0ba5 5f3e 9bf4 433d aa34 623d c3da 713e
000000a0: dd4c adbd f66e 3a3e 88f7 0fbe a7a5 4fbe
000000b0: 3076 2ebe a92f c33d e962 b83d 896c a9bd
000000c0: 606a 9ebe 7d90 633d 10ee ba3d ebae 313e
000000d0: f3f0 8bbd 68af 84be 73f4 a83e a2b5 433d
000000e0: b9f2 fe3d ff1d cd3d 0e1f 13be e532 55bd
000000f0: 4116 fd3c ce84 a73c 7c09 9a3d 0a03 fa3c
00000100: 552a ac3d 51d0 5dbe 7460 843d 5682 193d
00000110: 8c67 d3bd 893e bd3d 0038 43be 31a3 8b3d
00000120: ef23 453d 541c d3bd fb5b 80bd 6f18 b83d
00000130: 99c3 8cbe 45f3 ac3d f82a b8bc 36d8 4bbe
00000140: 9852 ed3d 769d 15be 136b f9bd 22cb ebbd
00000150: 953d 793c 187d c7bd 9d1e 51be e0ae d73d
00000160: daf8 a2bd db96 5c3b fe9e 4c3d 5ba5 ebbd
00000170: 29de 51bd 2f84 823d 56fd 883e 0d8f 873c
00000180: e695 40bd 77d1 19be 95af e73d fc98 7f3d
00000190: 9ccf 1a3e c278 2fbd 3b3f 01bd 5810 4abd
000001a0: 1caf bf3c 70e9 013e d65f e6bd 9386 0bbe
000001b0: abb0 103e 37bf 003e fcb8 06bd b086 8fbd
000001c0: 16a6 8abc c66d 283d 25ab ae3d 9941 1c3e
000001d0: e60f 573e 7d83 c23d 47ee 92bd adb9 8dbd
000001e0: 86bb aebd 54c0 8fbd 30c4 b5bd 3da7 143d
000001f0: 535a 1d3d f164 9d3d a532 663d 31d2 9b3d
00000200: b5a9 1e3e ef85 5ebe 8f97 ddbc 6529 423c
00000210: 93b3 7b3d 7413 8ebd 1bf5 6cbd ff62 073e
00000220: dc71 8d3d df4a 5e3e 6808 363d c221 99bc
00000230: fb7f eabd 7b2a 1c3e 56f0 dd3c f4cf bc3c
00000240: 48a2 143e 1b8e a63c 84b8 85be d85d 0bbd
00000250: 96d3 f83c c89f fbbd 12c4 f3ba 3d46 d5bb
00000260: 3e33 283c b240 f4bd ef90 5abc 1319 8cbc
00000270: ac78 043e fa77 203e e599 05bd f1d6 82bd
00000280: 29d4 02be a653 583d fce1 913c 0f32 923c
00000290: 6d93 91bd e302 013d 1f78 1c3d 8e53 213e
000002a0: a7b7 14bd 2223 e43d 4ff0 99bd 384e 9abd
000002b0: 419c 893d cd7e 14bd bc85 be3d 8bc9 36be
000002c0: c9f2 15be ce72 a23d 08de 2ebd 912a 18be
000002d0: 7d3f ef3a 4b8c 31bd 21ee 553e db56 5d3e
000002e0: d166 a8bd 2ef9 443e 3032 a4bd f93c dcbd
000002f0: 36b4 013d 6282 93bc 4dd0 adbc 8ca0 adbd
00000300: f287 d0ba 6651 3abe 70f7 8a3e aec8 0bbe
00000310: f001 503d 829a c4bc cd36 92bd 2d78 d53c
00000320: ea4e 64bd 454f 773d dc6c 283e 156a 03be
00000330: 18c5 b7be 1fef 253e 68cc 4c3e 0ed2 a7be
00000340: c2de 2b3e 2da5 4fbc 08b5 f23d 80e3 923e
00000350: 90c0 753c b8e1 70bd 24f4 76bc 6f3e 0fbe
00000360: 9eac 6cbe 1f5f 95be f890 573d 81bc 973e
00000370: 7c37 903d a806 053d f7ac 133e 9fb3 e93c
00000380: e98c 1abe cb2b 03bd 0bdb 27be d893 cabd
00000390: acee 423d afe1 693d 808d 28be 0cb5 f83d
000003a0: 823a 9d3d 019e 373e 74df 663d e39f c3bd
000003b0: c54d 4fbe e818 0dbe 12cb f83d 1ee1 3cbe
000003c0: a486 d1bd 5a68 02bd 5174 59be af47 28bd
000003d0: a889 fd3d f8a2 a43e 5030 103e 4a9f 78be
000003e0: bc19 f93d 979e 813d 11b3 b1bb b315 7fbd
000003f0: 0d51 32be 8cc9 9fbd 0a95 933c ad8e ed3c
-0.066916436 0.25150105 0.078753226 0.070856564 -0.05162082 -0.19895239 -0.26636833 -0.025065895
0.22744538 -0.23740198 0.062366005 0.058891207 -0.0041238605 -0.19007508 0.006729695 -0.26372445
0.09234037 0.09458448 0.032337476 0.019903649 -0.044845648 -0.017508917 0.024195045 0.12867206
0.1465314 0.10678521 -0.06536397 0.0020097627 -0.23295106 -0.11630609 0.023487205 0.0570508
-0.12518744 -0.14174838 -0.039043397 0.10307192 0.21840303 0.047840696 0.055226006 0.23618607
-0.08461926 0.1820639 -0.1405927 -0.20278035 -0.17037272 0.09530575 0.090032406 -0.082726546
-0.30940533 0.055557717 0.09127438 0.17351882 -0.06833067 -0.25915074 0.32999 0.04778064
0.124486394 0.10015487 -0.14367315 -0.05205049 0.0308944 0.020449068 0.0752134 0.030519027
0.08406512 -0.21661498 0.064637095 0.037477814 -0.103224844 0.09240443 -0.19064331 0.06818236
0.048129972 -0.103081375 -0.06267544 0.08989035 -0.2749298 0.084448375 -0.022481427 -0.19906697
0.11588019 -0.14610848 -0.12178626 -0.11513354 0.015212436 -0.097406566 -0.20421834 0.10531402
-0.07957621 0.0033659253 0.049956314 -0.115061484 -0.05123726 0.06372868 0.2675578 0.016547704
-0.047017954 -0.15021311 0.113127865 0.062401757 0.15118259 -0.042839773 -0.031554442 -0.049331993
0.023398928 0.12686706 -0.11248748 -0.13625555 0.14129893 0.12572943 -0.03289126 -0.070081115
-0.0169249 0.041120313 0.08528737 0.15259399 0.21002159 0.09497736 -0.07174354 -0.069201805
-0.08531861 -0.070191056 -0.088753104 0.036292303 0.038416218 0.07685269 0.056200642 0.0760845
0.15494426 -0.21730779 -0.027049808 0.01185069 0.061450552 -0.06937304 -0.05785094 0.13221358
0.069064826 0.21708249 0.04444161 -0.018692855 -0.114501916 0.1525058 0.02709214 0.023048379
0.1451503 0.020331433 -0.26117337 -0.034025043 0.03037433 -0.12286335 -0.0018597862 -0.006508617
0.010266123 -0.11926402 -0.013340219 -0.0171018 0.12936658 0.15670767 -0.03261747 -0.06388653
-0.12776245 0.05281415 0.017807953 0.017846135 -0.07108197 0.031496894 0.038200494 0.1575453
-0.036307957 0.111395136 -0.07516538 -0.0753445 0.06719256 -0.03625374 0.093028516 -0.1785032
-0.14643396 0.079320535 -0.042692214 -0.14859988 0.0018253174 -0.043346684 0.2089162 0.21615164
-0.08222736 0.1923568 -0.08017385 -0.10753817 0.031666003 -0.018006507 -0.02121749 -0.084778875
-0.0015909655 -0.18195114 0.27141905 -0.13650772 0.050783098 -0.023999456 -0.07139359 0.02605828
-0.05573932 0.06037833 0.16447777 -0.12833436 -0.35892558 0.16204499 0.1999985 -0.32777447
0.16784194 -0.012673658 0.11850935 0.28689194 0.014999524 -0.058809012 -0.015072856 -0.1398866
-0.23112723 -0.29174134 0.052628487 0.29636005 0.07041833 0.03247705 0.1442145 0.028528033
-0.15092815 -0.032024186 -0.16392152 -0.0989148 0.047590896 0.057099994 -0.16460228 0.12143907
0.07677175 0.17931367 0.056365445 -0.0955198 -0.2024451 -0.13779032 0.121481076 -0.1844525
-0.10230759 -0.0318378 -0.21235777 -0.041083988 0.123797715 0.32155585 0.1408093 -0.24279514
0.121631116 0.06329077 -0.0054229577 -0.062276553 -0.17413731 -0.07802114 0.018015403 0.028998697

model.residual_layers.0.time_layer.layers.0.self_attn.in_proj_bias f4 [96]
00000000: 5a92 48bd dbef f9bd b414 a4bd 18a3 0abe
00000010: 291d 06be cf88 23bb 388c 763d 85bb f13c
00000020: 49ad 89bc f014 3ebd d448 0d3d aee5 18bc
00000030: f2cd 54bd 8ffc 0abb 4363 d4bb a75a 4f3c
00000040: 0900 95bb 66b0 dcbd 7e38 b23d 47af 1c3d
00000050: c43b 483d 357d 4abc 3c55 bdbd 82e4 743c
00000060: 1df0 dcbd 976f 39bd d39e 1d3d 9a18 ecbc
00000070: 4c6b f0bd 6222 5abd 86ed c83d dc56 34bc
00000080: b95c 3db9 53e3 02ba 1b19 14ba 4e78 c638
00000090: fb6d 76ba a150 593a e0f1 e0ba 1c1f 6aba
000000a0: 6737 3739 643a 4139 355f a1b8 2242 e7b9
000000b0: d730 cd39 3a0c b439 4b11 cf39 0603 d839
000000c0: c3d5 263a 7889 9436 db72 283a 677d 30b9
000000d0: 2a56 72b9 cb26 18b9 b79c 7039 423b d737
000000e0: 5c38 22ba 6260 f8b9 8bd9 80ba acf3 9239
000000f0: 89eb 37b8 bb3d b339 a53e c938 8777 acb9
00000100: 4e73 383e 81e7 af3d 56fa e13d 63c1 d23d
00000110: b022 11be 53a7 193e ccd2 3fbe 040c 4ebe
00000120: 4514 df3d 7baf 463e 3e92 443e e98b 30be
00000130: f82b 4abd 7615 4fbe 45ee 44be 4ed1 663e
00000140: 3b48 23bc 7be2 0ebe f745 5e3e 748b 3b3e
00000150: 6179 25be 7f9c b23d 16ef 4ebe 63e8 16be
00000160: 1b6d bdbd 97f3 643e 710b 213e dd02 b1bd
00000170: 2fb3 89bd b762 41be 9b2b fc3d cb08 97bd
-0.048967697 -0.12203952 -0.08011761 -0.13538778 -0.13097061 -0.002495337 0.060192317 0.029508362
-0.016806262 -0.046406686 0.034493282 -0.009332104 -0.051954217 -0.0021207666 -0.0064815595 0.012655891
-0.0045471233 -0.10775833 0.08702181 0.038253095 0.048885122 -0.012358953 -0.09244773 0.014947059
-0.107879855 -0.045272436 0.038481545 -0.028820325 -0.11739215 -0.053255446 0.09810929 -0.011007037
-0.00018058986 -0.00049929804 -0.0005649493 9.463784e-05 -0.00094005436 0.0008289908 -0.0017161928 -0.0008931027
0.00017472879 0.00018427667 -7.694812e-05 -0.00044109026 0.00039137035 0.00034341385 0.00039495 0.00041200983
0.00063642504 4.426747e-06 0.0006425806 -0.00016831384 -0.00023111017 -0.00014510301 0.00022946564 2.5657591e-05
-0.0006188208 -0.00047374057 -0.0009830458 0.0002802884 -4.384996e-05 0.00034187533 9.596095e-05 -0.0003289545
0.18012735 0.08589078 0.11034076 0.10290792 -0.14173388 0.15005235 -0.18732756 -0.20121771
0.10892538 0.19402878 0.19196412 -0.17240871 -0.049358338 -0.2022303 -0.19231518 0.22540781
-0.009965952 -0.13953583 0.21706377 0.18314916 -0.16159584 0.087212555 -0.20208392 -0.14737086
-0.09249326 0.22358547 0.15727021 -0.08643124 -0.0672363 -0.18885313 0.123130046 -0.07374724
