results/DDPM/NUM_LAYERS_TRANSFORMER/1/model_final.pth (torch, 661767 bytes, 26 tensors)

layer_x.weight f4 [128, 53]
0.052698456 0.13031028 0.0047993544 -0.070531085 -0.011142491 -0.0605119 -0.01993434 -0.06428845
-0.034939125 -0.044362146 -0.033584233 -0.08792856 0.011953879 -0.013355447 0.040275563 -0.016319942
0.038527906 -0.016285788 0.0024509197 0.06677144 -0.0048674345 -0.035658702 -0.039108355 0.011012744
-0.00060836074 -0.08140979 0.016976023 -0.02406167 -0.03665135 -0.0071298624 0.030901663 0.036539983
-0.0052923947 -0.11717321 0.12693287 0.012415255 -0.04248861 0.042027175 0.17569157 0.08328529
0.19072309 0.018549655 0.05575861 -0.030159557 -0.056911275 -0.0658344 0.077083535 -0.10941105
-0.083825015 -0.037841517 0.005629825 -0.010539041 0.049841907 -0.0051866267 -0.17571115 -0.02668937
-0.056003693 0.10349222 -0.047234908 0.085486345 0.05862395 -0.076495156 -0.043456513 0.18296498
0.085371554 -0.006683702 -0.15593164 0.11958101 0.073496655 0.05355152 0.07211279 0.06833249
-0.09635816 -0.03919038 -0.0020204412 0.06752715 -0.18966918 0.054295763 0.049841363 0.064371295
0.13716874 0.08644693 -0.17060083 -0.032911655 0.012590089 0.052338175 0.06580906 0.03920847
0.058780547 -0.069046386 -0.044955797 0.028009573 -0.18017969 0.060391136 -0.041655127 -0.044383015
-0.022334345 0.043865647 -0.007944299 0.05821224 -0.022472564 0.053564355 -0.06777283 -0.04143439
-0.09810573 -0.06940368 -0.029315582 0.0049968045 0.08458949 0.010876943 0.09421432 0.09626265
-0.0924164 -0.07090935 -0.099539295 -0.10581019 0.16774656 0.031603202 0.0045638075 0.17056784
0.022201808 -0.09455863 0.033582233 0.019059498 0.0027553448 -0.044226367 0.034683887 0.10279582
0.0977125 0.0077892477 -0.1196793 -0.25171927 -0.11806311 -0.019498477 0.09868753 0.13334891
0.01903505 -0.08396486 -0.02275047 -0.042116854 0.104981914 -0.0811603 0.04341264 -0.062464923
-0.014145131 -0.01622969 0.16821371 -0.016036095 -0.08994845 0.08852043 -0.038304355 -0.05437032
-0.06218025 -0.001621251 0.07045991 0.018996697 0.0020244087 0.12008036 0.071221046 0.048023935
0.04619544 -0.02416085 -0.012613171 -0.063855626 -0.062238246 0.11306092 -0.030357832 -0.06562882
-0.011635915 -0.096509784 0.0010729199 0.04503312 -0.07498843 0.009575639 -0.07725966 -0.046123397
0.17618808 0.05797695 0.06123574 -0.078501366 -0.1484292 -0.065550864 -0.07538851 -0.003517954
-0.03381295 0.07039803 0.122479886 -0.04643782 0.06024531 0.12243634 -0.14542317 -0.13397314
0.0950469 -0.054432727 -0.062301345 0.009854805 -0.09470269 0.013891192 0.01946829 -0.12286914
-0.0031450682 0.1384743 0.08465575 -0.17229304 0.029725233 0.14277509 -0.14389908 0.19512358
0.016941585 0.08686878 0.06637707 0.06528709 0.00036064012 0.04185802 -0.07326548 -0.07832715
0.14411183 0.028059915 -0.0488178 0.07575781 0.04584531 0.0019527996 0.15534171 -0.1401311
0.010757608 0.062455043 -0.04178908 0.10123401 0.04974681 -0.0070547657 -0.08498424 -0.1069834
0.07344936 -0.09434481 -0.057114802 0.04415232 0.09006891 -0.060960513 0.04785955 0.12580806
0.08790394 0.10158983 0.0051732725 -0.02723412 -0.009359938 0.02473617 -0.057643637 -0.006649875
-0.03881109 -0.23156962 0.06653118 -0.0024934234 0.030244583 0.0077833747 -0.034744956 -0.08913036
00000000: 56da 573d 0f70 053e e743 9d3b 9a72 90bd
00000010: ff8e 36bc 53db 77bd 574d a3bc aaa9 83bd
00000020: 541c 0fbd 15b5 35bd 9f8f 09bd e413 b4bd
00000030: 34da 433c ced0 5abc fdf7 243d 66b1 85bc
00000040: 70cf 1d3d c669 85bc 9c9f 203b 77bf 883d
00000050: 007f 9fbb dc0e 12bd 1530 20bd cc6e 343c
00000060: 667a 1fba 2dba a6bd 4d11 8b3c fb1c c5bc
00000070: ba1f 16bd 9fa1 e9bb 7c25 fd3c f3aa 153d
00000080: d36b adbb 82f8 efbd b1fa 013e 5b69 4b3c
00000090: 8908 2ebd b024 2c3d 7ee8 333e 7a91 aa3d
000000a0: ea4c 433e 72f5 973c 2463 643d 2d11 f7bc
000000b0: cc1b 69bd 30d4 86bd f9dd 9d3d e712 e0bd
000000c0: 73ac abbd b5ff 1abd 657a b83b f1ab 2cbc
000000d0: 0727 4c3d 94f4 a9bb a0ed 33be aaa3 dabc
000000e0: 2164 65bd bbf3 d33d 6479 41bd 7713 af3d
000000f0: ab1f 703d 7ea9 9cbd 75ff 31bd 2c5b 3b3e
00000100: 48d7 ae3d f502 dbbb 8bac 1fbe e3e6 f43d
00000110: 6a85 963d d758 5b3d dfaf 933d e8f1 8b3d
00000120: 6d57 c5bd 1886 20bd 6169 04bb ad4b 8a3d
00000130: a338 42be 3c65 5e3d 7526 4c3d 19d5 833d
00000140: f675 0c3e 170b b13d fcb1 2ebe 5fce 06bd
00000150: a946 4e3c 8e60 563d e7c6 863d 1099 203d
00000160: dfc3 703d 3168 8dbd 9223 38bd 5574 e53c
00000170: 0681 38be b25c 773d 919e 2abd f7ca 35bd
00000180: 84f6 b6bc 77ac 333d ce28 02bc f56f 6e3d
00000190: 6218 b8bc 4c66 5b3d 7bcc 8abd 1bb7 29bd
000001a0: a8eb c8bd 8423 8ebd 3b27 f0bc 3cbc a33b
000001b0: 413d ad3d 3535 323c 70f3 c03d 5a25 c53d
000001c0: cf44 bdbd ec38 91bd 42db cbbd 03b3 d8bd
000001d0: c1c5 2b3e 5c72 013d fe8b 953b 56a9 2e3e
000001e0: 91e0 b53c f4a7 c1bd 868d 093d aa22 9c3c
000001f0: 0493 343b b526 35bd b110 0e3d 9d86 d23d
00000200: 7e1d c83d f23c ff3b 6c1a f5bd 59e1 80be
00000210: 12cb f1bd 45bb 9fbc b01c ca3d 9e8c 083e
00000220: 65ef 9b3c c5f5 abbd 325f babc b982 2cbd
00000230: c200 d73d 5f37 a6bd 74d1 313d 38db 7fbd
00000240: fbc0 67bc 20f4 84bc 3740 2c3e 215e 83bc
00000250: e536 b8bd 334a b53d 07e5 1cbd 6ab3 5ebd
00000260: b8b0 7ebd 2880 d4ba 494d 903d f69e 9b3c
00000270: f1ab 043b b1ec f53d 57dc 913d bfb4 443d
00000280: 6e37 3d3d faec c5bc 79a7 4ebc bdc6 82bd
00000290: 88ed 7ebd 7c8c e73d fdb0 f8bc 6768 86bd
000002a0: 91a4 3ebc eca6 c5bd 38a1 8c3a a674 383d
000002b0: 8993 99bd 24e3 1c3c 503a 9ebd e3eb 3cbd
000002c0: a66a 343e 3d79 6d3d 54d2 7a3d 53c5 a0bd
000002d0: d3fd 17be 883f 86bd 4b65 9abd 798d 66bb
000002e0: 737f 0abd d82c 903d bcd6 fa3d 9535 3ebd
000002f0: c9c3 763d e7bf fa3d d0e9 14be 4130 09be
00000300: f3a7 c23d daf4 5ebd b22f 7fbd 0c76 213c
00000310: 7cf3 c1bd e297 633c f77b 9f3c d1a2 fbbd
00000320: 7d1d 4ebb 35cc 0d3e fe5f ad3d 966d 30be
00000330: 5582 f33c a233 123e 485a 13be 7ace 473e
00000340: 14c9 8a3c 42e8 b13d b4f0 873d 3db5 853d
00000350: 4c14 bd39 5173 2b3d 360c 96bd fc69 a0bd
00000360: 0d92 133e e8dd e53c 2cf5 47bd e926 9b3d
00000370: 4bc8 3b3d 15f5 ff3a e611 1f3e 877e 0fbe
00000380: ae40 303c dcd0 7f3d 072b 2bbd c753 cf3d
00000390: 50c3 4b3d aa2b e7bb 380c aebd 1d1a dbbd
000003a0: 9e6c 963d da37 c1bd 36f1 69bd 10d9 343d
000003b0: 0c76 b83d bbb1 79bd 6008 443d d4d3 003e
000003c0: fb06 b43d 540e d03d 8e84 a93b 171a dfbc
000003d0: 6d5a 19bc 82a3 ca3c bc1b 6cbd 32e7 d9bb
000003e0: 61f8 1ebd 9620 6dbe 8041 883d b468 23bb
000003f0: 7dc3 f73c ae0b ff3b ba50 0ebd fa89 b6bd

layer_x.bias f4 [128]
0.26543656 0.26049858 0.21409959 -0.014444915 0.24564213 0.1786277 0.10442992 0.1773159
-0.01852056 0.15280415 0.118947886 -0.02959702 0.12373804 0.19983459 0.11127132 0.25670516
0.07995244 0.098542176 0.14492126 0.08992357 0.17735747 0.105150424 0.1367853 0.09617121
0.2593934 0.21873407 -0.0027676218 0.22598912 0.21682747 0.24761453 0.13510855 0.12314441
0.18599996 0.10951864 0.21767958 0.13164292 0.10200171 0.062837675 0.19555812 0.2326931
0.051622976 0.02952397 0.16756366 0.16675027 0.105913945 0.25972512 0.25318652 0.21227585
0.013220778 0.02228613 0.00770567 0.02826148 0.06962568 0.09793795 0.08906675 0.1743154
0.24401478 0.18830688 0.2939699 0.17600214 0.046864796 0.07262337 0.031962518 0.21270981
0.020732194 0.121998444 0.08362082 0.017977362 -0.0061991625 0.05941018 0.2648774 0.28741902
0.19316843 0.107547656 0.28122815 -0.004583006 0.28823033 0.13917635 0.3219785 0.033577945
0.16531937 0.3032478 0.19696951 0.1989765 0.29275107 0.30550942 0.25109914 0.26958102
0.21157803 0.24657848 0.25271812 0.01640248 0.19819066 0.142177 0.1749351 0.13464247
0.00017504851 0.17455843 0.11112767 0.18287541 0.22930606 0.21360658 0.17984189 0.16987415
0.15150766 0.11356606 0.29612795 0.13389197 0.014686463 0.17066981 0.0719148 0.18692954
0.19872406 0.2879663 -0.05978031 0.20656992 0.027578019 -0.007384911 0.11531306 0.28605375
0.2862852 0.2735585 0.14896324 -0.014360724 0.16043325 0.23161829 0.12427378 0.16719487
00000000: 4de7 873e 1260 853e ec3c 5b3e 5daa 6cbc
00000010: 9c89 7b3e 2eea 363e 5bdf d53d 4d92 353e
00000020: 6eb8 97bc b178 1c3e f39a f33d 7375 f2bc
00000030: 5f6a fd3d 70a1 4c3e 38e2 e33d dc6e 833e
00000040: 1bbe a33d 7bd0 c93d 3d66 143e d929 b83d
00000050: 329d 353e 1b59 d73d 7211 0c3e 69f5 c43d
00000060: 36cf 843e d3fb 5f3e fd60 35bb b169 673e
00000070: 0508 5e3e aa8e 7d3e e559 0a3e 2333 fc3d
00000080: c676 3e3e 4f4b e03d 65e7 5e3e 67cd 063e
00000090: 46e6 d03d 0ab1 803d 6340 483e 1a47 6e3e
000000a0: 9d72 533d 41dc f13c cf95 2b3e 95c0 2a3e
000000b0: 69e9 d83d b1fa 843e aaa1 813e d75e 593e
000000c0: f69b 583c 6791 b63c d87f fc3b 9f84 e73c
000000d0: e997 8e3d b193 c83d a168 b63d bc7f 323e
000000e0: 03df 793e 85d3 403e 3983 963e e839 343e
000000f0: 4df5 3f3d 90bb 943d 21eb 023d 9ad0 593e
00000100: 90d6 a93c 52da f93d 6441 ab3d 4345 933c
00000110: 5822 cbbb 1758 733d 039e 873e 9628 933e
00000120: f2cd 453e f241 dc3d 23fd 8f3e 0a2d 96bb
00000130: ed92 933e 3f84 0e3e 5eda a43e 0789 093d
00000140: 7b49 293e 4c43 9b3e 60b2 493e 7fc0 4b3e
00000150: 78e3 953e bb6b 9c3e 1190 803e 8606 8a3e
00000160: e9a7 583e 127f 7c3e 4564 813e 7e5e 863c
00000170: 7ef2 4a3e d996 113e 3022 333e b7df 093e
00000180: 3a8d 3739 72bf 323e e796 e33d b143 3b3e
00000190: 35cf 6a3e afbb 5a3e 7928 383e 7df3 2d3e
000001a0: d324 1b3e 5395 e83d 159e 973e fa1a 093e
000001b0: 7e9f 703c 11c4 2e3e 1148 933d 756a 3f3e
000001c0: 527e 4b3e 5270 933e 33dc 74bd 1187 533e
000001d0: 4ceb e13c 20fd f1bb 4129 ec3d a375 923e
000001e0: f993 923e dc0f 8c3e d289 183e 3e49 6bbc
000001f0: 9d48 243e 582d 6d3e 4083 fe3d 2235 2b3e

layer_t_1.weight f4 [128, 128]
-0.057146974 -0.028336769 -0.075726934 -0.074707024 0.0048514954 -0.05555817 0.061865237 -0.0506123
-0.01907341 0.011811721 -0.043536738 0.04927321 -0.04981331 -0.008077521 0.06231171 0.04268448
0.07201541 0.026438408 0.05324133 0.08707458 -0.03912747 0.05375219 0.0069158375 -0.017478675
0.0054076444 -0.047344796 -0.046842538 0.017006982 0.041464146 -0.13835824 -0.059490703 -0.008344555
0.003992077 -0.058076084 0.032634143 0.03714512 -0.013229202 0.021721134 0.013228896 0.08672907
0.029513787 -0.013786239 -0.01378254 0.006647745 -0.010138085 0.0628072 0.023310807 0.036430277
-0.038449075 -0.047938447 0.006866587 -0.07600253 -0.03467066 0.004485156 -0.022096133 0.030676821
-0.035214424 -0.13491128 -0.045673233 -0.048756935 0.06785959 0.10276394 -0.038014032 0.027592847
0.0015458413 0.029509047 0.0033137405 -0.0021818094 -0.058417976 -0.014553352 -0.0042719967 0.0010011902
0.045472004 0.026097547 -0.026295003 -0.0040126643 -0.020843271 0.022927526 -0.0039856844 0.007954882
0.045277733 0.033030022 -0.00096038176 0.09793312 -0.055367626 -0.046280384 0.103668824 -0.06680961
-0.023932451 0.008859362 0.002771596 0.04768577 -0.04855369 -0.056520343 -0.06749158 0.0463554
-0.0044015665 0.047535542 0.0052293483 -0.0185367 -0.0003192723 0.0813631 -0.020875938 0.046073675
0.027669435 0.030793093 0.021317866 -0.053700473 -0.10795999 -0.040661182 0.0036172662 -0.0051266737
0.026417097 -0.0367254 -0.042251594 -0.07363763 0.07465392 0.01006858 0.012051652 0.015993986
0.09338436 -0.16001979 0.034124598 0.035229124 0.029350637 0.07602789 0.030464679 0.019175658
-0.021580812 0.06524831 0.0045724255 0.054991234 0.008378332 0.06502896 0.034864765 -0.053585596
0.024630623 0.008622444 -0.048318956 -0.08454007 -0.072531395 0.020353531 -0.0061255065 0.06435612
0.07199104 -0.09103216 0.027270798 0.06751192 -0.056245748 -0.096639484 -0.006422492 -0.01768639
-0.03533483 -0.0055509056 0.053949986 -6.8958834e-05 0.00955305 -0.00739723 -0.05877124 0.06355112
0.049923778 0.063291825 0.015461604 0.06450777 -0.022828892 0.05760992 -0.0032656041 -0.05161123
0.042619873 -0.06482735 0.023181293 0.07721296 -0.0122578 0.0467739 0.043244384 0.073788784
0.05818227 -0.04085053 -0.058566865 0.022555038 0.07470637 -0.06332534 -0.011569671 0.08768129
-0.061157864 0.12601918 0.07108892 -0.07533336 0.07704774 0.032076314 -0.0482739 0.06853735
0.061545208 0.104875326 -0.027412644 -0.017685607 0.04329382 0.04848902 0.01149118 0.052186508
0.04056831 -0.016717665 0.053355902 -0.094404444 -0.02693841 0.09019823 -0.063896544 0.041803118
0.028520845 0.07168972 0.002232139 0.088140815 0.013689914 -0.06376558 -0.13556269 -0.024948893
-0.060671255 -0.022149347 0.030705316 -0.038489483 -0.0071893986 -0.090150915 -0.05087233 0.043509044
0.019878943 0.014226574 0.0577563 0.076324984 -0.0027106425 0.070665784 -0.016329339 -0.034324028
-0.030827079 0.0034073584 -0.03539466 -2.9893272e-06 -0.03138107 0.08795569 0.078544214 0.0017190443
-0.07323545 -0.048087187 0.013916889 0.07894272 0.056513112 -0.09139596 -0.0040597925 0.050597
-0.019399839 0.09188924 -0.01615157 -0.020921644 0.0048659784 0.02529579 0.041717704 0.022076258
00000000: f212 6abd 8322 e8bc b916 9bbd ffff 98bd
00000010: 4bf9 9e3b f790 63bd 6766 7d3d d84e 4fbd
00000020: d73f 9cbc f385 413c 9453 32bd b5d2 493d
00000030: 0b09 4cbd 9457 04bc 903a 7f3d ecd5 2e3d
00000040: d17c 933d 5c95 d83c 9513 5a3d 2854 b23d
00000050: 2044 20bd 422b 5c3d 409e e23b 702f 8fbc
00000060: 9c32 b13b 9eec 41bd f6dd 3fbd 3a52 8b3c
00000070: 4fd6 293d c8ad 0dbe 86ac 73bd 9ab7 08bc
00000080: f8cf 823b 30e1 6dbd 61ab 053d 7b25 183d
00000090: 4bbf 58bc 85f0 b13c 03be 583c 039f b13d
000000a0: e6c6 f13c addf 61bc 2ad0 61bc 54d5 d93b
000000b0: 361a 26bc 10a1 803d 4ef6 be3c ea37 153d
000000c0: c77c 1dbd 1b5b 44bd 1b01 e13b 37a7 9bbd
000000d0: d202 0ebd 37f8 923b f302 b5bc f54d fb3c
000000e0: 003d 10bd 2f26 0abe db13 3bbd 5ab5 47bd
000000f0: f8f9 8a3d e775 d23d 9ab4 1bbd 650a e23c
00000100: d49d ca3a f5bc f13c 572b 593b b0fc 0ebb
00000110: b047 6fbd 2f71 6ebc 1bfc 8bbb 5e3a 833a
00000120: da40 3a3d 86ca d53c 9e68 d7bc ab7c 83bb
00000130: 82bf aabc 82d2 bb3c 589a 82bb 3255 023c
00000140: 2575 393d 7d4a 073d 21c2 7bba 2991 c83d
00000150: 2ac9 62bd 8090 3dbd 5250 d43d 7ad3 88bd
00000160: fd0d c4bc dc26 113c aaa3 353b 2752 433d
00000170: 3ce0 46bd e081 67bd 0739 8abd 29df 3d3d
00000180: 043b 90bb a1b4 423d f45a ab3b 47da 97bc
00000190: 0164 a7b9 b2a1 a63d 0404 abbc c0b7 3c3d
000001a0: 03ab e23c cc41 fc3c cea2 ae3c 07f5 5bbd
000001b0: 211a ddbd 578c 26bd a80f 6d3b a8fd a7bb
000001c0: ab68 d83c 5f6d 16bd 0210 2dbd 53cf 96bd
000001d0: 28e4 983d aff6 243c 4b74 453c d205 833c
000001e0: 4d40 bf3d 3adc 23be 3cc6 0b3d 6a4c 103d
000001f0: bf70 f03c 83b4 9b3d 1091 f93c 4516 9d3c
00000200: 3eca b0bc e8a0 853d 49d4 953b 7d3e 613d
00000210: 4545 093c e72d 853d 5bce 0e3d 927c 5bbd
00000220: 29c6 c93c 2745 0d3c 19ea 45bd 5823 adbd
00000230: 578b 94bd 73bc a63c 79b8 c8bb 24cd 833d
00000240: 0a70 933d 126f babd 0267 df3c b143 8a3d
00000250: f161 66bd ecea c5bd c573 d2bb 0ce3 90bc
00000260: 41bb 10bd 5fe4 b5bb a9fa 5c3d fe9d 90b8
00000270: 6584 1c3c 7664 f2bb 1dba 70bd 1727 823d
00000280: e07c 4c3d 259f 813d ab52 7d3c a61c 843d
00000290: a803 bbbc 61f8 6b3d bf03 56bb 4c66 53bd
000002a0: 2d92 2e3d 34c4 84bd b2e6 bd3c d421 9e3d
000002b0: f1d4 48bc fd95 3f3d 0621 313d 931e 973d
000002c0: 8850 6e3d e352 27bd cfe3 6fbd 58c5 b83c
000002d0: a7ff 983d b7b0 81bd b88e 3dbc 4092 b33d
000002e0: ab80 7abd 2c0b 013e 1197 913d 6048 9abd
000002f0: 35cb 9d3d 7462 033d daba 45bd 4f5d 8c3d
00000300: d416 7c3d e0c8 d63d 7b90 e0bc 68e1 90bc
00000310: dc54 313d 6c9c 463d 8145 3c3c 85c1 553d
00000320: f52a 263d 7cf3 88bc b88b 5a3d 1e57 c1bd
00000330: f1ad dcbc dab9 b83d 31dc 82bd bf39 2b3d
00000340: 8ca4 e93c 0fd2 923d 1449 123b 2c83 b43d
00000350: a94b 603c 8797 82bd f2d0 0abe 9f61 ccbc
00000360: 6c82 78bd 8c72 b5bc b789 fb3c 26a7 1dbd
00000370: 0c95 ebbb 0ba1 b8bd 815f 50bd 8a36 323d
00000380: 2ad9 a23c 9416 693c df91 6c3d 4650 9c3d
00000390: 09a5 31bb 39b9 903d 1bc5 85bc 5a97 0cbd
000003a0: 1289 fcbc fd4d 5f3b fef9 10bd 409c 48b6
000003b0: 7089 00bd 1d22 b43d cadb a03d 8e51 e13a
000003c0: 78fc 95bd 12f7 44bd aa03 643c b9ac a13d
000003d0: 4b7a 673d ce2d bbbd 0208 85bb cd3e 4f3d
000003e0: 69ec 9ebc 6d30 bc3d 4c50 84bc de63 abbc
000003f0: c972 9f3b 1e39 cf3c 2fe0 2a3d 45d9 b43c

layer_t_1.bias f4 [128]
-0.12488933 0.0059878277 0.022436716 -0.07573191 0.024737846 0.01675502 -0.121825635 -0.08408318
0.046472844 -0.022073131 -0.022668712 0.032519266 0.091730736 0.07942052 -0.024173258 -0.110675
-0.09061689 0.004200795 0.078627214 -0.025960354 -0.08647528 -0.076148294 -0.017875427 -0.02912699
-0.017423078 0.023634939 -0.015310434 0.012869458 0.01328752 -0.033843998 -5.728394e-05 0.011615187
-0.09121627 -0.010324388 -0.024663059 0.02525951 -0.016643304 -0.06759839 -0.019758424 -0.0114656575
0.09409469 0.06985668 -0.012645363 -0.061846588 -0.009688949 -0.093877755 -0.06777532 0.006389231
0.005742662 -0.050732095 -0.14681886 -0.07365186 -0.09921287 -0.06468901 0.028721485 -0.08241604
-0.053545978 -0.08608022 0.10432274 0.00044415548 -0.037343036 -0.012809754 -0.044181075 0.053298663
0.0793413 -0.12628394 -0.023715422 -0.027515437 0.06942083 0.106561646 -0.021268476 -0.028971054
0.03215224 0.0047414796 0.004199044 0.052825406 -0.0025676317 -0.051676836 -0.05472924 0.002787484
0.093430385 0.009509343 -0.013282277 0.023010552 -0.049883332 -0.031871878 -0.014774917 -0.061134074
0.046737466 0.0672784 -0.045997035 -0.12326282 -0.116078384 0.10269707 -0.031561874 0.09778262
-0.0040831966 -0.11563896 -0.04174514 0.045721937 -0.034397673 -0.08746855 -0.11917243 -0.05903194
0.054551523 0.026102694 0.08680077 -0.055433735 -0.061092902 -0.12279699 0.015688317 -0.084115
0.042748462 -0.048599347 0.06203259 0.06598094 0.02095895 -0.06498927 -0.058939844 -0.086529635
0.0005414408 -0.078772984 0.09554817 0.06632067 -0.07010149 0.025071956 -0.07813359 -0.11438056
00000000: fac5 ffbd 8a35 c43b 34cd b73c 5519 9bbd
00000010: 06a7 ca3c d341 893c b87f f9bd cd33 acbd
00000020: 4f5a 3e3d b6d2 b4bc bcb3 b9bc ec32 053d
00000030: 53dd bb3d 3aa7 a23d ff06 c6bc 93a9 e2bd
00000040: 5995 b9bd d3a6 893b 4e07 a13d cfaa d4bc
00000050: f419 b1bd a3f3 9bbd 7d6f 92bc ba9b eebc
00000060: d8ba 8ebc 0f9e c13c 9dd8 7abc 6bda 523c
00000070: e6b3 593c 01a0 0abd 2a44 70b8 a04d 3e3c
00000080: 99cf babd 9f27 29bc 2f0a cabc 08ed ce3c
00000090: 8a57 88bc 0671 8abd 6bdc a1bc 74da 3bbc
000000a0: b8b4 c03d 0511 8f3d 7f2e 4fbc d952 7dbd
000000b0: 66be 1ebc fb42 c0bd c9cd 8abd c15c d13b
000000c0: f12c bc3b 75cc 4fbd af57 16be c9d6 96bd
000000d0: 1e30 cbbd ac7b 84bd 5249 eb3c bec9 a8bd
000000e0: 0753 5bbd d44a b0bd 29a7 d53d 8add e839
000000f0: 03f5 18bd 01e0 51bc 37f7 34bd b34f 5a3d
00000100: b17d a23d 9450 01be d846 c2bc 0e68 e1bc
00000110: 822c 8e3d fe3c da3d 3a3b aebc b454 edbc
00000120: 11b2 033d 6a5e 9b3b 2298 893b 745f 583d
00000130: b645 28bb 17ab 53bd c42b 60bd 39ae 363b
00000140: 6e58 bf3d 13cd 1b3c e89d 59bc a080 bc3c
00000150: 7752 4cbd 168c 02bd 7e12 72bc b967 7abd
00000160: c96f 3f3d 42c9 893d 6367 3cbd 3871 fcbd
00000170: 81ba edbd d752 d23d 0647 01bd 4142 c83d
00000180: 56cc 85bb 1ed4 ecbd f4fc 2abd ed46 3b3d
00000190: 93e4 0cbd b622 b3bd ad10 f4bd 7acb 71bd
000001a0: 6b71 5f3d 51d5 d53c 9ac4 b13d 7c0e 63bd
000001b0: 8d3c 7abd fd7c fbbd c984 803c 7c44 acbd
000001c0: 0319 2f3d 1c10 47bd e315 7e3d 0421 873d
000001d0: 1bb2 ab3c 1819 85bd e86a 71bd 7336 b1bd
000001e0: 7aef 0d3a bb53 a1bd c2ae c33d 22d3 873d
000001f0: 5f91 8fbd b463 cd3c 8104 a0bd 5b40 eabd

layer_t_2.weight f4 [128, 128]
-0.06439535 -0.052090105 -0.0121406885 0.020324094 -0.023407003 -0.040028766 -0.05103438 -0.08107775
-0.013277618 -0.041504007 -0.061115574 -0.045570135 -0.0562231 0.025506282 0.03352128 -0.0073664105
0.039223325 -0.03414541 -0.025600972 -0.0806824 -0.06592935 -0.036798473 0.07028116 -0.082606636
-0.036735523 0.08200883 -0.0019676508 0.06200844 -0.0058309766 -0.043244123 -0.063274205 -0.07825782
0.043346368 -0.053785697 0.0050567193 0.03279029 0.014445674 -0.029493535 0.077045895 0.025616365
-0.093295306 0.013849593 -0.0016951619 -0.03307516 -0.060926817 -0.07616716 0.015197113 0.026537066
0.011296737 0.027552877 0.015571499 -0.035801746 0.053039774 0.024960618 0.029283697 0.02956302
0.008644205 0.012083993 0.017276788 0.09170939 -0.046884667 -0.031881075 -0.0290429 0.041917227
-0.024152068 -0.04741176 0.011035098 -0.030033257 -0.009760814 0.05293337 0.013032133 0.026351487
-0.022695221 0.039985254 -0.033428345 -0.008787767 -0.06037096 0.08689433 -0.06895194 -0.036181714
0.048927758 0.020530144 -0.09550991 -0.10938156 -0.029664459 0.015466025 0.038751047 0.08826828
-0.024887908 -0.0314315 0.0029790923 0.06710104 0.03606714 0.0006199851 -0.10923436 -0.0103895115
0.018481608 -0.05106381 -0.0017577993 -0.069369346 0.001947401 -0.017586945 0.0007518787 -0.023535773
0.008526603 -0.0083209695 0.0032656703 0.049499113 0.013000752 0.066652656 -0.03560126 -0.033842027
-0.11440343 0.038158037 0.023789072 0.029503815 -0.09815239 -0.009739752 -0.016391063 -0.026601942
-0.090349086 0.032117803 -0.07323251 0.03849516 -0.04774318 0.057101827 -0.060057487 -0.045973178
-0.022474853 -0.019555233 -0.04351169 -0.038814187 -0.08988972 -0.034027714 -0.01226527 -0.047966305
0.05527317 -0.026491374 0.025228405 -0.04139155 -0.008755526 0.11316646 -0.012686484 -0.05858388
0.026911914 0.045123894 0.0150923105 0.048357766 -0.0880701 0.053892322 0.0553945 0.038706433
-0.016762674 -0.05547211 0.03574195 0.12173085 0.01402437 -0.089763805 -0.0072363648 -0.09133638
-0.016607529 0.06473534 0.0032651448 -0.051526506 -0.0073631452 0.0071497043 -0.041130528 0.012568524
-0.06331192 -0.040031496 -0.07641422 -0.084341645 -0.007945841 -0.09837876 -0.0011332699 0.038469017
-0.06415469 -0.03316933 0.050089777 -0.006644752 -0.011459483 0.022173742 -0.056831785 -0.01737479
-0.03619804 0.03446456 0.026484225 0.07287988 -0.071938686 -0.039450217 0.05723679 -0.03417115
0.080746904 0.037562143 -0.005015278 -0.03753797 -0.06558964 0.08209647 -0.062143195 0.025957596
0.06727866 -0.06306556 0.07657729 0.029245382 -0.007367029 -0.017980732 0.040855166 0.042599335
-0.0057596783 -0.09262544 0.090614185 -0.022677245 -0.0269999 -0.051993653 -0.076870196 0.0731015
-0.043578766 -0.092784114 0.033521127 0.0749389 0.03226104 -0.015791224 -0.04085225 -0.09774267
-0.09693823 0.02522733 -0.012340796 -0.07638528 0.0716933 -0.105687186 -0.058876976 -0.03057385
0.021059828 0.054634895 0.023076022 -0.025383126 -0.0176969 -0.08497649 0.019761007 0.087637484
0.041162852 -0.019981418 0.06470073 -0.06321905 -0.007507581 0.028486276 0.02950151 0.072389305
-0.042703364 0.008025194 -0.025551893 -0.067415066 0.086449444 0.11193365 0.01599769 0.017823083
00000000: b6e1 83bd 6f5c 55bd bde9 46bc b77e a63c
00000010: 0bc0 bfbc 34f5 23bd 6d09 51bd 170c a6bd
00000020: 5e8a 59bc 1b00 2abd 5354 7abd c0a7 3abd
00000030: 314a 66bd 8df2 d03c 9c4d 093d ee61 f1bb
00000040: a3a8 203d 0fdc 0bbd 21b9 d1bc d03c a5bd
00000050: f805 87bd ffb9 16bd 92ef 8f3d ab2d a9bd
00000060: fd77 16bd 3ff4 a73d b4f3 00bb 90fc 7d3d
00000070: c711 bfbb c020 31bd e895 81bd a345 a0bd
00000080: f68b 313d 644e 5cbd d6b2 a53b 1c4f 063d
00000090: 8cad 6c3c 6d9c f1bc 3dca 9d3d 69d9 d13c
000000a0: 9c11 bfbd 67e9 623c 3230 deba d279 07bd
000000b0: 668e 79bd 87fd 9bbd 50fd 783c 4364 d93c
000000c0: f315 393c 92b6 e13c 9a1f 7f3c daa4 12bd
000000d0: 3c40 593d 367a cc3c 5de4 ef3c 262e f23c
000000e0: 6ca0 0d3c f1fb 453c 0d88 8d3c 22d2 bb3d
000000f0: 230a 40bd bb95 02bd 60eb edbc 66b1 2b3d
00000100: 8fda c5bc d532 42bd 8ecc 343c 4e08 f6bc
00000110: d2eb 1fbc a9d0 583d ba84 553c 13df d73c
00000120: 54eb b9bc 94c7 233d 29ec 08bd 91fa 0fbc
00000130: 8a47 77bd a8f5 b13d ad36 8dbd 4733 14bd
00000140: 7968 483d d52e a83c b39a c3bd 7003 e0bd
00000150: e102 f3bc 3665 7d3c 6bb9 1e3d 00c6 b43d
00000160: bae1 cbbc 51be 00bd e03c 433b 456c 893d
00000170: 23bb 133d 7f86 223a 44b6 dfbd c538 2abc
00000180: be66 973c 4928 51bd f565 e6ba 8411 8ebd
00000190: ef3f ff3a 7f12 90bc ba19 453a 18ce c0bc
000001a0: 2ab3 0b3c ad54 08bc db04 563b 95bf 4a3d
000001b0: 1b01 553c 3081 883d a0d2 11bd f09d 0abd
000001c0: 584c eabd 9a4b 1c3d 4de1 c23c fcb1 f13c
000001d0: 1f04 c9bd 7b93 1fbc 8d46 86bc 51ec d9bc
000001e0: f108 b9bd f58d 033d edfa 95bd 1aad 1d3d
000001f0: 5a8e 43bd 9be3 693d d7fe 75bd 5f4e 3cbd
00000200: 2f1d b8bc 4c32 a0bc 5039 32bd a0fb 1ebd
00000210: 1a18 b8bd a560 0bbd 45f4 48bc 5178 44bd
00000220: 1f66 623d 7004 d9bc cdab ce3c 308a 29bd
00000230: 5673 0fbc d1c3 e73d f8da 4fbc a7f5 6fbd
00000240: 6076 dc3c d5d3 383d bd45 773c cb12 463d
00000250: 195e b4bd 32be 5c3d 58e5 623d a38a 1e3d
00000260: e051 89bc b936 63bd 2766 123d 064e f93d
00000270: 79c6 653c 16d6 b7bd 071f edbb 910e bbbd
00000280: 830c 88bc f693 843d 0afc 553b 750d 53bd
00000290: 8a46 f1bb 1148 ea3b 7c78 28bd 36ec 4d3c
000002a0: aea9 81bd 11f8 23bd 0f7f 9cbd 50bb acbd
000002b0: 462f 02bc ce7a c9bd 3a8a 94ba b091 1d3d
000002c0: 8963 83bd 90dc 07bd f02a 4d3d 38bc d9bb
000002d0: 8ec0 3bbc b5a5 b53c 72c8 68bd 9355 8ebc
000002e0: 6544 14bd b62a 0d3d 72f5 d83c 0c42 953d
000002f0: 9754 93bd 8d96 21bd 2071 6a3d 0cf7 0bbd
00000300: a25e a53d c3da 193d 3357 a4bb 6ac1 19bd
00000310: dc53 86bd 3222 a83d dd89 7ebd 06a5 d43c
00000320: 65c9 893d 8428 81bd 8ed4 9c3d 0394 ef3c
00000330: 1e67 f1bb 544c 93bc bf57 273d a47c 2e3d
00000340: afbb bcbb 68b2 bdbd ee93 b93d a1c5 b9bc
00000350: e52e ddbc 4cf7 54bd 1f6e 9dbd 3db6 953d
00000360: a67f 32bd 9905 bebd 734d 093d 9179 993d
00000370: 2724 043d 995c 81bc b054 27bd 4f2d c8bd
00000380: 8d87 c6bd 8ca9 ce3c 0d31 4abc e36f 9cbd
00000390: f0d3 923d 8672 d8bd fc28 71bd 0376 fabc
000003a0: a985 ac3c d7c8 5f3d ed09 bd3c 46f0 cfbc
000003b0: 17f9 90bc 2708 aebd d6e1 a13c 487b b33d
000003c0: 619a 283d 12b0 a3bc d181 843d fd78 81bd
000003d0: 2702 f6bb 0d5c e93c 27ad f13c d840 943d
000003e0: b9e9 2ebd 1a7c 033c 3452 d1bc e910 8abd
000003f0: 680c b13d 783d e53d 960d 833c b701 923c

layer_t_2.bias f4 [128]
-0.009084998 -0.0834611 -0.11213966 0.05160222 -0.10579995 -0.09326544 -0.012671652 0.0374044
0.02973585 0.06712735 0.030988332 0.025648532 -0.07516311 -0.09026688 -0.061965894 0.024022302
-0.074025385 0.04608086 -0.036024395 -0.016706843 -0.04444177 -0.0956627 -0.08314372 0.023794435
-0.12611239 -0.07556735 0.06466348 0.04160623 -0.102645144 -0.08846899 0.07616232 0.011802769
-0.0489649 -0.011794212 -0.028858442 -0.07387501 -0.09801242 -0.017534995 -0.03700079 -0.06675077
-0.09048791 -0.014372808 0.03290977 -0.07517508 0.030528918 0.021703873 0.026431309 -0.019925583
-0.0816252 0.029866155 -0.069070816 -0.056222603 -0.111419134 -0.1179575 -0.034136757 0.016750744
0.04739649 0.03348597 -0.1116278 -0.12679051 0.029478336 0.009153497 0.06610818 -0.11032632
0.050641105 -0.11867678 -0.06756753 -0.0072647007 0.066884734 0.010434153 -0.14149344 0.022583557
-0.059317768 -0.060779203 -0.121398814 -0.043639775 -0.10875328 0.03061134 0.06183329 0.059735186
-0.013660748 0.0018120743 -0.06394215 -0.01205285 -0.12882696 0.0113729825 -0.023338037 -0.088421315
-0.062212326 0.03151801 0.018583195 0.03000936 0.005469478 -0.10268092 -0.12389611 -0.105423845
-0.010663878 0.072205134 -0.001864934 -0.01017169 -0.010518558 -0.06424374 0.037467126 0.0023388313
-0.0044600037 -0.0010274652 -0.14679796 0.02823264 -0.0049175676 -0.011146179 -0.042719953 0.0033853205
-0.020350523 -0.016634349 0.053044435 0.013607661 0.001236168 0.07778806 -0.0070480024 -0.0042861295
-0.013054908 0.0089765405 -0.03242901 0.019984333 0.05393332 -0.014373487 0.018928159 -0.089593045
00000000: 3ed9 14bc a7ed aabd 7aa9 e5bd d95c 533d
00000010: a5ad d8bd f301 bfbd c39c 4fbc 5b35 193d
00000020: 9998 f33c 107a 893d 3edb fd3c df1c d23c
00000030: 1eef 99bd d8dd b8bd f3cf 7dbd 6bca c43c
00000040: 9f9a 97bd 49bf 3c3d 518e 13bd cadc 88bc
00000050: 9308 36bd ceea c3bd 4147 aabd 8cec c23c
00000060: 9b23 01be 0ec3 9abd 496e 843d 4b6b 2a3d
00000070: 9e37 d2bd 3b2f b5bd fefa 9b3d 6760 413c
00000080: 6b8f 48bd 833c 41bc 8a68 ecbc c84b 97bd
00000090: bcba c8bd 8da5 8fbc 248e 17bd a1b4 88bd
000000a0: ba51 b9bd ed7b 6bbc 65cc 063d 64f5 99bd
000000b0: c817 fa3c 52cc b13c 7986 d83c fa3a a3bc
000000c0: 1d2b a7bd dea9 f43c 0075 8dbd ac49 66bd
000000d0: b72f e4bd b493 f1bd fcd2 0bbd db38 893c
000000e0: d222 423d 9628 093d 1e9d e4bd 5fd5 01be
000000f0: 8d7c f13c 8df8 153c ba63 873d c4f2 e1bd
00000100: 0c6d 4f3d d00c f3bd d860 8abd ba0c eebb
00000110: ddfa 883d 02f4 2a3c a8e3 10be 2701 b93c
00000120: 30f7 72bd 9df3 78bd f19f f8bd 9fbf 32bd
00000130: 0aba debd a2c4 fa3c e744 7d3d e2ac 743d
00000140: 54d1 5fbc 2083 ed3a 1af4 82bd 5179 45bc
00000150: 37eb 03be bf55 3a3c 692f bfbc 3c16 b5bd
00000160: 5ad2 7ebd 0719 013d c93b 983c 30d6 f53c
00000170: 4f39 b33b 604a d2bd 3ebd fdbd 75e8 d7bd
00000180: 8cb7 2ebc 49e0 933d cd70 f4ba 29a7 26bc
00000190: 0856 2cbc 3992 83bd 2177 193d 1447 193b
000001a0: 3925 92bb 03ac 86ba 3452 16be 2348 e73c
000001b0: 8c23 a1bb 779e 36bc 1efb 2ebd 41dc 5d3b
000001c0: 24b6 a6bc c244 88bc 1f45 593d abf2 5e3c
000001d0: ea06 a23a 594f 9f3d eef2 e6bb a972 8cbb
000001e0: 41e4 55bc 5712 133c 48d4 04bd 2fb6 a33c
000001f0: 2fe9 5c3d c67e 6bbc 3a0f 9b3c 8f7c b7bd

layer_out_1.weight f4 [128, 128]
0.046820115 0.04317491 -0.0110287145 0.1024447 -0.03932661 -0.037287608 -0.05497333 0.124109015
-0.065267384 -0.08034314 0.008152689 0.04745756 -0.055854417 0.049411617 0.004255673 0.06657455
0.06636966 -0.046880312 -0.02776758 0.021020949 -0.030990351 0.01863398 -0.061201274 0.06389274
0.036734194 0.04705918 0.010623706 -0.051884934 -0.0065431707 0.09101198 0.010003635 -0.02892948
-0.066874735 0.07496477 -0.087292574 0.040337455 -0.01829011 -0.038202025 0.029696967 0.031653535
-0.027499003 0.15460223 -0.052826893 -0.04935788 -0.04690945 0.07625359 -0.055861544 0.026063303
0.028370244 0.07383985 -0.008638877 -0.016159652 0.016085561 -0.03542242 0.02892273 0.065683596
-0.08054371 -0.029302226 -0.08555592 -0.048104167 0.078821 -0.08900933 -0.0379426 0.018297506
-0.05946642 0.0738594 0.033025153 -0.013515123 -0.0103259515 -0.10987805 -0.009159055 -0.09511165
-0.039055996 0.06277043 0.0633706 -0.077708334 0.049259085 -0.046539024 -0.014717344 -0.090288594
0.07138704 0.08563215 -0.08596659 0.05823113 0.008168493 0.019522563 0.049911033 0.10171132
0.001474978 0.06939063 -0.09886652 0.020043815 -0.085428104 -0.027873857 0.054126594 0.07534385
0.04107509 -0.04641728 -0.017661026 -0.12275195 -0.03078475 -0.023181694 0.007985352 0.04050973
-0.04237336 -0.0131666055 0.06260401 -0.07673726 0.1008165 0.05449794 -0.050568625 0.031912312
0.0030344701 0.09727717 0.035329737 0.10922352 -0.08895624 0.074818574 -0.03486261 0.028041752
0.06682987 -0.047369983 0.0015814058 -0.0464832 0.039145477 0.033092912 -0.061691735 -0.024153452
-0.06741053 0.014194994 0.009676555 -0.038645525 0.09080593 -0.04310165 0.00031245712 -0.005909557
-0.011224535 -0.06641769 0.090940215 -0.05550321 0.014110855 0.042839922 0.053216044 0.12692799
-0.0055964426 -0.036805946 -0.07135969 0.040319216 0.067102246 -0.038597338 -0.0485701 -0.041207284
0.07079035 -0.053398415 0.04534084 0.03899933 0.041137915 0.057644542 -0.04827132 -0.059737343
-0.0077418042 -0.073893294 -0.030873401 0.048753213 0.0016328468 0.041466612 -0.019837027 -0.006016278
0.0027626017 0.06551112 0.09480273 -0.081959985 0.04329783 0.046528984 -0.032961633 -0.035449035
-0.023455258 0.06847213 -0.07249957 -0.010473957 0.00169817 0.05552984 0.06889858 0.08063524
0.025533862 -0.04091018 -0.054662026 -0.02700887 -0.059770063 -0.0004621052 0.055925258 -0.038454
-0.004532143 0.023659412 0.056309886 -0.11123452 0.015393024 -0.0123822475 -0.019441979 -0.013096718
0.046117786 0.067234606 0.054190554 0.09349925 -0.035533473 0.0048065414 -0.03579053 -0.043749377
-0.013210782 -0.06002372 0.028105082 -0.10087007 -0.019566994 0.027443321 -0.025257561 -0.03698507
-0.054132096 -0.027754886 -0.0040201265 0.044405613 -0.031538725 -0.03189714 0.002484484 0.036487274
-0.025579581 0.007968926 -0.096322775 0.046139378 -0.09756003 0.0048358375 -0.022760047 0.017533088
-0.014240934 -0.013209873 -0.037829526 -0.06740603 0.09495406 -0.119501054 0.025823362 -0.10405483
0.091630414 -0.005852542 -0.07983122 -0.057108894 -0.09267286 -0.1093015 -0.033868678 -0.03311859
-0.09535745 -0.014954162 0.12778585 0.063309625 0.0637934 -0.07101379 -0.009921065 -0.08205295
00000000: 73c6 3f3d 2dd8 303d c8b1 34bc 87ce d13d
00000010: f014 21bd e4ba 18bd b72b 61bd de2c fe3d
00000020: e8aa 85bd f28a a4bd db92 053c dc62 423d
00000030: 9ac7 64bd d663 4a3d 2c73 8b3b 3d58 883d
00000040: d1ec 873d 9205 40bd d678 e3bc 2034 ac3c
00000050: 7adf fdbc 4aa6 983c 30ae 7abd 32da 823d
00000060: 9876 163d 20c1 403d 0d0f 2e3c 4c85 54bd
00000070: 1868 d6bb 7d64 ba3d 49e6 233c 84fd ecbc
00000080: 9ff5 88bd 2187 993d 73c6 b2bd e338 253d
00000090: 24d5 95bc ba79 1cbd 0e47 f33c 23a7 013d
000000a0: 9745 e1bc 0c50 1e3e 0361 58bd 7d2b 4abd
000000b0: 2024 40bd d82a 9c3d 13cf 64bd b582 d53c
000000c0: b768 e83c 5939 973d 148a 0dbc 3f61 84bc
000000d0: dec5 833c 1917 11bd 5cef ec3c 1f85 863d
000000e0: 1af4 a4bd 390b f0bc f137 afbd e008 45bd
000000f0: e86c a13d 864a b6bd b369 1bbd a7e4 953c
00000100: 1093 73bd 9943 973d 6245 073d 896e 5dbc
00000110: 2e2e 29bc be07 e1bd dc0f 16bc e6c9 c2bd
00000120: 2ef9 1fbd c98d 803d 72c8 813d 8c25 9fbd
00000130: e5c3 493d b49f 3ebd 0421 71bc 3ae9 b8bd
00000140: 5e33 923d e95f af3d 400f b0bd c483 6e3d
00000150: 25d5 053c c8ed 9f3c 836f 4c3d 064e d03d
00000160: 0d54 c13a ad1c 8e3d 887a cabd ed32 a43c
00000170: eef4 aebd b757 e4bc d9b3 5d3d e04d 9a3d
00000180: 5b3e 283d 0c20 3ebd dbad 90bc 6065 fbbd
00000190: 4d30 fcbc 89e7 bdbc fed4 023c 88ed 253d
000001a0: b08f 2dbd bfb8 57bc 8836 803d 6d28 9dbd
000001b0: e278 ce3d 3b39 5f3d 0c21 4fbd 7cb6 023d
000001c0: f6dd 463b 4139 c73d eab5 103d 95b0 df3d
000001d0: b02e b6bd 7b3a 993d 19cc 0ebd d1b7 e53c
000001e0: 19de 883d 0707 42bd 2c47 cf3a 2b65 3ebd
000001f0: 0257 203d 6f8c 073d 79b0 7cbd 76dd c5bc
00000200: 880e 8abd 1f92 683c 6a8a 1e3c c54a 1ebd
00000210: 76f8 b93d 5b8b 30bd 49d1 a339 f5a4 c1bb
00000220: 1de7 37bc ff05 88bd dd3e ba3d 5557 63bd
00000230: 3731 673c ea78 2f3d 11f9 593d 69f9 013e
00000240: 5d62 b7bb d5c1 16bd 0725 92bd c325 253d
00000250: e76c 893d 3e18 1ebd 71f1 46bd f8c8 28bd
00000260: 88fa 903d 4cb8 5abd 51b7 393d c3bd 1f3d
00000270: 3b80 283d af1c 6c3d 26b8 45bd 25af 74bd
00000280: f6ae fdbb 5e55 97bd 37ea fcbc 73b1 473d
00000290: 3f05 d63a e5d8 293d 4381 a2bc 3324 c5bb
000002a0: c40c 353b b22a 863d ef27 c23d a3da a7bd
000002b0: 1159 313d 2d95 3e3d c702 07bd 0233 11bd
000002c0: 3e25 c0bc 1e3b 8c3d a87a 94bd f69a 2bbc
000002d0: 2195 de3a 4273 633d b31a 8d3d 1724 a53d
000002e0: 642c d13c 6f91 27bd 4ae5 5fbd b541 ddbc
000002f0: 74d1 74bd b646 f2b9 e211 653d f181 1dbd
00000300: 5f82 94bb 62d1 c13c 32a5 663d edce e3bd
00000310: 0633 7c3c e9de 4abc c944 9fbc 9e93 56bc
00000320: 01e6 3c3d 4cb2 893d eaf6 5d3d 897c bf3d
00000330: 8c8b 11bd 3180 9d3b 1799 12bd 8c32 33bd
00000340: 0972 58bc 6fdb 75bd a13c e63c f894 cebd
00000350: f64a a0bc d1d0 e03c f2e8 cebc a87d 17bd
00000360: 9eb9 5dbd 375e e3bc 44bb 83bb a9e2 353d
00000370: c02e 01bd 93a6 02bd bad2 223b ae73 153d
00000380: 458c d1bc 1990 023c e044 c5bd a5fc 3c3d
00000390: 8ecd c7bd f275 9e3b 4773 babc 8da1 8f3c
000003a0: ce52 69bc 396e 58bc 22f3 1abd 2c0c 8abd
000003b0: 4677 c23d f8bc f4bd 848b d33c b31a d5bd
000003c0: baa8 bb3d aec6 bfbb 8d7e a3bd 04eb 69bd
000003d0: 45cb bdbd 77d9 dfbd e2b9 0abd 5ca7 07bd
000003e0: c44a c3bd 4d02 75bc 4bda 023e 7aa8 813d
000003f0: 1da6 823d ae6f 91bd f68b 22bc 610b a8bd

layer_out_1.bias f4 [128]
0.06286289 0.06576312 -0.022487279 0.059963234 0.08411998 -0.0038961584 -0.054571655 -0.04651088
-0.042556755 -0.004278672 0.07828697 0.024404362 0.085215345 0.07419485 0.017039923 0.051250007
0.0924821 0.056991633 0.01685862 0.052584413 0.04919678 -0.045687694 -0.04591263 0.06639885
0.07031128 0.06699311 0.08864968 -0.012401787 -0.09041551 0.00937903 0.04930391 0.062379405
0.03708111 1.681564e-05 0.00386485 -0.03986143 -0.044364464 0.06708547 0.03574018 -0.004550983
-0.008823428 0.11731102 -0.08869828 0.0400862 -0.0076465094 -0.017636603 -0.04699584 0.036895063
0.00904464 0.018640712 0.08144715 0.091202244 0.068359144 0.023887932 -0.067982666 -0.025345458
0.050820787 -0.001811097 -0.012030357 -0.017205557 -0.004707393 0.028946124 0.016109195 0.062150374
-0.040674202 -0.015173458 -0.024518345 0.029252207 -0.027648652 -0.035998624 0.09478136 0.021516955
-0.06369561 0.057954602 -0.03587646 0.003719675 0.098666735 -0.017909262 -0.0003604425 -0.04701532
-0.044238817 -0.021761874 0.005447505 0.012780758 0.07658004 -0.023377176 -0.014100194 -0.039169364
-0.050531622 0.026918614 0.047235664 0.08617809 0.0043055727 -0.034563288 -0.049555007 -0.034337465
0.09286275 -0.10402926 0.08940498 -0.008559849 -0.0647258 -0.061721183 0.1037142 0.023452273
0.11141157 0.05319442 0.07060926 0.014650408 0.01504483 -0.04117402 -0.06457243 -0.036707524
-0.023587033 0.012896848 -0.014245061 0.0140946675 -0.03153158 -0.0044191964 -0.014977006 0.08315771
-0.030083833 0.07055029 0.06758842 0.0093201045 -0.06847322 -0.030513477 0.021861486 -0.03175748
00000000: 42be 803d d1ae 863d 3e37 b8bc 029c 753d
00000010: 1947 ac3d b156 7fbb 8786 5fbd 3182 3ebd
00000020: fe4f 2ebd 1a34 8cbb eb54 a03d a8eb c73c
00000030: 6285 ae3d 78f3 973d 4f97 8b3c 87eb 513d
00000040: 4167 bd3d 0f70 693d 171b 8a3c c162 573d
00000050: 9082 493d 0523 3bbd e20e 3cbd 1ffc 873d
00000060: 5cff 8f3d af33 893d f78d b53d dd30 4bbc
00000070: c42b b9bd 81aa 193c e6f2 493d 8c81 7f3d
00000080: 5de2 173d 500f 8d37 6c49 7d3b bd45 23bd
00000090: 83b7 35bd 1b64 893d 4c64 123d 6a20 95bb
000000a0: 2490 10bc c340 f03d 72a7 b5bd 6d31 243d
000000b0: 928f fabb a37a 90bc b67e 40bd 471f 173d
000000c0: f82f 143c 68b4 983c c3cd a63d 3ec8 ba3d
000000d0: e1ff 8b3d a0b0 c33c 7f3a 8bbd 47a1 cfbc
000000e0: 7529 503d 5562 edba f91a 45bc abf2 8cbc
000000f0: 7940 9abb 6c20 ed3c 6ef7 833c 6491 7e3d
00000100: fe99 26bd 189a 78bc b2da c8bc 53a2 ef3c
00000110: 6d7f e2bc 4b73 13bd bb1c c23d 5344 b03c
00000120: d872 82bd ce61 6d3d 32f3 12bd cac5 733b
00000130: c911 ca3d 72b6 92bc c6f9 bcb9 2393 40bd
00000140: c333 35bd f545 b2bc fc80 b23b 6266 513c
00000150: ffd5 9c3d 7e81 bfbc 8004 67bc 0e70 20bd
00000160: 3ffa 4ebd 6d84 dc3c 2f7a 413d 237e b03d
00000170: c315 8d3b 3c92 0dbd 31fa 4abd 71a5 0cbd
00000180: d32e be3d 4b0d d5bd f519 b73d 9c3e 0cbc
00000190: f68e 84bd 5acf 7cbd 1c68 d43d fb1e c03c
000001a0: c02b e43d 64e2 593d 969b 903d 4408 703c
000001b0: 977e 763c 17a6 28bd 8d3e 84bd a15a 16bd
000001c0: 9839 c1bc 4d4d 533c 1e64 69bc 52ed 663c
000001d0: 4227 01bd e8ce 90bb 1e62 75bc 974e aa3d
000001e0: 5f72 f6bc ac7c 903d cc6b 8a3d 5ab3 183c
000001f0: b03b 8cbd 66f7 f9bc dc16 b33c 2214 02bd

layer_out_2.weight f4 [53, 128]
0.02543633 0.04694753 -0.088903345 0.11551647 0.022493506 -0.04980339 -0.028202675 0.04740554
-0.022782361 0.018309645 -0.055322543 -0.037729662 0.029324861 -0.09645013 0.057693146 -0.033664376
0.030635718 -0.017864255 -0.0020762596 -0.047325604 0.03985146 0.039062805 -0.091669254 0.036720823
-0.06238481 -0.004720883 0.09241441 0.06412619 -0.01708852 -0.11611238 -0.0072913016 0.031818304
0.016217522 0.04022362 -0.0005780707 -0.008154312 -0.00048761157 -0.07914117 -0.11489301 -0.040934578
0.06983005 -0.09467547 0.034761317 0.050792202 0.082026236 0.032973163 0.073207125 -0.005093318
-0.048375145 -0.07829468 0.028836383 -0.047185846 -0.15501066 0.0049153147 0.065344945 -0.06537632
0.003919492 0.019149024 0.0006879937 -0.014533733 0.059323397 -0.071254045 -0.060188673 -0.077584125
-0.041059744 0.036283482 0.01581099 0.07363611 0.007149966 0.019256331 -0.030949656 0.005510655
-0.08853504 0.056723278 -0.026320107 -0.036620874 -0.025419883 -0.037105076 -0.014644298 0.04781899
0.031803887 0.0032506587 0.055708118 -0.009668353 0.10249587 -0.056566704 0.04555172 0.030666254
-0.07334757 -0.08753266 -0.0041314475 0.04454396 0.012878824 0.069707155 0.03181712 0.011211648
0.03994921 -0.045417536 0.08770057 -0.066333026 -0.030018426 0.019891178 -0.07890109 -0.010350711
-0.038265772 -0.017206302 -0.0068485225 -0.10431714 0.04931389 0.068860784 -0.038346343 -0.006623327
0.0016619856 0.021631366 0.03347518 0.053568423 0.040772337 0.014610326 -0.0004698863 0.05510062
0.024795141 0.032681387 0.07845728 -0.009644172 0.08840316 -0.06991982 0.056803215 -0.001921827
-0.106648386 -0.05685521 -0.07949748 0.022548694 -0.10120181 0.026621364 -0.066737846 -0.007761056
-0.02107541 -0.0036918023 -0.058402363 0.02739419 -0.0011885187 0.04676141 -0.0053021726 -0.0007320602
-0.04944632 0.02237348 0.04087778 0.03888347 -0.06078508 5.5049983e-05 -0.0635563 -0.015018556
-0.074142456 0.044939198 -0.033114254 0.030668363 0.07548122 0.05364444 0.002108521 0.037088964
0.022831613 0.07017087 -0.067470364 0.014046679 -0.029525869 0.09187966 0.032453496 0.05180797
-0.047895636 0.06801725 0.050100148 0.078628436 0.015130384 0.011701002 0.060263857 0.013742654
0.09102184 -0.011846423 -0.030702975 -0.0958169 -0.073822774 -0.028807877 -0.07852184 -0.08965722
0.06212906 0.0005177701 0.0059478213 -0.0073919063 0.06691572 0.046004783 -0.07844449 0.01295934
0.059067752 -0.01563849 0.04268988 -0.06936011 0.08409951 0.04030522 0.018238707 0.0050216573
0.0070685996 0.058793116 -0.072144635 0.013613269 0.021933436 0.02544715 -0.0005137224 -0.02941621
0.028154885 -0.039174292 -0.0015489018 -0.02530851 0.04711228 -0.010448696 -0.028839003 -0.049559243
0.086277805 -0.021901248 0.044456027 -0.054498967 0.03767672 -0.006005892 0.08892127 -0.0006632286
-0.014243712 0.040838286 0.048915867 0.054577682 0.0027454752 0.032813147 0.023237554 0.040518045
-0.067352496 -0.013668257 -0.10743233 -0.02187752 0.00028824122 0.11655189 0.04509109 -0.13898623
0.00014058295 0.014406183 0.010960774 -0.000110890076 -0.02543097 -0.09587814 0.035511937 -0.13990828
0.07091761 -0.020128705 -0.075361066 0.09128791 -0.01066941 -0.042369176 0.016925424 0.037550595
00000000: da5f d03c 0e4c 403d f512 b6bd e693 ec3d
00000010: 4d44 b83c a4fe 4bbd 4c09 e7bc 502c 423d
00000020: 13a2 babc 1cfe 953c e499 62bd 6b8a 1abd
00000030: b13a f03c a587 c5bd a64f 6c3d a8e3 09bd
00000040: c2f7 fa3c 0f58 92bc db11 08bb 7ed8 41bd
00000050: 493b 233d 5200 203d 17bd bbbd 9368 163d
00000060: 3787 7fbd a3b1 9abb c443 bd3d 9854 833d
00000070: 39fd 8bbc 54cc edbd dfeb eebb e953 023d
00000080: 9cda 843c 86c1 243d ab89 17ba aa99 05bc
00000090: 1ea6 ffb9 c414 a2bd 074d ebbd 04ab 27bd
000000a0: 0f03 8f3d 36e5 c1bd e261 0e3d 7c0b 503d
000000b0: 5ffd a73d de0e 073d 9eed 953d d9e5 a6bb
000000c0: 0425 46bd f658 a0bd 473a ec3c f245 41bd
000000d0: 1dbb 1ebe a610 a13b 92d3 853d 05e4 85bd
000000e0: 156f 803b 6ade 9c3c 7a5a 343a e51e 6ebc
000000f0: 17fd 723d a4ed 91bd 6688 76bd 6de4 9ebd
00000100: 432e 28bd fd9d 143d 0d86 813c 87ce 963d
00000110: 434a ea3b 74bf 9d3c 228a fdbc ba92 b43b
00000120: dc51 b5bd ab56 683d 449d d7bc c5ff 15bd
00000130: 5c3d d0bc 7efb 17bd a3ee 6fbc d8dd 433d
00000140: cb44 023d 0109 553b 322e 643d 0368 1ebc
00000150: 5be9 d13d 7db2 67bd 7194 3a3d cc37 fb3c
00000160: 4037 96bd 5344 b3bd 1861 87bb ba73 363d
00000170: b401 533c a0c2 8e3d ab52 023d 0fb1 373c
00000180: c8a1 233d bd07 3abd 5b9c b33d 9cd9 87bd
00000190: 34e9 f5bc d3f2 a23c e596 a1bd 0796 29bc
000001a0: 92bc 1cbd 3bf4 8cbc 9269 e0bb 3aa4 d5bd
000001b0: 5dfd 493d e206 8d3d 0e11 1dbd 7e08 d9bb
000001c0: fcd6 d93a 4334 b13c 451d 093d 906a 5b3d
000001d0: e500 273d 2660 6f3c 125b f6b9 30b1 613d
000001e0: 2e1f cb3c ebdc 053d 36ae a03d 9702 1ebc
000001f0: b70c b53d 1f32 8fbd 7daa 683d d0e5 fbba
00000200: 786a dabd 02e1 68bd 93cf a2bd 0ab8 b83c
00000210: e542 cfbd 0c15 da3c daad 88bd 7550 febb
00000220: 57a6 acbc 2af2 71bb 5137 6fbd c869 e03c
00000230: 12c8 9bba e488 3f3d d9bd adbb bae7 3fba
00000240: 3988 4abd 9748 b73c 766f 273d 4644 1f3d
00000250: c7f9 78bd 78e5 6638 ce29 82bd 6410 76bc
00000260: 00d8 97bd 2a12 383d d0a2 07bd 383c fb3c
00000270: e695 9a3d 46ba 5b3d 1d2f 0a3b 99ea 173d
00000280: 5d09 bb3c bfb5 8f3d e72d 8abd 0b24 663c
00000290: 3ce0 f1bc 672b bc3d f5ed 043d 9834 543d
000002a0: 372e 44bd a14c 8b3d d035 4d3d f207 a13d
000002b0: 6ee5 773c 8fb5 3f3c 3cd7 763d de28 613c
000002c0: a969 ba3d 8017 42bc ce84 fbbc a73b c4bd
000002d0: 6530 97bd 7ffe ebbc 0fd0 a0bd 349e b7bd
000002e0: 0b7b 7e3d f7ba 073a f1e5 c23b ce37 f2bb
000002f0: 1c0b 893d 836f 3c3d 81a7 a0bd 6953 543c
00000300: 07f1 713d 4a1c 80bc 95db 2e3d ac0c 8ebd
00000310: 5d3c ac3d 1617 253d 5769 953c b78c a43b
00000320: b69f e73b 0dd1 703d 91c0 93bd 300a 5f3c
00000330: c0ad b33c 8b76 d03c 54ab 06ba 43fa f0bc
00000340: 13a5 e63c 3975 20bd 8504 cbba cb53 cfbc
00000350: cef8 403d 0231 2bbc c63f ecbc a2fe 4abd
00000360: 6bb2 b03d 3f6a b3bc 8617 363d 4f3a 5fbd
00000370: e852 1a3d 13cd c4bb 5b1c b63d 85dc 2dba
00000380: 755e 69bc 0c46 273d 015c 483d d98c 5f3d
00000390: 6eed 333b 1467 063d af5c be3c 40f6 253d
000003a0: 1bf0 89bd d3f0 5fbc 7b05 dcbd 7c38 b3bc
000003b0: 151f 9739 c2b2 ee3d 6fb1 383d 6852 0ebe
000003c0: 7369 1339 e907 6c3c d194 333c a88d e8b8
000003d0: 9c54 d0bc c25b c4bd f774 113d 1e44 0fbe
000003e0: 403d 913d f4e4 a4bc e756 9abd 28f5 ba3d
000003f0: c0ce 2ebc 4d8b 2dbd 30a7 8a3c a7ce 193d

layer_out_2.bias f4 [53]
-0.0017657925 -0.0044780304 0.0027213518 -0.009592906 0.010604597 0.00703988 0.0018566591 0.0050168824
-0.010241722 0.00164412 0.0093404045 -0.0050936705 -0.0021023056 -0.005902395 0.0024362388 0.0069882395
-0.011709713 0.003928189 0.0008725809 -0.014555524 -0.008290723 -0.0066359076 -0.010579542 0.013147954
0.0035396703 -0.0038252906 0.0027041915 0.0028515044 0.003680465 0.0060948217 -0.01151466 0.001954299
-0.007241401 0.0017955288 -0.0136331 0.005424475 -0.005263296 0.005256178 -0.0058650644 -0.0117655285
-0.0063666524 0.0017138374 0.015634935 -0.008371114 0.0007876784 -0.0021290455 -0.0035302555 -0.0020938308
-0.01683982 -0.00019711195 0.0074215434 -0.001256332 0.005307873
00000000: 2a72 e7ba 71bc 92bb b558 323b 902b 1dbc
00000010: e7be 2d3c cbae e63b 245b f33a a964 a43b
00000020: e5cc 27bc 837f d73a 7f08 193c cee8 a6bb
00000030: d6c6 09bb e168 c1bb 4ea9 1f3b 9afd e43b
00000040: 19da 3fbc 0ab8 803b eabd 643a 4b7a 6ebc
00000050: d0d5 07bc 0772 d9bb d155 2dbc 846a 573c
00000060: d0f9 673b bab1 7abb ce38 313b 4ee0 3a3b
00000070: f533 713b 12b7 c73b fca7 3cbc b213 003b
00000080: 4649 edbb f357 eb3a 5e5d 5fbc cbbf b13b
00000090: ba77 acbb 043c ac3b ba2f c0bb 34c4 40bc
000000a0: 5a9f d0bb d7a2 e03a d614 803c ff26 09bc
000000b0: 347c 4e3a 7587 0bbb dc5b 67bb a738 09bb
000000c0: aaf3 89bc d6af 4eb9 6b30 f33b 82ab a4ba
000000d0: aaed ad3b

residual_layers.0.layer_norm.weight f4 [128]
1.0408585 1.0495079 1.0312846 0.90869606 1.0403694 0.99258715 0.96355456 1.0292301
0.92889464 0.9955363 0.98403996 0.9341321 0.9966415 1.0078236 0.9830518 1.0501053
0.9711802 0.9514749 0.9559997 0.93917465 1.0015651 0.95818245 0.9564448 0.9750015
1.0939777 0.99090195 0.96174854 0.9900439 1.0321184 1.0354276 0.98152506 0.9587986
0.9970569 0.9687609 1.0306396 0.9848879 0.96455973 0.9269696 0.9906838 1.0264266
0.98383194 0.9585095 0.99246126 0.99854904 0.9912408 1.0296667 1.0667727 1.023742
0.9059907 0.9587966 0.952518 0.9668921 0.979779 0.96238846 0.94324046 1.003102
1.0345571 1.0446472 1.0410167 0.95816374 0.96737254 0.93306357 0.91727805 1.0236079
0.97099304 0.995145 0.9914695 0.9385065 0.9250471 0.94440085 1.0519432 1.0681863
1.0056422 0.9833474 1.0501231 0.959281 1.079164 1.0094309 1.0554445 0.95141083
1.0123378 1.1007444 0.9802498 0.9817706 1.0434631 1.0840917 1.0376962 0.98801637
1.0135251 1.0355376 1.0836298 0.9688729 0.98586714 1.0314059 1.0213459 0.97174495
0.92190593 0.99935424 0.95455813 1.044589 1.0241264 1.058002 1.0161527 1.005618
1.0065148 1.0007787 1.0607483 0.98243934 0.91212153 1.0344639 0.9539693 0.9815536
1.0095062 1.0310366 0.91771793 1.0567219 0.91364807 0.9324635 0.9737645 1.0420877
1.0760164 1.001722 0.9434388 0.920818 0.99663293 1.0304781 0.9101709 0.9832069
00000000: da3a 853f 4656 863f 2201 843f 4ea0 683f
00000010: d32a 853f 311a 7e3f 83ab 763f d0bd 833f
00000020: 0acc 6d3f 78db 7e3f 0bea 7b3f 4823 6f3f
00000030: e623 7f3f 5d00 813f 48a9 7b3f da69 863f
00000040: 449f 783f dc93 733f 65bc 743f c06d 703f
00000050: 4933 803f 724b 753f 91d9 743f b399 793f
00000060: 7607 8c3f c0ab 7d3f 2735 763f 8473 7d3f
00000070: 751c 843f e488 843f 3a45 7b3f d373 753f
00000080: 1f3f 7f3f b700 783f 00ec 833f 9d21 7c3f
00000090: 63ed 763f e14d 6d3f 749d 7d3f f261 833f
000000a0: 69dc 7b3f e160 753f f111 7e3f e9a0 7f3f
000000b0: f5c1 7d3f 1ecc 833f 028c 883f fa09 833f
000000c0: 02ef 673f b273 753f 38d8 733f 3e86 773f
000000d0: ccd2 7a3f 175f 763f 3578 713f a565 803f
000000e0: 5e6c 843f 00b7 853f 0940 853f 384a 753f
000000f0: baa5 773f 41dd 6e3f bcd2 6a3f 9505 833f
00000100: 0093 783f d3c1 7e3f f2d0 7d3f f641 703f
00000110: e3cf 6c3f 41c4 713f 13a6 863f 54ba 883f
00000120: e2b8 803f a8bc 7b3f 6f6a 863f 7193 753f
00000130: 0c22 8a3f 0835 813f ce18 873f a98f 733f
00000140: 4994 813f 31e5 8c3f a7f1 7a3f 5155 7b3f
00000150: 3390 853f 84c3 8a3f 3bd3 843f a4ee 7c3f
00000160: 31bb 813f 7f8c 843f 62b4 8a3f 0e08 783f
00000170: ca61 7c3f 1c05 843f 76bb 823f 47c4 783f
00000180: 0702 6c3f aed5 7f3f ec5d 743f 18b5 853f
00000190: 9316 833f 9c6c 873f 4b11 823f 17b8 803f
000001a0: 7ad5 803f 8419 803f 9ac6 873f 2581 7b3f
000001b0: cc80 693f 5069 843f 5537 743f 1947 7b3f
000001c0: 8037 813f 02f9 833f 90ef 6a3f aa42 873f
000001d0: d7e4 693f eeb5 6e3f a148 793f 2163 853f
000001e0: e8ba 893f 6d38 803f 3585 713f baba 6b3f
000001f0: 5623 7f3f b5e6 833f f600 693f 73b3 7b3f
