results/DDPM/NUM_LAYERS_TRANSFORMER/1/model_final.pth (torch, 204551 bytes, 26 tensors)

layer_x.weight f4 [64, 53]
0	0x3c05db76	0.008169999
1	0x3d295e99	0.04134998
2	0xbb9615b8	-0.004580226
3	0xbd815523	-0.06315067
4	0x3d81af62	0.0633228
5	0xbd97338c	-0.07382879
6	0x3dcbae9a	0.09945412
7	0xbd870825	-0.0659335
8	0xbd19832a	-0.037478603
9	0xbe628d70	-0.22124267
10	0xbc89a956	-0.016804378
11	0xbcf56f20	-0.029960215
12	0xbdb1c107	-0.08679395
13	0xbddb636f	-0.10712325
14	0xbb3b2de4	-0.0028561288
15	0x3e0473e6	0.12934837
16	0xbd882f0a	-0.06649597
17	0xbc7f3663	-0.015576932
18	0x3e3119d2	0.17295006
19	0x3e06455a	0.13112393
20	0x3c9b386c	0.018947802
21	0x3cb726d1	0.022357376
22	0xbc2dba9b	-0.010603572
23	0x3ca8cacb	0.020604512
24	0x3e505304	0.20344168
25	0x3dd03da0	0.10168004
26	0xbd440801	-0.047859196
27	0xbda98c31	-0.082786925
28	0xbddc76be	-0.10764836
29	0xbcce1f63	-0.02516145
30	0x3d8c85fa	0.068614915
31	0xbd5a1aa3	-0.05324806
32	0x3c20cc9b	0.009814407
33	0x3d2fabfa	0.04288862
34	0x3c15c5d5	0.009141405
35	0xbde491d9	-0.11160631
36	0x3e2136fa	0.15743628
37	0xbd728c7f	-0.05921602
38	0xbcc59776	-0.024120074
39	0xbd1944ad	-0.03741901
40	0x3d26b7b6	0.040702544
41	0xbc6228df	-0.01380369
42	0xbd642ed2	-0.055708714
43	0xbdbf9837	-0.093552046
44	0xbdd1eea8	-0.10250598
45	0xbd3c4094	-0.045960024
46	0xbd62152e	-0.05519598
47	0xbce25e89	-0.027632969
48	0x3ea97632	0.33097988
49	0xbd613e01	-0.054990772
50	0xbc57b5b4	-0.01316588
51	0xbc8ca60e	-0.017169025
52	0x3d19b8b8	0.037529677
53	0xbe71afd1	-0.23602225
54	0x3dc29755	0.095015205
55	0x3df0292f	0.11726605
56	0x3d74801a	0.05969248
57	0xbd3d70e4	-0.04625024
58	0x3d159bee	0.03652566
59	0xbdfba38e	-0.12287055
60	0x3e0a6058	0.13513315
61	0x3c8cbbbf	0.017179368
62	0xbd7f8f61	-0.062392596
63	0x3dd44544	0.10364774
64	0x3ce76d19	0.028250264
65	0xb8b4c49e	-8.619692e-05
66	0x3d6de8ee	0.058083467
67	0xbcd52f3b	-0.026023498
68	0xbd8fbc79	-0.0701837
69	0x3cc817ca	0.024425406
70	0x3cb4b16e	0.022057261
71	0xbd67daa4	-0.056604996
72	0xbdbb0df2	-0.09133519
73	0x3bdf03e5	0.006805884
74	0x3bad774b	0.005293762
75	0xbba4bee2	-0.005027638
76	0x3d8f16f4	0.069868
77	0xbe64e96c	-0.22354668
78	0xbc9f99ef	-0.019482581
79	0xbccd5436	-0.025064569
80	0x3e2a77eb	0.16647308
81	0x3d4fcd5f	0.050732967
82	0xbccc8e3d	-0.024970168
83	0x3d5d5144	0.05403258
84	0xbb05169a	-0.002030766
85	0x3d1170cb	0.03550796
86	0x3dced219	0.10098667
87	0xbd7cf5cc	-0.061757848
88	0x3db61ae0	0.08891845
89	0x3da63eb9	0.08117432
90	0xbd93fced	-0.07225976
91	0xbaf7957f	-0.0018889158
92	0xbc7a2dae	-0.01526968
93	0x3dded1e0	0.10879874
94	0x3b7c06e9	0.0038456267
95	0x3dcea213	0.10089507
96	0x3d3f0271	0.046633188
97	0x3ccf50c6	0.02530707
98	0xbdd09140	-0.10183954
99	0xbce999ec	-0.028515778
100	0x3cc29701	0.023753645
101	0x3ca3c12a	0.019989569
102	0x3d0b974c	0.034079835
103	0x3d310959	0.043221805
104	0x3e0a3fc2	0.13500884
105	0xbd997f06	-0.07494931
106	0x3d0c7d5b	0.034299236
107	0x3d3eb100	0.04655552
108	0x3d99459f	0.07483982
109	0x3d6806c1	0.056647066
110	0x3d7fbdbd	0.062436808
111	0x3d89bbd7	0.06725281
112	0x3dbad77d	0.091231324
113	0x3d662107	0.05618384
114	0x3e627b45	0.22117336
115	0xbb0430cb	-0.0020170684
116	0x3d9a247e	0.075264916
117	0x3d885188	0.06656176
118	0x3d84060b	0.06446465
119	0x3c2338de	0.009962289
120	0x3d7563e0	0.0599097
121	0x3dba79bf	0.091052525
122	0x3c99a7d4	0.018756784
123	0x3d981d70	0.0742749
124	0x3dac7c1f	0.08422112
125	0x3ce0d310	0.027444392
126	0x3d2cd81b	0.04219828
127	0x3dc185d2	0.09449352
128	0x3d8e4858	0.06947392
129	0x3d8fff94	0.070311695
130	0x3c9b7476	0.018976431
131	0x3d96fb23	0.07372119
132	0x3d5803be	0.052737944
133	0x3d5a766e	0.0533356
134	0x3d144951	0.036202732
135	0x3d29d2b6	0.041460715
136	0x3d4747f0	0.04865259
137	0x3d8bb1c3	0.06821015
138	0x3d71b61a	0.059011556
139	0x3d2c8ef0	0.042128503
140	0x3d7510e0	0.059830546
141	0x3c2613a7	0.010136521
142	0x3e00c35b	0.12574522
143	0x3db5a804	0.08869937
144	0x3d6b9a95	0.057520468
145	0x3d538a04	0.051645294
146	0x3cde8fa9	0.027168112
147	0x3ccc9932	0.024975393
148	0x3d964634	0.07337609
149	0x3dc1857f	0.094492905
150	0xbd0225d8	-0.03177437
151	0x3d1ed806	0.038780235
152	0x3e7ca3d5	0.24671872
153	0x3ce3e127	0.027817322
154	0x3de81549	0.11332185
155	0x3db3f043	0.08786061
156	0x3d63beb7	0.0556018
157	0x3d70e01a	0.05880747
158	0x3d1c4269	0.03814927
159	0xbe07e544	-0.13271052
160	0xbdec7776	-0.11546223
161	0xbe050184	-0.1298886
162	0xbde723e7	-0.11286145
163	0xbe023932	-0.12717131
164	0xbdf5241c	-0.11969778
165	0xbe08205b	-0.13293593
166	0xbde7334e	-0.112890825
167	0xbe0e687c	-0.13907045
168	0xbdd5a4eb	-0.10431846
169	0xbddf163b	-0.10892912
170	0xbddb8460	-0.10718608
171	0xbdfc65f9	-0.12324137
172	0xbdf40a27	-0.11915999
173	0xbdf5bfd6	-0.119994804
174	0xbde7f624	-0.113262445
175	0xbdffe80d	-0.12495432
176	0xbdf36d88	-0.11886126
177	0xbdf33888	-0.11876017
178	0xbdf28f07	-0.118436866
179	0xbdd01ff8	-0.101623476
180	0xbdc6e79c	-0.09712145
181	0xbdea3cf5	-0.11437408
182	0xbde53a08	-0.11192709
183	0xbde46c8a	-0.11153515
184	0xbde9beec	-0.114133686
185	0xbdfde1de	-0.12396596
186	0xbdf21b25	-0.11821584
187	0xbddebb9e	-0.10875629
188	0xbe00fbd4	-0.12596065
189	0xbdc925db	-0.098216735
190	0xbdf42d49	-0.119227
191	0xbdf08c44	-0.117455035
192	0xbe0189cf	-0.12650226
193	0xbded9c25	-0.11602048
194	0xbe10eceb	-0.14152877
195	0xbdce4961	-0.1007259
196	0xbdd38fd0	-0.103301644
197	0xbdf463a1	-0.11933065
198	0xbdf512f6	-0.11966507
199	0xbde8e555	-0.113718666
200	0xbe007d4c	-0.12547797
201	0xbe068f4e	-0.13140604
202	0xbdcec068	-0.10095292
203	0xbe0a5957	-0.13510643
204	0xbdf79469	-0.12088854
205	0xbdd1c5d0	-0.10242808
206	0xbdb05eb8	-0.08611816
207	0xbdbefa3f	-0.093250744
208	0xbde9e71c	-0.11421034
209	0xbdf015a6	-0.11722879
210	0xbdc72414	-0.09723678
211	0xbdd62937	-0.1045708
212	0x3d6480da	0.055786945
213	0xbbb6624d	-0.0055659176
214	0xbd97573b	-0.07389685
215	0xbc9de13e	-0.019272443
216	0x3d1709e7	0.036874678
217	0x3d5e53b9	0.054279063
218	0xbe222385	-0.15833862
219	0x3d6460a2	0.05575622
220	0xbe3b2ffd	-0.18280025
221	0x3c277c16	0.0102224555
222	0xbd77e6f4	-0.06052299
223	0x3bc8d8e5	0.0061293715
224	0xbd005eb9	-0.031340335
225	0x3e7e91d5	0.24860318
226	0xbcc1ae84	-0.023642786
227	0xbda0fdd5	-0.078609146
228	0x3b71bb9b	0.0036885503
229	0xbc5cbf1a	-0.013473297
230	0xbccb532b	-0.024819931
231	0xbcbb9a49	-0.022900717
232	0xbd361cb2	-0.04446096
233	0x3e0f5474	0.1399706
234	0x3cf89291	0.030343326
235	0x3cad26ef	0.021136729
236	0xbdcd5143	-0.10025265
237	0xba0a9fae	-0.00052880764
238	0x3c8f81bd	0.017517919
239	0xbe31e43b	-0.1737222
240	0x3d85fe17	0.065426044
241	0x3e0934fb	0.13399117
242	0x3c052e15	0.008128663
243	0xbcc14ba2	-0.023595635
244	0xbd46ed80	-0.04856634
245	0x3c238873	0.0099812625
246	0x3d28e7a2	0.041236527
247	0x3baa419c	0.0051958095
248	0x3d4225db	0.047399383
249	0xbbbb8745	-0.0057229125
250	0xbd5131c3	-0.051072847
251	0x3ce3bbf0	0.027799577
252	0x3dea3972	0.11436738
253	0xbd399e66	-0.045317076
254	0x3c924709	0.017856138
255	0xbca8b41c	-0.020593695

layer_x.bias f4 [64]
0	0x3e284175	0.1643122
1	0x3e9972d7	0.29970428
2	0x3ecf34a4	0.4046985
3	0x3e9dd76d	0.3082842
4	0x3eb7c76e	0.3589434
5	0x3e8d2e3f	0.27574345
6	0x3d36d2cc	0.044634625
7	0x3ea563da	0.32302743
8	0x3e1a972c	0.1509673
9	0x3e72e7ad	0.2372119
10	0x3d16bcc8	0.03680113
11	0x3ea2a9c5	0.3177015
12	0x3e37cdce	0.17949602
13	0x3e34e6cf	0.17666171
14	0x3e2d3ac5	0.1691695
15	0x3d5a4f58	0.053298324
16	0x3e88c98d	0.2671627
17	0x3e70739f	0.23481606
18	0x3e2e7a75	0.17038901
19	0x3e5a9582	0.21346095
20	0x3e96d52b	0.2945951
21	0x3e6aa70c	0.22915286
22	0x3e6db813	0.2321475
23	0x3cae707d	0.021293873
24	0x3e59071c	0.21194118
25	0x3e052a94	0.13004524
26	0x3e8fd2ad	0.2809042
27	0x3eb3a153	0.35084018
28	0x3e10af3a	0.14129344
29	0x3daae86f	0.083451144
30	0x3e8faa05	0.28059402
31	0x3e9772d1	0.29579785
32	0x3dfc0c84	0.12307075
33	0x3e598be8	0.21244776
34	0x3e4003e5	0.18751486
35	0x3e847a3f	0.25874516
36	0x3ea34b09	0.31893185
37	0x3d0bf877	0.0341725
38	0x3ea60a3b	0.3242968
39	0x3e225e00	0.1585617
40	0x3e9be74c	0.30449903
41	0x3e803f9f	0.2504854
42	0x3e9961d1	0.2995744
43	0x3da33773	0.079695605
44	0x3c827a9b	0.015927603
45	0x3e974760	0.29546642
46	0x3e045f77	0.12927042
47	0x3e6c79be	0.23093316
48	0x3e5bf2bb	0.21479313
49	0x3de5ce85	0.11221031
50	0x3e1721c8	0.1475898
51	0x3ea91ea9	0.33031204
52	0x3d94c008	0.072631896
53	0x3e24f520	0.16109133
54	0x3e9694cd	0.294104
55	0x3e3d5115	0.18487962
56	0x3e5274b7	0.20552336
57	0x3e8c0443	0.27347
58	0x3ec0eb51	0.37679532
59	0x3e845a89	0.25850323
60	0x3e286e78	0.1644839
61	0x3e2abf14	0.16674453
62	0x3e687eb8	0.2270459
63	0x3d434d8f	0.047681388

layer_t_1.weight f4 [64, 64]
0	0x3d1d55ec	0.03841202
1	0xbd5e0ef3	-0.054213475
2	0xbe73dec4	-0.23815447
3	0xbd5700b6	-0.052490912
4	0xbc909cd9	-0.017652916
5	0x3e3d84a4	0.1850763
6	0xbd75cf19	-0.060011957
7	0xbe91dba8	-0.28487897
8	0x3e6e176d	0.23251124
9	0xbd8e0139	-0.06933827
10	0x3d2b2c7e	0.041790478
11	0xbc75b2b4	-0.014996219
12	0xbcbfcdbb	-0.02341353
13	0xbdb089ec	-0.086200565
14	0x3df77987	0.120837264
15	0x3e8908fd	0.2676467
16	0xbd577ed7	-0.0526112
17	0x3c75309d	0.014965204
18	0xbd240645	-0.04004504
19	0x3e7a626d	0.24451609
20	0x3db9cb12	0.09071936
21	0xbe2f4dc1	-0.17119505
22	0xbdb5044e	-0.08838712
23	0xbde40868	-0.11134416
24	0x3bc12956	0.00589482
25	0x3e262132	0.162236
26	0xbe4a34fd	-0.19746776
27	0xbb2b2212	-0.0026112837
28	0x3e3e6d03	0.18596272
29	0xbcca7ba4	-0.02471716
30	0x3cdd55e0	0.027018487
31	0xbe1c6919	-0.15274467
32	0x3d1b135b	0.037860256
33	0xbcfdd641	-0.030985953
34	0xbdaa6389	-0.08319766
35	0xbb37c2c7	-0.002803968
36	0xbda0d2df	-0.078527205
37	0xbd68c308	-0.05682662
38	0xbc95a5cf	-0.01826754
39	0xbe096ece	-0.13421175
40	0xbdb91309	-0.09036834
41	0x3e0a270e	0.1349146
42	0xbd43a52f	-0.047764953
43	0x3d51445d	0.051090587
44	0x3e0bd728	0.13656294
45	0x3c974030	0.018463224
46	0x3b1f05cb	0.0024264927
47	0x3cc66732	0.02421913
48	0xbdff43b5	-0.12464086
49	0x3d893b79	0.06700797
50	0xbd7b808a	-0.06140188
51	0xbd6de8f8	-0.058083504
52	0xbabc173a	-0.0014350184
53	0xbd980588	-0.0742293
54	0x3d0cfa41	0.03441835
55	0xbe386048	-0.18005478
56	0x3da37025	0.07980374
57	0x3dd0a4de	0.10187696
58	0x3d11d3cb	0.035602372
59	0xbc67bf9d	-0.014144805
60	0x3d336661	0.043798808
61	0xbe1c0a59	-0.15238322
62	0xbdac3c36	-0.08409922
63	0xbe31f60f	-0.1737902
64	0xbd1f5c66	-0.038906477
65	0x3c5df732	0.0135477055
66	0xbcd069d9	-0.025441097
67	0x3d1e2afd	0.038615216
68	0x3b04880c	0.0020222692
69	0x3e103b52	0.14085129
70	0xbd39bb66	-0.045344733
71	0xbd61d45b	-0.05513416
72	0x3d5db9b6	0.054132186
73	0x3cca8f8e	0.024726655
74	0xbe4194f0	-0.18904471
75	0x3db6a880	0.089188576
76	0xbd642f80	-0.055709362
77	0xbd3658ac	-0.044518158
78	0xbde3f8c2	-0.11131431
79	0x3d857be2	0.065177694
80	0xbd7f8c7a	-0.06238983
81	0xbd9592d8	-0.07303399
82	0x3e31f25c	0.17377609
83	0xbec916e2	-0.3927527
84	0x3db3335a	0.08750029
85	0x3d8d26b5	0.068921484
86	0x3d7dce89	0.061964545
87	0xbd9ba5c6	-0.07599978
88	0x3d88f1dc	0.06686756
89	0xbd877788	-0.06614596
90	0x3dd36042	0.10321094
91	0x3d6b8774	0.057502225
92	0x3da1607b	0.0787973
93	0xbe125070	-0.14288497
94	0xbe53ffd3	-0.20703058
95	0xbd309b32	-0.043116756
96	0x3dba36d1	0.09092487
97	0x3e1b5a94	0.15171272
98	0xbd12a71f	-0.03580391
99	0xbcf47f84	-0.02984596
100	0xbd78427a	-0.060610272
101	0xbcda06d7	-0.02661459
102	0xbce7c3de	-0.028291639
103	0xbe14dc53	-0.14537172
104	0x3e19ecaf	0.15031694
105	0x3e02c2a2	0.12769559
106	0xbd29c18d	-0.04144435
107	0x3c116518	0.0088742
108	0x3da3fe0f	0.08007442
109	0x3d8f9a08	0.07011801
110	0x3c31b455	0.010846217
111	0x3e3da7dd	0.18521066
112	0x3e43fd31	0.19139554
113	0xbcbd7fb1	-0.023132177
114	0x3b1c07c6	0.0023808344
115	0x3eb290fa	0.34876233
116	0xbc943052	-0.018089447
117	0xbe1961b2	-0.14978674
118	0xbdbb8c8b	-0.09157666
119	0x3e4b5d49	0.19859804
120	0xbc3d3421	-0.011548073
121	0xbe0fde24	-0.14049584
122	0xbe5f8829	-0.21829285
123	0xbdce0e64	-0.100613385
124	0x3e3563ac	0.17713803
125	0xbce34969	-0.027744966
126	0x3cea1f7d	0.028579468
127	0xbd6f4d63	-0.05842341
128	0x3dca5dae	0.09881149
129	0xbd336c50	-0.043804467
130	0x3c9f8a91	0.019475253
131	0x3c1d6a63	0.009607884
132	0xbe3c13c0	-0.18366909
133	0x3dad8519	0.08472652
134	0x3e17825b	0.1479582
135	0x3e3aaae3	0.1822925
136	0x3b911929	0.004428048
137	0xbe16c07c	-0.14721864
138	0x3e357dad	0.17723723
139	0xbd812400	-0.063056946
140	0x3d75ee0d	0.060041476
141	0x3d396656	0.04526361
142	0xbdcfc93a	-0.10145803
143	0x3d4f3d8f	0.050595816
144	0x3e7cd646	0.24691114
145	0x3d260e81	0.040541176
146	0x3e4b5de6	0.19860038
147	0x3d5dc807	0.05414584
148	0xbd7e8805	-0.062141437
149	0xbe53aa05	-0.20670326
150	0xbb3aeaee	-0.0028521377
151	0xbe0f97ab	-0.140227
152	0xbe26492c	-0.1623885
153	0x3e25c03e	0.16186616
154	0x3c925252	0.017861519
155	0xbc80bf89	-0.015716331
156	0xbdb4977f	-0.08817958
157	0xbd717ced	-0.05895703
158	0x3e688c01	0.22709657
159	0xbe4afbdf	-0.19822644
160	0xbd7cbe43	-0.061704885
161	0x3df2d96f	0.118578784
162	0xbe35276d	-0.17690821
163	0x3df32eea	0.118741825
164	0x3c576cf1	0.013148532
165	0xbe194ff9	-0.14971913
166	0xbe08f913	-0.13376264
167	0xbe197608	-0.14986432
168	0xbe64bfa4	-0.2233873
169	0xbc2fb8e2	-0.010725232
170	0xbdb9a7d3	-0.09065213
171	0x3d596157	0.053071346
172	0x3e2ad870	0.16684127
173	0x3d97d2a3	0.07413223
174	0xbd5d945b	-0.05409656
175	0xbdfc0ada	-0.12306757
176	0x3d896475	0.06708614
177	0xbe159c38	-0.14610374
178	0xbded15ea	-0.115764454
179	0xbe065770	-0.13119292
180	0x3db97953	0.09056344
181	0xbd08cde6	-0.033399485
182	0x3e16d99f	0.14731453
183	0x3e098d1f	0.1343274
184	0x3d91a9f9	0.07112498
185	0xbd888adb	-0.066671096
186	0xbdc9620c	-0.09833154
187	0x3dcb6134	0.099306494
188	0xbd7ca909	-0.061684642
189	0x3ab6c53b	0.0013944277
190	0xbe1dc86f	-0.1540849
191	0xbdd1da01	-0.10246659
192	0x3e10b2c8	0.141307
193	0xbde4cacb	-0.11171492
194	0xbd8b0244	-0.067875415
195	0x3c3948a0	0.011308819
196	0x3b5a13cb	0.0033275958
197	0xbdcd75bc	-0.10032222
198	0x3e237aad	0.15964766
199	0x3c820414	0.015871085
200	0xbdda6774	-0.10664263
201	0x3d0c4972	0.03424973
202	0x3be17b84	0.0068811793
203	0xbdeea7bb	-0.11653086
204	0x3d8ccf23	0.06875446
205	0x3c498ee9	0.012302139
206	0xbdbf7cde	-0.093499884
207	0xbe0f4ce6	-0.13994178
208	0xbd2be12b	-0.041962784
209	0xbe08419f	-0.13306282
210	0xbcaf70bc	-0.02141606
211	0x3da511cc	0.08060035
212	0xbc8f2fa1	-0.017478766
213	0x3e1ab685	0.15108688
214	0xbd49f48e	-0.04930549
215	0xbc1327db	-0.00898167
216	0x3bfbccf0	0.0076843426
217	0xbdb2e9b4	-0.087359816
218	0xbd0ee834	-0.034889415
219	0xbddfe596	-0.10932462
220	0x3ce77354	0.028253235
221	0x3db5a540	0.088694096
222	0x3dd093e2	0.101844564
223	0xbc41f4ee	-0.011838181
224	0xbd0943fd	-0.033512104
225	0xbd56c764	-0.052436247
226	0x3de60d66	0.11233024
227	0xbe3088b3	-0.17239647
228	0xbd3ca08d	-0.04605155
229	0x3d3d94d5	0.046284515
230	0xbc8f1ce3	-0.017469829
231	0xbcaf4299	-0.02139406
232	0xbd8477a5	-0.06468133
233	0x3d9b478c	0.07582006
234	0x3db50e04	0.08840564
235	0x3d82ac17	0.0638048
236	0xbd8443b1	-0.064582236
237	0x3d3dd6bb	0.04634736
238	0x3cea4ecc	0.028602026
239	0xbb790e50	-0.0038002916
240	0x3c47cd84	0.012194995
241	0xbdcaf0d8	-0.099092185
242	0x3da74ec9	0.08169324
243	0xbe365906	-0.17807397
244	0xbe0dce8a	-0.1384832
245	0x3dbf7a9d	0.093495585
246	0xbd2f33b7	-0.04277393
247	0x3c453507	0.0120365685
248	0x3e1bcb83	0.15214352
249	0xbc0bcbdd	-0.0085324915
250	0xbc88ec7a	-0.016714323
251	0xbdb5b348	-0.08872086
252	0x3dd1db94	0.10246959
253	0x3e28ef75	0.16497596
254	0x3d413559	0.047170017
255	0x3d196cff	0.037457462

layer_t_1.bias f4 [64]
0	0xbda4699a	-0.080279544
1	0x3d9efbc6	0.07762866
2	0x3df0f94a	0.11766298
3	0x3de1c864	0.110245496
4	0xbdfa1fcb	-0.12213095
5	0x3d608469	0.054813776
6	0xbcc58170	-0.024109572
7	0xbd86c42a	-0.06580384
8	0x3d198841	0.037483457
9	0xbd14d4da	-0.036335804
10	0xbc8e09eb	-0.017338714
11	0x3ce3649e	0.027757939
12	0xbe2cfbca	-0.16892925
13	0x3bb60e59	0.0055559096
14	0xbd7d7448	-0.061878473
15	0x3d084973	0.03327317
16	0xbdb5ef5a	-0.08883543
17	0xbdbdf4b1	-0.09275187
18	0x3de43a30	0.11143911
19	0xbe251893	-0.16122656
20	0xbdbe53ce	-0.09293328
21	0x3e128120	0.1430707
22	0xbdcfda25	-0.1014903
23	0xbe1b9531	-0.15193631
24	0x3c8cd387	0.017190708
25	0x3de8f9ce	0.113757715
26	0xbe058b08	-0.13041317
27	0xbe204c19	-0.15654029
28	0xbc9159a7	-0.017742945
29	0x3de313eb	0.110877834
30	0xbd2f3274	-0.042772725
31	0xbddb2e4c	-0.1070219
32	0xbdaa85c9	-0.08326299
33	0x3db04e7f	0.08608722
34	0xbcec8efa	-0.02887677
35	0xbbbe041d	-0.00579883
36	0xbd9d1267	-0.076695256
37	0x3dc94d7c	0.09829232
38	0xbce1d213	-0.027565992
39	0x3d3632f4	0.044482186
40	0x3d1e7226	0.03868308
41	0xbdf8c04c	-0.12146053
42	0x3deb103b	0.11477705
43	0xbe0cbbe1	-0.13743545
44	0x3db86a0f	0.09004604
45	0xbd3a3a3e	-0.0454657
46	0xbc180e74	-0.00928079
47	0x3cc6d3bb	0.024270883
48	0x3e014c6a	0.12626806
49	0x3e05a1a2	0.1304994
50	0x3db10f3a	0.08645482
51	0xbe03a57b	-0.12856095
52	0x3ccb7bd7	0.024839325
53	0xbcc888e1	-0.024479331
54	0xbd152bba	-0.036418654
55	0xbc580d50	-0.013186768
56	0xbd6dd70b	-0.05806641
57	0x3ccffb31	0.025388332
58	0x3bfa2bf7	0.0076346355
59	0xbe20deb6	-0.15709957
60	0x3db9e6f9	0.09077258
61	0xbd1b6f16	-0.037947737
62	0xbdea6c44	-0.11446431
63	0x3db30bd8	0.087424934

layer_t_2.weight f4 [64, 64]
0	0x3e392664	0.18081051
1	0xbe2a1a4f	-0.16611598
2	0x3dd368c9	0.103227206
3	0xbd9b376b	-0.075789295
4	0xbd9568ec	-0.07295403
5	0xbd8074b6	-0.06272261
6	0x3d11761c	0.03551303
7	0xbd885dde	-0.06658529
8	0xbd88c691	-0.066784985
9	0x3d6a6056	0.05722078
10	0xbd9cb535	-0.0765175
11	0x3dd1532f	0.10220944
12	0xbe392592	-0.18080738
13	0x3e4b0834	0.19827348
14	0xbe077566	-0.13228378
15	0xbd02c395	-0.031924803
16	0xbdfb6594	-0.12275234
17	0xbce43dbf	-0.027861474
18	0x3e527453	0.20552187
19	0x3dd5cada	0.104390815
20	0xbd05192d	-0.032494713
21	0x3dbb55cb	0.09147223
22	0x3e31b612	0.1735461
23	0xbe01e7a4	-0.1268602
24	0xbe61fa8e	-0.22068235
25	0x3d72e422	0.059299596
26	0x3c30097c	0.010744449
27	0xbda8cc01	-0.08242036
28	0x3db3d4eb	0.08780845
29	0x3d761db4	0.06008692
30	0xbd5bbda8	-0.053647667
31	0x3d93e2c0	0.072209835
32	0x3d6d3cac	0.05791919
33	0x3db77c7a	0.08959289
34	0x3df3f78f	0.119124524
35	0x3e4da445	0.20082195
36	0xbde32b98	-0.11092299
37	0x3e1ddad8	0.15415514
38	0xbc15df93	-0.0091475425
39	0xbc6f8e4f	-0.014621331
40	0xbb7a286d	-0.0038171068
41	0xbbeeb020	-0.0072841793
42	0x3d76aa68	0.060221106
43	0x3dcb6b02	0.099325195
44	0x3d0a23c7	0.033725526
45	0xbd92c5a4	-0.07166603
46	0xbe10a463	-0.14125209
47	0x3d5a4bcb	0.053294938
48	0xbd029dae	-0.031888656
49	0xbd91ad92	-0.07113184
50	0xbcc74a18	-0.024327323
51	0xbc9cb5cd	-0.019129658
52	0xbd05dcf8	-0.032681435
53	0x3da5f5c9	0.081035204
54	0xbdba55ec	-0.090984195
55	0x3e1bf656	0.15230688
56	0xbcbf62fe	-0.023362633
57	0xbe10a400	-0.14125061
58	0x3e4abdfd	0.19799037
59	0xbd95f90a	-0.07322891
60	0x3df172eb	0.11789497
61	0x3e5ede0d	0.21764393
62	0x3c89e044	0.016830571
63	0xbd9b8168	-0.07593042
64	0xbd632313	-0.05545337
65	0x3e2c495b	0.16824858
66	0xbd6a79d9	-0.05724511
67	0x3cf3b015	0.029747048
68	0x3e2bf7b1	0.16793706
69	0x3e1d59d0	0.15366292
70	0x3ce63c8a	0.02810504
71	0x3e4e4ad3	0.2014573
72	0xbd39ec87	-0.045391586
73	0x3e2a9601	0.16658784
74	0x3e7dfeba	0.24804202
75	0x3a067918	0.0005129739
76	0x3e47c642	0.19509223
77	0xbe321c2f	-0.17393564
78	0x3e474349	0.19459261
79	0xbc72741b	-0.0147981895
80	0xbc9f9599	-0.019480513
81	0x3dc0836a	0.09400065
82	0xbe2cc7b0	-0.1687305
83	0x3d22d23b	0.039751273
84	0x3e2859e0	0.16440535
85	0xbb709bdc	-0.0036713993
86	0xbe073fef	-0.13207982
87	0x3d84fa5f	0.06493067
88	0x3d099b11	0.03359515
89	0x3de74b68	0.112936795
90	0xbd8eb4c0	-0.06968069
91	0x3e60f8f9	0.21969976
92	0xbe3ff848	-0.18747056
93	0xbd8ee67e	-0.06977557
94	0x3cd3cc5f	0.025854288
95	0xbd88f6de	-0.06687711
96	0xbe624141	-0.22095205
97	0xbdb21f97	-0.086974315
98	0xbe1d804e	-0.15380976
99	0xbc8b51c4	-0.017006762
100	0x3e9111f8	0.28334022
101	0xbe3ec3ec	-0.18629426
102	0x3d0c80de	0.034302585
103	0x3e4e92f4	0.20173246
104	0x3cb6c4ce	0.02231064
105	0x3d9c6d30	0.07638013
106	0x3cd64a5e	0.026158508
107	0x3e0b3b81	0.13596918
108	0x3df4067b	0.119152986
109	0x3e70a734	0.23501283
110	0x3df307ea	0.11866744
111	0x3d835814	0.06413284
112	0x3e6b6a36	0.22989735
113	0xbd62bb52	-0.055354424
114	0xbe3e8981	-0.18607141
115	0xbe71b4a5	-0.23604067
116	0x3e232a7b	0.15934174
117	0xbd8020a7	-0.06256228
118	0x3d70f94a	0.05883149
119	0xbd57eb14	-0.052714422
120	0x3d8b8ea7	0.06814318
121	0x3d594696	0.05304583
122	0xbdcb5b34	-0.09929505
123	0x3d69dc5a	0.05709491
124	0xbe0f9d91	-0.1402495
125	0xbe5cf534	-0.21577913
126	0x3dff43a9	0.12464077
127	0x3d13c3b3	0.036075305
128	0xbb607ccd	-0.0034254075
129	0xbe3424f7	-0.17592226
130	0x3df83a77	0.12120526
131	0xbd289478	-0.041157216
132	0xbe0501f7	-0.12989031
133	0x3c29eb6b	0.010371069
134	0xbc6e53ed	-0.014546377
135	0xbe2cfa43	-0.16892342
136	0x3e162301	0.1466179
137	0x3d06a080	0.03286791
138	0xbe3930e0	-0.1808505
139	0x3e2baa08	0.1676408
140	0xbe26c187	-0.16284762
141	0x3e1a9128	0.15094435
142	0xbe42db26	-0.19028911
143	0x3d3eb0f5	0.046555478
144	0xbe225609	-0.15853132
145	0xbdf01269	-0.117222615
146	0x3dc28b9c	0.094992846
147	0xbd794233	-0.060854148
148	0xbd28999b	-0.041162115
149	0x398d6ab6	0.00026973122
150	0x3d6548d0	0.055977643
151	0x3ca88911	0.02057317
152	0xbd66faff	-0.056391712
153	0xbb655001	-0.0034990313
154	0x3bf0db2d	0.0073503465
155	0xbe4da92e	-0.20084068
156	0x3d8ca4b9	0.06867356
157	0x3db8b94e	0.09019719
158	0xbe1949b3	-0.1496952
159	0x3d992eb2	0.074796095
160	0x3de1edfc	0.1103172
161	0x3d44ce25	0.048048157
162	0x3e106bc6	0.14103612
163	0x3d906992	0.07051386
164	0xbe6c73bd	-0.23091026
165	0x3d98d42e	0.07462345
166	0xbd1ad062	-0.037796386
167	0xbd332157	-0.043732967
168	0xbd935d68	-0.0719555
169	0x3da13454	0.07871309
170	0x3d9f6f25	0.07784871
171	0x3d15895f	0.03650796
172	0x3daf2e57	0.085537605
173	0xbc2a5aeb	-0.010397653
174	0x3c678f35	0.014133264
175	0xbccbca1b	-0.024876645
176	0xbdff8cd5	-0.124780335
177	0xbb8f48de	-0.0043727
178	0x3dc399ee	0.09550844
179	0x3d8e3e12	0.06945433
180	0x3d2be31b	0.04196463
181	0xbc8baa53	-0.01704899
182	0xbd283fb9	-0.041076396
183	0x3dbfb545	0.09360746
184	0xbd96dee2	-0.0736673
185	0x3d5dc3a6	0.054141663
186	0x3e3ea4e8	0.18617594
187	0xbc6052eb	-0.013691644
188	0x3e30872a	0.17239061
189	0x3e2c4643	0.16823678
190	0xbd171bc2	-0.036891706
191	0xbbe13de0	-0.006873831
192	0xbe19f48e	-0.15034696
193	0x3dd4329b	0.10361215
194	0xbdce1bba	-0.10063882
195	0xbba565e2	-0.005047546
196	0x3da61515	0.0810949
197	0x3cc2b1c6	0.02376641
198	0xbd8b5907	-0.0680409
199	0xbd843f2f	-0.06457364
200	0xbdc4c031	-0.0960697
201	0x3d623b4d	0.055232335
202	0x3d6a1e5e	0.057157867
203	0xbdef5dfc	-0.11687848
204	0xbe1d39d7	-0.15354095
205	0xbd1c4b59	-0.038157795
206	0xbdba7184	-0.09103683
207	0x3da42e8e	0.08016692
208	0x3c8594d6	0.016306322
209	0x3e05a72d	0.13052054
210	0xbdfe152f	-0.12406384
211	0xbdb95c35	-0.0905079
212	0xbceaa295	-0.028641978
213	0xbd0b4db4	-0.03400965
214	0x3b5568f2	0.0032563773
215	0xbb8ccbf7	-0.0042967754
216	0xbd40ab8b	-0.047038596
217	0xbd6236ed	-0.055228163
218	0xbc31fd77	-0.010863653
219	0x3ce58d7c	0.028021567
220	0x3d340b8a	0.043956317
221	0xbe04bafc	-0.12961954
222	0x3dec82d8	0.11548394
223	0x3e561092	0.20904759
224	0xbdc1016c	-0.09424099
225	0xbdfa8087	-0.12231546
226	0xbd1d4686	-0.038397335
227	0xbdf4b267	-0.1194809
228	0xbd1659e4	-0.03670682
229	0xbbf239c4	-0.00739214
230	0x3cbd9f11	0.023147138
231	0xbb501f12	-0.00317568
232	0xbe2f918e	-0.17145368
233	0xbdf00098	-0.11718863
234	0xbdf516f3	-0.11967268
235	0x3d303930	0.04302329
236	0xbe12d039	-0.14337243
237	0x3d6d511e	0.057938688
238	0x3c9f73ae	0.01946434
239	0x3d1e4d93	0.0386482
240	0xbc63b4d7	-0.013898096
241	0xbe369741	-0.17831136
242	0x3ba5a3e8	0.0050549395
243	0x3cb11d98	0.021620557
244	0xbc61dbe4	-0.013785336
245	0xbc4250bc	-0.011860069
246	0x3dd47b0d	0.103750326
247	0xbe04a981	-0.12955286
248	0x3c20076b	0.009767394
249	0x3d59c9d7	0.053171005
250	0xbe4ed494	-0.2019828
251	0xbd9a35ea	-0.075298145
252	0xbcfe9829	-0.031078415
253	0xbdfacaf5	-0.12245742
254	0x3d573e56	0.052549683
255	0x3dab8515	0.08374993

layer_t_2.bias f4 [64]
0	0xbdb84232	-0.08997001
1	0x3d79c804	0.060981765
2	0x3d186d5e	0.037213676
3	0x3d87f125	0.066377915
4	0xbe127008	-0.14300549
5	0x3df252e6	0.11832218
6	0xbc96bb77	-0.018399937
7	0xbdf1830c	-0.11792573
8	0x3d95434c	0.072882265
9	0x3c3aff87	0.0114134615
10	0xbdbfd469	-0.09366686
11	0x3d9c3ee0	0.0762918
12	0xbdf0a63e	-0.11750458
13	0xbd248ea9	-0.040175114
14	0x3ba8637c	0.0051388126
15	0x3de630e6	0.112397954
16	0x3db35224	0.087559015
17	0x3e27da85	0.16391952
18	0xbb9f079c	-0.004853202
19	0x3df80eb6	0.12112181
20	0x3d6481d2	0.05578787
21	0x3ca6f27c	0.020379297
22	0x3dd3d009	0.10342414
23	0x3d3bbc5f	0.04583394
24	0x3df48e48	0.119412005
25	0x3e038be0	0.12846327
26	0xbe1374a8	-0.1439997
27	0x3d0215ca	0.03175906
28	0xbd5892b8	-0.052874297
29	0xbd3ad772	-0.04561562
30	0xbdce0161	-0.10058857
31	0xbd695b1a	-0.056971647
32	0x3e22614d	0.1585743
33	0xbe145306	-0.14484796
34	0x3cf925e3	0.030413574
35	0x3dbd9194	0.092562824
36	0xbdced1b9	-0.10098595
37	0xbdb33b4f	-0.087515466
38	0xbce5744c	-0.028009556
39	0xbdd6cf07	-0.10488706
40	0x3db1cc9e	0.08681606
41	0xbda487f5	-0.08033744
42	0xbb240b25	-0.0025031057
43	0x3e3c9b16	0.18418536
44	0x3c9c4618	0.019076392
45	0x3c8e44c2	0.01736677
46	0xbd84253d	-0.06452415
47	0xbce64bdb	-0.028112343
48	0x3a965c1b	0.0011471541
49	0xbda44b22	-0.08022143
50	0xbdb5932b	-0.08865961
51	0xbd698bd6	-0.057018124
52	0x3d1f7c07	0.03893664
53	0xbc5d0f85	-0.01349247
54	0x3cdc5275	0.026894787
55	0xbe155343	-0.14582543
56	0xbd39f489	-0.045399223
57	0xbd36013f	-0.044434782
58	0x3c8c01c3	0.017090684
59	0x3da55e80	0.08074665
60	0x3dfd1d1a	0.12359066
61	0xbd242d3e	-0.04008221
62	0xbdd7fe08	-0.105464995
63	0x3dc133cb	0.09433707

layer_out_1.weight f4 [64, 64]
0	0xbcf56063	-0.029953187
1	0xbbdd7696	-0.0067585213
2	0x3d77f6c5	0.060538072
3	0x3c912b6f	0.017720906
4	0xbbcdc0ab	-0.0062790713
5	0xbb7d984a	-0.0038695508
6	0xbe0bcd67	-0.13652574
7	0x3aa71ea8	0.0012750225
8	0x3d489e3e	0.048979037
9	0xbd870cb7	-0.06594222
10	0x3e274dde	0.16338298
11	0xbdb412c5	-0.087926425
12	0xba86625a	-0.00102527
13	0x3daa1b3f	0.08305978
14	0xbdae2a36	-0.08504145
15	0x3d499d6e	0.049222402
16	0xbd741ea5	-0.059599537
17	0xbd61f9f2	-0.055170007
18	0xbced63a8	-0.028978184
19	0xbc22f36c	-0.009945732
20	0xbd867674	-0.06565562
21	0xbca87f0f	-0.020568399
22	0x3aada97e	0.0013249365
23	0xbe1216a9	-0.14266457
24	0xbd2a991d	-0.041649926
25	0x3b29c622	0.002590545
26	0x3d3862a1	0.045015935
27	0xbdc76837	-0.09736674
28	0xbd854772	-0.06507768
29	0x3bf4bf69	0.007469107
30	0x3daec3d7	0.08533447
31	0xbcc35601	-0.02384472
32	0xbad52498	-0.0016261516
33	0x3d4e4de4	0.05036725
34	0xbdf03638	-0.117290914
35	0x3d9a582d	0.075363494
36	0xbd8b9252	-0.06815018
37	0xbe205259	-0.15656413
38	0x3d0e08d8	0.034676403
39	0xb88a9e2c	-6.6098146e-05
40	0xbd916ca7	-0.07100802
41	0x3c2ecdcc	0.010669183
42	0xbaf9e260	-0.0019064657
43	0xbd934089	-0.071900435
44	0xbc609bba	-0.013709003
45	0x3d85f261	0.06540371
46	0x3cfb4e98	0.030677125
47	0x3df7d6fd	0.12101553
48	0x3d515c93	0.051113676
49	0x3d21114b	0.039323132
50	0x3d419a6d	0.047266413
51	0x3cb468fc	0.022022717
52	0xbd42206c	-0.0473942
53	0x3c69ee45	0.014277999
54	0x3d6186c3	0.05506016
55	0x3e1f4f1f	0.15557526
56	0xbe136315	-0.14393266
57	0xbd87f325	-0.06638173
58	0x3d2cc3f0	0.042179048
59	0xbcd0cd2e	-0.025488462
60	0xbdb49678	-0.08817762
61	0x3d7b1eba	0.0613086
62	0xbd5926db	-0.05301557
63	0x3d055c7a	0.032558896
64	0x3da14625	0.07874707
65	0x3db607cd	0.08888207
66	0xbd095648	-0.03352955
67	0x3cdfde48	0.027327672
68	0x3cf2f76a	0.029658992
69	0xbe0edd04	-0.13951498
70	0xbdb303b2	-0.08740939
71	0x3d60812c	0.054810688
72	0x3d453a19	0.04815111
73	0x3d86e8a0	0.065873384
74	0xbd19894e	-0.03748446
75	0xbd803a8d	-0.06261168
76	0x3d5ec177	0.05438372
77	0xbd9a88d4	-0.07545629
78	0xbdffe8b5	-0.12495557
79	0xbcb802b4	-0.022462226
80	0xbd5fbae8	-0.054621607
81	0x3d64b4f5	0.055836637
82	0x3dff9f2c	0.124815315
83	0x3999745a	0.00029269123
84	0x3c80a8c1	0.015705468
85	0xbe1d337a	-0.15351668
86	0x3df1348c	0.11777601
87	0x3daa7501	0.08323098
88	0xbe056b62	-0.13029245
89	0x3c2a58ef	0.01039718
90	0xbdfd2cdb	-0.12362071
91	0x3dc0f352	0.0942141
92	0xbcd7d7e7	-0.026348067
93	0xbd12558e	-0.035726123
94	0x3dc59ada	0.09648676
95	0xbd657d99	-0.056027982
96	0x3c6e1bed	0.014533025
97	0xbe11dafa	-0.14243689
98	0x3ced6bd4	0.02898208
99	0xbc75b15f	-0.014995902
100	0x3d072ddd	0.033002723
101	0xbd53e6f6	-0.051733933
102	0xbc994ebc	-0.018714301
103	0xbd88d905	-0.06682018
104	0xbe060378	-0.1308726
105	0x3c16904f	0.009189679
106	0xbe090ebf	-0.13384531
107	0x3dfabce4	0.12243059
108	0x3dd1c796	0.10243146
109	0x3dad4d4a	0.08462007
110	0xbca42587	-0.020037426
111	0xbc7d8924	-0.015474591
112	0x3c597296	0.013271948
113	0x3dcb6da7	0.09933024
114	0x3e0ab747	0.13546477
115	0x3dbb6185	0.0914946
116	0xbd8dd7b7	-0.0692591
117	0x3d6ba890	0.0575338
118	0x3d4b888c	0.049690768
119	0xbcd41076	-0.025886755
120	0x3d5c4ec8	0.05378607
121	0xbe1ce522	-0.15321782
122	0xbdca5633	-0.098797224
123	0xbdeb845c	-0.11499855
124	0xbd4cf83a	-0.050041415
125	0x3dcabda1	0.0989945
126	0x3d98b506	0.074564025
127	0x3d9103be	0.07080792
128	0x3e3337aa	0.17501703
129	0xbd4b7ec2	-0.049681433
130	0x3bb5c8db	0.0055476255
131	0x3df0a21a	0.117496684
132	0x3d84818d	0.06470022
133	0xbd9ebe63	-0.07751157
134	0xbd387c2b	-0.04504029
135	0x3c887bd5	0.01666061
136	0x3d4f277b	0.05057476
137	0x3cd31699	0.025767611
138	0x3d39925c	0.045305595
139	0xbd8e5658	-0.069500625
140	0x3d967f52	0.07348503
141	0xbd4a6a0d	-0.049417544
142	0xbcc7cd5f	-0.02438992
143	0x3d8036b5	0.062604345
144	0xba4bfa3c	-0.0007781123
145	0xbdd70687	-0.10499292
146	0xbbcb8b38	-0.0062116645
147	0x3d1cfbce	0.038326077
148	0x3dc43bd3	0.09581723
149	0x3cb3524c	0.021889828
150	0xbc21557d	-0.009847042
151	0x3dba6902	0.0910206
152	0x3d5550e8	0.05207911
153	0xbda6d095	-0.081452526
154	0xbcd64ec5	-0.026160607
155	0xb97f6865	-0.00024357585
156	0x3c861008	0.016365066
157	0xbdae7329	-0.08518059
158	0x3d71cd72	0.05903382
159	0x3cc0ef8b	0.023551723
160	0x3d45396f	0.048150476
161	0xbd78cb0b	-0.060740512
162	0x3b20b262	0.0024520387
163	0xbbe77eb0	-0.007064663
164	0xbd929b31	-0.07158507
165	0x3dd9c314	0.10632911
166	0x3cd468b7	0.025928838
167	0xbd9cbed5	-0.07653586
168	0x3d8b62e9	0.06805975
169	0xbcc5fb21	-0.0241676
170	0x3bb847b1	0.0056237807
171	0xbdcde672	-0.100537196
172	0x3cfcc5f9	0.03085612
173	0xbd8681ce	-0.06567727
174	0x3b276a9e	0.0025545727
175	0x3d792af3	0.060831975
176	0x3d01bfb8	0.031676978
177	0x3dc9edcb	0.098598085
178	0x3db142a8	0.08655292
179	0x3c87c829	0.016574936
180	0xbd1f99c9	-0.03896502
181	0xbd2188c8	-0.039437085
182	0xbd8fdabd	-0.07024143
183	0x3d815c9d	0.06316493
184	0xbde7ddc2	-0.11321594
185	0xbc6e71fc	-0.014553543
186	0x3e00c16c	0.12573785
187	0xbdc34066	-0.095337674
188	0xbd5cb38d	-0.05388217
189	0xbce56612	-0.028002772
190	0xbd79ff0f	-0.06103426
191	0x3dd6321b	0.104587756
192	0xbd0421de	-0.03225886
193	0x3d6d5baf	0.057948764
194	0x3d736933	0.059426498
195	0x3e457ba5	0.19285448
196	0x3df1aade	0.118001685
197	0x3d5c9cea	0.053860582
198	0xbc09d3a1	-0.008412273
199	0x3d0df6e6	0.03465929
200	0xbc6d57cc	-0.014486264
201	0x3d67b39a	0.056567766
202	0x3d14154a	0.036153115
203	0xbd977fc0	-0.07397413
204	0xbd198354	-0.03747876
205	0xbca58e55	-0.02020947
206	0xbc98199c	-0.018566899
207	0xbcdee484	-0.027208574
208	0xbcf194d6	-0.029489916
209	0xbcf43e0c	-0.029814743
210	0xbdf540fe	-0.11975287
211	0xbe0aff3e	-0.1357393
212	0xbddb28be	-0.1070113
213	0xbc42453f	-0.01185733
214	0x3e0717db	0.13192694
215	0xbd6ae5cf	-0.05734807
216	0xbcdeeaeb	-0.027211627
217	0xbd7c4bad	-0.061595608
218	0x3e4b4c82	0.19853404
219	0x3b8cc6aa	0.0042961435
220	0x3d9d2b5b	0.07674285
221	0xbd93799e	-0.07200931
222	0xbd47199c	-0.048608407
223	0xbd9a9622	-0.07548167
224	0xbd6bd1eb	-0.05757324
225	0xbe28f6dc	-0.1650042
226	0x3c09abd6	0.008402785
227	0xbd6a35ee	-0.057180338
228	0x3e10f0fb	0.14154427
229	0xbcdc6ebd	-0.026908273
230	0x3d8aa6e4	0.06770113
231	0x3d2e46d2	0.04254801
232	0xbd6970f5	-0.05699249
233	0xbe174277	-0.14771448
234	0x3ca88c82	0.020574812
235	0xbd09b52f	-0.033620056
236	0x3ced7467	0.028986169
237	0x3ae4f47e	0.0017467884
238	0xbdee87a0	-0.11646962
239	0x3d2b8606	0.04187586
240	0xbd3e8d2f	-0.046521362
241	0x3e2bd710	0.16781259
242	0x3de40207	0.11133199
243	0xbd93eb02	-0.072225586
244	0x3e2a2cad	0.16618605
245	0xbd58c528	-0.052922398
246	0xbc4d5f23	-0.012534889
247	0xbcbd1be4	-0.023084588
248	0xbce85926	-0.028362822
249	0xbce10796	-0.027469438
250	0xbcefb1ab	-0.029259523
251	0x3df99b8c	0.12187871
252	0x3a01dbc7	0.0004953709
253	0x3cd052eb	0.025430163
254	0x3cca0fdf	0.024665771
255	0x3dc63b55	0.096792854

layer_out_1.bias f4 [64]
0	0x3d09f70d	0.03368287
1	0xbd2eb655	-0.042654354
2	0xbe071379	-0.13191022
3	0xbce4080d	-0.02783587
4	0x3d293ec4	0.041319624
5	0x3e0689cb	0.13138501
6	0xbd8d26e8	-0.068921864
7	0x3d36938a	0.044574298
8	0xbd882517	-0.06647699
9	0xbd5dfb2a	-0.054194607
10	0x3d2499d1	0.040185753
11	0xbd575072	-0.052566953
12	0xbdca2153	-0.09869637
13	0xbda48a1f	-0.08034157
14	0xbc68465c	-0.014176931
15	0xbc225042	-0.00990683
16	0xbce35028	-0.027748182
17	0xbd617a50	-0.055048287
18	0x3db5cf75	0.0887746
19	0xbdfacb00	-0.122457504
20	0x3dc1748a	0.09446056
21	0x3d63a984	0.055581585
22	0x3dfd2e6b	0.12362369
23	0x3d877752	0.066145554
24	0xbd540fb3	-0.051772784
25	0xbdb1a3ac	-0.08673796
26	0x3c889a9a	0.016675282
27	0xbd94f867	-0.072739415
28	0xbe299d90	-0.16564012
29	0x3c8722fe	0.016496178
30	0x3dacd9e5	0.084399976
31	0x3d05d999	0.03267822
32	0x3e0447a9	0.12917961
33	0xbc373442	-0.011181893
34	0x3d95fed1	0.07323993
35	0x3cff6d62	0.031180087
36	0x3c90427d	0.01760983
37	0xbda0c4b6	-0.0785002
38	0x3dbdbe7e	0.09264849
39	0x3d932e17	0.07186525
40	0xbe101634	-0.1407097
41	0x3dc29dd3	0.09502759
42	0x3e169575	0.14705451
43	0x3e3c66c8	0.18398583
44	0xbe164a32	-0.14676741
45	0x3ddad788	0.106856406
46	0xbc85fe9f	-0.016356764
47	0x3d102da1	0.035199765
48	0x3e1ff9df	0.15622662
49	0xbc88382c	-0.016628347
50	0x3d30938f	0.043109473
51	0xbbc1ea31	-0.0059178104
52	0xbcc51c73	-0.024061417
53	0xbdfeacb4	-0.12435284
54	0x3dc1dea9	0.09466297
55	0xbd5f0ada	-0.05445371
56	0xbd4b1279	-0.049578164
57	0x3d5a2a80	0.053263187
58	0x3d377380	0.044787884
59	0xbc038b2c	-0.008028787
60	0xba4f79d9	-0.000791458
61	0x3d1b45aa	0.037908234
62	0xbc7fff0f	-0.015624776
63	0x3af75b1d	0.0018871758

layer_out_2.weight f4 [53, 64]
0	0xbcc6ebeb	-0.024282416
1	0xbd3393e1	-0.0438422
2	0xbd5bccdd	-0.05366217
3	0x3cb3ff52	0.021972332
4	0x3d2cf409	0.042224918
5	0xbcb6d52c	-0.022318445
6	0xbe01b1b4	-0.12665445
7	0x3dab37a6	0.083602235
8	0xbd9255e6	-0.0714529
9	0xbc165416	-0.009175321
10	0x3e33007c	0.17480654
11	0x3d216a02	0.039407738
12	0xbcd3fb91	-0.025876792
13	0xbd79acd7	-0.06095585
14	0x3cc1135f	0.023568807
15	0xbd987218	-0.07443637
16	0xbcefeb91	-0.029287132
17	0x3d3fbc2e	0.04681032
18	0xbc23c6a0	-0.009996086
19	0x3cbc78b3	0.023006773
20	0xbdcb9172	-0.09939851
21	0xbd36a933	-0.044594955
22	0x3e1e5f67	0.1546608
23	0x3c23f583	0.010007265
24	0xbd1e992c	-0.038720295
25	0x3e3f9135	0.18707736
26	0x3dc0225e	0.09381555
27	0x3ce7be71	0.028289052
28	0xbd8a74f8	-0.06760591
29	0xbd1e6563	-0.03867091
30	0xbe059df0	-0.1304853
31	0xbcccdbba	-0.025007118
32	0xbda8a792	-0.082350865
33	0x3e02f5de	0.12789103
34	0xbd981249	-0.074253626
35	0x3dc45992	0.09587397
36	0x3d88afba	0.06674142
37	0x3dd40482	0.10352422
38	0x3dc5685f	0.09639048
39	0xbe138217	-0.14405094
40	0x3dbb363e	0.09141205
41	0xbaf4c5d6	-0.0018674682
42	0xbe0a3c9f	-0.13499688
43	0x3d902576	0.07038395
44	0xbd5b0bd3	-0.053478073
45	0xbce952a9	-0.028481798
46	0xbd93bd43	-0.07213833
47	0x3cbeb166	0.02327795
48	0x3e0667bc	0.13125509
49	0xbd1ab712	-0.037772246
50	0xbde29fc2	-0.11065628
51	0x3d9a4d53	0.0753428
52	0xbe2b2aeb	-0.1671559
53	0x3c909c8d	0.017652774
54	0x3d98f685	0.07468895
55	0xbad09c74	-0.0015915767
56	0x3d28eb8b	0.041240256
57	0x3dbed493	0.09317889
58	0xbd02fcee	-0.031979494
59	0x3e06c91c	0.13162655
60	0x3c1bb11d	0.009502676
61	0xbc7ba128	-0.015358247
62	0xbc8204a5	-0.015871355
63	0xbdca7011	-0.09884656
64	0x3c9390c1	0.01801336
65	0xbb80ac86	-0.0039268164
66	0xbd617c53	-0.055050205
67	0xbd0babef	-0.034099516
68	0x3bf100cd	0.007354832
69	0xbc43b9a9	-0.01194612
70	0xbcc78b12	-0.024358306
71	0x3d45253c	0.048131213
72	0xbd867eae	-0.06567131
73	0xbd812300	-0.06305504
74	0xbc06af59	-0.008220517
75	0x3d66e410	0.05636984
76	0xbdaae218	-0.08343905
77	0xbe038622	-0.12844136
78	0xb90ecc12	-0.00013618197
79	0xbcf5ab25	-0.029988835
80	0x3c165ae8	0.009176947
81	0xbc06d1e7	-0.008228756
82	0x3bdab984	0.006674947
83	0x3db73ab6	0.08946745
84	0xbd3f2633	-0.04666729
85	0xbc31cb2b	-0.010851662
86	0xbbbb0617	-0.005707513
87	0x3d9b8bef	0.075950496
88	0xbd336224	-0.043794766
89	0xbba31f2a	-0.0049780803
90	0x3cbfbe00	0.023406029
91	0x3dafeb06	0.08589749
92	0xbd806f5a	-0.062712386
93	0xbdb9d4ca	-0.090737894
94	0x3bcfa649	0.0063369614
95	0x3d831c0f	0.06401836
96	0x3d915d89	0.070979185
97	0xbd366005	-0.044525165
98	0xbd48c704	-0.04901792
99	0xbe39e385	-0.18153198
100	0x3c1066e8	0.008813597
101	0x3d669c84	0.05630161
102	0x3da009e1	0.07814384
103	0x3cc57f69	0.024108605
104	0xbdd66a39	-0.10469479
105	0x3d2c9e0b	0.04214291
106	0x3d517db1	0.05114526
107	0x3e1320ea	0.14368024
108	0xbd0d6671	-0.034521524
109	0x3db48103	0.088136695
110	0xbd18ae2a	-0.03727547
111	0xbd106a4d	-0.035257626
112	0xbb456724	-0.003012129
113	0x3d3f6a9f	0.04673254
114	0xbd00d753	-0.03145535
115	0xbb35b3cb	-0.0027725573
116	0xbdfbf0c9	-0.123017855
117	0x3d94db52	0.072683945
118	0x3ce8047d	0.028322453
119	0x3d0e60d7	0.034760322
120	0x3d3a4c00	0.045482635
121	0xbceb674f	-0.028735785
122	0x3da8b82b	0.08238252
123	0x3a60179a	0.0008548439
124	0xbcae5f5c	-0.021285705
125	0xbd9d77d3	-0.0768887
126	0x3d9250dc	0.07144329
127	0x3b4b6104	0.0031033168
128	0xbdbc172e	-0.09184109
129	0x3da2e291	0.0795337
130	0xbdbcc95b	-0.09218093
131	0x3d702464	0.058628455
132	0xbc6d5331	-0.014485166
133	0x3da9a5b3	0.08283558
134	0x3dbecbcb	0.09316214
135	0xbcf675c0	-0.030085444
136	0xbc1ed0e5	-0.009693359
137	0x3dbcccb6	0.09218733
138	0x3ddb2d54	0.10702005
139	0x3c8a2c5a	0.016866852
140	0xbd31b27f	-0.043383118
141	0xbdb75bb0	-0.08953035
142	0xbdbde4f7	-0.09272187
143	0xbdaa91eb	-0.08328613
144	0x3dc93626	0.09824781
145	0xbba48614	-0.005020866
146	0xbd18d52d	-0.037312675
147	0xbd9925e1	-0.07477928
148	0x3d1237a8	0.03569761
149	0xbc72a086	-0.01480878
150	0xbd8a85d0	-0.06763804
151	0xbd2220b2	-0.039581962
152	0xbdb12e91	-0.0865146
153	0xbd5906e8	-0.052985102
154	0x3e1d7699	0.15377273
155	0xbd12b249	-0.035814557
156	0x3ddf9a20	0.10918069
157	0x3d67e179	0.05661151
158	0xbd20ee8e	-0.039290003
159	0xbe1a34cd	-0.15059204
160	0x3d7af104	0.061265007
161	0xbddae2f2	-0.10687818
162	0x3c587aa4	0.013212834
163	0x3e3a70c1	0.18207075
164	0xbda45bba	-0.08025308
165	0xbd493c28	-0.049129635
166	0x3dba70ee	0.09103571
167	0x3d4fa857	0.05069765
168	0xbd0e788d	-0.034782935
169	0x3d417ea9	0.047239933
170	0xbdaef6ee	-0.08543192
171	0x3d619922	0.05507768
172	0xba91c04d	-0.0011119932
173	0x3e323832	0.1740425
174	0x3d5d2f30	0.05400008
175	0xbc9cfc3a	-0.01916324
176	0x3df7ace2	0.12093522
177	0x3e193d94	0.14964896
178	0x3c648597	0.013947866
179	0x3da72bb8	0.081626356
180	0xbe0d27e2	-0.13784745
181	0xbd96ff29	-0.07372887
182	0xbd8a4bf5	-0.06752769
183	0xbbaaffc5	-0.0052184784
184	0x3dcefb2f	0.10106503
185	0xbe155b7c	-0.1458568
186	0x3c4953c4	0.012288038
187	0x3cde55ee	0.027140584
188	0xbd9a28d2	-0.07527317
189	0xbe0a34b7	-0.13496672
190	0xbd71afcb	-0.05900554
191	0x3d810344	0.06299451
192	0x3c47a168	0.012184478
193	0x3e0d8c43	0.13823037
194	0xbd4f59c1	-0.050622705
195	0x3c1e8f8b	0.009677778
196	0x3d6606fa	0.056158997
197	0x3d84dceb	0.06487449
198	0x3c178955	0.009249051
199	0xbd150230	-0.03637904
200	0x3c9ff742	0.019527081
201	0x3ce6a95f	0.028156934
202	0xbc9e2fef	-0.019309966
203	0x3b1e7460	0.0024178252
204	0xbc64c1ce	-0.013962222
205	0xbe15469a	-0.14577714
206	0xbda75d1d	-0.08172057
207	0x3d6531b7	0.055955615
208	0x3d65319b	0.05595551
209	0xbcebe127	-0.028793884
210	0xbcd47430	-0.025934309
211	0xbd3a1f21	-0.045439843
212	0xbcdcecdf	-0.026968418
213	0x3bc2d7dc	0.0059461426
214	0x3d85a205	0.065250434
215	0x3db81bb5	0.0898966
216	0xbd641bcb	-0.055690568
217	0x3d376e91	0.04478318
218	0xbb457a49	-0.0030132702
219	0xbd2a221e	-0.041536443
220	0xbc9c65c7	-0.0190915
221	0x3cd7c2f0	0.02633807
222	0x3b859eac	0.004077753
223	0xbdba3a2b	-0.09093126
224	0xbda479cc	-0.080310434
225	0x3d51a737	0.05118486
226	0x3d34cb1b	0.04413901
227	0x3da7a6e1	0.081861265
228	0x3ce222fa	0.027604569
229	0xbd0daa27	-0.034586098
230	0x3d9b5c54	0.075859696
231	0x3d46b12d	0.04850881
232	0xbd90df3f	-0.07073831
233	0xbdd0731b	-0.101782046
234	0xbb58ef79	-0.0033101721
235	0x3db00751	0.085951455
236	0x3d987b9b	0.07445451
237	0xbdc1a263	-0.09454801
238	0x3d4447ca	0.047920026
239	0x3d9dbc4a	0.07701929
240	0x3d4e327d	0.050341118
241	0xbd7e3d68	-0.06207028
242	0xbc0c96f7	-0.008580915
243	0xbc3ce2ef	-0.011528715
244	0xbd9eb282	-0.077488914
245	0x3dd607bc	0.10450694
246	0xbe1df619	-0.1542591
247	0x3da3b4b0	0.07993448
248	0xbd5d2f68	-0.05400029
249	0xbcec0730	-0.028812021
250	0x3d59df7b	0.053191643
251	0x3b45e530	0.003019642
252	0xbd30789a	-0.043083765
253	0x3dd0dffc	0.10198972
254	0xbdcd7a00	-0.10033035
255	0x3d25610f	0.040375765

layer_out_2.bias f4 [53]
0	0x3d4052b5	0.046953876
1	0xbcdf4e66	-0.027259063
2	0xbd12d2b6	-0.03584548
3	0x3bc58450	0.006027736
4	0x3d720d1c	0.059094533
5	0x3d1f34d0	0.038868725
6	0x3dc3d87d	0.09562776
7	0x3d522f36	0.051314555
8	0xbd1014e3	-0.03517617
9	0x3da097b8	0.07841438
10	0xbc7c94b8	-0.015416317
11	0xbcfb94f9	-0.030710684
12	0x3dad6705	0.08466915
13	0x3d196121	0.037446145
14	0x3caf4ad7	0.021397991
15	0xbc88eb96	-0.016713899
16	0x3d4792c9	0.04872397
17	0x3c9fc30e	0.019502189
18	0x3cf507bc	0.029910915
19	0x3d80dd89	0.062922545
20	0xbc69885c	-0.014253702
21	0x3d60024b	0.054689687
22	0x3d6a8a83	0.057261
23	0x3d7e2bca	0.06205348
24	0x3d01fcf3	0.03173537
25	0x3d4c209b	0.049835782
26	0xbb934e99	-0.0044954536
27	0x3c68eeb3	0.014217067
28	0x3d4b59d7	0.049646225
29	0x3d70c7aa	0.058784164
30	0xbceb21cf	-0.028702645
31	0x3c250023	0.010070833
32	0xbb653080	-0.0034971535
33	0x3d830ffd	0.06399534
34	0xbb8b25a2	-0.0042464295
35	0xbc1adcbe	-0.009452043
36	0x3d3606e4	0.044440165
37	0xbd000255	-0.031252224
38	0x3cf05e33	0.029341793
39	0xbcd6c1cf	-0.026215462
40	0x3d8df3d9	0.06931276
41	0xbbd302bc	-0.006439535
42	0xbcafa203	-0.021439558
43	0x3d1a2550	0.03763324
44	0x3dbed062	0.093170896
45	0x3ce42ddd	0.0278539
46	0x3d116dbd	0.035505045
47	0x3cc4bfe8	0.02401729
48	0x3b8481a9	0.004043777
49	0x3d983547	0.07432037
50	0x3d5f93cd	0.054584313
51	0x3d549314	0.051898077
52	0x3c951041	0.018196227

residual_layers.0.layer_norm.weight f4 [64]
0	0x3f80a7da	1.0051224
1	0x3f6050f8	0.8762355
2	0x3f8bc9ff	1.0921019
3	0x3fb92dc0	1.4467087
4	0x3f83dcb6	1.0301731
5	0x3f6fca40	0.93667984
6	0x3f5e0c3c	0.8673742
7	0x3f83a1c0	1.0283737
8	0x3f71df38	0.9448123
9	0x3f706dc8	0.9391751
10	0x3f7196bc	0.9437063
11	0x3f847faa	1.035146
12	0x3f718b5d	0.94353276
13	0x3f7851cf	0.9699983
14	0x3f67c5a8	0.90535975
15	0x3f603251	0.87576777
16	0x3f74f8ae	0.95691955
17	0x3f7683ea	0.96295035
18	0x3f7ed565	0.99544364
19	0x3f725741	0.9466439
20	0x3f8462d8	1.0342665
21	0x3f81b6b4	1.0133882
22	0x3f82dbb2	1.0223296
23	0x3f720851	0.9454394
24	0x3f77ecbf	0.9684562
25	0x3f693016	0.91089
26	0x3f7de712	0.9918071
27	0x3f79b64c	0.9754379
28	0x3f7117d3	0.9417698
29	0x3f717c4e	0.943303
30	0x3f7ec154	0.99513745
31	0x3f80cb55	1.0062052
32	0x3f754014	0.958009
33	0x3f8301ea	1.0234959
34	0x3f8366a7	1.0265702
35	0x3f7c7f73	0.9863197
36	0x3f812ffc	1.0092769
37	0x3f66f396	0.9021543
38	0x3f882d71	1.0638868
39	0x3f7c7a71	0.9862433
40	0x3f7f9789	0.998406
41	0x3f835733	1.0260986
42	0x3f75e6a2	0.9605504
43	0x3f647bfd	0.8925169
44	0x3f70390e	0.9383706
45	0x3f731042	0.9494668
46	0x3f67d63c	0.9056127
47	0x3f81468c	1.0099654
48	0x3f7947f7	0.97375435
49	0x3f6b6c33	0.91961974
50	0x3f641198	0.89089346
51	0x3f935aa6	1.1512039
52	0x3f6dc86b	0.9288394
53	0x3f68b5ef	0.9090261
54	0x3f823e12	1.0175192
55	0x3f722ac2	0.94596493
56	0x3f897b29	1.074071
57	0x3f863f4d	1.0488068
58	0x3f7b7a03	0.9823305
59	0x3f7fb836	0.9989046
60	0x3f763212	0.9617015
61	0x3f771a4d	0.96524507
62	0x3f73309d	0.94996053
63	0x3f7669a0	0.9625492

residual_layers.0.layer_norm.bias f4 [64]
0	0xbc96eff2	-0.018424962
1	0x3ca4c7ed	0.020114863
2	0xbcd75ffc	-0.026290886
3	0x3c414733	0.01179676
4	0xbd172b6e	-0.036906652
5	0xbc71289b	-0.014719154
6	0x3d0d7c05	0.034542102
7	0x3c6eb698	0.014569901
8	0xbbc6d180	-0.006067455
9	0xbc9f6719	-0.01945834
10	0xbc5cec4b	-0.013484071
11	0xb8bfb2de	-9.140906e-05
12	0xbcadcd5d	-0.021216089
13	0x3cdd5786	0.027019273
14	0x3c7f4d87	0.015582449
15	0x395b2f26	0.00020903032
16	0x3b8850d0	0.004160024
17	0x3d7bb8b2	0.061455436
18	0xbd1d7b19	-0.038447473
19	0x3d317c83	0.043331634
20	0xbd1e6eb2	-0.038679786
21	0xbd21713b	-0.039414626
22	0x3d357e00	0.044309616
23	0xbcb37c02	-0.021909717
24	0x3bff18da	0.007784945
25	0x3ca2da7f	0.019879578
26	0xbd0220b3	-0.031769466
27	0xbd4c8b2e	-0.04993742
28	0xbc0db499	-0.008649015
29	0xbb8918f2	-0.004183882
30	0x3ca29e7b	0.01985096
31	0xbbd99b87	-0.0066408548
32	0xbc610ed9	-0.01373645
33	0xbd11b9ef	-0.03557771
34	0xbd4d11ad	-0.050065685
35	0xbc80f4e7	-0.015741779
36	0x3d2bfa44	0.04198672
37	0xbba8cc02	-0.0051512728
38	0x3d1f066d	0.038824487
39	0xbb2589d0	-0.0025259145
40	0xbbd83be9	-0.0065989387
41	0x3cfe3edf	0.031035839
42	0x3c254d74	0.010089267
43	0x3cb7ffaa	0.022460777
44	0xbcd366af	-0.0258058
45	0x3c871c32	0.016492937
46	0x3c444d6b	0.0119813485
47	0x3b8c4773	0.0042809783
48	0x3afa72b9	0.0019107676
49	0x3c130804	0.008974079
50	0x3d2e298c	0.04252009
51	0xbd04e5c9	-0.032445703
52	0x3be2e7d7	0.00692461
53	0xbc98de6e	-0.01866075
54	0x3bda4179	0.006660637
55	0x3b21afb4	0.0024671378
56	0x3c690307	0.014221913
57	0xbd2fc795	-0.042914946
58	0x3baff3d4	0.0053696427
59	0x3c801931	0.015637012
60	0x3d2a28c3	0.04154278
61	0x3d54753b	0.051869612
62	0x3d1226b0	0.035681427
63	0xbce2e04f	-0.02769485
