results/DDPM/NUM_LAYERS_TRANSFORMER/4/model_final.pth (torch, 521195 bytes, 62 tensors)

layer_x.weight f4 [64, 53]
0.023185005 -0.07654367 -0.08917519 -0.057284504 -0.10412133 -0.087942116 -0.033064086 -0.096356496
-0.15174137 -0.0006600887 -0.06400792 -0.09141763 -0.06041721 -0.04749513 -0.08671383 -0.25512108
-0.040341847 -0.07283347 -0.060841057 -0.11316558 -0.046771634 -0.07494485 -0.075746164 -0.07572698
-0.06788225 -0.06489191 -0.07828805 -0.06339554 -0.070775405 -0.124573715 -0.09081086 -0.11670895
-0.042369246 -0.0774125 -0.0512823 -0.09167932 -0.05464305 -0.0854925 -0.083352074 -0.11654263
-0.052816156 -0.1836123 -0.13953951 -0.09794254 -0.13495412 -0.07202951 -0.099973395 0.039252292
-0.015459506 -0.09110457 -0.09194408 -0.12791508 -0.09559052 0.03182915 -0.0072880485 0.087295875
0.030301746 0.009436037 0.046035353 -0.10437814 -0.023862043 -0.050148945 -0.03978923 -0.0047405083
-0.034292802 -0.031812184 0.06869933 -0.0040642777 0.05405191 -0.16835396 -0.026247935 -0.002255274
0.022932407 -0.044130083 -0.09461131 -0.046601728 0.03551619 0.11922076 -0.15619464 0.031008584
-0.03723932 -0.053215403 -0.1136277 0.17457685 -0.015780244 0.077905744 -0.007866445 0.047227796
-0.14753315 -0.15612018 0.06742158 0.0077005476 0.08195887 0.008978114 0.023768341 -0.1750277
-0.20142059 0.05591164 -0.17202367 -0.18463643 0.15355115 -0.05349394 0.05396635 -0.012981452
-0.02273052 0.040877007 -0.16630393 -0.042324726 -0.15843906 0.026278323 -0.004975112 -0.055286366
-0.09791694 -0.118654944 -0.13500074 0.3711222 -0.053938374 0.011868114 0.020941371 0.12628593
3.296195e-05 -0.038950298 0.05075768 -0.05493764 0.1774834 0.08662075 -0.025180984 -0.033693187
-0.027017534 -0.014677626 -0.022845225 -0.020003565 -0.040759645 -0.16980965 -0.012942487 0.045952883
-0.094973385 0.14988002 -0.013294681 -0.06723516 -0.048470587 -0.0193291 -0.01125048 -0.14607452
-0.12974036 0.06795881 -0.1166319 -0.10579514 -0.066707335 0.033312596 -0.014569102 -0.026471214
-0.05405165 0.02165551 -0.05174916 0.056002114 -0.038913485 -0.12601656 -0.0068027964 0.032543406
0.035266038 0.041292366 0.048965108 0.048961736 -0.013113036 0.29828978 0.013527987 -0.036052268
0.0844077 0.047389425 0.011387396 0.016537216 -0.015237859 -0.021152157 0.10851707 0.08323341
0.015342523 -0.041151408 0.048062786 -0.0141936 -0.0010907185 0.03458199 0.051368337 0.035833813
0.13192299 0.033038285 0.06727519 0.044826854 -0.0022087474 0.017456487 -0.008165054 0.1336536
0.060739417 0.021002633 -0.036532804 0.056643248 0.019233743 0.0507567 0.06005735 -0.026235273
-0.025990725 -0.08311443 0.030573936 0.030312555 0.02024725 -0.05027072 0.4068415 0.2252425
0.027237026 0.020608317 -0.006961223 -0.05646766 0.03663458 -0.009341224 -0.061150547 0.02163637
0.03462251 0.08179858 0.025430473 -0.020528361 0.17545871 -0.15464717 0.055750974 -0.1231806
0.06860087 -0.15728597 -0.06756962 0.16910632 0.06287727 0.053507663 -0.050846677 -0.047272764
-0.01926126 0.053012792 -0.041876666 -0.08366433 -0.050138198 -0.11609535 -0.06915771 -0.075599186
-0.037174776 0.06609802 -0.1664856 -0.06087865 -0.12604165 -0.07898107 0.03898253 0.048949502
0.09073308 -0.07359187 0.050284658 0.018447071 -0.17552823 -0.014557165 -0.087691545 -0.04672179
00000000: 7bee bd3c edc2 9cbd 7ba1 b6bd 28a3 6abd
00000010: 903d d5bd ff1a b4bd 356e 07bd 8e56 c5bd
00000020: 1762 1bbe ce09 2dba 9616 83bd 2b39 bbbd
00000030: 0978 77bd 418a 42bd 0597 b1bd 3b9f 82be
00000040: 7e3d 25bd b729 95bd 7934 79bd 5bc3 e7bd
00000050: 9d93 3fbd af7c 99bd ce20 9bbd bf16 9bbd
00000060: d905 8bbd 0de6 84bd 7c55 a0bd 85d5 81bd
00000070: b2f2 90bd 8120 ffbd 0bfb b9bd 1a05 efbd
00000080: 608b 2dbd 728a 9ebd 640d 52bd 5ec2 bbbd
00000090: 64d1 5fbd b116 afbd 7eb4 aabd e7ad eebd
000000a0: c155 58bd dd04 3cbe 72e3 0ebe 1996 c8bd
000000b0: 6a31 0abe 3584 93bd dabe ccbd 03c7 203d
000000c0: de49 7dbc 0895 babd 2e4d bcbd 2cfc 02be
000000d0: f6c4 c3bd 485f 023d 95d0 eebb 2ec8 b23d
000000e0: 5e3b f83c 9c99 1a3c 918f 3c3d 35c4 d5bd
000000f0: 557a c3bc fb68 4dbd 08fa 22bd 4456 9bbb
00000100: 9c76 0cbd 7e4d 02bd 3cb2 8c3d a22d 85bb
00000110: 8965 5d3d fb64 2cbe e905 d7bc 38cd 13bb
00000120: bedc bb3c bfc1 34bd 93c3 c1bd 74e1 3ebd
00000130: 6d79 113d 042a f43d 7df1 1fbe b705 fe3c
00000140: 4288 18bd 65f8 59bd a4b5 e8bd 46c4 323e
00000150: 9245 81bc 0c8d 9f3d 43e2 00bc ef71 413d
00000160: ee12 17be f8dd 1fbe 5314 8a3d e054 fc3b
00000170: 0dda a73d f118 133c d3b5 c23c 763a 33be
00000180: 3341 4ebe 9b03 653d f926 30be 5511 3dbe
00000190: 833c 1d3e 761c 5bbd d20b 5d3d 28b0 54bc
000001a0: 5b35 babc a66e 273d 944b 2abe b15c 2dbd
000001b0: d93d 22be a345 d73c 4406 a3bb f573 62bd
000001c0: ad88 c8bd 5d01 f3bd a23d 0abe bb03 be3e
000001d0: 7cee 5cbd 7a72 423c 3d8d ab3c 1951 013e
000001e0: a040 0a38 598a 1fbd 49e7 4f3d 4a06 61bd
000001f0: 35be 353e 3866 b13d 5a48 cebc de01 0abd
00000200: e053 ddbc 6d7a 70bc e925 bbbc 84de a3bc
00000210: 96f3 26bd 95e2 2dbe ba0c 54bc 1739 3c3d
00000220: 6881 c2bd 267a 193e efd1 59bc 96b2 89bd
00000230: 1889 46bd 1058 9ebc ef53 38bc 8f94 15be
00000240: a8da 04be fd2d 8b3d b5dc eebd 1fab d8bd
00000250: db9d 88bd ca72 083d 3eb3 6ebc 29da d8bc
00000260: 4365 5dbd e566 b13c edf6 53bd 7962 653d
00000270: bf63 1fbd 7c0a 01be fee9 debb 3c4c 053d
00000280: 1f73 103d 2f22 293d a38f 483d 1a8c 483d
00000290: 0fd8 56bc 70b9 983e 7da4 5d3c 8bab 13bd
000002a0: f2dd ac3d 6a1b 423d 3392 3a3c 0e79 873c
000002b0: 37a8 79bc 4a47 adbc 333e de3d 4776 aa3d
000002c0: 355f 7b3c 618e 28bd 7cdd 443d 468c 68bc
000002d0: 71f6 8eba d8a5 0d3d 9b67 523d 7ac6 123d
000002e0: d216 073e 2753 073d 93c7 893d 5d9c 373d
000002f0: a2c0 10bb e800 8f3c b8c6 05bc 7ddc 083e
00000300: e5c9 783d b70d ac3c 6ca3 15bd c002 683d
00000310: 1590 9d3c 42e6 4f3d b2fe 753d 5beb d6bc
00000320: 80ea d4bc e637 aabd 3176 fa3c 0952 f83c
00000330: 90dd a53c ace8 4dbd 874d d03e f8a5 663e
00000340: 2f20 df3c c6d2 a83c f91a e4bb a24a 67bd
00000350: 240e 163d ef0b 19bc ff78 7abd c23e b13c
00000360: 55d0 0d3d 0486 a73d 9153 d03c 182b a8bc
00000370: 73ab 333e d45b 1ebe 225b 643d 1c46 fcbd
00000380: 9d7e 8c3d 930f 21be f161 8abd 352a 2d3e
00000390: ccc5 803d da2a 5b3d 9b44 50bd 16a1 41bd
000003a0: cac9 9dbc f123 593d de86 2bbd 3458 abbd
000003b0: b65d 4dbd 66c3 edbd 8fa2 8dbd bfd3 9abd
000003c0: 9444 18bd 665e 873d 337b 2abe e45b 79bd
000003d0: 1011 01be d4c0 a1bd 25ac 1f3d 467f 483d
000003e0: 44d2 b93d 56b7 96bd 49f7 4d3d 501e 973c
000003f0: acbd 33be 2d81 6ebc a097 b3bd 595f 3fbd

layer_x.bias f4 [64]
0.32309255 0.1796538 0.01705526 0.30394474 0.047308583 0.17826672 -0.023816798 -0.054760467
0.047829833 0.32549328 0.27532858 0.13651995 0.008410204 0.20712587 0.24656793 0.35184297
0.06147649 0.040265225 0.14727286 0.06857199 0.19433863 0.17362554 0.2877862 0.2258018
0.16190696 0.1884229 0.16058898 0.09140108 -0.021418704 0.09392054 0.1583686 0.38481626
0.16908728 0.109392814 0.18679589 0.39791894 0.16756088 0.18818411 0.22383101 0.110687606
0.032491617 0.10688741 0.32255846 0.20501284 0.051612988 0.12724183 0.08372148 0.27053234
0.22336958 0.27753764 0.09045399 0.28847894 0.22101212 0.24693546 0.11313528 0.10915699
0.26329798 0.2272647 0.04867751 0.21780916 0.055928104 0.042475756 0.1613859 0.2411796
00000000: 636c a53e 2af7 373e 79b7 8b3c a59e 9b3e
00000010: a5c6 413d 8d8b 363e 721b c3bc 834c 60bd
00000020: 37e9 433d 0ea7 a63e def7 8c3e e3cb 0b3e
00000030: f4ca 093c ce18 543e 4e7c 7c3e c324 b43e
00000040: c6ce 7b3d 26ed 243d b2ce 163e 796f 8c3d
00000050: b500 473e e5ca 313e b658 933e 9638 673e
00000060: f0ca 253e eff1 403e 7071 243e 7d30 bb3d
00000070: 4776 afbc 6959 c03d 612b 223e a306 c53e
00000080: 3725 2d3e 5709 e03d 6c47 3f3e 08bc cb3e
00000090: 1495 2b3e 56b3 403e f533 653e 2fb0 e23d
000000a0: ee15 053d c9e7 da3d 6226 a53e e3ee 513e
000000b0: 2468 533d af4b 023e 2b76 ab3d 3783 8a3e
000000c0: ffba 643e 6a19 8e3e f13f b93d 83b3 933e
000000d0: 0051 623e a6dc 7c3e 78b3 e73d b38d df3d
000000e0: fece 863e 14b8 683e 1262 473d 5d09 5f3e
000000f0: de14 653d 0ffb 2d3d 5842 253e c9f7 763e

layer_t_1.weight f4 [64, 64]
-0.022195848 0.036825623 0.15989861 -0.22194439 0.16634835 0.054049585 -0.18161066 0.098139085
0.13081057 -0.091119975 0.02449003 -0.039563157 0.06459938 -0.10974368 -0.060855005 0.29019052
0.14231658 0.07196137 0.059206687 -0.22868496 -0.19969682 0.2860185 0.13121419 0.05746995
0.09713615 -0.25727847 0.078619935 0.009577026 -0.01477501 -0.11322346 0.113702 0.07980936
-0.048212625 -0.09114725 0.19490862 -0.13339026 -0.07444668 -0.18639329 -0.027652314 -0.26109818
0.26630524 0.16023356 0.14968815 -0.088116616 0.2736033 -0.29199442 0.101188816 -0.045813598
0.18168154 0.1572891 -0.15778343 0.2101134 -0.08489047 0.23209782 -0.008189305 0.12860636
0.024519153 -0.1067651 -0.29498076 -0.13949676 0.21764667 -0.21735005 0.2229672 -0.11541702
-0.20912448 0.101824984 0.032860458 0.032086257 -0.032694876 0.28593713 -0.07813066 -0.27140608
-0.1597364 0.24028133 -0.059818562 -0.20281078 -0.1849479 0.0018312372 0.20848969 -0.11037594
-0.22017047 -0.014235766 -0.08035469 -0.29938328 0.19727226 -0.06560849 -0.0358491 -0.13122775
0.09645448 0.23893163 -0.21008328 -0.0008159044 -0.21193509 -0.17116295 0.016687106 -0.023814598
0.114940375 0.032304093 -0.028870424 0.045501042 -0.02096097 -0.0027848189 -0.062971465 0.11827263
0.030019019 -0.08084944 0.082346946 -0.13046257 -0.1043789 0.24097179 -0.14620693 0.13481267
-0.12258888 -0.08561673 0.16459101 0.28507116 0.053922515 -0.23048961 0.060621228 0.045786258
0.12215119 -0.24319775 0.037199937 -0.18446156 0.08245337 0.11283131 -0.15952076 0.19181782
0.08863875 0.072874546 -0.1170462 0.14101377 -0.055419605 0.07258939 -0.093878515 -0.060503293
0.10020052 -0.17406662 -0.05220786 0.12919451 -0.029088827 0.01760263 0.01760183 0.13028988
-0.0374978 0.0323694 -0.05530932 0.28230825 -0.15174605 0.017531473 -0.2086991 -0.18017812
-0.06913725 0.15511236 -0.18457983 -0.10484459 0.11808375 -0.021679115 -0.07363725 -0.018384198
0.009306739 -0.101788364 -0.17103228 0.10693398 -0.087238275 -0.21326633 -0.09651343 -0.11263506
-0.14693366 -0.04402134 0.02986063 0.06610166 0.06095157 -0.083697245 0.10354928 -0.1746002
-0.14265363 0.0065167695 -0.063131325 0.01469868 -0.023110151 -0.09933274 -0.021480978 -0.039042737
0.106454514 -0.036968492 -0.055343635 -0.077628955 0.045837656 -0.025832329 0.024827154 0.06182706
0.08326413 -0.059911024 -0.10468434 0.005831292 -0.06258001 0.0664131 -0.14842488 -0.01016324
-0.09618491 -0.008988782 -0.12043712 0.07120592 0.018025434 0.18851201 -0.14508569 -0.078837745
0.17459926 0.13395132 -0.042504482 -0.26046425 0.063052714 -0.14528474 0.06409688 0.083950505
0.05831385 0.07759518 -0.14933327 0.078063875 -0.08312763 0.1979274 0.10327742 0.04750848
-0.046420183 0.069760256 -0.07707774 0.14569147 0.18987605 0.12670878 0.1439602 0.07679888
0.07818552 -0.09252039 0.1201383 0.076968275 0.03360896 -0.08653158 0.11915657 0.06742984
-0.02630805 0.026688602 -0.07099218 0.19353929 -0.0739976 0.1614632 -0.023907637 -0.065965496
-0.12620132 -0.03215834 -0.011129693 -0.12951347 -0.03663256 0.02421613 -0.0781054 0.0008068274
00000000: 11d4 b5bc 77d6 163d 76bc 233e 6445 63be
00000010: 3957 2a3e 1963 5d3d 25f8 39be 25fd c83d
00000020: 35f3 053e 1c9d babd 519f c83c fa0c 22bd
00000030: ae4c 843d 4bc1 e0bd 1943 79bd da93 943e
00000040: 70bb 113e 7c60 933d b682 723d 642c 6abe
00000050: 537d 4cbe 0471 923e 035d 063e 9c65 6b3d
00000060: 51ef c63d 01ba 83be 7d03 a13d f5e8 1c3c
00000070: e212 72bc b4e1 e7bd 98dc e83d 1773 a33d
00000080: 9a7a 45bd 69ab babd 2096 473e 7597 08be
00000090: 8077 98bd e2dd 3ebe 1b87 e2bc a9ae 85be
000000a0: 2959 883e 4414 243e da47 193e 7c76 b4bd
000000b0: bb15 8c3e 4b80 95be 153c cf3d 0aa7 3bbd
000000c0: ba0a 3a3e 6510 213e fb91 21be f827 573e
000000d0: 0edb adbd 0dab 6d3e 6f2c 06bc 63b1 033e
000000e0: 64dc c83c a9a7 dabd b807 97be 3dd8 0ebe
000000f0: c5de 5e3e 0391 5ebe 8451 643e c25f ecbd
00000100: ba24 56be 9e89 d03d b098 063d e16c 033d
00000110: 10eb 05bd 5a66 923e f802 a0bd bdf5 8abe
00000120: f091 23be 4f0c 763e 4f04 75bd a1ad 4fbe
00000130: fb62 3dbe 2006 f03a 527e 553e c80c e2bd
00000140: 5e74 61be 213d 69bc 0091 a4bd c448 99be
00000150: bd01 4a3e be5d 86bd 82d6 12bd 9160 06be
00000160: ed89 c53d 7eaa 743e 1220 57be 6be2 55ba
00000170: 8305 59be 5745 2fbe 66b3 883c d516 c3bc
00000180: dc65 eb3d 4c51 043d ab81 ecbc 4d5f 3a3d
00000190: 57b6 abbc 8281 36bb 2ff7 80bd ec38 f23d
000001a0: 72ea f53c 6494 a5bd 84a5 a83d fb97 05be
000001b0: 9bc4 d5bd 4fc1 763e 45b7 15be 550c 0a3e
000001c0: e10f fbbd d357 afbd 8c8a 283e d9f4 913e
000001d0: dbdd 5c3d 7805 6cbe f74d 783d 5f8a 3b3d
000001e0: 672a fa3d d508 79be f65e 183d 7ee3 3cbe
000001f0: 50dd a83d 1a14 e73d 6959 23be e46b 443e
00000200: 3c88 b53d 403f 953d ebb5 efbd ea65 103e
00000210: abff 62bd bfa9 943d 6143 c0bd 4dd2 77bd
00000220: ee35 cd3d 853e 32be e9d7 55bd 914b 043e
00000230: b14b eebc 6433 903c b731 903c b66a 053e
00000240: 4b97 19bd c795 043d 078c 62bd b58a 903e
00000250: 5163 1bbe 2a9e 8f3c 38b5 55be 9d80 38be
00000260: d597 8dbd c6d5 1e3e 7f02 3dbe c3b8 d6bd
00000270: e5d5 f13d 6698 b1bc 20cf 96bd 759a 96bc
00000280: 4b7b 183c 6b76 d0bd 1623 2fbe 3400 db3d
00000290: fba9 b2bd 7d62 5abe d5a8 c5bd 36ad e6bd
000002a0: c775 16be b84f 34bd 489e f43c 4f60 873d
000002b0: 5aa8 793d 7669 abbd a511 d43d 65ca 32be
000002c0: cb13 12be a08a d53b ff4a 81bd bbd2 703c
000002d0: 8051 bdbc f76e cbbd e0f8 afbc 47eb 1fbd
000002e0: d304 da3d 466c 17bd 02b0 62bd eefb 9ebd
000002f0: 44c0 3b3d 529e d3bc 5162 cb3c 5f3e 7d3d
00000300: 6286 aa3d 4365 75bd be64 d6bd 6c14 bf3b
00000310: f329 80bd 9703 883d b1fc 17be b883 26bc
00000320: 98fc c4bd af45 13bc bda7 f6bd 69d4 913d
00000330: 13aa 933c 4b09 413e 5891 14be af75 a1bd
00000340: 26ca 323e 892a 093e 2e19 2ebd 925b 85be
00000350: c821 813d 86c5 14be 3a45 833d 3eee ab3d
00000360: 81da 6e3d 39ea 9e3d d2ea 18be f4df 9f3d
00000370: d23e aabd 7bad 4a3e 1d83 d33d 4098 423d
00000380: 1723 3ebd 77de 8e3d efda 9dbd 2530 153e
00000390: de6e 423e f2bf 013e 4d6a 133e bb48 9d3d
000003a0: bb1f a03d 557b bdbd 120b f63d 8ba1 9d3d
000003b0: 8da9 093d 7837 b1bd 5c08 f43d a818 8a3d
000003c0: fb83 d7bc 0ea2 da3c 5964 91bd 2a2f 463e
000003d0: 0e8c 97bd 9c56 253e f3d9 c3bc eb18 87bd
000003e0: eb3a 01be 77b8 03bd 5159 36bc 2e9f 04be
000003f0: 060c 16bd e860 c63c b9f5 9fbd 4581 533a

layer_t_1.bias f4 [64]
-0.08532473 -0.08725457 0.10303038 0.017965123 0.0067053423 -0.14943877 -0.003219992 -0.07479846
0.024073359 -0.13316227 -0.028338932 -0.09864784 -0.06894906 -0.08239559 -0.072436124 0.06364325
-0.03236322 -0.03167974 -0.15412553 -0.012457394 -0.080591604 0.03232575 -0.051324382 0.036809906
0.03749187 0.011627522 0.11652416 -0.0678527 0.12172508 0.07454848 -0.0070556346 0.013432251
-0.02688378 0.009115331 -0.07350741 0.09636172 0.011235971 -0.07149533 0.08778578 0.051577393
-0.004502174 0.0044053714 -0.08175008 -0.10596154 0.08660473 -0.08652627 -0.027839152 0.030931339
0.10871576 0.127531 -0.1363659 0.07251529 -0.16316119 -0.10092715 0.051486827 0.1278502
-0.03830495 -0.033235647 -0.040340174 -0.0064761266 0.04049442 -0.03985862 -0.01895566 -0.14633282
00000000: bbbe aebd 86b2 b2bd 9801 d33d 982b 933c
00000010: 7db8 db3b 7a06 19be 8006 53bb ef2f 99bd
00000020: 7e35 c53c b15b 08be 0c27 e8bc e107 cabd
00000030: 2a35 8dbd 05bf a8bd 6459 94bd 6457 823d
00000040: 4c8f 04bd 9dc2 01bd 15d3 1dbe 191a 4cbc
00000050: 360d a5bd 0168 043d 8439 52bd fcc5 163d
00000060: 1391 193d 5d81 3e3c 38a4 ee3d 5bf6 8abd
00000070: 004b f93d e0ac 983d f432 e7bb f212 5c3c
00000080: 5f3b dcbc 7858 153c 0e8b 96bd 4b59 c53d
00000090: 1417 383c 256c 92bd 08c9 b33d d142 533d
000000a0: f986 93bb ef5a 903b 966c a7bd 5d02 d9bd
000000b0: d25d b13d af34 b1bd ef0e e4bc b863 fd3c
000000c0: 5ea6 de3d 7d97 023e 81a3 0bbe e582 943d
000000d0: ba13 27be e5b2 cebd dae3 523d 2aeb 023e
000000e0: a7e5 1cbd 1a22 08bd bd3b 25bd b035 d4bb
000000f0: 7add 253d cb42 23bd e648 9bbc 45d8 15be

layer_t_2.weight f4 [64, 64]
-0.17954217 -0.1731654 -0.038528 -0.0022988375 0.08685868 0.15982635 0.10667516 0.050315637
-0.05185587 -0.110304065 0.042694516 0.092291795 0.26378745 -0.106198065 -0.1084844 0.010395295
-0.123464845 -0.075456634 -0.1374451 0.06921962 0.025602503 0.1341685 -0.1661482 0.105699725
-0.09628165 -0.098929495 0.13527076 0.108005285 -0.16957311 -0.16787174 -0.05670387 0.005767698
0.0074442243 -0.0645535 0.11807506 -0.0257466 0.16214685 0.13708101 -0.02984578 0.20722124
0.23327246 0.09555424 0.022580886 -0.10805907 -0.005836643 0.19123253 0.0045544873 0.11786362
0.19563054 -0.027675759 -0.063922845 0.18425307 -0.17996979 -0.042557433 0.23022208 0.13648835
0.18001357 -0.15222152 -0.10165551 -0.06647075 -0.06616088 0.11072041 0.08556108 -0.043806747
-0.043865748 0.130602 -0.11291103 0.08114925 -0.05370124 -0.07034756 0.021591801 0.037768032
0.049578216 0.06407341 0.030734636 -0.008090879 -0.009873091 0.05295315 0.077939704 0.03547868
0.08066672 -0.07474383 -0.09484356 -0.029457312 0.021487363 -0.015219318 -0.0501612 -0.07191975
-0.142854 -0.08355016 0.0197785 0.025492711 0.023592787 -0.039542504 -0.03857368 0.11055327
-0.025811993 -0.051767185 -0.06834302 -0.08701158 0.038106438 -0.004943352 -0.05986537 -0.13518076
-0.032080997 -0.08139994 -0.14324647 0.03663516 -0.08784055 -0.101289146 0.045403697 0.04976093
-0.042714052 0.03718873 0.06907679 -0.011678161 0.06746984 0.1130858 0.0052022226 -0.05303054
0.06641476 0.085849494 0.10195699 0.07308307 0.024962887 0.0045357062 -0.04385165 -0.020560762
0.24162826 0.11171967 0.019456811 0.13224445 -0.043252196 -0.074681655 0.0063969023 -0.00082334876
-0.018862285 0.18515335 -0.005855369 0.032786228 -0.14826621 0.07755978 0.18185987 0.16452745
0.11333135 0.07116579 -0.075788826 -0.047613576 0.025502894 0.01029334 0.22328056 -0.062647365
0.0133992005 0.045949582 0.19539174 -0.00087161444 0.08585835 0.18964203 -0.07474509 0.108563006
0.09573491 0.0348008 -0.021625921 0.08716823 0.042798333 0.09923149 0.13142908 0.043802135
-0.15508926 0.01675256 -0.024469996 -0.04993205 0.058803637 0.033216078 -0.0069106007 0.06490712
-0.07056197 0.15924047 0.15504283 -0.12892443 0.067067005 0.011626839 -0.088645495 0.016966883
-0.007670426 0.11863774 0.14525172 0.020599859 0.17668454 -0.07092073 -0.07745148 0.023157405
-0.13547525 -0.015909638 0.017579297 0.0018916039 -0.046616055 0.11585018 0.11970001 -0.038895465
0.0028616393 -0.081133865 0.008620538 0.11097385 0.15037842 0.022383636 -0.1725049 -0.06810548
0.11241358 0.009094083 0.0039024728 -0.03427959 -0.0014845761 -0.012892996 -0.2653051 0.04805384
-0.08766833 -0.19424765 0.1391447 0.06563925 -0.054847833 0.0013480036 -0.01524459 -0.047656223
-0.054407377 0.004218259 0.1187675 -0.028771399 0.009116856 0.17105502 -0.14450763 0.08783692
0.11021412 -0.063189544 0.072152585 -0.107450955 -0.08365578 0.06638923 -0.060230248 -0.0044418606
0.012257869 0.023220524 -0.17504446 0.12601529 0.0016359419 -0.04702154 0.07506529 -0.09412332
0.06930437 -0.13499485 -0.14886986 -0.022635387 -0.0903082 0.18660153 -0.08517106 -0.11913899
00000000: e7d9 37be 4552 31be 89cf 1dbd 18a8 16bb
00000010: f7e2 b13d 85a9 233e 8278 da3d c517 4e3d
00000020: d266 54bd 19e7 e1bd 72e0 2e3d 7b03 bd3d
00000030: 260f 873e 5f7e d9bd 122d debd 0751 2a3c
00000040: 23db fcbd 0289 9abd 69be 0cbe 04c3 8d3d
00000050: 57bc d13c 7863 093e c122 2abe 1979 d83d
00000060: 502f c5bd 8c9b cabd 6b84 0a3e e031 dd3d
00000070: 93a4 2dbe 92e6 2bbe 5142 68bd f5fe bc3b
00000080: aeee f33b a034 84bd 56d1 f13d 89ea d2bc
00000090: d309 263e f75e 0c3e 237f f4bc ce31 543e
000000a0: fade 6e3e f1b1 c33d 8dfb b83c 134e ddbd
000000b0: 4f41 bfbb 76d2 433e cf3d 953b 7b62 f13d
000000c0: 5f53 483e 46b8 e2bc fbe9 82bd d6ac 3c3e
000000d0: 004a 38be b450 2ebd 56bf 6b3e 9ac3 0b3e
000000e0: 7a55 383e f5df 1bbe c430 d0bd d121 88bd
000000f0: 5b7f 87bd 62c1 e23d a63a af3d b46e 33bd
00000100: 92ac 33bd 88bc 053e e63d e7bd 9431 a63d
00000110: d5f5 5bbd 6212 90bd 4ae1 b03c a7b2 1a3d
00000120: 8712 4b3d ec38 833d 34c7 fb3c 9b8f 04bc
00000130: bfc2 21bc 67e5 583d da9e 9f3d 1852 113d
00000140: 9834 a53d 4b13 99bd 573d c2bd 7650 f1bc
00000150: 4406 b03c 725a 79bc d575 4dbd a94a 93bd
00000160: 5248 12be 591c abbd 8506 a23c 17d6 d03c
00000170: a945 c13c 52f7 21bd 6fff 1dbd c169 e23d
00000180: ac73 d3bc d409 54bd 6df7 8bbd 2133 b2bd
00000190: 7f15 1c3d d8fb a1bb 6435 75bd d36c 0abe
000001a0: 5d67 03bd 03b5 a6bd 34af 12be c00e 163d
000001b0: bfe5 b3bd af70 cfbd 3af9 393d 1ed2 4b3d
000001c0: eef4 2ebd 3653 183d 2278 8d3d c255 3fbc
000001d0: a12d 8a3d 8799 e73d 6877 aa3b 8d36 59bd
000001e0: 7604 883d dcd1 af3d d4ce d03d 94ac 953d
000001f0: f87e cc3c 43a0 943b ca9d 33bd 0b6f a8bc
00000200: 666d 773e 48cd e43d e463 9f3c 176b 073e
00000210: 3729 31bd b2f2 98bd 1b9d d13b 00d6 57ba
00000220: 1485 9abc d798 3d3e 65de bfbb da4a 063d
00000230: 19d3 17be a9d7 9e3d 7939 3a3e e279 283e
00000240: 441a e83d 5fbf 913d 2c37 9bbd 7406 43bd
00000250: 72eb d03c 66a5 283c a9a3 643e 434d 80bd
00000260: 5288 5b3c a135 3c3d c614 483e 0e7d 64ba
00000270: 81d6 af3d 8531 423e f413 99bd 4856 de3d
00000280: aa10 c43d 498b 0e3d d828 b1bc 4285 b23d
00000290: 4e4d 2f3d e139 cb3d 5895 063e de69 333d
000002a0: b8cf 1ebe aa3c 893c 4d75 c8bc 8d85 4cbd
000002b0: 15dc 703d 950d 083d 5272 e2bb 06ee 843d
000002c0: cb82 90bd ef0f 233e 8cc3 1e3e c404 04be
000002d0: 6d5a 893d 7f7e 3e3c c58b b5bd 22fe 8a3c
000002e0: 3258 fbbb 58f8 f23d debc 143e 09c1 a83c
000002f0: cbec 343e e33e 91bd e29e 9ebd 99b4 bd3c
00000300: 06ba 0abe ee54 82bc 7502 903c b2ef f73a
00000310: 7af0 3ebd dc42 ed3d 4725 f53d da50 1fbd
00000320: 578a 3b3b 8329 a6bd 283d 0d3c 4246 e33d
00000330: cdfc 193e e35d b73c 20a5 30be e37a 8bbd
00000340: 1739 e63d 59ff 143c a1c0 7f3b c168 0cbd
00000350: 1c96 c2ba 253d 53bc 12d6 87be 1ad4 443d
00000360: 748b b3bd dbe8 46be f37b 0e3e df6d 863d
00000370: 1fa8 60bd 7faf b03a 72c4 79bc 2c33 43bd
00000380: 45da 5ebd 5239 8a3b 603c f33d ffb1 ebbc
00000390: de5e 153c 0c29 2f3e cff9 13be d8e3 b33d
000003a0: f1b7 e13d 8569 81bd bcc4 933d 3f0f dcbd
000003b0: b953 abbd 14f7 873d feb3 76bd 078d 91bb
000003c0: 3bd5 483c f838 be3c db3e 33be 270a 013e
000003d0: 1a6d d63a a999 40bd d5bb 993d bac3 c0bd
000003e0: 73ef 8d3d 173c 0abe 5771 18be d96d b9bc
000003f0: 81f3 b8bd 7914 3f3e 2a6e aebd 25ff f3bd

layer_t_2.bias f4 [64]
0.06970466 -0.047863226 -0.08423481 0.10548947 -0.048137084 0.05655393 0.077624954 0.0006291746
-0.0791446 -0.025628548 -0.13343659 -0.11916349 -0.013621627 -0.09942052 -0.08799078 -0.061048135
-0.14290033 0.13054009 0.06736532 -0.013239795 -0.09448817 0.06629204 -0.01097719 0.06986233
-0.06791791 0.047872778 -0.10260835 0.061216448 0.12309196 -0.02754994 -0.0061629987 -0.07562894
-0.03614434 -0.09853237 0.068311304 0.002314733 -0.14965686 0.109634146 0.043328624 -0.076696984
0.10371456 0.04795345 -0.1338531 -0.10616932 0.020035433 0.013220676 -0.002360809 0.069608785
-0.13219026 -0.12749857 -0.024681631 0.032124866 0.05961487 -0.10266693 0.02689275 -0.08661517
0.0061920937 0.079836465 0.009677266 -0.08996462 -0.16454726 -0.054297984 -0.06260708 -0.030188588
00000000: 51c1 8e3d 3b0c 44bd 4d83 acbd dd0a d83d
00000010: 642b 45bd 18a5 673d d5f9 9e3d 31ef 243a
00000020: 9016 a2bd f6f2 d1bc 9aa3 08be fd0b f4bd
00000030: 3f2d 5fbc fc9c cbbd 8334 b4bd 9c0d 7abd
00000040: 7754 12be 4dac 053e d4f6 893d baeb 58bc
00000050: 0483 c1bd 1fc4 873d acd9 33bc fb13 8f3d
00000060: 8c18 8bbd 3f16 443d 5424 d2bd 19be 7a3d
00000070: a317 fc3d 69b0 e1bc fbf2 c9bb 58e3 9abd
00000080: 160c 14bd 57cb c9bd cce6 8b3d c7b2 173b
00000090: a63f 19be de87 e03d 5b79 313d 4f13 9dbd
000000a0: 4d68 d43d d66a 443d c910 09be 4d6f d9bd
000000b0: 5921 a43c 899b 583c cdb7 1abb 0d8f 8e3d
000000c0: e25c 07be fc8e 02be 2231 cabc 5d95 033d
000000d0: b92e 743d 0a43 d2bd 2f4e dc3c 4b63 b1bd
000000e0: 0ce7 ca3b 4d81 a33d 658d 1e3c 5f3f b8bd
000000f0: 147f 28be 9067 5ebd 2438 80bd 0f4e f7bc

layer_out_1.weight f4 [64, 64]
0.08913795 0.058491148 -0.026079508 -0.02929127 0.103637844 0.04307118 -0.044402756 0.03372504
0.11388014 -0.0069788443 0.017731307 -0.043496672 0.13269699 -0.048427384 -0.08703202 0.121847846
0.09854804 -0.048146434 0.04622485 0.038288716 -0.032715518 0.0067803995 -0.06331486 0.18892178
0.07608613 -0.09810466 -0.047603346 -0.0345591 -0.03134024 0.14477508 -0.0022569187 0.06801348
0.044383172 -0.076381005 -0.015687063 -0.078289784 0.03305208 0.08131814 0.092819124 -0.053743057
0.058522467 0.0818843 0.12268681 0.020995405 0.023929056 0.06755794 0.010962765 0.025329743
-0.09792133 0.13601476 0.012527026 0.018235458 -0.077337526 -0.0025061194 -0.07596613 -0.03634306
0.10951636 -0.032274 0.068523385 0.06927201 -0.070816375 -0.0030457943 0.091076724 -0.114898585
0.026589666 0.05927834 0.022741893 0.019451927 -0.016959433 -0.14882964 -0.0797218 0.038562063
0.027769106 0.0795673 0.055120412 -0.011672477 -0.04801497 -0.03454833 -0.12019977 0.020055918
0.13401201 -0.0060722274 -0.018884042 0.08174796 0.06620298 0.060157195 -0.029382773 -0.12161388
0.1253857 -0.02821531 -0.010013709 0.14347434 -0.12360664 -0.021482542 0.114089996 0.0852491
0.012039934 0.061664976 -0.021570861 -0.08196382 -0.0721551 -0.008861696 -0.07335437 -0.11922551
0.072189376 0.012979221 0.048723657 0.09806948 0.10700425 -0.02812344 0.103931025 -0.11723291
-0.18218006 -0.016586052 -0.053889047 0.062243238 0.068910174 0.0242815 -0.029985353 0.08698029
-0.09591117 -0.14462467 0.0626977 -0.0012097334 -0.07417205 0.094682716 -0.056049116 0.073168635
-0.10037654 0.0061730505 -0.0665258 0.013057023 -0.034604646 -0.0049862093 -0.030685812 -0.08872666
-0.040641572 0.04687737 -0.0859898 0.06789321 0.09479365 0.025528727 -0.11370111 0.017074853
0.088615276 0.0076019815 -0.015075861 0.087616324 -0.01160406 -0.043181516 0.06701954 0.112441435
-0.048563924 -0.03369905 -0.0410516 0.018630512 -0.069994725 0.011407941 -0.013727918 0.09209598
-0.046284396 0.0004256372 0.042367876 -0.088324495 0.09369622 0.015590318 0.06025017 -0.08851836
0.060569562 -0.08441537 0.0009009047 0.10707376 0.0051775905 0.04354834 0.012781044 0.07410674
0.023318857 0.0569887 0.00046044722 -0.0067179007 0.035778612 -0.10351787 0.022822132 -0.097019196
0.13600163 0.093189076 0.09063492 0.112577185 -0.13595404 0.098891824 0.11095514 -0.096798964
0.0336555 0.038460154 0.1267549 0.13689968 -0.010200871 0.0018027266 0.0765822 -0.04114142
-0.06336114 -0.09191407 0.14947522 -0.015077605 0.0015454603 0.0616578 0.012173774 0.1243936
0.04159953 0.13778774 0.09633652 0.09876895 0.0057405103 -0.123205744 0.0033050939 0.04308182
0.069525994 0.068227366 0.04992254 0.1525247 -0.036575094 0.06559562 0.07335216 0.09741956
0.04257302 -0.09087627 0.1207271 -0.066483386 0.09076118 0.05101963 0.11020818 0.050380174
0.056773353 0.001923509 0.019955413 -0.008228801 -0.11853174 0.020093907 0.13026999 -0.1113307
0.0014752316 -0.07674775 0.08980196 -0.11044782 0.036184136 -0.011829145 0.03393229 0.013332831
-0.068999596 0.10024993 -0.03303823 -0.19536611 0.12146511 -0.04367823 -0.053735394 0.042291593
00000000: f58d b63d 6a94 6f3d b1a4 d5bc 3ff4 efbc
00000010: 1440 d43d 686b 303d aadf 35bd 4423 0a3d
00000020: fe39 e93d caae e4bb 3f41 913c 9129 32bd
00000030: b8e1 073e cb5b 46bd d83d b2bd 5d8b f93d
00000040: 8ed3 c93d 3235 45bd 4556 3d3d a1d4 1c3d
00000050: b500 06bd 1d2e de3b 39ab 81bd b674 413e
00000060: 0cd3 9b3d 19eb c8bd bafb 42bd d88d 0dbd
00000070: a05e 00bd eb3f 143e d0e8 13bb a74a 8b3d
00000080: 21cb 353d a56d 9cbd 2882 80bc 6556 a0bd
00000090: 9e61 073d 208a a63d f417 be3d ae21 5cbd
000000a0: 41b5 6f3d f5b2 a73d 3943 fb3d 8efe ab3c
000000b0: de06 c43c d15b 8a3d 2b9d 333c 5280 cf3c
000000c0: fa8a c8bd 7447 0b3e 283e 4d3c 8762 953c
000000d0: 2363 9ebd b53d 24bb 2194 9bbd 76dc 14bd
000000e0: 1d4a e03d be31 04bd fd55 8c3d 7cde 8d3d
000000f0: 2d08 91bd f39b 47bb 6f86 ba3d f34f ebbd
00000100: 92d2 d93c d8cd 723d 354d ba3c a659 9f3c
00000110: 82ee 8abc cc66 18be 2f45 a3bd 41f3 1d3d
00000120: 097c e33c 2ef4 a23d f1c5 613d eb3d 3fbc
00000130: 58ab 44bd 8d82 0dbd 4c2b f6bd 4f4c a43c
00000140: 723a 093e 89f9 c6bb b5b2 9abc 796b a73d
00000150: 6e95 873d 6467 763d 24b4 f0bc b310 f9bd
00000160: 1c65 003e cb23 e7bc 8a10 24bc f0ea 123e
00000170: 7a25 fdbd 28fc afbc 04a8 e93d 1597 ae3d
00000180: 2543 453c 6a94 7c3d 60b5 b0bc a6dc a7bd
00000190: 0ec6 93bd a630 11bc d13a 96bd 812c f4bd
000001a0: 06d8 933d cca6 543c 7592 473d a7d8 c83d
000001b0: 0b25 db3d 2163 e6bc cad9 d43d cf17 f0bd
000001c0: 698d 3abe 79df 87bc c3ba 5cbd c4f2 7e3d
000001d0: c720 8d3d ffe9 c63c d8a3 f5bc b922 b23d
000001e0: 136d c4bd 7d18 14be a767 803d eb8f 9eba
000001f0: 84e7 97bd 03e9 c13d c293 65bd 70d9 953d
00000200: 3792 cdbd 4d47 ca3b ae3e 88bd 20ed 553c
00000210: 9abd 0dbd 5b63 a3bb d060 fbbc 53b6 b5bd
00000220: c777 26bd 7c02 403d 6c1b b0bd 980b 8b3d
00000230: 2c23 c23d 9f21 d13c 21dc e8bd 90e0 8b3c
00000240: ed7b b53d 0b1a f93b be00 77bc 3070 b33d
00000250: f51e 3ebc 1adf 30bd 8a41 893d b247 e63d
00000260: f7ea 46bd 0408 0abd b925 28bd 049f 983c
00000270: 6559 8fbd 5fe8 3a3c 10eb 60bc d19c bc3d
00000280: b594 3dbd 0f28 df39 f089 2d3d 79e3 b4bd
00000290: cee3 bf3d 886e 7f3c e2c8 763d 1d49 b5bd
000002a0: ca17 783d f7e1 acbd b12a 6c3a 7d49 db3d
000002b0: c7a8 a93b bf5f 323d 9567 513c 46c5 973d
000002c0: 3007 bf3c fc6c 693d 2e68 f139 d621 dcbb
000002d0: 988c 123d 2d01 d4bd 7bf5 ba3c 00b2 c6bd
000002e0: 0344 0b3e ead9 be3d cd9e b93d de8e e63d
000002f0: 8937 0bbe cc87 ca3d 733c e33d 893e c6bd
00000300: 59da 093d 6588 1d3d 09cc 013e 6e2f 0c3e
00000310: 8e21 27bc 7849 ec3a 21d7 9c3d e883 28bd
00000320: 7cc3 81bd 723d bcbd 0810 193e 0f08 77bc
00000330: 0b91 ca3a e48c 7c3d 8274 473c 12c2 fe3d
00000340: 4564 2a3d 3b18 0d3e 154c c53d 6047 ca3d
00000350: e41a bc3b 4b53 fcbd 469a 583b 9076 303d
00000360: a563 8e3d caba 8b3d 947b 4c3d 6f2f 1c3e
00000370: c4cf 15bd ff56 863d a839 963d e883 c73d
00000380: 0c61 2e3d 561d babd c53f f73d 7128 88bd
00000390: ffe0 b93d f6f9 503d d4b4 e13d 715b 4e3d
000003a0: 2d8b 683d 401e fc3a 8979 a33c 18d2 06bc
000003b0: c5c0 f2bd fa9b a43c 7f65 053e 5a01 e4bd
000003c0: 8f5c c13a ed2d 9dbd 17ea b73d 7732 e2bd
000003d0: d135 143d 08cf 41bc 96fc 0a3d f271 5a3c
000003e0: a94f 8dbd d64f cd3d 1853 07bd 0e0e 48be
000003f0: b3c2 f83d f2e7 32bd a519 5cbd f339 2d3d

layer_out_1.bias f4 [64]
-0.005052563 0.02070409 -0.1027241 -0.05239611 0.009106028 0.04943432 0.059024762 -0.121601716
-0.08250718 0.038776953 -0.011827455 -0.049588073 0.052640785 0.0065676724 0.03923031 -0.057358675
-0.035378918 -0.073803835 -0.12522003 0.07132918 0.09090133 0.069044426 0.046189062 0.061749373
-0.04322918 0.04384188 -0.06751354 0.0517828 0.02535849 0.096187 0.09243807 0.077593684
-0.08632165 -0.05945518 -0.14543344 -0.15812162 -0.04381659 -0.1319188 -0.072490424 0.077586114
-0.05199566 -0.071958356 0.059112158 -0.09197518 0.047765825 0.04837676 -0.009015891 -0.03620053
-0.08033855 0.03222449 0.037531454 -0.15578137 -0.066875495 0.09182942 0.0015682434 -0.052933246
0.06956613 -0.0043676877 -0.05542014 0.031774234 0.0546392 -0.049397014 -0.08823908 -0.02221749
00000000: f88f a5bb a09b a93c 0361 d2bd 4e9d 56bd
00000010: 7331 153c a47b 4a3d f3c3 713d 520a f9bd
00000020: 86f9 a8bd 95d4 1e3d f1c7 41bc dd1c 4bbd
00000030: dd9d 573d a135 d73b f6af 203d eef0 6abd
00000040: 7ce9 10bd 7726 97bd ae39 00be 0815 923d
00000050: 7a2a ba3d 2a67 8d3d be30 3d3d e9ec 7c3d
00000060: 1511 31bd 8b93 333d 8a44 8abd 341a 543d
00000070: 9cbc cf3c b1fd c43d 2c50 bd3d 70e9 9e3d
00000080: 68c9 b0bd 4687 73bd 81ec 14be a2ea 21be
00000090: 0679 33bd b915 07be dc75 94bd 78e5 9e3d
000000a0: 67f9 54bd e75e 93bd 971f 723d 7c5d bcbd
000000b0: 19a6 433d b626 463d 63b7 13bc 0247 14bd
000000c0: 8a88 a4bd d4fd 033d 95ba 193d 2785 1fbe
000000d0: 05f6 88bd 1011 bc3d 848d cd3a 88d0 58bd
000000e0: b078 8e3d d21e 8fbb 3b00 63bd b325 023d
000000f0: 5bcd 5f3d 8654 4abd b1b6 b4bd 7401 b6bc

layer_out_2.weight f4 [53, 64]
0.107198395 -0.05323336 -0.028962843 -0.083916225 0.14727852 0.015225555 0.007254299 -0.049488608
0.06575144 0.058063 0.0049590906 0.07763207 0.07867498 -0.020653328 0.14360522 -0.09041682
-0.17115998 0.11722831 -0.104012616 0.026935818 -0.08369326 0.11082911 0.104396574 0.10197521
-0.005178752 -0.12844159 -0.080206215 -0.030965254 0.0010234246 -0.07333561 0.10491019 0.1339099
0.033625893 -0.11854442 -0.11693076 0.076373436 -0.08537368 -0.057226118 0.10986819 -0.031141117
0.056121152 0.07337195 -0.04080721 0.21224023 0.06026361 0.054755144 0.055196606 -0.10300226
0.10030686 -0.13928825 0.06222645 0.06765387 0.113890484 0.043706853 -0.16358295 -0.04594559
0.11703683 -0.110842414 -0.07538913 0.0022215499 -0.11272359 -0.0032327294 -0.04089416 -0.12007782
-0.060558945 -0.026767991 0.089436494 -0.0090852585 0.0070173508 -0.008637218 0.054165207 0.0017794808
0.06974339 0.06945136 -0.0841064 0.062970325 -0.05290504 -0.041971758 0.0047155553 0.0677083
0.046231735 0.09724505 -0.098335505 0.009309011 0.111875966 -0.06294123 -0.01189056 0.09735645
0.0679008 -0.07184116 0.02094025 0.039377596 -0.03174974 -0.004406095 0.046329904 -0.06998558
0.0913959 -0.07045946 0.022172315 0.05348676 -0.09822228 -0.0322193 0.0029099188 0.089277476
-0.015472009 0.07366406 -0.03978929 0.07490114 0.015801601 -0.055833217 -0.03500965 -0.017297195
-0.05406119 0.060112532 0.0046303594 0.0029525734 0.014377467 -0.03171498 0.027370876 0.045632303
-0.056746837 0.039878923 0.09732506 0.006220614 -0.03360129 0.0853036 -0.0962681 0.0073348326
-0.055788435 -0.1091348 0.020790504 0.02867331 0.072872765 -0.04962799 -0.12807892 0.03184743
-0.02794214 -0.017905638 -0.046340905 0.056033313 0.034752846 0.035541683 -0.13043684 0.022557393
-0.012925613 -0.104699835 -0.077541426 -0.010706902 -0.03209587 -0.007158498 0.09228979 0.04109774
-0.010055543 -0.060766794 0.07148196 -0.061546087 0.14481974 -0.036847826 -0.053775243 -0.027861454
-0.009999601 -0.076078705 -0.03551254 -0.046414435 -0.067079365 -0.014327577 -0.052114807 0.0033100573
-0.03507296 0.110639825 -0.03895442 0.0936705 -0.049829133 0.10833757 0.11485658 -0.0862055
-0.058702618 0.22550003 -0.09715731 -0.00452751 0.08925068 0.11771198 0.099758655 -0.084928855
0.07253925 -0.08809551 0.12590232 -0.030749591 -0.015315007 -0.014769344 -0.15396102 0.17553072
-0.018522704 0.049493354 -0.024570962 -0.01862867 -0.15304662 0.0696249 -0.02755872 0.11828615
0.006729667 -0.014073985 -0.028291436 0.133476 -0.038449652 -0.047589272 0.021294208 0.13333732
0.0013584067 0.05623149 0.014681791 0.025837796 -0.048740372 -0.01137175 0.09756628 -0.09719002
-0.08060303 0.053156685 0.11166721 -0.0658962 -0.058041077 0.03206762 0.024419855 0.04982246
-0.0049113017 -0.0030704916 0.091493934 0.059437055 -0.052926753 -0.0597272 -0.006533231 -0.009180232
0.10259655 0.043904908 -0.03077563 0.08700688 0.012301012 -0.0080881575 0.0043040225 0.039103176
0.024475085 -0.014534849 0.12276403 0.04567987 -0.01671886 -0.07193128 -0.019479383 -0.07510713
0.057187263 0.061463628 -0.062170092 -0.073821865 -0.06237969 0.023100382 -0.07247935 0.041800413
00000000: d58a db3d 390b 5abd 7c43 edbc 45dc abbd
00000010: 2ed0 163e 9b74 793c 78b5 ed3b 91b4 4abd
00000020: b1a8 863d 78d3 6d3d de7f a23b 90fd 9e3d
00000030: 5920 a13d 2b31 a9bc 3f0d 133e 742c b9bd
00000040: 9044 2fbe 6515 f03d 9104 d5bd 81a8 dc3c
00000050: 5f67 abbd 5ffa e23d dfcd d53d 61d8 d03d
00000060: 85b2 a9bb 3186 03be 2843 a4bd d8aa fdbc
00000070: 6e24 863a fb30 96bd 27db d63d ad1f 093e
00000080: 4ebb 093d 6bc7 f2bd 6579 efbd ad69 9c3d
00000090: 65d8 aebd ef65 6abd 9302 e13d a81b ffbc
000000a0: 4bdf 653d 0844 963d 7625 27bd 8155 593e
000000b0: fad6 763d ee46 603d d615 623d d9f2 d2bd
000000c0: af6d cd3d 94a1 0ebe 29e1 7e3d 1d8e 8a3d
000000d0: 6a3f e93d f505 333d 4a82 27be 7131 3cbd
000000e0: 01b1 ef3d 5901 e3bd 9e65 9abd 6c97 113b
000000f0: a0db e6bd 33dc 53bb a280 27bd 5ceb f5bd
00000100: a80c 78bd 8c48 dbbc 7b2a b73d 56da 14bc
00000110: cef1 e53b 1e83 0dbc 56dc 5d3d 783d e93a
00000120: 9fd5 8e3d 843c 8e3d fa3f acbd 96f6 803d
00000130: f5b2 58bd 94ea 2bbd f284 9a3b a6aa 8a3d
00000140: 7d5d 3d3d 6a28 c73d 2064 c9bd d284 183c
00000150: 3a1f e53d 55e7 80bd a0d0 42bc d262 c73d
00000160: 930f 8b3d 7521 93bd e38a ab3c 674a 213d
00000170: 040c 02bd 0161 90bb 6dc4 3d3d 9a54 8fbd
00000180: c62d bb3d 0d4d 90bd b7a2 b53c ef14 5b3d
00000190: c328 c9bd 62f8 03bd 56b4 3e3b 1cd7 b63d
000001a0: 4f7e 7dbc 2fdd 963d 18fa 22bd c565 993d
000001b0: 5c72 813c 5fb1 64bd 4766 0fbd d9b2 8dbc
000001c0: 446f 5dbd 8f38 763d 45ba 973b f67f 413b
000001d0: 788f 6b3c 91e7 01bd e338 e03c f0e8 3a3d
000001e0: 5f6f 68bd 1558 233d 5c52 c73d 4bd6 cb3b
000001f0: 82a1 09bd a7b3 ae3d 3628 c5bd 0959 f03b
00000200: 6a82 64bd 1182 dfbd d950 aa3c 4ae4 ea3c
00000210: 513e 953d b846 4bbd 1f27 03be 7372 023d
00000220: eae6 e4bc d8ae 92bc f6cf 3dbd 3083 653d
00000230: 0059 0e3d 2894 113d 3c91 05be 48ca b83c
00000240: f3c5 53bc de6c d6bd 0ace 9ebd 006c 2fbc
00000250: f576 03bd d591 eabb 6e02 bd3d 1b56 283d
00000260: 01c0 24bc 9ae6 78bd 2265 923d c017 7cbd
00000270: a04b 143e bfed 16bd 6e43 5cbd b43d e4bc
00000280: 5ed5 23bc 27cf 9bbd 9975 11bd 101d 3ebd
00000290: e860 89bd 37be 6abc 5676 55bd 8ced 583b
000002a0: aaa8 0fbd 2297 e23d ab8e 1fbd 52d6 bf3d
000002b0: a219 4cbd 17e0 dd3d ed39 eb3d 828c b0bd
000002c0: 2872 70bd 7be9 663e 69fa c6bd 825b 94bb
000002d0: 0fc9 b63d fb12 f13d 444e cc3d 2eef adbd
000002e0: 758f 943d 6b6b b4bd 8aec 003e 91e6 fbbc
000002f0: cceb 7abc 1efb 71bc f5a7 1dbe 53be 333e
00000300: edbc 97bc 8bb9 4a3d 0b49 c9bc 279b 98bc
00000310: 41b8 1cbe 8097 8e3d d3c2 e1bc 0240 f23d
00000320: 8a84 dc3b 9296 66bc 71c3 e7bc efad 083e
00000330: 627d 1dbd f8ec 42bd 3171 ae3c 9489 083e
00000340: 910c b23a fe52 663d e58b 703c c9a9 d33c
00000350: fca3 47bd 9450 3abc d4d0 c73d 900b c7bd
00000360: 3413 a5bd d3ba 593d c7b1 e43d 96f4 86bd
00000370: 7bbc 6dbd 5659 033d 260c c83c a312 4c3d
00000380: fcee a0bb 4d3a 49bb 2c61 bb3d 4574 733d
00000390: b9c9 58bd 82a4 74bd b714 d6bb af68 16bc
000003a0: 241e d23d a2d5 333d 2d1d fcbc aa30 b23d
000003b0: 2f8a 493c 3184 04bc c208 8d3b a72a 203d
000003c0: f97f c83c 9323 6ebc b56b fb3d d11a 3b3d
000003d0: fef5 88bc b550 93bd 3a93 9fbc c4d1 99bd
000003e0: 313d 6a3d 49c1 7b3d 11a6 7ebd eb2f 97bd
000003f0: d981 7fbd 033d bd3c 0e70 94bd e936 2b3d

layer_out_2.bias f4 [53]
-0.06603581 0.028818138 -0.058629874 -0.0815575 -0.018313132 -0.019275684 -0.06453656 0.0006937358
0.04591962 0.015156966 -0.012537347 0.005858573 0.0010837817 0.06925047 -0.036751736 -0.0628317
0.0381035 0.043915458 -0.06604383 0.01038584 0.044211954 -0.031900626 -0.05728068 0.0060590836
-0.028648453 -0.006125064 -0.010707183 0.026369719 0.04288764 0.0005892509 0.016865348 0.0035113802
-0.11105702 -0.050305355 0.007869815 0.0630009 -0.050667316 0.04716065 0.07291871 0.02381365
-0.008913082 -0.024293393 -0.07556627 -0.021164143 0.0029926766 -0.008061765 0.004780074 0.09056594
0.078433976 0.061866485 -0.00089366484 0.024871033 -0.051504247
00000000: c83d 87bd 0414 ec3c e125 70bd 9e07 a7bd
00000010: 6c05 96bc 0ae8 9dbc be2b 84bd d2db 353a
00000020: 3616 3c3d ec54 783c 7269 4dbc 46f9 bf3b
00000030: ae0d 8e3a 31d3 8d3d fd88 16bd e8ad 80bd
00000040: 6a12 1c3d b2e0 333d fd41 87bd 5f29 2a3c
00000050: 9817 353d 3baa 02bd 259f 6abd 478b c63b
00000060: 29b0 eabc c3b4 c8bb 2e6d 2fbc 4f05 d83c
00000070: f3aa 2f3d f577 1a3a 3329 8a3c 2f1f 663b
00000080: dd71 e3bd fd0c 4ebd 66f0 003c 9e06 813d
00000090: 8888 4fbd 872b 413d 6856 953d d814 c33c
000000a0: 2d08 12bc f002 c7bc 7dc2 9abd 6d60 adbc
000000b0: c820 443b 7e15 04bc 2ba2 9c3b a37a b93d
000000c0: fea1 a03d b667 7d3d d544 6aba 56be cb3c
000000d0: 1ef6 52bd

residual_layers.0.layer_norm.weight f4 [64]
1.1218928 0.93114763 0.8874495 1.0035526 0.88069516 0.9303035 0.88424057 0.92949146
0.9282171 1.0100694 0.90134025 0.8973268 0.90089166 0.9598791 0.97878 1.0323945
0.840128 0.9327095 0.91355157 0.9096214 0.8932611 1.0240604 0.9839533 0.98983127
0.9829955 0.9233794 0.90551054 0.8800782 0.91961396 0.9450477 0.90575516 1.3030863
0.88353586 0.9644133 0.9260024 1.2393924 0.93717575 0.9130244 0.92406917 0.843142
0.9202475 0.87858343 1.4331572 0.92895055 0.9021078 0.95836246 0.8623159 0.9332014
0.89885116 0.9793039 0.93910104 0.9621272 0.9663529 0.9234705 0.9035187 0.9538236
0.9310026 0.9593978 0.9085498 0.93240154 0.9130583 0.83114195 0.95932 0.95612895
00000000: 2f9a 8f3f b15f 6e3f e42f 633f 6974 803f
00000010: 3d75 613f 5f28 6e3f 975d 623f 27f3 6d3f
00000020: a39f 6d3f f449 813f 3cbe 663f 36b7 653f
00000030: d6a0 663f a3ba 753f 5391 7a3f 8125 843f
00000040: a112 573f 0dc6 6e3f 84de 693f f3dc 683f
00000050: c2ac 643f 6914 833f 5de4 7b3f 9565 7d3f
00000060: 98a5 7b3f 9862 6c3f 8acf 673f ce4c 613f
00000070: d26b 6b3f a5ee 713f 92df 673f 88cb a63f
00000080: 682f 623f cae3 763f 7e0e 6d3f 69a4 9e3f
00000090: c0ea 6f3f f8bb 693f cc8f 6c3f 27d8 573f
000000a0: 5795 6b3f d8ea 603f b271 b73f b4cf 6d3f
000000b0: 89f0 663f 3e57 753f bcc0 5c3f 49e6 6e3f
000000c0: 1c1b 663f a9b3 7a3f ed68 703f f84d 763f
000000d0: e762 773f 9068 6c3f 004d 673f c92d 743f
000000e0: 3056 6e3f 189b 753f b896 683f deb1 6e3f
000000f0: 30be 693f b8c5 543f ff95 753f dec4 743f

residual_layers.0.layer_norm.bias f4 [64]
-0.009122947 -0.021739746 0.026584882 -0.07263226 0.027561381 -0.002276119 -0.002319195 0.016728101
-0.026223948 0.011953391 -0.024335282 0.017815512 -0.0037699603 0.016004127 -0.0090362895 -0.0341837
0.03997354 0.011531295 0.0032756848 -0.0045920257 0.02125237 -0.003940906 -0.01857455 -0.020387731
0.019560086 -0.007477004 -0.00021624131 0.006742301 -0.017818967 0.030936511 0.012526982 -0.0540379
-0.0152637735 -0.003229614 -0.010883655 -0.008152368 0.018404532 0.01996256 0.0019981652 0.035001874
-0.006149646 0.02733314 0.005098821 -0.0067952196 0.049835224 -0.0041584517 0.01252989 0.014726196
0.0037776856 -0.021503333 -0.011575386 0.0023902343 -0.0013029366 -0.01990212 0.029315235 0.00174876
-0.034934554 0.0037579194 0.016127227 0.018131012 0.029535882 0.02653567 -0.0127426805 -0.016146021
00000000: 6a78 15bc 8d17 b2bc 8ac8 d93c 39c0 94bd
00000010: 68c8 e13c f12a 15bb a3fd 17bb 5f09 893c
00000020: 9bd3 d6bc 28d8 433c c95a c7bc d6f1 913c
00000030: 7011 77bb 161b 833c f20c 14bc 3504 0cbd
00000040: 4bbb 233d c2ed 3c3c dfac 563b b478 96bb
00000050: 7319 ae3c b722 81bb a829 98bc 2c04 a7bc
00000060: 793c a03c a801 f5bb d6be 62b9 85ee dc3b
00000070: 15f9 91bc 916e fd3c f93d 4d3c d856 5dbd
00000080: e814 7abc efa7 53bb 5c51 32bc 8291 05bc
00000090: 1ac5 963c 8688 a33c a6f3 023b 205e 0f3d
000000a0: f882 c9bb c0e9 df3c 0314 a73b 6faa debb
000000b0: 0520 4c3d 9f43 88bb 2b4a 4d3c 2546 713c
000000c0: 0c93 773b c227 b0bc b0a6 3dbc 7aa5 1c3b
000000d0: 4cc7 aaba c509 a3bc 8126 f03c a636 e53a
000000e0: 8917 0fbd 6d47 763b 3f1d 843c 7d87 943c
000000f0: 3cf5 f13c 5561 d93c adc6 50bc a944 84bc

residual_layers.0.time_layer.layers.0.self_attn.in_proj_weight f4 [192, 64]
0.077460125 0.05031864 -0.07104582 -0.06962086 -0.065947816 0.10963009 0.032572992 -0.025755232
-0.10843437 -0.07417443 -0.086986214 -0.12570076 -0.103836104 -0.123430245 0.051852997 0.108407855
-0.08720444 -0.054398537 -0.043343637 -0.11805054 0.032906584 -0.114668176 -0.042154636 -0.04426043
0.035069533 0.07405409 0.025188068 -0.0916808 -0.07267599 0.102556445 -0.09492707 0.14695626
0.14360546 -0.117545076 -0.0067184116 -0.10642597 0.11699289 -0.014507307 -0.013395591 -0.041134696
0.012972297 -0.09445569 0.021027366 0.06537953 -0.050424267 -0.012024773 0.047506332 -0.03156764
0.007039262 0.14684868 0.2035047 0.10903667 -0.11818563 -0.074419215 -0.12493499 0.13603792
0.004418987 -0.071675494 -0.11945029 0.102541976 -0.0038463213 -0.0023362786 0.05163905 -0.034343246
-0.074999355 -0.11692343 0.1129159 0.021223355 0.064734 0.13230729 -0.0728583 -0.061419044
-0.12235039 0.06011965 0.044340484 -0.041515104 -0.06808865 0.056043547 0.13398941 -0.20394854
-0.0025022966 0.062913135 0.18216302 0.0798395 -0.17785215 0.14874372 -0.04255291 -0.0791041
0.00090403645 0.11275388 0.2085689 -0.11429563 -0.06299449 0.087941796 0.10215876 0.04109939
0.05574341 -0.1331059 0.03483372 0.2052197 0.10906127 0.080561064 0.0050373073 0.07963347
0.0009851725 -0.02083732 -0.12361946 -0.098932534 0.0053153667 -0.004432485 0.139896 -0.04802834
0.0481225 0.044972006 0.008998767 -0.068571635 -0.20905696 -0.090322174 -0.059247624 -0.07894003
0.058389176 -0.14631326 0.09872518 -0.05117097 -0.1575404 0.086632475 0.052893486 0.07163858
0.13948946 0.09805907 0.17743862 0.11329768 0.07565629 -0.11723481 0.058544073 -0.089208454
0.034807485 0.08063102 0.105152965 -0.08949927 -0.0045456076 -0.18978478 -0.10426185 -0.17716393
-0.054576937 -0.043779727 0.018686542 0.15581924 -0.08506226 -0.06129819 0.05173414 0.03632678
-0.14769277 -0.06658744 0.12424635 -0.10221819 0.02493668 -0.0057699718 -0.12529233 0.026659084
-0.041508038 -0.14601727 0.019197391 0.1030709 0.07516031 0.13698608 -0.02276412 0.14115481
-0.12995121 -0.008904957 -0.21010517 0.06366221 -0.08863393 0.11231999 -0.09511391 -0.03986186
-0.111204974 -0.14977023 0.13021925 0.12999718 0.045735057 -0.08258685 0.049130313 -0.0185931
0.06767025 -0.14452714 0.01212912 0.13085708 0.020472486 0.0922103 0.12568502 -0.10049151
0.182235 0.104508676 -0.011359029 0.12331292 0.15293689 0.06262713 -0.10971575 0.0022590356
0.06955765 0.018578058 0.12807393 0.031902757 0.056344185 0.0063911118 -0.04651557 -0.071867034
-0.050743364 0.104295455 0.028750056 0.02237506 -0.026810205 0.05126551 -0.054877985 -0.07892556
0.030013578 0.022560047 0.11251477 0.11371264 0.04347021 -0.13739789 -0.09783386 0.20822707
0.14576466 0.09963124 0.03758222 0.20419927 -0.053384226 -0.08948588 0.12071413 0.0166195
0.11977259 0.044673648 -0.26095203 0.03581454 -0.06777976 0.0034590615 -0.0640708 -0.08095816
0.1723987 -0.010197564 0.12589383 0.03247961 -0.016633525 0.10141881 -0.075326174 -0.018084474
0.06701978 -0.045732237 0.057268336 -0.110766254 0.052778058 0.009851121 0.0061065294 -0.034481835
00000000: 6aa3 9e3d eb1a 4e3d 7980 91bd 6295 8ebd
00000010: a60f 87bd be85 e03d 426b 053d a3fc d2bc
00000020: d712 debd c3e8 97bd d425 b2bd b3b7 00be
00000030: 06a8 d4bd ffc8 fcbd cf63 543d f004 de3d
00000040: 3e98 b2bd 00d1 5ebd 1989 31bd 7bc4 f1bd
00000050: 0ec9 063d 26d7 eabd 57aa 2cbd 6d4a 35bd
00000060: 12a5 0f3d aca9 973d 3557 ce3c 25c3 bbbd
00000070: 26d7 94bd 1d09 d23d 2069 c2bd b47b 163e
00000080: 4f0d 133e 79bb f0bd 1f26 dcbb dcf5 d9bd
00000090: f899 ef3d 0eb0 6dbc 2e79 5bbc db7c 28bd
000000a0: c289 543c fc71 c1bd 9541 ac3c b4e5 853d
000000b0: ad89 4ebd 8e03 45bc 0096 423d 124d 01bd
000000c0: 9ca9 e63b 805f 163e 8963 503e 9e4e df3d
000000d0: 4f0b f2bd 1a69 98bd ebdd ffbd 864d 0b3e
000000e0: 26cd 903b 9aca 92bd 5ba2 f4bd 8701 d23d
000000f0: 9012 7cbb 401c 19bb 7883 533d 81ab 0cbd
00000100: 4399 99bd 8d75 efbd 7440 e73d 9adc ad3c
00000110: 4293 843d 907b 073e bb36 95bd 8992 7bbd
00000120: d792 fabd 0640 763d 5e9e 353d be0b 2abd
00000130: 1072 8bbd eb8d 653d 8534 093e e3d7 50be
00000140: 92fd 23bb 9ad8 803d f188 3a3e e482 a33d
00000150: e01e 36be 4650 183e f64b 2ebd 5501 a2bd
00000160: dcfc 6c3a 82eb e63d 1693 553e d413 eabd
00000170: 4103 81bd d41a b43d 9d38 d13d d557 283d
00000180: 3453 643d ea4c 08be cead 0e3d 1d25 523e
00000190: 845b df3d 33fd a43d ff0f a53b df16 a33d
000001a0: e720 813a 07b3 aabc 332c fdbd 249d cabd
000001b0: 872c ae3b 613e 91bb e640 0f3e 5db9 44bd
000001c0: 191c 453d 9134 383d 906f 133c 496f 8cbd
000001d0: 0713 56be d5fa b8bd a3ad 72bd 4fab a1bd
000001e0: 7d29 6f3d 25d3 15be 6d30 ca3d a798 51bd
000001f0: 4552 21be 5e6c b13d d7a6 583d 3fb7 923d
00000200: 53d6 0e3e 32d3 c83d 78b2 353e 9d08 e83d
00000210: aff1 9a3d ce18 f0bd e9cb 6f3d ecb2 b6bd
00000220: 4b92 0e3d e021 a53d 705a d73d 654b b7bd
00000230: 52f3 94bb f156 42be 3d87 d5bd 766a 35be
00000240: 118c 5fbd 5f52 33bd 8514 993c 148f 1f3e
00000250: 1f35 aebd d013 7bbd 2de7 533d 64cb 143d
00000260: c63c 17be ff5e 88bd df74 fe3d c557 d1bd
00000270: 0248 cc3c 0812 bdbb a24c 00be 2764 da3c
00000280: 5504 2abd 8d85 15be d943 9d3c d616 d33d
00000290: a6ed 993d 1446 0c3e d27b babc e38a 103e
000002a0: ee11 05be 19e6 11bc cf25 57be 5561 823d
000002b0: b585 b5bd 0608 e63d 15cb c2bd 3146 23bd
000002c0: 6fbf e3bd 5e5d 19be 3258 053e fb1d 053e
000002d0: af54 3b3d 4b23 a9bd de3c 493d 8f50 98bc
000002e0: b396 8a3d ecfe 13be 37b9 463c 66ff 053e
000002f0: eab5 a73c c1d8 bc3d 93b3 003e 7ece cdbd
00000300: d09b 3a3e a508 d63d 391b 3abc 7c8b fc3d
00000310: 7d9b 1c3e a742 803d a7b2 e0bd 540c 143b
00000320: 3e74 8e3d 0331 983c d025 033e 77ac 023d
00000330: 29c9 663d 886c d13b 1c87 3ebd 062f 93bd
00000340: 46d8 4fbd db98 d53d 3d85 eb3c e74b b73c
00000350: 13a1 dbbc c9fb 513d bdc7 60bd b9a3 a1bd
00000360: 09df f53c d9cf b83c 256e e63d 2ce2 e83d
00000370: d20d 323d 08b2 0cbe 1e5d c8bd 7a39 553e
00000380: 5543 153e 770b cc3d d0ef 193d 9d19 513e
00000390: 6ba9 5abd 6044 b7bd f838 f73d 9e25 883c
000003a0: 554b f53d b7fb 363d 819b 85be 44b2 123d
000003b0: 1dd0 8abd 6cb1 623b 8d37 83bd 64cd a5bd
000003c0: 4989 303e af13 27bc 50ea 003e 5709 053d
000003d0: 0843 88bc aab4 cf3d 9c44 9abd e425 94bc
000003e0: ab41 893d ba51 3bbd 3492 6a3d 6bd9 e2bd
000003f0: ce2d 583d 9966 213c 4819 c83b d33c 0dbd
