results/DDPM/LRATE/0.1/model_final.pth (torch, 661767 bytes, 26 tensors)

layer_x.weight f4 [128, 53]
000000 d7 9f 11 3f 28 03 3c 3f 50 d5 19 bf 28 87 d1 be
       0.5688452 0.73442316 -0.60091114 -0.4092343
000010 b4 95 2b 3f 38 9b 3f be 5b 9c 5d 3f 36 4a c9 3e
       0.67025304 -0.18711555 0.86566705 0.3931443
000020 58 55 15 bf 39 e9 31 be 41 8b 80 3e 5c 3f 44 3f
       -0.5833335 -0.17374124 0.25106242 0.7665918
000030 fa 27 b1 be 7a 31 c7 be 90 a5 3d bf e0 5a 44 bf
       -0.34600812 -0.38904935 -0.74080753 -0.76701164
000040 ca 31 4e 3d fe 88 37 bf 25 2d 49 3f c3 28 26 bf
       0.05034045 -0.7169341 0.7858451 -0.6490595
000050 e6 9e dd be c5 e4 4a be 41 41 2c 3f 00 e7 28 3f
       -0.43285292 -0.19813831 0.6728707 0.6597748
000060 8f f8 22 bf 1e c2 3f bf af 71 15 bf c6 31 81 be
       -0.6366052 -0.74905574 -0.5837659 -0.25233287
000070 6d 2f c0 be 3e 0c ea be 56 83 8d be d4 a2 31 bf
       -0.37536183 -0.45712465 -0.27639264 -0.6938908
000080 50 59 b6 be 9e 19 16 3f 55 b6 34 3f 5d 13 20 be
       -0.35615015 0.5863284 0.70590717 -0.15632387
000090 c8 34 6b bf 09 80 c0 be 6f 59 23 3f 39 5c 69 bf
       -0.9187741 -0.37597683 0.6380834 -0.91156346
0000a0 2d ff 16 bf 03 d3 0a be 29 02 c3 be 45 d4 1d 3f
       -0.5898312 -0.13557057 -0.38087586 0.6165202
0000b0 cb 03 cf be a4 37 2f bf 68 73 32 bf b5 80 3c bf
       -0.4043258 -0.68444276 -0.69707346 -0.7363389
0000c0 6f 9a 08 bf 80 0f 61 bf e6 03 60 be 48 5d 55 3f
       -0.53360647 -0.87914276 -0.21876487 0.8334546
0000d0 bd 44 69 3f b2 4d fa be 86 83 28 bf b0 ff 1d bf
       0.9112051 -0.48887402 -0.6582569 -0.61718273
0000e0 5f a5 44 bf 4e 41 21 bf 02 67 10 bf 79 fb 14 bf
       -0.76814836 -0.6299027 -0.5640718 -0.58196217
0000f0 3e bf 02 3f 19 ec e8 be 3f ad d8 be 8d 6a 1b bf
       0.5107306 -0.45492628 -0.42319676 -0.6070946
000100 c0 c9 3e 3f 90 6c 2a bf 08 11 13 bf 23 fa 28 bf
       0.74526596 -0.66571903 -0.5744786 -0.6600668
000110 f4 12 de be 2e 62 02 bf 5e c0 03 bf 66 bd 14 bf
       -0.43373835 -0.5093106 -0.51465404 -0.581015
000120 e2 04 16 bf 58 b6 01 bf 97 c6 08 bf a6 c1 f3 3c
       -0.586012 -0.5066886 -0.53428024 0.029755425
000130 e0 c4 35 bf b2 4e e5 be c1 a3 d7 be bf 12 22 bf
       -0.7100353 -0.44786602 -0.42117122 -0.63309854
000140 c0 f7 11 bf bf b8 21 bf fe a2 3a bf 83 c5 04 bf
       -0.5701866 -0.63172525 -0.72904956 -0.5186388
000150 65 45 64 3f 88 dc aa be dd 15 3c bf 72 2c 1c bf
       0.8916839 -0.33371377 -0.7347086 -0.6100532
000160 26 67 06 bf 10 94 32 bf 57 8d e4 be 03 ea 0e bf
       -0.5250114 -0.69757175 -0.44639084 -0.55825824
000170 cd be 0d bf a5 80 c9 be 32 36 d8 be 8a 1d 3d bf
       -0.55369264 -0.3935596 -0.42228848 -0.738732
000180 e2 26 0c bf ee 33 1b bf bd 4c 2a bf 0a 2d 16 bf
       -0.5474683 -0.60626113 -0.66523343 -0.58662474
000190 61 4e 0b bf 7f fb 0c bf 89 5d 22 bf 56 e2 8c be
       -0.5441647 -0.5507125 -0.63423973 -0.2751643
0001a0 eb 15 1b bf d2 f6 e4 3e 1d 0f 1c 3e 97 12 08 bf
       -0.6058032 0.4471956 0.1524014 -0.53153366
0001b0 52 6a 99 be de 40 f6 be 6d c9 6c bf 44 8c 1d bf
       -0.29963928 -0.48096365 -0.9249485 -0.61542153
0001c0 71 73 a3 3d 82 60 24 3f 1d c4 8d be 96 65 a6 be
       0.07981003 0.6420976 -0.27688685 -0.3249938
0001d0 b5 78 53 3f 0e fd 2c 3e ef 27 ce 3e 8a 9a 2c bf
       0.8260606 0.16893408 0.40264842 -0.6742331
0001e0 c8 78 5b bf 10 70 a9 be 32 16 0b bf 8e 38 b7 be
       -0.8573117 -0.3309331 -0.5433074 -0.35785335
0001f0 23 b8 04 3f 27 c3 3d 3f 72 dc f9 be e0 bc 5f be
       0.5184347 0.74125904 -0.48801 -0.21849394
000200 ab 76 49 bf 70 e9 37 be 94 70 8e 3e 16 3c 40 3f
       -0.786967 -0.17960143 0.27820265 0.75091684
000210 32 74 c5 3e 07 b3 05 bd de c7 4e 3f 92 2a 3b 3e
       0.38565212 -0.032641437 0.80773723 0.18277958
000220 90 c4 8a be 1e 87 21 bf 12 1b 22 bf 22 8c 4b bf
       -0.2710309 -0.630968 -0.63322556 -0.795107
000230 d0 13 37 3f 93 90 41 bf 44 e0 9a 3e cc 21 61 be
       0.71514606 -0.7561123 0.30249226 -0.21985549
000240 f1 c2 f5 3e 9e 32 1c bf ea c6 74 be 2f 6d ba be
       0.4800029 -0.61014736 -0.23904005 -0.36411425
000250 8e 1e 24 bf bc 25 0c bf 69 8e 00 bf db 75 82 3f
       -0.6410912 -0.5474508 -0.502173 1.0192217
000260 82 d6 f4 be a1 22 0b bf 00 60 eb be d0 0a 17 3f
       -0.47819906 -0.54349715 -0.4597168 0.59000874
000270 93 10 2e bf 9c fa 1e 3f ec 78 1c 3f ba c2 66 be
       -0.6799404 0.6210115 0.6112201 -0.2253522
000280 bb 9c 22 bf 50 68 94 3e 96 7f 32 3e 68 30 21 be
       -0.635204 0.28985834 0.17431483 -0.15741122
000290 ba 9f da be c0 fc a3 be c9 e0 57 be 46 67 57 bf
       -0.42699987 -0.3202877 -0.21081842 -0.8414196
0002a0 48 50 ea bd fa 02 31 bf d1 99 ed be 33 f4 8f be
       -0.11441094 -0.69145167 -0.46406415 -0.28115997
0002b0 7a 46 08 bd d4 cf 2a be ad 67 f0 be 38 71 89 be
       -0.033270337 -0.16680843 -0.46954098 -0.26844192
0002c0 a7 22 1f 3f c1 10 39 bf b5 ee a8 3d 17 c7 2c bf
       0.6216225 -0.7229119 0.08248655 -0.67491287
0002d0 46 8b e6 bd e4 79 5d 3f 94 5a 08 bf da e7 b0 be
       -0.11257033 0.86514115 -0.5326321 -0.3455189
0002e0 7c 20 96 3e 19 3b 8f be 23 7e 59 bf 81 43 19 3e
       0.2932166 -0.27974775 -0.84958094 0.14967157
0002f0 a5 89 55 3e 8c d0 3c bf 93 ca a8 be b7 5f 8f 3d
       0.20853288 -0.7375572 -0.32967052 0.07000678
000300 61 6d 09 bf 80 de 23 bf af 7b 18 be 73 3a 90 be
       -0.53682524 -0.64011383 -0.14890932 -0.28169593
000310 c6 69 a5 3e 83 38 fb be 31 85 f2 3e 29 37 f1 3e
       0.3230726 -0.49066553 0.47367242 0.47112396
000320 31 6e 07 bf 2b d3 e9 be d6 be 0c bf da 08 4e bf
       -0.52902514 -0.4566892 -0.5497869 -0.80482256
000330 9f 1d f7 3e 4d 05 9e 3e d6 c9 89 be cc b9 a2 3e
       0.48264787 0.3086342 -0.269118 0.31782377
000340 d6 f1 f2 bd ae db 0d bf 32 76 1d be 3c 5b 75 bd
       -0.11862533 -0.5541333 -0.15377119 -0.05990146
000350 86 aa 50 3f 7c 7d a4 3e 2a ee 4e 3f d7 99 af bd
       0.815102 0.32126987 0.8083216 -0.085742645
000360 5d 72 08 3f 5e 8a 16 3f 4e f8 8f 3e e0 27 42 3f
       0.53299505 0.5880488 0.2811913 0.75842094
000370 fc de fc 3d 20 5e e2 be e0 84 dd 3e 35 c6 4a 3f
       0.123472184 -0.44212437 0.43265438 0.7920869
000380 31 99 50 3f 6d d5 0b 3f c3 ab 99 3e ac 0c 29 3f
       0.8148375 0.54622537 0.30013856 0.6603496
000390 7d 89 56 3f 0c d8 d2 be 95 15 05 3e fb f7 a3 3e
       0.8380354 -0.41180456 0.12996514 0.32025132
0003a0 18 a9 fa 3e c8 45 1a 3f 8b 2d a8 3e e5 ea 55 3f
       0.48957133 0.6026273 0.32847247 0.83561546
0003b0 ea 82 8c be fa e3 37 3f 21 65 26 bf 85 39 19 3f
       -0.2744363 0.7183224 -0.6499806 0.5985339
0003c0 5e 6c 1b 3f 52 13 06 3f 54 a8 39 3f 01 b1 20 3f
       0.6071223 0.5237323 0.72522473 0.62770087
0003d0 de d7 b8 be e3 df 35 3f 1e 69 16 3f fc eb 28 3f
       -0.36102194 0.7104475 0.58754146 0.65985084
0003e0 2d 15 2a 3f 63 47 7b be 43 c8 9e 3e 5c 3f 0b 3f
       0.6643856 -0.2453895 0.31012163 0.54393554
0003f0 12 67 0e 3f b8 3b 60 3e 19 7d 2d 3f 81 49 3d be
       0.5562602 0.21897781 0.6776901 -0.18485071

layer_x.bias f4 [128]
000000 fe 01 1b 3f 9a 77 bc 3e ac 36 b0 3e 03 7c 28 bf
       0.60549915 0.3681 0.3441671 -0.65814227
000010 c6 ba b3 3d c6 25 0a 3f a1 9e 16 bf 36 e0 e8 3e
       0.087758586 0.5396389 -0.588358 0.4548356
000020 92 ea b8 3e 95 e5 b7 3e 1d b6 28 3f 26 e9 20 3f
       0.36116463 0.35917345 0.6590288 0.62855756
000030 58 9b 11 3f 6a 65 36 bf 06 f7 e4 3e 2d f6 85 be
       0.5687766 -0.71248496 0.44719714 -0.2616438
000040 a6 64 41 3f e4 cb d2 3e 17 86 07 3f e5 b8 4c bf
       0.755442 0.4117118 0.5293898 -0.79969627
000050 99 de e7 3e 18 3f 2c 3f 49 4b 07 3f 4c f0 20 3f
       0.45287016 0.67283773 0.5284925 0.62866664
000060 d5 06 14 bf 9d c2 0a 3f 28 78 05 3f 3d 44 4b bf
       -0.57822925 0.54203206 0.5213647 -0.79401
000070 f3 41 60 3f 01 a4 6b bd 63 86 13 3f a2 84 1e bf
       0.8760063 -0.057529453 0.5762693 -0.6192113
000080 75 69 1c 3f b6 94 60 3e b9 fb 05 3f d5 25 d6 be
       0.61098415 0.21931729 0.52337223 -0.4182574
000090 5c a1 c4 3e 27 fe 07 bd 75 0e 26 bf 0b 55 18 3f
       0.38404357 -0.033201363 -0.6486581 0.59504765
0000a0 20 da 18 3f 0f 4d fb be 47 06 0c 3f d0 3e 60 bf
       0.5970783 -0.4908223 0.5469708 -0.87595844
0000b0 a2 1a 8f 3e 66 ac 50 bf 21 57 05 3f 07 a4 f8 be
       0.27950007 -0.8151306 0.52086073 -0.48562643
0000c0 9f ac 02 3f a8 ce 37 3f f3 4e 90 3e 11 52 17 3f
       0.5104465 0.7179971 0.28185233 0.591096
0000d0 d7 39 57 bf 08 bc fb 3e 19 fa 2a be 6d 8f ff bd
       -0.8407263 0.49166894 -0.16696967 -0.12478528
0000e0 65 83 c3 3e e1 50 f6 3e 68 71 3a bf 9b 0e 25 3e
       0.38186184 0.4810858 -0.72829294 0.16118853
0000f0 b3 14 0e 3f 4e 6d 41 bf ea a7 0c 3f e9 48 38 3f
       0.55500335 -0.7555741 0.54943717 0.7198625
000100 d5 e4 09 bf 7e a1 00 3f 0a be 44 bf a1 d7 17 3f
       -0.53864795 0.5024642 -0.76852477 0.593134
000110 a3 71 12 bf 8f dc aa be 96 df 46 3f b9 d1 25 bf
       -0.57204646 -0.33371398 0.77684915 -0.64773136
000120 60 79 6d 3e 3a 46 04 3f 17 bb 38 bf 7e a4 13 bf
       0.23190832 0.5166966 -0.72160476 -0.5767287
000130 cc 72 ec 3e 13 fc b6 3e 14 21 2c bf 7c 4d 4e bf
       0.46181333 0.35739192 -0.67237973 -0.8058698
000140 64 2a 58 3f b5 dd b6 3e 88 f9 eb be d3 c7 11 3f
       0.8443968 0.35716024 -0.46088815 0.5694553
000150 b8 d4 d7 be 80 ba b9 3e da b2 d3 3e 6e 24 6a bb
       -0.4215448 0.362751 0.4134739 -0.003572728
000160 2b eb cc 3e c6 83 44 3f ce 83 31 bf 4a 51 16 bf
       0.4002317 0.7676357 -0.69341743 -0.5871779
000170 91 63 38 bf 0c 99 6f 3e 16 3a 13 bf 27 ba 00 3f
       -0.72026926 0.23398226 -0.5751051 0.50284046
000180 d8 47 f9 be db c3 47 bf 52 9a 53 bf 35 67 09 3f
       -0.48687625 -0.78033227 -0.8265735 0.53673106
000190 20 d5 44 bf b7 8b 84 bf 5f c0 39 3f 59 db 0d 3f
       -0.768877 -1.0355138 0.7255916 0.5541282
0001a0 4e c8 67 be 30 ed fd be 60 8c ef 3e 58 b6 19 3f
       -0.22635004 -0.49595022 0.46786785 0.6004386
0001b0 b6 2d e1 3d e4 78 36 bf b7 bb 41 3f 22 c2 28 bf
       0.10995047 -0.71278214 0.75677055 -0.65921223
0001c0 20 c7 54 3f d5 76 08 3f 03 42 9e 3e 85 a6 12 bf
       0.8311634 0.53306323 0.30909738 -0.5728534
0001d0 dd d3 b8 3e 01 75 51 3f 16 c0 a1 3e cd dc fb 3e
       0.3609914 0.8181916 0.31591862 0.49191895
0001e0 c5 41 3b 3f 93 e8 f1 3e 17 79 17 3f fd 67 05 bf
       0.7314723 0.47247753 0.59169143 -0.521118
0001f0 c9 1a a8 be 74 8a 37 3f 88 2d 20 bf d3 e7 fe 3e
       -0.32832935 0.7169564 -0.62569475 0.49786243

layer_t_1.weight f4 [128, 128]
000000 9e e5 f6 be 85 81 c8 be b6 cd c7 3e 9b 8e 30 3f
       -0.4822206 -0.39161316 0.39024132 0.689676
000010 93 cb c6 3e eb e0 e1 3e 9c fb 34 bf 7e 7c 2b be
       0.3882719 0.4411691 -0.70696425 -0.16746709
000020 50 ac 80 3f 46 24 19 3e f5 70 64 3e fb d1 c9 be
       1.0052586 0.14955243 0.22308715 -0.39418015
000030 52 e5 1b 3f b2 62 3a 3e 66 8d 1a 3f 7b dc 31 bf
       0.6089679 0.18201712 0.60372007 -0.6947705
000040 2d ae 6a 3f e9 e3 97 3e b8 80 b2 3e 22 4a 8a bd
       0.9167202 0.2966607 0.3486383 -0.06752421
000050 6d 49 80 3e 87 e5 e3 be 31 01 e8 3d 2c c8 3e 3e
       0.2505602 -0.44511053 0.11328352 0.18631047
000060 45 7b 11 3e 4f 56 d8 be da 6a 23 bf 24 f1 b8 3e
       0.1420718 -0.42253348 -0.6383492 0.36121476
000070 77 fe 32 3f da 20 50 bf 02 05 c0 be 48 bb cc be
       0.6991953 -0.8130013 -0.3750382 -0.39986634
000080 97 34 11 bf d3 88 f2 3e b7 b7 ba be 9f 5f 56 3f
       -0.5672087 0.47370014 -0.36468288 0.83739656
000090 1b 69 e5 bd 4d aa 0f bc f3 4b ef be f8 98 10 3f
       -0.11201688 -0.00876863 -0.46737632 0.5648341
0000a0 a9 0d 31 be 13 ab e8 3e fb a7 4b 3e 73 b4 96 3e
       -0.17290367 0.4544302 0.19888298 0.29434547
0000b0 db cc 77 3e 77 fd 34 3f 1e 61 16 3f e2 1a bf bc
       0.2419924 0.70699257 0.5874194 -0.023328248
0000c0 41 34 af 3e 04 9e 27 3e 58 bb 6d 3e 1f 67 4c be
       0.34219554 0.16368872 0.23215997 -0.19961213
0000d0 0c 7b c9 be 5c ce 39 3f 1d c7 ca 3d 42 e9 18 bf
       -0.3935169 0.72580504 0.09901259 -0.59730923
0000e0 00 61 6b bf ae 7b 0e bf 61 d1 16 3f 96 b0 2b 3e
       -0.91944885 -0.5565747 0.58913237 0.16766581
0000f0 98 a3 82 be 43 cd 74 bf 5b 76 17 bf 4a 22 6f 3f
       -0.25515437 -0.95625705 -0.5916497 0.93411696
000100 51 a0 e0 3e f1 72 26 3f d4 76 4c 3f 3b 8c 41 be
       0.43872312 0.65019137 0.7986882 -0.1890115
000110 dc b5 e8 be c4 90 bf be c7 10 02 3e d8 40 c2 be
       -0.45451248 -0.37415135 0.12701713 -0.37940097
000120 f5 a9 ef 3d ef 7b f7 3e a1 1c 72 be 49 a2 a6 3e
       0.117023386 0.4833674 -0.23643734 0.3254569
000130 94 93 7a 3e f9 a0 72 bf aa ba b2 3e f7 9c 03 3f
       0.24470359 -0.94776875 0.34908038 0.51411384
000140 3f 27 29 bf 15 25 f7 3d 05 98 0b 3f 88 38 15 bf
       -0.6607551 0.1206762 0.5452884 -0.58289385
000150 9f 4f 29 bf 1f 91 c8 3e d0 4c a4 be ae cf e7 3e
       -0.6613712 0.3917322 -0.32089853 0.45275635
000160 50 a7 8b 3d 54 fe c0 3e b3 8d 62 3f 61 52 2e be
       0.06819022 0.37694037 0.88497466 -0.17023613
000170 9c 87 71 3f d0 53 8c bf 6e 9f 34 3f fc 1a ff 3e
       0.9434755 -1.0963078 0.7055577 0.49825275
000180 2e 31 57 3f 27 db 0c 3f 9d 8e 08 bf f4 8d 50 bd
       0.8405942 0.550219 -0.5334261 -0.050916627
000190 d9 3f af be b1 b6 5c 3e a3 d8 1b 3f 72 8c 93 be
       -0.342284 0.21554066 0.60877436 -0.2881809
0001a0 99 28 af 3e c8 f4 f4 3e 1a f2 69 3f 51 53 0b 3f
       0.3421066 0.47843003 0.9138504 0.54424006
0001b0 63 da 1d bf 80 da 8a 3f d7 37 f9 3e 2f 9b cd be
       -0.61661357 1.0847931 0.48675415 -0.40157458
0001c0 be 0f d3 3e cb bc 92 be 6b 2a c7 3e ca ac 69 bf
       0.41222948 -0.28659663 0.3889955 -0.9127928
0001d0 9c af 04 bf 68 27 47 bf 91 bc 1d bf 8b 30 18 3f
       -0.5183046 -0.77794504 -0.61615855 0.5944907
0001e0 f8 ba 19 bf 0f 60 35 3f a7 aa 69 3e c4 77 fb 3e
       -0.60050917 0.708497 0.22819005 0.4911481
0001f0 d6 cd 64 3f e3 39 d5 3e d8 6c 55 3e ae 7a 45 be
       0.8937658 0.41645727 0.20842302 -0.1928508
000200 7d 23 01 3f 04 1c 84 3e 9e 1e 7b 3e 3b 7d 7b 3f
       0.50444776 0.25802624 0.24523398 0.9823796
000210 6a 5f 15 bf a6 35 58 bf eb 8b 05 be 4d b6 93 3e
       -0.58348715 -0.8445686 -0.13041656 0.28850022
000220 c7 7a 7f 3e b4 f2 25 bf b9 ab 1a 3f 26 43 b2 3e
       0.2494918 -0.6482346 0.6041828 0.34816855
000230 f5 c3 0c bf f0 41 fd 3e a4 a8 5d bf f9 c1 1c be
       -0.54986507 0.4946437 -0.8658545 -0.1530837
000240 02 4d 6d bc 54 a3 55 bf 7c 64 26 3e 7e b5 4d bf
       -0.014483692 -0.83452344 0.16249269 -0.8035506
000250 98 89 ac be c9 f7 60 3e 61 6a d5 3e 46 bf 04 bf
       -0.33698726 0.21969523 0.41682723 -0.5185436
000260 dd dd 62 3f 83 92 06 3f 70 e9 8a be b0 34 87 3f
       0.88619787 0.5256731 -0.27131224 1.0562954
000270 c4 73 5d be 47 05 e5 3d 9d de a1 be 60 27 c5 3e
       -0.21626192 0.11182647 -0.31615153 0.38506603
000280 b8 c8 8a be 17 b7 3b be 2f e2 65 bf 5c 59 b9 3e
       -0.2710626 -0.18331562 -0.89798254 0.36200988
000290 4e 43 c8 bd 52 eb 76 bf 6e 8e 4e bf 84 9c c7 3e
       -0.09778462 -0.9645282 -0.8068608 0.389866
0002a0 4c be 62 bf ee 96 59 3f a0 ae 87 bd 4e 26 3b 3e
       -0.8857162 0.84995925 -0.06625104 0.18276331
0002b0 f8 92 8c be 9e 67 fc bd 9e ac ca 3c c7 0a 58 3e
       -0.27455878 -0.12324451 0.024740513 0.21097861
0002c0 ec 6f c5 bc 41 3a 28 3c 22 24 25 bf da d3 6b be
       -0.02410122 0.010267795 -0.6450826 -0.23030034
0002d0 54 3c 08 3f 64 f7 1a bf bc 3d b5 be bd 7f 50 be
       0.53217053 -0.6053374 -0.35398662 -0.20361228
0002e0 95 97 34 3e 42 f7 97 be 82 cf 36 bf f7 8d 72 3f
       0.17635949 -0.2968083 -0.7141038 0.9474787
0002f0 86 26 17 3f 56 07 40 be 11 8d 2e 3f 82 5d ce 3e
       0.5904316 -0.18752798 0.68184 0.40305716
000300 c4 55 31 bf 95 87 af 3e be 01 e6 3e b5 69 31 be
       -0.6927149 0.34283128 0.44923204 -0.1732548
000310 8b 8e 30 3f 81 c8 42 bf 18 a2 86 3f 63 b0 2c bf
       0.68967503 -0.76087195 1.0518217 -0.67456645
000320 2a f4 a7 be e1 1e 24 3f d4 28 8c 3f 4e 2d 26 3e
       -0.3280347 0.6410962 1.094996 0.1622822
000330 11 50 34 3f 4e 84 67 bf 05 e4 e0 be 6d 61 83 3f
       0.7043467 -0.90436256 -0.43923965 1.0264107
000340 74 67 7c be 98 52 32 bf fe ab d5 3e 16 f8 47 bf
       -0.24648839 -0.6965728 0.41732782 -0.78112924
000350 b9 e7 85 3e 67 2c 1c 3f ae cf 89 3e d6 eb 04 3f
       0.26153353 0.6100525 0.2691626 0.5192236
000360 6c 98 7b 3f 75 6e e2 ba 56 82 6a 3d 3c f2 5a 3f
       0.9827945 -0.001727535 0.057253204 0.8552587
000370 aa 37 a7 3e 3d ec e0 be 36 0c 62 3e 7d 40 1a 3e
       0.32659656 -0.43930236 0.2207497 0.15063663
000380 f6 43 4b 3e 37 86 e0 3e 4f ab e5 be 7f 83 be 3d
       0.19850144 0.43852398 -0.4485726 0.09302425
000390 ad 59 37 3c ab 86 65 bc 9d 0e 35 bf 4d b3 f3 be
       0.011190814 -0.014009158 -0.70725423 -0.47597733
0003a0 7e 8c bf be 17 99 ff 3e d4 07 1f 3e e1 b2 b2 3e
       -0.37411875 0.49921486 0.1553033 0.349021
0003b0 8c ee 93 3e 41 81 e5 3e 20 33 60 3f 77 dc 34 bf
       0.28892934 0.44825175 0.8757801 -0.706489
0003c0 34 b1 19 3f 26 ae 3b bf 35 2c 2b 3f e3 1d 4c be
       0.60036016 -0.73312604 0.6686433 -0.19933276
0003d0 04 e6 be be f7 20 57 bf ac b3 18 3e 81 cb 0c 3f
       -0.37284863 -0.84034675 0.1491229 0.5499802
0003e0 99 91 84 be 3c 10 4b 3f 77 4d 22 bf dd 5b 98 3d
       -0.25892332 0.79321647 -0.6339945 0.074393965
0003f0 a2 29 9e be 3c 4b 8c 3e 7a 9c 3b 3f 86 7a 1b 3e
       -0.30891138 0.2740115 0.7328564 0.15183458

layer_t_1.bias f4 [128]
000000 5e da 8e bf 56 93 51 bf 91 42 b6 bd 5d d4 44 bf
       -1.116039 -0.8186544 -0.08899415 -0.7688654
000010 98 98 06 bf 1d cd ec be 11 f0 0e 3c 70 26 5b 3e
       -0.5257659 -0.4625024 0.0087242285 0.21401381
000020 70 3f 0d bb 14 ab a1 3e d9 a5 25 bf 2d 90 84 bf
       -0.0021552704 0.31575835 -0.6470619 -1.0356499
000030 f6 98 f4 be af b5 02 bd 35 7e a5 3d 26 32 2b bf
       -0.4777295 -0.03191155 0.08080713 -0.66873395
000040 55 1f 0f bf 2a ab 1c bf d1 82 ee be 57 cc 84 3e
       -0.55907184 -0.61198676 -0.4658418 0.2593715
000050 38 c8 c0 3e e4 08 0c bd 77 89 4f be 64 7c 83 bf
       0.37652755 -0.034188166 -0.20267282 -1.0272336
000060 7f 6b b4 be e8 61 66 bf 94 84 1b bf c1 80 d3 bd
       -0.35238263 -0.89993143 -0.60749173 -0.10327292
000070 c6 54 01 bf ff b4 ab bd b2 21 56 3e 7c 6f 93 be
       -0.5051998 -0.08384132 0.20911291 -0.28795993
000080 0d 04 03 bf 51 a7 73 be e7 bf de be 8a 1a b0 be
       -0.51178056 -0.23794295 -0.43505785 -0.34395248
000090 d0 37 90 be cd 0e 88 be 8f d6 bc bd 3b 99 75 bf
       -0.28167582 -0.26573792 -0.09220611 -0.95936936
0000a0 f7 79 c2 3e e3 c7 0c bf 0f 0d a2 be 5a 0e a3 be
       0.37983677 -0.549925 -0.31650588 -0.31846887
0000b0 2f fe 5d bf 5e 12 0f bf 31 22 87 be f9 1c 51 be
       -0.8671598 -0.558874 -0.26393273 -0.20421208
0000c0 db aa db be d6 fc 07 bf c3 f4 a8 bd 8b 74 2c bd
       -0.4290379 -0.5312017 -0.082498096 -0.04210333
0000d0 88 bc 5f be 46 36 a9 3e 20 18 2b 3f 52 f9 3c bf
       -0.21849263 0.3304922 0.66833687 -0.7381793
0000e0 7f da 23 bb 1f 06 33 bf 15 63 8f bf d8 63 03 bf
       -0.002500206 -0.69931215 -1.1202112 -0.51324224
0000f0 58 0f e3 bc 0a e1 da be b1 d1 03 3e dd 2e 41 bf
       -0.027717277 -0.42749816 0.1287296 -0.7546213
000100 9b 39 a6 3e 3e b7 96 be aa 9d 60 3e c3 d8 3b bf
       0.32465824 -0.29436678 0.21935144 -0.7337763
000110 0c 31 25 bf 44 ee 70 bd 9a a4 01 bf a4 65 c0 3e
       -0.64527965 -0.058820978 -0.5064179 0.37577546
000120 8d e0 c7 3d 77 cc 8b 3e db a6 08 3c fc c7 2d bf
       0.097596265 0.27304432 0.008340563 -0.67883277
000130 a9 e1 38 bf 92 83 01 be 34 47 fe be fd cc 2f be
       -0.7221933 -0.12647846 -0.496637 -0.1716804
000140 2c 63 92 be df fa a0 be b8 fe 94 bc 06 62 86 be
       -0.28591287 -0.314414 -0.018187866 -0.2624666
000150 8f 6b 05 bf c8 cf 26 3e 53 45 0d bf 48 74 b0 be
       -0.52117246 0.162902 -0.55183905 -0.34463716
000160 be 00 11 bf 47 47 61 3c 0f 82 1e bf 48 fc 93 bf
       -0.5664176 0.013749904 -0.61917204 -1.1561365
000170 b2 26 69 3d 3c 64 01 bf a6 f0 a9 3e 29 cf fb 3d
       0.05692167 -0.5054357 0.33191413 0.12295372
000180 7a e4 c0 be 85 57 20 bf bc 29 10 be 5a b8 09 be
       -0.37674314 -0.62633544 -0.1407842 -0.13449231
000190 fc 82 a6 be ed 26 d2 be 15 d3 4b bd 26 4d d2 3e
       -0.32521808 -0.41045323 -0.04976185 0.41074485
0001a0 34 92 14 bf 2d 7c a1 be f3 87 b0 3d 10 04 f9 be
       -0.5803559 -0.3154005 0.0861968 -0.48635912
0001b0 ec 0c d9 be 35 1b 2d bf 2b 1c b5 bf a8 a0 89 bd
       -0.4239267 -0.6761964 -1.4149221 -0.06720096
0001c0 71 5d 14 bf b6 43 1b bf 99 47 50 3e 9a 14 0d 3e
       -0.5795508 -0.60650194 0.20339812 0.1377739
0001d0 c4 41 92 3e 90 15 18 bf 44 64 b0 be 23 77 00 bf
       0.285658 -0.594079 -0.34451497 -0.5018179
0001e0 71 bf c1 3e 43 43 87 bf 0d d0 02 bf fc 76 39 bf
       0.3784137 -1.0567402 -0.5109871 -0.7244718
0001f0 82 13 b6 3e 06 d0 0d bd 2b c7 01 3e 2b ed b9 bd
       0.35561758 -0.034622215 0.12673633 -0.09078439

layer_t_2.weight f4 [128, 128]
000000 bf 1e a0 be d1 7d 30 be 1d a1 07 bf 7f 1b bd be
       -0.31273457 -0.17235495 -0.52980214 -0.3693504
000010 21 56 28 bf aa ad 54 bf 86 ed 17 bf 94 5b 3e bf
       -0.6575642 -0.8307749 -0.59346807 -0.7435849
000020 fe d7 be bd f5 9b 65 bf 35 9e ff be b3 42 55 bf
       -0.09318541 -0.89691097 -0.4992539 -0.833049
000030 21 06 3a bf ab fe c1 be 43 67 bd be a3 c4 cf be
       -0.726656 -0.3788961 -0.36992845 -0.4057971
000040 ac 0e 0f bf 0a 9c 5b bf 02 07 60 bf 86 61 dc be
       -0.5588176 -0.8578497 -0.87510693 -0.43043154
000050 8d 0f 3e bf 9e a0 2b bf 29 af c2 be bd 86 17 bf
       -0.7424248 -0.6704196 -0.38024262 -0.5918997
000060 ae 84 52 bf 63 8c af be b4 9c 9a be 31 0f 48 bf
       -0.82233703 -0.34286794 -0.3019768 -0.7814818
000070 63 eb f6 be bb f1 cf be 45 9e 10 3f 76 49 63 bf
       -0.4822646 -0.40614113 0.564915 -0.8878397
000080 d1 65 44 bf f6 82 e5 be b0 cc 08 bf 1d 46 67 bf
       -0.7671786 -0.44826478 -0.5343733 -0.9034136
000090 d3 2f 60 bf f9 33 64 bf 60 59 a7 be f9 10 d1 be
       -0.87572974 -0.89141804 -0.32685375 -0.40833262
0000a0 34 5d 24 bf 63 1d 47 bf 25 98 89 bf 49 0d d5 3e
       -0.64204717 -0.77779216 -1.0749556 0.41611698
0000b0 65 71 1b bf 7b 11 16 bf 9b 02 0d bf 8c d3 b2 be
       -0.607199 -0.58620423 -0.550821 -0.34927022
0000c0 1f 2f 02 bf 25 3b 24 bf 9b 7f 00 bf c4 fa d9 be
       -0.5085315 -0.6415275 -0.5019471 -0.4257413
0000d0 98 d7 5b bf f2 3d 12 bf 8a bd 1b 3e cf d1 3b bf
       -0.85875845 -0.5712577 0.15209022 -0.7336702
0000e0 f9 db 0d bf 1a ab 06 bf ea 38 bc bd da 24 c9 3d
       -0.55413777 -0.5260483 -0.09190543 0.09821482
0000f0 92 1e fd be cb 25 5a be 16 f3 1f bf 91 10 50 bf
       -0.49437386 -0.2130348 -0.62480295 -0.8127528
000100 71 ad 21 bf 3c 0d 4b bf 87 41 ef be 8d c0 31 bf
       -0.63155276 -0.7931707 -0.4672968 -0.69434434
000110 53 02 0c bf 1a f3 7c be 99 73 20 bf 11 e8 21 bf
       -0.54691046 -0.24702111 -0.6267639 -0.6324473
000120 0f 7f bd be f9 ff b4 be 83 cd 53 3e 22 10 6f bf
       -0.37011 -0.35351542 0.20683865 -0.9338399
000130 1c 22 45 bf 80 c1 c5 be 09 2d 0e bf 27 fb 23 bf
       -0.7700517 -0.3862419 -0.5553747 -0.64055103
000140 ab fd 2e bf 31 97 59 bf 72 b7 e0 be fa c9 e1 be
       -0.68355817 -0.84996325 -0.43889958 -0.44099408
000150 29 a9 38 bf 10 03 fa be f7 2d 70 bf eb 5c 4e bf
       -0.7213312 -0.48830462 -0.93820137 -0.8061053
000160 87 5a f0 be 48 6e 24 bf fd e3 0e bf 04 ef 51 bf
       -0.46944067 -0.64230776 -0.5581663 -0.82005334
000170 70 c1 bf be 9c ba 37 bf b8 0e e5 be 97 3c f3 be
       -0.3745227 -0.7176912 -0.44737792 -0.47507164
000180 9d 99 1f bf 1a 1f 45 bf aa 22 ce be a8 db f8 be
       -0.6234377 -0.7700058 -0.40260822 -0.48605084
000190 d7 1b 08 bf 33 f8 18 bf 7c 6c f5 be 02 ec d6 be
       -0.5316748 -0.5975372 -0.4793433 -0.41976935
0001a0 0e d5 e0 be 39 b7 40 bf e2 ac a3 be 03 ef 73 bf
       -0.43912548 -0.75279576 -0.31967837 -0.9528658
0001b0 56 83 17 bf a2 07 1e bf 25 f6 ea be cc 83 c2 bd
       -0.5918478 -0.61730397 -0.45890918 -0.094977945
0001c0 c6 7d fa be e3 fb 11 bf 58 61 1a bf 6d 06 b6 be
       -0.48924083 -0.57024974 -0.60304785 -0.35551777
0001d0 b6 b8 04 bf d7 9d e7 be a3 3b 16 bf 2b 7d 5b bf
       -0.51844347 -0.4523761 -0.5868475 -0.85737866
0001e0 41 5d b3 be 48 08 fb be f6 1e 0a bf 1b 1c 0a bf
       -0.35032085 -0.49029756 -0.5395349 -0.53949136
0001f0 54 a6 04 bf 70 32 c7 be 8b a0 af be 6f 8e e3 be
       -0.51816297 -0.38905668 -0.34302172 -0.44444606
000200 07 c3 45 3f b0 2d ba be 16 3e 86 3f a0 0a 8c bf
       0.77250713 -0.36362982 1.0487697 -1.0940742
000210 31 37 1b 3f c0 55 45 bf 06 27 88 be 98 c0 e2 be
       0.6063109 -0.7708397 -0.26592273 -0.44287562
000220 b4 bf 96 3e 38 aa cb be 7e 3b 4b bf af e6 43 bf
       0.29443133 -0.39778304 -0.7938765 -0.7652387
000230 88 b6 a7 3e 5e 95 2f 3f b5 6e 0d bf ce b1 8e 3f
       0.32756448 0.6858729 -0.5524705 1.1148012
000240 15 7f 56 3f 87 ee 53 bf e6 e2 88 3f 84 cc 89 be
       0.8378766 -0.8278584 1.0694244 -0.26913846
000250 cf 69 68 bf 0e 4f 4c bf 53 34 55 3f fd 31 b3 be
       -0.9078645 -0.7980813 0.83282965 -0.34999076
000260 8b 89 6d 3f 0c 76 03 bf 71 60 77 3f fa aa 42 bf
       0.92788 -0.51352 0.9663153 -0.7604214
000270 fe a7 af bd 6c 46 ce be ad a7 83 3f 9f 83 80 3e
       -0.08576964 -0.40288103 1.0285546 0.2510042
000280 bf 2e 01 bf 08 1d 3d bf 4f 85 41 bf a4 fd 18 bf
       -0.50461954 -0.73872423 -0.7559404 -0.59762025
000290 9f 69 19 bf c8 7f 38 be 58 58 64 bf a6 91 4d bf
       -0.5992679 -0.18017495 -0.891973 -0.80300367
0002a0 4c 5d 65 bf 89 fc 82 3e 78 ee 0d bf 99 51 85 3e
       -0.89595485 0.25583294 -0.55442 0.26038817
0002b0 52 1e 6d be 6e a1 63 3f 4a d3 31 bf c0 bb 3a 3f
       -0.23156098 0.889182 -0.69463027 0.72942734
0002c0 ec 1b 15 3f 36 f2 4d bf f9 da 51 3f 2f 42 6a bf
       0.5824573 -0.8044771 0.8197475 -0.9150724
0002d0 b6 22 31 3f f5 12 48 bf 70 33 b1 3f cc c5 13 bf
       0.6919359 -0.78153926 1.3843822 -0.5772369
0002e0 65 7e 68 3f e4 6c 0e be 68 60 35 3f d2 90 f3 3e
       0.9081786 -0.13908726 0.7085023 0.47571427
0002f0 43 5e 89 3f a2 a9 3f 3f 22 10 0f be 23 bd 17 3f
       1.0731891 0.74868214 -0.13970998 0.59272975
000300 bd cd d9 be 47 46 ee be b3 b3 42 bf d4 d1 67 bf
       -0.42539778 -0.46537992 -0.7605545 -0.9055455
000310 d5 41 1a bf c2 f7 03 bf e2 69 09 3f 1c 03 fe be
       -0.602567 -0.51549923 0.5367719 -0.49611747
000320 15 0c 84 bf b1 c9 73 bf 7b 53 60 3f 3f 76 eb be
       -1.0316187 -0.9522963 0.8762738 -0.45988652
000330 88 00 98 bf fd b0 8e bf 37 3e 82 bf 26 90 31 bf
       -1.1875162 -1.1147763 -1.0175236 -0.6936058
000340 ee 96 fd 3e 38 ce dc bd 30 a6 7c bf ee 1b 32 3f
       0.49529213 -0.107815206 -0.9869108 0.6957387
000350 87 89 c3 3d 4e eb 31 3f ed a0 94 be 83 dc f3 be
       0.09547716 0.6949967 -0.29029027 -0.47629175
000360 19 3b 43 bf ec 20 80 bf 63 60 e3 be c5 48 e8 3e
       -0.7626205 -1.0010047 -0.44409475 0.4536802
000370 51 89 0f 3f c8 94 84 bf b8 3d 63 bf bc a4 0c bf
       0.56068903 -1.0357904 -0.8876605 -0.54938865
000380 1d 41 8a be 1d 11 20 3f e3 55 99 3f d6 5c 85 be
       -0.27002802 0.6252611 1.1979336 -0.2604739
000390 38 0e 82 3f 1e 6a d2 be 73 01 3c bf c9 a9 5d bf
       1.0160589 -0.41096586 -0.7343971 -0.86587197
0003a0 08 1f 3c bf c0 c4 e3 be e4 19 05 3f bd aa 52 3f
       -0.7348485 -0.44486046 0.5199263 0.82291776
0003b0 3d 07 58 3f 8f 2b 93 be c6 8b 5f 3f b7 11 ae bd
       0.84386045 -0.2874417 0.8732265 -0.084994726
0003c0 c9 bc 74 bf 57 62 69 3f e7 ab 6e bf 0b ea 2f bf
       -0.95600563 0.9116568 -0.9323105 -0.68716496
0003d0 b2 f8 89 3e f6 6f 40 bf ed 9d cc be 4f e4 eb 3e
       0.26947552 -0.7517084 -0.39964238 0.46072623
0003e0 76 9c 66 bf 45 96 02 bf f2 9b f1 be 99 ca 93 bf
       -0.9008249 -0.51010543 -0.4718929 -1.1546203
0003f0 73 09 79 bf 16 15 d1 3f 63 d9 6b bf d1 89 cd be
       -0.97280043 1.633456 -0.9212858 -0.40144208

layer_t_2.bias f4 [128]
000000 27 5b 44 bf 16 90 16 3f 7a 23 a9 be 31 12 d4 be
       -0.7670159 0.5881361 -0.3303488 -0.4142013
000010 a8 7f 29 3f 77 98 45 bf bc ba 03 bf 67 7f 47 3f
       0.6621041 -0.7718577 -0.5145681 0.77928776
000020 67 df 30 bf 1f 59 f8 bd bf 5e 54 bf 92 1f 15 3f
       -0.69090885 -0.121263735 -0.8295707 0.582513
000030 5f ea 12 3f 11 70 fa 3e bc 2e 8a bf 30 2e 58 bf
       0.5738887 0.48913625 -1.0795512 -0.84445477
000040 07 b3 05 3f 11 24 ac 3e 37 2f e4 bd c6 6c e3 be
       0.522263 0.33621266 -0.11141818 -0.44418925
000050 9c c5 ec bd 9e 1d 15 3f f2 31 87 3e 51 37 28 3f
       -0.115611285 0.5824832 0.26405293 0.65709406
000060 db ef 10 bf 48 a3 df bd bf 12 34 3f 71 ab 85 bf
       -0.5661599 -0.10919815 0.70341104 -1.0442945
000070 3a 9d 19 3f 44 b0 ea be 46 a8 2c bf 87 cb b8 be
       0.60005534 -0.45837605 -0.67444265 -0.3609278
000080 b1 b7 2a 3f ec 55 20 3f 68 20 63 3e d7 4a d0 be
       0.6668654 0.62631106 0.22180331 -0.40682098
000090 fd 9b b6 3e d3 3c 03 bf 54 4b 03 bf 7d eb 55 bf
       0.35665885 -0.51264685 -0.51286817 -0.8356245
0000a0 d5 9f fb 3e 96 da d0 be 1c 33 f3 3e 22 09 20 bf
       0.4914538 -0.40791768 0.4749993 -0.62513936
0000b0 18 6b eb bc 95 29 d1 be 82 4d 0a 3f 13 76 44 bf
       -0.02873759 -0.40852037 0.5402452 -0.76742667
0000c0 67 1e 10 3f 0b b2 12 bf 91 7b 6e bf 52 a7 b7 be
       0.5629639 -0.5730292 -0.931573 -0.35869843
0000d0 15 a4 f0 be 6d bc 51 bf 09 89 62 bf 5a 00 f1 3e
       -0.47000185 -0.8192814 -0.8849035 0.4707058
0000e0 1f ca 18 3f 44 04 16 3f 91 68 09 bf 34 43 0c 3f
       0.5968341 0.5860026 -0.5367518 0.54790044
0000f0 2f d9 e5 3e 33 60 d9 be 91 76 da 3e f2 f7 18 3f
       0.4489226 -0.42456207 0.42668584 0.59753335
000100 5d 5a 01 bf 73 0d f5 3e d3 86 0b bf 17 91 45 bf
       -0.5052851 0.47861823 -0.545026 -0.77174515
000110 55 ac 52 bf 4c 05 70 bf 3a 95 2d 3f 62 de 62 bf
       -0.8229421 -0.9375808 0.67805827 -0.8862058
000120 a6 f3 e6 bb bf a5 26 bf b9 e2 db be be a8 04 bf
       -0.007048088 -0.6509666 -0.42946413 -0.5181998
000130 d7 fb 7a bf df 64 46 bf 93 d5 12 bf 10 a0 d4 be
       -0.9804053 -0.7749767 -0.5735714 -0.41528368
000140 20 f9 f3 3e 60 bd 85 bd 1b 3e e1 be 16 5d 14 3f
       0.47651005 -0.06530261 -0.43992695 0.5795454
000150 bc 92 c5 be 36 b6 6d 3e 45 d2 1b be 69 63 93 bf
       -0.38588512 0.23214039 -0.1521693 -1.1514713
000160 7c 70 77 3e d0 37 65 bf 50 64 10 bf f1 3b bc be
       0.24164003 -0.8953829 -0.56403065 -0.36764482
000170 71 bd 0a bf 7d 98 07 3f 02 33 ee be bf 90 eb 3e
       -0.54195315 0.52967054 -0.4652329 0.4600887
000180 15 9d d6 be f7 30 b9 be 90 ca ec be 07 42 a6 3e
       -0.4191672 -0.3617017 -0.46248293 0.3247225
000190 32 06 07 bf 7d 2f 00 bf 89 4d 9a 3e 34 69 46 bf
       -0.5274383 -0.5007246 0.3013728 -0.7750428
0001a0 79 1b 5f bf a7 80 bf be 80 af 02 bd 59 ca ad 3e
       -0.87151295 -0.3740284 -0.03190565 0.33943442
0001b0 ad b2 e9 be c6 19 ef be 73 50 1d 3f 6d a6 c1 be
       -0.4564413 -0.4669935 0.6145088 -0.37822285
0001c0 78 7f f4 3e ba 22 cf 3e c3 84 70 3e d9 71 36 bf
       0.477535 0.40456182 0.23488145 -0.7126747
0001d0 93 3b 3f bf 07 71 1f 3f 69 2d cc 3b d8 fd ce 3e
       -0.7470028 0.6228184 0.0062309992 0.40428042
0001e0 4e b3 e0 3e ac a2 37 bf f1 4f 30 bf cb 44 ba be
       0.438868 -0.7173259 -0.6887198 -0.3638061
0001f0 45 65 67 bf 9f af d2 bd f8 18 02 bf 87 29 35 bd
       -0.903889 -0.10287403 -0.5081935 -0.044229057

layer_out_1.weight f4 [128, 128]
000000 25 de 2b 3f fc 58 0e 3f 4d 68 2c 3e 59 81 57 be
       0.6713584 0.5560453 0.16836663 -0.21045436
000010 e0 63 55 bf 64 95 88 be 92 5c 29 3f ac 94 27 3f
       -0.8335552 -0.26676476 0.66156876 0.6546123
000020 69 01 0b bf 8c d3 18 bf 01 91 0a bf fa 62 08 3f
       -0.54299027 -0.59697795 -0.5412751 0.53276026
000030 84 36 02 bf e1 71 4c 3f 00 94 5a 3e ae 83 11 bf
       -0.50864434 0.79861265 0.2134552 -0.5684155
000040 ff 57 24 3f 34 5b 2a 3f fc a6 61 bf 0d 31 81 3e
       0.6419677 0.66545415 -0.8814542 0.25232735
000050 31 47 8f be 15 ed 36 bf 90 b9 51 3f c0 f1 22 bf
       -0.27984002 -0.7145551 0.8192377 -0.6365013
000060 c7 15 53 3e f4 98 4f bf 55 7b 1d bf 21 e5 3d bf
       0.20613776 -0.8109276 -0.61516315 -0.7417775
000070 4b 17 4f 3f 90 3d c8 3e bf 41 31 bf 59 b9 3a be
       0.8089492 0.39109468 -0.69240946 -0.18234767
000080 a5 7c 34 3f 82 b4 d5 be 8e 7f 59 be 2d de 03 bf
       0.7050269 -0.4173928 -0.21240065 -0.5151089
000090 56 64 15 bf 9c 61 a0 3e da b4 18 3f f5 b7 1e 3f
       -0.58356225 0.3132447 0.5965096 0.61999446
0000a0 f2 52 12 3f ee b8 11 3f 27 eb 17 3e ba 13 8b 3e
       0.57157815 0.56922805 0.14835797 0.27163488
0000b0 d1 46 24 3f 75 64 32 bf af 13 5c 3f e5 5f 1c 3f
       0.6417056 -0.69684535 0.85967535 0.61083823
0000c0 c4 86 28 3f 80 10 18 bf 39 2c 29 bf 06 ae ab be
       0.65830636 -0.59400177 -0.66083103 -0.33531207
0000d0 29 e5 a7 be 6c 8a 2f 3f f6 48 73 3e e6 d6 4d 3e
       -0.32792023 0.6857059 0.23758301 0.20101508
0000e0 f2 c2 7d bd 5c 2f 15 3f 24 11 0b 3f e7 50 06 3f
       -0.061953492 0.5827539 0.5432303 0.524672
0000f0 62 c7 09 3f c4 37 0c 3f 64 80 8f be 18 57 d1 be
       0.5381986 0.5477259 -0.28027642 -0.4088676
000100 20 35 07 3f 42 04 20 be 1d 44 8a 3e 2e 6d 4f 3e
       0.5281544 -0.15626624 0.2700509 0.20256492
000110 9d f6 b5 3e ca bd 25 bf 33 3c dc 3e 27 3b b1 3e
       0.35539714 -0.6474272 0.43014678 0.34615442
000120 7c 57 19 bf e8 72 c3 be 60 1a 00 bf c2 29 ab 3e
       -0.59899116 -0.38173604 -0.50040245 0.33430296
000130 64 76 d9 3e 83 a1 6f be db 32 00 3f d3 9c 30 bf
       0.42473137 -0.23401456 0.500776 -0.68989295
000140 d1 d1 a1 bd 36 01 04 bf f7 d8 12 bf 7c e7 19 3e
       -0.079013474 -0.5156435 -0.5736231 0.1502971
000150 30 b2 d0 be 50 a4 a6 3e d5 41 fe be 27 4e 85 3e
       -0.40760946 0.32547235 -0.496596 0.26036188
000160 9f 74 16 bf c4 58 31 3f b2 4d 37 3f 2e 0c 25 bf
       -0.587717 0.6927607 0.7160293 -0.6447171
000170 27 ba 82 3e a1 d8 45 3f f6 39 97 3e a5 b9 41 be
       0.25532648 0.77283674 0.29536408 -0.18918474
000180 cd 25 86 3e dc dc 2a 3f 81 d6 67 bf 00 0c 4d 3f
       0.26200715 0.66743255 -0.9056168 0.80096436
000190 4f ea 8c 3e de 9b 3d 3f f0 c3 ba 3e 44 67 d5 be
       0.27522513 0.7406596 0.36477613 -0.41680348
0001a0 68 7e 69 be 4f ad ad be 9d a5 32 3f b8 8a 10 bf
       -0.22802126 -0.33921286 0.69783956 -0.5646167
0001b0 10 c7 e6 bd 4e 34 05 3f 62 b9 13 3f cb e3 24 3f
       -0.11268437 0.52032936 0.57704747 0.64410084
0001c0 dc 12 80 3e 5f 89 19 bf dd 99 3a 3f ee 98 20 bf
       0.2501439 -0.59975237 0.72891027 -0.6273335
0001d0 43 47 06 3e 45 be 48 3f 71 b4 12 bf 22 42 65 3e
       0.13113122 0.7841533 -0.5730658 0.22388509
0001e0 b4 ca 17 3f 75 3e 3e be 93 b0 96 3e bf 6c 1d bf
       0.59293675 -0.18578513 0.2943159 -0.6149406
0001f0 2a 0a 0a bf ef 88 17 3f 29 d1 01 3f 0b 99 08 bf
       -0.5392176 0.5919332 0.5070978 -0.53358525
000200 d9 67 6d 3f 1c 8a b4 3e b3 27 31 3e f4 2c 40 be
       0.92736584 0.3526162 0.173003 -0.18767148
000210 56 31 e9 be 76 78 87 be 64 75 14 3f 56 fb e5 3e
       -0.45545453 -0.26459092 0.57991624 0.44918317
000220 8c 3f a8 be 3f 1a 32 bf d5 89 20 be 55 60 8e 3e
       -0.32860982 -0.695713 -0.15677579 0.2780787
000230 3a 54 a0 be cc 13 ad 3e 01 4a 23 3d a4 23 c5 be
       -0.3131426 0.33804166 0.039865497 -0.38503754
000240 52 09 88 3e 77 5c 0b 3f f6 3b cf 3d 56 2e db 3e
       0.2656961 0.54437965 0.101188585 0.4280879
000250 12 eb 8c be 57 aa c6 be a1 da b0 3e 93 88 20 bf
       -0.27523094 -0.38801834 0.345418 -0.62708396
000260 e5 b6 88 3e 3f 03 9e be 52 33 05 bf 83 63 75 bf
       0.26702037 -0.30861852 -0.52031434 -0.9585497
000270 c1 ea 3f 3f c4 77 f9 3e ad 80 1b 3e f1 37 7c 3d
       0.7496758 0.48724186 0.15185805 0.061576787
000280 04 83 c2 3e 1f 2b 44 be 5e 40 ba bd 99 f8 59 be
       0.37990582 -0.19157074 -0.09094308 -0.21286239
000290 46 fc 9d be cb 17 75 3f cc af 84 be 2f 89 2a 3f
       -0.30856532 0.9573943 -0.25915372 0.66615576
0002a0 2f ce 96 3e e8 28 16 3f df 05 db be 66 87 49 3e
       0.2945418 0.5865617 -0.42777917 0.19680557
0002b0 10 9d ce 3e c6 28 81 be 4b da 67 3f b6 4f 24 3e
       0.40354204 -0.2522642 0.90567464 0.16046032
0002c0 0f 2b f3 3e e3 fe 1d bf d5 40 86 be a0 f2 90 be
       0.4749379 -0.6171705 -0.26221338 -0.28310108
0002d0 e7 ec 6d bd e1 a0 a7 3d 9c 3b cb 3e ac 0b 28 3f
       -0.058087256 0.08184982 0.39693916 0.6564281
0002e0 40 2b 0d 3e 76 93 24 3f 62 15 9b 3e 17 ae d0 3e
       0.1378603 0.6428751 0.3028975 0.4075782
0002f0 30 3d 50 3e d2 ba ab 3e 5a 95 06 bf 0d a0 68 3d
       0.20335841 0.3354097 -0.5257164 0.05679326
000300 e4 1c a9 3e 97 96 28 bf a3 fc a1 3e 7a 24 3c 3e
       0.33029854 -0.6585478 0.3163806 0.1837329
000310 09 fd 00 3e f0 54 c8 be bb 9c 1e 3f c6 00 e8 3e
       0.12596525 -0.39127302 0.619579 0.4531309
000320 dc 51 8e be 87 46 96 be 47 34 89 be b9 5a 8e 3e
       -0.2779683 -0.29350683 -0.26797697 0.2780359
000330 ab 0c 81 3f 8b 45 18 be 3d 19 a2 3e 20 51 c2 be
       1.0081991 -0.14870279 0.3165988 -0.37952518
000340 77 71 7d 3e 71 a4 af be 74 79 d4 be d6 f8 0e 3d
       0.24750315 -0.34305146 -0.4149891 0.034905277
000350 9f 72 7a bf 40 ef 32 3e 39 2b bc be d4 ef 25 bf
       -0.9783115 0.17474079 -0.36751726 -0.64819074
000360 85 e7 b7 be b8 23 98 3e 2a 8a a6 3e 2b e4 96 be
       -0.35918823 0.2971475 0.32527286 -0.29470953
000370 a2 74 dc 3d 9e 54 0f 3f 53 7f e3 3e 7f 98 46 be
       0.107644334 0.5598849 0.44433078 -0.1939411
000380 48 dd 18 3f ab ec 59 3e 65 f8 6e bf b7 fd ae 3e
       0.5971265 0.21281688 -0.9334777 0.34177944
000390 40 18 43 3e e7 66 cf 3e dc 8c 32 3e 7b f3 12 3c
       0.1905222 0.40508196 0.17436546 0.008969183
0003a0 f7 ba d1 be 2f ef 0f be 9b 6a 22 3f c6 71 a4 be
       -0.40962955 -0.14056085 0.6344392 -0.32118052
0003b0 3a 7f fc 3e 2d 5b cc 3e 1e 61 12 3f 84 21 e3 3e
       0.49315816 0.39913312 0.5717944 0.44361508
0003c0 59 07 af 3d 34 09 26 bf c8 af 4d 3f c1 87 bf bd
       0.08546323 -0.6485779 0.80346346 -0.09352065
0003d0 34 68 4a 3e 4b 24 06 3f a7 d0 6b be 3d f4 10 3e
       0.19766313 0.5239913 -0.23028813 0.1415567
0003e0 51 42 93 3e ea 70 af be 59 fa 93 3e b9 ae 24 bf
       0.28761533 -0.34265834 0.28901938 -0.64329106
0003f0 08 9c 9e be 1d c0 11 3f 49 ba 13 3f fa f5 ce be
       -0.30978417 0.56933767 0.57706124 -0.4042204

layer_out_1.bias f4 [128]
000000 12 99 5f bf 50 74 6b bf 3d 0a 71 bf 87 3f 53 bf
       -0.8734294 -0.91974354 -0.9415625 -0.8251881
000010 33 7b 3d bf 2a 76 bc be 22 f3 60 bf c6 78 b8 bd
       -0.7401611 -0.36808902 -0.8787099 -0.09007411
000020 5b 1e 6c bf 95 17 51 bf d2 33 7b bf ab d6 81 bf
       -0.9223382 -0.8167661 -0.98125947 -1.0143636
000030 36 b8 34 bf 74 27 7c 3e f6 d8 44 bf 1c 9c 31 bf
       -0.70593584 0.24624425 -0.76893556 -0.6937883
000040 0c d0 53 bf 1f f0 62 bf 19 02 4b 3e b5 3f 57 bf
       -0.8273933 -0.88647646 0.19825019 -0.84081584
000050 65 c4 55 bf 1b 43 78 bf 7d 10 6a bf 02 92 33 bf
       -0.835028 -0.96977395 -0.9143141 -0.70144665
000060 8d bb 5a bf ee fb 5e bf f4 b1 6b bf e2 91 53 bf
       -0.8544243 -0.87103164 -0.9206841 -0.82644475
000070 6d ab 71 3e 20 29 5b bf e2 f0 52 bf 6c 20 5c bf
       0.2360055 -0.85609627 -0.8239881 -0.8598697
000080 cf 68 43 bf 65 1a 53 bf c9 b0 17 bf 6b 48 58 bf
       -0.763318 -0.8246215 -0.5925413 -0.844855
000090 6f d0 3f bf 3b 5f a9 3e b7 5a 40 bf c5 94 62 bf
       -0.7492742 0.33080468 -0.7513842 -0.88508254
0000a0 e2 31 80 bf aa 1a 63 bf c5 86 56 bf 03 b8 5f bf
       -1.0015223 -0.8871256 -0.8379939 -0.87390155
0000b0 d2 0f 57 bf f1 fc 81 3e a4 da 80 bf 01 7b 67 bf
       -0.84008515 0.2538829 -1.0066724 -0.90422064
0000c0 48 66 4a bf 7a 3b 57 bf 29 16 4d bf ba 14 3d bf
       -0.7906232 -0.8407513 -0.8011194 -0.7385975
0000d0 a9 99 81 bf 8c f1 5c bf 01 70 4a bf 9f 0f ae 3e
       -1.0125018 -0.8630607 -0.79077154 0.33996293
0000e0 7d bc 5f bf 97 ac 82 3e 43 6a 60 bf 6d 60 86 bf
       -0.87396985 0.255223 -0.8766214 -1.0498177
0000f0 71 f3 68 bf 81 04 5c bf 46 34 5c bf a1 c2 46 bf
       -0.9099646 -0.8594437 -0.8601726 -0.7764073
000100 81 7e 6a bf b2 2f 50 bf e6 37 58 bf 56 02 62 bf
       -0.9159928 -0.8132278 -0.84460294 -0.88284814
000110 05 16 26 bf a1 3b 3d bf 18 66 46 bf 98 cc 58 bf
       -0.6487735 -0.7391911 -0.7749953 -0.84687185
000120 77 61 5a bf 39 18 49 bf e8 62 68 bf ec c5 6a bf
       -0.8530497 -0.78552586 -0.9077592 -0.91708255
000130 8a 52 63 bf 99 8b 5d bf 8e 35 63 bf 6b 7f 70 bf
       -0.8879782 -0.86541134 -0.8875359 -0.93944424
000140 b7 b8 4f bf b1 5c 4f bf a5 e6 60 bf 11 cc 43 bf
       -0.8114123 -0.8100081 -0.87851936 -0.76483256
000150 71 3f 4d bf 19 d5 53 bf c7 05 75 bf 46 34 26 bf
       -0.8017493 -0.82747036 -0.9571194 -0.6492351
000160 db 12 62 bf e6 77 3e bf df 10 46 bf 07 73 4c bf
       -0.8831002 -0.744017 -0.77369493 -0.7986302
000170 74 42 3c bf a6 fb 50 bf 44 1c 3b bf b6 b6 3a bf
       -0.735389 -0.81633985 -0.73090005 -0.72935045
000180 9f 13 50 bf e4 79 25 be 43 c9 39 bf db 81 7a bf
       -0.8127994 -0.16159779 -0.72572726 -0.97854394
000190 b3 24 57 bf 04 dd 31 bf ed 8f 7b 3e d5 7e 69 bf
       -0.84040374 -0.6947787 0.24566622 -0.91209155
0001a0 21 de 77 bf 36 c0 48 bf c7 59 61 bf a9 1f 6f bf
       -0.96823317 -0.7841829 -0.88027614 -0.93407685
0001b0 c2 78 60 bf 43 50 33 bf a6 17 5b bf b9 0f 4b bf
       -0.8768426 -0.70044345 -0.8558296 -0.79320866
0001c0 c4 e6 48 bf f5 34 64 bf e3 69 5d bf f3 7b 8b bf
       -0.7847712 -0.89143306 -0.86489695 -1.0897201
0001d0 db 30 50 bf f1 55 50 3e b3 7a 83 bf b6 b5 7d 3e
       -0.8132455 0.20345284 -1.027182 0.24776348
0001e0 68 36 41 bf 05 48 60 bf b7 36 62 bf cb 4d 53 bf
       -0.7547364 -0.87609893 -0.8836474 -0.8254058
0001f0 65 d1 82 bf b8 0f 43 bf 91 90 40 bf 04 64 36 bf
       -1.0220152 -0.7619586 -0.7522059 -0.7124636

layer_out_2.weight f4 [53, 128]
000000 02 6c dc be 27 3c f5 be 7a 74 0f bf be 9d 06 bf
       -0.43051153 -0.47897455 -0.56037104 -0.52584445
000010 df b6 e2 be ea 9c cb 3e e8 e5 04 bf e5 02 86 3e
       -0.44280145 0.39768153 -0.5191331 0.26174083
000020 90 f4 e0 be c9 7a 02 bf 2c ca 09 bf ac 92 c6 be
       -0.43936586 -0.50968605 -0.53824115 -0.38783777
000030 99 45 e5 be 27 d7 22 bf ba 3b 07 3f c8 cf ff 3e
       -0.4477966 -0.63609546 0.5282551 0.49963212
000040 91 93 b9 be 68 b4 e7 be 5f 3d f1 be f5 fe 02 bf
       -0.36245397 -0.45254827 -0.47117135 -0.51170284
000050 5b c7 01 bf 34 99 f9 be 6e 61 da be 80 b5 f2 be
       -0.5069482 -0.48749697 -0.42652458 -0.474041
000060 80 1d f3 3d 4c 34 fd be 61 dc 02 bd 24 2e f9 be
       0.11870861 -0.49453962 -0.03194845 -0.48668015
000070 e5 29 27 bf 84 19 b1 be 07 47 d3 be ec 23 ad be
       -0.652983 -0.3458978 -0.41265127 -0.3381647
000080 6b 57 c5 3e 9a b3 cf be d4 1d 88 be 88 16 d0 be
       0.38543257 -0.40566713 -0.26585257 -0.4064219
000090 84 9e 6a 3e be 96 38 bf 89 c8 fb be e2 bd d7 be
       0.22912031 -0.72105014 -0.49176434 -0.42137057
0000a0 b7 2e d0 be 1a 2d d9 be dc 01 f9 be 08 90 c1 be
       -0.4066064 -0.42417222 -0.4863423 -0.378052
0000b0 3d 8e a9 be e9 41 18 bf 70 88 a4 3e df 8a 8b be
       -0.33116332 -0.5947557 0.32135344 -0.27254388
0000c0 07 70 00 bf e1 91 06 bf c8 38 f9 3e 86 e6 49 3e
       -0.5017094 -0.52566344 0.48676133 0.19716844
0000d0 35 38 dd be 55 74 d3 3e 1f 64 fa 3e 5c 77 26 bf
       -0.43206945 0.41299692 0.4890451 -0.6502588
0000e0 09 29 d7 be cb d3 3f bf 60 c6 ea be 06 15 83 be
       -0.42023495 -0.74932545 -0.45854473 -0.25601977
0000f0 94 46 c5 be dd 7d fb bd bc fc de be 86 e5 e9 be
       -0.3853041 -0.12279866 -0.43552196 -0.45682925
000100 6b 78 c0 be 3a 85 ff be 79 d6 ca be d6 3d f8 be
       -0.37591872 -0.4990633 -0.39616755 -0.48484677
000110 c5 68 0e 3f 30 c1 90 3e 2e 68 04 bf 09 16 e6 be
       0.55628616 0.2827239 -0.51721466 -0.44938686
000120 40 21 dc be 35 99 86 3e 9f e3 40 be 30 20 db be
       -0.42994118 0.26288763 -0.1883683 -0.42797995
000130 09 a3 d6 be b8 56 f6 be e6 e9 d3 bd eb 9d c3 be
       -0.4192126 -0.48113036 -0.10347347 -0.3820642
000140 c6 18 e8 be 35 1d db be bf 4a f0 be 75 c6 ff bc
       -0.453314 -0.4279572 -0.46932027 -0.031222561
000150 d3 3b eb be ad d2 d0 be 0c e0 eb be f7 79 c1 3e
       -0.4594408 -0.40785733 -0.46069372 0.37788364
000160 0e 55 cb be f9 f8 08 3f f0 30 f7 be 0d 21 ef be
       -0.3971333 0.535049 -0.48279524 -0.46704903
000170 8b 64 b1 3e af 0e e7 be 39 c5 60 be 00 58 f9 3d
       0.3464702 -0.4512839 -0.21950234 0.12174988
000180 d0 53 8b 3e 95 ab c9 3d 1d 91 f8 be 22 95 cf be
       0.2721238 0.0984718 -0.48548213 -0.40543467
000190 32 5c cd 3e 1e 06 ed be cc 15 3d bf 6e 2f df be
       0.40109402 -0.4629373 -0.73861384 -0.43590873
0001a0 e4 02 05 be e5 c2 e6 be 49 66 04 bf 83 b7 c3 be
       -0.12989384 -0.45070568 -0.51718575 -0.38225946
0001b0 5b 8e 0e bf ad a8 06 bf 90 a5 b6 be 89 e6 fb be
       -0.5568597 -0.5260113 -0.3567319 -0.49199322
0001c0 76 54 fe be 97 71 d6 be c3 59 fd be fb 40 67 3d
       -0.49673814 -0.41883537 -0.49482545 0.056458455
0001d0 cd 1c e3 be d2 d1 29 bf bc cd 02 bf c8 0a 12 bf
       -0.4435791 -0.66335785 -0.51095176 -0.570477
0001e0 5f 54 00 bf 98 01 eb be 39 0a ec be 5c 4b bd be
       -0.5012874 -0.45899653 -0.4610155 -0.36971557
0001f0 6c 14 b8 be 7c c9 f5 be 57 55 ed be 04 1d f5 be
       -0.3595308 -0.48005283 -0.46354172 -0.478737
000200 dd e0 ab 3e f3 c0 d7 3e 5b 7b ce 3e ff 55 f9 3e
       0.33569995 0.42139396 0.40328488 0.48698422
000210 6d 78 de 3e f8 e1 be be 6e 19 ec 3e 06 eb a8 bd
       0.43451253 -0.37281775 0.4611315 -0.08247952
000220 cf 61 08 3f e3 16 d1 3e 2f f5 06 3f c6 5f ee 3e
       0.53274244 0.40837774 0.5271787 0.46557444
000230 02 8f ff 3e 7c ae 17 3f 3b 05 08 bf cf 8e f2 be
       0.49913794 0.5925062 -0.5313298 -0.4737458
000240 e9 66 d7 3e 36 3b a3 3e d2 62 e6 3e e1 8d b4 3e
       0.42070702 0.31881112 0.4499727 0.35264495
000250 dd 2b b3 3e c8 9c c6 3e 0c 5f 0d 3f 92 24 e0 3e
       0.34994403 0.3879149 0.55223155 0.437779
000260 bb 0b cd 3d 72 a7 06 3f 3b b1 86 3e 72 05 f8 3e
       0.10012003 0.5259925 0.2630709 0.48441654
000270 96 2b 2e 3f e6 5d 06 3f 1b e8 f3 3e dc f5 bb 3e
       0.68035257 0.5248703 0.4763802 0.36711013
000280 5b e2 0b bf 7c 1d cd 3e 4b c1 00 3f d7 f1 fe 3e
       -0.54642266 0.40061557 0.5029494 0.49793884
000290 e4 8e b6 bc d1 e6 23 3f 81 4f 06 3f 52 ac cd 3e
       -0.022284932 0.6402407 0.52465063 0.40170532
0002a0 cc 51 e2 3e af a1 ee 3e eb a5 f2 3e ee bc d4 3e
       0.4420303 0.4660773 0.4739221 0.41550392
0002b0 b9 67 e9 3e 04 76 20 3f 5e 1a 06 3d 9d 6c e4 3e
       0.45586947 0.6268008 0.03273999 0.44614115
0002c0 a6 3d 08 3f fc 6e fd 3e e5 fb c1 be 43 0b 10 3e
       0.5321907 0.49498737 -0.37887493 0.14066796
0002d0 a3 31 07 3f e5 51 1c be 32 db d7 be af 22 0d 3f
       0.52810115 -0.15265615 -0.4215942 0.5513105
0002e0 84 59 d1 3e 47 20 43 3f bc 16 06 3f 4f fe d8 3e
       0.40888608 0.76221126 0.5237844 0.42381522
0002f0 fa a0 f5 3e 92 cf ad 3e 97 ad f8 3e f1 3e ff 3e
       0.47974378 0.33947426 0.4856994 0.49852708
000300 12 fb cb 3e 5b b8 aa 3e cd d1 07 3f 08 ce 11 3f
       0.3983999 0.33343777 0.53054506 0.56955004
000310 0b e0 e9 be 11 4f b1 be 8b 23 ff 3e 94 65 01 3f
       -0.45678744 -0.34630635 0.49831805 0.5054562
000320 40 c6 f7 3e eb 13 da bd 11 75 92 3e 9f d9 e7 3e
       0.4839344 -0.1064833 0.2860494 0.4528322
000330 19 17 cd 3e 8c 6d 00 3f 43 bd b9 3e 61 d1 e3 3e
       0.40056685 0.50167155 0.36277208 0.4449568
000340 33 0e f6 3e b0 63 0b 3f 1e 06 0e 3f ae 0e 58 3e
       0.48057708 0.54448986 0.55478084 0.2109935
000350 85 04 00 3f 94 e2 da 3e 13 c7 e6 3e d5 55 76 be
       0.50006896 0.4275099 0.45073757 -0.2405618
000360 0c df f9 3e 74 df 0c bf 94 b8 d1 3e 75 54 dc 3e
       0.48802984 -0.5502846 0.40961134 0.43033186
000370 2f c5 8c be b4 27 13 3f 4b bb bb 3e 08 eb 5a 3e
       -0.2749419 0.5748246 0.3666633 0.2137872
000380 60 19 9f be b1 fd 02 3e de 6d 0d 3f 61 f1 fe 3e
       -0.31074047 0.12792088 0.5524577 0.49793532
000390 59 ee 23 be d4 d5 f6 3e 7b 3f 93 3e 77 62 09 3f
       -0.16008891 0.48210013 0.2875937 0.5366587
0003a0 a3 b9 c3 3e 09 05 e2 3e ca f2 f5 3e e7 1f 92 3e
       0.38227567 0.44144467 0.48036796 0.28539965
0003b0 b8 68 db 3e 7c 50 d4 3e f0 4a e3 3e e3 1b da 3e
       0.42853332 0.41467655 0.4439311 0.425994
0003c0 8c 0d f9 3e 4b df fa 3e 16 c7 de 3e be 6d a3 3e
       0.48643148 0.48998484 0.43511266 0.31919664
0003d0 83 96 d6 3e 4f 17 af 3e b6 5b dc 3e 1a 74 96 3e
       0.41911706 0.3419747 0.4303872 0.29385453
0003e0 40 33 ed 3e c5 79 e7 3e 8a 46 06 3f af 51 f1 3e
       0.46328163 0.4521009 0.52451384 0.47132632
0003f0 62 87 b9 3e dd bd 0a 3f 67 ae f0 3e ad cb ec 3e
       0.362361 0.5419596 0.47008058 0.46249142

layer_out_2.bias f4 [53]
000000 db 35 96 bb 90 17 b2 bb a8 72 74 3a d8 35 a5 bb
       -0.004584057 -0.005434938 0.00093249464 -0.005041819
000010 f5 d9 ca 3b 3b dc 9c ba 71 74 89 ba da be 38 3b
       0.0061905333 -0.0011967489 -0.0010486973 0.0028189928
000020 89 b1 fd 3a fb ab 4c 3b 92 f4 c3 ba 87 51 75 bb
       0.0019355278 0.0031230438 -0.0014950207 -0.0037432627
000030 2b 11 cd bb a4 2b 6c b9 e5 ee 84 3b 06 e4 ed ba
       -0.00625815 -0.00022522971 0.0040567988 -0.0018149621
000040 b8 68 ce 3a af 7e 0f bb 0c e8 b3 3a 30 e7 88 ba
       0.0015747761 -0.0021895578 0.0013725772 -0.0010444876
000050 bc 07 c1 3b c9 8c 40 bb 2a fd 3e 3b 58 8f 75 bb
       0.0058908146 -0.002938079 0.0029142597 -0.0037469473
000060 62 42 2f bb 66 50 fa 3a 89 4e 30 3b 9b a4 0e 3c
       -0.0026742448 0.0019097447 0.002690228 0.008706237
000070 b6 70 ee ba 00 ee d5 3a e4 df 75 3b 0d 7e da ba
       -0.001819155 0.001632154 0.0037517482 -0.0016669646
000080 ba 3a 28 bc dc 5b bd bb 91 89 0f bb 96 4b c2 ba
       -0.010267908 -0.0057787728 -0.0021902064 -0.0014823552
000090 3a cc 84 bb 3e 84 68 ba 35 0c d9 bb da a8 ea b9
       -0.004052666 -0.0008869803 -0.0066237696 -0.00044757762
0000a0 35 b0 c6 3b fe 4e 1e 3a 58 f9 da 3b bc 09 28 3b
       0.006063486 0.00060389924 0.006682556 0.0025640568
0000b0 50 80 01 bb 0b d7 24 3b 46 73 5e 3a a9 19 1e bc
       -0.0019760318 0.002515259 0.0008485805 -0.009649673
0000c0 11 5e bf 3b d8 4a a1 3b f5 11 29 3b 68 61 d2 ba
       0.005840071 0.004922252 0.0025798057 -0.0016050758
0000d0 33 fc 63 3b
       0.0034787774
