results/DDPM/BATCH_SIZE/128/model_final.pth (torch, 661767 bytes, 26 tensors)

layer_x.weight f4 [128, 53]
000000 79 07 8c bd 68 4b 8c 3d f3 00 b1 bd 77 2a 71 bd
       -0.06837363 0.0685032 -0.08642759 -0.05887839
000010 2e 75 d7 bd 8a 53 48 3d 7b c1 8e bd 57 a7 22 3d
       -0.10520397 0.048907794 -0.06970497 0.03971037
000020 51 dd 0a 3e 8b c8 a6 bc 98 8a 9e 3c 8e 79 3d 3d
       0.13560988 -0.020359298 0.019353196 0.0462585
000030 4a 62 23 3d 0e b8 30 3c b4 8a 23 be 93 73 78 3d
       0.039888658 0.01078607 -0.1597088 0.060657095
000040 40 0e 21 3c a9 97 35 bd 08 32 dc 37 87 5b 1a bd
       0.009830058 -0.044334088 2.6249341e-05 -0.037684944
000050 f4 79 30 3e cd 88 5f bd 5a 60 bd bd e4 1a 61 bd
       0.17234021 -0.054573823 -0.09246893 -0.054957286
000060 64 98 9e bc 10 64 e0 3d 77 8a 81 3d 2f 36 ca 3d
       -0.019359775 0.109565854 0.06325238 0.09873616
000070 43 46 8d bd 05 d3 2a 3d bd 1d 19 be fd b1 49 3b
       -0.06898167 0.04170515 -0.1495275 0.0030776255
000080 5a b0 b4 39 65 be 4b 3c 2a 03 b6 bd 87 fb 16 bd
       0.00034463668 0.01243553 -0.08887322 -0.03686097
000090 85 69 80 3d c3 fd 54 bd bf 23 01 3d 9c 5c 96 3d
       0.06270126 -0.05199982 0.03152823 0.073418826
0000a0 99 1e 7c bd 15 f6 f3 3d 11 94 a1 3d e1 6d 3b 3a
       -0.061552618 0.11912171 0.078895696 0.0007149857
0000b0 4e b6 e2 3a aa 4f 62 bd b3 10 3e 3c 2a ab 46 bd
       0.0017296763 -0.055251755 0.011600661 -0.04850308
0000c0 01 17 d2 3c d1 ba 29 3d 17 02 ee 3d 31 34 e2 ba
       0.025645735 0.041437928 0.11621492 -0.0017257986
0000d0 0f e8 55 3d e2 9e c7 bc ce f1 83 bd 4c 0a 50 3d
       0.05222326 -0.024367753 -0.06442605 0.05079107
0000e0 c8 ec 27 be d9 60 ed bd c5 08 3b 3d e3 f8 ca 3d
       -0.16398919 -0.11590738 0.04566266 0.099107526
0000f0 ea 86 1f bd 6a 04 d7 bc 6c de f6 3d ae e4 04 3e
       -0.038947023 -0.026247222 0.12054142 0.1297786
000100 43 3e 78 bc 84 8e 1c bd 4c 3e b4 bd 99 c6 b6 3d
       -0.015151563 -0.03822185 -0.08800945 0.08924598
000110 06 6c 1b be 8b 02 88 bd 1d 91 70 3d bc 10 0e 3e
       -0.15177926 -0.0664111 0.05873214 0.13873571
000120 59 d6 03 be d8 e1 44 3e 35 d5 95 3d 64 0b c4 bd
       -0.12874736 0.19226778 0.07316057 -0.09572485
000130 6c 0f 37 bb 55 d0 07 3e 7d cd 52 bd e9 db 5f bc
       -0.0027932776 0.13263066 -0.0514655 -0.0136632705
000140 2e ff 34 3c 44 e3 48 3c e4 b6 2b 3e d1 39 cd 3d
       0.011047168 0.012261216 0.16768986 0.10020793
000150 84 f6 90 bc bb 47 fd bc ac 9d b9 bc 5f 09 ac bd
       -0.017695673 -0.030917993 -0.022658192 -0.08400225
000160 cb 47 15 3d 8a a4 a1 bc d3 62 a1 3d a0 92 b4 bd
       0.03644542 -0.019731779 0.07880177 -0.08817029
000170 a1 0b b6 3c 40 19 76 3d ec c1 8d 3d 7b 6f 9e 3c
       0.022222342 0.060082674 0.06921753 0.019340267
000180 77 2f 24 bd 7f 91 a5 3c 17 27 be bd 22 80 0c be
       -0.04008433 0.02021098 -0.092847995 -0.13720754
000190 8c b0 d3 bd ee f2 a5 bd f5 79 64 3d 99 3a 8d bc
       -0.10336408 -0.08102976 0.05578037 -0.017239856
0001a0 7a fb 80 3d 5e 27 ac bd af ee 94 3d 84 c1 9d bc
       0.06297965 -0.08405946 0.07272088 -0.019257315
0001b0 53 31 18 3d 8b b6 9b 3d ff 8e 7e bd 04 ee d3 3b
       0.037156414 0.07603177 -0.06214809 0.0064675827
0001c0 f9 22 45 be 45 d6 1b 3d 2f a5 29 bd 9a be 9d 3d
       -0.19251622 0.03804614 -0.041417297 0.0770237
0001d0 7e 41 cd bb 47 7b e2 3d 9a 1e 15 bd 39 70 6d bd
       -0.006263911 0.110586695 -0.036406137 -0.057968352
0001e0 9f 6f ea 3d 86 ef 97 bd 26 67 83 bc 1f 18 32 3b
       0.11447071 -0.07418732 -0.016040396 0.0027175022
0001f0 85 fc 91 3d 4c 77 05 3e f2 14 ef 3d 9b 4d 1b bd
       0.071282424 0.1303379 0.11673917 -0.037915807
000200 49 d0 67 bc d4 03 ea bd c5 ef 25 be 10 f1 ce 3d
       -0.01414878 -0.114265114 -0.16204746 0.10104573
000210 e1 3a 24 3d d1 ed 2a 3d d4 9e 29 3e 13 3f 80 bc
       0.040095214 0.041730706 0.16564494 -0.015655076
000220 62 52 81 bd a1 2a 15 be 5a 31 8d 3c ad 1a c5 3d
       -0.063145414 -0.14567043 0.017235447 0.096242286
000230 35 f5 b3 bc fb ce 79 3d 0c aa b4 3d 0b 30 22 bc
       -0.02196751 0.060988408 0.08821496 -0.00989915
000240 55 2b 47 3b 59 15 8d 3c 37 55 97 bd 6a 1d 67 bd
       0.0030390818 0.017222093 -0.073893 -0.056424536
000250 6c 9d b0 bc 50 41 ab 3c 4c e8 08 be 51 fe a5 3d
       -0.02155944 0.020905167 -0.13369864 0.08105148
000260 5f 79 90 3b d2 00 bb bb 3a 3d 0b 3d de 2c 21 be
       0.004409 -0.005706885 0.033993937 -0.15739772
000270 b6 ea d9 bd 33 fa f5 3d bf d3 71 3d 0b 91 b1 bd
       -0.10640471 0.12010612 0.059039827 -0.08670243
000280 d8 f9 d3 3b 1d 66 7f 3d d9 37 54 3d 37 a6 97 bd
       0.0064689927 0.062353242 0.051811073 -0.0740475
000290 ae d6 f2 bd b6 fa 28 be c8 4f 0c bd 8b eb 96 bb
       -0.11857353 -0.16501889 -0.034255773 -0.0046057156
0002a0 19 30 83 3c 86 22 2a 3e 97 5f 0e bb d5 23 10 bc
       0.016014146 0.16614732 -0.0021724456 -0.0087976055
0002b0 bb a1 3b 3d a0 4f a7 bd 82 5a 1f 3d 9a 58 a3 3d
       0.045808535 -0.08169484 0.038904674 0.07975884
0002c0 b9 55 22 be ea 38 07 3d 94 29 3c 3e fe 85 6e bd
       -0.15853013 0.03301326 0.18375236 -0.058233254
0002d0 42 a1 8a bd e5 7f 9d 3d 2b 09 d8 bc f1 6b bf 3c
       -0.06769039 0.076904096 -0.02637156 0.0233669
0002e0 5e b2 a6 bc 9a 1e 45 3d d0 e7 c0 bd 35 4f ac 3d
       -0.020348724 0.048124887 -0.09419215 0.08413545
0002f0 bc 69 76 bd 0b 95 cf bb e9 a5 54 3d ff 8b 18 3e
       -0.06015943 -0.006334906 0.051916037 0.14897154
000300 e7 17 0d bd 28 a2 40 bd 8c 5a 3f bd 7e 5f 87 3b
       -0.034446623 -0.047029644 -0.04671721 0.0041312566
000310 cb f2 26 3c af bf d0 3c 2e da f6 bb ac ef 64 bd
       0.010189722 0.025482027 -0.0075333333 -0.05589263
000320 34 74 32 3e 94 3e 79 3d 27 6f 45 bd 5c 1b 52 3d
       0.1742714 0.060850695 -0.048201706 0.051295623
000330 61 5e e7 bd 8b 13 09 bd 18 d5 9f 3d bb d2 c4 bd
       -0.11297298 -0.033465903 0.07804316 -0.09610506
000340 4c 6f 1d 3d 04 99 db bd 14 c3 a5 3d 02 54 2d bd
       0.03843622 -0.10722545 0.08093849 -0.042316444
000350 c3 ef 21 3e b5 ab fe bd 17 b2 e5 bc 77 d3 ef 3d
       0.15814118 -0.12435094 -0.028039021 0.117102556
000360 47 fd ca 3d 10 4d 01 bd 3d 71 f4 bc ab 88 67 3d
       0.0991159 -0.031567633 -0.029839152 0.05652682
000370 12 5d 5c bb 0f 7f d5 3d 31 d5 47 bd 4c 7a b7 3d
       -0.003362481 0.10424625 -0.0487873 0.08958873
000380 80 b2 37 bd 8a d9 ae 3d 2c 92 c5 3d 36 a1 a8 3c
       -0.044847965 0.08537586 0.09647021 0.020584684
000390 21 6c eb bc cf b8 02 be 54 0d 50 bd 1d 10 df 3c
       -0.028738083 -0.12765811 -0.05079396 0.027229363
0003a0 24 68 a9 3d 98 f3 08 be f5 43 7b 3d f2 7c 07 3d
       0.082718164 -0.13374174 0.061344106 0.03307814
0003b0 e1 74 82 3d 9f be 23 3c d7 64 2a bd fc cd de bd
       0.06369949 0.009994178 -0.041600075 -0.10879132
0003c0 c5 a1 aa bd 24 43 ae 3d bd 59 c1 3c 7a 7e 2b 3d
       -0.08331636 0.085089 0.02360236 0.041868664
0003d0 1d 61 b7 bd 28 95 cb bd 5d 2b 5a 3c a6 0d a3 bb
       -0.0895407 -0.09940559 0.013316003 -0.0049759923
0003e0 f8 04 f2 3c 1d a2 ee 3c f2 d4 de bd b9 71 0a bd
       0.029543385 0.029130036 -0.1088046 -0.03379986
0003f0 90 65 5d 3d 58 35 37 bc 9e 20 22 bd be eb de 3d
       0.054051936 -0.011182152 -0.039581887 0.10884808

layer_x.bias f4 [128]
000000 74 a7 15 3e 43 fa bf 3d 22 f1 99 3d 06 b9 3c 3e
       0.1461466 0.093739055 0.075166956 0.18429956
000010 96 2b 28 3e ff 4b 87 3d a3 df 18 bd 23 b8 22 3e
       0.16422877 0.06606292 -0.03732265 0.15890555
000020 b9 e6 d1 bc f5 2b cc 3d 91 cc 42 3e 68 5e b5 3d
       -0.025622712 0.09969322 0.19023348 0.08855897
000030 17 0c f8 3c d0 28 92 3d 51 30 6e 3e e7 37 0d 3e
       0.030279202 0.071366906 0.23260619 0.13790856
000040 a9 f2 d7 3d 53 41 32 3e f5 9f e4 3b 48 22 51 bd
       0.105443306 0.17407732 0.006977076 -0.051058084
000050 de 21 e7 3d 7e a3 09 3e 39 16 54 3e 9b 05 26 3b
       0.112857565 0.13441274 0.20711602 0.002533293
000060 64 1a 4c bd 15 36 2a 3e 76 b0 53 3d 6c 1b e1 3d
       -0.049829856 0.16622193 0.05168196 0.109915584
000070 e2 96 3f 3e 8c bc 88 3d 53 54 7a 3e b0 56 55 3e
       0.18709901 0.066765875 0.2444623 0.2083385
000080 ff 33 38 3e 86 56 09 3c d1 82 12 3e fa 55 57 3e
       0.17988585 0.008382445 0.14307715 0.21028891
000090 4a f8 04 3e 68 f3 34 3e 01 6c 9a 3c 08 61 26 3e
       0.1298534 0.17670977 0.018850328 0.16247952
0000a0 35 16 20 3d 1e 00 3c 3d 5c 7c 2e bd 7c 21 61 3e
       0.03908368 0.04589855 -0.042599067 0.2198543
0000b0 1d dd 3b 3e 58 a4 72 3e 2c 4c 60 3e 17 fe 64 3e
       0.18346067 0.23695505 0.21904057 0.22362553
0000c0 7b 1d 36 3e 01 a3 25 3e 23 ae 60 3e 02 1b 0a 3e
       0.17784683 0.16175462 0.21941428 0.13486865
0000d0 f1 47 fa 3c be 9f 86 3e c4 31 5c 3d f3 2c 11 3e
       0.030551882 0.2629375 0.053758398 0.14177303
0000e0 f1 91 3c 3e e5 f6 15 3e 64 2f 70 3e 15 10 30 3e
       0.18415047 0.14644964 0.23455578 0.17193635
0000f0 fe e8 6d 3d 35 c8 08 3e e9 e3 52 3e 8e c9 46 3e
       0.058083527 0.13357623 0.20594753 0.19412825
000100 f4 5b 8c 3e 24 a5 0a 3e ee 8b e5 3d 8a 12 32 3e
       0.27413905 0.13539559 0.1120833 0.17389885
000110 c8 1a d7 3d 6f 91 82 3e d6 2f 42 3e eb f5 10 3e
       0.10503155 0.25501582 0.1896356 0.1415631
000120 18 ba 27 3e 61 53 ad 3d 2c b5 0d 3d fd ad 41 3e
       0.16379583 0.08463169 0.034596607 0.18914028
000130 6f 49 1b 3e 25 7e 12 3e 0c df 29 3e 17 a2 52 3e
       0.15164731 0.14305933 0.16588992 0.20569645
000140 2e 75 7c 3e 6a ec 6a 3e 53 cd 59 3e ca 21 72 3e
       0.24654076 0.22941747 0.21269731 0.23645702
000150 35 0c 1b 3e f3 7f 36 3e 0f ac 5f 3e 28 73 31 3e
       0.15141375 0.17822246 0.21842979 0.17329085
000160 ed 59 28 3e 49 e4 50 3e 46 d7 3c bd 26 3a 25 3d
       0.16440554 0.20399584 -0.04610374 0.040338658
000170 d3 29 ee bd 74 2f d4 3d 0c ca d3 3d 18 91 4d 3e
       -0.11629071 0.103606135 0.10341272 0.2007488
000180 6b c7 08 3e 2f 65 34 3e 17 74 af 3c 31 d0 10 3e
       0.13357322 0.17616723 0.02141766 0.14141919
000190 40 7b df 3d 87 74 12 3c 72 51 49 3e a3 1e 11 3c
       0.1091218 0.008938915 0.19659975 0.008857402
0001a0 d7 54 57 3e 3f bc bb 3d ab f6 00 3e 13 b1 5a 3e
       0.21028458 0.091667645 0.12594096 0.21356611
0001b0 05 4b 26 3e 9f 38 72 bd 64 e8 3d 3e b6 60 11 3e
       0.16239555 -0.05913603 0.18545681 0.14197049
0001c0 d1 b4 ba 3d 2a a8 67 3e 72 cd 45 3e 29 38 54 3e
       0.09116519 0.22622743 0.19316652 0.20724548
0001d0 b1 93 9e 3d 4a c8 68 bc 6f c8 4f bd 1f 43 e8 3b
       0.07743014 -0.014207909 -0.050728258 0.0070880796
0001e0 b3 0f 29 3e 35 bf 96 3c 2d a5 07 bc 3c 8e 3a 3e
       0.16509895 0.018401721 -0.008279127 0.1821832
0001f0 ea af cd 3d e0 88 ad bc ac d5 ea 3d 17 7c 1b 3e
       0.100433186 -0.021183431 0.11466536 0.15184055

layer_t_1.weight f4 [128, 128]
000000 39 27 00 bd 3f 07 42 3c 6f ea 2e bd b3 92 36 3d
       -0.031287406 0.011842548 -0.042704042 0.044573497
000010 1a 73 8b bd c5 d1 1c bc c8 77 85 3d d2 0f 0a bd
       -0.06809063 -0.009571497 0.06516987 -0.033706494
000020 a4 bf e9 3c 2c 0a 17 3d 04 21 1e 3d 4d 3c 12 3c
       0.028533764 0.036874935 0.038605705 0.00892551
000030 77 3a ad 3d 80 8b ff bd d3 5e 08 bd e4 bc 02 3d
       0.08458417 -0.124777794 -0.033293556 0.03191842
000040 70 0e ad bd 81 3f cf bc 35 93 9c 3b 49 4b 27 bd
       -0.08450019 -0.025298836 0.0047782906 -0.040843282
000050 7c 49 da 3d ff 12 cf 3c 4a 79 8a bd 48 0e e6 bd
       0.10658547 0.025277613 -0.06761415 -0.11233193
000060 fd ce a6 bd c6 f9 8a 3c 69 65 28 3c 8a f1 8d 3c
       -0.08144949 0.016964804 0.010278084 0.017327089
000070 61 51 59 bc 21 4e 58 bc e2 e4 7f 3d 97 a3 26 3b
       -0.013264031 -0.013202221 0.06247414 0.0025427097
000080 f7 de cc bb 64 c2 a1 3d 3c 44 c8 3c cd 75 04 3d
       -0.0062521654 0.07898405 0.0244466 0.032338906
000090 f7 69 2c 3d f1 4f 18 3d 0a b7 3d bd cf 0c a5 bd
       0.042093243 0.037185613 -0.046317138 -0.08059084
0000a0 6d d8 2c bd 8a e4 29 bd 88 40 c2 3d a0 b2 a8 3d
       -0.042198587 -0.041477717 0.094849646 0.08237195
0000b0 73 5c 40 3d 50 f5 75 bd 0f 81 b4 bb 1d 97 2f 3d
       0.046963166 -0.0600484 -0.005508549 0.042868722
0000c0 84 32 18 bc e7 92 90 3d 6c 9d ab 3d 46 77 8f 3c
       -0.009289388 0.070592694 0.08379635 0.017512929
0000d0 79 4b 0b 3c 09 fa 88 3d 54 4e 24 3d c4 82 44 bd
       0.008501881 0.066883154 0.040113762 -0.04797627
0000e0 a4 21 f5 3c cf e3 38 be 25 f0 ad 3d ae 35 4c 3c
       0.029923268 -0.18055652 0.084930696 0.01246397
0000f0 01 21 5c 3c 20 49 67 3d 38 60 af 3c 61 4b 4d 3d
       0.013435603 0.05646622 0.021408185 0.050120715
000100 f7 b6 b2 3c c4 8b c9 bc c1 27 b0 bd 18 82 51 3c
       0.02181576 -0.024602778 -0.086013325 0.012787364
000110 2f 0c 85 bd fe a7 c5 bd 12 49 95 bd cd a0 77 3d
       -0.064964645 -0.096511826 -0.07289328 0.060456086
000120 8a f9 91 bc ea d6 56 bd a2 56 1b 3b 30 7a 88 bc
       -0.017819185 -0.05245105 0.002370276 -0.016659826
000130 5c 42 99 bd 76 34 66 3d 84 be b9 3c 37 ab 6b 3d
       -0.0748336 0.056202374 0.022673853 0.05753633
000140 f7 65 a8 3c a9 80 1c bd 95 8f ca 3d c0 22 e2 3c
       0.020556433 -0.038208637 0.09890667 0.02760446
000150 37 23 1f bd 8e cb de 3c 5a 71 1a 3d f1 37 57 bd
       -0.038851943 0.027196672 0.037705757 -0.052543584
000160 4f b7 c3 bc 5a 10 0b 3d e1 9c a8 3b 2e 57 93 bd
       -0.02389112 0.03395114 0.0051456545 -0.071943626
000170 62 6c 28 bb 72 8f c6 3d b6 c2 9b bd 91 4e 05 bd
       -0.0025699367 0.09695329 -0.076054975 -0.03254563
000180 85 38 33 bd fb 26 57 bd 90 0c 7a 3d b4 36 05 bd
       -0.043755073 -0.05252741 0.061047137 -0.032522872
000190 1d 71 37 3d 10 7f db bc fa 88 4b 3d 4b e9 90 bd
       0.044785608 -0.026793987 0.049691178 -0.07075747
0001a0 9c ea 42 bd d8 31 a1 3b 55 16 96 3d 0d 0b fc bc
       -0.047587022 0.004919272 0.07328478 -0.030766988
0001b0 44 58 6a 3a 62 25 f7 3c 2a 49 48 3d 89 b8 d3 bc
       0.0008939544 0.030169193 0.0488979 -0.02584483
0001c0 fc a0 c7 3d 45 61 a1 bd eb cd 9c bc 51 48 9a 3d
       0.09747502 -0.07879881 -0.019141158 0.075333245
0001d0 76 b0 63 bd a2 cb c0 3d 38 9f dd bb 2f 83 12 3d
       -0.05558821 0.0941384 -0.006763365 0.035769638
0001e0 5a 46 f6 3d 79 9f 1f be e9 86 9f bb e5 f0 f6 bc
       0.12025137 -0.15588178 -0.0048683775 -0.030144164
0001f0 76 b0 9d bc 83 41 c1 bd 88 be 9c 3c a3 c0 5d 3d
       -0.019249182 -0.094363235 0.019133821 0.05413879
000200 c7 c4 96 bd 5b 5c 46 bc 90 d9 c0 bd bc ff b1 bc
       -0.07361751 -0.01210698 -0.09416497 -0.021728389
000210 b4 a5 ae 3d 0e 62 98 3d a0 ea 40 3d 23 c3 31 bc
       0.08527699 0.074405774 0.047098756 -0.010849747
000220 7b 14 82 bd b9 8a c9 bb d1 98 65 3d b5 65 b5 bd
       -0.063515626 -0.00615057 0.05605394 -0.0885729
000230 03 76 be bc 71 c2 93 3d fc 69 78 3d bc 18 99 bd
       -0.023249632 0.07214821 0.06064795 -0.07475421
000240 5f 59 45 bd 72 e4 9a 3d 8a 8a 80 3d 37 39 29 3d
       -0.048180934 0.07563104 0.06276424 0.04131433
000250 34 b5 97 bc e7 50 a5 bd d1 c0 35 3d 12 93 73 bd
       -0.018519022 -0.080720715 0.044373337 -0.05946643
000260 10 79 9e 3d 9a 4d e5 bd b4 ac cc bc 64 e3 06 3d
       0.077379346 -0.11196442 -0.024984695 0.0329317
000270 92 60 85 3c 8a ec 97 ba 06 10 41 3d f6 7a c0 3c
       0.0162814 -0.001159088 0.04713442 0.023496132
000280 42 80 21 bd 86 fa 81 3d 09 2f 8a bd 0b 95 2c 3d
       -0.039428957 0.06346612 -0.067472525 0.042134326
000290 86 ab e7 3c 12 8a ea bb fa 2f 25 bd a3 32 13 bc
       0.028280031 -0.0071575725 -0.040328957 -0.008984241
0002a0 de ca 34 bd a1 a4 19 3d 88 a1 bb bd 30 0f 0b bd
       -0.04413878 0.037510518 -0.09161669 -0.03395003
0002b0 2a 00 ab bc 7b d0 2d 3d ff 19 22 3d 93 5d 8d bd
       -0.020874102 0.04243515 0.039575573 -0.069026135
0002c0 52 4b 29 3c d8 3a 8f bd 11 03 ea bc 30 88 ef bc
       0.010332899 -0.069936454 -0.028565915 -0.029239744
0002d0 8f d9 42 3d 36 a9 c3 3c c3 9b 63 3d 7b a2 8b bc
       0.04757076 0.023884397 0.055568468 -0.01704525
0002e0 b9 fb 40 bd 26 ef 90 3d fe 4d ff 3b 62 0b 34 3c
       -0.04711506 0.07076864 0.00779128 0.010989042
0002f0 99 f5 1e bc c4 97 00 3c 0c ca 04 3d 56 ac a0 bc
       -0.00970211 0.007848684 0.03241925 -0.019613426
000300 61 41 01 bb 1d 03 86 3d 1c 25 52 3d 39 7c 0c bd
       -0.0019722807 0.065435626 0.05130492 -0.034298155
000310 a4 be d3 bc a2 14 97 3b 45 6b 01 bc 3b b1 c5 3c
       -0.02584774 0.004610614 -0.00789911 0.024132362
000320 99 56 81 3c 55 d2 50 bd 2a ae 22 bd 50 6b 26 3d
       0.015788363 -0.05098184 -0.039716877 0.040629685
000330 6f b0 10 bd 3d e0 89 bc 62 90 89 3d bc 2b 41 bd
       -0.03532451 -0.016830558 0.06716992 -0.04716085
000340 76 39 c6 bd b3 93 0b 3d a6 21 97 3d 1e 42 53 3c
       -0.096789286 0.034076404 0.07379465 0.012894182
000350 a9 8f 41 3d 3c 20 f4 bc 0c 41 62 bd 35 bd 3c bd
       0.047256146 -0.029800527 -0.055237815 -0.04607888
000360 36 eb 71 3d a2 38 a3 bd 90 e2 b1 bd 96 34 a7 bc
       0.059062205 -0.07969786 -0.086857915 -0.020410817
000370 76 1f 8a bc 54 c3 17 3c 0c fd 71 3c f4 ea ae bc
       -0.016860705 0.009262878 0.014769804 -0.021352269
000380 59 cb 83 3d ce 78 c2 3d 19 07 78 3d d1 e0 36 3d
       0.0643527 0.09495698 0.060553644 0.044647995
000390 f8 90 26 bd b9 70 9d bd 7e 50 30 bd 19 e0 45 3d
       -0.040665597 -0.07687516 -0.043045513 0.04830942
0003a0 c9 5f 46 bd f8 29 4e 3d 9d 91 a8 3c c7 0d ae 3c
       -0.04843119 0.050332993 0.020577246 0.021246804
0003b0 46 44 1b bd 7b 1b 03 3b 6c 44 67 bd e1 9d 3c 3d
       -0.037906907 0.0020005393 -0.056461737 0.046049003
0003c0 de a8 ca bd ba ed ab bd 4c fc 8f 3b 6d 3a 53 bc
       -0.0989549 -0.08394952 0.00439409 -0.012892348
0003d0 f2 8f 83 bd 97 a0 84 3d fb a7 a0 3c 89 46 16 bd
       -0.0642394 0.064759426 0.01961135 -0.03668836
0003e0 91 8f 45 bd f4 af ba bc e0 38 34 bb 25 ab db 3c
       -0.04823262 -0.02278898 -0.002749972 0.026815007
0003f0 fb 00 9d 3d fd 4e 87 3d 2b ae ff bc 86 e9 9e 3d
       0.07666203 0.06606863 -0.03121098 0.07759385

layer_t_1.bias f4 [128]
000000 27 d0 73 bd 40 9d f4 bc 1f 52 75 bc 33 ff 19 3d
       -0.05952468 -0.029860139 -0.0149731925 0.037596893
000010 61 c8 e7 b9 22 dd 4a 3d 4e c0 65 3d 40 03 65 3d
       -0.00044209047 0.049527295 0.0560916 0.055911303
000020 6f d6 40 3d e3 f8 9a bd c2 72 81 3b fb 33 27 bd
       0.0470795 -0.075670026 0.003950448 -0.040821057
000030 3e de c1 bd c4 49 ae 3d 56 8d ae 3c 6f 90 2f bd
       -0.094662175 0.085101634 0.021307629 -0.042862352
000040 42 9c 9e 3d fc a1 d5 38 b5 c2 c1 3d 12 ab 9a 3c
       0.077446476 0.000101868034 0.094609655 0.0188804
000050 ee 54 d6 bc 73 f4 bf 3d e3 ef 20 3d 7c d7 73 3d
       -0.026163545 0.09372797 0.039291274 0.059531674
000060 9b 71 98 bd 22 25 4a 3d aa f7 1a 3d 13 ff e8 bd
       -0.074435435 0.04935182 0.037833847 -0.113767765
000070 ec af 2b 3d 10 79 40 bd b6 32 4e 3d 14 da e1 3d
       0.04191582 -0.046990454 0.05034133 0.11027923
000080 d6 05 fc bc fe a6 bd bd 86 24 d8 3d 7a 85 06 3d
       -0.030764502 -0.09260367 0.10553841 0.032842137
000090 1b 4c 90 3c 8a d9 8b bd 72 49 05 3d ad a1 35 3d
       0.017614415 -0.06828602 0.032540746 0.04434364
0000a0 88 33 c5 bc c9 fc 1c 3d 55 74 61 3d 6d 01 59 3d
       -0.024072424 0.038327012 0.055042583 0.052979875
0000b0 b2 65 52 3d cb 2a 0b bd 59 d5 d4 bd 71 6b a4 bd
       0.051366515 -0.033976357 -0.10392255 -0.08028305
0000c0 c4 a5 02 3c 2a 69 3f 3d 5d 6a 47 bb 5b f7 53 3d
       0.007974092 0.04673115 -0.0030428388 0.05174957
0000d0 c3 ac 11 3d 59 78 92 3c ec f6 9d 3d 8a 52 48 3d
       0.03556515 0.017879652 0.07713112 0.04890684
0000e0 c2 62 19 bc ba d7 e2 3a 6a 31 b2 bd 54 98 0f bd
       -0.009361925 0.0017306723 -0.08700831 -0.03505738
0000f0 47 9d 60 3d 39 d6 c3 bc 35 55 75 3d 2e ac 3a bc
       0.05483749 -0.02390586 0.059895713 -0.01139359
000100 1c d2 f4 bc 38 b9 b5 3d ba a0 9b bd fd 4c 6e bc
       -0.029885344 0.08873218 -0.075990155 -0.014544723
000110 00 a3 e2 3c dc ab 38 bd d6 df 23 bd 9a 41 f0 3c
       0.027665615 -0.045085773 -0.04000839 0.029328156
000120 a2 e0 36 3d b1 78 0d bd d7 e6 62 3d c2 fe 73 bd
       0.04464782 -0.03453893 0.055395927 -0.059569128
000130 f7 86 13 3d 7c 2d df 3b 16 68 63 3c 1f 08 55 bd
       0.036017384 0.006810842 0.0138797965 -0.052009698
000140 8d c3 35 bd 8b 77 71 bd 41 7a c4 bd 3d 2d 97 3c
       -0.044375945 -0.058951896 -0.095936306 0.018454188
000150 f6 6b 6b bd ba 68 53 3c af b1 03 bd c0 93 18 bd
       -0.057476006 0.012903387 -0.032151874 -0.03725028
000160 6d 7e 81 3c 2b 0d ca bd 45 bf 63 bd 22 9f 04 3d
       0.015807355 -0.09865793 -0.05560233 0.032378323
000170 80 c0 b4 ba dd de 0f bd ab 44 10 3d 99 22 46 3c
       -0.001379028 -0.03512465 0.035221737 0.01209321
000180 0e e7 01 3d 46 f9 f2 bc 43 3a 89 bc 7d c3 82 3b
       0.03171449 -0.029659878 -0.016751414 0.003990589
000190 5b 9f 46 3b 80 8f a9 3d 89 32 03 be 8b 86 cc bb
       0.0030307386 0.082793236 -0.12812246 -0.0062416247
0001a0 db e5 66 bd 88 6d 15 bc 00 12 9a 3d a7 aa 62 3d
       -0.05637155 -0.009120353 0.075229645 0.055338528
0001b0 70 68 e5 bc 09 d8 0b 3b 0f 0a 51 bb bf fc 39 bc
       -0.028003901 0.0021338484 -0.0031896865 -0.011351763
0001c0 30 50 66 3c bf 30 34 bd 88 34 4f 3d aa 45 f4 3c
       0.014057204 -0.0439918 0.050587207 0.029818375
0001d0 51 32 96 bb 01 49 a7 bd ad 38 b5 bd 23 cf 20 3d
       -0.004583635 -0.08168221 -0.08848701 0.03926004
0001e0 ca c3 d0 bd 29 71 ee 3d 9b 8c bd 3c eb 33 c9 3d
       -0.10193594 0.11642677 0.023138335 0.09824356
0001f0 de c4 3e bb a0 79 0e 3d 09 99 86 3d 9c 35 40 3d
       -0.0029109041 0.03478396 0.06572158 0.046926126

layer_t_2.weight f4 [128, 128]
000000 67 10 ab 3c 6f b3 99 ba 1c e0 43 bd b6 e5 8c 3d
       0.020881845 -0.0011726449 -0.04782115 0.068797514
000010 2b bc 16 bd b7 96 d9 3c 48 43 31 3d c4 74 2b 3d
       -0.036800545 0.026561124 0.043277055 0.041859403
000020 74 00 00 3d 5f 92 58 bc 94 36 88 bd 2a 50 8d 3d
       0.031250432 -0.013218491 -0.06651035 0.06900056
000030 41 49 84 3c cb fe 0b bd 1e e9 54 3d b5 3a dc 3c
       0.016148211 -0.034178536 0.05198013 0.026883462
000040 a2 0d dd ba a9 f0 34 3d 20 cb 16 3d 2d 63 c8 3b
       -0.0016865025 0.044174824 0.03681481 0.0061153383
000050 82 a8 f1 3c 6c 32 70 3d 15 8c 89 bd a4 bc 30 bd
       0.029499296 0.058641836 -0.06716172 -0.04314865
000060 a0 55 2a 3d 3c 6d ae bd 08 5b 9d 3c 27 f4 1d 3d
       0.041585565 -0.085169286 0.019208446 0.03856292
000070 4b 56 31 3d ea 7f 83 bb 53 dd 3f 3d bf 0b 30 bd
       0.043295186 -0.0040130513 0.04684193 -0.042979952
000080 3b cc 01 3d 23 67 04 bd 55 6b 79 3d 48 f7 77 bd
       0.03168891 -0.03232492 0.060893375 -0.06053856
000090 f7 3a 59 3d 4b 58 21 bc a8 95 cf 3d 86 4e 81 3b
       0.05303475 -0.009847711 0.101359665 0.0039461283
0000a0 a3 66 51 bc 3d c4 5d 3d 2f 7e 26 bd 3d b8 d0 bd
       -0.012780818 0.054142226 -0.04064768 -0.10191391
0000b0 71 e8 32 3d e3 df 0f bd 9f bb 88 3c 71 30 10 bc
       0.043678705 -0.035125624 0.016691027 -0.008800612
0000c0 1a a6 13 3c e9 d6 0b bc f9 24 a1 bd 12 91 98 bc
       0.00901177 -0.008535125 -0.0786838 -0.018623862
0000d0 f8 76 d7 ba 9f 3f ea 3c a3 98 24 bd a2 60 18 bd
       -0.0016438654 0.02859479 -0.04018463 -0.03720153
0000e0 9b ba 2d bd 6e d6 8d 3d 73 71 93 3c 8d 4f 35 bd
       -0.04241429 0.06925665 0.017998433 -0.04426532
0000f0 72 f1 04 bd 51 c6 20 3d 08 91 93 bd c2 84 c1 3d
       -0.032456823 0.03925163 -0.07205397 0.0944915
000100 66 bc 8e bd 91 29 fb bb 44 9e e2 bc 29 7a 9c bc
       -0.06969528 -0.007664867 -0.027663358 -0.01910122
000110 0d 0d 3f 3d 41 f2 c1 3c c2 2c 7c bb 2a 83 07 3c
       0.046643306 0.023675086 -0.0038478826 0.008271018
000120 a9 17 0b bb 6a 04 af 3a 25 3b 83 bd 38 1b 0c 3d
       -0.002122382 0.0013352756 -0.06407765 0.034205645
000130 31 c8 ae bd 04 27 36 bd c6 89 7a 3d 35 b6 9d 3d
       -0.08534277 -0.044470802 0.061166547 0.07700769
000140 0d fc 2d bd 45 bc 07 bc 5e 00 0a bd 25 ee b7 3c
       -0.042476702 -0.008284633 -0.033691756 0.022452423
000150 ba 8c 99 bd 9a 71 f3 bc ec 0e 2c 3c d4 82 0a bd
       -0.074975446 -0.029717255 0.0105016045 -0.033816174
000160 d9 71 4c 3d 8d d7 4a 3d 5f 33 57 bd 04 a5 50 3d
       0.04991326 0.04952197 -0.052539226 0.05093862
000170 a0 99 66 bd e4 2d ea 3c ff ff 85 3d 39 d8 bc bd
       -0.056298852 0.028586335 0.06542968 -0.09220929
000180 b7 87 32 3d 88 d7 88 bc 60 7f 9f 3d 99 f8 5a bc
       0.04358646 -0.016704336 0.07787967 -0.013364934
000190 35 93 3d bd 57 49 8f bd df a4 33 bc 78 c2 88 3d
       -0.046282966 -0.0699641 -0.010964601 0.06677717
0001a0 bd c3 1b 3d 52 d6 92 bc d3 67 6b 3d d6 9b 0c 3c
       0.038028467 -0.017924462 0.05747206 0.008582076
0001b0 b5 4e 60 bd 05 c5 c2 bd 13 d9 d3 3c 4f a6 af bc
       -0.05476256 -0.09510235 0.025860345 -0.021441607
0001c0 1e 41 27 3d 10 63 56 3d bc bc 4e bd 66 69 13 3d
       0.040833585 0.052340567 -0.05047296 0.035989188
0001d0 d9 12 19 bd 99 02 a5 3d 86 4b 05 3d d7 43 4d bd
       -0.03737149 0.08057136 0.032542728 -0.050113525
0001e0 db c4 09 3d 6b 4b 43 bd c3 f7 63 bd 81 59 c3 bd
       0.033635 -0.047679346 -0.055656206 -0.09538556
0001f0 c8 52 28 3d 13 ef bf bc 13 fb 4b bd 1f df a3 3d
       0.04109457 -0.02342943 -0.04979999 0.08001541
000200 d0 ad 1b bd 47 b8 dc 3c e7 bd e6 3d 64 a0 34 bd
       -0.038007557 0.026943339 0.1126669 -0.044098273
000210 1b 15 1d 3d 6d b5 91 3b 8a 4f 12 3c 78 78 7f bd
       0.038350206 0.0044466765 0.008930096 -0.062370747
000220 5e cc 0a bc e6 68 cb 3d 62 45 05 bd cf ae e6 3d
       -0.0084715765 0.09932117 -0.03253687 0.11263811
000230 18 b9 6a 3d b7 e7 59 3d 81 3e 77 bd 52 d9 07 bc
       0.057305425 0.053199496 -0.060362343 -0.008291559
000240 75 7a e8 3d 7a 53 aa 3d 07 0c 32 3d 76 9c 24 3c
       0.11351482 0.08316703 0.0434685 0.010047069
000250 67 85 a7 3d db 95 40 bc d2 b8 90 3d f9 57 b0 bc
       0.08179741 -0.011754478 0.07066502 -0.021526324
000260 bd 9c b9 bc 24 7e df 3d a5 2e 00 3c 83 a6 a7 bd
       -0.022657746 0.10912731 0.007823621 -0.081860565
000270 dd 3b bc bc 88 87 3d 3d 88 81 c6 bc f7 de 4b bc
       -0.022977764 0.04627183 -0.024231687 -0.012443296
000280 b7 03 8b 3c 1b 1e d7 bd 41 81 96 3d fd 78 0d be
       0.016969545 -0.10503789 0.07348872 -0.13815685
000290 28 45 15 3c 89 43 14 3d b6 85 8a bd 84 0d 2d bd
       0.009110726 0.03619722 -0.067637846 -0.042249218
0002a0 b6 4f 53 3c 39 fd 61 bd e2 3f a3 3c 76 63 95 3d
       0.012897423 -0.055173133 0.019927923 0.07294361
0002b0 58 6a 97 3d f1 86 94 3d e1 4f 2f 3c 99 e8 a5 bd
       0.0739333 0.072523005 0.010700197 -0.08101005
0002c0 01 2e 0d bb 5b 23 a3 3d 4d ef bb 3c 5b c1 fd bc
       -0.0021542313 0.07965728 0.022941256 -0.030975988
0002d0 84 d1 92 bc 21 23 52 3d c5 dc d1 3c aa ab 8b 3d
       -0.01792217 0.051303033 0.025617966 0.06819852
0002e0 49 d5 a0 bd 28 be 7b bc c9 34 8c bd 12 e8 74 3d
       -0.07853181 -0.015365161 -0.068460055 0.059791632
0002f0 45 2c 57 bc 58 9f ea 3d 18 40 5b bd c4 97 a0 3c
       -0.013133113 0.11456174 -0.05352792 0.019603617
000300 59 dc fb 3c 54 b5 b8 bc f7 47 d2 bd f6 5d cb 3d
       0.030744718 -0.022547401 -0.102676325 0.09930031
000310 b7 05 0e 3e 04 a6 0f 3d cf 4e 87 3c c2 68 4c bd
       0.13869368 0.035070434 0.016517071 -0.049904592
000320 4d 08 2c bd 5f 12 51 3c 53 18 5a bd 6c 45 02 be
       -0.042000104 0.012760728 -0.053245854 -0.12721795
000330 f7 ab 88 3d 2a 55 c7 3d b8 70 42 bb cd 4b 91 3c
       0.06673425 0.09733041 -0.0029669236 0.01773634
000340 ed ef 4f bd 44 03 5b 3d 39 69 0a be e3 e5 38 bd
       -0.05076592 0.05346991 -0.13516702 -0.045141112
000350 40 36 8e bd 0a 01 9e bd ff 2f 9a bc 76 ab 06 3d
       -0.06943941 -0.07715042 -0.018821714 0.03287836
000360 12 cf 3b bd 8a 87 c5 bd 38 d4 8c 3c c8 41 90 3d
       -0.045851775 -0.09644993 0.017191038 0.07043797
000370 a2 f1 8d 3d 9c e6 26 bc 21 0c 19 bc 53 70 53 ba
       0.069308534 -0.0101868175 -0.009341271 -0.0008065749
000380 1b 34 c5 bd 0e 2f 27 bc 17 5a 8a bc ca 03 9c bd
       -0.09629079 -0.01020409 -0.016888661 -0.0761791
000390 bd 0b 7c bd c6 66 01 bd 33 d6 2d 3c a4 cc 6a 3b
       -0.061534632 -0.031592153 0.010610151 0.0035827542
0003a0 4d 30 b2 bc dd 5b 36 3d f2 b0 54 3b 67 62 10 be
       -0.021751547 0.0445212 0.00324541 -0.14100038
0003b0 87 e5 85 3d 57 8a 0c 3e 73 81 f8 ba 9a 3e f7 bb
       0.065379195 0.13724647 -0.0018959477 -0.0075453045
0003c0 4f 20 94 3c 9b 3b ad 3d 3d d9 2a bc 9f 59 24 bd
       0.018081812 0.084586345 -0.01042777 -0.04012453
0003d0 d4 e0 c1 3d 01 88 79 bd 43 4e e2 bd e4 01 ba 3c
       0.09466711 -0.06092072 -0.110500835 0.02270598
0003e0 9b ce 1e bd 99 db fe 3d 8c 25 a3 3c 99 4c e3 3d
       -0.038771253 0.12444229 0.019915365 0.11098594
0003f0 1a 41 9d 3a 8e 4e b3 3d 98 fe 0a bd 08 51 a6 3c
       0.0011997551 0.087552175 -0.033934206 0.02030231

layer_t_2.bias f4 [128]
000000 72 37 f4 3b 44 d7 26 3d ed 6b 03 3d 01 0c a9 bd
       0.0074528987 0.040732637 0.032085348 -0.08254243
000010 0b 46 98 bd 2a 28 9c 3c 06 af e9 bb 11 f2 70 bd
       -0.07435235 0.01906212 -0.00713146 -0.058824603
000020 f9 66 b5 bc 40 7e 88 3c 46 29 f1 3c 5f 52 50 bd
       -0.022143828 0.016661763 0.029438626 -0.050859805
000030 bd 70 7e bd 1c 65 4e bd 4f 67 56 3d de f8 aa 3b
       -0.062119234 -0.050389394 0.052344617 0.0052176556
000040 1d 56 8e 3d 39 81 b0 bd 70 7b e3 3b 80 35 7a bd
       0.069500186 -0.08618397 0.006942205 -0.061086178
000050 52 5f 92 bc 39 3f 6c 3d 69 b6 72 bd b5 f9 b1 3b
       -0.017867718 0.05767748 -0.05925599 0.0054313787
000060 85 d5 62 bd 6c 19 8a bd 6d fd ef 3b 48 9a 67 3d
       -0.05537941 -0.0674313 0.007323912 0.05654362
000070 21 43 bf bd 66 ed 59 bd 78 a1 17 3c 60 6a 0f bd
       -0.09338976 -0.053204916 0.009254806 -0.035013556
000080 f1 52 3f 3d 29 a2 73 bd b4 00 d1 bd 87 26 87 3c
       0.04670996 -0.05948082 -0.10205212 0.016497863
000090 19 f6 83 3c f7 02 a3 bd 3d 9e a6 bd 82 92 8b 3b
       0.01610856 -0.0795955 -0.0813565 0.0042594085
0000a0 20 13 93 bd 82 60 b1 bd 66 5c ab ba 23 72 b4 bc
       -0.07181382 -0.086609855 -0.0013073802 -0.02202708
0000b0 78 a0 bd bc ea 4c c1 bd 83 7c f9 3c 83 7f 6c 3d
       -0.023147807 -0.09438498 0.03045488 0.057738792
0000c0 15 31 d9 bd 7d 35 86 3d ad 61 31 3d bb b0 fa 3c
       -0.10605065 0.06553171 0.04330604 0.03060185
0000d0 e8 93 1d 3d a9 7d 0b be 61 04 55 bd c6 2a 7b 3d
       0.038471133 -0.13622154 -0.05200613 0.06132009
0000e0 ed c7 c3 3c 4c 7d 2d 3d 8a c1 00 3c 64 22 08 bc
       0.023899043 0.04235582 0.007858643 -0.008308981
0000f0 40 bd 81 3d 60 b3 97 bd e0 52 55 bd 8a a7 9d bc
       0.06334925 -0.0740726 -0.05208099 -0.019244928
000100 3a 2a 28 bb 30 1b 47 bd 68 92 7a bd 62 4b cc 3a
       -0.0025659935 -0.048609912 -0.06117478 0.0015586431
000110 59 13 8c bc 17 ca da 3c 69 27 ca 3c a4 9e 9c bd
       -0.01709907 0.026707692 0.024676995 -0.07647446
000120 16 21 6d bd 8a 3e 34 3d ef b1 02 3d 6a ff e9 bc
       -0.05789288 0.044004954 0.031907972 -0.028564174
000130 b4 34 ab bd 3d 94 2d 3d 17 a3 d5 bb 75 08 f3 bd
       -0.08359662 0.0423777 -0.006519686 -0.118668474
000140 f3 4c b4 bd 90 75 bb bd e5 30 ca bd 0b fb 8f bd
       -0.088037394 -0.09153283 -0.09872607 -0.070303045
000150 38 6e ad bd 60 cf 8f ba 72 be 56 bd 6b 71 6c bd
       -0.08468288 -0.0010971837 -0.052427717 -0.05772535
000160 3a b0 2c bd d7 81 dc bc 48 0b 75 bc e5 c6 7f bd
       -0.04216025 -0.026917381 -0.014956303 -0.06244554
000170 c7 20 c8 3d 5f f9 66 3d 7b d7 b1 bd 3e d1 88 bd
       0.09771877 0.056390163 -0.08683678 -0.06680535
000180 de f1 cf bd 7e 38 84 3d 1a 11 ea 3c 06 09 55 bd
       -0.101535544 0.064560875 0.028572608 -0.05201056
000190 fc c9 4e bd e5 02 81 bd f9 c0 1c bb 7b 64 53 3d
       -0.050485596 -0.0629938 -0.0023918732 0.051609498
0001a0 45 b8 6f 3b 39 7f 36 bd 8e 69 11 bd f4 de 76 3d
       0.003657834 -0.044554923 -0.035501055 0.06027122
0001b0 0a 37 b1 bd b7 36 69 bb 54 aa 91 bd 5d 9c c4 bb
       -0.08653076 -0.003558559 -0.07112566 -0.0060000853
0001c0 87 a2 6a bd ee c6 c4 bd 7d a7 9e bc b7 bd b7 bd
       -0.057283904 -0.09608255 -0.019366974 -0.08971732
0001d0 9d 94 dd bc 6c 5b 33 3d 33 a6 1d 3d c2 2c 0d bd
       -0.027048403 0.04378836 0.038488578 -0.034466513
0001e0 6e 31 e2 3c d9 f0 e1 3c 41 0f 02 3d 9b b0 4c 3d
       0.02761146 0.027580665 0.03175283 0.04997311
0001f0 d0 15 a4 3d a1 6b 95 3d 43 b2 0d bd 3a bb 59 bd
       0.08011973 0.07295919 -0.03459383 -0.05315707

layer_out_1.weight f4 [128, 128]
000000 ae c5 3f bd ec 05 66 3d a8 9e cc 3b f1 81 cd 3c
       -0.04681938 0.05615799 0.0062444992 0.025086375
000010 f1 0b b6 3c 56 4c 4f 3d 9b bb b1 3c 46 ff 85 3d
       0.022222491 0.05060991 0.021695903 0.0654283
000020 5a ab 11 3d da 31 06 bd 6e 87 5d bd 30 da 73 3d
       0.035563804 -0.032762386 -0.054084234 0.05953425
000030 5e 60 0f bd 43 71 a6 bd 84 7b a0 3d d9 5f 03 3d
       -0.035004012 -0.08127072 0.07836059 0.03207383
000040 dc 54 2e bd 2b 8a 09 3d 30 63 25 3d cc b1 09 bd
       -0.042561397 0.033579033 0.040377796 -0.033616826
000050 f4 2b e2 3c 90 20 57 bc 12 55 a2 3d a8 b0 f3 bc
       0.02760885 -0.013130322 0.07926382 -0.029747322
000060 97 53 84 bd d5 ce ad bd f1 e1 b6 bd c4 da 04 bd
       -0.06461256 -0.08486716 -0.08929814 -0.032435194
000070 4e 99 7a bc e3 0a 4a bc 46 80 5b 3c f6 95 67 bd
       -0.01529534 -0.012331697 0.013397282 -0.0565395
000080 e3 20 10 3d 44 85 d0 bd 03 c1 42 3d c1 59 85 bd
       0.035187613 -0.101816684 0.04754735 -0.0651126
000090 4d d6 2a bd 77 86 a0 3d 82 8d 3c 3d 7f b5 7a bd
       -0.04170828 0.07838147 0.04603339 -0.061208244
0000a0 2e 61 86 bd 66 a7 7e 3d cb 3b 9a bd 11 d9 9c bd
       -0.06561504 0.062171362 -0.07530936 -0.0765859
0000b0 f8 45 ee 3d 07 50 e3 ba 02 73 66 bd 68 b2 db bd
       0.11634439 -0.0017342576 -0.056262024 -0.10727388
0000c0 9f 8f 68 3c 35 79 08 3d 8c 0d 91 3d 36 8a 56 3d
       0.014194398 0.033318717 0.07082662 0.052377902
0000d0 d7 88 27 bd f7 a6 19 3d a9 e1 56 bd 9b 44 95 bd
       -0.040901985 0.037512746 -0.0524613 -0.07288476
0000e0 9f c2 8b bd e2 82 44 bc 88 88 7a 3b db 24 33 3d
       -0.068242304 -0.0119940955 0.0038228352 0.04373632
0000f0 af 96 89 3d 32 21 5a 3d 6b 9c 29 3d c1 4b f3 bc
       0.06718194 0.053254314 0.041408937 -0.029699208
000100 53 4c 5b 3d 66 55 76 bd 75 a7 cb 3c d1 f6 53 bd
       0.053539585 -0.060140036 0.024860123 -0.051749054
000110 e3 4e 83 3d c4 64 85 3d dc 98 ff bb bf 57 99 3d
       0.06411531 0.0651336 -0.0078002047 0.07487439
000120 e7 7e 99 bd ec c9 93 bd 20 3c a7 3c d4 19 89 3d
       -0.07494908 -0.07216248 0.020414412 0.066943794
000130 09 b6 b6 3c 22 1b c2 3d 5c d9 7a 3d cc 90 b8 3d
       0.022303598 0.094778314 0.061242446 0.09011993
000140 74 35 b6 bd e3 f8 8b bd 47 8c 61 3d 43 4f b2 3d
       -0.08896914 -0.06834581 0.05506542 0.08706524
000150 df 54 b7 3d c1 f7 80 3c 97 24 a6 bc 43 84 7e 3d
       0.08951735 0.015743138 -0.02028112 0.062137853
000160 6c ce 03 bd 3f 6b a9 3c f1 e9 87 3c 0e fa 4d bd
       -0.03217928 0.020681022 0.016591044 -0.0502873
000170 00 4f b1 bc 0d 5a ba 3c 64 f1 18 bd ef bc d7 bd
       -0.021644115 0.022748018 -0.037339583 -0.10534083
000180 e9 18 e3 3c f1 ce 29 bb eb d0 59 3d 3f 10 b9 bd
       0.027721839 -0.00259107 0.053177755 -0.09036302
000190 38 be 49 bd 66 60 48 3d 12 88 c2 bd 81 28 6a bd
       -0.049253672 0.048920058 -0.094986096 -0.057167534
0001a0 b4 84 ac 3d 7e 31 00 3d f5 51 de bd 36 b3 8c bc
       0.084237486 0.0312972 -0.10855476 -0.017175298
0001b0 d5 33 0d bd 6a 88 87 3d d0 bc 18 bd 67 f9 17 3d
       -0.03447326 0.06617816 -0.03728944 0.037103083
0001c0 52 80 3d bd 4d 56 6d 3d f3 96 42 bc a2 87 41 bc
       -0.046264954 0.05794363 -0.011876809 -0.011812123
0001d0 c1 72 2b 3d 71 8f 15 3d db 73 43 3d 52 77 aa bd
       0.041857485 0.03651375 0.04771791 -0.0832354
0001e0 41 81 5d bd 6b 7e 25 bc 5f 94 b4 3c 20 be d3 bd
       -0.054078344 -0.010100941 0.022043405 -0.10338998
0001f0 b6 0b ff ba d9 d7 18 bd 5a 72 c0 3d 3d 09 38 bd
       -0.0019458446 -0.037315223 0.09396811 -0.044930685
000200 39 be 92 3d dc 78 ab 3c 02 f0 d1 3d 4d ce ba bc
       0.07165188 0.020931654 0.10250856 -0.02280345
000210 6b 14 b0 bd 5d 4b 19 bd 9b 33 8d 3c 77 18 3e 3d
       -0.085976444 -0.037425388 0.017236521 0.04641005
000220 d3 da 51 bd 07 dc f1 bc 4f 5a 31 bd 95 e9 b5 bd
       -0.051234078 -0.029523863 -0.043299016 -0.08882443
000230 eb ce 85 bd 3e 10 88 bb 54 d9 f7 bd f6 a1 b0 3d
       -0.06533607 -0.004152327 -0.12101999 0.086246416
000240 6f e9 dc bd 2b 96 99 bc 68 5e dd bd 4e e9 b7 3c
       -0.107867114 -0.018748363 -0.10809022 0.022450116
000250 2b 04 9f bd 63 ce 8a bd ce 8f fa 3c 42 a8 e6 bc
       -0.07764467 -0.067776464 0.03058615 -0.028156403
000260 40 32 04 3c 48 39 fd bc 31 ee 22 bd 78 aa e8 3d
       0.008068621 -0.030911103 -0.03977794 0.11360639
000270 8e 6c af 3c 37 bc dd 3c bd c4 64 bd 60 c0 52 bc
       0.021414068 0.027067287 -0.055851687 -0.012863249
000280 38 82 91 3c b2 7c 9b 3d 00 73 86 bc 2e 85 5b bd
       0.017762288 0.07592143 -0.016412258 -0.053593807
000290 c6 64 53 bd d1 48 ac 3d cb aa 10 bd c5 2f 35 bb
       -0.051609777 0.08412326 -0.03531913 -0.002764688
0002a0 51 6b be bd 95 c7 92 3d f0 da 5c 3c 9f 98 64 bd
       -0.09297813 0.071669735 0.013479933 -0.055809613
0002b0 4c 99 91 3d ad 4c a7 3b 61 e1 a0 3b ee 00 a5 bd
       0.07109317 0.005105576 0.0049096798 -0.08056818
0002c0 ae 48 4a 3d bf 61 c5 3d 03 27 80 3d 8f 2f 86 bd
       0.04938572 0.09637784 0.06257441 -0.0655204
0002d0 be 3e cc bc 8b ea b3 bd 2a 6e ce bd c4 cd 25 3d
       -0.024932262 -0.0878497 -0.10079606 0.040479437
0002e0 cd 1a 87 3d 2e e7 b0 bc d5 53 4d bd 87 ee 62 bd
       0.06596909 -0.02159461 -0.050128777 -0.05540326
0002f0 3d 7c 07 3b 7d 03 20 3c d9 7c 9f bc 0d c0 49 bd
       0.0020673417 0.009766457 -0.019468712 -0.04925542
000300 c1 2e 05 bd 21 b2 e6 3b 99 47 c6 bd f4 52 7e 3d
       -0.03251529 0.0070402776 -0.09681625 0.06209083
000310 d7 2b 53 3d df 77 bb 3d b9 bc ca 3d 9a 41 a2 3d
       0.05155548 0.09153723 0.09899277 0.07922669
000320 6e a6 4d 3d 3c 23 75 b9 56 fb 5f 3d 06 66 96 3d
       0.050207548 -0.00023378147 0.054683052 0.07343678
000330 4c 8b 62 3c df 77 56 bd 99 a8 41 3d 76 0d 2f bd
       0.013827156 -0.05236041 0.047279928 -0.042737447
000340 3f c5 ce 3c c8 1d 7e 3d 30 b7 a9 3d 3e 06 4e bd
       0.025240539 0.06204012 0.08286893 -0.05029892
000350 21 43 ce 3d cd f8 87 3b b5 a3 8b bd dc ff da bd
       0.100713976 0.0041495324 -0.06818334 -0.106933326
000360 59 89 eb bc fb 51 7d 3c b5 0a 3a bd 5a 46 26 3d
       -0.028752016 0.01546144 -0.045420367 0.040594436
000370 9b ba 2f bd c0 e6 3e bc 41 c7 23 3d 47 f0 57 3d
       -0.04290257 -0.011651695 0.039984945 0.05271938
000380 a9 2c 8f 3d e8 96 9d 3d 14 81 c3 3c 3f 51 f7 3c
       0.0699094 0.07694799 0.02386526 0.030190108
000390 42 16 76 bc 6e 30 b9 bc cf 32 53 3d 84 6e 69 3d
       -0.015019955 -0.0226061 0.051562127 0.05699016
0003a0 16 8f 65 bc e0 c2 d0 3a 5f 00 42 3d cb 5a 86 bc
       -0.014011165 0.0015927218 0.047363635 -0.016400715
0003b0 4f d6 bc bd 9e 0b 95 bd c5 cc f4 3c 5d e0 29 bc
       -0.092205636 -0.072776064 0.029882798 -0.010368434
0003c0 0c 4e 98 3d 47 92 97 3c 3f a0 b9 bd 65 54 98 3d
       0.07436761 0.018502368 -0.09063768 0.07437972
0003d0 15 72 b9 bd 8e fb b9 3d e6 09 d2 3d f9 d0 bc bd
       -0.090549625 0.090811834 0.10255794 -0.09219546
0003e0 b3 09 c5 bd d1 7d 0e bd f7 08 87 bd 52 06 23 3d
       -0.096209906 -0.034787957 -0.06593507 0.03980095
0003f0 e1 8c 50 3d 82 85 76 bc 3d 68 4e bd 30 de 57 bd
       0.050915603 -0.015046479 -0.050392378 -0.05270213

layer_out_1.bias f4 [128]
000000 47 c7 1a bd fd 45 14 3d 6d 1f b3 3d a2 90 8a bb
       -0.037787702 0.03619956 0.08746228 -0.0042286674
000010 18 78 c6 3d e8 c5 80 3d 6d e7 a5 bd 7e c2 38 3d
       0.09690875 0.062877476 -0.081007816 0.045107357
000020 7f a1 30 3c d6 e9 da bc 2b 04 7c bc 81 5b 24 bc
       0.010780691 -0.02672283 -0.015381853 -0.010031582
000030 7b 9e 0d bd 31 99 cd 3c 20 fa 54 3c bd 1c 9f 3d
       -0.034574967 0.025097461 0.012999088 0.07769153
000040 45 fa 1a 3d b9 88 19 3d a3 6e 07 bd f9 5f 07 bd
       0.037836332 0.037483905 -0.033064496 -0.03305051
000050 a5 01 0a bd 39 ce 82 3d 3d f9 12 bd 45 83 47 bd
       -0.033692975 0.0638699 -0.035882223 -0.048709173
000060 2f ca 36 bc 19 f0 9a bd 35 67 fe bc 62 59 a8 3d
       -0.011156603 -0.07565326 -0.031055072 0.082201734
000070 96 33 50 bc ad e7 78 bd 0a 55 92 3d 22 e9 6b 3d
       -0.012707612 -0.06076782 0.07145126 0.05759538
000080 07 fd ae 3d 7e 07 e5 bc 5c a2 c4 3d 07 3a 0d 3d
       0.08544355 -0.027957674 0.0960128 0.034479167
000090 f4 f0 45 bd 25 d2 c7 3d 12 1e 97 3d 16 0d 77 bd
       -0.048325494 0.09756879 0.07378782 -0.060315214
0000a0 21 cc 2c 3d 91 7d 96 3d e8 03 45 bb 1c f1 17 bc
       0.04218686 0.07348169 -0.0030062143 -0.009273794
0000b0 e1 5d 2b bd 8f 53 6d 3d 06 a6 7e 3c e8 54 26 3d
       -0.041837577 0.057941016 0.015542513 0.040608317
0000c0 08 8c 4f bd 6f 2b 1f 3d a2 88 91 3d d5 e2 f6 bc
       -0.050670654 0.03885978 0.07106139 -0.030137459
0000d0 12 93 90 bd 2f 7d da bc e6 04 a3 3d 51 f5 3d bd
       -0.070593014 -0.02667102 0.07959919 -0.04637653
0000e0 81 f7 39 3d 29 42 24 3d c0 64 48 3d 48 61 8f 3d
       0.045402054 0.040102158 0.048924208 0.07000977
0000f0 df e0 b8 3d 97 ac c1 3c 0f 83 3d bc d5 49 6e bd
       0.09027266 0.023641868 -0.011566891 -0.05817588
000100 f1 7f 76 3d 41 32 ae 3d ce 53 f1 bc e6 bb ae 3d
       0.06018061 0.08505679 -0.029458907 0.085319325
000110 58 5f 3c 3d ea cc 6d bd ea 0b 30 bd 94 35 e9 3c
       0.045989364 -0.05805675 -0.042980112 0.02846793
000120 d8 5b 49 bd b6 dc 6d bd 98 ef 96 3d 72 b7 9c bd
       -0.049159855 -0.058071814 0.07369918 -0.07652177
000130 c7 d6 7b bd f9 0b a6 3d 33 4f 9c 3d 8a 3e 0c 3c
       -0.061484125 0.08107752 0.076322936 0.008559832
000140 b5 79 ab 3c 02 25 22 3b 35 87 00 bd 4a c4 97 3d
       0.020932058 0.0024741297 -0.031378943 0.07410486
000150 56 e5 76 bc 28 5d 64 bd 89 b7 01 3d 7a 1c 96 3d
       -0.015069326 -0.055752903 0.031669173 0.0732965
000160 a1 c1 21 3d 5e e9 01 bd 1c 8c c9 bc 0d 94 8c bd
       0.0394913 -0.031716697 -0.024602942 -0.06864176
000170 c5 a5 21 bd 00 a5 c7 39 a2 e2 99 3d 35 5d ea 3c
       -0.03946473 0.00038079172 0.0751393 0.028608898
000180 f3 b0 7f bd 32 22 a2 bc 6c 46 f1 bb bc 49 84 bd
       -0.06242461 -0.019791696 -0.0073631313 -0.06459376
000190 93 f2 e3 bc e9 8a 8e 3d af fe f0 3b c2 60 63 3d
       -0.02782563 0.06960089 0.0073545794 0.055512197
0001a0 0b bc aa bc d7 ce 4a bd 4c 83 b6 3c 87 80 47 3d
       -0.020841619 -0.049513664 0.022279404 0.048706558
0001b0 40 90 a2 3d 8f 03 59 3c 35 2c a8 bd 55 a3 b0 3d
       0.0793767 0.013245477 -0.08211557 0.08624903
0001c0 fe 80 54 3d 0f 0f 1d bd 78 4d 2d 3a bb fb 8e bd
       0.05188083 -0.03834444 0.000661097 -0.069816075
0001d0 3f 7c e1 3b 4e 90 25 ba 72 7a 3f bd de 21 86 bd
       0.0068812664 -0.00063157536 -0.046747632 -0.065494284
0001e0 e8 28 0e 3c 47 16 8f 3d 34 a8 75 3d 2f 13 1f bd
       0.008676745 0.06986671 0.059974864 -0.038836654
0001f0 49 c0 ae 3d d6 b6 09 3d 6c f9 0a bd a3 94 21 bd
       0.08532769 0.03362163 -0.033929273 -0.03944839

layer_out_2.weight f4 [53, 128]
000000 0f 29 96 bc fb b9 aa bc 0e 85 17 3d 3e 6b 86 3d
       -0.018330125 -0.020840636 0.036992125 0.065634236
000010 f3 f4 c4 3d 2e a5 2b 3d 49 d9 d9 3b 34 fa b9 bd
       0.09617033 0.041905575 0.006648217 -0.090809256
000020 74 6e 67 bd 73 22 5d bd 41 8c 91 bd d4 f9 fc ba
       -0.05650182 -0.05398793 -0.071068294 -0.0019300529
000030 ff 55 00 bd fc d8 ef bc 43 b8 5e bc 51 53 5a 3d
       -0.031332012 -0.02927827 -0.013593736 0.053302113
000040 17 24 96 3d e7 4f 8d bd 9e 0c 9a bd d2 9c 3f bd
       0.07331102 -0.06900006 -0.07521938 -0.046780415
000050 9f 73 09 3d 6f 05 62 3d 1a 4f 51 3d 36 62 8c 3c
       0.03355753 0.055180963 0.051100828 0.017136674
000060 9f e5 e0 3c b2 52 a2 3d 36 6a f1 3a a2 cd a9 bb
       0.027453242 0.07925929 0.0018418494 -0.005181984
000070 57 fb 4b 3d fd dd ee 3d 78 50 26 3d 09 09 54 bd
       0.049800243 0.11663435 0.040604085 -0.05176643
000080 3b d9 d5 bd b7 66 7f 3c 65 2c 89 3c 9d cc 70 3d
       -0.10441824 0.015588454 0.016744802 0.058788884
000090 33 8d 24 3b c7 df 34 3d 88 37 bb 3d 9d 9c cd bc
       0.0025108575 0.044158723 0.09141451 -0.025099093
0000a0 d1 4f 2e bd de 1e 63 3d af e6 da bd f1 11 b3 3a
       -0.042556588 0.05544936 -0.10688531 0.0013661963
0000b0 3b 83 ea bc 20 ce 91 bd 34 6d 10 bd 85 8f 6f 3d
       -0.028627029 -0.07119393 -0.035260394 0.05848648
0000c0 d8 a1 69 3d 72 41 82 bd d3 b3 a0 3c ed 6f 4e 3c
       0.05703911 -0.06360139 0.019616997 0.012599927
0000d0 3d bb d2 bc 1e 58 aa bd f7 d0 b2 3d b4 5d 5f 3d
       -0.025724048 -0.08317588 0.08731263 0.05453272
0000e0 f5 f0 62 bd 59 30 17 bc 0c e4 f4 3b 55 3d 79 3c
       -0.055405576 -0.009227836 0.0074734744 0.015212377
0000f0 c5 6b 94 bd a0 50 c3 3c b1 53 71 bd bb 3d 8d 3c
       -0.07247118 0.023842156 -0.058917705 0.01724135
000100 58 6d 5d bc 6c 5b 9a 3c 5c ec 20 bd 01 71 45 3d
       -0.013514839 0.018842421 -0.03928791 0.048203472
000110 72 ed 04 be ea 50 b7 bd 14 55 9a bc a1 77 de bc
       -0.12981203 -0.0895098 -0.018839397 -0.027156653
000120 df d0 c8 bc c9 0a 5b 3d 17 1c f2 bb ca 18 8e bd
       -0.02451366 0.053477082 -0.0073886025 -0.06938322
000130 51 9b 74 bd bd 28 be bd 89 01 90 bd 6d cf 3d 3c
       -0.059718434 -0.09285114 -0.07031543 0.011585099
000140 db 63 c4 bd 3d 26 86 3d 2f 1a 81 3d 7a dd 6e bd
       -0.095893584 0.06550262 0.06303822 -0.058316685
000150 8b b3 13 bc ae 5f 6b 3d 8e 34 8d 3d 4a 90 25 3d
       -0.009014974 0.057464294 0.0689479 0.040420808
000160 b2 4e fe bc 21 f5 76 bc a4 08 47 3d 2c 71 ab bb
       -0.031043384 -0.015073092 0.048592225 -0.005231997
000170 5f 35 6c bd 98 cc 1c 3c c9 ac f8 3c 17 ff 1a 3d
       -0.057668086 0.009570263 0.030355828 0.03784093
000180 63 17 91 bc f9 9a 98 3d 73 28 4c bd 3c 09 fd bc
       -0.017711347 0.07451434 -0.049843263 -0.030888192
000190 a5 b3 fe bc 33 57 d5 3c 0f 81 b0 ba 07 85 79 3c
       -0.03109152 0.026042556 -0.0013466197 0.01522947
0001a0 25 93 01 bd c5 b3 24 bd cb 78 be bb 2d 80 65 bd
       -0.03163447 -0.040210504 -0.0058127395 -0.05603044
0001b0 96 80 01 bd c7 10 1d 3d 0e 17 00 3c 7b df 54 bc
       -0.03161677 0.03834608 0.007817997 -0.012992735
0001c0 a1 04 95 3d e9 ac 76 3d f5 5d bd 3d b8 3c 98 3d
       0.072762735 0.060223494 0.092464365 0.07433456
0001d0 ed ca 59 bd a3 9a cd 3d 09 34 60 bd c1 41 9b bd
       -0.05317204 0.1003926 -0.054737125 -0.07580901
0001e0 00 71 a9 3c 94 87 05 bd f1 b9 79 3c 1b 17 af 3d
       0.020683765 -0.0326 0.015242086 0.08549329
0001f0 52 f1 6a 3d ce 4f a3 bd 93 65 28 3d 4d 94 00 3d
       0.057359047 -0.07974206 0.041112494 0.03139143
000200 b1 1b 67 3c d6 f7 70 bb 57 56 ba bc e5 83 64 bd
       0.014105723 -0.0036768815 -0.022746248 -0.055789847
000210 ce 07 3a 3d f0 4f 4a bc 67 22 f9 bc 9e ad 6d bd
       0.0454176 -0.01234816 -0.030411912 -0.058026902
000220 a4 42 9d 3b be b7 91 bc 01 31 d3 3c 3a dd e9 bc
       0.004799204 -0.01778781 0.025780203 -0.028547872
000230 8b ea 06 3d b9 a6 bc bc 43 09 0c bd 2a 24 16 3c
       0.03293852 -0.023028718 -0.03418852 0.009163896
000240 e2 17 87 3d 2c eb 12 3d 9c b9 aa bb 64 7d 00 bd
       0.06596352 0.03586881 -0.0052101146 -0.03136958
000250 63 dc 1a 3d 05 3f 13 3b ed c8 36 bd b9 c0 ac ba
       0.037807833 0.0022467982 -0.04462521 -0.0013179994
000260 7b 8e 1f 3d dc 9a 38 3d 2f 52 be 3d 12 d8 cf 3d
       0.03895424 0.04506956 0.09293019 0.10148634
000270 d4 a8 81 3d ad 74 30 bd 54 2d 0d bd ec 0f 59 3d
       0.063310295 -0.04308002 -0.034467056 0.0529937
000280 79 85 eb 3c 34 e7 7d 3d a0 a6 47 ba 1d 0b 5b bd
       0.028750168 0.06198807 -0.00076160766 -0.053477395
000290 8d 09 47 3d 46 74 6a bd bc de 52 3d 05 75 88 bd
       0.048593093 -0.057239793 0.051481947 -0.06662945
0002a0 87 53 87 3c bd 35 d2 bd b9 89 66 bd 73 11 97 3d
       0.016519321 -0.10264156 -0.056283686 0.07376375
0002b0 86 c3 94 bc 68 8f f0 3c bf 7c a2 bc 05 dd 54 bd
       -0.01815964 0.029365256 -0.019834874 -0.051968593
0002c0 01 74 b4 bd d3 7f fb 3d 3c 52 b5 bc 3d 97 d2 3d
       -0.088111885 0.1228024 -0.022133939 0.10282753
0002d0 de c1 3c bb ef af e8 3d 43 f4 06 bd d7 43 73 bd
       -0.0028802077 0.11361682 -0.03294779 -0.05939087
0002e0 2f a3 83 bd 26 df 32 bd 41 36 3f 3d 3b b1 59 bd
       -0.06427609 -0.043669842 0.0466826 -0.053147536
0002f0 f7 cb a1 3d dd 75 54 bd b9 fe 39 bd 67 76 1d 3d
       0.07900231 -0.051870216 -0.045408938 0.038442995
000300 e8 ff 2b 3d f1 36 d2 3d 78 ca 40 3b 99 80 3f 3d
       0.041992098 0.102643855 0.0029417556 0.0467535
000310 14 9e 0e bb d4 e1 06 bd 98 de 21 bd 93 6b 83 bd
       -0.0021761702 -0.03293021 -0.039518923 -0.064170025
000320 b8 33 72 3d 6d d4 26 bc 49 a7 87 bd fc 7b 34 3b
       0.059131354 -0.010182482 -0.06623704 0.002753972
000330 ab 41 a2 bb a6 d5 ef 3a a0 0a a6 3d 8e e8 7c bd
       -0.004951676 0.0018297925 0.08107495 -0.06174522
000340 66 86 da 3d 0e a6 3b 3d d0 71 01 3d 38 75 24 bd
       0.10670166 0.04581266 0.03160268 -0.04015085
000350 68 2b 58 3d 15 dc c9 3c ec 25 a0 bd 27 76 16 bd
       0.05277577 0.024641076 -0.07819733 -0.036733773
000360 5e 52 46 38 f7 92 52 bd 2a 36 f1 3c 90 6b 4f bd
       4.728359e-05 -0.051409688 0.029444773 -0.05063969
000370 98 0b 34 3d 6c 75 aa bc d5 b3 2b bb ca bd e9 bc
       0.04395637 -0.020807944 -0.0026199718 -0.028532881
000380 3f f2 77 bd 39 ba 22 bd 5a 5e 84 bd 0e b5 2f bd
       -0.06053376 -0.039728377 -0.06463309 -0.042897277
000390 2d 1b ad bd e5 40 d3 bb 5c 6d b9 3c d1 c7 90 bd
       -0.08452449 -0.006446945 0.022635154 -0.07069362
0003a0 94 c6 7b bd 56 0f 30 3d e4 33 25 3d 72 28 59 bd
       -0.061468676 0.042983375 0.04033269 -0.053017087
0003b0 08 d6 e5 3c a8 66 44 bd 7c 02 01 be ae c9 4c bc
       0.02805616 -0.047949463 -0.12598604 -0.012499256
0003c0 a0 5e c9 3d 5b 66 87 3c d0 40 d3 3d 53 d9 1d bd
       0.098325014 0.0165283 0.103150964 -0.038537335
0003d0 ba c0 71 bd 4a 69 c3 3d d8 6e 42 3d 54 7f 6a 3c
       -0.05902169 0.09541567 0.04746899 0.014312584
0003e0 d0 7e 09 bd c1 ac 88 bc 7d 00 01 3b b4 e5 83 bc
       -0.033568203 -0.016683938 0.001968413 -0.016100742
0003f0 d6 75 4b 3d a1 f8 42 3c 7e 55 f8 3c 21 27 91 3c
       0.049672924 0.011900098 0.030314203 0.017718853
