results/DDPM/NUM_LAYERS_TRANSFORMER/8/model_final.pth (torch, 943269 bytes, 110 tensors)

layer_x.weight f4 [64, 53]
-0.186231 0.03603478 -0.10120442 0.0031577498 0.059589315 -0.033026744 0.0615467 0.02587537
0.44951916 0.0073623597 0.032720614 -0.019512208 0.07537039 0.0052105915 0.026575448 -0.08432591
0.061913885 -0.014062269 -0.08969542 0.07901897 0.053476527 0.004610196 -0.008772367 -0.09122199
-0.18709426 0.05954799 0.037324276 0.09337963 0.01315183 -0.078227386 -0.020999195 -0.028378934
-0.01361463 -0.031083323 -0.06640938 0.13376556 0.04897808 0.018322406 0.04772864 0.052546594
-0.35614333 0.024245957 -0.058452494 -0.022417717 0.023358794 0.010221786 -0.07366583 -0.011181378
-0.047849335 0.019589517 -0.03300716 -0.0134345405 -0.1550549 0.18556374 -0.04364102 -0.15207332
0.17286836 -0.11167951 0.007517279 0.09822855 0.0053544436 -0.25243092 0.17576274 0.0890301
-0.10726336 -0.051854096 -0.04972656 -0.07103013 0.06164952 0.069721445 0.029385695 -0.08442771
-0.024721118 0.08783209 -0.102055624 -0.006701297 0.06627574 0.037930407 -0.13370249 -0.08057567
0.017488098 0.15363021 -0.025459008 -0.09655185 -0.098256804 0.08737453 0.034215722 0.08731464
-0.21163025 0.08450794 0.0024780296 -0.06922336 -0.11415591 0.19267537 -0.1393702 0.17744628
0.05220818 -0.01090759 -0.035158593 -0.07361346 -0.26604655 0.1254485 0.019945856 -0.01741508
0.052390117 -0.034707896 -0.10097889 -0.060896408 0.006600847 -0.092603736 -0.06648327 -0.10092939
0.15174598 -0.07119636 -0.1997684 0.00626041 -0.14186016 -0.114776745 -0.058565136 -0.15861619
-0.084323704 -0.08818905 -0.12204185 -0.111192025 -0.041960347 0.08931905 -0.03903399 0.00778629
-0.09536238 -0.031724144 -0.2858606 0.029687118 -0.085304156 -0.14225587 -0.07671833 -0.080557
-0.062799424 -0.07111169 -0.081491224 -0.12840123 -0.07111029 -0.20690481 -0.016542692 -0.13401125
-0.036708824 -0.10500174 -0.14249708 -0.036871266 -0.0837593 -0.110047854 -0.029338155 -0.014905133
-0.11151671 -0.07581089 -0.08308452 -0.10797136 -0.06837267 0.008543803 -0.12447714 -0.011961783
0.032896683 0.12645179 0.08299585 -0.05069673 -0.016514968 0.14830045 -0.10793077 -0.041577276
-0.1459282 0.07075119 -0.04503201 0.013494284 -0.15637082 0.09129202 -0.057125963 0.0010835045
0.046452243 -0.047522537 -0.04940496 -0.016990019 -0.15212892 -0.04177637 -0.02231172 -0.013434843
-0.11908285 0.09798863 0.052451853 -0.009053546 -0.01896596 -0.10468175 0.028592749 -0.042910893
-0.107574634 0.038141474 0.040794075 0.14354578 0.21233168 -0.07004648 -0.09112889 0.013181765
-0.04449658 -0.23347813 -0.117250584 0.07685533 0.02780377 0.26455104 0.17331854 0.08070213
0.016002819 -0.039356228 0.0687718 0.07496017 0.05754538 -0.09083135 0.051451247 -0.007212989
-0.055029515 -0.056125082 0.14637277 -0.07820949 -0.0050496687 0.008071186 -0.08164135 -0.04994562
-0.060544945 -0.17014474 -0.01460809 -0.029199231 -0.04427015 -0.005090264 0.20364657 -0.16539489
-0.06549427 -0.16798986 -0.04064508 -0.05186533 0.1086707 0.051430285 -0.06900878 -0.01060214
-0.1448284 0.012503045 -0.12932637 0.025952008 0.26291516 -0.017900657 0.026060635 -0.036662057
0.035447866 -0.057822917 -0.064028986 -0.13050254 -0.11297246 -0.07832585 -0.034293015 0.040822815
00000000: 57b3 3ebe 3599 133d 4344 cfbd 40f2 4e3b
00000010: ed13 743d 0d47 07bd 6418 7c3d 95f8 d33c
00000020: 6027 e63e f33f f13b 0d06 063d 11d8 9fbc
00000030: cb5b 9a3d 9cbd aa3b c1b4 d93c 10b3 acbd
00000040: 6a99 7d3d 6e65 66bc 3bb2 b7bd b3d4 a13d
00000050: 340a 5b3d 2111 973b f9b9 0fbc 98d2 babd
00000060: a395 3fbe 98e8 733d 57e1 183d d23d bf3d
00000070: c67a 573c ae35 a0bd 8106 acbc f07a e8bc
00000080: e60f 5fbc 74a2 febc a401 88bd d7f9 083e
00000090: 3d9d 483d df18 963c 1b7f 433d 193b 573d
000000a0: 6b58 b6be 759f c63c e26b 6fbd 5ca5 b7bc
000000b0: f15a bf3c 4779 273c 1cde 96bd 1932 37bc
000000c0: aafd 43bd 327a a03c 8432 07bd 8c1c 5cbc
000000d0: b6c6 1ebe 6c04 3e3e edc0 32bd 1cb9 1bbe
000000e0: 6704 313e 3ab8 e4bd 8253 f63b 0d2c c93d
000000f0: 5474 af3b a03e 81be 26fb 333e 6a55 b63d
00000100: e4ac dbbd f664 54bd 14ae 4bbd 3f78 91bd
00000110: 3584 7c3d 1eca 8e3d 45ba f03c 6fe8 acbd
00000120: f183 cabc 50e1 b33d 8a02 d1bd 8e96 dbbb
00000130: 93bb 873d ea5c 1b3d 4ee9 08be db04 a5bd
00000140: 3343 8f3c 3d51 1d3e 698f d0bc fabc c5bd
00000150: dd3a c9bd 6bf1 b23d c925 0c3d 05d2 b23d
00000160: 9ab5 58be 8012 ad3d 7066 223b fac4 8dbd
00000170: 93ca e9bd b14c 453e 10b7 0ebe 7ab4 353e
00000180: 3fd8 553d c0b5 32bc 7502 10bd a7c2 96bd
00000190: 4137 88be 9275 003e 7e65 a33c 12aa 8ebc
000001a0: 0597 563d de29 0ebd 05ce cebd 836e 79bd
000001b0: eb4b d83b 07a7 bdbd 6128 88bd 11b4 cebd
000001c0: 4c63 1b3e 66cf 91bd 1690 4cbe 2024 cd3b
000001d0: ca43 11be 1210 ebbd ffe1 6fbd 486c 22be
000001e0: e8b1 acbd 769c b4bd 14f1 f9bd a5b8 e3bd
000001f0: 9dde 2bbd e8ec b63d 1be2 1fbd 2224 ff3b
00000200: 5a4d c3bd 2df1 01bd 525c 92be 6632 f33c
00000210: f2b3 aebd 86ab 11be 801e 9dbd 12fb a4bd
00000220: fc9c 80bd 01a3 91bd dfe4 a6bd 9d7b 03be
00000230: 46a2 91bd dbde 53be 8a84 87bc 3f3a 09be
00000240: fe5b 16bd 270b d7bd c1ea 11be 5306 17bd
00000250: ff89 abbd c560 e1bd 9256 f0bc a934 74bc
00000260: df62 e4bd bd42 9bbd 3828 aabd 1720 ddbd
00000270: f806 8cbd 4ffb 0b3c dfed febd 5bfb 43bc
00000280: acbe 063d 947c 013e baf9 a93d 60a7 4fbd
00000290: 664a 87bc 13dc 173e cf0a ddbd ef4c 2abd
000002a0: 346e 15be 00e6 903d 7c73 38bd 2117 5d3c
000002b0: ac1f 20be 50f7 ba3d eafc 69bd 6104 8e3a
000002c0: b544 3e3d fea6 42bd db5c 4abd a72e 8bbc
000002d0: afc7 1bbe b31d 2bbd 11c7 b6bc d11d 5cbc
000002e0: b6e1 f3bd 43ae c83d c1d7 563d 5355 14bc
000002f0: 805e 9bbc 6363 d6bd 573b ea3c 55c3 2fbd
00000300: 1750 dcbd 3c3a 1c3d b017 273d aafd 123e
00000310: 7a6d 593e 8774 8fbd c9a1 babd 54f8 573c
00000320: 0c42 36bd e414 6fbe 1321 f0bd 5466 9d3d
00000330: bbc4 e33c 3c73 873e 6a7a 313e 2947 a53d
00000340: 5818 833c ff33 21bd 3bd8 8c3d b884 993d
00000350: b4b4 6b3d c905 babd 8bbe 523d f05a ecbb
00000360: a166 61bd 6ae3 65bd bee2 153e 4c2c a0bd
00000370: b177 a5bb 023d 043c 9533 a7bd c793 4cbd
00000380: fafd 77bd 6c3a 2ebe c556 6fbc 3a33 efbc
00000390: 9e54 35bd 3bcc a6bb ba88 503e 475d 29be
000003a0: dc21 86bd 8905 2cbe 757b 26bd be70 54bd
000003b0: be8e de3d 90a8 523d 7a54 8dbd 99b4 2dbc
000003c0: e54d 14be 92d9 4c3c 226e 04be 4e99 d43c
000003d0: d19c 863e 66a4 92bc 1d7d d53c f42a 16bd
000003e0: c831 113d b9d7 6cbd a121 83bd 75a2 05be
000003f0: 1b5e e7bd 4e69 a0bd d576 0cbd d335 273d

layer_x.bias f4 [64]
0.348833 -0.05013762 0.28238615 0.051196363 0.22913861 0.2313099 0.3057927 0.21370086
0.25977284 0.14164619 0.27830535 0.27169082 -0.045728307 0.12867999 0.21822451 0.19518873
0.015478954 0.0678363 0.38159662 0.1443761 0.34489977 0.45042896 0.11722996 0.24490526
0.2149205 0.20983677 0.21066031 0.0784174 0.1112617 0.2841348 0.09677966 0.18911403
0.43377283 0.22031762 0.17326286 0.28647545 0.17484486 0.14506625 0.27969202 0.08137942
0.10294528 0.087537795 0.0627759 0.2564636 0.36977115 -0.029991748 0.17049149 0.4914483
0.06010145 0.10131731 0.21781082 0.36757573 0.1597511 0.33262402 0.3614692 0.263764
0.34256747 0.33594492 0.3151147 0.37804455 0.31802234 0.2534779 0.19048417 0.3177504
00000000: 3d9a b23e 1b5d 4dbd eb94 903e 47b3 513d
00000010: 50a3 6a3e 81dc 6c3e dc90 9c3e 66d4 5a3e
00000020: f200 853e b30b 113e 0a7e 8e3e 0f1b 8b3e
00000030: 9b4d 3bbd b0c4 033e 3f76 5f3e 8edf 473e
00000040: 709b 7d3c c2ed 8a3d a260 c33e 54d7 133e
00000050: b496 b03e a09e e63e 4316 f03d 72c8 7a3e
00000060: 1f14 5c3e 73df 563e 56b7 573e 4d99 a03d
00000070: 2ddd e33d 1e7a 913e 6a34 c63d 1ca7 413e
00000080: 7917 de3e f19a 613e d26b 313e e9ac 923e
00000090: 880a 333e 3f8c 143e cb33 8f3e 41aa a63d
000000a0: fad4 d23d 0447 b33d a790 803d 324f 833e
000000b0: a552 bd3e 41b1 f5bc 5295 2e3e 1d9f fb3e
000000c0: f02c 763d 737f cf3d cd09 5f3e e332 bc3e
000000d0: cb95 233e b24d aa3e 7e12 b93e 130c 873e
000000e0: 0165 af3e f900 ac3e b756 a13e 0e8f c13e
000000f0: d3d3 a23e dbc7 813e 480e 433e 2eb0 a23e

layer_t_1.weight f4 [64, 64]
-0.113547675 0.0073147328 0.18736741 -0.12354678 0.06353683 0.1506936 -0.14596759 -0.18487492
-0.07894864 0.15395118 -0.030836731 0.06555635 -0.06512824 -0.07506169 -0.034059316 0.079426624
-0.18291366 -0.025461169 0.114830874 -0.25913835 0.09943219 0.23410404 0.13061039 0.0715249
0.11288244 -0.051124193 -0.1207222 0.055947952 0.06294306 -0.19233185 0.014377703 -0.030140407
-0.18757568 -0.021468276 -0.0024344283 -0.10985181 -0.1767207 -0.14507282 -0.08189723 -0.16350429
-0.0049143857 0.22083081 0.012441001 0.03883625 0.10200299 0.061460774 0.12241948 0.05805961
-0.016372804 0.12786062 -0.0034561853 0.34453282 0.046456322 -0.26792353 0.1101675 0.17358197
0.08741617 -0.13122049 -0.119089216 -0.21804106 0.04085278 -0.08196903 0.15428838 0.0022326254
-0.13701974 -0.036906783 0.09415619 0.123725705 0.033126414 -0.040045425 -0.06448515 0.10450732
-0.024707701 -0.06523505 -0.13791294 -0.032797698 -0.070330985 0.068059556 -0.03449359 0.14904228
-0.099250175 0.0478931 0.008980596 -0.0934653 0.13400422 -0.05195678 0.07624904 -0.056579974
0.012915539 -0.048269615 0.115154624 -0.01948902 0.10285931 -0.019548569 -0.057556134 0.10046957
0.117467 0.055295754 -0.019126723 0.107231155 0.15515971 -0.041653544 -0.009657068 -0.07931204
-0.019285616 -0.008415477 0.06304838 -0.0129498 0.048072737 0.13356815 -0.07031402 0.08572021
0.06279132 -0.0655491 0.046876006 -0.03266722 0.039231934 -0.014960601 -0.08140073 0.045947284
0.08480567 0.0906461 0.040969245 0.1049527 0.123694606 -0.11303451 -0.00051287556 -0.109819725
0.03620731 0.08323425 -0.080566436 0.060172867 -0.0065939524 -0.07554509 0.082515016 -0.008509584
0.056710687 -0.08076393 0.06531068 -0.057856183 -0.062428117 0.06738789 -0.0036949497 -0.085920535
0.0073715146 0.06688285 0.02456364 0.0055580675 -0.08545456 0.08200638 0.0046104463 -0.13808092
-0.08462446 0.05573548 -0.079812184 0.034248263 -0.056241326 -0.07839729 -0.0636679 0.008376257
0.039827183 0.04281723 -0.06301893 0.027247386 -0.0020142274 -0.14891168 0.09211358 0.070661806
0.13134864 0.051502235 -0.07008211 0.009311315 0.046625186 -0.06037563 -0.07291302 0.07207999
-0.043808654 -0.042029697 0.032360334 -0.01855909 0.08858371 0.009601056 0.07297656 -0.0061257654
0.061423503 -0.03794835 0.06995969 0.031608608 -0.029051991 -0.012186331 0.04874103 0.015863812
-0.03913204 0.046778888 -0.015061917 0.12426378 -0.01402106 -0.115733355 0.014364778 0.11777857
0.09603397 -0.14174631 -0.14686504 0.053964574 -0.06741611 -0.023059811 0.023920892 0.0093549015
0.09833911 0.10094196 -0.12558214 -0.25705582 0.24719444 -0.03774618 0.034803912 0.1477617
0.061453763 -0.033568475 0.00881183 0.21363391 0.13452283 0.015231775 -0.055130437 0.08867695
-0.06298715 0.10702108 0.09939975 0.14777012 0.024993995 0.011017387 0.056257345 0.156117
-0.011028825 0.013975886 0.078080066 -0.106722996 -0.10082844 -0.010702123 0.066642575 -0.19060898
0.0074302955 0.055928305 0.12054552 0.33012366 0.016126968 -0.02226299 0.046542656 -0.053504687
-0.10241853 0.064631835 0.12057647 -0.16863604 -0.08977054 -0.0983709 -0.04198435 0.024714135
00000000: af8b e8bd 6db0 ef3b 3edd 3f3e 1806 fdbd
00000010: 991f 823d 6c4f 1a3e 8778 15be da4f 3dbe
00000020: d3af a1bd 61a5 1d3e 509d fcbc 6842 863d
00000030: f461 85bd f1b9 99bd c881 0bbd 6daa a23d
00000040: b84d 3bbe f193 d0bc 732c eb3d c8ad 84be
00000050: 1ba3 cb3d f8b8 6f3e bbbe 053e a67b 923d
00000060: e92e e73d 9a67 51bd 333d f7bd ae29 653d
00000070: 4be8 803d a4f2 44be 7590 6b3c 04e9 f6bc
00000080: d713 40be 3dde afbc ee8a 1fbb fcf9 e0bd
00000090: 45f6 34be f88d 14be bcb9 a7bd ab6d 27be
000000a0: db08 a1bb 7921 623e 57d5 4b3c c212 1f3d
000000b0: f2e6 d03d 4bbe 7b3d 10b7 fa3d eacf 6d3d
000000c0: 4220 86bc e5ed 023e 2b81 62bb 9b66 b03e
000000d0: fc48 3e3d 462d 89be 809f e13d 79bf 313e
000000e0: 4007 b33d aa5e 06be 0ce5 f3bd 2846 5fbe
000000f0: 3f55 273d 61df a7bd c6fd 1d3e 3d51 123b
00000100: e74e 0cbe 912b 17bd f6d4 c03d e763 fd3d
00000110: 90af 073d ac06 24bd ca10 84bd ef07 d63d
00000120: ce67 cabc f499 85bd 0d39 0dbe e156 06bd
00000130: b109 90bd cf62 8b3d 2749 0dbd 8a9e 183e
00000140: ad43 cbbd 8e2b 443d 5a23 133c bc6a bfbd
00000150: 6738 093e a2d0 54bd 7528 9c3d 67c0 67bd
00000160: b29b 533c 5cb6 45bd 30d6 eb3d 70a7 9fbc
00000170: e7a7 d23d 5224 a0bc fbbf 6bbd fdc2 cd3d
00000180: 8a92 f03d cd7d 623d a5af 9cbc 029c db3d
00000190: 30e2 1e3e e89c 2abd ae38 1ebc 5a6e a2bd
000001a0: defc 9dbc 12e1 09bc 821f 813d 662b 54bc
000001b0: ebe7 443d 17c6 083e cc00 90bd 148e af3d
000001c0: bc98 803d 9b3e 86bd 0e01 403d 10ce 05bd
000001d0: aab1 203d 4f1d 75bc 6db5 a6bd 3833 3c3d
000001e0: 98ae ad3d aaa4 b93d 5ecf 273d 71f1 d63d
000001f0: 9953 fd3d a37e e7bd 7f72 06ba 2ae9 e0bd
00000200: 1e4e 143d b876 aa3d 0400 a5bd d377 763d
00000210: 1512 d8bb 62b7 9abd a2fd a83d c86b 0bbc
00000220: 7749 683d 8f67 a5bd 9bc1 853d 9bfa 6cbd
00000230: a0b4 7fbd a902 8a3d f826 72bb 1bf7 afbd
00000240: bf8c f13b e0f9 883d b039 c93c 7320 b63b
00000250: cd02 afbd f6f2 a73d 3a13 973b 1665 0dbe
00000260: 974f adbd e34a 643d 9274 a3bd e847 0c3d
00000270: 4e5d 66bd c28e a0bd 5164 82bd 913c 093c
00000280: d421 233d 1f61 2f3d 1210 81bd e935 df3c
00000290: 2101 04bb 4e7c 18be 0ba6 bc3d 23b7 903d
000002a0: 4280 063e 02f4 523d 3687 8fbd 7c8e 183c
000002b0: 0dfa 3e3d 704c 77bd 6c53 95bd ac9e 933d
000002c0: b470 33bd 5527 2cbd 458c 043d 3c09 98bc
000002d0: 606b b53d bf4d 1d3c bc74 953d a5ba c8bb
000002e0: 3697 7b3d bb6f 1bbd 0747 8f3d 0778 013d
000002f0: 71fe edbc 2da9 47bc ada4 473d d3f4 813c
00000300: eb48 20bd 389b 3f3d 42c6 76bc 027e fe3d
00000310: 97b8 65bc 9c05 edbd 3f5a 6b3c e435 f13d
00000320: 75ad c43d f225 11be ca63 16be f509 5d3d
00000330: 7511 8abd eee7 bcbc bff5 c33c 4d45 193c
00000340: 0466 c93d a9ba ce3d 9b98 00be d29c 83be
00000350: 8a20 7d3e bd9b 1abd 8c8e 0e3d d84e 173e
00000360: f1b6 7b3d 197f 09bd 7e5f 103c d9c2 5a3e
00000370: 5ac0 093e b28e 793c 74d0 61bd 439c b53d
00000380: 68ff 80bd de2d db3d 1992 cb3d 0d51 173e
00000390: 35c0 cc3c 4582 343c 1a6e 663d 23dd 1f3e
000003a0: 3fb2 34bc 1dfb 643c 71e8 9f3d 9691 dabd
000003b0: 247f cebd f557 2fbc e77b 883d 002f 43be
000003c0: d679 f33b 1415 653d 92e0 f63d f805 a93e
000003d0: b41c 843c e060 b6bc 83a3 3e3d bb27 5bbd
000003e0: cec0 d1bd b25d 843d ccf0 f63d edae 2cbe
000003f0: 9ed9 b7bd af76 c9bd c8f7 2bbd 4c75 ca3c

layer_t_1.bias f4 [64]
-0.031358663 0.102611184 0.07596513 0.062450223 -0.082355484 0.0444998 -0.08790006 0.039941438
-0.052109137 0.03402362 -0.03128829 -0.09586057 -0.05270005 -0.031240685 0.06796165 -0.006106982
-0.015105892 0.019976266 -0.10433205 0.025594527 -0.022818945 0.021909531 0.053785987 0.020809859
-0.08780208 0.045845877 -0.15168491 0.06194266 -0.05312577 -0.10013716 0.0903789 -0.12230652
0.029273042 -0.047729492 0.03163832 -0.0027772903 -0.10158069 -0.06011461 0.08280326 -0.015072323
0.060851205 -0.048239954 0.016068058 0.08120106 -0.01514713 0.07814695 -0.07517115 -0.10537956
-0.036324248 0.08337718 -0.13747013 -0.02978208 -0.0080832625 0.06732137 -0.024503062 -0.090209804
0.024667282 0.0463436 -0.09213553 0.043148182 0.009197484 -0.017770506 0.013952367 -0.061902735
00000000: f171 00bd d025 d23d 9b93 9b3d cecb 7f3d
00000010: fea9 a8bd 6c45 363d f204 b4bd a299 233d
00000020: 6470 55bd 5a5c 0b3d 2628 00bd 8c52 c4bd
00000030: 02dc 57bd 77ec ffbc 7a2f 8b3d 141d c8bb
00000040: b47e 77bc 44a5 a33c 0bac d5bd 9dab d13c
00000050: ccee babc 9e7b b33c b24e 5c3d 7079 aa3c
00000060: 94d1 b3bd e3c8 3b3d 4a53 1bbe 96b7 7d3d
00000070: 689a 59bd b614 cdbd 9318 b93d d77b fabd
00000080: 05ce ef3c 0080 43bd 2f97 013d 3303 36bb
00000090: 8909 d0bd bd3a 76bd c194 a93d e8f1 76bc
000000a0: 1d3f 793d 4297 45bd 29a1 833c be4c a63d
000000b0: ab2b 78bc 820b a03d 55f3 99bd 3dd1 d7bd
000000c0: bcc8 14bd a8c1 aa3d f8c4 0cbe 8cf9 f3bc
000000d0: a96f 04bc c9df 893d a5ba c8bc ebbf b8bd
000000e0: 0a13 ca3c c9d2 3d3d 8eb1 bcbd 26bc 303d
000000f0: 0bb1 163c 7493 91bc 7898 643c b98d 7dbd

layer_t_2.weight f4 [64, 64]
-0.06836238 0.07068396 -0.007164333 0.002511962 -0.030414736 0.060487915 0.066126205 0.077548705
0.08618261 0.026955836 -0.032656398 0.0040096943 0.05043806 -0.05863013 -0.13165596 0.03104681
0.09561643 -0.041070644 -0.01018684 -0.07752236 0.076747105 0.049264196 0.061949935 0.0802089
0.049498532 -0.058013815 -0.05811808 -0.10990072 0.051173847 -0.04882991 -0.08919468 -0.08837038
-0.08049431 -0.010072735 -0.10628844 -0.100454815 0.038497854 -0.0055490797 -0.021797782 0.10883686
-0.008576815 -0.0016536227 -0.09253755 0.035955362 0.07465654 -0.03838349 -0.04302834 0.043922994
-0.11797308 -0.0748808 0.031199625 0.0682318 0.07228397 -0.0011478076 -0.086780146 0.047922336
-0.0028084163 -0.021818358 -0.08233081 -0.06456614 -0.002877409 0.05812701 -0.0966286 0.039711908
-0.16071026 -0.110073805 -0.03524319 -0.2412712 -0.056337167 0.08997838 0.13647191 -0.06737452
-0.064724565 0.0019413055 -0.09141051 -0.05382853 -0.024004176 0.24795198 0.04133877 0.0051144375
-0.14684032 0.11345923 0.10886975 0.12919633 0.11538412 0.12683481 -0.068546176 0.0011802756
0.15957646 -0.07066989 -0.112549715 -0.020721557 0.06450104 0.008741512 -0.117182255 -0.09505637
0.047046326 0.09747033 0.2176291 0.012757142 -0.020460652 0.018466776 -0.0115837995 0.06886774
-0.10443045 -0.0850174 -0.011370338 -0.04943137 -0.110569604 -0.114198744 -0.13909185 0.042408925
-0.034904994 0.10763516 0.032209482 0.03167364 -0.1475539 0.05524 -0.031053724 0.09352074
-0.06318701 -0.03316097 -0.099347144 -0.0021367893 -0.18912344 -0.063009076 -0.06901478 -0.025858881
-0.047510248 -0.1082319 -0.081063196 -0.024488091 -0.033536326 0.038349647 -0.12955295 -0.052431125
0.015080963 0.06636257 -0.04502731 -0.05459917 -0.0835135 -0.08989625 0.077662036 -0.045203567
-0.05475782 -0.06469454 -0.14723222 -0.0482954 -0.07742989 0.043647338 0.07441972 -0.07978616
-0.1624753 -0.05321302 -0.0819085 -0.020555837 0.00020855914 0.0674461 0.029016208 0.008504795
-0.045282636 0.049182836 0.032743573 -0.035695057 0.0993831 0.05038438 -0.04892349 -0.061071597
0.0100410525 0.06318564 -0.053111732 -0.15271115 -0.0679537 -0.0016426536 -0.0010164052 -0.12780818
-0.016836593 -0.0463677 0.025381476 0.044155978 0.049972884 0.03492326 -0.09368948 -0.14332749
-0.055339564 -0.07561522 0.13900533 0.032788094 -0.069254234 -0.10335869 0.113042824 -0.033177603
0.17003886 -0.088593446 -0.07730517 0.08993615 -0.1034605 -0.017398078 -0.008911008 0.086671904
0.06781495 0.067119375 -0.0078061875 0.07923319 0.10656297 -0.22500552 0.04644532 0.06332084
0.050914694 -0.15914553 -0.100237265 -0.016323863 -0.057823524 -0.06362068 0.07525955 -0.1120687
-0.1286698 0.043517586 -0.012428221 -0.103468455 0.014982861 -0.0072794794 -0.02229335 -0.0104579665
0.0038029389 0.05873515 -0.028379215 0.018478623 -0.017652879 -0.16299376 -0.06339076 -0.03588417
-0.10174768 0.048654623 -0.0029245857 -0.07912366 0.07119298 -0.013126995 0.027003394 0.021130685
0.17228101 0.04791409 0.004437536 0.08926792 0.04141259 0.016648477 0.10488807 -0.14983143
0.08935723 -0.031537186 -0.0092599215 -0.15060605 0.16436294 -0.077623844 -0.043955814 -0.10738614
00000000: 9301 8cbd c1c2 903d c8c2 eabb bb9f 243b
00000010: 5328 f9bc 2dc2 773d 2d6d 873d dbd1 9e3d
00000020: 8280 b03d 7cd2 dc3c b7c2 05bd c163 833b
00000030: 2498 4e3d 2626 70bd d2d0 06be e155 fe3c
00000040: 8cd2 c33d b139 28bd b4e6 26bc 0bc4 9ebd
00000050: 962d 9d3d 41c9 493d 37bf 7d3d 9044 a43d
00000060: f9be 4a3d e59f 6dbd 390d 6ebd a113 e1bd
00000070: ab9b 513d df01 48bd b3ab b6bd 88fb b4bd
00000080: 33da a4bd 1d08 25bc c1ad d9bd 41bb cdbd
00000090: edaf 1d3d 0ed5 b5bb 4391 b2bc dce5 de3d
000000a0: c585 0cbc 5fbe d8ba 5484 bdbd ee45 133d
000000b0: 87e5 983d 0238 1dbd 7c3e 30bd 99e8 333d
000000c0: df9b f1bd 1b5b 99bd 5b96 ff3c 1dbd 8b3d
000000d0: 9e09 943d 0872 96ba cab9 b1bd 364a 443d
000000e0: 680d 38bb 6abc b2bc 0e9d a8bd 413b 84bd
000000f0: ea92 3cbb 9616 6e3d 37e5 c5bd f4a8 223d
00000100: 3b91 24be 606e e1bd 2a5b 10bd cc0f 77be
00000110: cdc1 66bd 9646 b83d 4bbf 0b3e a7fb 89bd
00000120: 508e 84bd 6773 fe3a 6f35 bbbd 4e7b 5cbd
00000130: 68a4 c4bc 20e7 7d3e d852 293d 0397 a73b
00000140: 4f5d 16be 505d e83d 1af7 de3d 0b4c 043e
00000150: 824e ec3d fce0 013e f061 8cbd 7ab3 9a3a
00000160: 0368 233e 60bb 90bd 7780 e6bd 41c0 a9bc
00000170: 1f19 843d 8f38 0f3c 40fd efbd eaac c2bd
00000180: a6b3 403d 869e c73d 2ada 5e3e 5503 513c
00000190: 199d a7bc a347 973c fac9 3dbc 880a 8d3d
000001a0: a2df d5bd 9a1d aebd a74a 3abc 8c78 4abd
000001b0: 5172 e2bd 08e1 e9bd 186e 0ebe fbb4 2d3d
000001c0: 8af8 0ebd d36f dc3d 17ee 033d 38bc 013d
000001d0: 5f18 17be 5743 623d 6164 febc cd87 bf3d
000001e0: 3168 81bd ccd3 07bd 8476 cbbd 6009 0cbb
000001f0: 93a9 41be e70a 81bd 9f57 8dbd 01d6 d3bc
00000200: 1b9a 42bd b0a8 ddbd 7604 a6bd 409b c8bc
00000210: 635d 09bd 8514 1d3d 87a9 04be 05c2 56bd
00000220: 2516 773c 19e9 873d 8e6e 38bd 61a3 5fbd
00000230: 2009 abbd 861b b8bd 460d 9f3d 6027 39bd
00000240: bc49 60bd 927e 84bd 0bc4 16be 66d1 45bd
00000250: 9093 9ebd 8dc7 323d 5e69 983d ed66 a3bd
00000260: ed5f 26be e5f5 59bd a5bf a7bd b764 a8bc
00000270: abb0 5a39 2e21 8a3d 66b3 ed3c b257 0b3c
00000280: 497a 39bd f173 493d 201e 063d fb34 12bd
00000290: 5e89 cb3d da5f 4e3d ff63 48bd 3626 7abd
000002a0: 3a83 243c 7967 813d b08b 59bd 5060 1cbe
000002b0: 4f2b 8bbd 4f4e d7ba e638 85ba 26e0 02be
000002c0: e5ec 89bc 0fec 3dbd d0ec cf3c e6dc 343d
000002d0: 5eb0 4c3d b10b 0f3d 45e0 bfbd 71c4 12be
000002e0: bdab 62bd 27dc 9abd 6a57 0e3e cf4c 063d
000002f0: 2ad5 8dbd b9ad d3bd ff82 e73d 3de5 07bd
00000300: ab1e 2e3e 7b70 b5bd 2c52 9ebd 7230 b83d
00000310: 19e3 d3bd 6a86 8ebc 7aff 11bc 0a81 b13d
00000320: 91e2 8a3d e275 893d 0ccb ffbb 0345 a23d
00000330: b03d da3d d967 66be 733d 3e3d 5bae 813d
00000340: ed8b 503d 0cf7 22be 3249 cdbd 9fb9 85bc
00000350: 5cd8 6cbd 8f4b 82bd ae21 9a3d 4684 e5bd
00000360: 04c2 03be 7f3f 323d bd9f 4bbc 45e7 d3bd
00000370: ac7a 753c b388 eebb 8ba0 b6bc e457 2bbc
00000380: ba3a 793b 4594 703d 877b e8bc 7b60 973c
00000390: c59c 90bc d6e7 26be 04d3 81bd 48fb 12bd
000003a0: 1661 d0bd 124a 473d 68aa 3fbb 960b a2bd
000003b0: a0cd 913d 9c12 57bc 3936 dd3c 421a ad3c
000003c0: 6f6a 303e 9141 443d c068 913b 19d2 b63d
000003d0: 3fa0 293d 6362 883c 8ecf d63d 696d 19be
000003e0: ec00 b73d 232d 01bd edb6 17bc 7938 1abe
000003f0: c24e 283e 40f9 9ebd 030b 34bd 44ed dbbd

layer_t_2.bias f4 [64]
0.0057989364 -0.096184805 -0.09832889 0.08802013 -0.109165266 -0.05673854 -0.007842063 -0.08285075
0.042614263 0.07330593 -0.08695023 -0.067791864 0.02916735 -0.11010396 -0.0037302654 0.01957274
0.023483919 0.038493678 -0.013643761 -0.08467452 -0.014247847 0.034469467 0.086457625 0.12274199
0.07399352 -0.11749413 0.08300798 -0.018327119 0.012349808 0.08856426 0.043554977 -0.08704994
0.056571856 -0.14599386 -0.04337581 0.03203604 0.010900158 -0.07519131 0.008359211 0.03458985
-0.095353134 0.015472269 -0.0801899 -0.0651582 -0.00086406467 -0.035555456 0.08874618 0.08172118
-0.021249475 -0.027969781 0.030638 -0.008887689 0.097504884 0.014506678 -0.07988758 -0.10269033
-0.13493569 -0.06317651 -0.10715324 0.09807786 0.08035283 -0.06022518 0.03453862 0.057926003
00000000: 0105 be3b 8afc c4bd a860 c9bd e643 b43d
00000010: 0a92 dfbd ac66 68bd ff7b 00bc a7ad a9bd
00000020: 4b8c 2e3d 6b21 963d f612 b2bd 76d6 8abd
00000030: 5ef0 ee3c 2f7e e1bd 7877 74bb 0357 a03c
00000040: 5961 c03c 8cab 1d3d 158a 5fbc d669 adbd
00000050: cd6f 69bc db2f 0d3d b210 b13d 2760 fb3d
00000060: ea89 973d c3a0 f0bd 1600 aa3d c122 96bc
00000070: d956 4a3c 2e61 b53d b466 323d 3d47 b2bd
00000080: e4b7 673d 6a7f 15be d5aa 31bd 3938 033d
00000090: 9496 323c e7fd 99bd 12f5 083c 16ae 0d3d
000000a0: 8148 c3bd 667f 7d3c 9a3a a4bd aa71 85bd
000000b0: 6682 62ba 99a2 11bd 8fc0 b53d 6f5d a73d
000000c0: 6113 aebc e220 e5bc 8bfc fa3c ab9d 11bc
000000d0: a4b0 c73d 6bad 6d3c 199c a3bd 4f4f d2bd
000000e0: 952c 0abe b062 81bd 2873 dbbd 0cdd c83d
000000f0: 0690 a43d aeae 76bd 5e78 0d3d d143 6d3d

layer_out_1.weight f4 [64, 64]
0.039812487 -0.11499483 -0.05067128 0.08531426 0.024309712 -0.047250353 -0.0071288208 -0.058097217
0.05485386 -0.004265186 -0.105851196 -0.08945431 -0.071246155 -0.017187063 0.054467503 0.008619309
0.01983522 -0.02563607 0.026439529 0.05295293 0.08696684 -0.006931769 0.12065366 -0.0683679
-0.0693454 0.09615045 0.11432762 0.079492465 0.100281216 -0.087646216 -0.06533828 0.04493416
-0.049966834 -0.10018166 0.05298171 0.08607109 -0.055856112 -0.027644519 0.08745431 -0.0578488
-0.04357219 0.02056948 0.014756674 0.03948875 -0.11834318 -0.07814554 -0.0746112 -0.043620978
-0.12380773 -0.022608329 -0.057184342 0.10890109 -0.08355469 -0.08849329 0.029655013 0.100670055
-0.0661512 0.025911529 0.0023831443 0.0944159 -0.11107965 0.03316739 0.011490543 -0.020118373
0.05898804 0.03946147 -0.17304708 -0.04359984 0.047372755 0.0051525473 -0.07665103 -0.12531966
-0.17565621 -0.13282041 0.048823502 5.3171538e-05 -0.16551481 0.0107046105 -0.08653005 -0.21032202
-0.021085681 0.011891994 -0.014070906 0.17599459 -0.0880672 -0.124851175 0.026341006 -0.14819168
0.00056598405 -0.014153311 -0.035820067 -0.041863512 -0.08502792 0.08796822 0.12955073 0.037485145
-0.03188295 0.060395524 0.06537691 0.041812304 -0.006718046 -0.03622278 0.033742186 -0.0182046
0.18183044 -0.06942344 -0.09426621 0.061246693 -0.095704295 0.046329398 0.036471795 0.031713318
-0.07243798 0.043551415 -0.053869646 0.11123283 -0.12120587 -0.07543833 0.06450948 0.014558605
0.13585928 0.12532996 0.06588479 0.022338796 -0.14812513 -0.005350311 -0.079278246 -0.04844703
0.0029620032 0.028561303 -0.07032681 0.06620888 0.028648222 -0.09382542 -0.1288304 -0.098166
0.11039644 0.064836465 -0.09317405 -0.010962056 0.04986404 0.11654103 -0.13042131 -0.08244241
-0.069595456 -0.06563552 0.031236967 0.037470676 -0.18936847 0.021448763 0.09479053 0.024093471
0.07120811 0.042511232 -0.077733524 0.011938544 0.07491956 -0.19165914 0.037631366 -0.080077514
0.05942927 0.0232537 -0.06603513 -0.0665929 0.03409743 0.09284028 0.033939976 0.07631327
0.082936786 0.0072362586 -0.008808287 0.09514983 0.04641063 -0.056084376 -0.10574064 0.06677601
-0.0019534733 0.0370474 -0.06746789 0.05052723 -0.02224819 -0.13673526 -0.059268758 0.054827638
0.08983242 0.07391278 0.10624951 -0.022018235 0.007993319 0.053237434 0.08812211 0.10337158
0.0030229725 0.021560566 -0.046489295 0.024164923 0.12453048 0.053508736 -0.042172477 0.049887136
0.09281205 0.06339475 -0.10570551 0.1158435 -0.16293603 0.019357918 -0.09961434 -0.049504697
0.0028934407 0.10378751 0.054957442 -0.08864504 0.05675413 0.05320489 -0.07142354 0.06211758
-0.11520881 -0.050137226 -0.004575421 0.09909154 -0.09764995 -0.10435942 0.030459123 -0.03480738
-0.07536618 0.021133851 0.05238496 0.07863955 -0.028122872 0.10784139 -0.15235585 -0.066075064
0.06130936 -0.027182624 -0.106325984 -0.05473745 0.18175325 0.033413097 -0.0013025915 0.021224027
0.050878342 -0.08603669 -0.12812003 -0.009787177 0.07447653 -0.0015024408 -0.12880145 -0.09388266
-0.09637818 0.096575975 -0.046537947 -0.099555604 -0.002455993 -0.0037370094 0.031110365 0.1025502
00000000: 6b12 233d 6982 ebbd b08c 4fbd 3eb9 ae3d
00000010: 2925 c73c 9689 41bd e298 e9bb 59f7 6dbd
00000020: 71ae 603d f9c2 8bbb 83c8 d8bd d233 b7bd
00000030: 81e9 91bd e2cb 8cbc 5119 5f3d 0138 0d3c
00000040: 797d a23c bc02 d2bc b697 d83c 2ce5 583d
00000050: ac1b b23d e523 e3bb 4419 f73d 7804 8cbd
00000060: f604 8ebd 87ea c43d 9924 ea3d f2cc a23d
00000070: 3d60 cd3d dc7f b3bd 13d0 85bd e20c 383d
00000080: 06aa 4cbd 0b2c cdbd 5903 593d 0a46 b03d
00000090: 61c9 64bd c276 e2bc 3f1b b33d ddf2 6cbd
000000a0: c178 32bd 5381 a83c fac5 713c f5be 213d
000000b0: e95d f2bd c50a a0bd c2cd 98bd e9ab 32bd
000000c0: e88e fdbd 1a35 b9bc 213a 6abd 8907 df3d
000000d0: b91e abbd f83b b5bd 12ef f23c 1a2c ce3d
000000e0: 487a 87bd 6a44 d43c 872e 1c3b 205d c13d
000000f0: ba7d e3bd 87da 073d d542 3c3c 49cf a4bc
00000100: 719d 713d 5aa2 213d 4133 31be bf95 32bd
00000110: ef09 423d b3d6 a83b 37fb 9cbd cc53 00be
00000120: 39df 33be 1302 08be 27fb 473d 8104 5f38
00000130: b77c 29be 6462 2f3c ab36 b1bd a85e 57be
00000140: e1bb acbc a3d6 423c a889 66bc ed37 343e
00000150: 935c b4bd f9b1 ffbd 18c9 d73c 8fbf 17be
00000160: 8c5e 143a 4ae3 67bc 10b8 12bd 1379 2bbd
00000170: 1e23 aebd af28 b43d f2a8 043e 068a 193d
00000180: b297 02bd 4c61 773d 54e4 853d 6143 2b3d
00000190: 0e23 dcbb 565e 14bd 3f35 0a3d d021 95bc
000001a0: c231 3a3e e02d 8ebd a50e c1bd d0dd 7a3d
000001b0: 9d00 c4bd e5c3 3d3d 7363 153d d3e5 013d
000001c0: 5d5a 94bd f862 323d 6ba6 5cbd 0ace e33d
000001d0: c83a f8bd 697f 9abd 8c1d 843d 3787 6e3c
000001e0: b21e 0b3e 7f56 003e 9bee 863d daff b63c
000001f0: 1dae 17be a951 afbb a25c a2bd 6570 46bd
00000200: 2b1e 423b 65f9 e93c 8107 90bd 8598 873d
00000210: adaf ea3c 8b27 c0bd 1eec 03be 410b c9bd
00000220: 8717 e23d fbc8 843d 09d2 bebd 329a 33bc
00000230: 3c3e 4c3d 10ad ee3d 2a8d 05be 91d7 a8bd
00000240: 1088 8ebd ea6b 86bd abe4 ff3c da7a 193d
00000250: cfe9 41be 51b5 af3c 8a21 c23d ac5f c53c
00000260: 8fd5 913d 4220 2e3d c132 9fbd e299 433c
00000270: 6d6f 993d 4b42 44be 5923 1a3d aeff a3bd
00000280: 1b6c 733d 8b7e be3c 6d3d 87bd dc61 88bd
00000290: bfa9 0b3d 0b23 be3d a504 0b3d 224a 9c3d
000002a0: c3da a93d 231e ed3b a250 10bc eadd c23d
000002b0: 1319 3e3d bbb8 65bd 8c8e d8bd dcc1 883d
000002c0: d805 00bb 04bf 173d 9b2c 8abd a4f5 4e3d
000002d0: d641 b6bc 5404 0cbe ccc3 72bd f292 603d
000002e0: 0ffa b73d 955f 973d 5899 d93d 965f b4bc
000002f0: 69f6 023c 7f0f 5a3d 5d79 b43d 7bb4 d33d
00000300: 101d 463b c99f b03c 8f6b 3ebd 84f5 c53c
00000310: d609 ff3d fa2b 5b3d 0cbd 2cbd 7456 4c3d
00000320: 3e14 be3d 1bd5 813d 217c d8bd 5b3f ed3d
00000330: b4d8 26be 7f94 9e3c 9a02 ccbd 70c5 4abd
00000340: e19f 3d3b 8c8e d43d 0e1b 613d 888b b5bd
00000350: 0577 683d 5fed 593d 8146 92bd 016f 7e3d
00000360: 99f2 ebbd b15c 4dbd 6aed 95bb 81f0 ca3d
00000370: b2fc c7bd 64ba d5bd 6985 f93c 2f92 0ebd
00000380: 9559 9abd e620 ad3c 9d91 563d c60d a13d
00000390: f061 e6bc f2db dc3d 2c03 1cbe 5d52 87bd
000003a0: 861f 7b3d 18ae debc 70c1 d9bd 6034 60bd
000003b0: 861d 3a3e 2cdc 083d b8bb aaba 03de ad3c
000003c0: cf65 503d 0134 b0bd e631 03be 655a 20bc
000003d0: 2787 983d 8ced c4ba 87e4 03be 8d45 c0bd
000003e0: ec61 c5bd a0c9 c53d 939e 3ebd cfe3 cbbd
000003f0: baf4 20bb 9de8 74bb 2adb fe3c d705 d23d

layer_out_1.bias f4 [64]
0.046190303 -0.0032487179 -0.08431266 0.060226686 -0.07650743 0.048019778 -0.0028856772 0.033904623
0.077132575 0.086174235 0.05613725 -0.11906629 -0.05615547 0.08016454 0.019324517 0.037824024
0.008957715 -0.102056615 -0.04993838 0.08193503 -0.027264778 0.0070750355 -0.012429793 -0.0375103
0.07420442 0.115558736 0.04506687 0.12231764 0.037126694 -0.04014415 -0.09302033 -0.0046611778
-0.1389237 0.02185388 0.053131305 -0.14239447 0.005504819 0.055775944 -0.09846793 0.06150163
-0.12343494 0.009002667 0.081880584 0.04378676 -0.06346322 -0.0056434385 0.06226657 0.05223613
0.010988219 0.104444325 0.016488085 -0.020683067 0.04532056 -0.09030043 0.09718989 -0.008071822
-0.091946006 0.01350057 0.099093154 0.044530038 -0.074383825 0.0976509 0.032232825 0.050328813
00000000: 0b32 3d3d 71e8 54bb 1eac acbd 42b0 763d
00000010: edaf 9cbd 63b0 443d a11d 3dbb 93df 0a3d
00000020: aff7 9d3d 1e7c b03d 2cf0 653d 07d9 f3bd
00000030: 4703 66bd 4e2d a43d 734e 9e3c 5ded 1a3d
00000040: 61c3 123c 0f03 d1bd 308c 4cbd 8ecd a73d
00000050: 625a dfbc b3d5 e73b 55a6 4bbc 66a4 19bd
00000060: 7df8 973d 0faa ec3d 0a98 383d ac81 fa3d
00000070: 2912 183d 316e 24bd 7181 bebd cbbc 98bb
00000080: 0442 0ebe e806 b33c 36a0 593d dbcf 11be
00000090: c561 b43b 5175 643d 8ea9 c9bd 22e9 7b3d
000000a0: 75cb fcbd ec7f 133c 02b1 a73d bf59 333d
000000b0: 01f9 81bd 98ec b8bb 3b0b 7f3d 8df5 553d
000000c0: ee07 343c e8e6 d53d 0512 873c 896f a9bc
000000d0: 0da2 393d 6fef b8bd 7e0b c73d ad3f 04bc
000000e0: 304e bcbd 7f31 5d3c 5af1 ca3d 2165 363d
000000f0: 8c56 98bd 32fd c73d 9106 043d 9625 4e3d

layer_out_2.weight f4 [53, 64]
-0.027415242 0.0682985 0.024961669 -0.12693541 -0.056699514 -0.022281619 0.113033146 -0.012249817
0.082290724 0.0901775 -0.14884311 -0.103419505 0.09446574 0.01841856 -0.09596581 -0.0920125
0.003610279 0.06329973 0.04078753 -0.02012076 0.007566417 0.03146642 -0.0624875 0.12600441
0.12125277 -0.16928695 0.09228188 -0.027400529 0.12521404 -0.018874984 0.040102825 -0.047008015
0.030184655 -0.13842458 -0.09266456 0.06646277 0.098006874 -0.0991172 -0.013232741 0.049904525
-0.09209675 0.215531 -0.20761253 0.06709485 -0.0007959467 -0.06923758 0.031846754 0.058652304
-0.097999565 -0.035378706 0.033137567 0.009898641 0.112426065 0.095257595 -0.015944948 -0.006167475
0.100159824 -0.02559864 -0.010607392 -0.12365069 0.09657389 -0.18992995 0.0071269013 0.10163457
0.036743935 0.0012339319 -0.104578875 -0.017295804 -0.0001361385 0.093417615 0.032723065 0.048381224
0.0486895 0.010709425 -0.0035423723 0.03575876 0.04340283 -0.036430713 0.10510602 -0.04489147
-0.013190119 -0.055675182 -0.014077099 -0.037946276 -0.086512886 -0.067516156 0.04997004 0.035459727
0.0037737524 0.028047668 0.068552434 0.10220163 -0.05083485 -0.075577825 -0.02876839 -0.04289522
-0.08408359 -0.050302975 -0.01445372 0.011658228 0.09418417 -0.031451248 -0.089330494 -0.023262568
-0.06613762 -0.0912108 -0.052566238 0.080795355 -0.07783806 0.026840026 0.029546995 0.051255956
-0.007339859 0.069187805 -0.045078713 -0.062278494 -0.021819027 -0.10511866 -0.0012159228 -0.020252194
-0.0071247756 0.06929944 -0.004239697 -0.07104685 -0.02641994 0.017169321 -0.0033769887 0.06297673
0.037318908 -0.008000334 -0.0140917525 -0.0787506 0.026970953 0.032842074 0.012101263 0.06323697
0.05691848 -0.11958671 -0.05826749 0.110565804 -0.004125313 -0.023881106 0.10871317 -0.0140759535
-0.010485772 -0.09357808 0.030353732 -0.005299584 -0.025384543 -0.13906175 0.05585793 -0.048708815
0.12777689 -0.04207908 -0.0331387 -0.19298261 -0.11000571 -0.047850873 0.053111315 0.04949389
-0.055161312 0.11528297 0.16299005 -0.082847446 0.16422246 -0.16294482 -0.09043325 0.2204065
-0.0638415 0.052529816 0.07409229 0.050320085 -0.13282531 0.06014994 0.008273222 0.06720251
0.09972193 -0.07624836 0.0029133933 0.022396972 -0.12343196 0.0235459 -0.025546737 0.021519555
0.06410372 0.18826441 0.0803986 -0.07072769 0.021892952 -0.15172437 -0.06796678 -0.017537938
-0.024607617 0.036316533 -0.03691988 0.046108752 -0.06309208 0.104833744 -0.09328578 0.10205627
0.095403284 -0.09581896 -0.020761995 0.093170255 0.016506186 -0.1648577 0.06339877 0.0071830438
0.028665971 -0.021295182 0.021718223 0.046178903 -0.083328314 0.0066832886 -0.040516436 -0.07084439
-0.018393693 0.013539939 -0.03754687 -0.042509604 0.08753362 -0.08738184 0.07663665 -0.091963194
-0.03415739 -0.033577528 -0.0746674 -0.12336747 0.030425865 0.020628767 -0.11591885 -0.019109568
0.05725933 0.036331754 0.033343017 0.036801 -0.14252403 0.030902678 0.0110457055 0.05301041
0.06306624 0.017247377 0.06487312 0.048676956 0.1289681 0.06350628 0.02767676 -0.002526206
0.07804589 -0.0058832117 -0.029949075 0.035319507 0.049009755 0.028764807 -0.00017194224 0.07655199
00000000: ee95 e0bc 15e0 8b3d 6a7c cc3c 5bfb 01be
00000010: c03d 68bd f187 b6bc ec7d e73d 75b3 48bc
00000020: 0a88 a83d fbae b83d 546a 18be 9bcd d3bd
00000030: 4177 c13d 85e2 963c b989 c4bd 0d71 bcbd
00000040: 6e9a 6c3b 4aa3 813d d310 273d 4bd4 a4bc
00000050: b5ef f73b efe2 003d e5f2 7fbd 4d07 013e
00000060: 5f53 f83d 8f59 2dbe 48fe bc3d 1377 e0bc
00000070: 1c38 003e b69f 9abc dc42 243d 7a8b 40bd
00000080: cf45 f73c 2cbf 0dbe ebc6 bdbd a21d 883d
00000090: d4b7 c83d f5fd cabd 23ce 58bc b068 4c3d
000000a0: 399d bcbd 29b4 5c3e 6198 54be 0669 893d
000000b0: 14a7 50ba 6fcc 8dbd be71 023d 663d 703d
000000c0: ffb3 c8bd 43e9 10bd 42bb 073d e92d 223c
000000d0: a33f e63d 6a16 c33d fb9e 82bc 8818 cabb
000000e0: 9820 cd3d 3db4 d1bc a0ca 2dbc 933c fdbd
000000f0: 88c8 c53d ff7c 42be c888 e93b c925 d03d
00000100: cf80 163d e2bb a13a 732d d6bd eeaf 8dbc
00000110: 66c0 0eb9 bc51 bf3d 9f08 063d 642b 463d
00000120: a46e 473d 9676 2f3c 2527 68bb c777 123d
00000130: 2ac7 313d 5f38 15bd d341 d73d 1ee0 37bd
00000140: 5e1b 58bc a90b 64bd a2a3 66bc 8e6d 1bbd
00000150: ab2d b1bd e945 8abd 62ad 4c3d 383e 113d
00000160: 0f51 773b 39c4 e53c 3865 8c3d 174f d13d
00000170: 3438 50bd 8cc8 9abd b0ab ebbc e6b2 2fbd
00000180: 0434 acbd 7e0a 4ebd 4ccf 6cbc 2702 3f3c
00000190: a1e3 c03d 06d3 00bd e8f2 b6bd 2491 bebc
000001a0: 2973 87bd bacc babd b24f 57bd 0978 a53d
000001b0: 9069 9fbd 9ddf db3c 8a0c f23c c4f1 513d
000001c0: 3383 f0bb 56b2 8d3d 75a4 38bd bc17 7fbd
000001d0: d1bd b2bc 7448 d7bd 995f 9fba eee7 a5bc
000001e0: f376 e9bb ddec 8d3d 28ed 8abb 0381 91bd
000001f0: a16e d8bc ada6 8c3c 7850 5dbb f2f9 803d
00000200: b6db 183d d513 03bc 18e1 66bc ff47 a1bd
00000210: 30f2 dc3c 6985 063d 6044 463c 6282 813d
00000220: 5a23 693d e1e9 f4bd e4a9 6ebd 5370 e23d
00000230: a22d 87bb 4fa2 c3bc 03a5 de3d d49e 66bc
00000240: 84cc 2bbc dda5 bfbd 64a8 f83c 22a8 adbb
00000250: 3ff3 cfbc 3466 0ebe 49cb 643d e582 47bd
00000260: f2d7 023e 1d5b 2cbd 72bc 07bd 3c9d 45be
00000270: ac4a e1bd 47ff 43bd 408b 593d 1bba 4a3d
00000280: d4f0 61bd 7a19 ec3d dde6 263e ecab a9bd
00000290: ef29 283e 02db 26be 1135 b9bd 3eb2 613e
000002a0: 55bf 82bd 8129 573d b3bd 973d 6f1c 4e3d
000002b0: 5c03 08be c95f 763d 688c 073c 78a1 893d
000002c0: 033b cc3d 1a28 9cbd a1ee 3e3b db79 b73c
000002d0: e5c9 fcbd 55e3 c03c 6447 d1bc c749 b03c
000002e0: d048 833d 63c8 403e 05a8 a43d aed9 90bd
000002f0: d958 b33c a25d 1bbe 2b32 8bbd b9ab 8fbc
00000300: ea95 c9bc a5c0 143d 4d39 17bd 88dc 3c3d
00000310: 6c36 81bd 13b3 d63d 9d0c bfbd e102 d13d
00000320: cc62 c33d bb3c c4bd 0f15 aabc 0cd0 be3d
00000330: fb37 873c 75d0 28be 37d7 813d bd5f eb3b
00000340: e6d4 ea3c 3c73 aebc 6aea b13c 1726 3d3d
00000350: 09a8 aabd 7dff da3b 90f4 25bd dd16 91bd
00000360: 5fae 96bc 9fd6 5d3c bfca 19bd 8d1e 2ebd
00000370: d444 b33d 40f5 b2bd adf3 9c3d 3357 bcbd
00000380: 9fe8 0bbd 9788 09bd 39eb 98bd 16a8 fcbd
00000390: aa3f f93c a9fd a83c dd66 edbd ab8b 9cbc
000003a0: c288 6a3d 9bd0 143d b092 083d a5bc 163d
000003b0: d2f1 11be 9d27 fd3c 0cf9 343c 7221 593d
000003c0: df28 813d 5f4a 8d3c 33dc 843d 7d61 473d
000003d0: 3710 043e 950f 823d 5fba e23c b48e 25bb
000003e0: 86d6 9f3d f5c7 c0bb c357 f5bc 30ab 103d
000003f0: 74be 483d 2ca4 eb3c 654b 34b9 4ac7 9c3d

layer_out_2.bias f4 [53]
-0.0053773145 0.014521845 0.058811314 0.045628704 0.0084734475 0.037673797 0.021966703 -0.0024646998
-0.03584321 0.0026345232 -0.024483802 0.024976 0.0031589149 0.05076916 0.05864123 0.011399506
-0.011847964 -0.020344969 0.08513948 -0.010465896 -0.023969486 -0.004216765 0.022125527 0.032411423
-0.03268414 0.04164203 -0.013812649 -0.040035475 0.018231947 0.045977797 0.027404122 -0.004991073
-0.05817605 0.025702795 0.009526036 -0.045685902 0.0030893679 0.04041355 0.0005265825 0.0102066435
0.03855666 -0.009709084 -0.037771616 0.032554124 -0.045258995 0.0136253415 -0.053190645 0.009329859
-0.022726486 -0.03359183 -0.0009490609 0.0770835 0.018893545
00000000: 2f34 b0bb 08ed 6d3c 22e4 703d 2ae5 3a3d
00000010: 37d4 0a3c d74f 1a3d 84f3 b33c cd86 21bb
00000020: 54d0 12bd f7a7 2c3b 4192 c8bc 789a cc3c
00000030: cc05 4f3b 53f3 4f3d c931 703d fec4 3a3c
00000040: f61d 42bc 7eaa a6bc 9c5d ae3d 2679 2bbc
00000050: a85b c4bc ca2c 8abb 9840 b53c d7c1 043d
00000060: cedf 05bd d590 2a3d 734e 62bc 3dfc 23bd
00000070: 2a5b 953c 3753 3c3d 9c7e e03c 288c a3bb
00000080: 034a 6ebd ab8e d23c 1713 1c3c 2421 3bbd
00000090: fe76 4a3b ae88 253d 5a0a 0a3a c439 273c
000000a0: 97ed 1d3d da12 1fbc 69b6 1abd 7957 053d
000000b0: 7f61 39bd d33c 5f3c 6fde 59bd 44dc 183c
000000c0: e52c babc 9697 09bd 66ca 78ba f4dd 9d3d
000000d0: a3c6 9a3c

residual_layers.0.layer_norm.weight f4 [64]
0.97071046 0.9184968 1.0221548 0.9213786 0.94840795 0.9831283 0.9845105 1.098969
0.9720998 0.93419653 1.0087032 1.0330248 0.87074274 0.93370616 1.0732847 0.94749916
0.9103464 0.91872936 1.0758365 0.9342078 0.9698333 1.0076766 0.9097823 0.94432265
0.9005027 0.9500205 0.97694623 0.9329253 0.9798672 0.98066646 0.9625254 0.9328193
1.2658303 0.9608981 0.9481526 0.94766814 0.9744409 0.9002798 0.939621 0.9325591
0.92280483 0.90137273 0.9038892 1.0076282 0.97986495 0.9458309 0.9488333 1.0792265
1.0212791 0.9186365 0.9281889 1.0601419 0.97192174 1.080579 0.9759532 0.9700267
0.9617038 0.9467136 0.97109723 0.98198426 0.9417953 0.9730743 0.9452107 0.9974976
00000000: 7b80 783f 9b22 6b3f f8d5 823f 78df 6b3f
00000010: ddca 723f 4cae 7b3f e108 7c3f 04ab 8c3f
00000020: 88db 783f 8127 6f3f 301d 813f 283a 843f
00000030: ffe8 5e3f 5e07 6f3f 6561 893f 4e8f 723f
00000040: 760c 693f d931 6b3f 03b5 893f 3e28 6f3f
00000050: ff46 783f 8cfb 803f 7ee7 683f 21bf 713f
00000060: 5887 663f 8b34 733f 2619 7a3f 31d4 6e3f
00000070: 94d8 7a3f f50c 7b3f 1168 763f 3fcd 6e3f
00000080: ba06 a23f 6bfd 753f 21ba 723f 619a 723f
00000090: f574 793f bd78 663f 008b 703f 31bc 6e3f
000000a0: f03c 6c3f 5dc0 663f 4865 673f f6f9 803f
000000b0: 6ed8 7a3f f921 723f bde6 723f 1824 8a3f
000000c0: 46b9 823f c32b 6b3f ca9d 6d3f bbb2 873f
000000d0: ddcf 783f 6a50 8a3f 12d8 793f ab53 783f
000000e0: 3832 763f d35b 723f d499 783f 5263 7b3f
000000f0: 7f19 713f 661b 793f 54f9 713f 015c 7f3f

residual_layers.0.layer_norm.bias f4 [64]
-0.035427123 0.010689805 0.0017750363 0.018273931 -0.00931481 3.766187e-05 0.015808834 -0.004001861
-0.013952567 0.026499003 -0.0080192005 0.0025289215 0.016833419 -0.005437207 0.0068924553 0.01199621
0.014042019 -0.004512486 0.000115556875 -0.025069084 -0.056332856 -0.06716488 0.021323578 -0.020583434
-0.03076742 -9.076e-06 -0.0039851856 0.009192118 -0.0022753668 -0.01096898 -0.007247343 0.00052209786
-0.042591397 0.032069452 0.022662073 -0.0048217163 -0.011240138 0.03449318 -0.006416749 0.0042101247
0.011755147 0.0069677276 -5.1537005e-05 0.011165411 -0.029373439 0.005022655 -0.006573784 -0.022644993
0.03760611 -0.0034732516 -0.020695142 0.010483975 0.0076520573 -0.005232847 -0.03363625 0.025267344
0.016681455 -0.007073228 0.00021008961 -0.010501357 -0.021608341 -0.0025635941 0.014149394 0.0046889214
00000000: 081c 11bd 4b24 2f3c 56a8 e83a 36b3 953c
00000010: 259d 18bc 20f7 1d38 8781 813c 0b22 83bb
00000020: 4f99 64bc 7014 d93c f762 03bc 43bc 253b
00000030: 3de6 893c 992a b2bb 1bda e13b c08b 443c
00000040: 7f10 663c 7add 93bb 2057 f238 ae5d cdbc
00000050: 48bd 66bd be8d 89bd c9ae ae3c 979e a8bc
00000060: f50b fcbc 2045 18b7 2996 82bb 8a9a 163c
00000070: 521e 15bb 3db7 33bc 1f7b edbb 65dd 083a
00000080: 5174 2ebd 425b 033d d0a5 b93c 7dff 9dbb
00000090: 8e28 38bc b948 0d3d 9843 d2bb 16f5 893b
000000a0: a998 403c 8951 e43b 7029 58b8 21ef 363c
000000b0: 91a0 f0bc 1595 a43b e668 d7bb fe81 b9bc
000000c0: dd08 1a3d 7e9f 63bb dc88 a9bc fac4 2b3c
000000d0: 1cbe fa3b 4d78 abbb 2ac6 09bd 76fd ce3c
000000e0: 8ca7 883c 89c6 e7bb 804b 5c39 e20d 2cbc
000000f0: fa03 b1bc f901 28bb dcd2 673c 86a5 993b

residual_layers.0.time_layer.layers.0.self_attn.in_proj_weight f4 [192, 64]
-0.086245865 0.08163011 -0.08721794 -0.11590613 -0.04005051 -0.0403702 -0.04614286 -0.11557784
-0.015957879 -0.008948636 0.060666237 -0.1004019 -0.12589602 0.004261591 -0.108317964 -0.140673
-0.030347537 -0.097024575 -0.03487916 0.08257014 0.022990268 -0.12600768 0.15816095 -0.080146044
-0.13228427 -0.08188448 0.0747171 -0.06813356 -0.03758283 0.0688293 0.053240146 0.026293742
-0.07426023 -0.027297573 -0.07393043 -0.032454096 -0.14856435 0.06429127 -0.097960085 -0.05173234
-0.07196996 -0.13315913 -0.1459186 -0.17795542 -0.07691434 -0.073892035 -0.09982553 -0.007845828
0.042521413 -0.014312055 0.04353602 0.11875596 -0.09432722 -0.1164722 -0.028904773 0.11693971
-0.12033318 0.1546713 -0.029152988 0.062898934 0.11003665 0.14579572 -0.1454813 0.020200493
-0.047826223 0.10927326 0.06674431 0.081844136 0.14923894 0.069130704 -0.0073614335 0.3488284
0.04401173 0.018177481 0.023353402 -0.14013204 -0.012779239 0.100160964 -0.048275337 0.030368567
0.08570937 0.12500213 0.0037490309 0.018110773 0.086062886 -0.036431536 0.0249663 0.10510505
-0.042558514 0.13154502 -0.1639323 0.019136263 0.15004192 0.06904972 0.097274736 -0.087833755
0.031266075 0.11198086 -0.049582604 -0.0008935805 -0.14218482 0.03222798 0.0041591274 -0.08192629
0.060604654 0.054212265 0.123859905 -0.13697222 0.026525998 0.033357248 0.07312165 0.036847442
-0.008455417 -0.056608427 -0.15186939 -0.11006546 0.035965007 -0.056983367 -0.07241934 0.09796506
0.11471724 -0.12173332 -0.059206 -0.018702839 -0.024497032 -0.04942874 -0.1115419 0.19380006
-0.087393686 -0.027564526 0.055421047 0.0021834932 0.05624823 -0.0372269 -0.013918446 0.08851576
-0.1023036 0.1405574 -0.13387084 -0.003404885 0.06640951 0.049340535 -0.031389493 0.076157525
0.10549762 0.05363792 0.049996004 0.014495912 -0.019657452 -0.039807618 -0.0060130744 0.11356412
-0.09426333 0.15985772 -0.033398487 0.0066036265 -0.06732484 0.097095795 0.08062641 -0.08024802
0.20267573 -0.062574714 -0.03797879 -0.044167295 -0.023330407 0.09938195 -0.08830243 0.018400986
0.023929501 0.13179041 -0.08564852 -0.14324848 -0.029290939 -0.08175021 -0.022576278 -0.09728207
-0.014493722 0.064845026 0.122074254 0.0567217 -0.1326438 -0.011389013 0.01939974 -0.02312859
-0.1424802 -0.05028 -0.07728032 -0.06643307 -0.05344521 0.02146303 -0.04929542 -0.049096134
0.06562421 0.04556109 -0.03736147 0.099145696 0.049783204 -0.0353554 -0.12231539 0.07100838
0.101285614 -0.02450675 0.025612375 -0.02839639 -0.09172589 0.03437891 0.11213355 -0.07205023
-0.13122584 0.028181389 -0.13299 0.10788846 0.0314574 0.033362653 -0.1442055 -0.12681025
-0.043846935 0.13715485 -0.019212034 0.082187675 0.08697968 0.09418578 0.0126723815 0.03438725
0.24891606 0.07185326 0.115899734 -0.049410496 0.10245413 0.1296814 -0.0950869 0.07759196
-0.062273055 0.04247466 -0.035498567 -0.011430004 -0.029112473 -0.081992276 0.021548318 -0.1787142
0.161161 0.03478841 -0.11187944 -0.04912679 0.021123003 0.10179894 -0.09492747 -0.06359883
0.0072578946 0.07984157 -0.124021105 0.109504804 -0.029468419 -0.08885723 0.023207862 0.019334672
00000000: aca1 b0bd b02d a73d 529f b2bd 3160 edbd
00000010: 010c 24bd 395b 25bd 4c00 3dbd 13b4 ecbd
00000020: 19ba 82bc 4d9d 12bc 297d 783d 839f cdbd
00000030: e3ea 00be d1a4 8b3b cfd5 ddbd 950c 10be
00000040: 669b f8bc d2b4 c6bd 73dd 0ebd 891a a93d
00000050: 1656 bc3c 2808 01be f2f4 213e 9c23 a4bd
00000060: 8775 07be 0db3 a7bd 4705 993d 9c89 8bbd
00000070: 74f0 19bd 60f6 8c3d 5712 5a3d f965 d73c
00000080: bf15 98bd 299f dfbc d668 97bd 96ee 04bd
00000090: 4121 18be 24ab 833d 4c9f c8bd 4ae5 53bd
000000a0: fd64 93bd de5a 08be af6b 15be f239 36be
000000b0: 4485 9dbd b554 97bd 5471 ccbd ca8b 00bc
000000c0: ef2a 2e3d 1c7d 6abc d352 323d 5336 f33d
000000d0: a12e c1bd fa88 eebd b4c9 ecbc 167e ef3d
000000e0: 3e71 f6bd 2762 1e3e 3fd2 eebc 28d1 803d
000000f0: e55a e13d 794b 153e 0df9 14be 817b a53c
00000100: 6ee5 43bd a9ca df3d 3eb1 883d e69d a73d
00000110: 18d2 183e 6694 8d3d 2e38 f1bb a399 b23e
00000120: a545 343d f1e8 943c a24f bf3c c67e 0fbe
00000130: 0360 51bc 3121 cd3d 5cbc 45bd 80c7 f83c
00000140: 6588 af3d 8f00 003e 4db2 753b 0b5d 943c
00000150: bd41 b03d 3c39 15bd 2086 cc3c 5141 d73d
00000160: d651 2ebd bdb3 063e dedd 27be a7c3 9c3c
00000170: 97a4 193e f169 8d3d fa37 c73d 2fe2 b3bd
00000180: db10 003d 3956 e53d 2117 4bbd 2c3f 6aba
00000190: e698 11be 7d01 043d 4a49 883b f9c8 a7bd
000001a0: 963c 783d ae0d 5e3d 43aa fd3d 7242 0cbe
000001b0: 0d4d d93c 9ca1 083d cec0 953d 58ed 163d
000001c0: 9788 0abc 3dde 67bd a683 1bbe 006a e1bd
000001d0: 0b50 133d 6467 69bd 9750 94bd e8a1 c83d
000001e0: dff0 ea3d 524f f9bd fe81 72bd b236 99bc
000001f0: 00ae c8bc ca75 4abd 1470 e4bd 8673 463e
00000200: 76fb b2bd 00cf e1bc 2e01 633d f018 0f3b
00000210: 8b64 663d 3c7b 18bd 320a 64bc c047 b53d
00000220: 8d84 d1bd 47ee 0f3e 7015 09be 7e24 5fbb
00000230: b601 883d 4d19 4a3d 4592 00bd 7af8 9b3d
00000240: 230f d83d 70b3 5b3d 9cc8 4c3d 4380 6d3c
00000250: aa08 a1bc 500d 23bd 5309 c5bb 4e94 e83d
00000260: 220d c1bd beb1 233e dacc 08bd 3c63 d83b
00000270: 9be1 89bd 29da c63d 761f a53d 1359 a4bd
00000280: 3a8a 4f3e 2c27 80bd a68f 1bbd c4e8 34bd
00000290: 691f bfbc c488 cb3d e8d7 b4bd aabd 963c
000002a0: cd07 c43c 11f4 063e 7e68 afbd bbaf 12be
000002b0: 8df3 efbc a76c a7bd e3f1 b8bc d23b c7bd
000002c0: 1377 6dbc 78cd 843d 1102 fa3d 0355 683d
000002d0: c7d3 07be fc98 3abc 34ec 9e3c 2b78 bdbc
000002e0: 54e6 11be 67f2 4dbd 2545 9ebd 100e 88bd
000002f0: 5de9 5abd 3cd3 af3c ffe9 49bd 0719 49bd
00000300: fc65 863d 449e 3a3d 5708 19bd e60c cb3d
00000310: 79e9 4b3d d3d0 10bd 7e80 fabd d76c 913d
00000320: d56e cf3d 61c2 c8bc 0bd1 d13c 8c9f e8bc
00000330: c9da bbbd e6d0 0c3d 46a6 e53d 128f 93bd
00000340: 1160 06be a8dc e63c 882e 08be a0f4 dc3d
00000350: 7ad9 003d 47a7 083d 9baa 13be 8cda 01be
00000360: d898 33bd 5272 0c3e 8e62 9dbc 0352 a83d
00000370: 6722 b23d 79e4 c03d d29f 4f3c a5d9 0c3d
00000380: dae3 7e3e cd27 933d d75c ed3d a962 4abd
00000390: 79d3 d13d 33cb 043e ecbc c2bd 89e8 9e3d
000003a0: 0812 7fbd e9f9 2d3d f266 11bd e944 3bbc
000003b0: 487d eebc 91eb a7bd 1986 b03c db00 37be
000003c0: 6407 253e 4b7e 0e3d 0c21 e5bd 2c39 49bd
000003d0: 260a ad3c f67b d03d 5569 c2bd 1a40 82bd
000003e0: a2d3 ed3b fa83 a33d c7fe fdbd 0e44 e03d
000003f0: c167 f1bc c8fa b5bd 6a1e be3c bf63 9e3c
