results/DDPM/LRATE/0.0001/model_final.pth (torch, 661767 bytes, 26 tensors)

layer_x.weight f4 [128, 53]
00000000: b9cd 7d3c 223b c33d d988 963c 3c3d f9bd
00000010: 979d f4bd c83d 9d3d 3428 8dbd 3851 353d
00000020: 5436 a73d 2b24 0c3e c27b df3d f02b bf3d
00000030: 9aa7 af3d 2611 853d 7432 8bbd 0c35 b9bd
00000040: 240e 29bd 694e edbd 7bb3 d1bd 4934 80bd
00000050: f77f e93d 1f48 b53b ed7e 943d 3581 833d
00000060: 0fa5 d03d 7e8a 90bd 51cf 563d aa12 e9bd
00000070: cef9 94bd b7a7 d83d e947 e5bd 63ba 8c3d
00000080: 47e6 ecbc da78 393c 7563 d4bd c040 cd3d
00000090: 8b26 07be 69b8 243c baca b8bd 5fa1 0a3e
000000a0: 17a8 0fbd 2235 c9bc 5a9f c9bd 4e65 aebd
000000b0: 0eee b4bc f86e c43c d007 98bd 2606 e13d
000000c0: 3310 a9bd 9553 683c 0843 153d b372 d5bd
000000d0: 2b40 d5bd 870a 49bd 5da8 ebbc d1fa 253d
000000e0: f048 9fbd 7757 a63d 78fe a6bd bd58 62bd
000000f0: 8070 21bd f660 fcbc 3d96 e3bd 435c e93d
00000100: cea5 a2bc 8b22 ad3d ee7d e13c ad8d 103d
00000110: 7347 563d 3ceb 82bd 8484 cfbc ced6 f8bd
00000120: 0fb1 0f3d 8bc1 2bbc 674e a4bd a073 ea3d
00000130: a78d 3dbd 1cba 313c c478 40bd 6d82 3fbc
00000140: 932e c73d 5ef8 c33d c4d2 9fbd c4ef ac3c
00000150: a06a d6bd a085 073e 758e 1c3d feb4 28bd
00000160: 3976 a8bd 9962 b5bc b897 323d 4a9f bebc
00000170: 05c7 1b3d 66b0 2a3d a734 1ebd cdcd a4bd
00000180: e5b4 f1bc dd9d fcbc 8610 ae3d 6c92 003d
00000190: f376 d63d d053 303e 47be dabd 73cd f43d
000001a0: 6cec dbbd 48e1 ec3d 8647 7b3d e4ee debd
000001b0: da9b c6bc b6b7 cf3d 2967 38bd 2f14 95bd
000001c0: 0e86 913b 48ed 453d 9952 c03c d3d0 833d
000001d0: 018b cbbd aef7 e7bc 700b ff3d 1093 ee3d
000001e0: dbe6 ed3d ca17 1fbe 0e52 b73c f983 9d3c
000001f0: ab32 463d d018 993d 418f 563d 894d 0ebe
00000200: eacb a53d acbf b83d 085e 653d 4c79 1ebd
00000210: 7425 08be abea cbbd 9401 1fbd 2d3f aa3d
00000220: 1e8f 0abe 959d 6ebd 6ece 58bd e7eb 0a3d
00000230: 2c92 25bc 8d79 49bd b79d 8ebb 4f32 33bd
00000240: fa9c c23d 8125 a1bc 42e8 d73d 19d6 11bc
00000250: 52b0 95bd 2563 9cbb e713 893c 1758 fc3c
00000260: 57a0 9ebd a169 913d 368b a23d 4ee0 91bd
00000270: cd84 be3d 2fa9 913c 0946 c6bd 1660 173e
00000280: 9cab aabc 9ca5 9d3d 4426 443d eaf4 df3c
00000290: d742 a93d d67d 2abd 003d cfbd d01c 42bd
000002a0: 9e50 df3b 72db 2d3e c2a6 0a3e 061b bbbb
000002b0: 16a6 2cbc 440e 483d e35c 573a 726a 883d
000002c0: 0e1f 093e 4c41 bf3c 93a3 c8bd 7e16 cfbd
000002d0: b388 d0bd 6c4d 2cbd ae4d 9b3c 2ef6 4a3c
000002e0: ddd5 85bd e0da 4abd 31f6 963d 1fdc 8f3d
000002f0: a082 10be 7325 1c3c 019e 30bd d2d7 bd3c
00000300: 6b9d dc3d 307d ef3c b8fe dabd 413b c2bd
00000310: 98ba 02be 7b40 f83d ae2f 703d 8f69 d4bd
00000320: 9842 4d3c ba71 babd 8fcd d3bd 7f57 fb3d
00000330: c259 0c3c 9d16 b7bd 7638 28bd c231 d43d
00000340: d5ee ffbd eb73 6bbc 246c 90bd 97ae 1abd
00000350: acc9 923d 16d6 9ebd c212 e1bc f51a cbbd
00000360: a59d 12bd 8eb5 34bd 6e01 b3bd 0232 0f3d
00000370: ddf0 763d 22e7 8cbd 8a63 cf3d 761f c53a
00000380: 1d21 18bd 705a a33d 0185 df3c b079 c23d
00000390: b896 2bbd 339c 973d 2c3f 8abc 40e3 4dbd
000003a0: 56e9 f03d a333 aa3d fc66 d33d a000 9a3d
000003b0: b63d ffbc 9481 6b3d 2a9b 9cbd 9876 db3d
000003c0: 3fde f63a e270 0abd 5a2a f4bd 33ef 973c
000003d0: 0e8e 55bd f0f5 e5bd 62b2 ffbd d39f c23d
000003e0: b245 c73d cae6 bc3d 6c87 babc be39 983d
000003f0: 33ce e13d 5e14 4a3d de00 6f3d dd76 abbd
0.015490943 0.09532763 0.0183758 -0.12169883 -0.119441204 0.076777995 -0.06892434 0.04426691
0.08164659 0.13685672 0.10912277 0.09334552 0.08576889 0.064974114 -0.067967325 -0.09043321
-0.04127325 -0.11587221 -0.10239311 -0.062599726 0.114013605 0.005532279 0.07250772 0.06421129
0.101877324 -0.07057665 0.052443806 -0.11380513 -0.07274209 0.10578864 -0.111953564 0.06871488
-0.028918399 0.011320317 -0.103705324 0.10022116 -0.13198297 0.010053732 -0.09023042 0.1353812
-0.035072412 -0.024561469 -0.09844847 -0.08515416 -0.02208617 0.023978695 -0.07423365 0.10987501
-0.08255043 0.014180084 0.03644088 -0.10422268 -0.1041263 -0.049082305 -0.028766805 0.0405224
-0.077775836 0.08122151 -0.08154005 -0.05526041 -0.03941393 -0.030807953 -0.1111264 0.11394551
-0.019854452 0.08453854 0.027525868 0.035291363 0.052314233 -0.06392524 -0.025331743 -0.12150346
0.035080966 -0.010483156 -0.080227666 0.11447835 -0.04627767 0.010847595 -0.04699017 -0.011688811
0.0972568 0.09568857 -0.07803872 0.021110423 -0.10469556 0.13234568 0.038221795 -0.041188233
-0.08225674 -0.022141742 0.04360172 -0.023269314 0.038031597 0.041672133 -0.038624432 -0.08047066
-0.029505203 -0.030836994 0.08499245 0.03138964 0.104719065 0.17219472 -0.10680824 0.11953249
-0.10738453 0.115664065 0.061347507 -0.108854085 -0.024244238 0.10142462 -0.045020256 -0.0727924
0.0044410294 0.048321992 0.023476886 0.064363144 -0.09938622 -0.028316345 0.124533534 0.11649144
0.11616298 -0.15536419 0.022377994 0.019227969 0.048388164 0.07475436 0.05238271 -0.13896765
0.08095534 0.090209335 0.05599788 -0.038689896 -0.13295537 -0.09956869 -0.038819864 0.08312831
-0.13531157 -0.05825575 -0.05293124 0.03391638 -0.010105651 -0.049188185 -0.004352297 -0.04374915
0.09502597 -0.019671204 0.105423465 -0.0089011425 -0.07309021 -0.004772561 0.016733123 0.030803723
-0.07745426 0.07100225 0.07936709 -0.07122861 0.093026735 0.017780868 -0.09681327 0.14782748
-0.020833783 0.07697603 0.047888055 0.027338464 0.08264702 -0.041623913 -0.10119057 -0.04739076
0.0068150302 0.16978243 0.13540176 -0.0057100086 -0.010537645 0.04884173 0.00082154403 0.06660928
0.13390753 0.023346566 -0.09796824 -0.10111712 -0.10182323 -0.042066023 0.018957939 0.012387795
-0.06534932 -0.04952514 0.07371176 0.07024407 -0.1411233 0.009530413 -0.043119434 0.0231742
0.107722126 0.029234499 -0.10693115 -0.09483958 -0.12766492 0.12121674 0.05863922 -0.10371696
0.012528084 -0.09103723 -0.103419416 0.12272548 0.008566322 -0.0893986 -0.04106947 0.10361053
-0.124967255 -0.014370899 -0.07051876 -0.037764158 0.07167372 -0.077556774 -0.027474765 -0.09917251
-0.035794873 -0.044118457 -0.08740507 0.0349598 0.0602883 -0.068800226 0.101264074 0.0015039283
-0.037140954 0.07976234 0.0272851 0.09495866 -0.041891783 0.074028395 -0.016875826 -0.05026555
0.11763255 0.0831063 0.10322377 0.075196505 -0.031157356 0.057496622 -0.07646783 0.10715979
0.0018834545 -0.03379906 -0.119221404 0.018546676 -0.052137427 -0.112285495 -0.12485196 0.0950314
0.0973009 0.09223707 -0.022769652 0.074328884 0.110256575 0.04933583 0.058350436 -0.08372281

layer_x.bias f4 [128]
00000000: 8283 00be bb70 7c3d 2568 b83d d21e 813d
00000010: eba2 c13d 2047 733d f854 99bd 4962 bcbd
00000020: 793a 6b3d af2b 1a3e e5b4 c5bd 1c10 d9bc
00000030: 0798 9a3c 61be a43b 77b9 91bd 3631 133e
00000040: eeb2 a9bd ee9e 093e 00d0 863c ab32 a7bd
00000050: ed16 febc 64e6 dbbd d4ae 033e 48e2 e13d
00000060: 4fc7 ac3d 84eb 0d3e 0772 e23d b0c6 9a3c
00000070: 2754 a03d 6f12 9dbd ad01 513c 3e4d 963b
00000080: cd4d 27bc 529c 1dbd fa24 1d3e 0645 d1bd
00000090: 94a1 adbd d118 02bd 3770 c53d 0247 ad3d
000000a0: f82c 533d c1f0 65bc a5af 80bd 633e 5dbd
000000b0: 6e3a 253e 2060 99bd a6bc 733d d59c 073e
000000c0: 449c c83d 0359 cd3d 29ad 993d 300e edbc
000000d0: e58d 9d3d 0fdc a6ba 6f55 fa3c 81e9 49bd
000000e0: 68b2 a13b 1f89 d43d 86f3 f43d 38ed c83c
000000f0: 97f0 b1bd 5361 e13d 00a9 d7bd 2107 dabc
00000100: ed13 c73d b3bc 203e 6e8f 123e feb8 e1bd
00000110: e8c6 a13c c08c 0c3d 76d4 dd3d d2b4 a13c
00000120: 5e95 abbc 24e4 8d3d 456f 6bbd 1d02 c13d
00000130: 7191 a73d 2b37 0e3e a61c 50bd 7f1e 7a3d
00000140: 5140 31bd 3937 653c a9eb c6bd 11cd 263e
00000150: 0cd6 b2bd a22a d63d 32e2 a93d da2d fa3d
00000160: acdb e03c 698a 063e b7c2 f83d aa80 243d
00000170: db58 f73d 81ac 033e 7657 013e 5c5e 47bd
00000180: ccbe a9bd 8892 a43c e47b bf3b 7782 613c
00000190: 6ee7 b53d 2852 383e 0ad0 183e 89a4 993d
000001a0: b1cc 183e f5cd cbbc 6fcb 89bc 53bb bebd
000001b0: e52d f33d 96df 8e3c 4bc1 d43d 2d2b eb3d
000001c0: 058d 5bbc a9d0 dcbd 10cb a2bd 8add 533d
000001d0: 360f 153e a4f3 eabb 9239 bb3d 9214 083e
000001e0: 2ade 87bd 4cc1 2abd ad00 173e 1cb3 963d
000001f0: 8c24 f93d 4d38 da3d 7a42 ce3d f5a2 dc3d
-0.12550166 0.061630946 0.09004239 0.06304707 0.09454902 0.059394002 -0.0748691 -0.09198434
0.05742881 0.15055726 -0.096536435 -0.02649694 0.01887132 0.0050275777 -0.07115453 0.14374241
-0.08286081 0.13439533 0.016456604 -0.08163961 -0.031016791 -0.10737303 0.1285966 0.11029488
0.084364526 0.13859373 0.11056905 0.01889357 0.07828551 -0.076695316 0.012756747 0.0045868447
-0.01021142 -0.038479157 0.15346137 -0.10218243 -0.08478084 -0.031761948 0.09640544 0.08460809
0.051556557 -0.014034451 -0.062835015 -0.054014575 0.1613557 -0.074890375 0.05950608 0.1324342
0.0979543 0.10026743 0.07503731 -0.02893743 0.0769308 -0.0012730377 0.030558316 -0.049294952
0.0049345978 0.10377716 0.11960511 0.024527177 -0.08688467 0.11004891 -0.10530281 -0.026614727
0.097205974 0.15696983 0.14312527 -0.110216126 0.019748166 0.034313917 0.10831539 0.019739542
-0.020945247 0.0692828 -0.05747916 0.09424231 0.081820376 0.13888232 -0.05080857 0.06106424
-0.043274228 0.013990217 -0.09712917 0.16289164 -0.087322325 0.1045735 0.082950965 0.12215777
0.027448498 0.13138737 0.12146514 0.040161766 0.12077495 0.12858774 0.1263102 -0.048673972
-0.08288345 0.020089403 0.0058436263 0.013764015 0.08882032 0.1800009 0.1492311 0.07502086
0.14921834 -0.024878481 -0.016820638 -0.09313073 0.11873988 0.017440598 0.1038843 0.114828445
-0.013400321 -0.10781986 -0.07948887 0.051724948 0.14556584 -0.0071701575 0.0914184 0.13289097
-0.06634171 -0.04168825 0.14746352 0.07358381 0.12165174 0.1065527 0.10071273 0.10773269

layer_t_1.weight f4 [128, 128]
00000000: 16ce 843d 504e 1a3d 5a84 dd3d 8976 87bb
00000010: 50ee 8f3c df4e e9bd adc7 1ebd 9386 a33d
00000020: 9d3d 023d 8072 47bd a958 3dbc e276 e8bc
00000030: 6afa 94bd e062 3f3d 916e 843c c7fc af3c
00000040: 4023 35bd 03cd a63d 22cf 873d 4cf8 d0bd
00000050: 8111 5e3c f3f5 7f3d d815 cbbd 446f a9bb
00000060: 9995 2c3d 10fe a03d f334 9d3d 1467 72bd
00000070: c95b 8e3d 872d b33d d422 44bd b549 be3b
00000080: c2ac dc3d d7af 00bd 48d9 7bbc caf1 18bd
00000090: 71be 643a b73e 503d 4d04 e23d eab4 c0bd
000000a0: 4292 e7bc 3493 503c f400 78bd da91 7b3d
000000b0: dc0e 9bbd 7e74 03bd ae90 8f3c 40bd d9bc
000000c0: f5ed 94bd 2745 12bd e1dd 823d 085d 04bc
000000d0: fe69 9f3d b1c4 85bd 9af5 f0bd 1535 443d
000000e0: 5bdb 07be e2a7 4a3e 5ceb 1d3c 8fec b2bd
000000f0: 5d8c b1bc 2059 d9bc 76cf 583c f8cf ecbc
00000100: c090 4dbd ea79 9ebd c9fe 953c d676 6b3c
00000110: bfa9 a7bd 612d 7b3d c2f8 a23d 7439 4f3d
00000120: dd73 7b3d 41ab 833d 7afd 60bd 1aff 3a3d
00000130: ca40 c93d 557d 2cbd d9f0 bdbd 9d8a 963d
00000140: 00e9 ba3d 82b3 ac3d 8df5 7cbd ab74 9c3b
00000150: 769f 96bb 0526 943b be2b 083d dc3f 03bd
00000160: 36a2 fdbc 1f01 dabb 2459 653d edfe a9bc
00000170: b85a 5e3c e73d 9fbc 2b96 a63c ab59 cabd
00000180: b7f5 3fbc 3ae3 0e3d d5cc 0e3d 0530 a43c
00000190: f5e9 5fbd aa28 7dbc 8f33 b9bd 56fb 2b3d
000001a0: 9658 b3bd 21a4 ffbd ba9b a4bc c462 043d
000001b0: 9f30 36bd 7638 54bd 7233 0bbc 7788 fc3b
000001c0: d777 08bd 6b3f 01bd b4dc a23d ea7f a7bc
000001d0: 58fa 9cbd b3ca ac3d 004d 9abd 662a d4bd
000001e0: 2580 96bd 436f 0b3d 1785 043a d81d d73c
000001f0: ade3 f1bd e614 96bd f05d 39bd 7b1d fabc
00000200: bbe2 493d a64e 40bd a0d5 48bd 6a97 98bd
00000210: 3132 41bd bf2a 463d 5bbb 01bd 759d 8bbd
00000220: 9a93 983d ddab 21bd 623e 9f3d f722 413d
00000230: 7820 21bd 601f 973d fe65 00bd cbc6 cc3d
00000240: dc9f 023b 05ab 93bb 596a 6fbd 38fd a33d
00000250: cabe b03d 06b6 ad3c e1dd c2bd 6ed3 5c3d
00000260: fca8 023d 329b 573d ed07 8dbc 260e 603d
00000270: d4b1 0b3d 966d c9bd 0f2d 57bd 24e1 46bd
00000280: 5ab7 b3bc a604 a33d 1571 bfbb a755 123d
00000290: e8a8 073d b0ae 5dbd 4a28 3b3c 717c b1bd
000002a0: 7e25 dfbd 223d 8ebc c241 463c b81f 1fbd
000002b0: 53a5 043d 274e febc bb39 473c 3f43 afbd
000002c0: 5db1 513d c1b8 98bd 76fd e7bc f62f 5b3d
000002d0: 373b a7bd b1d0 5f3d 47f4 edbc daf9 99bd
000002e0: 42ae 243c 8750 3bbe 6d26 69bd 2e92 313d
000002f0: 6573 79bd 5d54 95bc 4b53 31bd aaa2 ff3c
00000300: 72ce 9c3c 4b63 33bd fc1f 333d 2999 da3b
00000310: 2445 29bd 7040 58bd 50a6 a83d e42e 6b3d
00000320: 981a 8d3c daa0 8e3d 9717 01bd f99e 62bd
00000330: 0b18 a93d 8ba4 afbd f9ea 9dbd 96b9 aabd
00000340: bedb 1c3d 2d45 70bd 483b 94bc 3372 c13d
00000350: a9ec 89bd 0bde c2bd 3f77 2f3d b081 cdbc
00000360: 8302 273d 0c9d 36bc a9dd 7ebd 8c46 233c
00000370: 8cf5 12bd e1ec 9f3c c53b 0abd 22c6 8dbd
00000380: bd3e 17bd 770e 0a3d 207e 6ebc 3ef1 6fbb
00000390: d5cc a6bd a423 8b3d 0fb7 30bd 0091 ecbc
000003a0: 8d50 e4bc 79b5 fc3b 99c3 213d 4300 aabd
000003b0: d474 f9bd bdf0 02be b638 2dbd 1f0d 9a3d
000003c0: bd9a 2fbd 0c7b f13d 6276 883d 6230 713c
000003d0: eadd b53d 2e55 14bc 581c 05be 7bed b33d
000003e0: 5ee5 323e bb79 41bd 37cd 913d 4d5b 793c
000003f0: 153b 01ba 1413 18bd 33c5 543d a3cd 76bd
0.0648462 0.03767234 0.1081626 -0.0041340035 0.017569691 -0.113919966 -0.038764644 0.07984652
0.03179704 -0.04869318 -0.011556783 -0.028377 -0.07274325 0.046725154 0.016166003 0.021482838
-0.04422307 0.08144572 0.06631304 -0.10203609 0.013553978 0.062490415 -0.09916276 -0.0051707346
0.042134855 0.078609586 0.07676115 -0.059180334 0.069511004 0.08748918 -0.047884777 0.0058071264
0.107751384 -0.031417694 -0.015371628 -0.037339963 0.0008725888 0.05084106 0.110359766 -0.094095066
-0.028267983 0.012730408 -0.060547784 0.06141839 -0.075711936 -0.032093517 0.017525043 -0.0265795
-0.07271949 -0.03571048 0.06389976 -0.008078821 0.07783888 -0.065316565 -0.11765595 0.047902185
-0.13267271 0.19790605 0.009638634 -0.08736526 -0.021673376 -0.026531756 0.013233056 -0.028907761
-0.050186872 -0.07738097 0.018309968 0.014371594 -0.081866734 0.061322574 0.07957603 0.0505919
0.061389793 0.064291485 -0.054929234 0.04565344 0.09826811 -0.042111713 -0.09274454 0.07350657
0.091264725 0.08432676 -0.061757613 0.00477465 -0.004596646 0.004521134 0.03324484 -0.032043323
-0.030961137 -0.0066529657 0.055993214 -0.02075144 0.013571434 -0.019438697 0.020335278 -0.09880384
-0.011716298 0.03488467 0.03486331 0.020042429 -0.05466648 -0.01545159 -0.09043037 0.04198774
-0.08757131 -0.12482477 -0.020093787 0.032320753 -0.044479962 -0.051811658 -0.008496152 0.0077066976
-0.033317413 -0.03155462 0.07952252 -0.020446736 -0.07664937 0.08437099 -0.07534218 -0.10359649
-0.073486604 0.034041654 0.00050552323 0.026259348 -0.11811004 -0.07328205 -0.0452556 -0.030531636
0.049288493 -0.046950005 -0.049031854 -0.07450755 -0.047167007 0.04838061 -0.031672817 -0.06817142
0.07450028 -0.039470542 0.077755705 0.047152486 -0.039337605 0.07379031 -0.031347267 0.09998854
0.001993171 -0.004506471 -0.05845103 0.08007282 0.0863014 0.02120496 -0.09514976 0.053912573
0.031899437 0.05263824 -0.017215693 0.054700993 0.034105137 -0.09835355 -0.052533206 -0.048554555
-0.021938015 0.07959871 -0.005842338 0.035726216 0.033120066 -0.054121673 0.01142318 -0.086663134
-0.10895823 -0.017363135 0.012100639 -0.03884861 0.032384228 -0.031043125 0.01215976 -0.08557748
0.051194537 -0.07457114 -0.028319102 0.053512536 -0.08165591 0.054642383 -0.029047145 -0.075183585
0.010051312 -0.18292437 -0.05692141 0.0433523 -0.060901064 -0.018228704 -0.043292325 0.031205494
0.01914141 -0.043795865 0.043731675 0.00667109 -0.041325703 -0.052795827 0.082348466 0.057417765
0.017224595 0.06964274 -0.031516638 -0.05532739 0.08256539 -0.08576306 -0.07710833 -0.08336179
0.0382955 -0.05865972 -0.018094674 0.0944561 -0.067345925 -0.095150076 0.04283833 -0.025086254
0.04077388 -0.011145841 -0.06222311 0.00996555 -0.035878703 0.019522132 -0.033748407 -0.069225565
-0.036925066 0.0337052 -0.014556438 -0.0036612297 -0.08144537 0.06793907 -0.04314333 -0.028877735
-0.02787044 0.007712063 0.039493177 -0.08300831 -0.12180486 -0.12787147 -0.042290412 0.07522034
-0.04287218 0.117910475 0.06663205 0.014721008 0.088802174 -0.009053512 -0.12999094 0.0878553
0.17470309 -0.04723523 0.0711922 0.015219522 -0.00049297634 -0.03712757 0.051945876 -0.060254704

layer_t_1.bias f4 [128]
00000000: 3431 40bc e758 15bd 9051 40bd 454c 963d
00000010: 72fd cd3d d121 86bc 2e72 22bd 893b be3c
00000020: 1aea b5bc 9821 14bc 3010 263d b31c b83b
00000030: 3dd2 9bbd feaa a63d 1d63 153d 9481 a93d
00000040: dcc3 af3d 57ee 213c ca2c 1f3a 2f02 37bd
00000050: baaa b6bb eaf1 cf3c 58d0 3d3d 06a9 cbbc
00000060: 2999 2dbd 0413 d9bc 4790 ea3c fa42 e23d
00000070: 1f01 dc3d 66af c03d d170 d3bb 434f 923d
00000080: 858c eaba 5a12 b2bc 7118 213d a2f7 473d
00000090: 3543 b43d cc1e 04bd 43cc 693d 1525 6bbd
000000a0: 5a82 cb3d 5868 613d d2a4 383d e7bc c5bc
000000b0: aa24 b13d b995 893c 5fcf 4ebc d6a6 343d
000000c0: 4278 88bd 0115 8f3d f335 8dbd 424d 763d
000000d0: dd51 833c ac72 40bd 807a 733d cbba 563c
000000e0: ed85 5bbd 866a e8bd 5cb0 8abc b612 1f3d
000000f0: f4a3 023d fdf2 953c f1e7 8c3d 649f ef3d
00000100: 2473 833b 6fb7 b33d c5b5 273d 6b03 b8bd
00000110: 13ed 9ebd 6cd6 1f3d 2283 ae3c b0ff 35bd
00000120: a0d7 b4bc 6530 2ebd 1214 f1bc 4d27 61bb
00000130: d215 f43d 7b6e 1f3c 9fe0 8dbc 602d dd3c
00000140: 745d 1b3d 24ad 7dbc 8f75 0fbd 6731 ea3d
00000150: 9bcb aabd 9a81 58bd f1e0 b53d fbd3 ed3d
00000160: 427f 80bd e7ec f6bc a37a 263d f5e8 a53a
00000170: 08f1 903d 9259 503d b3b8 b93d 59ef 69bd
00000180: 1c14 22bd d8d6 cf3c 4bd6 48bd eb1e b93d
00000190: 7302 8dbb ee32 17bd 5e0d a73c 356d ca3d
000001a0: 64ba 913c 297c 6fbd 6c3f 753d 36f2 e33c
000001b0: 42f6 4dbd d665 cf3d 2368 35bd 1479 dcbc
000001c0: 6504 6fbd 5076 1fbc 4ab8 d33c 77f3 b33d
000001d0: 7a6a 4cbd 1aa5 023d 8a99 d43c 55a8 723d
000001e0: b2dd 873d ec2e e0bd 8c22 2fbd 5fed 943d
000001f0: 1189 ac3d e8c2 d83c 27cd 22bc 7944 dabb
-0.011730481 -0.036461737 -0.046952784 0.07338766 0.100581065 -0.016373547 -0.03965967 0.023221748
-0.022206355 -0.0090412125 0.04054278 0.0056186556 -0.07608459 0.08138083 0.036471475 0.08276668
0.08582279 0.009883485 0.0006072043 -0.044679817 -0.0055745514 0.025383908 0.04634127 -0.02486087
-0.042382393 -0.026498325 0.02863325 0.11047931 0.10742401 0.094084546 -0.0064526577 0.07144024
-0.0017894661 -0.021737266 0.03932995 0.048820145 0.08801881 -0.032255933 0.057079565 -0.05740841
0.09936972 0.05503115 0.04507906 -0.024137927 0.08649571 0.016795026 -0.012622683 0.04410442
-0.06663562 0.06986428 -0.068950556 0.060132273 0.016030246 -0.04698436 0.059442997 0.013106058
-0.05359452 -0.11348443 -0.016929798 0.038836204 0.03189464 0.018304342 0.06880177 0.11700323
0.0040115286 0.087752216 0.040944833 -0.08985027 -0.07760062 0.039022848 0.021302763 -0.044433296
-0.022075474 -0.04252662 -0.029428516 -0.00343557 0.119182244 0.00973093 -0.017319022 0.026999176
0.03793092 -0.0154831745 -0.035024222 0.11435204 -0.08339616 -0.052857973 0.08880795 0.11612698
-0.062742725 -0.03014226 0.0406443 0.0012657928 0.07077223 0.05086667 0.09068432 -0.057113025
-0.03956996 0.025371 -0.04903249 0.090391 -0.0043032705 -0.036913805 0.020392116 0.09884111
0.017789073 -0.058468018 0.059874937 0.027825456 -0.050283678 0.101268455 -0.044288766 -0.026913203
-0.0583538 -0.009732798 0.025844712 0.087866716 -0.04990623 0.031895734 0.02595212 0.059242565
0.06634082 -0.1094645 -0.042757556 0.072718374 0.08424581 0.026460126 -0.009936607 -0.0066609946

layer_t_2.weight f4 [128, 128]
00000000: 3d90 983d 371d d7bd 1df2 523d 1c5d a2bb
00000010: a5f1 e33c 2442 66bd 745e f63c 0254 dc3d
00000020: e4a5 6b3b 4518 ffbc 0414 693c d40c 783d
00000030: 286e 743d 27eb 70bd 7ea8 00bd 646a 74bc
00000040: f7c3 babd d37f dfbd 134d f7bd 125c ca3d
00000050: 8ab5 05be 1132 e33d 41ec 87bb df79 e53c
00000060: 3cae 3cbd f3a2 513d af65 6cbd 3c37 1fbd
00000070: 6095 e33c 54ca 94bd a44d 8e3d e8cb 863c
00000080: 3951 04bd 5489 78bc 1e28 1f3d 0538 85bd
00000090: b27a 62bd 3fc8 b13d 54b0 39bd 7a2f 053c
000000a0: 612f 773d 1277 ee3c 103f 5fbb 7db5 db3c
000000b0: 9cea 2b3b da26 9e3b c53d 4e3d fffa 533d
000000c0: 5792 a13c 34f2 20bd 6552 9f3d 824f cbbc
000000d0: 2e92 373d 1b2c 193c 02ff a4bc bbf7 3d3d
000000e0: b4d9 283d 1a2a 803d fd3f 2e3d 0e55 423d
000000f0: b7f9 903d 7448 9c3d 218f de3c 066a c5bd
00000100: 1910 a6bd f1ab cdbc 238c bc3d d406 9bbd
00000110: 5e39 ddbb 1c76 babd c10c 283d 6329 fcb9
00000120: 9b94 d93c e020 d73d 7397 7bbd 81b3 973d
00000130: 0c15 dc3b 2f7c 3fbd 2c01 97bd 7422 f33c
00000140: a445 853d 75a2 ef3b e05e c9bc 457f 21bd
00000150: 9c08 d6bd 41c2 d33d 6aae 6f3d 3c59 0cbd
00000160: fb62 92bc c1cf 48bb 8ef6 a93d e1ef ce3d
00000170: 0682 efbd 1943 b8bd 0f6f b43d 1594 813d
00000180: 28ac 0ebc 7ecb b33d 420c e83c d5ae 3cbb
00000190: b707 383d 1c29 d33c 1194 2b3c 6387 51bc
000001a0: 1810 eebc cbdc 99bc 0e29 77bd fdc5 9a3c
000001b0: c64a 4ebb da62 80bd c92c 92bd 3c4a d3bd
000001c0: 3100 ab3d 0d73 a73c 73db 96bc f8de cebc
000001d0: a824 f43a 1357 0cbd d4e7 0fbd a234 8ebd
000001e0: bf74 6c3d 5b78 a83d eb63 cabd 2e90 93bd
000001f0: 9b7c e1bc 4386 71bd 00d4 a5bc 3aaa 96bd
00000200: 5a63 203c 58a9 ab3d d357 d8bc 23a1 ef3c
00000210: e6bd 993d 372a c53c f802 803a 7a99 3abd
00000220: 8685 7cbd b647 d73d 6f5d 02bd 11e2 053c
00000230: 7dca eabc ef7e 08bd 7982 65bc 3af3 483b
00000240: 51d1 d83c d3e9 483d d3ae 09bd 2397 66bd
00000250: 3df0 42bd 498b 95bd 54c2 4b3d be68 1bbd
00000260: e8c1 333d 73d8 a3bd 4d19 813d 8f61 94bd
00000270: b566 7fbd 78a1 0fbd ba12 2cbd 6161 8e3d
00000280: 1d65 b2bc 73f7 3b3d cf44 ab3d 711f 87bb
00000290: 7831 c93d e4b8 723d f710 82bd de9f 873d
000002a0: 43f4 20bd 243e 963d 615c c3ba d53a 533d
000002b0: a687 97bd a09c 36bd 3280 a0bd adc8 343d
000002c0: 7994 07bd 2ee9 f8bc 4df6 f8bc f090 853b
000002d0: 3fdf 4a3c 7ba4 9f3d a413 c5bd 9801 803d
000002e0: 1ac8 14bd 1bf4 70bd c217 9b3d 07f7 5d3d
000002f0: f0dd 283d a38a bfbd 5b4b 89ba ad89 063d
00000300: 1544 afbc e607 583d c9b6 94bd d944 b13d
00000310: afba 9e3c 00f4 413d 4734 95bd 4e2e 3abd
00000320: 28b8 0f3d e8e6 07bd 4294 b1bd 072e 96bd
00000330: 0427 20bd 9e18 79bc 7147 10bd 55e1 75bd
00000340: 46ed 283d 6b30 b73b dd34 d5bc 94f5 113c
00000350: 06e7 4f3d d62b 96bd 7d57 1ebd 2a29 ff3b
00000360: 89a4 0fbb e354 503d 76ab 923d 004b 96bd
00000370: bbbf c53c 4e12 433b cfb4 363d 6551 4e3d
00000380: e60b 8d3b 06d6 27bc c2d3 0cbd eef2 7cbd
00000390: 3ba2 793b cafd 11bd be85 893d 93b3 863d
000003a0: c109 34bd 247f c93c 76fc dfbc e959 843d
000003b0: 221e 823d 7a53 01bc 9963 e1bc 4190 4bbd
000003c0: c535 3ebd 60ca efbc 5989 26bd 61c6 14bd
000003d0: 8e31 ce3c f65d c63d b123 533d 5028 203d
000003e0: 48e9 78bd de3e d93c ab58 34bd b038 40bc
000003f0: 5320 31bc 1ced 87bd 4b50 e13c 9d35 a13d
0.07449386 -0.10503619 0.05150043 -0.004954947 0.027825186 -0.05621542 0.030074336 0.10758211
0.0035957033 -0.031139502 0.0142259635 0.06055911 0.059675366 -0.05881801 -0.031410687 -0.014917944
-0.091194086 -0.109130524 -0.120752476 0.09880842 -0.13057533 0.11093534 -0.0041480367 0.028012214
-0.0460646 0.05118079 -0.05771416 -0.038871035 0.027781188 -0.072651535 0.069484025 0.016454652
-0.032304022 -0.01516946 0.038856618 -0.065048255 -0.055292793 0.08680772 -0.045334175 0.008128995
0.06034792 0.029109512 -0.0034064688 0.026819939 0.0026232367 0.004826409 0.050351877 0.05175304
0.0197231 -0.039293483 0.077793874 -0.024818186 0.044817142 0.0093488945 -0.020141128 0.046378832
0.041223243 0.0625803 0.042541493 0.047444396 0.07078879 0.07631007 0.027167859 -0.09639363
-0.08108539 -0.025106402 0.092064165 -0.07569662 -0.0067512235 -0.09104559 0.041027788 -0.0004809602
0.026560118 0.10504317 -0.06142373 0.074072845 0.006716376 -0.04674929 -0.073732704 0.029679514
0.065074235 0.0073130676 -0.024581373 -0.039428014 -0.10450861 0.10339785 0.058515944 -0.034264788
-0.017869463 -0.003064141 0.0829898 0.10104347 -0.11694722 -0.08997173 0.08810245 0.063270725
-0.008708037 0.087790474 0.028326157 -0.0028790731 0.044929232 0.025776438 0.0104723135 -0.012788626
-0.029060408 -0.01878204 -0.060341887 0.018893236 -0.0031477674 -0.062688544 -0.07137448 -0.103168935
0.08349646 0.020440603 -0.018415188 -0.025252804 0.0018626647 -0.034262728 -0.035133198 -0.06943633
0.057728525 0.08226081 -0.09882339 -0.072052345 -0.027525237 -0.058965933 -0.020242691 -0.07356687
0.009789312 0.08381909 -0.026409065 0.02925164 0.075069234 0.024067981 0.000976651 -0.045556523
-0.061650775 0.10511725 -0.031827386 0.008171574 -0.028661007 -0.03332418 -0.014008158 0.0030662552
0.026466997 0.049051117 -0.03361399 -0.05629648 -0.04759239 -0.07301957 0.049745873 -0.037941687
0.043886095 -0.08000269 0.06303654 -0.0724517 -0.06235381 -0.035066098 -0.042010047 0.06952167
-0.02177673 0.045890283 0.083627336 -0.004123621 0.098238885 0.059258357 -0.06350892 0.06622289
-0.039295446 0.07336071 -0.001490485 0.05156978 -0.0739892 -0.044582963 -0.07836951 0.04413669
-0.03310058 -0.030384626 -0.030390883 0.004076116 0.012382328 0.07795044 -0.09622887 0.06250304
-0.036323644 -0.058826547 0.07572891 0.05419066 0.04122728 -0.09352615 -0.0010474728 0.03284614
-0.021394769 0.052741908 -0.07261426 0.0865571 0.019376127 0.047351837 -0.07285362 -0.045454316
0.035087734 -0.033179194 -0.08670856 -0.07332998 -0.03909971 -0.015203623 -0.03522438 -0.060029346
0.041241907 0.0055904887 -0.026026184 0.008908648 0.05075743 -0.0733258 -0.038657654 0.0077868896
-0.002191814 0.050862204 0.0716161 -0.07338524 0.024139276 0.002976555 0.044606026 0.050370593
0.004304397 -0.010243898 -0.034381635 -0.061755113 0.0038091082 -0.035642423 0.067149624 0.0657722
-0.043954615 0.024596758 -0.027342062 0.064624615 0.06353404 -0.0078934375 -0.027513312 -0.049698118
-0.046437997 -0.029271305 -0.04065833 -0.036322 0.025170114 0.096858904 0.05154771 0.039100945
-0.06076935 0.026519235 -0.044029873 -0.011732265 -0.010810929 -0.06637022 0.027504107 0.07871554

layer_t_2.bias f4 [128]
00000000: 6431 953d db01 9b3c 0fb8 e23d e121 893d
00000010: 75d4 a53c d7fe 033d 4d6d e13c 1db3 c3bc
00000020: b45b ec3b fc56 bc3d ce2e 98bd 55af 03bd
00000030: 11ba 3dbd e2ef 34bd 3c2f 3f3d b504 5c3d
00000040: ff79 be3d 825e 043e 3a06 2e3d a5e3 3bbd
00000050: 12b2 633c 5c74 023d e2e0 7bbd ca21 85bb
00000060: 76fa 6c3d 13fb 3a3d d8d4 823d 20f9 1abc
00000070: 1b68 94bc 027e e3bc 2eec 37bd 7d37 893d
00000080: 2f28 9c3d 2cc4 303d 451f 07bd 3569 d83c
00000090: 6ef2 57bd c5e8 503d f060 a73b 6a42 b23c
000000a0: ff64 b63d 1071 8a3d b2f1 343d 3739 82bd
000000b0: 3d76 4bbc f87d 1e3d e56e 633d b587 e73c
000000c0: b7ef a43d 5398 38bd 3909 19bd c41b 8bbd
000000d0: 240b c93b 7993 8cbd 06e2 243c fc33 91bd
000000e0: 9f8a 523d 2c90 9d3d e997 cc3d 85b6 763c
000000f0: 941e 9c3c 5979 66bc 2358 2bbd b9be 763d
00000100: 9c56 5c3d 8fce aa3d 5525 1d3c 887c 4bbd
00000110: ae2b 30bd 48de 6dbc eac1 5c3d 23dd 683d
00000120: 0e8f f8ba 35cb ddbc 29b2 cb3d 9172 b3bc
00000130: f316 f2bc 25a8 09bc 9f1e 933d fcc4 69bd
00000140: 19fa c63d 94a4 0abd 3e61 92bc 6360 adbc
00000150: 6545 25bb 03db f13c 9b2e e03c 8e9f db3d
00000160: 5d6b c33d 898c 0ebd da99 6ebd de9f a2bd
00000170: 581f 8b3c f4d8 78bd 0f8e 9a3b 520a a43d
00000180: d066 8f3d 4f47 a9bd c756 ae3c 2d75 7abd
00000190: 73a3 13bd 9c49 dfbc e0fc ae3d fa1c 6abd
000001a0: 4a6f 22bd 12e5 35bd bf45 c43d 3a53 593d
000001b0: f5e1 e4bc e542 c7ba 10a2 5fbd d22a 9e3b
000001c0: e0fa ba3c 2af0 8cbd 84cd 34bd 4a57 383d
000001d0: db7b 3e3d d3d7 16bc 4130 563d 0e28 d43c
000001e0: e299 f2bb b3eb 3cbd 0b98 023c 0224 24bd
000001f0: 0bb6 0cbc fbd9 0bbd 9360 bc3d bfaf da3c
0.07284811 0.018921783 0.11070263 0.06695915 0.020242909 0.032225456 0.027517939 -0.023889119
0.0072130803 0.091962785 -0.07430802 -0.03214963 -0.046320025 -0.044174083 0.046675906 0.053715426
0.09300613 0.12926677 0.042486407 -0.045871396 0.013897436 0.03184925 -0.06149376 -0.004062866
0.057856046 0.0456496 0.06388253 -0.00945881 -0.018116048 -0.027770046 -0.044902973 0.06700037
0.07624852 0.043155834 -0.032988805 0.026417354 -0.052721433 0.051003236 0.0051079914 0.021760184
0.08905982 0.06759846 0.04417581 -0.06358569 -0.012418327 0.038694352 0.05552568 0.028262952
0.080535345 -0.045067143 -0.03736231 -0.06792405 0.0061353613 -0.06864066 0.010063654 -0.07089993
0.05140173 0.07693514 0.09989912 0.0150581645 0.01905755 -0.0140670175 -0.0418321 0.06024048
0.053793535 0.08340179 0.00959142 -0.04967931 -0.043010406 -0.014518328 0.05389587 0.056851517
-0.0018963532 -0.027074436 0.09946091 -0.021905215 -0.029551959 -0.008401905 0.07183575 -0.057072625
0.09715671 -0.03384836 -0.017868634 -0.021164125 -0.0025218364 0.029523378 0.027365973 0.10723792
0.09541962 -0.034801994 -0.058252193 -0.079406485 0.01698272 -0.060753778 0.0047166417 0.08009781
0.07002032 -0.08265554 0.021281613 -0.061146904 -0.03604455 -0.02725678 0.08544326 -0.05715654
-0.039656915 -0.04440791 0.095836155 0.053057887 -0.027939776 -0.0015202431 -0.054597914 0.004826882
0.022824705 -0.06881745 -0.044141307 0.04500512 0.046504837 -0.00920673 0.052292112 0.025898006
-0.007403598 -0.046123218 0.00797082 -0.040073402 -0.008588324 -0.03414343 0.091981076 0.02669513

layer_out_1.weight f4 [128, 128]
00000000: 50ec 9d3b ee50 38bd 1c5f afbd 0609 52bd
00000010: d416 1e3c 2f67 17bd 0503 4cbc 56db 213d
00000020: 1896 293d 76d2 aabb 5a35 4d3d 8a2a 8f3b
00000030: d87f 7e3d eb85 c7bd a1b1 c23b ee59 0dbd
00000040: 7486 79bd 7b1b 79bc 4873 7b3d 7c8c 86bc
00000050: 38ec a6bd ac0a 23bd 28cd 913d 4bb9 dbbd
00000060: 902f 26bd 2f9f 6e3d 18de 733d a919 8fbd
00000070: 176f a4bc 1607 74bd 4e5e 753d a8ed ac3d
00000080: 9394 13bd 2e8a 21bd bea3 81bd 85b5 3cbd
00000090: e8ed c6bd b38f febc 325f c73d f10c c8bd
000000a0: f662 dabb b1d4 d6bb 75e7 5f3d 9b8b 2d3d
000000b0: 1e5a 973c 7a0d b13c 4404 ccbc 1d10 bfbd
000000c0: 3323 693d f4a6 6b3d 2025 fbba 8255 873c
000000d0: 75eb 413b 7b6a 983d ae9d b43c c932 a3bc
000000e0: 923e a4bd c609 5cbd 445f 0c3b d96b 5f3d
000000f0: c29c 7a3d d364 a63c 5a72 4ebd 91fe 6bbd
00000100: 80c3 683d 0d29 fcba a2c0 843c 8fc7 893d
00000110: 77fa 85bd c1ff 70bd 829f bcbc e175 3f3c
00000120: fcc7 3cbd 6f55 66bd 9ff1 b93c 678c 6bbd
00000130: 2f2e d8bc 84b9 023c 3d25 023d 1965 3fbd
00000140: e634 76bd 7abd 033d 15e6 07bc b1a7 52bd
00000150: 5c03 113d 8a55 753c 5b27 b5bd b0ce 663d
00000160: 37bc 323d b0f0 9ebd 6435 443c 3ad6 53bd
00000170: 97ab 9d3a fd6d e93c c933 92bd d88e aabd
00000180: 6c91 0dbd e534 9cbd d58f 14bd a13b 2d3d
00000190: 9175 2c3d 53c2 803d a1ea 513d b8b8 36bd
000001a0: 290b 903d 1ded adbd 86b5 33bd 6c21 113d
000001b0: 46d1 bbbb 8ff8 993d d03b 40bd e41b ba3d
000001c0: c75e fdbc d436 12bd ec4a 4dbd af2e 6a3d
000001d0: 37f9 ff3c fc1f 7f3d e1c3 29bd 3da0 e1ba
000001e0: 42f8 e33c 6563 483d 6956 a2bd fd79 1f3d
000001f0: 4a00 293b 7ba0 29bd d41a 713d 7dad d33d
00000200: 9024 323d 6207 2bbd 9496 f7bc 36c7 923d
00000210: 1a09 b53c 799f 613d 58b0 513b 0767 b13d
00000220: 0386 943d b773 4fbd c225 6abd c46c 8ebd
00000230: 1fe3 883d a3ce 70bc 1f18 8a3d ea7d abbd
00000240: aea4 b83c 8235 2dbd 5953 82bd 9df9 73bd
00000250: 8829 76bd a95a 4e3d 9c9d 073d 9625 93bc
00000260: c6cb bc3d 18f3 83bd 6d49 14bc 19d9 c4bc
00000270: 655f 53bd 8e7c b6bd 30d5 dcbc 9fac 153d
00000280: f31e 1f3d 269e c5bc d63b 55bd 7d61 4cbb
00000290: c6e5 52bd 3081 083d 5ba1 aa3d 3f38 593d
000002a0: fdd9 cfbc a563 a9bc 3e89 89bd 3f53 78bd
000002b0: be77 283c dbd6 95bd f3a9 673b a1ff 2cbd
000002c0: 62d0 04bd 8209 883d 699d 953d 4d73 153d
000002d0: ca10 413d 5196 803c 0df3 2fbd 0122 813d
000002e0: f713 51bd f5f8 6fbd 4ad5 80bc 928d 55bd
000002f0: 6308 333d b0df 44bc b170 db3c 2da1 fbbb
00000300: 5e0a eb3b a06c 6ebd 31af 12bd cc33 92bd
00000310: 3fc0 8cbc d8e1 61bd 3c34 0f3d d208 a1bd
00000320: d0c6 923d 6ef4 093d 3af5 10bd 7275 dc3b
00000330: ef17 9e3d 16d4 3b3d 0eb2 97bd faa7 7b3d
00000340: 1a1a 97bc f0f4 5abd e7ff 8d3c a91e 87bd
00000350: 4a21 8ebd c460 e13c a871 1ebc 78ea eeba
00000360: fdc5 10bd 79d9 833c feca 1f3d 3d47 063c
00000370: d14b a83c 8327 35bd 10a9 46bd 17de 1ebd
00000380: 4177 77bd c2d4 23bd 4743 7fbd ee7c 833c
00000390: ab21 86bc 213d 843b 0fab 9fbc e13c 9c3c
000003a0: 42d7 813d 51b1 a6bd 5263 f1bc 95b6 963d
000003b0: 7391 b63d 3424 993c 72df 883d 9cde 433c
000003c0: c546 283d a5f1 a0bd eb25 51bd abfc 403d
000003d0: e5a5 d2bc af02 4dbc 1925 c13c 8345 993c
000003e0: cdc0 cebc d7e2 813d 5619 993d 6ba9 b93c
000003f0: 687b 5dbd 9ade 1e3d c775 35bc a533 8cbd
0.0048194304 -0.044999056 -0.085630625 -0.051278137 0.009648997 -0.036963638 -0.012451892 0.039515816
0.041402906 -0.005213077 0.05009971 0.0043690847 0.06213364 -0.0974234 0.005941585 -0.03450959
-0.06091924 -0.015204306 0.061389238 -0.01642441 -0.08150524 -0.0398051 0.071192086 -0.10728701
-0.040572703 0.058257278 0.059537977 -0.06987316 -0.020072503 -0.05957707 0.05990439 0.08443767
-0.036030363 -0.03943842 -0.063300595 -0.046071548 -0.09713346 -0.03107438 0.09734954 -0.097680934
-0.006664629 -0.0065561165 0.054664094 0.042369466 0.018475588 0.021612871 -0.024904378 -0.09329245
0.056918334 0.057532266 -0.0019160844 0.016520265 0.0029589806 0.074421845 0.022047844 -0.019921677
-0.08019747 -0.05372026 0.0021419087 0.05454621 0.061184652 0.020311749 -0.050402023 -0.05761582
0.05682707 -0.0019238308 0.016205136 0.06727516 -0.06541913 -0.058837656 -0.023025278 0.011685819
-0.046089157 -0.05623382 0.022698222 -0.057506945 -0.02638921 0.007978801 0.031773794 -0.046727274
-0.06010904 0.03216312 -0.008294602 -0.051429454 0.035403594 0.014974007 -0.08845397 0.056349456
0.043636527 -0.07760751 0.01197562 -0.051717974 0.0012029287 0.02849483 -0.071387835 -0.083280265
-0.034562513 -0.07627276 -0.03626998 0.042293195 0.042104308 0.062870644 0.05124915 -0.044609755
0.07033379 -0.084924914 -0.043874286 0.035432264 -0.0057317344 0.07518112 -0.04693204 0.09087351
-0.030928982 -0.03569682 -0.05012028 0.057173427 0.031246765 0.062286362 -0.04144657 -0.0017213892
0.02782834 0.048922915 -0.07926638 0.038934696 0.0025787526 -0.04141281 0.058863476 0.10335825
0.0434919 -0.041755088 -0.030223168 0.07166903 0.022099067 0.055083726 0.0031995978 0.08662229
0.07252123 -0.050647464 -0.057164915 -0.06954339 0.06683945 -0.0146977035 0.06742882 -0.083736256
0.022539463 -0.042287357 -0.063635536 -0.05956422 -0.0600982 0.05037943 0.033109292 -0.017962258
0.09218554 -0.06442851 -0.009050709 -0.024029301 -0.051604647 -0.08910476 -0.026957124 0.036541577
0.038847875 -0.024123263 -0.052059017 -0.0031186037 -0.05148866 0.033326328 0.08331557 0.053032156
-0.0253725 -0.020677397 -0.0671563 -0.060626265 0.010282455 -0.07316371 0.00353491 -0.042235974
-0.03242529 0.066424385 0.07305414 0.036486913 0.047135152 0.015696676 -0.0429564 0.06305314
-0.05104443 -0.058587033 -0.015726704 -0.052136965 0.04370917 -0.012016222 0.026787134 -0.0076791258
0.0071728667 -0.05820906 -0.035811607 -0.07138786 -0.017181514 -0.055147022 0.034961924 -0.078630105
0.07166827 0.033680372 -0.035390116 0.0067278678 0.07719409 0.045856558 -0.07407008 0.06143949
-0.018445063 -0.053456247 0.017333938 -0.06597645 -0.06939943 0.027511962 -0.009670652 -0.0018227836
-0.035345066 0.01609491 0.039011948 0.0081956955 0.020543965 -0.044227134 -0.048501074 -0.03878602
-0.060416464 -0.039997824 -0.06232002 0.016050782 -0.016373476 0.0040356074 -0.019490747 0.019071998
0.06339885 -0.08139289 -0.029466305 0.073590435 0.08914461 0.01869402 0.06683244 0.01195493
0.041083116 -0.0785859 -0.051061552 0.047115963 -0.02571387 -0.012512847 0.02357726 0.018709904
-0.025238419 0.063420944 0.074755356 0.022663793 -0.054072767 0.03878651 -0.011075444 -0.06845788

layer_out_1.bias f4 [128]
00000000: f206 333c 71bb 9cbd e3e9 8bbd 4ed5 603d
00000010: b0fe b63c b49b 9dbd 1578 87bd cf88 1dbb
00000020: e60a 93bd 25a3 393d 9f90 a03d 96aa 6b3d
00000030: 6027 9c3d 1dd1 a3bc a72a e7bc 0ee0 ad3c
00000040: 3e98 883d 2c57 cfbc 2f62 f0ba ee85 a93d
00000050: c691 913d c50e 90bb 6bbc 853d 4c14 45bd
00000060: 1e71 813d 3131 46bd 92f1 683c 180c b23d
00000070: 3b97 90bc 0c0d 433d 01f5 8abd e5fb 7fbd
00000080: d42f 6a3d 833f 583c dd23 eb3c eb43 96bd
00000090: 5f49 8abd acb0 78bd 1c8f 953d abba 47bd
000000a0: 0652 273d 211d 27bd 8d7e 403d aa28 91bd
000000b0: 4793 b93c 2016 873d cc52 a23d 734c 813d
000000c0: 1a2a 52bd 01f0 48bd b1df 02bd a7df b5bc
000000d0: 9450 233c 31a9 3cbc 9001 633c e772 7fbd
000000e0: 93a5 533d fea3 10bd 35e2 cf3d d89d 10bd
000000f0: 1502 1ebd 9b12 7e3d 9b8c 99bd 02cc cabc
00000100: 48c7 6f3d ba7f 12bd bfa8 053d 1b9e b93d
00000110: 467f 7ebb 86b4 bdbc c951 90bd 2fce 90bd
00000120: 073a 32bd e86d 6a3c ddbc ad3c 13e8 3dbd
00000130: 6035 63ba a5dc a33d dc0e 5f3d 4d6e f0bc
00000140: 43b1 d53c 7984 edbc 6db8 543d 6d63 86bc
00000150: 8f0e 19bd a67c 9f3b fbbe 06bc 1891 8cbb
00000160: c0b9 eebc a61a 70bd 030d 7f3d b412 723d
00000170: a50d 97bd ffc6 7bbd 24fd 61bd c67f 813d
00000180: adb4 5bbc 875d 7c3d 518b 42bd f148 603c
00000190: ac07 383d 36e2 86bd 1bae 9c3d c692 71bc
000001a0: d8a4 63bd 2b0a a93b ca53 78bd db8e 22bd
000001b0: c4ac 963d 03d4 b2bc c668 3dbc 66f7 06bc
000001c0: 9b2f 36bb fb9d 75bc 5068 12bc f548 99bd
000001d0: 0143 9c3d c6af acbd 53d3 bd39 c9cf 0e3d
000001e0: 6fa9 b0bd ea5c 84bd 59e6 b53c d406 833d
000001f0: 3526 55bc d26f 3dbb 2c06 1fbd 32d5 073d
0.010926949 -0.07652939 -0.0683172 0.054890923 0.022338241 -0.07695714 -0.06614701 -0.0024037843
-0.07179813 0.045321602 0.07840084 0.05753573 0.07624698 -0.019997174 -0.02821858 0.021225002
0.06669663 -0.025310121 -0.0018339808 0.08277498 0.07107882 -0.004396292 0.065300785 -0.04811506
0.063204035 -0.048386756 0.014217751 0.08693713 -0.017650237 0.047619864 -0.06785012 -0.062496085
0.05717452 0.013198736 0.028703624 -0.07337173 -0.06752276 -0.060715362 0.073026866 -0.048762005
0.040849708 -0.040799264 0.04699569 -0.07087834 0.022653235 0.06596017 0.079259485 0.0631341
-0.051309682 -0.04905701 -0.03195161 -0.022201372 0.009967942 -0.011514948 0.013855353 -0.06236544
0.051671576 -0.035312645 0.101505674 -0.03530678 -0.038576204 0.062029462 -0.074975215 -0.024755482
0.05853966 -0.03576634 0.032631632 0.09063359 -0.0038833185 -0.02315737 -0.07046849 -0.070705764
-0.04351237 0.01430843 0.021208221 -0.0463639 -0.0008667316 0.08001069 0.05445753 -0.02934947
0.026085502 -0.028993832 0.051933695 -0.016404832 -0.0373674 0.004867154 -0.008224244 -0.0042897575
-0.029141307 -0.058619164 0.06226827 0.059099868 -0.07375649 -0.061469074 -0.055173054 0.06323199
-0.013409776 0.061612632 -0.047496144 0.013689266 0.04492919 -0.06586115 0.076503955 -0.014744466
-0.05557713 0.005158683 -0.060626782 -0.03968702 0.07357171 -0.02182961 -0.011560624 -0.008237695
-0.0027799371 -0.014991279 -0.008936003 -0.074846186 0.076299675 -0.084319636 0.00036206338 0.034866128
-0.08626067 -0.064630345 0.022204565 0.06397787 -0.013009598 -0.0028905761 -0.038824245 0.033162303

layer_out_2.weight f4 [53, 128]
00000000: 3862 043c 0ec2 5bbd 1f46 8c3d 7400 bd3d
00000010: 3a5f e33d fff0 eebc 3afb 9ebd 5dac e8bc
00000020: d952 aabd f300 c2bd 271e 4ebc 60c5 2a3d
00000030: ffaa dbbd a62a 4ebd bb72 bf3d 9849 84bd
00000040: 2c6f 6c3d cb6e c83c ca0b 15bd a811 5ebd
00000050: 429f 973d f7d0 8abd 0485 71b9 7a97 9cbd
00000060: b619 00bc f867 94bd 5fe7 483c 140b 9e3d
00000070: 2d77 3bbd 22f2 b33c c9e9 773d 7b96 76bc
00000080: e2d5 053d 7c8c 26bc 2d11 10bd 869e c43d
00000090: 9035 f1bc 413b 693d d9cc d23d 23c8 60bc
000000a0: 9282 3a3d 4e21 a23d 689e c13c 9bf4 3e3d
000000b0: e812 6dbd 4783 4c3c b085 a33c 58b1 1f3c
000000c0: 9f81 1d3c 7d55 2d3d 3f2b 413c 7c2e 5bbd
000000d0: cca6 19bc f7a4 0d3d c298 62bd 857c 933c
000000e0: 531f 2d3d 46d1 10bd af72 13bc 066c 4c3d
000000f0: b692 9bbd ae3b b6bd 8d54 8bbd edd6 0e3d
00000100: c0f8 babd b1e7 973b 2c41 1fbd f5e8 64bd
00000110: 66fa 27bb cfa6 523d 18d7 813d 02ea 513d
00000120: 3b95 e9bd 857a c2b9 5850 03bd b378 59bd
00000130: 9c81 92bd 920b 4abd f399 883b 1b06 783d
00000140: 2343 5c3d 6e65 88bd 51ee 5f3d b4ff 89bd
00000150: 2c3d 1a3d f17a 8abd 9be6 febd f51a 563d
00000160: a050 7d3d 712c 8e3d 6635 813b 9420 a03d
00000170: 4bc6 4b3d 8149 58bb a189 14ba 1e1e e2bc
00000180: 572e 81bc 78cc 4a3d ae2c c53d bef1 0bbd
00000190: e179 8e3d 3c7d 213d e395 69bd 1022 c83c
000001a0: 7cc7 0a3a 6f02 a83d 2b56 c539 26fa 233d
000001b0: 05be 5a3d c3cc 13bd 6c99 4b3d e7a9 4fbd
000001c0: cf7a b2bd a5c9 1fbd 0166 f9bc c057 a63c
000001d0: dbdd 8dbb 44c2 1bbd 9529 8fbc c661 123d
000001e0: feb5 16bd 6920 ff3b 3786 473d 8357 373d
000001f0: 3a5b 8c3d 732f 4f3c e979 c9bb df3a 6e3d
00000200: c4b7 9a3c d3cd 34b7 1b95 8cbd be18 d1bd
00000210: 5438 6dbd 23e2 bd3c 5127 093d 05cc 9dbd
00000220: 4d9f 87bd 51fb 0c3d c915 d0bb 0cc9 4dbd
00000230: 5ce4 113d 4ebd 493d 2a04 efbc a826 1b3d
00000240: 1b1e 6abc 0ecd 2cbd 4f57 3ebd b5e3 a93d
00000250: 36a9 5bbd d1b0 103d 0d15 84bd b9a6 913c
00000260: 1d2d 913d a22f d2bc ebe8 513d d83d 603d
00000270: cadb b63b 5190 fa3c a23b 58ba e9b8 afbc
00000280: 9707 5cbc 34ee d6bc 26e7 f0bc 462c 4cbb
00000290: e132 bc3d 9d90 9cbd 1849 87bd b24e 7dbc
000002a0: 9135 32bd 6b0d 86bd 6f37 b73d e15f 7ebd
000002b0: 62dc 163d 731d dabb ad69 533d 2353 83bd
000002c0: 3103 81bd 1ae0 4a3d 9b21 7cbd a7b0 1a3d
000002d0: d9ca 603d b42d 883d d201 cdba 7eb5 f73b
000002e0: 4b37 93bd e4b3 a5bd f641 a53d 6928 fa3b
000002f0: d224 0abc 49a9 69bd 7222 e83b c3b4 323d
00000300: 97e7 a8bc 8570 5abd 6b97 933c bb05 c5bd
00000310: 26e5 64bd 4afe 923d f842 0a3d 9013 8d3d
00000320: 092e 81bc b624 843d 3965 0bbc 1c8b 63bd
00000330: de9d bbba 6970 a93d a5ed d5bc 4522 3ebc
00000340: 71c3 713d 84c2 ac3d 9725 b93d 9f30 d3bc
00000350: 072f cebc 5ffb bdbc 1bae 283d 3ab4 1d3c
00000360: 4a59 ea3c 945f aebc 143f 1bbc 969e 923d
00000370: 4ba5 1ebd 91a1 873d b1b5 2c3d 5b3c d2bc
00000380: e409 bbbc 7690 5f3d 93f1 c1bd 28d5 163b
00000390: bc52 3fbc 767f b23d f26d 513d d73b 15bd
000003a0: 7f4e b23c 2811 ecbc 4134 f6ba 2f43 f13c
000003b0: 447f 71bd 77a3 ed3c b1b9 c13c 93d5 9abd
000003c0: 8b22 acbd 6167 0e3b 3bb7 62bd 9ed6 8fbd
000003d0: e7ef 5e3d 4b91 59bc 2c99 913d 23e8 183d
000003e0: ef4c 4fbd 900c f4bc ee82 fb3b a886 403d
000003f0: 4e35 713d 22f3 05bd 6a9f 713d 833e c1bd
0.008080058 -0.05365186 0.06849312 0.09228602 0.111021474 -0.02916765 -0.077627614 -0.028402502
-0.08316583 -0.09472837 -0.012580431 0.041692138 -0.10725974 -0.05033364 0.09348055 -0.064593494
0.05772321 0.024466893 -0.036388196 -0.054216057 0.07403423 -0.06778138 -0.00023033103 -0.07646079
-0.00781863 -0.07246393 0.012262194 0.07716957 -0.04576795 0.021966044 0.06052569 -0.015050526
0.032674678 -0.01016533 -0.03517263 0.096005484 -0.029444486 0.056941275 0.10292978 -0.013719591
0.045534678 0.079165086 0.023635104 0.046619993 -0.05787936 0.012482471 0.019961208 0.009746872
0.009613424 0.042317856 0.011790096 -0.053511128 -0.009378146 0.03458115 -0.055321462 0.018003711
0.0422662 -0.03535583 -0.008999511 0.049907707 -0.07596342 -0.08898102 -0.06803236 0.034872938
-0.091294765 0.004635774 -0.038880512 -0.055886228 -0.0025631427 0.051428612 0.06339854 0.051248558
-0.114054166 -0.00037093848 -0.032059044 -0.053093623 -0.07153627 -0.04932744 0.004168743 0.060552698
0.053774964 -0.06659971 0.054670636 -0.067382246 0.037655994 -0.067617305 -0.12446328 0.052271802
0.061844468 0.0694207 0.003943133 0.07818714 0.049749654 -0.0033002796 -0.000566626 -0.027602252
-0.015769167 0.049511403 0.096276626 -0.03416609 0.0695684 0.039426073 -0.05702771 0.024430305
0.0005294008 0.08203589 0.00037638968 0.040033482 0.053403873 -0.036083948 0.04970686 -0.05069914
-0.0871483 -0.039010663 -0.030444147 0.020305514 -0.0043294257 -0.038027063 -0.017475883 0.035737775
-0.036794655 0.007785846 0.04871198 0.044761192 0.068533376 0.01264559 -0.006148566 0.058161613
0.018886454 -1.0776758e-05 -0.06864377 -0.10209797 -0.057915047 0.02317912 0.03348476 -0.07704929
-0.06622181 0.03441936 -0.0063502532 -0.05024056 0.03561817 0.0492528 -0.02917679 0.037878662
-0.014289404 -0.042187743 -0.046469983 0.08295385 -0.05362817 0.035324875 -0.064493276 0.017779695
0.07088683 -0.025657479 0.05124752 0.05474648 0.0055804 0.030586394 -0.0008248632 -0.021450477
-0.013429544 -0.026236631 -0.029407095 -0.0031154319 0.09189392 -0.0764477 -0.066057384 -0.015460657
-0.043508116 -0.06545528 0.0894612 -0.062103156 0.036831267 -0.0066563427 0.051614452 -0.064123414
-0.06299437 0.049530126 -0.061555486 0.037766125 0.05488095 0.06649342 -0.0015640801 0.0075594774
-0.07188281 -0.08090952 0.08069222 0.007634212 -0.00843163 -0.05704621 0.0070841843 0.04362942
-0.020618243 -0.053329963 0.018016538 -0.096202336 -0.055882595 0.07177408 0.033755273 0.06888497
-0.015769022 0.064523146 -0.00850802 -0.055552587 -0.0014314016 0.08273394 -0.026114294 -0.01160485
0.059024278 0.084355384 0.09040373 -0.02578002 -0.025168909 -0.023191152 0.041181665 0.009625489
0.02860703 -0.02128581 -0.009475488 0.07159154 -0.038731854 0.06622613 0.042165462 -0.025663545
-0.022831865 0.054581128 -0.09469905 0.0023015235 -0.01167744 0.087157175 0.051130243 -0.03643402
0.021765945 -0.028816774 -0.0018783883 0.029450981 -0.05895926 0.02900861 0.023648115 -0.07560267
-0.08405026 0.00217291 -0.055350523 -0.07023357 0.054428007 -0.013279269 0.07109293 0.037330758
-0.05061048 -0.029791147 0.00767552 0.04700342 0.058888726 -0.032702573 0.05898992 -0.09435751

layer_out_2.bias f4 [53]
00000000: a4ee 38bb 4a34 523d c09f 18bd 95d1 c03c
00000010: 57d9 5ebd 222a b73c ec65 523c 34a9 4fbd
00000020: 07c7 81bd ff4c 3f3b 2ba0 373d d372 48bd
00000030: a32c 4a3d 143b 8a3d 05fd 7d3c eca0 263d
00000040: 90dd 09bc e915 31bd b0ab 10bc 7854 393d
00000050: 1297 d33c 30dd 22bd 2c08 9ebc 3b91 563d
00000060: f0b7 84bd 249f f93c ee32 493d 9458 413d
00000070: 54cb a0bc 17dd 5c3d d30c 89bc 53c9 12bd
00000080: 7435 58bd a342 14bc d57d 90bd 89b4 233d
00000090: 910f ddbc 2779 4f3b cce9 023c 7b16 9bb9
000000a0: 7742 21bd 67ea 543d 51a6 bbbc a85c 4bbd
000000b0: a47e 843c b8a0 533d 2dee 10bd d548 9e3c
000000c0: a3ff 923c 5ae1 01bd 67ec a13c 493d 9e3b
000000d0: a475 203d
-0.0028218413 0.051319398 -0.037261724 0.023537437 -0.05440649 0.022358958 0.012841683 -0.050698474
-0.063367896 0.002919018 0.044830482 -0.04893763 0.049358975 0.067495495 0.015502219 0.04068081
-0.008414641 -0.043233786 -0.008829996 0.04524657 0.025828872 -0.039761722 -0.019291006 0.052384596
-0.06480396 0.030471392 0.049120836 0.047203615 -0.019628204 0.053921785 -0.016729748 -0.03583653
-0.052785352 -0.009049091 -0.070552506 0.039967094 -0.026984962 0.0031657906 0.007990312 -0.00029580653
-0.039370026 0.051981356 -0.022906454 -0.04964891 0.016173668 0.051666945 -0.035383392 0.019321838
0.017944163 -0.031709053 0.019766046 0.004829083 0.03917469

residual_layers.0.layer_norm.weight f4 [128]
00000000: 1f9e 793f c6d4 823f 5db9 7d3f b57d 803f
00000010: d4ee 813f c761 823f ee14 813f 2e5e 7b3f
00000020: a1f3 7e3f f4f5 7f3f 4fcc 7a3f b761 823f
00000030: fd43 7f3f b90d 833f 1f95 7e3f b30b 823f
00000040: 6bb4 813f a177 833f 7eba 7e3f 4599 7f3f
00000050: 1c9c 803f 8659 7c3f 7fd6 833f 224c 7f3f
00000060: 4e21 813f aac5 813f 0266 823f 9b41 7d3f
00000070: aaac 813f 0171 7b3f d2ec 773f 2812 7d3f
00000080: 2c79 833f 93a1 7c3f 0a17 7f3f 591e 7b3f
00000090: 6625 803f 08bf 7a3f 36d3 813f 5588 823f
000000a0: d715 823f 76a2 7f3f 390a 7d3f d238 7f3f
000000b0: a64f 803f 1913 813f 711f 7e3f b84d 813f
000000c0: 596e 843f 1caf 7b3f c3f2 793f f8b1 7e3f
000000d0: 1abd 803f 6ce8 7e3f 4b03 823f 3f0a 803f
000000e0: 10bd 803f b634 843f 3591 803f 1d98 803f
000000f0: da5a 793f 4fae 7e3f b371 7c3f 4246 823f
00000100: c100 843f 74b7 7e3f cbb0 813f 2eb3 7c3f
00000110: 322a 803f 3f2d 7d3f ab95 813f bd43 813f
00000120: 5f72 823f 8c2f 803f 68a0 803f 6db2 823f
00000130: b816 823f cc91 803f 24fa 7d3f 3b18 7b3f
00000140: c355 7f3f d110 7c3f 7f33 803f fa6b 813f
00000150: cb19 7e3f b250 813f 48be 813f 639e 823f
00000160: 1bf2 7c3f f4c5 823f 89d1 803f 121c 773f
00000170: 1613 803f 813d 803f 2b02 823f 8f88 7e3f
00000180: 2b9a 823f 6cab 7a3f 2637 803f 4826 793f
00000190: cd79 7c3f 4c4c 843f 3a2a 803f 9963 813f
000001a0: 4083 803f a3b4 833f 4ebc 803f e59d 7d3f
000001b0: 6ed9 813f 4d72 803f b7ae 773f 07a9 7a3f
000001c0: 5c7b 7d3f f1e9 743f 45e0 7f3f eefe 833f
000001d0: 848a 813f 05d5 803f c431 813f 3b90 813f
000001e0: ee99 763f f0a8 803f a0d2 7d3f 21da 7f3f
000001f0: cc5e 803f c362 803f 9cd1 813f 17a9 823f
0.975069 1.0221183 0.99110967 1.0038363 1.015101 1.0186089 1.0084512 0.9819058
0.995905 0.9998467 0.97968 1.018607 0.99713117 1.0238563 0.9944629 1.015982
1.0133184 1.0270883 0.99503314 0.99843246 1.0047641 0.985741 1.0299834 0.99725544
1.0088289 1.0138447 1.018738 0.9892823 1.0130818 0.98219305 0.96845734 0.9885583
1.0271354 0.9868404 0.9964453 0.9809318 1.0011413 0.9794774 1.0142581 1.0197855
1.0162915 0.9985727 0.98843724 0.99696076 1.0024307 1.0083953 0.99266726 1.0101843
1.0346175 0.9831407 0.9763605 0.9949031 1.0057709 0.995734 1.0157255 1.0003127
1.0057697 1.0328586 1.0044314 1.0046421 0.97404253 0.99484724 0.9861099 1.0177691
1.031273 0.9949868 1.0132078 0.98710907 1.0012877 0.98897165 1.01238 1.0098797
1.0191153 1.001451 1.0048952 1.0210701 1.0163183 1.0044494 0.9920981 0.9808385
0.99740237 0.9846316 1.0015715 1.0111077 0.99258107 1.0102751 1.0136194 1.0204586
0.98806924 1.021666 1.0063945 0.96527207 1.0005825 1.001877 1.0156912 0.9942712
1.0203298 0.9791782 1.001683 0.9732404 0.98623353 1.0335784 1.0012887 1.010852
1.0040054 1.0289501 1.0057466 0.9906905 1.0144479 1.0034882 0.9675097 0.97914165
0.99016356 0.95669466 0.99951583 1.0312173 1.0120397 1.0065008 1.0093312 1.0122141
0.9632863 1.0051556 0.99149513 0.99942213 1.002893 1.003014 1.0142093 1.0207852
