results/DDPM/BATCH_SIZE/32/model_final.pth (torch, 661767 bytes, 26 tensors)

layer_x.weight f4 [128, 53]
0	0x3b55ce45	0.0032624167
1	0x3d6a23c3	0.05716301
2	0x3d80a350	0.062811494
3	0x3c848870	0.01617834
4	0x3e0535e2	0.13008836
5	0xbcad7ed9	-0.02117865
6	0x3d5b8f00	0.053603172
7	0xbdc0e6de	-0.094190344
8	0xbe027cb2	-0.1274288
9	0x3d9ba326	0.075994775
10	0xbc76323b	-0.015026624
11	0x3b4e3b57	0.0031468475
12	0xbc3ebff5	-0.011642446
13	0xbe125f70	-0.14294219
14	0x3caa16e4	0.020762868
15	0x3da8a98f	0.08235466
16	0xbe0054fb	-0.12532417
17	0x3cf0cea1	0.029395403
18	0x3df5cd8c	0.120020956
19	0xbe10b995	-0.14133294
20	0x3c992cfe	0.018698212
21	0x3db5a8e5	0.08870105
22	0x3d35284b	0.04422788
23	0x3cb76626	0.022387575
24	0x3cefa7d0	0.029254824
25	0x3d4a1179	0.04933307
26	0x3c873ccf	0.016508488
27	0x3d8825f7	0.06647866
28	0xbc7ee504	-0.015557531
29	0x3dc7e46a	0.097603634
30	0xbda77747	-0.08177047
31	0xbd02578f	-0.031821784
32	0xbdb4675a	-0.08808775
33	0xbe236f5f	-0.15960453
34	0xbc2c4486	-0.010514384
35	0xbd8828c3	-0.066484
36	0x3ddf6ac6	0.10909037
37	0x3e16c8d4	0.14725047
38	0xbdc14f3c	-0.09438941
39	0xbbf950be	-0.007608502
40	0x3de0b889	0.10972697
41	0x3d0b3f54	0.03399594
42	0xbd8e8372	-0.06958665
43	0xbdad1ced	-0.08452783
44	0x3d57d115	0.05268963
45	0x3cccbfe0	0.024993837
46	0xbd510520	-0.05103028
47	0x3df95cf9	0.12175936
48	0xbdcf3b4d	-0.101187326
49	0xbcb749c3	-0.02237404
50	0x3c57653b	0.013146694
51	0xbd0f8811	-0.035041872
52	0xbca4bdce	-0.020110037
53	0x3e16a838	0.14712608
54	0xbe25059b	-0.1611542
55	0xbba2397a	-0.0049506994
56	0xbe17a238	-0.14807975
57	0x3e10b762	0.14132455
58	0x3d1e2306	0.03860762
59	0xbcc0c240	-0.023530126
60	0x3dbbbbd3	0.09166684
61	0xbca056bd	-0.01957261
62	0xbc95bcc4	-0.018278487
63	0xbb449f5a	-0.0030002207
64	0x3dbb2b8f	0.091391675
65	0x3d06b0e8	0.032883555
66	0xbd66d4ac	-0.056355163
67	0x3dc9e864	0.09858778
68	0x3d88e9ea	0.066852406
69	0x3e117568	0.14204943
70	0x39c9844c	0.00038436276
71	0x3cebb742	0.028773908
72	0xbd782013	-0.060577463
73	0xbdb6f3b4	-0.089332014
74	0x3db78e28	0.08962661
75	0x3c8978c8	0.016781226
76	0xbd765150	-0.06013614
77	0xbdd8ef43	-0.105925106
78	0xbd17254d	-0.036900807
79	0x3dc0e89c	0.09419367
80	0x3d9be081	0.0761118
81	0x3bcc3944	0.0062324125
82	0x3c945320	0.018106043
83	0x3c9ffbe0	0.019529283
84	0xbcb07807	-0.021541608
85	0x3da52114	0.0806295
86	0x3e34f15c	0.17670196
87	0x3dc2c8c3	0.095109485
88	0x3d364dda	0.04450784
89	0x3d34fad9	0.04418454
90	0xbd9ea08b	-0.07745465
91	0xbd8b717b	-0.06808754
92	0xbdba6aae	-0.09102379
93	0x3d49da4b	0.049280446
94	0x3e07cde3	0.13262133
95	0xbde9c2e9	-0.11414129
96	0xbd8f02d6	-0.06982963
97	0xbd87a7ad	-0.066237785
98	0xbd4b527e	-0.049639218
99	0xbd966a35	-0.07344476
100	0x3b8d0972	0.0043041045
101	0xbe25f072	-0.16205004
102	0xbd94b2c3	-0.072606586
103	0xbd08cc48	-0.033397943
104	0xbdcadaaf	-0.09904992
105	0x3dc4738f	0.095923536
106	0xbd4cfc2e	-0.050045185
107	0xbd153a14	-0.03643234
108	0x3c15994e	0.009130789
109	0xbcdcacd2	-0.026937876
110	0x3e01d1ae	0.12677643
111	0xbda0c2f5	-0.07849685
112	0xbd0abfa8	-0.033874184
113	0xbd1c9334	-0.03822632
114	0xbd0ef021	-0.034896974
115	0x3de27fae	0.11059509
116	0xbde29f47	-0.11065536
117	0x3d09a0de	0.03360068
118	0x3d3a9221	0.045549516
119	0x3c37a17e	0.011207936
120	0x3c06c9d4	0.0082268305
121	0xbd1b2fa9	-0.03788725
122	0x3d54b106	0.051926635
123	0xbd828817	-0.06373613
124	0xbc9203ad	-0.017824018
125	0x3dcded44	0.100550205
126	0xbc79dd5e	-0.015250532
127	0x3ccde482	0.025133375
128	0x3d364e18	0.04450807
129	0xbc86afce	-0.016441252
130	0x3d90acb2	0.07064189
131	0xbe0bcd05	-0.13652427
132	0x3ba7ee6e	0.0051248586
133	0xbd043c5a	-0.03228412
134	0xbbf58359	-0.0074924645
135	0x3e009f6f	0.12560819
136	0xbd4a104c	-0.04933195
137	0xbd71681b	-0.058937173
138	0x3e0c9dad	0.13732024
139	0xbbc284df	-0.0059362496
140	0x3d523937	0.051324096
141	0x3c68f5de	0.014218776
142	0x3d210abf	0.03931689
143	0x3d788f5b	0.06068359
144	0x3d6a0da6	0.057141922
145	0x3cb8026a	0.022462089
146	0x3db0bc7e	0.08629702
147	0xbe757477	-0.23970209
148	0x3e45e668	0.19326174
149	0x3ca97d35	0.020689586
150	0x3d69064e	0.05689078
151	0xbdadd80b	-0.084884726
152	0xbc204267	-0.009781457
153	0xbe116aa8	-0.14200842
154	0x3cf4541e	0.029825266
155	0xbdb11b62	-0.08647801
156	0x3d1123df	0.0354346
157	0x3db82748	0.08991867
158	0xbd837fb1	-0.064208396
159	0x3cbd8079	0.02313255
160	0x3d8bd052	0.06826843
161	0xbd56c1fa	-0.052431084
162	0xbd26c531	-0.0407154
163	0xbde2eabf	-0.110799305
164	0xbcfe309b	-0.031029036
165	0x3e08ac70	0.1334703
166	0x3cd93b2d	0.026517475
167	0xbcd3d0cb	-0.025856396
168	0xbd5b101b	-0.053482156
169	0x3dd2be46	0.10290198
170	0x3d2d249a	0.042271234
171	0x3da52d8d	0.08065329
172	0xbc95566b	-0.018229684
173	0x3dd3322f	0.10312306
174	0xbd863220	-0.06552529
175	0x3d5b3f08	0.05352691
176	0xbd7e2161	-0.06204355
177	0x3a8506e0	0.0010149144
178	0x3d205e2c	0.03915231
179	0x3de8532e	0.1134399
180	0xbd457b60	-0.048213363
181	0xbe5ab81b	-0.21359293
182	0x3d88a7c3	0.06672623
183	0xbbf72840	-0.00754264
184	0xbccff4a7	-0.025385214
185	0x3d9dad49	0.07699067
186	0xbdd8f613	-0.1059381
187	0x3d25217c	0.040315136
188	0x3d99fe2d	0.07519183
189	0x3d4948c2	0.049141653
190	0xbb2e6b09	-0.002661409
191	0x3df65973	0.1202878
192	0xbdcbd78d	-0.099532224
193	0x3d8bb044	0.068207294
194	0xbe40c99b	-0.18826906
195	0x3e2d0c39	0.16899194
196	0x3c82727f	0.015923737
197	0x3d011b12	0.031519957
198	0xbd61a4e7	-0.055088904
199	0x3e026ea0	0.12737513
200	0x3db23390	0.08701241
201	0xbd85ee00	-0.065395355
202	0xbe2b8a5f	-0.16752003
203	0xbd3d9667	-0.046286013
204	0xbcc34cd1	-0.02384034
205	0xbd831b11	-0.06401647
206	0xbd5c5f2e	-0.053801708
207	0xbbf237eb	-0.00739192
208	0xbd1b53f1	-0.03792185
209	0x3c32ab6f	0.010905131
210	0xbd3006c4	-0.042975202
211	0xbb7db0b8	-0.003871007
212	0xbe112cc7	-0.14177237
213	0x3d914c16	0.0709459
214	0xbddc30d3	-0.107515
215	0xbda8160d	-0.08207331
216	0x3e071dee	0.13195011
217	0xbcde7040	-0.027153134
218	0x3ce880a9	0.028381662
219	0xbdccd634	-0.100017935
220	0x3e3fd18d	0.18732281
221	0x3d0121e1	0.03152645
222	0x3e0d4f59	0.137998
223	0x3d38335b	0.04497085
224	0xbd0d1e6c	-0.03445284
225	0xbe074341	-0.13209249
226	0xbdcd8e61	-0.10036922
227	0xbe0653ea	-0.13117948
228	0x3cc96316	0.02458338
229	0x3d9ebf4c	0.07751331
230	0xbdf6db2f	-0.12053525
231	0x3d3b5944	0.045739427
232	0xbdc17597	-0.094462566
233	0x3d872b8f	0.06600105
234	0xbb5e8611	-0.0033954422
235	0x3cafa417	0.021440549
236	0x3d1025de	0.035192363
237	0x3bc67a66	0.0060570715
238	0xbdbd850e	-0.09253894
239	0x3d85ab16	0.06526773
240	0xbca36aef	-0.01994845
241	0xbdadcfcd	-0.084869005
242	0x3a4ab229	0.00077322364
243	0x3da67030	0.08126867
244	0x3d64addc	0.055829868
245	0xbe08a841	-0.13345434
246	0x3d8a4c53	0.06752839
247	0xbd33cc67	-0.043896105
248	0xbdd24884	-0.102677375
249	0xbbcbefb9	-0.0062236455
250	0xbbe1ede5	-0.0068948143
251	0x3db3692b	0.087602936
252	0xbe1ef3c6	-0.1552268
253	0xbd55ad64	-0.05216731
254	0x3d82b38b	0.06381901
255	0xbe2056ae	-0.15658066

layer_x.bias f4 [128]
0	0x3ecdfd76	0.40232438
1	0x3e936923	0.2879115
2	0x3ed4731c	0.4149407
3	0x3ea2c0b7	0.31787655
4	0x3e270db3	0.1631382
5	0x3e744c5e	0.23857257
6	0x3e43ff9d	0.19140477
7	0x3dc0fb35	0.09422914
8	0x3e72f2c8	0.23725426
9	0x3e55e77a	0.20889083
10	0x3ddc2ed0	0.10751116
11	0x3e88526e	0.2662539
12	0x3e62c8fb	0.2214698
13	0x3e10db5c	0.14146179
14	0x3de08763	0.10963323
15	0x3e8bf5d8	0.27336
16	0x3e91c72a	0.28472263
17	0x3d913fec	0.0709227
18	0x3e24bd62	0.16087869
19	0x3e8f2c8a	0.27963668
20	0x3e578fc9	0.21050943
21	0x3ebac7b8	0.36480498
22	0x3e8efeb9	0.27928713
23	0x3e96ee64	0.29478753
24	0x3e7778a7	0.24167119
25	0x3e50a346	0.20374784
26	0x3e8ab27d	0.270893
27	0x3e87012f	0.2636809
28	0x3e346c09	0.17619337
29	0x3e7b2af4	0.24528104
30	0x3d53a3f7	0.05167004
31	0xbdabfd9f	-0.08397984
32	0x3e18ab6f	0.14909147
33	0x3e4cfd99	0.20018615
34	0x3e4cc4a7	0.19996892
35	0x3dd86ae9	0.105672665
36	0x3e820133	0.2539154
37	0x3e5e4045	0.21704204
38	0x3ea3e30d	0.32009163
39	0x3cefc45e	0.02926844
40	0x3e3209c3	0.17386536
41	0x3ec34c61	0.3814421
42	0x3e777930	0.24167323
43	0x3d29eae3	0.04148377
44	0x3dffdeb7	0.12493651
45	0x3e25e904	0.1620217
46	0x3e093926	0.13400707
47	0x3e32d342	0.17463401
48	0x3dccdddd	0.100032546
49	0x3e71a0aa	0.23596445
50	0x3ea1ee28	0.3162701
51	0x3ea9bca1	0.33151725
52	0x3e7cc147	0.24683104
53	0x3e6ea476	0.23304924
54	0x3e8b6118	0.27222514
55	0x3e2f2aee	0.1710622
56	0x3e3a8886	0.18216142
57	0x3e8357ca	0.25652915
58	0x3de0cf64	0.109770566
59	0x3e97db5d	0.29659548
60	0x3e17c52f	0.14821313
61	0x3e8705c7	0.26371595
62	0x3e37cdf2	0.17949656
63	0x3e0caafc	0.137371
64	0x3e94f3bf	0.29092214
65	0x3dc900a7	0.098145775
66	0xbd578a0f	-0.052621897
67	0x3e3156b2	0.17318228
68	0x3e9ff4db	0.31241497
69	0x3e8320ba	0.25610906
70	0x3e2c29a9	0.16812767
71	0x3dfe04ae	0.12403236
72	0x3e8d004f	0.27539298
73	0x3e38c61f	0.18044327
74	0x3e08e643	0.13369088
75	0x3e8062a7	0.25075266
76	0x3e5993a3	0.21247725
77	0x3e9035cc	0.28166044
78	0x3e377b6d	0.17918177
79	0x3e772bfb	0.24137871
80	0x3ea0037e	0.31252664
81	0x3ea93104	0.33045208
82	0x3e34afe3	0.1764522
83	0x3cab1f9e	0.0208891
84	0x3e3e2cb8	0.18571746
85	0x3e845f6f	0.2585406
86	0x3e8337c1	0.25628474
87	0x3eba4047	0.36377165
88	0x3e2b6f2a	0.16741624
89	0x3e201953	0.1563466
90	0x3e13d588	0.14436924
91	0x3d247098	0.04014644
92	0x3e4996e5	0.19686468
93	0x3e76afa7	0.24090444
94	0x3e8e620c	0.2780918
95	0x3e2a7b65	0.16648634
96	0x3e2cff0e	0.1689417
97	0x3df59953	0.11992135
98	0x3e732ba2	0.23747113
99	0x3e517543	0.20454888
100	0x3e1c34db	0.15254538
101	0x3e0c7d85	0.13719757
102	0x3e754fd3	0.23956232
103	0x3db48b41	0.08815623
104	0x3e9df26f	0.30849025
105	0x3e7cb865	0.24679716
106	0x3d3cadba	0.046064116
107	0x3e729ced	0.23692675
108	0x3e9ea895	0.30987993
109	0x3e58545f	0.21125935
110	0x3e4bb29f	0.19892357
111	0x3e435b6c	0.19077843
112	0x3e7f6873	0.24942188
113	0x3d29a940	0.041421175
114	0x3e8ffdf1	0.2812343
115	0x3d4f2018	0.050567716
116	0x3e7c29da	0.2462534
117	0x3e52ecc6	0.20598134
118	0x3e53d2be	0.2068586
119	0x3e940ff0	0.2891841
120	0x3e5a330d	0.21308537
121	0x3dde2a7e	0.108479485
122	0x3db72fe7	0.089446835
123	0x3d8ab483	0.06772711
124	0x3e6f77a8	0.23385489
125	0x3df54b3c	0.119772404
126	0xbd0e5754	-0.03475125
127	0x3e9a5260	0.30140972

layer_t_1.weight f4 [128, 128]
0	0x3d66b810	0.05632788
1	0xbdda69c8	-0.106647074
2	0xbd67dc76	-0.056606732
3	0xbbe8e38a	-0.007107203
4	0xbbf89869	-0.007586528
5	0x3d87077b	0.06593224
6	0xbc1ab399	-0.0094422335
7	0xbd91812e	-0.07104717
8	0x3d6da9a7	0.05802312
9	0x3d60960d	0.0548306
10	0xbd2987f7	-0.04138943
11	0x3d011cf3	0.03152175
12	0x3df6bb97	0.12047499
13	0xbafd2e68	-0.0019316198
14	0xbd35e95c	-0.044412002
15	0xbd19e45f	-0.037571307
16	0xbd2a77ce	-0.04161816
17	0xbd63ccce	-0.05561524
18	0x3d687f37	0.056761947
19	0xbd966fe6	-0.07345562
20	0x3dcc83ae	0.099860534
21	0xbc4a1577	-0.012334219
22	0xbe04e248	-0.12976944
23	0xbd81c954	-0.063372284
24	0xbdc18e4e	-0.094509706
25	0x3cb1e2c3	0.021714574
26	0xbcd8e7e8	-0.026477769
27	0x3c8f1a61	0.017468633
28	0xbcf36c1c	-0.029714637
29	0xbdc938d2	-0.09825291
30	0xbc27e209	-0.010246762
31	0x3c9b7a0d	0.018979097
32	0xbce52116	-0.027969878
33	0xbc8ff9c2	-0.017575148
34	0x3d781556	0.060567223
35	0xbd69f2d7	-0.057116356
36	0xbca29656	-0.019847076
37	0xbd2536e4	-0.04033555
38	0xbbe4292c	-0.006962916
39	0xbd70268b	-0.058630507
40	0xbbad9bc0	-0.005298108
41	0xbc766710	-0.01503922
42	0x3d51ea19	0.051248644
43	0x3d815ed7	0.063169174
44	0xbaea9fb8	-0.0017900383
45	0xbc643f75	-0.013931145
46	0x3c92cb35	0.017919162
47	0xbcaebb8e	-0.021329667
48	0x3bb70635	0.0055854567
49	0x3d6a48f9	0.0571985
50	0xbc8aac8f	-0.016927985
51	0xbcd5926f	-0.026070802
52	0xbcaa592f	-0.02079448
53	0x3db16db4	0.08663502
54	0x3d2c0101	0.041993145
55	0x3d528cff	0.051403996
56	0xbc8498c0	-0.016186118
57	0xbe8e8871	-0.27838472
58	0xbc08bba6	-0.00834552
59	0x3cfef708	0.031123653
60	0xbc16bad9	-0.009199821
61	0xbc7b616c	-0.015343051
62	0xbde59f7d	-0.112120606
63	0xbbd72d52	-0.006566682
64	0xbcf3dcc5	-0.029768357
65	0x3d93e726	0.072218224
66	0x3d8ee41d	0.06977103
67	0xbcae237f	-0.02125716
68	0xbba218dd	-0.0049468116
69	0xbd7e525a	-0.062090255
70	0x3d0bf8f6	0.034172975
71	0xbdc29e6f	-0.09502875
72	0xbbd4c4f7	-0.0064932066
73	0xbcc9bafb	-0.024625292
74	0xbd3748ba	-0.04474709
75	0x3b1bd4f1	0.0023778046
76	0xbc91aff0	-0.017784089
77	0x3d974fba	0.073882535
78	0x3d066f0c	0.032820746
79	0x3d0ef492	0.03490121
80	0x3db0f475	0.086403765
81	0xbd799ff3	-0.060943555
82	0xbd2806f3	-0.041022252
83	0xbadf9b3c	-0.0017059813
84	0xbd19fa86	-0.037592433
85	0x3d6a2cdb	0.057171684
86	0xbd0d79dc	-0.034540042
87	0xbc55907f	-0.013034939
88	0x3d1d31db	0.038377624
89	0xbc239f3a	-0.009986693
90	0xbd86dde0	-0.06585288
91	0xbca7ef8c	-0.020499967
92	0xbda4f5f1	-0.08054722
93	0x3dac0785	0.08399872
94	0xbd8cb24a	-0.068699434
95	0xbcffb482	-0.031214003
96	0xbc5e437e	-0.013565896
97	0x3cc50067	0.024048043
98	0x3cef6c4e	0.029226448
99	0x3d8c3adf	0.06847166
100	0xbd25fdfa	-0.040525414
101	0x3ca7b0f8	0.020470127
102	0x3d8f351e	0.06992553
103	0xbd90fab7	-0.0707907
104	0xbce54196	-0.027985375
105	0x3c5247ad	0.012834472
106	0x3d1be8ba	0.038063742
107	0xbd53c9d8	-0.051706165
108	0x3cb23f4b	0.021758696
109	0xbcd86566	-0.026415538
110	0xbd041328	-0.03224483
111	0xbd4731d0	-0.04863149
112	0x3c76caf8	0.01506304
113	0xbda1a19d	-0.078921534
114	0x3c2e13c0	0.010624826
115	0x3c634b3b	0.013872917
116	0xbbe68647	-0.00703505
117	0x3dcf6d8f	0.101283185
118	0xbda7148a	-0.081582144
119	0x3cf7e977	0.030262692
120	0x3e3833a2	0.17988446
121	0xbe32e4b9	-0.17470063
122	0xbd02a8bd	-0.031899203
123	0x3b39d911	0.0028358141
124	0xbc9ecc99	-0.01938467
125	0xbd5bd4ce	-0.053669743
126	0x3cb955cb	0.022623917
127	0x3db36d42	0.08761074
128	0xbc37e3f0	-0.011223778
129	0x3cd9b8a0	0.026577294
130	0xbaf7dc11	-0.0018910189
131	0x3d5212d3	0.051287483
132	0x3d8080db	0.06274577
133	0x3cdfef20	0.027335703
134	0x3d53e01d	0.051727403
135	0xbc41ebc6	-0.011835998
136	0x3d5ff3a4	0.054675713
137	0x3d7dd0d1	0.06196672
138	0x3d010b3c	0.031504855
139	0x3d051938	0.032494754
140	0x3c83bb6c	0.01608058
141	0x3c0e5062	0.008686157
142	0x3db3dcd8	0.08782357
143	0x3d722717	0.05911931
144	0x3ca3ef7d	0.020011658
145	0x3d1ba7e5	0.038001914
146	0x3d6c5996	0.057702623
147	0xbd83287e	-0.06404208
148	0x3c2d7550	0.0105870515
149	0x3d7ecd0a	0.06220726
150	0xbd23938a	-0.039935626
151	0xbd7e0a9b	-0.062021833
152	0xbb4db2a8	-0.0031387005
153	0xbd1ea6a3	-0.038733136
154	0x3b827f0f	0.0039824317
155	0xbd5e88ac	-0.05432956
156	0x3aadbba4	0.0013254774
157	0x3d493d27	0.049130585
158	0x3d58d013	0.05293281
159	0xbcbfa72f	-0.023395149
160	0x3d160400	0.03662491
161	0x3d83cd75	0.06435672
162	0x3c039441	0.008030952
163	0xbd82f780	-0.06394863
164	0xbdd8bffb	-0.10583492
165	0xbcf78e67	-0.03021927
166	0x3cc1fc87	0.023679985
167	0x3c2af641	0.010434688
168	0xbd586cee	-0.05283826
169	0x3caec3a3	0.021333521
170	0x3d299cf2	0.04140944
171	0xbb31c303	-0.0027124293
172	0xbd509a67	-0.0509285
173	0xbdfbaad9	-0.12288446
174	0xbd9acddd	-0.075587966
175	0x3dfe7139	0.12423939
176	0xbcf87e92	-0.03033379
177	0xbdc7f9c5	-0.09764437
178	0xbda26ab1	-0.07930506
179	0xbd113448	-0.03545025
180	0xbdd68a30	-0.10475576
181	0x3d430cf4	0.047619775
182	0x3d17642f	0.036960777
183	0x3d916ba0	0.07100606
184	0xbd81c463	-0.06336286
185	0x3e2de210	0.16980767
186	0xbd931593	-0.07181849
187	0xbda80fab	-0.082061134
188	0x3c8423b7	0.016130311
189	0xbd029432	-0.03187961
190	0x3bb7612c	0.0055963006
191	0x3c2b5384	0.010456923
192	0xbd81a4e9	-0.06330282
193	0x3d2a99c8	0.041650563
194	0x3cf5f953	0.030026114
195	0x3d7806b0	0.060553253
196	0x3d8910bc	0.06692645
197	0x3cf56095	0.02995328
198	0xbda4fe3d	-0.080563046
199	0x3ce49653	0.027903711
200	0xbca524bc	-0.020159118
201	0x3d5b8fae	0.05360382
202	0xbd7efde0	-0.062253833
203	0xbd3f4b10	-0.046702445
204	0xbc3dcbb4	-0.011584211
205	0xbdbc9203	-0.09207537
206	0x3d830414	0.06397262
207	0x3d4f7454	0.05064805
208	0xbc5702a7	-0.013123191
209	0x3da35fe3	0.07977273
210	0x3c03af37	0.00803738
211	0xbdcf62df	-0.1012628
212	0xbcdc3962	-0.026882831
213	0xbcae0de7	-0.021246864
214	0xbd07edbf	-0.033185717
215	0xbd28be1d	-0.04119693
216	0x3d05713b	0.032578688
217	0xbbf83c1f	-0.0075755264
218	0xbcb315fb	-0.021861067
219	0xbd13f01c	-0.036117658
220	0xbd92fd2e	-0.071771964
221	0xbdaaef41	-0.08346415
222	0x3c2c2176	0.010506025
223	0x3a95905b	0.0011410819
224	0xbd2a2f4a	-0.041549005
225	0x3cfa8a64	0.030583568
226	0xbc8b2f0e	-0.01699021
227	0xbcfe845e	-0.031068977
228	0x3d56eb14	0.05247028
229	0xbc6d1061	-0.014469237
230	0xbd513e8c	-0.05108504
231	0xbdae0b59	-0.08498258
232	0x3d34b8fe	0.044121735
233	0x3b2c4b85	0.002629013
234	0x3de1e70c	0.11030397
235	0xbd04fdd5	-0.032468636
236	0xbd7e5cef	-0.062100347
237	0x3a3fcbd8	0.0007316447
238	0xbdc2b626	-0.09507398
239	0x3d291742	0.041281946
240	0xbb65ecdb	-0.0035083804
241	0xbd2ad626	-0.041708134
242	0xbd7cb3ae	-0.061694793
243	0xbdb7456f	-0.0894879
244	0x3cb95526	0.02262361
245	0x3ca27e06	0.019835483
246	0xbd10a0af	-0.03530949
247	0x3c710e4f	0.014712884
248	0xbd9580a7	-0.07299929
249	0x3e390076	0.18066582
250	0xbd182f37	-0.037154403
251	0xbc8c2a2a	-0.01710995
252	0xbdcde9ee	-0.10054384
253	0xbd9fd933	-0.07805099
254	0xbc80667d	-0.01567387
255	0xbd85a306	-0.06525235

layer_t_1.bias f4 [128]
0	0xbc007d74	-0.00784241
1	0x3d846637	0.064648084
2	0xbb8b1266	-0.0042441366
3	0xbdb4b192	-0.08822931
4	0xbd3aa1ae	-0.045564346
5	0xbd784852	-0.060615845
6	0xbce6213b	-0.028092017
7	0xbd2d3fe0	-0.042297244
8	0xbdf8719b	-0.121310435
9	0xbd60ae7a	-0.054853894
10	0xbd5a3dff	-0.05328178
11	0x3c8eba02	0.01742268
12	0xbdb08734	-0.08619538
13	0xbd932e34	-0.07186547
14	0xbc00b47e	-0.007855533
15	0xbdbd73ca	-0.09250601
16	0xbda40080	-0.08007908
17	0x3ce4a266	0.027909469
18	0x3b9c7a1e	0.0047752997
19	0x3d0f2f19	0.034957025
20	0xbd4e758e	-0.050405078
21	0xbc31f0a0	-0.010860592
22	0xbd45480b	-0.04816441
23	0xbdab9fb2	-0.08380069
24	0xbd7f187d	-0.062279213
25	0xbdc2fbe9	-0.09520704
26	0xbd768a52	-0.060190506
27	0xbc6b9ffd	-0.014381406
28	0x3c1aa3d4	0.009438474
29	0xbe00b1b8	-0.12567794
30	0xbd0219df	-0.031762954
31	0x3cd53d8e	0.026030328
32	0xbd51c844	-0.05121638
33	0x3cad509f	0.021156607
34	0xbcb18950	-0.021671921
35	0xbd892b65	-0.0669773
36	0xbd0e4299	-0.03473148
37	0xbc0a60ef	-0.008445962
38	0xbdb3646f	-0.087593906
39	0xbbb14b0b	-0.005410557
40	0xbde12faf	-0.10995423
41	0xbc956e7f	-0.018241165
42	0x3d6379b6	0.055535994
43	0x3c044f4b	0.008075546
44	0xbd46d1df	-0.048539992
45	0x3c9b0f18	0.018928096
46	0x3c5511e9	0.013004758
47	0x3df749d8	0.120746315
48	0xbda66d72	-0.08126344
49	0x3ce1d468	0.027567104
50	0x3db94fe6	0.090484425
51	0xbce2b371	-0.027673455
52	0xbde48b6e	-0.111594066
53	0xbbcfcb5d	-0.0063413815
54	0x3b19587b	0.0023398686
55	0x3d783f9e	0.060607545
56	0xbc446ce7	-0.011988855
57	0xbd25fdef	-0.040525373
58	0x3d11e936	0.035622798
59	0xbd6c59a3	-0.05770267
60	0xbdb9c439	-0.090706296
61	0xbcf8c4f9	-0.030367361
62	0x3c1bd4d4	0.009511191
63	0x3dc53515	0.09629265
64	0xbc2f8465	-0.010712718
65	0x3cf67a0c	0.030087493
66	0xbd16fce7	-0.03686228
67	0xbdc03095	-0.09384266
68	0xbd4d659f	-0.05014574
69	0x3c9b8cc1	0.018988015
70	0xbbe35787	-0.0069379243
71	0x3d8d5ad1	0.069020875
72	0xb97a9a56	-0.00023899353
73	0xbd7eefb3	-0.062240314
74	0xbdbd5400	-0.09244537
75	0x3c86e393	0.016465938
76	0xbcab3549	-0.020899432
77	0xbce6d5c6	-0.028178107
78	0xbd7b205a	-0.06131015
79	0x3dc08657	0.09400623
80	0xbdd6c74b	-0.10487231
81	0xbc7d8f74	-0.015476096
82	0x3dd6ffec	0.10498032
83	0x3d7ca8b4	0.061684325
84	0x3cef3a28	0.029202536
85	0xbdcd1110	-0.1001302
86	0xbdd4955c	-0.103800505
87	0x3da435d0	0.080180764
88	0xbd21560f	-0.039388712
89	0xbcee36b7	-0.029078824
90	0x3c6a919d	0.0143169435
91	0xbdc0c40b	-0.09412392
92	0xbd2461c4	-0.0401323
93	0xbca5e1e1	-0.020249309
94	0x3c61efda	0.013790095
95	0xbdce6a1c	-0.100788325
96	0x3de4262d	0.11140094
97	0xbe0c2547	-0.13686095
98	0xbd3ab856	-0.045585953
99	0xbcb33fe1	-0.021881046
100	0x3d97727e	0.073948845
101	0xbc8d174c	-0.017223023
102	0xbc4302d7	-0.011902533
103	0xbc3b7fb9	-0.011444026
104	0xbc337ad4	-0.0109545775
105	0xba97405c	-0.0011539566
106	0x3da0fdb1	0.07860888
107	0xbe0320e1	-0.12805511
108	0xbd78900d	-0.060684253
109	0xbdee1dd9	-0.11626787
110	0x3d90eb87	0.07076173
111	0xbd628337	-0.055300917
112	0xbd869501	-0.06571389
113	0xbd822815	-0.06355301
114	0xbda2adfc	-0.07943341
115	0xbdff72cf	-0.1247307
116	0xbd962f26	-0.073332116
117	0xbcb46b2b	-0.022023758
118	0xbe011e5d	-0.12609239
119	0x3e0e08e6	0.13870582
120	0xbe141cdb	-0.14464132
121	0xbd7789b6	-0.060434066
122	0x3d9dc15c	0.07702896
123	0xbce7ba50	-0.028287083
124	0xbda34661	-0.07972408
125	0x3d329245	0.043596525
126	0xba0e4fc5	-0.00054287567
127	0x3aac4203	0.0013142232

layer_t_2.weight f4 [128, 128]
0	0x3d776694	0.06040056
1	0xbd77c182	-0.060487278
2	0xbd3ad0c0	-0.045609236
3	0x3cdcff95	0.02697734
4	0xbd593146	-0.053025506
5	0x3ca6972c	0.020335756
6	0xbd0e86bb	-0.034796458
7	0x3d8087b2	0.06275882
8	0xbce817a4	-0.028331585
9	0x3d029a7b	0.031885605
10	0xbcabc11c	-0.020966105
11	0x3d85de03	0.06536486
12	0x3c9481a3	0.018128222
13	0x3cf6cdff	0.030127523
14	0x3c54ea6f	0.012995346
15	0xbc17b739	-0.009259992
16	0x3caf1dd9	0.021376537
17	0xbd3f7580	-0.046742916
18	0x3d14f8e3	0.03637017
19	0xbd485c6a	-0.048916258
20	0x3d9c4a94	0.07631412
21	0x3cf16f0b	0.029471895
22	0x3d210784	0.039313808
23	0x3dbaaf31	0.09115446
24	0xbddc75c2	-0.10764648
25	0xbd3b706d	-0.045761514
26	0x3cb70ce2	0.02234501
27	0xbd85ebbe	-0.06539105
28	0xbb8a0a4e	-0.004212654
29	0x3d2baa49	0.041910443
30	0x3dc0ec75	0.094201006
31	0xb92984b3	-0.0001616653
32	0x3ddb2a3e	0.107014164
33	0xbc746e9e	-0.014918951
34	0xbce759fa	-0.028241146
35	0x3c79c7ea	0.015245417
36	0xbd0f9868	-0.035057455
37	0xbcd353c6	-0.025796782
38	0xbcb00dad	-0.021490896
39	0xbd34093b	-0.043954115
40	0xbd44c5cb	-0.048040193
41	0xbdd76fc7	-0.10519367
42	0xbb7733b7	-0.0037720033
43	0x3d94660a	0.07246025
44	0x3b28b916	0.0025745085
45	0x3d868f26	0.06570272
46	0xbc852d7c	-0.01625704
47	0xbc4b3ec6	-0.012405103
48	0x3da6a625	0.08137158
49	0x3d29a6e0	0.04141891
50	0xbd1a82c3	-0.03772236
51	0x3d4fc30b	0.050723117
52	0xbd15c170	-0.03656143
53	0xba1174ed	-0.00055487343
54	0xbe020339	-0.12696542
55	0x3dcc6572	0.09980287
56	0x3d50c522	0.05096925
57	0x3bb80761	0.005616114
58	0xbd48b4c8	-0.04900053
59	0xbd4e1ee2	-0.05032242
60	0xbc8b111a	-0.016975928
61	0x3d1ce256	0.03830179
62	0x3d852f21	0.0650313
63	0x3d496726	0.049170636
64	0xbdab7154	-0.08371225
65	0x3cee9f66	0.029128741
66	0xbd075ade	-0.033045642
67	0x3cdd30ca	0.027000804
68	0x3d253951	0.040337864
69	0xbc37d75d	-0.01122078
70	0xbcfd4ce1	-0.030920448
71	0xbbef7079	-0.007307109
72	0x3dacee54	0.08443895
73	0x3d633663	0.05547179
74	0xbcf8b23a	-0.030358423
75	0xbd9d3e9e	-0.07677959
76	0xbc706749	-0.014673063
77	0x3c0826c2	0.008310022
78	0xbb8f02b2	-0.004364335
79	0xbcbd1e32	-0.023085687
80	0x3c6cd49e	0.014454989
81	0xbd65ba9d	-0.05608617
82	0xbdff391b	-0.12462064
83	0x3db97abe	0.09056614
84	0xbda4b85c	-0.08042976
85	0x3daf2274	0.08551493
86	0x3dcc1cf8	0.09966463
87	0xbd136a8a	-0.035990275
88	0x3d7619bf	0.060083147
89	0x3c43a74d	0.011941743
90	0x3d3826eb	0.04495899
91	0xbcae0294	-0.021241464
92	0x3caa5fa7	0.020797564
93	0x3da934e3	0.082620405
94	0x3c04ec5d	0.008112994
95	0x3ca06fc0	0.019584537
96	0xbd7d9e60	-0.061918616
97	0x3da5d7e3	0.08097818
98	0x3ce518db	0.027965954
99	0xbd6600ff	-0.056153294
100	0xbc966a8d	-0.018361354
101	0x3d293a32	0.041315265
102	0x3db071bb	0.08615442
103	0x3c35a6ea	0.011087159
104	0xbd94e811	-0.07270826
105	0xbcb07ca2	-0.021543805
106	0x3bdd30e0	0.006750211
107	0xbc964701	-0.018344404
108	0xbd09bd15	-0.03362759
109	0x3c8cadeb	0.017172774
110	0xbd185522	-0.037190564
111	0xbd0602c2	-0.032717474
112	0x3d470edf	0.048598167
113	0xbd53dfdd	-0.051727165
114	0x3d95bc76	0.07311337
115	0xbd359951	-0.044335667
116	0xbca2278b	-0.019794246
117	0x3dbab6dc	0.09116909
118	0xbd59c39c	-0.053165063
119	0xbd009873	-0.031395387
120	0xbd334f0d	-0.04377656
121	0xbcc100c0	-0.023559928
122	0x3c14b938	0.009077363
123	0xbd23b010	-0.03996283
124	0x3dc367ba	0.09541269
125	0x3d0062aa	0.031344093
126	0x3c120adb	0.008913721
127	0x3d0667e7	0.032813933
128	0x3c608d84	0.013705615
129	0x3d908be8	0.07057935
130	0x3c8ccf14	0.017188586
131	0xbd52b961	-0.051446322
132	0xbc0c2234	-0.008553077
133	0xbd42567c	-0.04744576
134	0x3d111088	0.035416156
135	0xbb901ec3	-0.0043981983
136	0x3d69fdb2	0.05712671
137	0xbd1ddfab	-0.038543385
138	0x3dd5a408	0.10431677
139	0x3d2de04c	0.042450234
140	0xbca17c8d	-0.01971271
141	0xbd49f771	-0.049308244
142	0xbc0c6068	-0.008567907
143	0x3d12cdc5	0.03584077
144	0x3c4fd41b	0.012684847
145	0x3a68997a	0.00088729674
146	0xbca8cc60	-0.020605266
147	0x3c8da547	0.017290724
148	0xbd05aa7b	-0.032633286
149	0x3d7aa97e	0.061196797
150	0x3d1dcc02	0.038524635
151	0x3d61baca	0.055109777
152	0x3cb3694c	0.021900795
153	0x3c7be9b2	0.0153755415
154	0xbcc92427	-0.024553372
155	0x3d058a84	0.032602802
156	0x3c048c11	0.008090035
157	0x3d53639a	0.05160866
158	0x3c830e26	0.015997957
159	0x3dad345d	0.08457253
160	0xbcce6a81	-0.02519727
161	0x3d2c7f3a	0.04211352
162	0xbdb2d4e3	-0.08732011
163	0xbd8f2cf5	-0.06990997
164	0x3afaf326	0.001914595
165	0xbc96d6bf	-0.018412946
166	0xbd494e04	-0.049146667
167	0x3c3b11ef	0.01141785
168	0xbc304704	-0.010759119
169	0xbdcade91	-0.099057324
170	0x3d1ee8f3	0.038796376
171	0x3c6046a9	0.013688722
172	0x3c879b60	0.01655358
173	0xbd494632	-0.04913921
174	0xbd13086c	-0.035896704
175	0xbd160b08	-0.036631614
176	0x3d594c90	0.05305153
177	0x3d2eb261	0.042650584
178	0x3d408dc9	0.047010217
179	0xbcf9ed04	-0.030508526
180	0x3bda3fbb	0.0066604293
181	0xbbcc586a	-0.0062361257
182	0xbdb274fe	-0.08713721
183	0x3c9917d3	0.018688118
184	0x3d444be7	0.04792395
185	0xbd660352	-0.05615551
186	0xbcc8054d	-0.02441659
187	0xbd01cc13	-0.03168876
188	0xbcc151f4	-0.023598649
189	0x3d5417e1	0.051780585
190	0x3d10ec63	0.035381686
191	0xbd28707e	-0.041122906
192	0xbdc07b72	-0.09398545
193	0x3b79c45c	0.0038111424
194	0x3d1e285c	0.03861271
195	0xbc74bae4	-0.014937136
196	0x3ddaefef	0.10690295
197	0xbcea40c4	-0.028595336
198	0xbd21448f	-0.039372023
199	0x3c26a219	0.010170483
200	0x3c5c54c5	0.013447945
201	0xbce7af9f	-0.028281985
202	0x3cd8f99e	0.026486214
203	0xbd6bd0ca	-0.057572164
204	0xbcd0fcc1	-0.025511147
205	0xbd816037	-0.0631718
206	0xbc217161	-0.009853692
207	0xbd514c01	-0.051097874
208	0xbd152c4c	-0.036419198
209	0xbdc96f10	-0.098356366
210	0xbd85bb65	-0.06529883
211	0x3d048168	0.032349974
212	0xbab0cdf0	-0.0013489109
213	0x3b176b74	0.0023104819
214	0x3ae5ed6f	0.0017542074
215	0xbbaf075d	-0.005341454
216	0x3d308b31	0.043101493
217	0x3c57a774	0.0131624825
218	0xbbd01248	-0.0063498355
219	0xbcd7d06e	-0.026344504
220	0xbcd92bff	-0.026510237
221	0xbd7334ec	-0.059376642
222	0xbcd8994c	-0.026440285
223	0x3d2df418	0.042469114
224	0x3c38ffeb	0.011291484
225	0x3d069b88	0.03286317
226	0xbc9252ac	-0.017861687
227	0x3cfa18e1	0.030529441
228	0x3d27c8e1	0.040963057
229	0xbce5b9e2	-0.028042737
230	0x3d8ced8d	0.06881247
231	0x3d8aca9b	0.06776925
232	0xbbb1d2a1	-0.0054267203
233	0xbd26fc4c	-0.040767953
234	0xbda7cdf3	-0.081935786
235	0x3d5378b0	0.05162877
236	0xbd43f1cf	-0.04783803
237	0x3d866cd1	0.06563724
238	0x3d45af86	0.048263095
239	0xbd1c0e1a	-0.038099386
240	0xbd14878d	-0.036262084
241	0xbd14e9fd	-0.03635596
242	0x3a66aa72	0.0008799202
243	0x3d3bafde	0.045822017
244	0x3d1d5348	0.0384095
245	0x3bebd417	0.007196914
246	0xbce841ee	-0.02835175
247	0x3c824ea4	0.01590664
248	0xbcc8bc5e	-0.024503883
249	0xbbd26e3a	-0.0064218314
250	0x3ce5a946	0.028034817
251	0xbc8b29da	-0.01698773
252	0x3de14c1b	0.11000844
253	0x3c33b58b	0.010968576
254	0x3d802f06	0.06258969
255	0xbbac5e09	-0.0052602333

layer_t_2.bias f4 [128]
0	0xbded13e6	-0.11576061
1	0xbd0bb961	-0.034112338
2	0xbc973177	-0.018456204
3	0xbd0d5e96	-0.034514032
4	0xbb131e40	-0.002244845
5	0xbd5e2b33	-0.054240417
6	0xbd63ecd1	-0.055645768
7	0xbd721b8e	-0.05910831
8	0xbd9bb97d	-0.076037385
9	0xbc34dccc	-0.01103897
10	0xbd828846	-0.06373648
11	0xbdcb9b55	-0.099417366
12	0xbe050b8d	-0.12992688
13	0xbe02cd19	-0.12773551
14	0xbc28851c	-0.010285642
15	0xbcc46c9b	-0.023977568
16	0xbdc78a09	-0.09743125
17	0x3cfa6795	0.03056697
18	0xbcb6e9ea	-0.022328336
19	0xbde69151	-0.11258186
20	0xbd3bac5b	-0.045818668
21	0xbb3b007a	-0.002853422
22	0xbd228f68	-0.039687544
23	0xbdf2b333	-0.11850586
24	0xbe181f8a	-0.14855781
25	0x3a36aceb	0.0006968516
26	0xbda32c9e	-0.079674944
27	0xbdf1c43e	-0.11805008
28	0xbd2c7d5e	-0.042111747
29	0xbda752ae	-0.08170067
30	0x3c20d0da	0.009815419
31	0xbd292cdc	-0.041302547
32	0xbdb760d4	-0.089540154
33	0xbe43264b	-0.19057576
34	0xbc8f2e09	-0.017478006
35	0xbde765dc	-0.11298725
36	0xbe167511	-0.14693095
37	0xbd5c77b6	-0.053825103
38	0x3c591011	0.013248459
39	0xbdb078cd	-0.08616791
40	0x3d2531b9	0.040330622
41	0xbceb7574	-0.02874253
42	0xbd940075	-0.0722665
43	0x3c8ec56b	0.01742812
44	0xbc892f08	-0.016746059
45	0x3cc3257b	0.023821583
46	0xbcbbee39	-0.022940742
47	0xbb8f1841	-0.004366905
48	0x3d65f437	0.056141105
49	0xbda84589	-0.08216388
50	0xbc84f3e2	-0.016229574
51	0xbde36a2f	-0.11104237
52	0xbc6efd1a	-0.014586711
53	0xbde279e0	-0.11058402
54	0xbdb29004	-0.08718875
55	0x3da298b3	0.07939281
56	0xbdbe2e10	-0.092861295
57	0xbd1c25f5	-0.038122136
58	0xbe034bf1	-0.12821938
59	0xbd679b4a	-0.05654458
60	0xbe18ae86	-0.14910325
61	0x3d606b5a	0.05478988
62	0xbda4d319	-0.08048076
63	0xbd419365	-0.047259707
64	0xbd502744	-0.050818697
65	0xbdbe7f9a	-0.09301682
66	0x3d44e04e	0.048065476
67	0xbd0fda72	-0.035120435
68	0xbd67f96a	-0.056634344
69	0xbcc64dc8	-0.02420701
70	0xbe0a993f	-0.13535021
71	0xbb47580f	-0.0030417477
72	0x3c683797	0.01417341
73	0xbda7b806	-0.081893966
74	0xbd82971e	-0.063764796
75	0xbd8af1ea	-0.06784423
76	0xbcd54292	-0.02603272
77	0xbcef5e18	-0.029219672
78	0xbd0b04ea	-0.033940233
79	0xbc8ef9b9	-0.017453061
80	0xbdd813a7	-0.105506234
81	0xbe0a21fe	-0.1348953
82	0xbcddc743	-0.027072554
83	0xbdf45ef4	-0.11932173
84	0xbd1a4f90	-0.037673533
85	0xbdf23d71	-0.11828125
86	0xbce2623e	-0.027634736
87	0xbdd26ac7	-0.102742724
88	0xbdb3da43	-0.087818645
89	0xbd902847	-0.07038932
90	0xbd6327c3	-0.05545784
91	0xbd88c4ef	-0.06678187
92	0xbd844994	-0.064593464
93	0xbde527ca	-0.1118923
94	0xbdc56f3d	-0.09640358
95	0xbd9bb4c5	-0.076028384
96	0x3d0c1b93	0.034205984
97	0xbd6e451e	-0.058171384
98	0xbe01e292	-0.12684086
99	0xbd817ce3	-0.063226484
100	0xbc5ed608	-0.013600834
101	0xbd9bc760	-0.07606387
102	0xbddc4ada	-0.10756464
103	0x3d1f0aeb	0.03882877
104	0xbd311efd	-0.043242443
105	0xbb01feb2	-0.0019835648
106	0xbd91f61f	-0.07127022
107	0xbc97d280	-0.018532991
108	0xbe2d3a57	-0.16916786
109	0xbc813952	-0.015774403
110	0xbdb10dc1	-0.086452015
111	0xbe03c715	-0.12868913
112	0xbdb9899d	-0.09059451
113	0xbbfeae7b	-0.0077722645
114	0xbe1ec6fb	-0.15505593
115	0x3d13a5aa	0.03604666
116	0xbc62d784	-0.013845328
117	0xbde68d3f	-0.11257409
118	0xbd356d8a	-0.044293918
119	0xbdeddbed	-0.11614213
120	0xbded3eb2	-0.11584224
121	0x3c29d6e2	0.010366173
122	0xbb5b859a	-0.003349638
123	0xbded78a7	-0.11595278
124	0xbcdd6215	-0.027024308
125	0x3d754a77	0.05988547
126	0xbd8edff6	-0.06976311
127	0xbd4f752d	-0.050648857

layer_out_1.weight f4 [128, 128]
0	0xbb6bb6a8	-0.0035967026
1	0x3db38448	0.08765465
2	0x3d89a0df	0.06720137
3	0x3d6c7280	0.057726383
4	0xbc4abafb	-0.012373681
5	0xbdc287be	-0.09498547
6	0x3c099239	0.008396679
7	0x3d84b098	0.06478995
8	0xbd301fda	-0.042999126
9	0x3cff21ee	0.031144109
10	0x3c25e897	0.0101262545
11	0xbe026cc9	-0.1273681
12	0xbb845dc4	-0.004039498
13	0xbcf72329	-0.030168133
14	0xbcf3563a	-0.029704202
15	0xbcbc77cf	-0.023006348
16	0x3d79910e	0.06092935
17	0xbda69ba6	-0.08135156
18	0x3d9c4979	0.07631201
19	0xbddb3284	-0.107029945
20	0xbbb70dfa	-0.005586383
21	0xbd9d17c8	-0.076705515
22	0x3d7dee8e	0.06199508
23	0xbc6ecea6	-0.014575636
24	0xbd1339cd	-0.035943795
25	0x3bfd3f56	0.0077284975
26	0xbb4e8285	-0.0031510901
27	0xbc607f5c	-0.01370224
28	0x3d4b7b48	0.049678117
29	0xbd9c0bb1	-0.076194175
30	0xbd416daf	-0.047223743
31	0x3c4db329	0.012554922
32	0x3db2e885	0.08735756
33	0x3d1890bf	0.037247416
34	0xbc8df877	-0.017330391
35	0xbd28d5a1	-0.041219357
36	0xbd24df25	-0.04025187
37	0xbc438a89	-0.011934885
38	0x3d721dae	0.059110336
39	0x3d9a83b3	0.07544651
40	0x3d583470	0.052784383
41	0xbd0ef234	-0.03489895
42	0x3d8f36c6	0.06992869
43	0xbda37eed	-0.079831935
44	0x3d287545	0.041127462
45	0xbae5ebb7	-0.0017541562
46	0xbd8a137e	-0.06741999
47	0xbd2ee876	-0.04270216
48	0x3dd2e209	0.10297019
49	0x3dbe7cf0	0.09301174
50	0x3d4b0458	0.04956469
51	0x3d2ad086	0.04170277
52	0xbe0c4cc9	-0.13701166
53	0xbd80da79	-0.0629167
54	0xbd199e0b	-0.037504237
55	0xbd6c6a44	-0.05771853
56	0xbda069cb	-0.078326784
57	0xbd982d0e	-0.074304685
58	0xbdd054bc	-0.10172412
59	0x3dad8a61	0.08473659
60	0xbb8fbf5e	-0.0043868264
61	0x3cc524e5	0.024065444
62	0xbe0ec71d	-0.13943143
63	0x3d4ec16d	0.050477434
64	0xbc142a97	-0.009043357
65	0xbd0be248	-0.034151345
66	0x3d6a3a7f	0.057184692
67	0xbcacace6	-0.021078538
68	0x3d1e13e3	0.038593184
69	0x3b384e34	0.0028122785
70	0xbcd34aa8	-0.025792435
71	0x3d4e12ba	0.050310828
72	0x3df44b76	0.119284555
73	0x3d8622b0	0.06549585
74	0x3ba997c5	0.005175563
75	0xbc9e4446	-0.019319665
76	0x3d42850f	0.047490176
77	0xbd0bf6d2	-0.034170933
78	0xbd8003af	-0.062507026
79	0xbd04cf5e	-0.032424323
80	0xbc4894e0	-0.012242526
81	0x3bb7b37b	0.0056061125
82	0xbc5948b7	-0.0132619655
83	0xbd59e7b8	-0.0531995
84	0x3c6d3c64	0.01447973
85	0xbd1411d9	-0.036149833
86	0x3c9b5b31	0.018964382
87	0xbc169125	-0.009189879
88	0xbd02d23e	-0.031938784
89	0x3da188a7	0.078873925
90	0xbdd36dd0	-0.103236794
91	0xbd4658f4	-0.048424676
92	0xbde54c3d	-0.11196182
93	0xbdc66219	-0.096866794
94	0x3a7a4b45	0.0009547959
95	0xbd8993f5	-0.06717674
96	0xbd80391e	-0.06260894
97	0xbdc04540	-0.093882084
98	0x3c83ed70	0.01610443
99	0xbb288a4a	-0.0025717192
100	0xbca117fe	-0.01966476
101	0xbd2a3eb3	-0.0415637
102	0x3d13e8e8	0.03611079
103	0x3e2ce487	0.16884051
104	0x3dac6921	0.08418489
105	0x3d73196c	0.059350416
106	0x3ce8660c	0.028368972
107	0xbc86fb93	-0.016477382
108	0x3baca0eb	0.0052682064
109	0x3b0fc3ee	0.0021936852
110	0x3c02e7d5	0.007989843
111	0xbd9ca5e3	-0.07648828
112	0x3d9fe430	0.07807195
113	0x3ce7b657	0.028285189
114	0xbc61b0b4	-0.013775039
115	0xbd21393b	-0.03936122
116	0xbda90ac3	-0.08254006
117	0x3da1a86b	0.07893451
118	0xbd93e5bf	-0.07221555
119	0xbd1084d2	-0.035282917
120	0x3c6d8349	0.014496633
121	0x3c0a79e1	0.00845191
122	0x3d49cc96	0.049267374
123	0xbc9a91cf	-0.018868355
124	0xbca3e857	-0.02000825
125	0x3d63dc72	0.055630155
126	0x3cc9a374	0.024614073
127	0x3d19938c	0.037494227
128	0x3db026ea	0.08601172
129	0x3d2625aa	0.040563263
130	0x3d987f79	0.074461885
131	0xbd7fe47f	-0.06247377
132	0x3cc0027b	0.023438683
133	0x3db5424e	0.08850537
134	0x3d6c1da5	0.05764546
135	0x3dc6ae90	0.09701264
136	0x3cce9b0b	0.025220415
137	0xbc7cb4ee	-0.015423996
138	0xbcc8187a	-0.024425734
139	0x3d0047d2	0.031318493
140	0x3c981860	0.01856631
141	0xbdf2d8fd	-0.118577935
142	0xbbe4ff0a	-0.006988411
143	0xbc23a611	-0.009988324
144	0xbb8e1e76	-0.0043371273
145	0xbceb5837	-0.028728588
146	0xbd9f92fb	-0.07791706
147	0xbbfa421a	-0.0076372745
148	0x3d317f5a	0.043334343
149	0x3d1c623b	0.038179617
150	0x3d32bc19	0.043636415
151	0xbdd423bd	-0.10358379
152	0x3d252115	0.040314753
153	0xbd3dd3c6	-0.04634454
154	0x3de4d0c0	0.111726284
155	0x3ca570ec	0.020195447
156	0x3dc2e3bd	0.09516094
157	0x3d41281b	0.04715739
158	0x3c2eb245	0.01066262
159	0xbd04f0b0	-0.0324561
160	0xbd91fdc3	-0.07128479
161	0xbd64d79d	-0.055869687
162	0xbd307fa6	-0.043090485
163	0xbddf29cb	-0.10896643
164	0x3c3acfe1	0.011402101
165	0x3c2020fd	0.00977349
166	0x3d88c018	0.06677264
167	0xbd7c404f	-0.061584767
168	0xbbb67f33	-0.0055693625
169	0x3c21c88b	0.009874473
170	0x3d3652ea	0.044512667
171	0xbdc473e5	-0.09592418
172	0x3cf557fb	0.029949179
173	0xbce2063c	-0.027590863
174	0xbcc3d6c4	-0.02390612
175	0x3e2cf148	0.16888916
176	0x3ca64778	0.02029775
177	0x3c4d0492	0.012513297
178	0xbd862af8	-0.065511644
179	0xbb7e2761	-0.0038780796
180	0x3d9b0e64	0.07571104
181	0x3b6419b4	0.003480536
182	0xbd91c9e2	-0.07118584
183	0xbd6bcfdb	-0.057571273
184	0xbde0ad0f	-0.10970508
185	0x3b7aa19b	0.0038243297
186	0x3ccee0b1	0.025253626
187	0x3d09526c	0.03352587
188	0x3d8bf003	0.06832888
189	0x3c374922	0.01118687
190	0xbd982a30	-0.074299216
191	0xbd0a6af3	-0.0337934
192	0xbd8d647e	-0.06903933
193	0xbd8a55d9	-0.067546554
194	0x3d075936	0.033044063
195	0x3cd309ba	0.025761474
196	0xbb5e70c0	-0.0033941716
197	0x3d739deb	0.059476774
198	0xbaf43c64	-0.001863372
199	0xbc816cf3	-0.015799021
200	0x3cf292d5	0.02961103
201	0x3d13aa53	0.036051106
202	0x3ba3719e	0.0049879095
203	0xbd8246e6	-0.06361179
204	0x3d70f462	0.05882681
205	0xbc486a53	-0.012232381
206	0xbc54e3c6	-0.012993759
207	0x3d13b58b	0.036061805
208	0xbcecd462	-0.028909866
209	0xbd33f991	-0.043939177
210	0xbd36890e	-0.0445643
211	0x3bee30e0	0.00726901
212	0x3cd1b1df	0.02559751
213	0x3df89d7a	0.12139411
214	0xbdb71f17	-0.08941477
215	0x3d753522	0.059865125
216	0x3cc5f6f4	0.024165608
217	0xbc396d02	-0.011317493
218	0xbd02a26d	-0.031893183
219	0x3d1c49d5	0.03815635
220	0xbe06f427	-0.13179074
221	0xbcd8bff1	-0.026458712
222	0xbd668fbc	-0.05628942
223	0x3d5dc68c	0.054144427
224	0xbbac10ba	-0.0052510174
225	0x3ce67753	0.02813307
226	0xbda6aa4a	-0.08137949
227	0xbce40ace	-0.027837183
228	0xbd286958	-0.04111609
229	0xbd04a595	-0.032384474
230	0xbb1f49fb	-0.002430557
231	0xbd666e5c	-0.05625759
232	0xbd1cf053	-0.03831513
233	0x3d2eb897	0.042656507
234	0xbdf2c80e	-0.11854564
235	0x3d1a4846	0.03766658
236	0xbdc07d67	-0.093989186
237	0x3dac1ae3	0.08403566
238	0x3c108f2e	0.008823199
239	0x3c402d60	0.011729568
240	0x3cec9181	0.028877975
241	0x3d7cceb4	0.061720565
242	0xbc78562e	-0.015157266
243	0xbcd8c69c	-0.026461892
244	0xbdbbaa32	-0.091633216
245	0xbd9919c2	-0.07475616
246	0xbda7c961	-0.08192707
247	0x3d472932	0.04862327
248	0x399ab123	0.00029505146
249	0x3dbae19a	0.09125061
250	0xbc86a9f7	-0.016438467
251	0xbcc38703	-0.02386809
252	0xbd59df06	-0.053191207
253	0x3d82d2ce	0.06387864
254	0xbd80f7ab	-0.06297239
255	0x3d396e4f	0.045271214

layer_out_1.bias f4 [128]
0	0x3d632097	0.055451002
1	0x3db316a2	0.08744551
2	0xbd0c8c6e	-0.03431361
3	0x3d1b0c2b	0.0378534
4	0x3c185405	0.009297376
5	0x3dbf5b1c	0.093435496
6	0x3d1ce8dd	0.038308013
7	0x3b7e95d6	0.0038846633
8	0xbbf57ec4	-0.0074919183
9	0x3c39f49a	0.011349821
10	0xbbb31d4b	-0.0054661385
11	0xbb9193be	-0.004442661
12	0x3d3c13fc	0.045917496
13	0x3d9868b6	0.07441847
14	0x39eb8160	0.00044919085
15	0x3c2032ec	0.009777766
16	0x3d8eb99a	0.069689944
17	0x3dc2a540	0.09504175
18	0x3cfbd961	0.030743303
19	0xbd1505cf	-0.036382493
20	0xbd751b58	-0.05984053
21	0xbd51cc63	-0.05122031
22	0x3d9acdc8	0.07558781
23	0x3d2de40e	0.042453818
24	0xbdb37472	-0.087624446
25	0xbd0c31cb	-0.034227174
26	0xbcaa6610	-0.02080062
27	0x3d92376a	0.07139476
28	0x3c091538	0.008366875
29	0x3d56d4ee	0.05244916
30	0xbd5e496b	-0.054269236
31	0x3d31317a	0.043260075
32	0x3d7c9e2c	0.061674282
33	0xbd4f306c	-0.050583288
34	0x3d3fda2c	0.046838924
35	0x3cf8cd19	0.030371236
36	0xbd43d8b4	-0.047814086
37	0x3be703fe	0.0070500365
38	0xbd195a84	-0.037439838
39	0x3d64c002	0.055847175
40	0x3c9f4d7f	0.019446133
41	0xbd1239d7	-0.03569969
42	0x3d19a704	0.037512794
43	0x3cc0d3db	0.02353852
44	0x3d7608dc	0.060067043
45	0x3da7a67d	0.08186052
46	0xbc068bce	-0.008212043
47	0x3d7b25bf	0.061315294
48	0x3be351f2	0.006937259
49	0x3de10419	0.1098711
50	0x3d0ae946	0.033913873
51	0x3dc92ae6	0.09822635
52	0x3c29da9c	0.010367062
53	0x3cfd0ee0	0.030890882
54	0x3d17449f	0.036930677
55	0xbd757cc4	-0.05993344
56	0x3d85f477	0.065407686
57	0xbd10ffc6	-0.035400175
58	0x3d87ef16	0.06637399
59	0x3cbddec3	0.02317751
60	0xbca91ae6	-0.020642709
61	0x3d727214	0.059190825
62	0xbc170b63	-0.009219023
63	0xbd277783	-0.04088546
64	0x3dca4a0a	0.09877403
65	0xbd27e7e9	-0.04099265
66	0xbd924882	-0.07142736
67	0xbd3babda	-0.045818187
68	0x3d96a96a	0.07356532
69	0xbdf60f22	-0.12014605
70	0x3b013f14	0.0019721435
71	0x3c1080e2	0.008819791
72	0x3d279e8f	0.040922698
73	0x3d891ce7	0.06694966
74	0x3de09bff	0.10967254
75	0xbc43690a	-0.011926899
76	0x3b2c70d3	0.0026312366
77	0x3d6f8360	0.0584749
78	0x3d06f1bd	0.032945383
79	0x3d05c45c	0.032657966
80	0xbcaaa0c9	-0.020828621
81	0x3d9504c1	0.07276297
82	0xbb9af219	-0.0047285673
83	0x3d757bd4	0.059932545
84	0xbcf03022	-0.029319827
85	0xbdcf7090	-0.101288915
86	0xbe119bc1	-0.14219572
87	0xbdb11184	-0.08645919
88	0x3db0389a	0.08604546
89	0xbc098cb5	-0.008395364
90	0x3d0ce912	0.03440196
91	0xbd8cdbe0	-0.06877875
92	0x3c3d42ff	0.011551618
93	0x3c142211	0.009041325
94	0x3b78b0b8	0.003794713
95	0xbd545053	-0.051834416
96	0x3d0710aa	0.032974876
97	0x3c138010	0.0090027
98	0x3d833a3e	0.06407593
99	0xbccdf6b1	-0.025142046
100	0xbbc62f93	-0.0060481518
101	0xbc2cb88c	-0.010542046
102	0x3bfe5f58	0.0077628307
103	0xbd32b374	-0.04362817
104	0xbca3f77b	-0.020015469
105	0xbbfc0a76	-0.0076916767
106	0xbd1566d3	-0.036475014
107	0x3d12054b	0.03564958
108	0x3db943c2	0.09046127
109	0x3d957907	0.07298475
110	0xbd6673cb	-0.056262773
111	0x3d2836af	0.041067775
112	0x3c6e7cd8	0.014556132
113	0x3db2d8dc	0.08732769
114	0x3d044e10	0.03230101
115	0xbcbf08e7	-0.023319675
116	0x3cff714c	0.031181954
117	0xbcf7cca1	-0.030248942
118	0x3c34368f	0.010999336
119	0x3d6cf3fd	0.057849873
120	0x3d94b5d5	0.07261244
121	0x3d9e2a7e	0.077229485
122	0x3b1928a0	0.0023370162
123	0x3d5e7e7c	0.054319844
124	0xbe06a893	-0.13150243
125	0x3d01c382	0.03168059
126	0x3d7ea953	0.0621732
127	0x3dc3fc92	0.09569658

layer_out_2.weight f4 [53, 128]
0	0x3d9c105d	0.076203085
1	0xbd716c92	-0.05894143
2	0x3daa94d0	0.08329165
3	0x3b0ab70a	0.0021166229
4	0x3d11bb90	0.035579264
5	0x3d3d4411	0.04620749
6	0x3d3d37b4	0.0461957
7	0xbde56463	-0.11200788
8	0x3d1996b2	0.03749723
9	0x3d0873df	0.03331363
10	0xbcf0cc41	-0.02939427
11	0x39981ef5	0.00029014764
12	0x3c8b4878	0.01700233
13	0xbde11d9f	-0.10991978
14	0xbd4c98f3	-0.04995055
15	0xbd4a688d	-0.049416114
16	0x3d305ef6	0.04305931
17	0x3d2fc28f	0.042910155
18	0xbdb52b2c	-0.08846125
19	0xbbcb9e5b	-0.006213946
20	0xbb824218	-0.003975164
21	0x3da6f785	0.08152679
22	0x3b504a12	0.003178243
23	0x3e05603c	0.13024992
24	0x3d3c5768	0.045981795
25	0xbd527d2e	-0.051388912
26	0xbd53eb96	-0.051738344
27	0x3d4fb745	0.05071189
28	0xbc694f4b	-0.014240096
29	0x3d20230d	0.039095927
30	0x3d006a7f	0.031351563
31	0xbcf20fac	-0.029548489
32	0x3cfcaad6	0.03084318
33	0xbcb592b2	-0.022164676
34	0xbd8e5dc8	-0.06951481
35	0x3c474069	0.012161353
36	0x3d17a11a	0.037018873
37	0x3d534512	0.051579542
38	0xbd346578	-0.04404208
39	0x3d35cf5d	0.04438721
40	0xbd69bdb5	-0.057065684
41	0xbce904d8	-0.028444692
42	0xbd5d8b9b	-0.054088216
43	0x3d223140	0.03959775
44	0xbd25e9f5	-0.040506322
45	0xbcc3752a	-0.02385958
46	0xbbb07411	-0.00538493
47	0xbdd344a9	-0.1031583
48	0x3dc17348	0.09445816
49	0xbd01d08d	-0.03169303
50	0xbb6bf0cc	-0.003600168
51	0x3c3a7a20	0.011381656
52	0x3d20f618	0.039297193
53	0x3b4fbcf9	0.003169833
54	0xbc4d20a6	-0.012519991
55	0xbd98be6d	-0.07458196
56	0xbc83f94e	-0.016110089
57	0xbbc1c94a	-0.005913888
58	0x3deecf18	0.11660594
59	0xbd300831	-0.042976562
60	0x3cfe68f6	0.031055909
61	0x3dbf0a53	0.09328141
62	0x3cacbda0	0.021086514
63	0xbca4880b	-0.020084402
64	0xbb31cc22	-0.002712973
65	0xbca323aa	-0.019914467
66	0xbcebf9e9	-0.02880569
67	0x3d206d10	0.03916651
68	0xbdfc9577	-0.12333196
69	0xbda0dd20	-0.07854676
70	0x3cd157d7	0.02555458
71	0x3d5a39ac	0.053277656
72	0xbb0216cc	-0.0019850014
73	0xbd4d9daf	-0.050199207
74	0xbdea9868	-0.114548504
75	0x3d76c61f	0.060247537
76	0xbe0c83b2	-0.13722113
77	0xbd0730d6	-0.033005558
78	0x3d098ffa	0.033584572
79	0x3db4618b	0.08807667
80	0x3bdd8bcb	0.0067610494
81	0x3c93f20c	0.018059753
82	0x3d201145	0.03907897
83	0xbd507f50	-0.050902665
84	0x3d8c6cd5	0.068566956
85	0xbd4ae941	-0.049538855
86	0xbbd1672e	-0.006390474
87	0x3d6e0935	0.05811425
88	0xbb886e38	-0.0041635297
89	0xbcd6ffe6	-0.026245069
90	0x3cfaff9a	0.030639458
91	0xbd8513c1	-0.064979084
92	0xbda523c0	-0.080634594
93	0xbd6357c5	-0.055503625
94	0x3d549a40	0.051904917
95	0xbd2777be	-0.04088568
96	0xbbf30ac7	-0.0074170562
97	0x3c84681b	0.016162923
98	0x3d83ff51	0.06445182
99	0xbe244b27	-0.16044293
100	0x3d37e287	0.044893768
101	0xbe0561da	-0.13025609
102	0x3d8f7e3b	0.070064984
103	0x3cf854e5	0.030313918
104	0xbd096055	-0.033539135
105	0x3cad2050	0.021133572
106	0x3d2f3b13	0.042780947
107	0x3d4e748b	0.050404113
108	0x3b7ba27c	0.0038396409
109	0x3d670527	0.056401398
110	0xbd98b5d0	-0.07456553
111	0xb89fd809	-7.6219505e-05
112	0xbdedc38b	-0.116095625
113	0x3d06807b	0.032837372
114	0x3ca026cb	0.019549748
115	0xbdaf2d34	-0.08553544
116	0x3d6c7762	0.05773104
117	0xbd312420	-0.043247342
118	0xbd360e7f	-0.04444742
119	0xbce68a4e	-0.02814212
120	0x3c7287cf	0.014802887
121	0xbbd12cac	-0.006383499
122	0x3cce73fc	0.02520179
123	0x3d344cdd	0.044018615
124	0xb8e6687e	-0.00010986718
125	0xbc207eaa	-0.009795824
126	0xbafe259b	-0.0019389869
127	0x3da989ca	0.08278234
128	0xbd85c40a	-0.06531532
129	0xbd30ea0f	-0.043191966
130	0xbd17af2f	-0.037032302
131	0xbdd40f68	-0.10354501
132	0x3d3e4730	0.04645461
133	0xbc8c610b	-0.017136117
134	0x3de098e3	0.10966661
135	0xbcb94340	-0.022615075
136	0x3bbaaee1	0.0056971167
137	0x3d9aa4c9	0.075509615
138	0xbb4485c6	-0.0029986962
139	0x3d0cfdfa	0.0344219
140	0x3c8b27ae	0.016986694
141	0xbdf22d55	-0.11825053
142	0x3db06cce	0.08614503
143	0x3c9a23ff	0.018815992
144	0x3d33eeb3	0.043928813
145	0xbd5b5df0	-0.053556383
146	0x3cff138d	0.031137252
147	0x3def146f	0.11673819
148	0x3c9e2cf8	0.019308552
149	0xbd7aa386	-0.061191104
150	0x3d7d94fa	0.061909653
151	0x3c96f6ba	0.018428195
152	0x3b04530b	0.00201911
153	0xbd104d7f	-0.035230156
154	0x3d8eb52a	0.06968148
155	0x3cf5c37e	0.030000445
156	0x3c330cc8	0.01092834
157	0x3d912cf0	0.07088649
158	0x3d02d342	0.031939752
159	0xbd2cfd3f	-0.0422337
160	0x3c9d16af	0.019175855
161	0x3d914577	0.070933275
162	0x3da5f82e	0.08103977
163	0xbdce1662	-0.10062863
164	0xbce60b43	-0.028081542
165	0xbc8579c7	-0.01629342
166	0xbd26cd74	-0.04072328
167	0xbcf7ba8c	-0.03024032
168	0xbd099137	-0.033585753
169	0xbdec7b73	-0.115469836
170	0xbd05395b	-0.0325254
171	0x3ddf851c	0.109140605
172	0x3cabcce9	0.020971732
173	0xbcc3de9e	-0.023909863
174	0xbd292d17	-0.041302767
175	0xbd0e4de3	-0.034742247
176	0xbe024732	-0.12722471
177	0x3cb117f0	0.02161786
178	0xbd2dd2c4	-0.04243733
179	0x3d2b60aa	0.041840233
180	0xbc389eff	-0.011268376
181	0x3d513bc7	0.0510824
182	0xbd7657ce	-0.06014233
183	0x3d0655b0	0.03279656
184	0xbbe58eea	-0.007005562
185	0xbd949f75	-0.072569765
186	0x3c7829df	0.015146702
187	0x3d5ace37	0.053419318
188	0xbd82c2be	-0.063848004
189	0xbd1b2b40	-0.037883043
190	0xbc983a1e	-0.0185824
191	0xbcfaa6fd	-0.030597204
192	0x3d04a367	0.032382395
193	0x3d88f2b9	0.06686921
194	0x3ccf3105	0.025291929
195	0xbcaa30ca	-0.020775218
196	0xbdc47f83	-0.095946334
197	0xbca3b006	-0.019981395
198	0x3b31c8da	0.0027127774
199	0xbd8ce336	-0.068792745
200	0xbbb96db3	-0.005658829
201	0x3dd3f7e6	0.10350017
202	0xbcc5e916	-0.024158996
203	0xbd85b434	-0.06528512
204	0x3ce22886	0.027607214
205	0x3cfd30cb	0.030907055
206	0xbd79a09b	-0.06094418
207	0x3ce4fa45	0.027951369
208	0x3c5e4a18	0.01356747
209	0xbbd6b299	-0.006552052
210	0xbb850ad4	-0.0040601287
211	0x3cd2eef9	0.025748717
212	0x3d3893c4	0.045062795
213	0xbdb7f6c6	-0.08982615
214	0xbdbf4baa	-0.09340604
215	0x3d5099e4	0.05092801
216	0xbc6f7bfc	-0.0146169625
217	0xbd0a1365	-0.033709902
218	0xbc187afc	-0.0093066655
219	0x3d895cdf	0.06707167
220	0x3da1bdeb	0.07897552
221	0xbc387be6	-0.011260008
222	0x3d7a015c	0.061036453
223	0xbcafa8cf	-0.021442799
224	0x3cd79b17	0.02631907
225	0x3ce6ed54	0.028189339
226	0x3b59a253	0.0033208325
227	0x388e4ac4	6.785014e-05
228	0xbc49e338	-0.01232224
229	0x3d95fd9d	0.073237635
230	0xbd933c73	-0.07189264
231	0x3d86aaf3	0.06575575
232	0xbd56cd38	-0.052441806
233	0x3d9f3014	0.07772842
234	0x3c814e3d	0.015784377
235	0xbd6e4ac1	-0.05817676
236	0x3cb36715	0.02189974
237	0xbdace5d8	-0.08442277
238	0xbd056d76	-0.032575093
239	0x3d51f0ce	0.05125504
240	0xbdbbd360	-0.09171176
241	0x3d94ac81	0.07259465
242	0xbcf23454	-0.029565968
243	0xbd8c92c0	-0.06863928
244	0xbc9a1740	-0.018809915
245	0xbd89b2df	-0.0672357
246	0xbd0f0127	-0.03491321
247	0x3c963aae	0.018338528
248	0xbc2bb13b	-0.010479267
249	0x3ce001e5	0.027344653
250	0xbbbd358b	-0.005774205
251	0xbd821456	-0.06351535
252	0x3d2e13a8	0.042499214
253	0x3e007c28	0.12547362
254	0x3daa2a71	0.08308876
255	0x3d29db65	0.041468997

layer_out_2.bias f4 [53]
0	0x3b83604d	0.0040092827
1	0x3c2ad830	0.01042752
2	0x3a01137c	0.0004923863
3	0x3bbf9284	0.0058463234
4	0xbbf9c037	-0.0076217907
5	0x3b0d5f9f	0.0021571887
6	0xbc189bc7	-0.009314484
7	0x3b598763	0.003319227
8	0x3bbc8809	0.0057535213
9	0xbbabf1c1	-0.005247325
10	0xbb32bfc3	-0.0027274943
11	0x39f48f7d	0.00046646214
12	0xbb731713	-0.003709261
13	0x3aa0c639	0.0012266106
14	0x3b1af82e	0.0023646462
15	0xbb98c6e4	-0.0046623815
16	0xbb572ead	-0.0032834217
17	0xbc10343d	-0.008801517
18	0xbb91bd64	-0.004447626
19	0x3b817a23	0.0039513274
20	0x3b84e565	0.0040556663
21	0xbc28250b	-0.010262738
22	0xbb1e7463	-0.0024178259
23	0x3a89f83b	0.0010526249
24	0xbba76340	-0.005108267
25	0xbb033486	-0.002002032
26	0xbb9137fe	-0.0044317236
27	0xbbd36d68	-0.006452251
28	0x3b649c03	0.003488303
29	0xbc357e56	-0.011077484
30	0xbb2fad23	-0.0026806078
31	0xbb81da70	-0.0039628074
32	0xbc1c50a0	-0.009540707
33	0x3bfd9896	0.007739137
34	0xbbba40d2	-0.0056839967
35	0x3b9e4385	0.0048298263
36	0x3b695d06	0.0035608425
37	0xbb93100e	-0.004487998
38	0x3b0261f1	0.0019894803
39	0x3b0c7991	0.0021434764
40	0xbc102fc6	-0.008800453
41	0xbbef644e	-0.0073056584
42	0xbc85cfb8	-0.0163344
43	0x3a8d518e	0.0010781751
44	0xbb503e9c	-0.00317756
45	0xba0c077b	-0.0005341691
46	0xba874224	-0.0010319394
47	0xbb651694	-0.0034956085
48	0x3bb7019f	0.00558491
49	0x3c1708ab	0.009218375
50	0xb91cb5e5	-0.0001494508
51	0xbb64e650	-0.0034927316
52	0xbb1ee33c	-0.002424433
